outputs/E4_BPlus/E4A_base_seed0/best_feasible.pt (torch, 982003 bytes, 68 tensors)

actor_backbone.0.weight f4 [128, 22]
000000 77 f7 3b be 5a e3 1b bd 72 f3 97 3e 21 e7 64 3d
       -0.18356119 -0.038058616 0.29677922 0.055884484
000010 dc ea a8 bd 66 b8 6a bc 4f e6 c7 bd 62 5e 67 3d
       -0.08247921 -0.014326191 -0.09760725 0.056486495
000020 af 12 13 be 5a a5 cc 3d ba bd 28 bd 5e d5 42 be
       -0.14362596 0.09992476 -0.041196562 -0.19026706
000030 e7 96 61 bc ef 91 0b 3e 42 c5 25 be 6a f2 39 3d
       -0.013768888 0.13629888 -0.16188529 0.0453972
000040 ef ba 09 3d f4 bf 57 bd 59 e9 10 3e 96 a3 66 3d
       0.03362554 -0.052673295 0.14151515 0.05630835
000050 6f 4b 7b 3e bf 6f 6c be db ee cc 3c 95 57 14 3e
       0.24540494 -0.23089503 0.025016239 0.14486535
000060 e9 d0 59 be d3 22 6c bd 27 3a 16 be 8e 05 a6 bc
       -0.21271099 -0.0576504 -0.14670621 -0.02026632
000070 73 9e 15 3d 57 98 ef bd e7 fb 4e 3e bc e0 49 3d
       0.036528062 -0.116989784 0.2021328 0.04928659
000080 1f 9f 5d 3e a8 62 39 bd 14 48 2e be 1b ac 82 bc
       0.21642731 -0.0452601 -0.17019683 -0.015951207
000090 50 92 e9 3c d3 77 33 3e 13 77 04 bd a4 98 9b bc
       0.02851215 0.17526178 -0.03234012 -0.018993683
0000a0 2a 74 a2 bc 25 4c ec bd c9 35 cb 3d 6d 22 16 3e
       -0.019830782 -0.11537961 0.09922368 0.1466157
0000b0 c0 43 e3 be 37 20 c5 bd f0 ca d9 bd bf 1e 4a 3d
       -0.44387627 -0.09625285 -0.106344104 0.049345728
0000c0 7f c9 af bd a8 97 4b bd 36 46 78 bc 04 86 4e 3c
       -0.08583354 -0.049705178 -0.015153458 0.012605194
0000d0 af 94 95 3c 61 f1 05 ba 8f 71 ab bd 43 1e d6 3d
       0.018259374 -0.00051095156 -0.08371269 0.10454991
0000e0 21 40 ec 3d c1 b2 b4 3c 28 fa 03 3e 18 cd 31 bc
       0.11535669 0.022057893 0.12888396 -0.010852121
0000f0 f7 89 3f be c4 6e e3 3c ed d7 12 3b 4d 88 9d 3c
       -0.18704973 0.027762778 0.0022406534 0.019230032
000100 50 8a a4 3e 60 af 7c bd d1 2c d3 39 44 75 8a 3e
       0.32136774 -0.061690688 0.00040278447 0.27042592
000110 b9 79 5c bd 44 8a db bd 5f da 3e bd e0 ab db bd
       -0.05382702 -0.107197315 -0.046594974 -0.10726142
000120 11 2f 28 bd ce d3 e0 3d 8e 9a 15 be 51 17 c9 3d
       -0.04106051 0.109778985 -0.14609739 0.098189004
000130 89 42 30 bd 31 84 64 be fb a5 00 bd 02 7c 3b 3e
       -0.043032203 -0.22316052 -0.03140829 0.18309024
000140 2e 42 eb bb 45 7c 60 bd 24 57 36 3d 18 56 c4 bc
       -0.00717952 -0.054806013 0.044516698 -0.023966834
000150 52 d3 82 3d af 8e 08 3e 9c 50 a6 bd 01 4c d2 3c
       0.063879624 0.1333568 -0.08120844 0.025671007
000160 48 04 cc be cc 07 27 3e f8 d7 98 3e 34 56 2e be
       -0.39847016 0.16311568 0.2985227 -0.17025071
000170 1d 56 00 3e 19 ce 1f 3d cd 36 48 be 65 27 ce 3d
       0.1253285 0.03901491 -0.19552155 0.10066108
000180 f0 5b ec bb eb 43 5b 3d 33 2b cb bd b4 a3 9b bc
       -0.0072131082 0.05353157 -0.09920349 -0.018998958
000190 ce 84 fe bd 04 78 c5 3d 38 fc 4c 3e dc ff 6a bd
       -0.12427674 0.09642032 0.20018089 -0.057372913
0001a0 4d dc 53 3d 7c 0c ac 3b 08 3b 4e bc 90 0c 0d be
       0.051723767 0.0052505117 -0.012587316 -0.13774323
0001b0 69 45 9c 39 d4 51 93 bd b0 c6 cd bd a9 02 3c be
       0.00029806353 -0.07193342 -0.10047662 -0.1836039
0001c0 d0 50 ef 3d 79 e4 07 3e cc 42 0f 3d 94 ef 89 bd
       0.11685336 0.13270749 0.03497581 -0.06735149
0001d0 5a 6c fd bd 0d 5c 64 bd 8c 7f f6 bc c3 15 ed bc
       -0.12374182 -0.05575185 -0.030090116 -0.02894104
0001e0 38 ed 26 3e 59 3a b4 bd b3 60 05 bd 6a 7a dc 3d
       0.1630143 -0.088001914 -0.032562923 0.10765536
0001f0 e4 db 4a be dd cc 31 bd 7f 44 68 be 3c b8 d3 bd
       -0.19810444 -0.043408263 -0.22682379 -0.10337874
000200 89 84 ce be 3b a8 01 3d 6b c2 9f 3c 24 e6 c4 3d
       -0.4033549 0.031654578 0.019501885 0.09614208
000210 c8 7a df be 09 9f d3 bd ad 15 09 3a e1 d4 1a bd
       -0.43648362 -0.10333068 0.0005229365 -0.037800673
000220 53 e1 ac bd 20 18 4d be 6a bb 93 3d 46 35 20 bd
       -0.08441415 -0.20028734 0.07213481 -0.039113306
000230 cf 28 5c 3d 49 c2 a6 bc 14 c9 c4 bd d9 36 b5 3d
       0.053749856 -0.020356314 -0.09608665 0.08848352
000240 d5 53 72 bd e2 ed e8 bd 44 91 82 3b a0 10 11 3e
       -0.05916198 -0.113734975 0.003984602 0.14166498
000250 01 d9 86 3e 1c 32 9c bd 4e 31 33 3c f4 3e 32 bc
       0.26337436 -0.07626745 0.010937048 -0.010879267
000260 8d 78 8e 3d 1f 3a 46 be f2 76 33 3e e4 2f b5 be
       0.06956587 -0.19358109 0.17525843 -0.353881
000270 82 2d 65 3d 5a c5 13 3e 38 ad 62 3d 09 00 1a 3d
       0.055951603 0.14430752 0.055340976 0.03759769
000280 9d 10 31 bd 6e ad b1 bd e8 3f 03 bd 76 01 3c 3d
       -0.043228734 -0.08675657 -0.032043368 0.04589983
000290 46 39 36 be f2 92 6b be 79 2d 77 3d 7e 5b db bc
       -0.17795286 -0.23005274 0.0603461 -0.026777025
0002a0 5c 2f 55 3e 88 ce 0b bd 72 64 f9 ba 8e 72 22 3e
       0.20818847 -0.03413251 -0.0019027127 0.15864012
0002b0 7f b4 a1 3c bc 5a 26 3e cd 69 a5 3d 93 2d 06 3d
       0.019739388 0.1624555 0.080768205 0.032758307
0002c0 3a 7e bd 3e 8a af f0 bd 0b 0e 0a 3d 5c 6e 86 bd
       0.37010366 -0.117522314 0.0337048 -0.06564018
0002d0 3f d3 53 be 43 5e e8 3c b1 23 1e be ef 83 0e 3e
       -0.20686053 0.02836526 -0.15443303 0.13917516
0002e0 36 e8 2e bd 8d 49 b6 bc 47 a8 cf 3d 4b 2e 8c 3b
       -0.042701922 -0.022251869 0.10139518 0.0042779795
0002f0 ea ce d2 bc d2 02 49 bd a3 d1 1b be 67 e1 60 bd
       -0.02573343 -0.049074955 -0.15216689 -0.05490246
000300 0a 10 d0 bd 18 23 a8 3d 03 df 3f bc d3 40 da 3d
       -0.10159309 0.082098186 -0.011710885 0.106568955
000310 52 5b e5 3d fb ec 88 3e 56 1e 92 be 9b 16 06 3e
       0.111990586 0.26743302 -0.2853877 0.13094561
000320 f2 39 23 3e 0f 97 79 3c d7 fa 3c 3d b1 fd 9d bd
       0.15940073 0.015233769 0.046137657 -0.077144034
000330 bf c8 3c bc 76 55 80 3d b8 cb 27 3e e7 12 43 be
       -0.011522471 0.062663004 0.16386306 -0.1905018
000340 29 d5 fd bc e4 6f a0 3c 12 28 19 bd 37 6d f9 bc
       -0.030985432 0.019584604 -0.03739173 -0.030447586
000350 c8 b5 05 be ee 42 4c bb 0a eb b5 bc 12 c9 3e bd
       -0.13057625 -0.0031167823 -0.022206802 -0.046578474
000360 24 10 26 bc 48 8a 15 3d e2 b4 3d 3e 4c 89 1c bd
       -0.010135684 0.03650883 0.18526033 -0.038216874
000370 6c 7c 43 3e 6d aa dc be 0a 95 98 bd b7 88 90 3d
       0.19090432 -0.43098775 -0.07450302 0.07057326
000380 ea a3 a6 bc bb 8b 3e be 3c 8e 84 3b 33 35 0a 3e
       -0.020341832 -0.1860799 0.004045276 0.13496856
000390 2d aa ec bd 97 4a 96 3d 8b 93 d3 3d 43 52 57 bd
       -0.11555896 0.07338446 0.10330876 -0.052568685
0003a0 61 e3 2f ba da 34 b6 bd 47 c3 c3 bd d5 69 4a bd
       -0.00067096023 -0.088967994 -0.095587306 -0.049417336
0003b0 2a 12 1e 3b a4 de 87 bd 3e 2b 42 3e 4d e6 12 bd
       0.0024119713 -0.06634262 0.18961808 -0.035864163
0003c0 e3 5e 96 3d b2 31 8f 3d 93 98 1a 3e 0e 23 a6 3e
       0.07342317 0.069919005 0.15097265 0.3244862
0003d0 17 b9 87 bd a5 cc d5 bd ae 7d f9 bd f2 2c b0 3c
       -0.066271 -0.104394235 -0.121821746 0.021505807
0003e0 a2 e7 af bd 6e d3 06 be 72 94 ad bc fd 82 5f bd
       -0.08589102 -0.13166592 -0.021188948 -0.05456828
0003f0 d4 45 af 3d 27 71 7a bd d3 09 60 3c 2d 46 97 bd
       0.085582405 -0.061143067 0.013674217 -0.07386432

actor_backbone.0.bias f4 [128]
000000 6c 29 97 3e 58 a4 d3 be ea 32 8f 3e 4b a1 88 be
       0.2952379 -0.41336322 0.27968532 -0.26685557
000010 83 18 8a 3d 6e 9a 44 be 47 00 a8 3e b8 56 86 3e
       0.067429565 -0.19199535 0.32812712 0.26238036
000020 e3 5f 3a 3e 67 9d a3 be 85 43 8a 3e 20 53 eb be
       0.1820064 -0.31956026 0.27004638 -0.45961857
000030 89 b6 cd 3c bd ee 94 3e 00 5d b2 be a9 ca b7 3d
       0.025111454 0.29088393 -0.34836578 0.08974201
000040 37 6c 31 be 51 e7 b9 3e 58 37 8c 3e a9 23 ab 3e
       -0.17326437 0.36309293 0.27385974 0.33425644
000050 46 4d 44 be 7a ab a8 3e de b3 cd 3e 2a d6 97 3e
       -0.19170102 0.32943326 0.4017629 0.29655582
000060 2e 7d 74 be ad 3e 96 3e 3c e7 8b be f8 ac 85 3e
       -0.23875877 0.29344693 -0.27324855 0.26108527
000070 3b b9 86 be 7b 62 a9 3e 6a 5d 94 be ab 9f 08 3e
       -0.26313195 0.33082947 -0.2897752 0.13342158
000080 22 ec 23 be d5 2b 9e be 46 29 a3 be 44 97 3f be
       -0.16008046 -0.30892816 -0.31867427 -0.18710047
000090 3e 39 6f be 89 2c 82 be 55 d0 9d 3e 06 4e 0c 3e
       -0.2336168 -0.25424603 0.30823007 0.13701639
0000a0 d0 0d ac 3e 1e c6 4c be 21 26 73 3e bf b4 75 3e
       0.33604288 -0.1999745 0.23745014 0.2399473
0000b0 77 7c 93 be db 64 5f 3e 84 4a ae 3e 3c be c6 3e
       -0.28805897 0.21815817 0.34041226 0.38817012
0000c0 ab 40 1e 3e fa 6d a7 be 15 75 6b be ff 03 2e be
       0.15454356 -0.32701093 -0.22993882 -0.16993712
0000d0 6f d7 b4 3e 9e 25 3c 3e 6d c1 84 3e 40 90 29 be
       0.35320613 0.18373725 0.25928822 -0.16558933
0000e0 80 c6 96 be 58 4c a6 be b3 83 93 3e d8 c0 3a 3d
       -0.29448318 -0.3248012 0.28811416 0.045594066
0000f0 fa 13 16 3e 99 53 94 be 52 19 15 be 4c 8d 96 be
       0.14656058 -0.2897003 -0.1456044 -0.29404676
000100 0b b7 19 bc b9 4f a4 be 46 f5 aa 3e e6 41 b9 3e
       -0.00938202 -0.32092074 0.33390254 0.3618309
000110 38 92 88 be 36 9c 96 be 4c 84 5e 3e 4d 6f 5a 3e
       -0.26674056 -0.29416054 0.21730155 0.2133152
000120 fa 63 a4 3d 90 3b 93 bd 26 0e 93 3e 55 6d 17 bc
       0.080268815 -0.07189095 0.28721732 -0.009242375
000130 16 ba 99 3e 1d 8f c4 3e 19 93 9f be 6d d2 b6 3e
       0.30024785 0.38390437 -0.31166914 0.35707417
000140 43 ff b9 bc 6c 2d a7 be a4 ed 5c 3e a5 86 bc be
       -0.022704726 -0.32651842 0.21575028 -0.36821476
000150 ce 73 a7 3e dc 32 67 be 12 ff b7 be f5 0c 21 3e
       0.3270554 -0.22577995 -0.3593679 0.15727599
000160 15 1c a7 be 41 65 a7 3e 85 61 cf be 2c bf 98 be
       -0.32638612 0.32694438 -0.4050409 -0.29833353
000170 48 dc 93 be e4 10 32 be ba 72 a2 3e 4f 2a a6 3e
       -0.28879 -0.17389256 0.31728154 0.32454154
000180 10 2c 70 be 43 d3 79 3e 84 d8 8f 3e f1 cf 63 be
       -0.23454309 0.24396996 0.28094876 -0.22247292
000190 0c 92 87 be a8 5d 3e 3e 78 2f 7d be 1b 2b 2e 3e
       -0.26478612 0.18590415 -0.24725139 0.17008631
0001a0 b3 da d5 be d5 e6 ac 3e 81 d2 9f be f9 6f ae 3c
       -0.41768417 0.3376986 -0.3121529 0.021293627
0001b0 8f ee 4d be ba 12 7f be c5 31 9b 3e 61 dc 9f be
       -0.20110534 -0.24909487 0.3031141 -0.31222823
0001c0 dc 83 87 3e db 84 ad 3e fc 6b 94 3e ef 72 d4 3e
       0.26467788 0.33890423 0.28988636 0.41493937
0001d0 fc 01 ac be 9d 15 91 3d f2 18 9a be 84 c5 ab 3e
       -0.33595264 0.070842005 -0.30097157 0.3354913
0001e0 f3 d7 68 bd 12 e4 a9 be 15 3c 13 3e 6a a0 a8 3e
       -0.05684657 -0.33181816 0.14378388 0.32934886
0001f0 d7 be bc 3e 1f c2 4c be 77 45 b8 be 4a f3 4e 3e
       0.3686435 -0.19995926 -0.35990497 0.20209995

actor_backbone.2.weight f4 [128, 128]
000000 25 60 50 bd 72 61 78 bb 74 fc d9 bd e3 84 06 3e
       -0.05087294 -0.0037899879 -0.10643855 0.1313663
000010 35 db 0a be 9b 1f 01 3e 24 43 f2 3d cb 8d 9c be
       -0.13560183 0.12609713 0.11829212 -0.3057693
000020 dd a5 8c 3d d5 9e b6 3d 5d a9 78 be 06 49 5d 3d
       0.068675734 0.089170136 -0.24283357 0.05402472
000030 76 45 96 bb 20 30 80 bd ef 1d 2e bb ce 64 58 be
       -0.004585917 -0.06259179 -0.0026568135 -0.21132204
000040 c1 19 9f 3c d1 2a 33 3c b4 de ad 3d a6 94 ab 3d
       0.01942146 0.010935501 0.08489743 0.08377962
000050 46 df 1b 3e b2 ac 74 3e 9c ae 56 3d e5 39 b7 bd
       0.15221891 0.23894003 0.052412614 -0.089465894
000060 87 71 c5 bd be 2a b3 bd 02 d2 50 3e 5b 6d 89 3d
       -0.09640794 -0.08748387 0.20392612 0.06710311
000070 1b 06 f6 bd 9e 3a c2 3d 24 9f 9c bd a6 3a 91 bc
       -0.12012883 0.094838366 -0.07647541 -0.017728161
000080 6d ed 36 3e d7 4c fa 3d 17 24 d5 3c a6 28 b7 bd
       0.17864008 0.12221687 0.026018186 -0.089433
000090 a0 83 41 3e ef 9a a3 3d 2b 9e ce 3d 7d d7 ba bd
       0.18897867 0.079885356 0.10088762 -0.091231324
0000a0 64 5d 21 3e f4 8d 64 3e 9f 44 3f 3e 99 2b bf bd
       0.15758282 0.22319776 0.1867852 -0.093344875
0000b0 e0 61 00 3d 0d a6 37 be ca 6c 6b bd 70 be b5 bd
       0.03134334 -0.17934437 -0.057476796 -0.08874214
0000c0 69 23 62 be 51 41 43 3e b3 48 d8 3d 8f 3a 70 3d
       -0.2208382 0.19067885 0.10560741 0.058649596
0000d0 f2 30 1b 3e 57 30 44 be a1 af 34 bd 01 5d 40 be
       0.1515539 -0.19159065 -0.044112805 -0.18785478
0000e0 18 68 0b be c5 83 81 bb 00 88 60 bd 22 4a 1d 3e
       -0.13613927 -0.0039524757 -0.0548172 0.1536031
0000f0 0a 97 c7 3c 27 41 c5 3d 37 e1 09 bd 57 b1 2f 3e
       0.024364013 0.096315674 -0.033662047 0.17157494
000100 25 df 10 be d3 6c 10 3e 22 9a a9 bc 64 78 c4 3d
       -0.14147623 0.14104013 -0.020703379 0.09593275
000110 eb 1e ac bb e5 31 a5 bd b0 29 5c bd d2 41 96 3d
       -0.005252709 -0.08066157 -0.053750694 0.07336773
000120 9b 2a c9 3d bc 86 79 3e e1 52 fa 3d 9e e6 09 3e
       0.098225795 0.24367803 0.12222839 0.1346688
000130 82 d2 28 be 6e 3d 36 bd 04 30 61 bd ef ba ba bc
       -0.16486552 -0.044492178 -0.054977432 -0.022794215
000140 0e fb 47 3c c5 af 19 bd 72 e7 00 be df 10 c7 3c
       0.012205852 -0.037521143 -0.1258829 0.024300037
000150 ba f8 50 bd 15 68 7d 3c 73 7a 86 3e db 7c 93 bd
       -0.051018454 0.01546671 0.26265296 -0.07201549
000160 9e ae c2 3d 86 de 8c 3e 81 cf 59 3e f6 36 f7 3d
       0.09505962 0.27513522 0.21270563 0.1207103
000170 51 f3 8e 3e 1b a2 41 be a2 bc 27 3b 33 db 81 3d
       0.2792001 -0.18909495 0.0025594612 0.06340637
000180 33 c8 d0 be b7 d0 0c be e1 ec 88 bd aa f6 99 be
       -0.4077774 -0.13751493 -0.06685806 -0.30071002
000190 cd b4 b2 bd a9 b1 01 3e 2a 85 80 bd 8e 0b 43 be
       -0.08725891 0.12665428 -0.06275399 -0.19047377
0001a0 00 5e ad bd fa 1d 33 3d fb 94 e4 3d c1 d2 a0 be
       -0.08465195 0.04372976 0.11161228 -0.31410792
0001b0 e9 e6 86 bc b6 8b 79 bd 29 21 0c 3e b5 d6 ad bd
       -0.016467528 -0.060924254 0.13684525 -0.08488218
0001c0 8b c0 d6 3d 97 fb 6a 3d 74 a3 c1 3d 96 39 d2 bc
       0.104859434 0.05736884 0.09455004 -0.025662225
0001d0 f6 06 c6 3d 72 bf 25 be 61 fe 41 3e 69 11 8a 3c
       0.096692964 -0.16186312 0.18944694 0.016854005
0001e0 a5 c0 1d 3c 80 fa 72 3c ab 11 06 3e 50 06 f8 bc
       0.00962845 0.014830232 0.13092677 -0.030276448
0001f0 91 3f 36 be fd a8 bf 3c 16 60 9e 3e f4 18 1b 3e
       -0.17797686 0.02339601 0.30932683 0.15146238
000200 e0 db 67 3c af c5 c5 3c fc d8 10 3e 2b 1d 70 be
       0.014151543 0.024142114 0.14145273 -0.23448627
000210 b3 5e 74 3d aa c8 f3 3d cd 06 fb ba 5d 53 9c bd
       0.059660625 0.11903508 -0.0019151807 -0.07633088
000220 57 e5 2e 3e 56 f3 4f 3b 18 2f 6b 3c 66 c1 a5 3d
       0.17079674 0.0031730733 0.01435449 0.080935284
000230 b1 ce b4 3e 23 39 b2 bd 24 ab 8d bd 2e 46 24 be
       0.35313943 -0.08702304 -0.06917408 -0.16042396
000240 b6 04 db bd c0 73 14 3e 15 23 45 be d1 3c 41 3d
       -0.10694258 0.1449728 -0.19251664 0.04717714
000250 3f 4e 3e 3d fa 74 ea 3d 43 e1 2a 3c e7 cf 3e be
       0.04646134 0.11448093 0.010429683 -0.18633996
000260 02 ca da bd 83 60 47 be 9b c0 0d be 49 19 14 3e
       -0.10683061 -0.1947041 -0.13843004 0.1446277
000270 b8 56 db be 01 71 4e 3e e3 a8 36 be 1a 5d be 3d
       -0.428396 0.20160295 -0.17837863 0.092951015
000280 89 bd e9 3d 73 bf ef bd be 8d d0 bd e7 85 ff bc
       0.11413104 -0.11706438 -0.10183285 -0.03119178
000290 01 f2 9a bc 46 bc 71 bd 00 80 c9 bd 95 8e 24 be
       -0.018914225 -0.059017442 -0.09838867 -0.16070016
0002a0 11 66 aa 3d 73 eb 37 3e 36 74 5f 3d c7 bb 2c 3d
       0.08320249 0.1796091 0.054554187 0.042171266
0002b0 7b f4 14 be e0 9d ac 3d bd c2 3e 3e b4 df b2 3b
       -0.14546387 0.0842855 0.18628974 0.0054587964
0002c0 90 8b 4b bb 30 4e b5 3c 5a 06 ee 3d 67 0e 95 bd
       -0.0031058528 0.02213201 0.11622305 -0.07278138
0002d0 d9 1e e6 3d 6a ce de bc 73 61 ac 3c 55 2d f4 3d
       0.112363525 -0.027198035 0.021042561 0.11922709
0002e0 28 2c 93 3d d8 ce 17 be 6f 97 37 3d 45 51 46 be
       0.071861565 -0.14824998 0.044822153 -0.1936694
0002f0 7b 5d 5e 3d f3 4c 31 3d f5 30 10 be 7e 35 0e be
       0.05428837 0.043286275 -0.14081176 -0.13887593
000300 8a 37 e7 bd a5 0e 11 be dc 7d a0 bd a4 86 26 bd
       -0.1128989 -0.14165743 -0.07836506 -0.040655747
000310 0d 0d 14 be 43 9b d2 bd 4e 37 69 be 6c f6 a6 bd
       -0.14458103 -0.1028352 -0.22775003 -0.0815247
000320 0b b2 41 be 37 c7 04 3e 72 2b 95 bd 80 4d 54 3d
       -0.18915574 0.1296662 -0.07283677 0.051831722
000330 1e 01 65 bd 11 6f 5d be 14 81 a9 3d 62 ee d8 3d
       -0.05590927 -0.216244 0.08276573 0.10592343
000340 5f e0 6d 3e 16 d6 0b be 54 23 79 bb ad fd 13 be
       0.23230122 -0.13655886 -0.0038015442 -0.14452238
000350 4c ae 2f 3d 2d 1d 3d be f2 4d f8 3c ed c7 f6 3d
       0.04289083 -0.18468161 0.030310605 0.120498516
000360 d3 47 f2 bb 71 4f 64 3c 28 66 52 bd 13 bd 1b be
       -0.007393816 0.013934956 -0.051366955 -0.15208845
000370 61 6f 80 bd 3b 36 15 be 20 65 1a 3c ba b0 59 be
       -0.06271244 -0.14571469 0.009423524 -0.21258822
000380 73 37 30 be 62 e5 89 be 08 e3 79 3e 54 54 db bc
       -0.17208652 -0.26932818 0.24403012 -0.02677361
000390 28 88 50 3d 83 e6 00 be ae 25 a1 3e 07 1e 64 3d
       0.0509111 -0.12587933 0.3147406 0.0556927
0003a0 42 55 38 bd 00 0d ea bd a8 e0 10 be 35 50 b5 bd
       -0.045003183 -0.11428261 -0.141482 -0.08853189
0003b0 1a 4f db bd a5 d2 6e be bb b6 28 3e 80 24 e0 bd
       -0.10708447 -0.23322542 0.16475956 -0.10944462
0003c0 26 48 89 bc 40 79 6c 3d 8c 08 41 bc 43 49 ae 3d
       -0.016758036 0.05773282 -0.011781823 0.08510067
0003d0 0a 06 93 3d 8b 8a 83 3d ff 74 99 be 97 08 2a bd
       0.07178886 0.06422909 -0.29972073 -0.0415121
0003e0 3f 9e 5a 3d 50 b2 c3 3d df 2d bd 3e b9 1e 10 be
       0.05337357 0.09555495 0.3694906 -0.1407422
0003f0 cc dd d0 3d b3 f5 f9 3d 7c 7b 84 bd 57 9b cc 3d
       0.101985544 0.122050665 -0.06468865 0.09990566

actor_backbone.2.bias f4 [128]
000000 47 e0 d3 bd 65 7c 24 3e 7b 79 02 be 1f dd b3 bd
       -0.10345512 0.16063078 -0.12741654 -0.0878241
000010 4f 2e 8c be 81 9a 47 3e 0f 5c c3 3b 63 14 82 be
       -0.2737908 0.19492532 0.005961902 -0.2540618
000020 35 7c 33 be a7 b5 6c be cf f0 a2 3e b2 8d 87 3e
       -0.1752785 -0.2311617 0.31824347 0.26475292
000030 d9 eb 87 3e a3 06 6c be 33 4e 88 be c3 21 91 be
       0.26547125 -0.23049407 -0.2662216 -0.2834607
000040 6b 70 8e 3e 64 c0 98 3e 69 88 37 bc 70 a8 81 be
       0.27820143 0.29834282 -0.011201956 -0.2532382
000050 4b 18 9e 3d 60 15 78 bd c9 5b a7 bd 77 36 89 be
       0.07719477 -0.06056726 -0.081718035 -0.26799366
000060 ae 22 90 be 89 1f 51 3e 4e 11 0f be 47 d9 9f bd
       -0.28151459 0.20422186 -0.13971445 -0.07805114
000070 fc 28 7b be 6c 3a 76 3e ea 96 f5 3d 54 a3 3b 3e
       -0.24527353 0.24045724 0.11991675 0.18324023
000080 b1 9a 85 be 49 97 82 be 0b f7 2b 3e fe da 80 3e
       -0.26094583 -0.25506046 0.16793458 0.25167078
000090 55 5f 4d be 96 87 81 be e9 af 9c 3e a2 08 32 3e
       -0.20055898 -0.25298756 0.3060296 0.17386106
0000a0 d9 40 d4 3c f6 6b 55 bd 5c d8 86 3e 56 e1 91 be
       0.025909828 -0.052104913 0.26336944 -0.2849223
0000b0 bc a1 94 3e 8c 41 07 bd 09 72 3a be 01 68 0d 3e
       0.29029644 -0.033021495 -0.18207563 0.13809206
0000c0 78 c7 83 3e a0 b6 90 3e 7c 92 d2 3d e6 d9 83 3e
       0.2573812 0.28264332 0.10281846 0.2575218
0000d0 46 b2 47 bd fe a0 8c 3e 22 a0 29 3d db 08 8d 3e
       -0.048754 0.27466577 0.04141248 0.2754582
0000e0 9b 63 72 3e 2a a4 8d 3e 85 9e 92 be 04 17 36 be
       0.23670809 0.2766431 -0.28636566 -0.17782217
0000f0 84 c5 7a 3e b6 32 3e be d1 27 42 be b3 24 8c be
       0.24489409 -0.18574032 -0.18960501 -0.2737175
000100 3d bc 2f 3e e2 00 94 bd 16 19 90 be 94 75 1a 3e
       0.17161651 -0.07226731 -0.2814414 0.15083915
000110 29 93 4f 3c a5 7a 82 3e ea 6b 84 3e ca 00 84 be
       0.012669363 0.25484195 0.25863582 -0.25781852
000120 84 9a 92 3e 8d 86 4c be f8 55 be bd 45 4a 5f be
       0.2863351 -0.19973202 -0.09293741 -0.21805675
000130 be de 7a be cb cb 80 be 6e 10 b1 bc 7b c8 24 be
       -0.24499032 -0.25155482 -0.02161428 -0.16092102
000140 4e 02 55 3e 05 ab 6c be aa 4b 89 be b3 a7 84 be
       0.2080166 -0.23112114 -0.2681554 -0.25909194
000150 90 81 84 3e 22 84 6e be f8 fe 87 be c0 f7 85 be
       0.25880098 -0.23292592 -0.26561713 -0.2616558
000160 0b e2 37 be f9 d2 45 3e 2b 07 83 3e 9b 3c 7d 3e
       -0.17957322 0.19318761 0.25591406 0.2473015
000170 47 b9 61 bd bf d7 3c 3e 95 0d 49 3e 0a a8 0f 3e
       -0.055108335 0.18441676 0.19634087 0.14028946
000180 55 7a 15 3d 5f 10 8e be 39 c9 79 be 64 d9 88 3e
       0.036493618 -0.27746865 -0.24393167 0.26728356
000190 8b b5 85 be 4d cd 8f be c2 6e 8e 3e c3 89 7b be
       -0.2611507 -0.2808632 0.27818877 -0.2456427
0001a0 a8 97 4f be d1 97 c3 3d 65 5e 81 be 53 bc 96 3e
       -0.20272696 0.09550441 -0.2526733 0.29440555
0001b0 5b 19 48 be a5 12 80 3e 5d b8 86 3e ba 1d 72 3e
       -0.19540922 0.25014225 0.26312533 0.23644152
0001c0 30 ea 1a 3e 3a 96 65 3e 94 07 8f 3e 4b 64 5c be
       0.15128398 0.22420588 0.2793547 -0.21522634
0001d0 54 f2 7f be 1a cc 46 be f7 60 83 3e 4e 40 81 be
       -0.24994785 -0.19413796 0.25659916 -0.25244373
0001e0 c6 11 89 3e 60 35 8d be d1 c2 78 be db b2 8e be
       0.26771373 -0.27579784 -0.24293067 -0.2787083
0001f0 8d b8 85 3e 49 1f 1b 3e d1 44 80 be 9e 9f 8a 3e
       0.26117364 0.15148653 -0.25052503 0.27074903

reward_backbone.0.weight f4 [128, 22]
000000 16 f6 1a 3e 32 a5 9c bc fc ba af 3d 36 f1 aa 3e
       0.15132937 -0.01912174 0.08580586 0.33387154
000010 be f1 6f 3c 6f 5a 62 be ac 31 5d bd b4 a9 2b 3d
       0.014645038 -0.2210481 -0.05400245 0.04190989
000020 d6 df 05 3e 44 bf 22 be 17 e7 89 bd 80 24 a1 3b
       0.13073668 -0.15893275 -0.0673353 0.004917681
000030 cd d6 89 3d 26 25 d5 3c e1 6b 90 bd b5 e6 14 3d
       0.06730423 0.02601869 -0.07051826 0.036352832
000040 36 0e d3 3b 83 34 78 bc d4 85 1b bd 74 04 45 bd
       0.006440903 -0.0151492385 -0.037969425 -0.04809995
000050 2f 5e e5 3d 31 b5 ed 3d d8 83 b4 3d 67 fd e2 3b
       0.11199605 0.11606825 0.0881421 0.0069271806
000060 34 c1 e4 3c a3 d0 83 3d 6f 4a 1b 3d 99 86 aa 3d
       0.027924158 0.06436279 0.037912782 0.08326454
000070 9e 94 69 bd a5 cb 3b bd 88 d7 cc 3d cf f7 be bd
       -0.057026498 -0.045848507 0.10002047 -0.093246095
000080 31 30 06 bc af 45 66 be 13 09 52 3e c1 3e 49 bd
       -0.008190201 -0.2248752 0.20511274 -0.049132112
000090 f3 82 ec bc 4d 10 97 bd 9c 60 13 ba 2e 84 ce 3d
       -0.028871035 -0.07376156 -0.0005622001 0.10083805
0000a0 d2 ef 11 bd 44 15 12 be f4 22 8e bd f4 35 c9 3d
       -0.0356291 -0.14265925 -0.069402605 0.09824744
0000b0 a6 28 b7 bb 7b 74 44 be 98 be 95 bd cd a6 6b be
       -0.0055895625 -0.19185059 -0.073117435 -0.23012848
0000c0 3a 44 68 bd 78 9e 0a be 5c 5b ac bd 55 c0 c3 3b
       -0.05670569 -0.13537014 -0.08415863 0.0059738555
0000d0 6d f4 22 be 10 c5 a9 bc d4 28 3d bd 0a 1d a1 bc
       -0.15913554 -0.02072385 -0.046181515 -0.019667167
0000e0 80 92 6b 3e 7e 24 13 be d3 9a 68 bd c2 7c 3d 3e
       0.23005104 -0.1436939 -0.056788277 0.18504623
0000f0 c9 56 f3 bb c9 94 a8 bd 55 66 2b be 09 ca 27 be
       -0.007426117 -0.082315035 -0.16738255 -0.16385664
000100 02 c9 97 bc bc ba 79 be 52 0a 1a 3e 67 36 2e 3e
       -0.018528465 -0.2438764 0.15043 0.1701294
000110 5e bc 42 3e 53 65 bb bd 4d 04 85 3a 16 14 c6 3d
       0.19017169 -0.091501854 0.0010148376 0.096718
000120 e3 a8 f3 bc 51 90 bf 3b de a6 56 bd d4 56 a9 3d
       -0.029743617 0.0058460613 -0.05240523 0.08268514
000130 6a 84 97 bc 22 64 10 be 30 49 1c 3d 7e 77 32 bd
       -0.018495757 -0.14100698 0.038155735 -0.043570988
000140 93 7f a8 3c b6 06 d1 3c e5 4b b4 bc 54 bf 54 bc
       0.020568645 0.025515895 -0.022008846 -0.012985069
000150 68 c2 f5 bc 35 d2 6a be 8b f2 10 3d 13 7e 61 bc
       -0.029999927 -0.2293175 0.035387557 -0.013762969
000160 6e 19 22 3e 6b 2b bd 3d 8a dc 62 be 15 dd c8 3d
       0.15830013 0.09236797 -0.22154441 0.09807793
000170 7c 52 d5 bc 5b 83 51 bd 07 95 18 3e d1 e7 04 3d
       -0.026040308 -0.05115066 0.149006 0.03244764
000180 5a 94 a6 be 39 13 5f bd 58 6d d8 bd 8a b7 ce bd
       -0.32535058 -0.05446169 -0.10567731 -0.10093601
000190 35 2e 2d 3d 82 e5 72 3d b8 da c6 3d 97 58 cc 3c
       0.042280395 0.059300907 0.09709686 0.024944587
0001a0 08 01 52 3e 71 f7 29 be 22 50 ba 3d 11 06 22 be
       0.20508206 -0.16598298 0.09097315 -0.15822627
0001b0 b7 a3 3b 3e 5a 13 45 bc dc 9f 2a 3d 52 6a 65 be
       0.18324171 -0.01202854 0.04165636 -0.22403839
0001c0 e7 af 81 3d 62 e2 8e 3e d0 d4 a3 bd 95 8a 59 bd
       0.06332379 0.2790709 -0.07999575 -0.053110678
0001d0 ca ae d1 3d 31 ca 3d 3c de b9 18 3d 98 8a 41 bd
       0.102384165 0.011583851 0.03728663 -0.047251314
0001e0 0d 2b ca 3d 9a dd a8 bc da ab 6a bd 32 a6 5a 3e
       0.098714925 -0.02061348 -0.057292797 0.21352461
0001f0 83 ce 90 3d de 0c 28 3d ab e1 21 3d 5a 57 b5 3b
       0.07070639 0.041027896 0.039521854 0.0055340948
000200 22 06 88 3c ad 55 2a 3e 8c a7 22 3e 28 93 f9 3c
       0.016604487 0.16634245 0.15884227 0.030465677
000210 a6 6e 0f 3c a7 4e 2d 3d 0b 0c 2b 3e 61 75 c6 bd
       0.008754408 0.042311337 0.16703813 -0.09690357
000220 85 eb 3e 3c b5 80 22 be 70 85 d2 bd d8 5a 11 be
       0.011652832 -0.1586941 -0.102793574 -0.1419481
000230 75 1b 11 3e 41 a2 53 3e 76 f8 25 bd 5b b0 f2 bd
       0.1417063 0.20667364 -0.040520154 -0.118500434
000240 ab 7a a5 bd 76 92 c6 bd a3 58 48 3d 30 74 e4 3c
       -0.08080038 -0.09695904 0.048912656 0.027887434
000250 34 74 2e bd 01 ce 42 bd 6c 46 b3 bd 75 b9 11 3e
       -0.04259129 -0.047559742 -0.08753666 0.14230902
000260 2f 7a 60 3d 85 d1 e9 bd eb cf f4 3c 08 d4 81 3e
       0.054804023 -0.11416916 0.0298843 0.2535708
000270 8a 04 8c bd 9f 31 28 bd c1 63 7f 3d 76 64 83 3d
       -0.06836803 -0.041062947 0.062350992 0.06415646
000280 0d 8d b4 bd a6 8c 3d 3e 4c 89 e8 3d 56 73 f2 bd
       -0.08815966 0.18510684 0.11354312 -0.11838405
000290 4e 47 42 bc 69 ac 9f bd 61 c8 2f 3e a7 00 63 3d
       -0.011857821 -0.077965565 0.17166282 0.055420544
0002a0 6d 0b cc bd 5a 72 89 bd 5a ac 2a bc 60 a8 71 bd
       -0.09963117 -0.06711264 -0.010417068 -0.058998466
0002b0 84 f2 23 bc 78 76 80 bd 67 5f e3 bd 3b 6c 52 be
       -0.010006551 -0.06272596 -0.11102181 -0.20549099
0002c0 c3 25 8d bd ff 93 68 bd 62 04 09 be 56 30 4c be
       -0.06891968 -0.056781765 -0.13380578 -0.19940314
0002d0 e9 0f 04 3e f2 a6 95 bb bb 48 8f 3d be af 1d 3c
       0.12896694 -0.0045670206 0.06996294 0.00962442
0002e0 d0 ed c7 bc 11 2e ee bd 15 3a 3a bc 9b 62 79 bd
       -0.02440539 -0.1162988 -0.011366387 -0.060885053
0002f0 3d 0a 46 3e 11 e7 c5 bd 20 54 39 be cd 3d 2a bd
       0.19339843 -0.09663213 -0.18098497 -0.041562844
000300 96 56 a9 3c 24 c3 43 3d fb f4 56 3e 48 1c cb 3c
       0.02067117 0.047793522 0.2099189 0.024793759
000310 be 3d b1 bc 34 10 18 3e 33 39 ce bc c8 c0 69 be
       -0.021635886 0.14849931 -0.02517376 -0.22827446
000320 17 fd 96 be 2c 8f 4e 3e 5d b3 18 3e ae c2 01 be
       -0.29489967 0.20171803 0.14912172 -0.1267192
000330 10 79 8d bd d7 1d ca bd 80 6d 59 39 ab 9b 84 bd
       -0.069078565 -0.09868973 0.00020735525 -0.06475004
000340 fb c1 ad 3d 27 a4 25 bd d7 b3 11 bd 58 6e 59 3d
       0.084842645 -0.04043975 -0.0355719 0.053083748
000350 18 0b e7 3c a0 23 1a bc c1 d0 68 3d 37 ac 8c 3d
       0.028203532 -0.009407908 0.05683971 0.06868785
000360 d1 7c 7c be 87 24 08 be 81 d1 37 bd a2 a5 81 3c
       -0.24656989 -0.13295184 -0.044877533 0.01582605
000370 9d dd 35 be 52 b3 09 3d d0 20 78 3d bf 75 40 3e
       -0.1776032 0.03361828 0.060578167 0.18794917
000380 b7 34 44 3e 2a 49 1f bd 12 bc 1e bd 0e 1a d0 bc
       0.19160734 -0.038888134 -0.038753577 -0.025403049
000390 12 94 19 bd 8b ab 06 bd 9f 7e c4 bc bc 3c 0c 3d
       -0.037494726 -0.03287844 -0.023986159 0.03423761
0003a0 db a0 9f bd 7b 29 b5 3d 47 5c dc 3d 82 3d 5b bc
       -0.077943526 0.088458024 0.10759788 -0.013381364
0003b0 ad cf 17 3c 47 81 89 bd c4 8c b4 3d 31 59 be 3d
       0.009265822 -0.06714111 0.088159114 0.09294356
0003c0 85 6a 44 be 97 b8 82 bc 2b 9f 4f 3e 65 d0 a5 3d
       -0.19181259 -0.01595716 0.20275562 0.08096389
0003d0 b0 5b 31 be 4f f6 09 bd c0 78 1b 3c fe 4e 4f 3d
       -0.17320132 -0.033682164 0.009489238 0.050612442
0003e0 9a 74 eb 3c 63 75 69 bc d0 26 1d bd d1 51 b0 bc
       0.028742123 -0.014249179 -0.038367093 -0.021523388
0003f0 6e 9f 73 3d 8e 29 64 3a c1 fc df 3c e0 2f b5 3d
       0.059478216 0.0008703702 0.027342202 0.08847022

reward_backbone.0.bias f4 [128]
000000 de 28 c7 3d e0 ef 48 3e 58 91 b6 bc 11 ea d3 3a
       0.09724592 0.19622755 -0.022286102 0.001616778
000010 9a 07 f4 bd 95 ee 97 bd 94 11 8d 3d 0b a8 00 3c
       -0.119155124 -0.07418553 0.068881184 0.007852565
000020 60 87 dc bd 11 85 1b bd c5 35 88 be fe ae 5e bc
       -0.10768008 -0.0379687 -0.26603523 -0.013591526
000030 44 b5 71 be bc 03 f5 bc d0 36 07 be 21 7e 56 bc
       -0.23604304 -0.029909007 -0.13204503 -0.013091595
000040 39 49 68 be a1 b3 86 3e c9 15 36 3d a0 e3 a8 bd
       -0.22684182 0.2630892 0.04445437 -0.08246541
000050 8b 8c 8d be fd 45 7e 3e 22 07 39 3e c2 ad e7 bd
       -0.27646288 0.24831386 0.18069127 -0.113124385
000060 49 b8 11 be a2 e3 40 be 7f 61 95 3d 5c 17 62 bd
       -0.14230455 -0.18836835 0.072939865 -0.05519806
000070 76 cd 2f 3e 33 31 25 be 3b 1e b9 bc 14 02 ad be
       0.17168221 -0.1613205 -0.022597423 -0.33790648
000080 c5 c3 13 3e 3a 19 28 3d 89 a1 83 3e 82 12 d8 3d
       0.14430149 0.041039683 0.2570918 0.10550405
000090 51 08 f2 3c a4 48 28 3c aa 7e d6 3b c2 5e 90 bd
       0.029544981 0.010271225 0.0065458613 -0.070493236
0000a0 61 0a 53 be 45 d6 14 bc ad 2e 58 3e d8 25 28 be
       -0.20609428 -0.009084289 0.21111555 -0.16420686
0000b0 bc 11 f1 3c a3 f3 e4 3d 5e e9 38 3d e8 e7 4c be
       0.029427402 0.111792825 0.04514443 -0.2001034
0000c0 e4 ab 48 3e a0 61 b4 3b 8f b0 30 3d a8 77 89 be
       0.19596821 0.005504802 0.04313713 -0.26849103
0000d0 27 32 bf bc 65 8b 84 be 1b 06 2c be c7 e2 8d be
       -0.023339344 -0.258876 -0.16799204 -0.2771208
0000e0 d9 34 af be cc ad 18 bd 61 8a 07 3d e2 c7 3b bd
       -0.34220007 -0.03727512 0.033090953 -0.04584492
0000f0 8e 5b 52 be c5 4a 2d 3e 1a 40 95 3d 6b fa c9 bc
       -0.20542738 0.16923054 0.07287617 -0.024655541
000100 3f 59 81 be 35 9a 9a bc 23 b0 0f 3b af 89 7c 3d
       -0.25263402 -0.01887236 0.0021925054 0.061654743
000110 05 8d 35 3d 85 e5 12 3e 2f 98 98 3c 34 fc 1f be
       0.04432394 0.14345367 0.018627254 -0.15623552
000120 c3 d8 30 bd 9b bd 07 3e c9 d3 89 3d af 81 25 3d
       -0.04317547 0.13255922 0.06729848 0.04040688
000130 7f 93 c7 bd d7 9c 6f be 89 22 e6 3b 54 f4 40 3e
       -0.097449295 -0.23399673 0.00702316 0.18843204
000140 7a 38 80 bd cc 9e 48 bd fb ca 4d 3d 1a 84 11 3e
       -0.06260772 -0.048979566 0.050242405 0.14210549
000150 4d bc 01 bc d4 67 72 3e 01 f5 cd bc 86 ed 51 3c
       -0.00791843 0.2367242 -0.025141241 0.012812978
000160 71 b7 ae 3d 32 c9 e7 bc 30 fb 59 3d 3c 78 b2 3d
       0.085310824 -0.02829418 0.053218067 0.08714339
000170 84 bb e4 ba 49 55 7d be 97 ec 16 be 37 c1 2a 3e
       -0.0017450904 -0.24739565 -0.1473869 0.16675268
000180 42 a3 98 3d cd aa 6f bd 54 6f 3a 3c 9d 2e 9b 3c
       0.07453014 -0.058512498 0.011379082 0.018943125
000190 b4 77 07 bd 8e d6 8a be 7e 27 6f 3d a3 ab 46 be
       -0.033073142 -0.27116817 0.058387272 -0.19401412
0001a0 11 15 91 3d 41 3a 1c 3d a7 a2 d3 3d bd da 2a be
       0.07084096 0.038141493 0.10333758 -0.16685005
0001b0 62 c0 e8 3c 03 5a 5f be 47 06 cc bb 83 49 6b bd
       0.028412048 -0.2181168 -0.0062263343 -0.057443153
0001c0 dd f4 90 3d 73 e8 b2 3c cc 9b 38 bd 41 10 3e 3e
       0.07077954 0.021839356 -0.045070454 0.18560888
0001d0 2a 0e 95 bd 7b 61 3e 3e 36 bb e4 3c a8 1c a0 3d
       -0.07278092 0.18591873 0.0279213 0.07817966
0001e0 fc 99 a6 3d b5 18 fe bd ea df c4 3d 59 58 3e bd
       0.08134839 -0.12407056 0.09613021 -0.046470974
0001f0 b5 2f 3a bc 28 d6 21 3d 35 e9 b2 bd 4e 8a 71 3d
       -0.011363913 0.039510876 -0.08735887 0.05896979

reward_backbone.2.weight f4 [128, 128]
000000 09 4a af bc ce 1e b8 3c b6 9c 8e 3d 83 03 fc bd
       -0.021397607 0.022475626 0.06963484 -0.12305357
000010 50 ee d0 bd 3b fc 20 3d e4 21 66 bd a6 58 cc 3d
       -0.102017045 0.039303046 -0.056184664 0.09977846
000020 4f 85 0e 3e bb e2 fd bc ad c6 b4 bc dd 14 12 be
       0.1391804 -0.030991903 -0.022067392 -0.14265771
000030 3d af 78 bc 89 95 13 be 0d 6f 09 3d c5 8a 81 3d
       -0.015178499 -0.14412512 0.033553172 0.06325296
000040 a7 f2 85 bd 06 76 c3 3e d8 59 6f 3d ac 16 12 3d
       -0.06540423 0.38175982 0.05843529 0.035666153
000050 78 1e 9b bd 4b 1e 01 be 31 2a 88 3e 82 34 1b be
       -0.07574171 -0.12609212 0.2659469 -0.15156749
000060 27 0d 04 3e 3c 88 15 be 5b 15 e7 bd a7 9c f3 3d
       0.12895642 -0.1460275 -0.1128337 0.118951134
000070 f9 3f 0d bc 2e 05 f8 bd ff 6e 4f 3d 4a 72 df bd
       -0.008621209 -0.12110363 0.050642963 -0.10910471
000080 f7 3e 36 3d cb 5d d4 3d 1e 65 1a 3e 78 85 99 bd
       0.04449364 0.10369452 0.15077636 -0.0749616
000090 6d e7 6b 3d a5 d0 2e 3e 40 a1 a8 bd e6 fe 5f 3c
       0.05759375 0.17071779 -0.08233881 0.013671612
0000a0 93 62 90 be 3a b2 e8 3d 72 4f 69 3e 39 f6 19 be
       -0.28200206 0.11362119 0.22784212 -0.15035333
0000b0 9b d4 4c bd 1c 51 38 bd 10 66 5d be 9f d6 30 be
       -0.050007444 -0.044999227 -0.21620965 -0.17269371
0000c0 b6 b4 ec 3d 53 5b ec bd c5 d2 9c 3d 68 83 0e bd
       0.115579054 -0.11540856 0.076573886 -0.034793288
0000d0 e8 e6 22 bd 99 51 0e be 99 36 4d 3c 3b 12 e0 3d
       -0.03977099 -0.13898315 0.012525224 0.10940977
0000e0 87 01 1d be 76 32 6c be ae 64 30 bd 0f e8 cb 3c
       -0.15332614 -0.23066124 -0.043064766 0.024890928
0000f0 6b 8f 88 bd 7c a2 85 3c 81 ff 2f be a0 41 07 3e
       -0.0666798 0.01631283 -0.17187311 0.13208628
000100 51 b9 51 bc ab b4 22 be af f5 d5 bd ad c2 84 be
       -0.0128005305 -0.15889232 -0.10447251 -0.25929776
000110 65 72 cf bb fc 1e 6d bd 0d 2c bd bd 8c 9c 01 3d
       -0.0063307756 -0.057890877 -0.09236918 0.031643435
000120 c0 a7 43 3e 86 d7 df 3d 09 c6 96 3e 07 35 0a be
       0.1910696 0.1092978 0.29447964 -0.13496791
000130 91 84 79 bd 1f 54 9d be 45 3b a8 bd 9b 12 c4 bc
       -0.06091744 -0.30728242 -0.0821443 -0.023934653
000140 8a d9 f1 3d e5 ff c9 bc 86 42 80 3e a7 67 77 3d
       0.118090704 -0.024658153 0.25050753 0.060401585
000150 38 05 9c bd 19 d7 d5 bd 76 6d 66 be 2f 82 a1 bc
       -0.07618183 -0.10441417 -0.22502694 -0.019715397
000160 c6 99 99 3e df 4f 38 3e 41 aa 2d bd db b3 8f 3d
       0.30000132 0.17999218 -0.042398695 0.070167266
000170 30 45 4d bd c4 dc 84 bd 07 1b be 3d 54 a0 5f 3d
       -0.05011481 -0.0648742 0.09282499 0.05459626
000180 15 94 90 3d f0 19 e8 bd 2c 40 f2 3d 4b 6f 0f 3c
       0.070594944 -0.11333072 0.11828646 0.008754562
000190 2b ab 1a 3d 3a 65 80 be 97 5e 83 3c 89 5f 09 3d
       0.037760895 -0.2507723 0.016036315 0.033538375
0001a0 d2 1c 07 3d 7d f5 69 bd 0f 2b ae 3c 54 29 13 be
       0.03298647 -0.05711888 0.021260766 -0.14371234
0001b0 e7 82 84 bd bd c6 88 bd 26 9e a7 3d 17 d8 e9 bd
       -0.0647028 -0.06678531 0.08184461 -0.11418169
0001c0 26 a7 d2 3c fc 26 aa bd d3 71 21 bd 0c 5f 0b 3e
       0.025714468 -0.08308217 -0.03941519 0.13610476
0001d0 23 4e 81 bd 0f 97 92 3c 97 42 e2 bc ce 2d 48 3e
       -0.063137315 0.017894296 -0.027619643 0.19548723
0001e0 bd 67 39 be 97 43 fb 3d 6b 2a 34 3d 13 ff 53 3d
       -0.1810598 0.12268751 0.043985765 0.05175693
0001f0 cf 39 ac bc 2e 7c 90 3e 13 e1 df bd a5 68 9a be
       -0.021023659 0.28219742 -0.109316014 -0.30157962
000200 8c 17 db bd a0 22 26 be 54 74 1a 3e 4e f2 af bd
       -0.106978506 -0.16224146 0.15083438 -0.08591138
000210 be 99 ad 3c 6d 5c e7 3c b6 dd 8b bd 19 e4 10 3e
       0.021191474 0.028242314 -0.068293974 0.14149512
000220 fb cb 7d 3d d2 3f 52 bc 96 ba f6 bc 06 16 96 3d
       0.06196211 -0.012832599 -0.030118268 0.073284194
000230 bf 4d 23 3e 51 b5 51 bc 63 06 1d be e4 96 0a 3e
       0.15947627 -0.012799577 -0.15334468 0.13534123
000240 88 98 fd bd 2d 89 3a 3e 42 2b f2 3d d5 b7 08 3e
       -0.12382609 0.18216391 0.11824657 0.13351376
000250 f1 b9 7a bd a6 b1 23 3e 7d 61 be bd b3 7d ed 3d
       -0.061212484 0.15985736 -0.09295938 0.11596241
000260 3f 54 54 be f8 d8 cc bb 5d bc 82 be cc 37 3d 3d
       -0.20735262 -0.0062514506 -0.25534335 0.04619579
000270 65 ad 0a be a1 2a ec 3d a3 81 95 3d c0 25 24 3e
       -0.13542707 0.11531568 0.07300117 0.16030025
000280 11 23 45 be 13 aa 98 3d 77 2b 19 be 1b 42 9c 3d
       -0.19251658 0.07454314 -0.14957987 0.07629796
000290 be 63 d5 3d c8 43 e4 bd 9e af 4d 3e 2e 0f bf 3e
       0.10419415 -0.11145741 0.20086524 0.3731627
0002a0 5d 66 b4 3d 1e 71 05 be f2 b5 44 be 95 16 e5 bb
       0.08808587 -0.13031432 -0.19210032 -0.0069912174
0002b0 42 eb 1c 3e 53 5d a2 3d 07 df 1f bc 4c cc c4 3d
       0.15324119 0.079279564 -0.009757764 0.09609279
0002c0 0c 09 86 3e f0 73 1e be d6 df 08 bd f4 62 0b be
       0.26178777 -0.15473914 -0.03341659 -0.13611966
0002d0 2a 4f d3 3c 88 76 40 be 9b 31 87 bd d7 f8 a7 3c
       0.025794584 -0.18795216 -0.06601258 0.020504398
0002e0 4c 62 4f 3d 40 ba b3 bd b2 ec 11 be 70 93 bc 3d
       0.050630853 -0.08775759 -0.14250448 0.09207809
0002f0 2b 24 13 3e d3 3d 0e 3d e5 f9 64 3c a5 ca 5c 3e
       0.14369266 0.03472693 0.013975595 0.21561678
000300 fa 11 23 be 5d 8e 01 ba 77 44 19 3e bb 08 25 3e
       -0.15924826 -0.0004942173 0.14967524 0.16116612
000310 e6 ea 12 3e 4e 2b 48 3d 5b 46 fd bd 26 ae 20 bd
       0.14347419 0.048869424 -0.12366935 -0.03922858
000320 cf 00 2b be 8f 69 7a bd 00 8e c6 3c bf 39 71 bd
       -0.16699527 -0.061135825 0.024237633 -0.05889296
000330 fc c5 32 bc 24 4f 38 3d 8b 63 88 3d 7c 65 22 3d
       -0.010911461 0.04499735 0.06659611 0.039647564
000340 31 93 fb 3c a5 66 cb 3d 36 9c 0f be e7 52 1f 3e
       0.030709835 0.09931687 -0.14024433 0.15558968
000350 5b 5d 24 3e 34 ab e3 3d 97 42 16 bc 80 03 1d be
       0.16051237 0.11116639 -0.00917115 -0.15333366
000360 ed 73 13 3d c4 a5 84 bd d5 8e 79 be 95 2f b9 3d
       0.035999227 -0.0647693 -0.24370892 0.09042279
000370 1c 6a 2a 3d f5 97 cd 3d 04 a5 7b bc f1 59 d5 3d
       0.0416051 0.10038749 -0.015359167 0.104175456
000380 9e 23 20 3d 37 3e af 3c d3 9f 19 3e a8 12 37 bd
       0.039096467 0.021391971 0.15002374 -0.044695526
000390 0e bb 4d be 1d 3e a8 3b 72 54 85 3b b8 57 b6 bc
       -0.20090887 0.0051343576 0.0040689046 -0.022258624
0003a0 11 d6 6f 3a 2b 16 8a bd 3b f1 4f be 3a 6b ef 3d
       0.0009149025 -0.067425095 -0.20306866 0.11690374
0003b0 1e 70 63 bd 1b 42 87 3e 4a b6 86 bd 31 26 38 3e
       -0.055526845 0.26417622 -0.06577738 0.17983319
0003c0 79 ab 92 3d dd a3 01 3e 9d 7f ae 3d f0 73 a8 bd
       0.07161612 0.12660165 0.08520434 -0.08225238
0003d0 99 7c bd bd 43 89 38 3d 05 05 ae 3e 32 3e 80 3e
       -0.09252281 0.045052778 0.33988205 0.2504745
0003e0 74 73 a9 3b 5c e0 8a 3c a6 98 4a 3d 41 e0 a1 3c
       0.005171234 0.016952686 0.049461983 0.019760253
0003f0 7d ae aa bc 69 2e ca 3d 0c c6 07 bd 86 c9 65 3d
       -0.020835156 0.09872133 -0.033147857 0.05610039

reward_backbone.2.bias f4 [128]
000000 8a a7 d2 3d 88 69 f7 bc 78 12 34 bd 47 d4 1c 3e
       0.10285862 -0.030201688 -0.043962926 0.15315352
000010 4e 30 84 bd 2a 46 7c 3d 3d 05 a2 bd b0 9d 60 bc
       -0.06454526 0.06159035 -0.079111554 -0.013709471
000020 31 d9 85 3d 83 79 02 3d b4 2c b6 3d 09 f6 89 3d
       0.065355666 0.031854164 0.08895245 0.067363806
000030 15 67 9d bd ca 46 bf 3a 38 0b a7 bd e1 75 7f bd
       -0.07685677 0.001459324 -0.08156437 -0.062368277
000040 00 79 e2 3d 16 f7 2c bd d3 d9 8c bd 41 6f 53 3d
       0.11058235 -0.042227827 -0.06877484 0.051619772
000050 9b 24 8a bd 21 4e ff 3d 80 26 8b bc e9 b6 74 bd
       -0.06745263 0.12466074 -0.016986132 -0.05974475
000060 5b e9 dc bd ce 4d 48 3d cf ba 5c 3d 00 a4 44 3e
       -0.107866965 0.048902325 0.053889092 0.19203186
000070 cb 25 95 bd ba 6a 78 bd d6 27 a4 bd 13 2a a6 3d
       -0.07282599 -0.060648657 -0.080154106 0.08113494
000080 f4 16 3b bd 69 62 92 be b9 eb 37 3e 83 23 bb 3d
       -0.045676187 -0.28590706 0.17961015 0.09137633
000090 19 ea 64 3c 74 53 7b 3d 02 80 71 bd 42 9f 3e 3d
       0.013971829 0.061358884 -0.05895997 0.0465386
0000a0 42 6b da bd 24 da 9c bc e6 d1 a8 bb 71 fb c4 3d
       -0.10664989 -0.019146986 -0.005151975 0.09618271
0000b0 ba 4c 7e bd fb cc 33 bd f6 bb 8c bd 12 41 7a 3d
       -0.06208489 -0.043896656 -0.06871788 0.061097212
0000c0 88 65 d2 3b e4 dc 1f 3d 30 01 d0 bd ef 2b d9 bb
       0.006420795 0.039029017 -0.101564765 -0.0066275517
0000d0 7c 04 34 3c 53 b4 5e 3d c7 99 9d 3c d8 22 44 bd
       0.010987397 0.05437119 0.019238366 -0.047884792
0000e0 d5 35 6e 3d 91 c0 63 3d b9 67 98 bd 8e c8 c3 3c
       0.058156807 0.055603568 -0.074416585 0.023899343
0000f0 a5 8d 8b bd 89 28 82 3d 3f f5 15 3d da de 02 be
       -0.06814126 0.06355388 0.036610838 -0.12780324
000100 2e 2a 28 3d 42 f7 8a 3d b8 75 9b 3d 17 3b 66 3d
       0.04105585 0.06785442 0.075908124 0.056208696
000110 c5 e2 09 bd 76 d0 a6 3d 6f 0a 51 bd fd ee 28 3d
       -0.03366353 0.081452295 -0.05103534 0.041243542
000120 ef 15 66 bb 6a 91 ca 3d d1 3a 67 bd c5 e2 71 3d
       -0.0035108288 0.09891017 -0.056452576 0.059054155
000130 bb 6f 35 3e 71 75 6b 3c 85 8b 3c bd fc 89 58 3d
       0.17718403 0.014371262 -0.046031494 0.052865967
000140 43 f0 9c 3d 5f 38 a4 bd 9a 35 9f 3d fe a1 9a bd
       0.07663014 -0.080185644 0.077738956 -0.07550429
000150 8c 5b 0d be 3c 98 99 3d 8d 1e 32 3e 71 5b be 3e
       -0.13804454 0.074997395 0.17394467 0.3717914
000160 19 18 59 3d e3 f4 47 bd 5c bd 77 3c aa 19 fd bc
       0.053001497 -0.048817527 0.01512083 -0.030896027
000170 00 99 96 bd 47 5d da 3c 23 0d ce bc 29 15 89 bd
       -0.07353401 0.026655806 -0.025152748 -0.06693489
000180 5a 91 70 3d b5 62 dc bd 95 fa 98 be 48 a2 8c 3c
       0.058732368 -0.10761014 -0.2987868 0.017167225
000190 74 f3 70 3d bd 35 8d bd 17 94 f4 3d 3d ab b6 bd
       0.058825925 -0.068950154 0.119423084 -0.0891938
0001a0 52 e3 f6 bd bf f9 11 be 90 2f 58 bd ae f7 a8 3d
       -0.12055077 -0.14255427 -0.052779734 0.08250366
0001b0 e4 e6 df bd 07 01 86 3d 40 4d 2b bd 00 26 29 3c
       -0.10932711 0.06543165 -0.04182172 0.010324001
0001c0 fc 87 92 bd b7 40 ab 3d 88 1c 1a 3e 9e eb 81 bd
       -0.07154843 0.08361953 0.15049946 -0.063437685
0001d0 10 8c c9 bd cb 62 ed bd 13 ba ae bd a7 bd f7 bc
       -0.09841168 -0.11591109 -0.085315846 -0.0302418
0001e0 8a 62 8c 3d 1f 11 1e be f0 11 13 3e ba 23 82 bd
       0.06854732 -0.15436219 0.14362311 -0.063544706
0001f0 f8 45 b4 bb 4c b2 de bd b0 b8 8b 3e 6c 3d df 3d
       -0.005501505 -0.10873851 0.27289343 0.10900387

cost_backbone.0.weight f4 [128, 22]
000000 41 c0 d6 3d b5 74 93 3d 0d a1 82 bc 76 8b 8a 3e
       0.10485888 0.071999945 -0.015945936 0.27059525
000010 e6 76 21 3e 45 55 7d 3d 28 c0 b8 3d 87 bd 85 bd
       0.15768012 0.061848897 0.09021026 -0.0653029
000020 06 ea 9d bd de ed ec 3d 09 25 51 be cd b0 54 3e
       -0.07710652 0.11568807 -0.20424284 0.20770569
000030 9c f5 a5 bd bf 8f 9e 3d 81 6a 34 bd 2b db 8d bd
       -0.08103487 0.07742261 -0.044046883 -0.069265686
000040 35 8d 2a 3d 6c 15 4f 3c 7c a3 48 3e de 80 95 3d
       0.04163857 0.012639385 0.19593614 0.0729997
000050 77 bf 43 3e 9b 34 fa 3a 95 bf d9 3d 0a 4e 5d 3d
       0.19116007 0.0019089164 0.106322445 0.054029502
000060 f0 e5 eb 3b 92 9d 40 3d 8a d5 49 3c ee 2b 9b bd
       0.0071990415 0.04702527 0.012318978 -0.07576738
000070 f9 66 bd 3c 65 43 14 3e 73 d2 f5 bc fe 59 04 3e
       0.02312039 0.14478834 -0.030007577 0.12924954
000080 33 7a 9f be b3 e1 7c bd 9d 04 1c 3e 89 52 f9 bd
       -0.31147918 -0.06173868 0.15236135 -0.121739455
000090 31 e2 f5 3c 50 b5 e8 3d ac 4a fb bc d5 67 cc 3c
       0.030015083 0.113627076 -0.030675255 0.024951855
0000a0 6a 6a 06 3e 8b 31 8b bd 5f 78 1a 3e ad 9a 0e 3e
       0.13126531 -0.06796559 0.1508498 0.13926192
0000b0 69 ba 08 3e 7c c7 37 3d d2 90 72 bd 9d be 86 be
       0.1335236 0.044867977 -0.059220143 -0.263173
0000c0 95 62 35 3d 78 85 27 bd d9 7c 02 3b b5 ca 09 bd
       0.04428347 -0.04089877 0.001991084 -0.033640582
0000d0 df cb 09 bd 86 d0 aa bd f5 ee dc bd 59 2c 8a bd
       -0.033641692 -0.08340554 -0.10787765 -0.0674674
0000e0 69 eb 8f bd a3 99 16 3e 8f ac b0 bc 84 73 ab 3d
       -0.07027323 0.14707045 -0.021566657 0.08371642
0000f0 4b 81 07 3d 8d 42 29 3c 3d 9d c7 3c 27 9a af bd
       0.033082288 0.010330808 0.02436697 -0.08574324
000100 c0 ab 9b 3d e9 fe 7a 3e 86 0e cf 3d 8e 5e dc 3d
       0.07601118 0.24511303 0.10110192 0.107602224
000110 23 d6 4b bb e4 4d 77 bd b3 49 60 3e 86 51 31 bd
       -0.0031102977 -0.060377017 0.21903114 -0.043290637
000120 bd db 04 bd 14 07 a1 3d d5 a1 b4 bc 38 90 80 be
       -0.03243612 0.07862678 -0.022049824 -0.2511003
000130 27 8f f3 3d 12 15 18 be a8 1e 65 bd 3f 69 88 3d
       0.118925385 -0.14851788 -0.05593744 0.06660699
000140 6a 94 e2 bd 5d b1 8a be db 4e 6a bb f2 03 c3 3d
       -0.11063464 -0.27088442 -0.0035752568 0.09522237
000150 03 34 e1 3d 71 28 b8 3c e7 b0 10 be 38 4b 34 3e
       0.109962486 0.022480221 -0.14129983 0.17606819
000160 f9 18 8d 3e 64 c9 d7 bd 0d 5f 08 be 42 06 4e be
       0.27558115 -0.10536459 -0.13317509 -0.20119575
000170 cc 33 8b 3b d4 98 85 3d 15 bb 2c 3d 1c a0 23 be
       0.004248118 0.0652329 0.042170603 -0.15979046
000180 49 25 21 bd 7a e8 79 3c dd 4e 9c bd 6a 50 a3 be
       -0.0393422 0.015253181 -0.076322295 -0.3189729
000190 dd 8d fa bc 02 23 30 3d 40 9b 56 bc 3c 5e 35 bc
       -0.030585224 0.043002136 -0.013098538 -0.0110698305
0001a0 91 e2 43 3d 89 df e6 3d 63 28 a5 3e 13 2b 95 bc
       0.047823492 0.11273105 0.32257375 -0.018209016
0001b0 a5 7d 90 be 11 ce fe bd 29 ba 54 bd ef 2f ae bd
       -0.2822086 -0.12441648 -0.05193535 -0.08505236
0001c0 75 b8 3a bd 40 b4 e8 3d 84 bd a3 bd 2a a7 0d 3d
       -0.04558607 0.11362505 -0.079951316 0.03458325
0001d0 8d 10 99 bc 06 c5 16 3e e4 24 91 3d 89 36 51 3e
       -0.01868465 0.14723596 0.070871145 0.2043096
0001e0 b4 25 0c bc 39 ea 40 bd 1b 54 23 be a8 67 a9 3d
       -0.008553911 -0.047098372 -0.15950052 0.08271724
0001f0 6c 5d 00 3d ce 7b bb bd 6f 68 a3 bd f8 28 9a 3d
       0.031339094 -0.09154473 -0.079789035 0.075273454
000200 45 5b 6b 3d 1d ff 2a 3d e6 85 23 be c3 c2 83 3e
       0.05746009 0.0417472 -0.15969047 0.2573453
000210 f1 5c 24 be 3d 85 17 be 6a 4a 5e bd 97 b6 b5 3c
       -0.1605108 -0.1479692 -0.054270186 0.022181792
000220 30 b9 24 bd 00 3d da bc ab e5 b9 bd e4 0f f5 3c
       -0.04021567 -0.026640415 -0.09077009 0.029914804
000230 9b fc 5f bc b0 38 a1 bd 71 7d 53 3c 88 7e e0 3d
       -0.013671066 -0.078721404 0.0129083255 0.10961634
000240 fa 5e 9e bc e8 1c 8d 3d ae ce 09 3e bb e0 ac bc
       -0.019332398 0.06890279 0.13457748 -0.021103254
000250 1f 11 40 bd 95 92 88 bc 0b e1 19 be 18 a1 03 be
       -0.046891328 -0.016671458 -0.15027253 -0.12854421
000260 99 65 e8 3d 40 b1 85 be 02 1e 52 3e cf 94 9f bd
       0.11347503 -0.26111794 0.2051926 -0.07792055
000270 98 a1 35 bd af 92 08 bd 9b 2f 0c bd f2 f8 ab bc
       -0.04434356 -0.033343013 -0.034225088 -0.02099273
000280 7b 42 04 bd 6f e6 ae bd cb 3f 01 3e fb 7f ba bd
       -0.032289963 -0.085400455 0.12621991 -0.091064416
000290 96 0b 87 bd 73 db aa be 77 be 76 3d 09 0e 06 3e
       -0.06594007 -0.3337055 0.060240235 0.13091291
0002a0 43 4e 80 3d e8 91 3d bd 00 9a a6 3d 64 cf 0c 3d
       0.06264927 -0.046281725 0.08134842 0.03437747
0002b0 0e 9f 48 3d ed 53 ea 3c 8c 88 64 bd 66 a1 9b be
       0.04897981 0.028604472 -0.055794284 -0.30396575
0002c0 2e e2 0c be d6 5d 28 be ff 08 df 3d f1 20 03 be
       -0.13758156 -0.16442046 0.10890388 -0.12805535
0002d0 d0 a4 1c 3e 8a e3 c6 bd a4 0f 7c bd 8e ae da bd
       0.15297246 -0.097113684 -0.061538354 -0.10677825
0002e0 cc 1b 37 bd 51 f5 09 3e bf ab 81 3d 13 32 83 3e
       -0.044704244 0.13472487 0.06331586 0.2562414
0002f0 c9 09 b6 bb b0 76 30 3d 6a 1c b2 bd 70 cc 21 3d
       -0.0055553657 0.04308194 -0.08696826 0.039501607
000300 b7 d2 ff 3c 32 fc 27 bd 95 8d 3c 3e c1 d9 dd 3d
       0.031228406 -0.041011997 0.18413384 0.10832549
000310 b2 72 54 be 3a da 8b bd e9 d6 a0 bd 79 94 3b bc
       -0.20746878 -0.06828733 -0.07853491 -0.011448973
000320 71 91 b9 bc 6c 57 73 3e fa c8 e6 bd 09 55 a8 3b
       -0.02265236 0.23763818 -0.11268802 0.00513709
000330 98 83 83 be 4b 8c 54 3c 54 6f eb bc 4d bb 69 bd
       -0.25686336 0.012972902 -0.028739609 -0.05706339
000340 74 e4 d6 3d e7 ad c8 ba c1 39 54 be 27 92 b8 3b
       0.10492793 -0.0015310616 -0.20725156 0.005632657
000350 b9 08 52 3c 41 0f 10 be 20 5a 87 bd 7d 67 fc bd
       0.012819462 -0.14068319 -0.06608987 -0.12324426
000360 3d 14 de 3d 3f b1 0a 3e 6d 00 19 3a 1a f4 48 be
       0.10843704 0.13544177 0.000583655 -0.19624367
000370 6c e1 ac bc 81 bd 3a be ef 45 ab bd c2 8a 5a bd
       -0.021103583 -0.18236353 -0.08362948 -0.053354986
000380 6f 38 60 be 73 b0 b7 bc 76 48 e2 3d 02 b6 94 3d
       -0.21896528 -0.022423005 0.11048977 0.07261278
000390 39 7f 66 3d 40 19 19 bc 1c af 1a be 43 e1 41 3d
       0.056273673 -0.009344399 -0.15105861 0.047333967
0003a0 39 d2 a9 ba e2 4b 31 be 6f 26 00 be 9e ea 4c 3d
       -0.0012956328 -0.17314103 -0.12514661 0.050028436
0003b0 65 35 8a 3d 48 f2 a2 3e c8 63 7a 3e 35 b3 a8 bd
       0.067484654 0.3182547 0.24452126 -0.08237306
0003c0 2c e5 85 3d b4 51 7e 3d 2a cc f5 bd f9 61 e7 bd
       0.06537852 0.062089637 -0.12001832 -0.11297984
0003d0 03 c0 63 3e ab 26 58 be 60 a1 b2 3d 7b c3 aa 3c
       0.22241215 -0.211085 0.08722186 0.020845165
0003e0 c7 8a ce 3c 0e 4b 6f 3c 40 33 29 3c 19 ad db 3d
       0.025212659 0.014605297 0.01032716 0.10726375
0003f0 8d a3 b8 bc 62 b3 4d be cd 85 40 bd 71 72 1a 3e
       -0.022538925 -0.2008796 -0.047002602 0.15082718
