outputs/E1_penalty_fixedlambda_sweep/penalty_seed1_EB0.10_LB0.05_lamE1.0_lamL0.1/best_tail.pt (torch, 981771 bytes, 68 tensors)

actor_backbone.0.weight f4 [128, 22]
0.19986106 -0.15555567 -0.043646507 0.18484168 0.05801903 -0.035541948 -0.12878384 -0.02448174
-0.06894121 0.01818502 -0.033791486 0.030852882 -0.0067500584 0.077363536 0.061467838 0.011151374
0.04613742 0.0042598927 -0.20448759 -0.07281164 0.37138295 0.03656055 0.095043994 0.20335624
0.046143185 -0.08972458 -0.012065371 0.038043834 -0.18636335 0.0936212 -0.00952306 0.062419478
0.04265178 -0.045758326 -0.115085855 -0.17509885 -0.0887503 0.06100947 -0.1300412 0.09469504
0.101994775 -0.00083139626 -0.025520472 0.2044225 -0.109107286 0.17631175 0.09176765 -0.083907336
-0.104984194 -0.28836745 0.08634704 0.08508903 -0.29504517 -0.08853308 0.18137522 -0.014420205
-0.1272745 0.06295673 -0.074264556 -0.028371112 0.18469833 -0.15393296 0.086328596 -0.0345656
-0.22042453 0.22349212 0.08322434 -0.21849073 -0.08857619 0.0129186 -0.011849591 0.030602813
-0.055830363 0.09660844 0.04344505 0.02384744 0.02280999 0.084793985 -0.15182915 -0.108379215
0.021592887 0.055160277 -0.16230471 0.020487344 -0.17698304 0.092338786 0.12350202 -0.044723008
-0.18983945 0.36579734 -0.0023650615 0.07888794 0.025318686 -0.030626195 -0.044250637 0.23098046
-0.032245107 -0.35464793 0.010060859 0.24371223 -0.09714483 0.07634726 0.050616346 -0.004596717
-0.09308239 0.04164008 0.22596788 -0.03433357 -0.07141495 0.12471727 -0.037830554 -0.048787095
-0.24831924 -0.18949583 0.0054740454 0.009622828 -0.06727435 -0.1860324 -0.015735142 -0.03048251
0.33090505 0.108650565 -0.25959322 0.0122793205 0.06139486 0.13127668 -0.04110193 0.13616343
-0.27043483 0.07676985 0.18586694 0.010874181 -0.083613 0.11633028 -0.0066750743 -0.0023098737
-0.054983918 -0.00238926 -0.028492108 0.1773004 -0.14538683 0.13571616 -0.1737449 -0.12768571
0.011782971 0.10629347 0.08337414 0.078322396 -0.07811802 0.10926181 -0.15512916 0.1386187
-0.15292473 -0.18141803 0.14396468 0.123367004 0.07227436 -0.07345355 0.07949155 -0.1178671
0.06249014 -0.068889186 -0.10083377 -0.11245525 0.058331534 -0.057740394 0.08553581 -0.18485886
-0.1077282 -0.19478753 0.01780161 -0.0081574535 0.015749866 0.07060873 -0.102521226 0.040664535
0.024114916 0.060257223 -0.10510764 0.14653537 0.00057310855 0.0021281035 0.027243491 -0.046907958
0.08038282 -0.12672688 -0.036653448 0.097681865 0.124329746 -0.0036961024 -0.018046081 -0.01643603
-0.12641643 -0.13168097 -0.31449598 0.1427013 0.037431616 0.09524296 -0.07417517 -0.15680245
0.16646369 0.10582637 0.022768669 0.11090747 0.07637338 0.042159602 -0.15449037 -0.07529375
0.14758827 -0.02313946 0.06781553 0.03800073 -0.10312186 0.07592711 0.118624955 -0.16642886
0.13334963 0.23619142 -0.083606064 -0.39501894 0.22835562 0.16893102 -0.091258116 -0.037361383
0.020847077 0.08609495 0.109498344 0.110355064 0.06722023 -0.14363284 -0.0734335 0.24782741
0.049433876 -0.018269677 -0.07188395 -0.0231931 -0.0012836985 0.07674327 -0.06432826 0.05571387
0.37381586 -0.028919242 -0.050714053 0.0879058 0.08555905 0.12010975 0.080448374 -0.08290859
-0.10379642 0.054529108 0.11201939 -0.13531846 0.094940215 -0.004959995 -0.06660149 -0.23972768
00000000: 61a8 4c3e fc49 1fbe aec6 32bd 2347 3d3e
00000010: 5da5 6d3d 6f94 11bd e9df 03be ee8d c8bc
00000020: 0d31 8dbd c0f8 943c f168 0abd 2fbf fc3c
00000030: 982f ddbb c670 9e3d b3c5 7b3d 41b4 363c
00000040: 97fa 3c3d 9296 8b3b 3265 51be 451e 95bd
00000050: e825 be3e 84c0 153d 6da6 c23d 9e3c 503e
00000060: a300 3d3d 85c1 b7bd d5ad 45bc dad3 1b3d
00000070: 09d6 3ebe 79bc bf3d 9c06 1cbc 91ab 7f3d
00000080: a2b3 2e3d 156d 3bbd 22b2 ebbd 1d4d 33be
00000090: b8c2 b5bd 11e5 793d 8529 05be 79ef c13d
000000a0: a3e2 d03d 0ff2 59ba 4f10 d1bc 2254 513e
000000b0: a473 dfbd 118b 343e adf0 bb3d 9cd7 abbd
000000c0: f401 d7bd e6a4 93be b8d6 b03d 2843 ae3d
000000d0: 2910 97be d550 b5bd 6dba 393e b942 6cbc
000000e0: 3f54 02be 75ef 803d 0418 98bd 896a e8bc
000000f0: 8f21 3d3e 9aa0 1dbe 0ccd b03d a994 0dbd
00000100: f8b6 61be 1edb 643e 8671 aa3d 09bc 5fbe
00000110: 6f67 b5bd 89a8 533c c924 42bc c0b2 fa3c
00000120: 61ae 64bd a5da c53d 70f3 313d b55b c33c
00000130: 04dc ba3c 78a8 ad3d 1a79 1bbe ecf5 ddbd
00000140: 91e3 b03c beef 613d 3533 26be 13d5 a73c
00000150: 0b3b 35be 1e1c bd3d a1ee fc3d 792f 37bd
00000160: 4665 42be ca49 bb3e 26ff 1abb 0090 a13d
00000170: 2269 cf3c c9e3 fabc 2840 35bd 2486 6c3e
00000180: 7213 04bd 6a94 b5be 4dd6 243c b38f 793e
00000190: def3 c6bd f45b 9c3d 1653 4f3d 0fa0 96bb
000001a0: fba1 bebd ca8e 2a3d 2064 673e 5ca1 0cbd
000001b0: 0042 92bd c56b ff3d 36f4 1abd fad4 47bd
000001c0: 6647 7ebe 320b 42be 9f5f b33b 11a9 1d3c
000001d0: 22c7 89bd 477f 3ebe fce6 80bc 75b6 f9bc
000001e0: 636c a93e 3084 de3d 67e9 84be 342f 493c
000001f0: 2d79 7b3d 656d 063e 7f5a 28bd 6d6e 0b3e
00000200: 6f76 8abe 8339 9d3d e753 3e3e 9f29 323c
00000210: 4b3d abbd 923e ee3d 95ba dabb 4061 17bb
00000220: d136 61bd 2295 1cbb 4868 e9bc 3c8e 353e
00000230: 49e0 14be 2df9 0a3e 2fea 31be 0bc0 02be
00000240: 5d0d 413c 64b0 d93d 10c0 aa3d 7e67 a03d
00000250: 57fc 9fbd a8c4 df3d 2eda 1ebe 0ff2 0d3e
00000260: 4d98 1cbe a6c5 39be 7a6b 133e d7a7 fc3d
00000270: 9404 943d d16e 96bd 77cc a23d 4e64 f1bd
00000280: a9f5 7f3d c615 8dbd f081 cebd f04e e6bd
00000290: 0ced 6e3d 3181 6cbd 662d af3d a44b 3dbe
000002a0: 9aa0 dcbd 6276 47be afd4 913c d7a6 05bc
000002b0: dd05 813c 4f9b 903d a6f6 d1bd db8f 263d
000002c0: a58c c53c 47d0 763d ad42 d7bd 5e0d 163e
000002d0: aa3c 163a a777 0b3b be2d df3c 8f22 40bd
000002e0: bf9f a43d b1c4 01be ed21 16bd 6e0d c83d
000002f0: 98a0 fe3d 4f3a 72bb 60d5 93bc daa4 86bc
00000300: 4f73 01be 60d7 06be 9e05 a1be 4a20 123e
00000310: e551 193d be0e c33d 27e9 97bd d290 20be
00000320: 7575 2a3e 7fbb d83d 5c85 ba3c 7523 e33d
00000330: a669 9c3d 8caf 2c3d b932 1ebe 9c33 9abd
00000340: 6121 173e f78e bdbc dee2 8a3d a7a6 1b3d
00000350: 8e31 d3bd ac7f 9b3d a4f1 f23d 546c 2abe
00000360: ce8c 083e 2adc 713e a839 abbd ec3f cabe
00000370: 0ed6 693e 41fc 2c3e 89e5 babd 4008 19bd
00000380: 7dc7 aa3c 8d52 b03d ab40 e03d d601 e23d
00000390: c3aa 893d 7d14 13be 4e64 96bd 78c6 7d3e
000003a0: 2d7b 4a3d 4aaa 95bc e437 93bd 75ff bdbc
000003b0: c641 a8ba 932b 9d3d 89be 83bd 3a34 643d
000003c0: cb64 bf3e 0ce8 ecbc 8ab9 4fbd f507 b43d
000003d0: 9539 af3d 1afc f53d 1ec2 a43d fbcb a9bd
000003e0: 3893 d4bd ea59 5f3d 6c6a e53d ec90 0abe
000003f0: 0470 c23d 7487 a2bb 5d66 88bd 2c7b 75be

actor_backbone.0.bias f4 [128]
-0.09879799 -0.35755447 -0.06306177 0.111996934 -0.20924075 0.30593348 0.3136994 -0.3659686
0.35226962 0.40225732 0.021532834 0.2187278 -0.2771458 0.3457191 -0.34848812 -0.1902717
0.04459014 -0.43830073 0.19945057 0.05671343 -0.26290485 0.16705164 0.10351897 0.33451587
-0.42497924 -0.25126642 0.31109935 -0.27978674 0.28654924 0.16082636 0.005947089 0.040583413
0.2773148 0.25447935 0.16292393 -0.35647413 0.23661554 0.18746173 0.043518342 -0.06276234
0.2875076 0.20548648 0.35812888 0.13479458 0.027352495 -0.36395374 0.2207867 0.21973604
-0.21488543 0.0042638923 0.13896148 0.33545437 0.0063379807 -0.40789872 -0.16538969 -0.29434723
-0.3223143 -0.3741201 0.027286015 -0.4094077 -0.057643063 -0.27291888 -0.17826055 -0.22016081
-0.024563463 -0.3280213 -0.21666436 -0.15552926 0.17502575 0.20659815 0.09253551 -0.24407178
0.23764423 -0.31612355 0.36972445 -0.23379533 -0.11553333 -0.024842056 0.012812952 0.37186292
0.18809219 -0.14559008 0.17493714 0.039140176 0.009194658 0.1979164 -0.20701982 -0.13285844
-0.30062762 0.34588838 -0.2894035 -0.27100706 0.35805047 -0.05656401 0.4366078 0.022907892
-0.04821122 -0.18555743 -0.25871617 -0.26256847 0.11565447 0.043912143 0.33241877 0.25693235
-0.25268176 -0.22820085 0.3189188 0.056113325 -0.27265102 0.2170046 0.18231514 0.24312833
0.32033193 -0.22196281 -0.09520014 -0.20465039 -0.26433134 -0.15501903 -0.3649132 -0.3708081
-0.2989077 -0.31198254 -0.22056234 -0.17923732 0.099517696 0.13915035 -0.11333151 -0.18046932
00000000: 9a56 cabd 6111 b7be 8726 81bd a65e e53d
00000010: 3543 56be 50a3 9c3e 359d a03e 3d60 bbbe
00000020: af5c b43e acf4 cd3e a065 b03c 2efa 5f3e
00000030: 0ee6 8dbe 1802 b13e 096d b2be 96d6 42be
00000040: 27a4 363d f468 e0be c53c 4c3e 574c 683d
00000050: 779b 86be 960f 2b3e c101 d43d aa45 ab3e
00000060: e196 d9be fea5 80be 6a48 9f3e 3540 8fbe
00000070: 95b6 923e aaaf 243e ccdf c23b cb3a 263d
00000080: 35fc 8d3e 1e4b 823e 88d5 263e c783 b6be
00000090: 584b 723e f8f5 3f3e 4a40 323d 8b89 80bd
000000a0: 3234 933e 0c6b 523e ab5c b73e 9707 0a3e
000000b0: 5712 e03c 2558 babe e915 623e 7c02 613e
000000c0: ed0a 5cbe 1fb8 8b3b eb4b 0e3e adc0 ab3e
000000d0: d6ae cf3b 1ad8 d0be ea5b 29be aeb4 96be
000000e0: 6106 a5be ab8c bfbe ec86 df3c e39d d1be
000000f0: 221b 6cbd 06bc 8bbe ef89 36be d671 61be
00000100: 5139 c9bc 68f2 a7be 43dd 5dbe 1043 1fbe
00000110: f339 333e 778e 533e 4283 bd3d f4ed 79be
00000120: 0259 733e f2da a1be 864c bd3e 0b68 6fbe
00000130: bd9c ecbd 9181 cbbc 6aed 513c d164 be3e
00000140: 3d9b 403e 9115 15be b922 333e 7351 203d
00000150: 31a5 163c 99aa 4a3e 01fd 53be 0b0c 08be
00000160: ddeb 99be 4818 b13e b22c 94be 70c1 8abe
00000170: 6452 b73e aaaf 67bd 0f8b df3e 55a9 bb3c
00000180: 2179 45bd c402 3ebe 7276 84be 606f 86be
00000190: 40dc ec3d 38dd 333d cb32 aa3e a38c 833e
000001a0: 815f 81be 7cad 69be 5349 a33e 16d7 653d
000001b0: ea98 8bbe 7436 5e3e d2b0 3a3e a2f6 783e
000001c0: 8c02 a43e 384a 63be 4af8 c2bd df8f 51be
000001d0: 7056 87be 4fbd 1ebe e7d5 babe 8fda bdbe
000001e0: 6e0a 99be 2dbc 9fbe 18db 61be fd89 37be
000001f0: efcf cb3d 6e7d 0e3e 5a1a e8bd f3cc 38be

actor_backbone.2.weight f4 [128, 128]
-0.07928366 0.12776601 0.03688844 -0.016529875 0.1265846 0.0035881836 0.28651708 -0.13388124
0.06914726 0.03290088 0.13174872 0.28979066 0.21092421 0.117019825 0.0004988355 -0.0105998535
0.042286698 -0.1325092 0.28172216 0.24277925 -0.0898492 -0.06284276 -0.02140843 -0.05244017
-0.07417136 -0.08115486 0.21719636 0.029638577 -0.049713902 -0.024467772 0.20521888 -0.02689775
-0.06825872 0.03512705 -0.033157386 -0.011677402 0.07890729 -0.13414648 -0.40732995 -0.087353714
0.16631158 0.16640604 -0.039426338 -0.02518372 -0.21415147 0.019214543 0.071411796 0.14373866
-0.13693094 0.0925532 -0.15448703 0.15299706 -0.00678181 -0.1312153 -0.033546492 -0.2524001
-0.007494454 0.00066746125 -0.03728968 0.03511969 -0.095172 -0.029722892 0.004989831 0.10523451
0.029130025 0.030563971 -0.22382191 -0.09694344 0.18484667 0.13236244 0.14068429 -0.040989187
-0.26416087 -0.1617554 0.021403117 0.00025164112 0.099701315 -0.05063033 0.0709841 -0.06260798
-0.109237194 0.028871393 -0.16441889 0.44354734 -0.12986572 0.042412132 0.09676809 0.13362229
-0.11274394 -0.031587955 -0.41138083 -0.10847612 0.12510024 0.078333616 0.19386439 -0.0041423407
-0.12997587 -0.17428218 -0.10232509 0.13114214 0.049956426 0.0057655424 0.23291667 -0.0740277
0.20644227 -0.36595485 0.034574263 -0.173954 -0.10697235 0.28305227 -0.08991035 0.17494011
0.10053893 -0.102256574 0.08552538 0.1559091 -0.23733772 0.13658924 -0.2788462 0.05697401
-0.3404052 -0.18364726 -0.39638215 0.14779046 0.035473578 -0.045590192 0.11045597 -0.09172824
0.047420595 0.24401096 -0.2846168 -0.16090739 -0.029787 -0.08411393 0.06576001 0.11052146
-0.035441115 0.19688854 -0.031301036 -0.10676521 -0.30884197 0.09146515 0.045674264 -0.14211582
-0.005231352 0.23058572 0.013847169 0.23015976 0.019626057 0.07191198 0.047838528 -0.13008149
0.31857553 0.25381175 -0.31550112 0.17133948 0.033271536 -0.018275818 0.0029371618 0.003021805
-0.13338977 -0.27974796 0.11416189 -0.06891349 0.095463134 -0.10897083 -0.18662518 0.23610328
0.009184143 0.056042235 -0.44004098 0.094066925 0.030556552 0.31412536 -0.17786226 -0.15588054
-0.02857978 0.065893285 -0.044209577 -0.16109106 -0.041439045 0.16232152 0.07185608 0.32873753
0.105544716 -0.0856304 0.048973918 0.08885865 0.12853421 -0.09625754 -0.09758916 0.0795734
0.07050535 0.110682696 0.05189216 0.105303384 0.016392885 -0.30703 -0.12355677 0.06495748
-0.05860694 0.0141763305 -0.14326805 0.08570867 -0.11801683 0.08464826 0.16070476 -0.24413267
-0.016471654 0.072918184 -0.081917465 0.06517137 0.09403846 -0.022476234 -0.052517403 0.01456858
0.0059278146 -0.113568075 0.14510462 0.11275838 -0.38329408 -0.021693952 -0.21925977 -0.16695541
0.24330625 0.090900384 -0.10002931 0.09533067 -0.029592754 0.08082191 -0.15531136 -0.20904091
0.11776352 0.12886174 0.048433322 -0.14481945 -0.14632078 -0.20160566 -0.22681859 -0.115696475
0.09192823 -0.0791654 0.022431718 -0.28094068 0.13171515 -0.0055040577 0.21746805 0.044380724
0.23745829 -4.9868926e-05 0.060490213 0.10322327 -0.29459527 0.1370236 0.061689265 -0.1620244
00000000: 795f a2bd 18d5 023e 5518 173d a969 87bc
00000010: 659f 013e bb27 6b3b 5eb2 923e 2a18 09be
00000020: 149d 8d3d 13c3 063d 23e9 063e 715f 943e
00000030: 84fc 573e 17a8 ef3d 49c4 023a 02ab 2dbc
00000040: d134 2d3d 7eb0 07be e33d 903e 209b 783e
00000050: db02 b8bd b4b3 80bd bb60 afbc 81cb 56bd
00000060: 27e7 97bd 8534 a6bd b968 5e3e 9acc f23c
00000070: cea0 4bbd a370 c8bc e624 523e ac58 dcbc
00000080: 3acb 8bbd 62e1 0f3d 0ad0 07bd 9352 3fbc
00000090: 259a a13d b25d 09be 8d8d d0be 81e6 b2bd
000000a0: 954d 2a3e 5866 2a3e 837d 21bd 174e cebc
000000b0: 864a 5bbe d167 9d3c 5940 923d 3a30 133e
000000c0: a037 0cbe 888c bd3d d931 1ebe 43ab 1c3e
000000d0: f239 debb 4e5d 06be 0c68 09bd 963a 81be
000000e0: 0994 f5bb 91f8 2e3a 10bd 18bd aad9 0f3d
000000f0: 8ae9 c2bd 6c7d f3bc bc81 a33b 3185 d73d
00000100: 17a2 ee3c 4b61 fa3c 9231 65be 488a c6bd
00000110: 7248 3d3e 058a 073e 8b0f 103e 47e4 27bd
00000120: 1840 87be 35a3 25be 9755 af3c b3ee 8339
00000130: 3430 cc3d c061 4fbd 1d60 913d 9d38 80bd
00000140: c0b7 dfbd b383 ec3c 6d5d 28be a318 e33e
00000150: 85fb 04be 58b8 2d3d 592e c63d 48d4 083e
00000160: 4be6 e6bd 5f62 01bd 82a0 d2be ba28 debd
00000170: 471a 003e 606d a03d 6384 463e 79bc 87bb
00000180: 6518 05be 0777 32be d18f d1bd 204a 063e
00000190: 1c9f 4c3d e0ec bc3b b581 6e3e d69b 97bd
000001a0: 9a65 533e 6f5e bbbe be9d 0d3d ff20 32be
000001b0: 5214 dbbd 3aec 903e eb22 b8bd 8023 333e
000001c0: 5be7 cd3d e56b d1bd ee27 af3d a3a6 1f3e
000001d0: a908 73be 0dde 0b3e eec4 8ebe 945d 693d
000001e0: 9749 aebe 070e 3cbe 9af2 cabe 6256 173e
000001f0: be4c 113d c8bc 3abd bd36 e23d 04dc bbbd
00000200: 193c 423d 02de 793e 4bb9 91be e8c4 24be
00000210: de03 f4bc ed43 acbd 2fad 863d 1359 e23d
00000220: b42a 11bd 269d 493e 8435 00bd b8a7 dabd
00000230: 8920 9ebe 1552 bb3d f014 3b3d cf86 11be
00000240: c36b abbb aa1e 6c3e 3cdf 623c 00af 6b3e
00000250: d3c6 a03c 9746 933d 55f2 433d 1534 05be
00000260: 551c a33e 9df3 813e 5d89 a1be 9e73 2f3e
00000270: bc47 083d 2bb7 95bc 667d 403b 7a09 463b
00000280: 5497 08be 203b 8fbe b5cd e93d 8422 8dbd
00000290: 2d82 c33d 192c dfbd ac1a 3fbe 0fc5 713e
000002a0: 1679 163c 8b8c 653d 0d4d e1be 29a6 c03d
000002b0: bc51 fa3c 0ad5 a03e 8621 36be 269f 1fbe
000002c0: 2520 eabc 0ff3 863d 1a15 35bd 0ef5 24be
000002d0: fdbb 29bd 9d37 263e 4829 933d 4950 a83e
000002e0: d427 d83d fe5e afbd e098 483d 86fb b53d
000002f0: 799e 033e ac22 c5bd d3dc c7bd 61f7 a23d
00000300: 1c65 903d 9cad e23d e08c 543d 4da9 d73d
00000310: 5f4a 863c 0933 9dbe 550b fdbd 6d08 853d
00000320: d50d 70bd d743 683c dcb4 12be 0788 af3d
00000330: cfb2 f1bd 115c ad3d ca8f 243e eafd 79be
00000340: 90ef 86bc 2156 953d 58c4 a7bd 9178 853d
00000350: 3c97 c03d 1420 b8bc 7d1c 57bd 0eb1 6e3c
00000360: 1d3e c23b 6196 e8bd 4e96 143e deed e63d
00000370: 1f3f c4be 84b7 b1bc a285 60be 5cf6 2abe
00000380: 4625 793e fb29 ba3d 2bdc ccbd ba3c c33d
00000390: 816c f2bc f585 a53d f109 1fbe d20e 56be
000003a0: 002e f13d 55f4 033e 0562 463d 8d4b 14be
000003b0: 1dd5 15be b771 4ebe 2243 68be 46f2 ecbd
000003c0: de44 bc3d 7821 a2bd b9c2 b73c 75d7 8fbe
000003d0: 56e0 063e 625b b4bb f2af 5e3e 90c8 353d
000003e0: 4428 733e 5a2a 51b8 96c4 773d b966 d33d
000003f0: 31d5 96be ea4f 0c3e e2ad 7c3d b9e9 25be

actor_backbone.2.bias f4 [128]
0.20623608 -0.30474085 -0.27073023 0.3173693 0.04088521 -0.21129563 0.3339765 0.21674316
-0.22719811 -0.025513442 0.30577275 -0.2993674 0.35386688 0.22761844 -0.08503496 0.2786399
0.22219394 -0.20140006 -0.012216572 -0.2889037 -0.35488474 0.29022023 -0.26726305 -0.2047971
0.19381498 0.22861628 -0.057616066 -0.12254847 -0.2719551 0.046803612 -0.24545737 -0.2887928
0.30714905 0.25736916 -0.29321268 0.27341425 -0.044534717 0.2732697 -0.07051291 0.0075351656
0.026935382 -0.004855877 -0.33466724 0.26706454 -0.09315814 0.13087259 -0.28918698 0.20193943
0.24315089 0.22397763 0.06297776 0.11416854 -0.3248207 -0.19645426 -0.26164004 0.30531794
0.26394498 -0.15871038 0.117290005 0.29101154 -0.03444477 0.31700495 0.20778956 0.14585583
-0.3189439 -0.20350634 -0.16616194 -0.27403307 -0.26291865 -0.3383192 -0.049538236 -0.21992743
0.14998081 -0.31447434 -0.31761864 -0.041086055 -0.32794884 -0.22231482 -0.34323967 -0.3431983
-0.17120662 -0.21387222 0.18467925 0.26332432 -0.1400753 -0.31565708 -0.3242892 -0.24473703
-0.2781477 -0.20938899 0.24385685 0.03964813 -0.16358285 -0.21828702 -0.17530505 0.110052295
0.12867141 -0.17802298 -0.24510555 -0.17349538 0.24318397 -0.12666665 0.24077642 -0.19734515
0.19873694 0.2621442 -0.25934052 -0.079332314 0.28896657 0.17562634 -0.33733082 0.098699644
-0.18841472 0.10323329 -0.34126624 -0.32328415 0.07082204 0.06371645 0.28044766 0.20919082
-0.18752393 0.32030433 -0.14549932 -0.1792935 -0.34828869 0.08313454 -0.28629678 0.13182907
00000000: 8d2f 533e fe06 9cbe 279d 8abe 3b7e a23e
00000010: 4077 273d e25d 58be f8fe aa3e ebf1 5d3e
00000020: 9fa6 68be 9101 d1bc 3f8e 9c3e af46 99be
00000030: 0a2e b53e cf14 693e cf26 aebd e4a9 8e3e
00000040: cf86 633e d13b 4ebe 0428 48bc 30eb 93be
00000050: 74b3 b5be bf97 943e b4d6 88be 55b6 51be
00000060: 6f77 463e 631a 6a3e d3fe 6bbd b1fa fabd
00000070: b33d 8bbe 25b5 3f3d 2d59 7bbe a6dc 93be
00000080: a442 9d3e e4c5 833e f91f 96be f4fc 8b3e
00000090: 096a 36bd 02ea 8b3e 1369 90bd 8de9 f63b
000000a0: 97a7 dc3c 0c1e 9fbb 8159 abbe afbc 883e
000000b0: b2c9 bebd 7703 063e 5110 94be 36c9 4e3e
000000c0: 8cfc 783e 645a 653e 7cfa 803d 32d1 e93d
000000d0: e64e a6be 4e2b 49be aff5 85be a252 9c3e
000000e0: cc23 873e f984 22be be35 f03d 77ff 943e
000000f0: f615 0dbd 794e a23e c9c6 543e 3b5b 153e
00000100: 9d4c a3be f763 50be 5b26 2abe 104e 8cbe
00000110: 469d 86be 2d38 adbe 9be8 4abd a834 61be
00000120: 9294 193e c802 a1be e99e a2be da49 28bd
00000130: e9e8 a7be 7fa6 63be 1cbd afbe b0b7 afbe
00000140: ca50 2fbe 5201 5bbe 8f1c 3d3e 72d2 863e
00000150: e66f 0fbe ce9d a1be 3c09 a6be 589c 7abe
00000160: 6069 8ebe 116a 56be 9cb5 793e 1466 223d
00000170: 4382 27be a286 5fbe 2b83 33be 1963 e13d
00000180: 70c2 033e a84b 36be f3fc 7abe c6a8 31be
00000190: 3805 793e e7b4 01be 188e 763e d914 4abe
000001a0: b281 4b3e c437 863e 48c8 84be fb78 a2bd
000001b0: 6df3 933e 64d7 333e a0b6 acbe 0a23 ca3d
000001c0: caef 40be fa6b d33d 73ba aebe 8085 a5be
000001d0: 250b 913d c57d 823d d696 8f3e 1e36 563e
000001e0: 4606 40be eefe a33e c6fd 14be b798 37be
000001f0: e552 b2be 7142 aa3d 7e95 92be 33fe 063e

reward_backbone.0.weight f4 [128, 22]
0.073156215 0.25124264 0.0045956927 -0.03964602 0.10427292 0.05519213 0.0950819 0.077811986
0.09312632 -0.024058858 -0.0140618235 0.06617968 0.063110165 -0.01868201 0.061307725 -0.022629395
0.002727889 0.040800896 -0.0016255671 -0.05942805 0.11659744 0.09556782 0.05472893 0.18546943
0.0684279 0.06473249 -0.10241919 0.10534402 0.04486156 -0.06348216 -0.008351108 0.009280981
0.047868263 0.058657542 0.0228168 0.036836702 0.02409014 -0.10815022 0.03131333 -0.21890447
0.020304406 -0.13888365 0.062000696 -0.083132446 -0.12142541 -0.21506166 0.16213542 -0.05015234
0.006093845 0.07812016 -0.12925626 -0.20539263 0.16813546 -0.21426108 0.09486197 0.024706198
-0.06365403 0.088188015 0.005143346 0.098384485 0.0670281 -0.044282034 -0.23947072 0.003258626
0.26027018 -0.022967566 -0.12349021 -0.029866373 0.025381347 -0.054490365 0.018395888 0.059747227
-0.03322154 0.0100706685 -0.033517152 0.10780045 0.04958917 0.01031534 0.030180732 -0.047916055
-0.11105382 0.1814127 0.07042194 -0.06760934 0.051786896 0.20420393 -0.20489174 0.007245939
-0.26431498 0.25600532 0.13965303 -0.108268574 -0.018728688 0.10102769 -0.13282491 0.06613489
-0.09933961 0.2178273 0.16568597 -0.08329415 -0.14293323 0.123550504 0.04428009 0.10160044
-0.090192415 0.07357638 -0.14622982 -0.012909778 0.010634232 0.07707536 0.22460249 0.029959695
-0.29153886 0.040460233 -0.19958636 0.017548088 0.0020590376 0.026313527 0.15632415 -0.08394669
-0.30167043 -0.0441143 0.20511393 0.0879727 -0.14808 0.131387 -0.0038062255 0.2385749
0.014294239 0.10471692 -0.08322156 0.03768073 -0.063392885 -0.2882673 -0.14951497 0.12586278
0.008677073 -0.09115401 0.05879592 0.049564704 0.082784615 -0.15291093 -0.0226158 -0.02641592
0.14538592 -0.021691572 0.045075756 0.044076126 -0.05538445 -0.06763376 0.015858987 0.1512468
-0.15793346 0.05589803 -0.09961358 -0.22177894 0.021079198 0.12742913 0.0007665546 0.13531476
0.103183836 -0.015647722 0.02176355 0.12696719 -0.08460422 -0.23468158 0.092156105 -0.04199889
-0.014322153 -0.012004791 0.010111675 0.01967338 0.056874495 -0.079181366 -0.023144875 -0.14178793
-0.052781083 -0.043529302 -0.006689855 0.06930253 0.2524965 0.09344017 -0.026818646 -0.0021498227
-0.13466235 -0.053338505 0.16033153 0.020879518 0.09922624 -0.15886863 0.093942836 -0.026926126
-0.11033749 -0.06826473 0.086947784 -0.031969998 0.10283898 -0.006349521 0.17934336 -0.08741024
-0.11068269 0.14225726 0.047060527 -0.047898676 -0.15949565 0.17052105 0.002225809 0.007209834
-0.24545489 0.06362417 0.058417197 0.14219394 -0.104656145 -0.1504367 -0.032929547 0.1005284
0.21496338 -0.095985144 -0.19611299 -0.08314374 -0.07277468 0.36499256 -0.01970367 0.01177342
-0.21682477 0.049172483 0.09838737 0.055848967 0.055733837 -0.12723322 -0.024046171 -0.023368005
-0.18607071 -0.018922636 -0.055802297 -0.05584281 0.19708529 0.053128228 0.08084782 -0.06360212
0.04505507 0.06964287 -0.13185902 -0.10914633 0.101656266 -0.057860047 0.07160182 -0.06482522
-0.036992244 0.11882608 0.0006316107 0.13281897 -0.07169031 -0.08384806 -0.07385713 0.047705647
00000000: edd2 953d e0a2 803e 7797 963b dd63 22bd
00000010: 0a8d d53d 2511 623d 4dba c23d e45b 9f3d
00000020: 03b9 be3d 1517 c5bc 9063 66bc 3689 873d
00000030: e73f 813d 040b 99bc cf1d 7b3d 4861 b9bc
00000040: 62c6 323b d71e 273d fb10 d5ba d46a 73bd
00000050: a3ca ee3d 10b9 c33d 712b 603d b3eb 3d3e
00000060: ed23 8c3d 7892 843d 27c1 d1bd 9bbe d73d
00000070: c1c0 373d ef02 82bd 16d3 08bc 410f 183c
00000080: 8311 443d e442 703d 4cea ba3c 15e2 163d
00000090: af58 c53c dd7d ddbd 6842 003d 7e28 60be
000000a0: 6d55 a63c 8437 0ebe 71f4 7d3d 5841 aabd
000000b0: e3ad f8bd 2039 5cbe d406 263e 8a6c 4dbd
000000c0: e0ae c73b 76fd 9f3d c15b 04be 7252 52be
000000d0: b42b 2c3e 4267 5bbe fe46 c23d a764 ca3c
000000e0: 0b5d 82bd eb9b b43d 8389 a83b ce7d c93d
000000f0: 0746 893d 1461 35bd d037 75be ac8e 553b
00000100: 2242 853e 7a26 bcbc 6fe8 fcbd 53aa f4bc
00000110: 8bec cf3c 4a31 5fbd f9b2 963c 82b9 743d
00000120: 4f13 08bd 72ff 243c 4849 09bd 7bc6 dc3d
00000130: 031e 4b3d ac01 293c 953d f73c a043 44bd
00000140: 2f70 e3bd 40c4 393e 6139 903d c476 8abd
00000150: 7f1e 543d d61a 513e 24cf 51be 586f ed3b
00000160: 4b54 87be 2113 833e 3401 0f3e eabb ddbd
00000170: e86c 99bc 9be7 ce3d 4103 08be bb71 873d
00000180: 9172 cbbd 1f0e 5f3e 95a9 293e 2096 aabd
00000190: 175d 12be 0c08 fd3d 0a5f 353d e413 d03d
000001a0: cdb6 b8bd 37af 963d 45bd 15be 8983 53bc
000001b0: 343b 2e3c b0d9 9d3d 32fe 653e 096e f53c
000001c0: 9544 95be a1b9 253d 5e60 4cbe 02c1 8f3c
000001d0: ebf0 063b 778f d73c 7013 203e 3eec abbd
000001e0: 8c74 9abe 32b1 34bd 6309 523e 082b b43d
000001f0: 49a2 17be 508a 063e de71 79bb fb4c 743e
00000200: 6232 6a3c d375 d63d 1170 aabd 1c57 1a3d
00000210: 21d4 81bd c697 93be 741a 19be 2ce2 003e
00000220: 482a 0e3c f4ae babd fed3 703d 5c04 4b3d
00000230: fb8a a93d af94 1cbe c544 b9bc 3366 d8bc
00000240: 0ce0 143e 86b2 b1bc 5ba1 383d 2b89 343d
00000250: ceda 62bd 9283 8abd b5ea 813c 71e0 1a3e
00000260: 4fb9 21be 55f5 643d 3402 ccbd 051a 63be
00000270: 48ae ac3c c87c 023e 9cf2 483a f48f 0a3e
00000280: 0c52 d33d a72f 80bc 7949 b23c b003 023e
00000290: fa44 adbd 5e50 70be 57bc bc3d 0707 2cbd
000002a0: 77a7 6abc beaf 44bc 70ab 253c 112a a13c
000002b0: 3bf5 683d d729 a2bd 529a bdbc db30 11be
000002c0: fa30 58bd c84b 32bd 9236 dbbb 7cee 8d3d
000002d0: 3947 813e 8f5d bf3d c7b2 dbbc 0ae4 0cbb
000002e0: ede4 09be 7a79 5abd f32d 243e 860b ab3c
000002f0: 2037 cb3d 75ae 22be 1a65 c03d 2e94 dcbc
00000300: 9ff8 e1bd 61ce 8bbd ae11 b23d f9f2 02bd
00000310: 3e9d d23d a50f d0bb c9a5 373e 2404 b3bd
00000320: 9bad e2bd e3ab 113e 8ac2 403d 6731 44bd
00000330: d452 23be 129d 2e3e e1de 113b 7940 ec3b
00000340: 8758 7bbe 644d 823d df46 6f3d 4a9b 113e
00000350: f655 d6bd 140c 1abe 22e1 06bd d5e1 cd3d
00000360: 5c1f 5c3e dc93 c4bd d8d1 48be 4447 aabd
00000370: e40a 95bd 4ee0 ba3e 9769 a1bc 4de5 403c
00000380: 5007 5ebe 1669 493d 517f c93d e3c1 643d
00000390: 2a49 643d 6d49 02be 7afc c4bc 426e bfbc
000003a0: 5289 3ebe a503 9bbc f390 64bd 6ebb 64bd
000003b0: bad0 493e fc9c 593d 8b93 a53d d441 82bd
000003c0: aa8b 383d eca0 8e3d 0d06 07be 1c88 dfbd
000003d0: 2931 d03d a8fe 6cbd faa3 923d 16c3 84bd
000003e0: 2e85 17bd 165b f33d ad92 253a b201 083e
000003f0: 5fd2 92bd 88b8 abbd 6842 97bd ff66 433d

reward_backbone.0.bias f4 [128]
0.012189407 0.29434642 0.17271297 0.064996876 0.1400393 -0.18142964 -0.013830165 0.43941996
0.16050206 0.08819629 0.011728416 -0.046292685 -0.27085942 0.061674904 -0.05967441 0.017941458
0.018232191 -0.29648894 0.122595124 0.28645104 -0.07404021 -0.08414128 0.018913016 0.086349115
-0.108422786 0.36685398 -0.01721047 -0.020976301 -0.010872357 -0.032420635 0.28929603 0.26204082
-0.0022908614 0.2604701 -0.011490518 0.047523413 -0.05748979 0.1812819 0.0031787504 0.31844154
-0.21813183 0.045502838 -0.11159395 0.2772034 -0.036279097 0.06250743 -0.05774212 0.22744046
-0.005119239 -0.14594048 -0.2543767 -0.13069585 -0.024956001 -0.10932155 -0.11795343 0.049812827
0.09793391 -0.10119438 0.05540829 -0.19860137 0.2135368 0.23222323 -0.044982713 -0.08251669
-0.05776999 -0.16894248 -0.14084189 -0.08228516 -0.054726053 -0.12772888 -0.105898626 0.0037548945
-0.33720118 0.35294732 0.13713236 -0.1276133 -0.022475965 -0.22451328 -0.15294671 -0.25152096
0.07416853 -0.08738726 -0.004880701 0.19823207 0.037247166 -0.25276113 0.3152935 -0.15173812
-0.28965843 -0.17819442 0.006905069 0.019551642 0.3113642 -0.051616494 -0.2758008 0.29560938
0.16531377 -0.061501667 0.009435806 0.14211233 0.06534149 -0.3677744 0.03535612 0.08419255
-0.044954795 -0.059957847 -0.03969137 0.21839821 0.0023154174 -0.020449976 0.24462266 -0.1267828
-0.051788878 -0.0010746275 0.020306855 0.16650373 0.07826634 -0.15681659 0.003952624 -0.20379296
0.32566732 0.0639802 0.090418585 -0.0702 -0.012088593 -0.010089128 0.09147876 -0.03750535
00000000: 14b6 473c 93b4 963e abdb 303e 151d 853d
00000010: 7666 0f3e b1c8 39be eb97 62bc a7fb e03e
00000020: a75a 243e 42a0 b43d 8b28 403c 669d 3dbd
00000030: 16ae 8abe d39e 7c3d 276d 74bd f7f9 923c
00000040: ad5b 953c 66cd 97be 2713 fb3d b6a9 923e
00000050: 65a2 97bd 4352 acbd 78ef 9a3c ced7 b03d
00000060: c40c debd 49d4 bb3e f9fc 8cbc 7ed6 abbc
00000070: f821 32bc 80cb 04bd 9c1e 943e 372a 863e
00000080: 4722 16bb 565c 853e ba42 3cbc e9a7 423d
00000090: 6a7a 6bbd f6a1 393e 9552 503b c50a a33e
000000a0: f35d 5fbe 2f61 3a3d 5e8b e4bd 9bed 8d3e
000000b0: 6499 14bd e503 803d 0083 6cbd 27e6 683e
000000c0: 4abf a7bb 6c71 15be aa3d 82be 22d5 05be
000000d0: 8770 ccbc fae3 dfbd 9191 f1bd 8908 4c3d
000000e0: 9391 c83d 003f cfbd cef3 623d 285e 4bbe
000000f0: 64a9 5a3e edcb 6d3e cb3f 38bd 83fe a8bd
00000100: 3aa0 6cbd 42ff 2cbe db38 10be 1f85 a8bd
00000110: 6d28 60bd 5ccb 02be 61e1 d8bd ad14 763b
00000120: a2a5 acbe 83b5 b43e 6d6c 0c3e 10ad 02be
00000130: 841f b8bc cfe6 65be 109e 1cbe 5bc7 80be
00000140: ace5 973d 17f8 b2bd 4aee 9fbb 59fd 4a3e
00000150: 7c90 183d e869 81be 266e a13e 3d61 1bbe
00000160: 1c4e 94be 9978 36be eb43 e23b c42a a03c
00000170: 216b 9f3e d16b 53bd c335 8dbe 1d5a 973e
00000180: 0348 293e 2ce9 7bbd a498 1a3c e585 113e
00000190: c2d1 853d ed4c bcbe 94d1 103d 256d ac3d
000001a0: 8522 38bd 5c96 75bd 6b93 22bd c8a3 5f3e
000001b0: 42be 173b b586 a7bc 5d7e 7a3e 5ad3 01be
000001c0: 9320 54bd 84da 8cba 905a a63c f47f 2a3e
000001d0: 1a4a a03d 8794 20be 0385 813b 1aaf 50be
000001e0: debd a63e 0d08 833d 612d b93d 05c5 8fbd
000001f0: 3c0f 46bc df4c 25bc 3759 bb3d 369f 19bd

reward_backbone.2.weight f4 [128, 128]
-0.20363511 0.041161783 0.07545601 -0.047878113 0.1881512 -0.14299607 -0.13013542 0.017358229
0.026520655 -0.052289564 0.050733224 -0.18439163 -0.0023172223 -0.16879866 0.048944782 0.085677594
0.035470292 0.08669626 0.18917604 0.22570789 0.44248638 -0.07228205 -0.064904235 -0.020391235
-0.03681855 0.07428027 -0.05778915 0.13232148 0.12307827 -0.17407554 -0.008218984 -0.09686323
0.058092806 -0.036454 0.03673725 0.11690925 0.18160616 -0.0709878 -0.028713215 -0.07504542
-0.11042217 -0.0009149756 0.014007438 -0.06955001 -0.19017324 0.022086468 0.17055061 -0.176301
-0.12981962 -0.056660455 -0.08117463 0.11389305 0.09591307 -0.097080365 0.017497284 0.21084055
0.12558042 -0.11583282 0.19965218 -0.081183456 -0.23391584 0.0014932008 -0.19585614 0.0030759678
-0.047630567 -0.06553103 -0.009618548 0.13736567 0.24761574 0.07284414 0.27751568 0.054156676
0.25915295 0.06553833 0.05219171 -0.18209198 -0.01194715 0.15205008 0.0072874026 -0.13346829
0.2213603 0.15904544 0.058320247 -0.105921306 -0.07303601 0.10911692 -0.09287168 0.108029254
0.22984833 0.20963712 -0.042608187 -0.10830594 -0.004796128 -0.10225895 0.09842788 0.11512597
-0.071158245 -0.20795995 0.053518586 0.03909681 -0.112806715 -0.066103294 0.17155477 -0.21191609
0.03278051 0.19245186 0.047887247 0.0050304574 -0.02270247 -0.16010335 0.05590724 0.05678971
0.058481097 0.13655965 -0.007874019 0.35431993 0.027556896 0.072818756 -0.23799184 -0.14551859
-0.10190749 -0.19316302 0.1305536 0.004614107 -0.08860378 -0.13347079 -0.0002492859 -0.04837334
-0.022784283 0.049517244 -0.0031471134 0.06213749 -0.09588238 0.021021955 -0.08782324 0.07458057
-0.07149706 0.0040680934 -0.048873022 -0.09209454 0.0650299 -0.025225414 0.053264935 -0.31785458
-0.18006708 0.075263366 -0.24641062 -0.044766575 -0.081902005 -0.116340816 0.14457509 0.19911435
-0.064898446 -0.09128458 0.031454705 0.18006599 -0.06405492 -0.093582995 0.00010978215 0.14631747
-0.035038784 -0.14670925 0.0016293467 -0.10532256 -0.2393128 0.0018024908 -0.20827255 -0.16037834
-0.090870485 0.040339667 0.022273751 -0.20388825 0.123682916 0.23448583 -0.23652485 0.29478902
0.041036587 -0.13700348 0.03578852 -0.10886303 -0.13280141 0.12112802 -0.05790494 0.12655313
0.113189444 -0.060671676 0.24075548 0.0103304 0.111303106 0.1727856 -0.18115382 0.059575833
-0.06444837 0.048377946 0.04369773 -0.11293493 -0.28422004 -0.029095128 0.23064221 -0.053171504
0.08363068 -0.065762915 -0.22297147 0.22191651 -0.1533217 0.09340224 -0.17850405 0.096408516
-0.06377783 0.11443878 0.020160865 -0.1815593 0.13029431 0.0124525335 -0.16813602 -0.14627403
0.10653087 0.09047039 0.069805704 -0.1463758 -0.21713309 0.040848266 -0.26583213 -0.20822679
0.08145104 -0.18320867 0.036190536 0.0126532335 0.07413778 0.0602795 0.029813632 -0.007942673
-0.10123132 0.029442122 -0.08199401 -0.23855673 -0.21145995 -0.2211872 0.034167975 -0.24512379
-0.07461211 -0.07778969 -0.13830435 -0.03847512 -0.16333565 -0.025562944 -0.12625225 0.14513563
-0.18306422 -0.00071376323 0.15598306 -0.04856994 0.028021537 0.15461364 0.14394307 0.21282879
00000000: b985 50be 4299 283d ae88 9a3d d71b 44bd
00000010: b5aa 403e 906d 12be 3842 05be d832 8e3c
00000020: d841 d93c 952d 56bd a4cd 4f3d 29d1 3cbe
00000030: 8adc 17bb 8ed9 2cbe 537a 483d bc77 af3d
00000040: 4c49 113d cf8d b13d 5db7 413e f81f 673e
00000050: 938d e23e 9d08 94bd 83ec 84bd 850b a7bc
00000060: 0ccf 16bd 4120 983d 51b4 6cbd 487f 073e
00000070: 7610 fc3d dc40 32be eba8 06bc 3b60 c6bd
00000080: b9f2 6d3d ca50 15bd cc79 163d 1e6e ef3d
00000090: f7f6 393e 0d62 91bd fa37 ebbc 6ab1 99bd
000000a0: 0525 e2bd f9da 6fba 747f 653c 3c70 8ebd
000000b0: c6bc 42be aeee b43c d2a4 2e3e 4088 34be
000000c0: 6fef 04be cb14 68bd e23e a6bd c240 e93d
000000d0: 126e c43d 12d2 c6bd 7756 8f3c 96e6 573e
000000e0: 2798 003e c239 edbd 9f71 4c3e 8343 a6bd
000000f0: a287 6fbe 81b7 c33a 838e 48be 2d96 493b
00000100: 4518 43bd 2235 86bd 1d97 1dbc 96a9 0c3e
00000110: fb8e 7d3e 4f2f 953d 8916 8e3e 64d3 5d3d
00000120: b2af 843e f638 863d f9c6 553d 5276 3abe
00000130: fbbd 43bc 04b3 1b3e 2acb ee3b e9ab 08be
00000140: 46ac 623e cfdc 223e 36e1 6e3d 45ed d8bd
00000150: e793 95bd b178 df3d 8233 bebd 713e dd3d
00000160: 5c5d 6b3e 1dab 563e ec85 2ebd 81cf ddbd
00000170: d628 9dbb 246d d1bd 8e94 c93d 2ac7 eb3d
00000180: 6abb 91bd 74f3 54be 4e36 5b3d fa23 203d
00000190: 3507 e7bd 2a61 87bd 0eac 2f3e 8800 59be
000001a0: db44 063d 1a12 453e 6b25 443d 89d6 a43b
000001b0: 88fa b9bc 22f2 23be fdfe 643d 549c 683d
000001c0: e089 6f3d 4bd6 0b3e 0802 01bc 6c69 b53e
000001d0: 00bf e13c 0022 953d 22b4 73be d302 15be
000001e0: e0b4 d0bd 87cc 45be d8af 053e ef31 973b
000001f0: e675 b5bd 91ac 08be 96b2 82b9 2023 46bd
00000200: 1ba6 babc 98d2 4a3d cd3f 4ebb e183 7e3d
00000210: fb5d c4bd 3c36 ac3c acdc b3bd b3bd 983d
00000220: 0d6d 92bd a44d 853b 142f 48bd 109c bcbd
00000230: 652e 853d 87a5 cebc 552c 5a3d d6bd a2be
00000240: 8163 38be ae23 9a3d 1153 7cbe 285d 37bd
00000250: 3dbc a7bd 1844 eebd 7e0b 143e a2e4 4b3e
00000260: 7ae9 84bd 69f3 babd a6d6 003d 3863 383e
00000270: 3a2f 83bd 71a8 bfbd d83a e638 3fd4 153e
00000280: d484 0fbd f33a 16be ce8f d53a 5bb3 d7bd
00000290: 6a0e 75be 8e41 ec3a 6645 55be 383a 24be
000002a0: 4e1a babd 353b 253d 7177 b63c 15c8 50be
000002b0: 784d fd3d 0e1d 703e 9233 72be 96ee 963e
000002c0: fb15 283d a44a 0cbe fc96 123d 95f3 debd
000002d0: 18fd 07be f811 f83d bb2d 6dbd 2597 013e
000002e0: decf e73d dd82 78bd 9b88 763e d740 293c
000002f0: e2f2 e33d b5ee 303e 6380 39be ca05 743d
00000300: 82fd 83bd f427 463d 64fc 323d 6e4a e7bd
00000310: 4a85 91be e858 eebc 792d 6c3e 5dca 59bd
00000320: 9046 ab3d b5ae 86bd a252 64be 153e 633e
00000330: 5d00 1dbe ac49 bf3d c4c9 36be d471 c53d
00000340: f39d 82bd e15e ea3d 6628 a53c aeea 39be
00000350: df6b 053e b605 4c3c d92b 2cbe dcc8 15be
00000360: db2c da3d 8a48 b93d 4bf6 8e3d 8ae3 15be
00000370: 2358 5ebe 8350 273d 261b 88be 6739 55be
00000380: cecf a63d 0e9b 3bbe 873c 143d 824f 4f3c
00000390: 8cd5 973d a3e7 763d b83b f43c fc21 02bc
000003a0: 5e52 cfbd 9b30 f13c 7aec a7bd 3748 74be
000003b0: f588 58be e67e 62be b8f3 0b3d bb01 7bbe
000003c0: 3cce 98bd 3350 9fbd a89f 0dbe 1698 1dbd
000003d0: 7641 27be 6169 d1bc 4548 01be 6f9e 143e
000003e0: 3075 3bbe d71b 3bba 06ba 1f3e 46f1 46bd
000003f0: 6c8d e53c 0a53 1e3e d065 133e caef 593e

reward_backbone.2.bias f4 [128]
0.040732574 0.008480029 -0.14481053 0.04958736 0.03160349 0.05950857 0.09548011 0.013494885
-0.065596975 0.06347109 -0.19166398 0.070153624 -0.058252342 -0.08889521 -0.050394643 0.14997168
0.2676481 0.050661515 0.030967457 -0.039309133 0.02563031 0.07289815 0.20870177 -0.12243819
-0.23754121 -0.10424279 0.062387414 -0.06924709 -0.01630027 -0.0020417578 -0.13389768 -0.054221526
-0.11172573 0.07974525 -0.037643824 0.017032344 0.013519319 0.14260322 0.008184877 -0.06454552
-0.0635684 -0.014597335 -0.043712888 -0.07491886 -0.12871636 -0.07082055 -0.05878341 -0.028810624
0.2385273 -0.07656513 -0.12875351 -0.100347586 -0.078440316 0.13441935 -0.0652115 -0.061837297
-0.059447575 -0.12455645 0.067362376 0.1275836 -0.010111317 -0.121604554 -0.01741168 0.09077803
-0.14743587 -0.14502114 -0.16645797 -0.12231439 -0.03079672 0.023645846 -0.07053724 0.31099343
-0.14951949 -0.023524722 -0.06420237 0.031943016 -0.0054550506 -0.14948817 0.005894759 -0.002930434
0.1378734 -0.17032959 -0.049422137 -0.106730945 -0.03157681 -0.09370985 0.11863361 -0.07103528
0.024800036 0.0561066 -0.12573051 0.13690205 -0.06141353 0.080091126 -0.011414583 0.007716862
-0.111727886 -0.056446277 0.07607559 -0.08738295 -0.1002747 0.08020337 -0.17624441 -0.028313506
-0.112796515 -0.041229896 0.0382785 -0.05375757 -0.06362868 0.0758855 0.13539848 -0.054916956
0.094255514 0.04740963 0.032709528 0.06569992 -0.03422145 -0.07191558 -0.054748014 0.17256096
0.09644511 -0.048852816 -0.057831876 -0.05432412 0.052370504 0.060947783 -0.096740894 0.09338872
00000000: 33d7 263d d2ef 0a3c 3649 14be 1e1c 4b3d
00000010: a972 013d 42bf 733d 138b c33d a619 5d3c
00000020: b557 86bd 21fd 813d 9043 44be b4ac 8f3d
00000030: 029a 6ebd b10e b6bd 9d6a 4ebd 2d92 193e
00000040: 2c09 893e 7382 4f3d 77af fd3c 9d02 21bd
00000050: a8f6 d13c a04b 953d ebb5 553e e0c0 fabd
00000060: 013e 73be 3e7d d5bd f289 7f3d 6bd1 8dbd
00000070: 2588 85bc 03cf 05bb 791c 09be 6417 5ebd
00000080: 76d0 e4bd 7a51 a33d 6930 1abd 6a87 8b3c
00000090: 2280 5d3c 9406 123e dd19 063c 7130 84bd
000000a0: 2630 82bd a929 6fbc 490c 33bd 0f6f 99bd
000000b0: 39ce 03be 5d0a 91bd dfc6 70bd 4204 ecbc
000000c0: 8040 743e 2ece 9cbd f6d7 03be 0983 cdbd
000000d0: 51a5 a0bd 3aa5 093e 9b8d 85bd 1b49 7dbd
000000e0: 4d7f 73bd 7417 ffbd 49f5 893d 46a5 023e
000000f0: f0a9 25bc cf0b f9bd f1a2 8ebc d5e9 b93d
00000100: 6ef9 16be 6c80 14be f573 2abe f87f fabd
00000110: 6749 fcbc efb4 c13c d475 90bd 883a 9f3e
00000120: a31b 19be ebb6 c0bc 887c 83bd aed6 023d
00000130: 48c0 b2bb 6d13 19be d328 c13b 860c 40bb
00000140: af2e 0d3e e16a 2ebe de6e 4abd c195 dabd
00000150: af56 01bd f3ea bfbd 2ef6 f23d f27a 91bd
00000160: 7229 cb3c 09d0 653d 80bf 00be 0d30 0c3e
00000170: c18c 7bbd d106 a43d 3b04 3bbc bbdd fc3b
00000180: 97d1 e4bd 3634 67bd 85cd 9b3d d5f5 b2bd
00000190: d25c cdbd aa41 a43d 6a79 34be baf1 e7bc
000001a0: dc01 e7bd aee0 28bd ebc9 1c3d e630 5cbd
000001b0: c14f 82bd db69 9b3d e6a5 0a3e 9af0 60bd
000001c0: 0909 c13d 9a30 423d 6dfa 053d ae8d 863d
000001d0: cb2b 0cbd 7a48 93bd 743f 60bd d2b3 303e
000001e0: 0485 c53d e419 48bd 1ee1 6cbd f882 5ebd
000001f0: 7482 563d 62a4 793d 1720 c6bd 9642 bf3d

cost_backbone.0.weight f4 [128, 22]
-0.0228969 0.05836058 -0.06374266 -0.021993872 0.03399206 -0.031273372 0.036533423 0.0925162
-0.055467106 0.18982048 0.006930369 -0.0456037 -0.07385763 -0.117574394 0.037552062 -0.04346434
-0.03552777 -0.029678235 -0.030268371 -0.005609767 0.010735576 -0.042489104 -0.076649375 -0.058569416
-0.11134872 -0.16874713 0.000100999314 0.043129593 -0.30659747 0.04539419 0.24908532 0.09776453
-0.13943763 0.0023662557 -0.10975521 0.13561366 -0.044657033 0.03759266 0.14993283 0.002011189
0.17337695 0.06934232 -0.021230547 0.13206697 -0.14689301 -0.15150212 -0.07674368 0.031755902
-0.15013127 0.0072867633 0.04413465 0.114563234 0.020338485 -0.0047798245 -0.06969527 0.162288
0.15640275 0.057204273 0.039071035 -0.023438707 0.035806533 -0.05956865 -0.30692053 0.05906507
0.08107434 0.12333292 0.24153614 -0.3035132 -0.029595297 0.28519386 0.020180704 0.022839159
-0.013636448 -0.08434051 -0.10547462 0.05597639 -0.05983114 0.089943714 -0.09762854 -0.12745194
0.057444803 -0.10083249 0.07136183 -0.039412547 -0.034308944 0.115238234 0.23231056 0.20490104
0.031490356 0.047855813 0.10707878 -0.10990291 -0.19235256 -0.057254035 -0.11484987 0.16782749
-0.09348856 -0.21788667 0.030463617 0.10992926 0.009733277 3.2733627e-05 0.13162293 -0.11060073
-0.02842033 0.012599502 -0.20566878 -0.13447435 0.02866708 -0.12880442 -0.113700844 -0.11378522
-0.019123582 -0.046757873 -0.036709484 -0.16531256 0.030988172 -0.17210583 -0.015526026 0.024166731
0.021877272 -0.070077516 0.051209938 -0.00329818 -0.07715983 0.055677596 0.014981454 0.015056206
-0.31725436 0.24260667 0.1373382 -0.06136328 0.1535578 0.101923026 -0.012957022 0.024607481
0.06427877 0.05513607 0.051760305 -0.07762739 0.012254563 -0.17989255 -0.008939789 -0.0902826
0.1310287 -0.018594861 -0.02298645 0.092447124 0.0928898 0.14856906 -0.16740417 -0.025046423
0.13659734 0.20994726 -0.100711904 0.023028152 -0.037669677 0.02254441 -0.021411419 -0.032821506
0.051947843 -0.26217765 0.05434315 -0.16415519 0.16150917 0.013989953 0.16669829 -0.04467022
-0.08357597 0.010487654 0.053045824 0.025722945 -0.05291831 -0.00091702316 0.2000981 -0.030377882
0.017350178 -0.14737684 -0.21026441 -0.013888991 -0.009163109 0.00489442 -0.0073581273 -0.08149911
0.17020583 0.055626724 -0.2533974 -0.17891116 -0.05824957 -0.0489861 -0.075319074 -0.031344343
0.2481993 0.1564127 -0.1921035 0.029798292 -0.15838045 0.20784065 0.1584303 0.2630586
0.009339242 -0.041043356 0.04670442 0.018491002 0.20482752 0.15481514 -0.12716237 -0.10020447
0.26155755 0.09263317 0.26074353 -0.10191666 0.08375467 -0.02422334 0.07325599 0.028389024
0.043961763 0.03239483 0.049904156 0.03502291 -0.18241595 0.042828426 0.10279237 -0.05743761
-0.01734512 0.1129276 -0.15337859 0.08051178 -0.1007891 -0.08510719 0.076119564 -0.053718686
0.22358623 0.17959201 0.08890466 -0.07013707 0.0374067 0.04743115 -0.12937956 -0.13539818
-0.24053557 -0.06684767 -0.08307224 0.15027925 -0.036437895 0.0031687932 -0.05339753 -0.0019106787
-0.16832636 0.0825704 -0.025601903 0.06747636 -0.072189175 4.422696e-05 -0.18486501 0.1676308
00000000: 4892 bbbc 810b 6f3d 838b 82bd 7e2c b4bc
00000010: 423b 0b3d 8218 00bd 12a4 153d 2279 bd3d
00000020: 7a31 63bd 4d60 423e 2618 e33b f2ca 3abd
00000030: ab42 97bd d8ca f0bd 31d0 193d aa07 32bd
00000040: 9185 11bd c51f f3bc 60f5 f7bc 23d2 b7bb
00000050: 45e4 2f3c 0e09 2ebd 59fa 9cbd 7ce6 6fbd
00000060: cc0a e4bd 0ccc 2cbe 98cf d338 a8a8 303d
00000070: 58fa 9cbe 42ef 393d 3910 7f3e c538 c83d
00000080: bdc8 0ebe 2f13 1b3b 57c7 e0bd 4fde 0a3e
00000090: 4bea 36bd c3fa 193d fe87 193e 27ce 033b
000000a0: ba89 313e 5903 8e3d afeb adbc 903c 073e
000000b0: 1f6b 16be 5f23 1bbe ca2b 9dbd 7a12 023d
000000c0: 03bc 19be cdc5 ee3b 89c6 343d 21a0 ea3d
000000d0: e59c a63c 13a0 9cbb 65bc 8ebd d32e 263e
000000e0: 0b28 203e 074f 6a3d f308 203d 8802 c0bc
000000f0: dfa9 123d 42fe 73bd b024 9dbe 37ee 713d
00000100: 4e0a a63d f895 fc3d 4055 773e 1566 9bbe
00000110: d671 f2bc ee04 923e 0152 a53c 3019 bb3c
00000120: 696b 5fbc b8ba acbd 1403 d8bd 8047 653d
00000130: 7f11 75bd 6934 b83d 79f1 c7bd c382 02be
00000140: 3e4b 6b3d 4481 cebd 2726 923d 0d6f 21bd
00000150: 8987 0cbd 0602 ec3d d2e2 6d3e 94d1 513e
00000160: 08fc 003d 7504 443d 1f4c db3d c714 e1bd
00000170: 12f8 44be 3583 6abd 6936 ebbd f8da 2b3e
00000180: ee76 bfbd af1d 5fbe d68e f93c 9822 e13d
00000190: 5378 1f3c 774b 0938 29c8 063e a382 e2bd
000001a0: c0d1 e8bc 246e 4e3c d69a 52be a5b3 09be
000001b0: 39d7 ea3c 4ee5 03be fddb e8bd 3a08 e9bd
000001c0: 0fa9 9cbc 2f85 3fbd af5c 16bd b247 29be
000001d0: e8da fd3c 833c 30be df60 7ebc 4ff9 c53c
000001e0: f737 b33c cd84 8fbd 83c1 513d 4726 58bb
000001f0: f905 9ebd 310e 643d c674 753c 4eae 763c
00000200: 2a6f a2be e26d 783e 63a2 0c3e 1058 7bbd
00000210: 423e 1d3e 05bd d03d b049 54bc a195 c93c
00000220: 96a4 833d 5cd6 613d 9d02 543d 1cfb 9ebd
00000230: 5dc7 483c c135 38be 3178 12bc 15e6 b8bd
00000240: 632c 063e 4054 98bc 144e bcbc eb54 bd3d
00000250: 023d be3d 7d22 183e 006c 2bbe 282e cdbc
00000260: 2ce0 0b3e 6afc 563e 0b42 cebd 89a5 bc3c
00000270: 854b 1abd 0eaf b83c 0067 afbc d86f 06bd
00000280: 43c7 543d 263c 86be ec96 5e3d 4c18 28be
00000290: a962 253e 1e36 653c f5b2 2a3e 1ff8 36bd
000002a0: e129 abbd 69d4 2b3c 9446 593d edb8 d23c
000002b0: dfc0 58bd 6264 70ba 84e6 4c3e 09db f8bc
000002c0: f621 8e3c f4e9 16be 8e4f 57be a78e 63bc
000002d0: dd20 16bc 5f61 a03b 721c f1bb 01e9 a6bd
000002e0: 704a 2e3e d9d8 633d 4ebd 81be 7d34 37be
000002f0: 1a97 6ebd a6a5 48bd e340 9abd ed62 00bd
00000300: f527 7e3e a72a 203e c8b6 44be 8c1b f43c
00000310: 7c2e 22be 2ed4 543e 8d3b 223e 9eaf 863e
00000320: 9f03 193c 141d 28bd 224d 3f3d 717a 973c
00000330: 4ebe 513e dc87 1e3e da36 02be 0038 cdbd
00000340: dfea 853e 76b6 bd3d 2d80 853e afb9 d0bd
00000350: 9287 ab3d 0770 c6bc 3d07 963d 1990 e83c
00000360: 4011 343d 71b0 043d 4d68 4c3d 2f74 0f3d
00000370: 3fcb 3abe dc6c 2f3d ce84 d23d b343 6bbd
00000380: 5a17 8ebc 9646 e73d 470f 1dbe 5ce3 a43d
00000390: 846a cebd ae4c aebd 93e4 9b3d 2008 5cbd
000003a0: caf3 643e f8e6 373e a513 b63d 06a4 8fbd
000003b0: c537 193d 2a47 423d 137c 04be d2a5 0abe
000003c0: f54e 76be 6ee7 88bd c721 aabd cee2 193e
000003d0: e73f 15bd 87ab 4f3b 5eb7 5abd bd6f faba
000003e0: bf5d 2cbe ab1a a93d 15bb d1bc 0c31 8a3d
000003f0: ebd7 93bd 5680 3938 414d 3dbe 69a7 2b3e

cost_backbone.0.bias f4 [128]
0.13830687 0.11992232 0.13198516 0.07658116 -0.021085138 0.12603457 0.01906752 -0.16731821
-0.10080165 -0.09401346 0.12826952 0.079341084 0.066252396 0.0092258 -0.03615641 0.09047051
0.14844844 0.112799905 -0.04723202 -0.19977942 0.07751226 0.13356328 -0.1969145 0.10097742
-0.17325807 0.07760304 -0.036721453 0.10856267 -0.054174498 0.023377271 -0.15503451 0.012216058
-0.08927212 -0.16956277 0.061485052 -0.07830017 -0.16749224 -0.19741791 0.07866825 -0.057732273
0.026652837 -0.2108529 -0.12119395 0.2942233 -0.020148378 -0.06838013 -0.007589807 0.12944819
0.053350184 -0.029759075 -0.10264987 -0.052307505 0.32026145 -0.02006815 0.07224246 -0.07021562
-0.007438535 0.027633037 0.035369076 0.071455725 0.09473437 0.14392063 -0.11783066 0.032678746
-0.17895786 0.11850567 -0.31615627 0.002803673 0.18697706 -0.10420767 -0.11865417 -0.2073669
0.27230233 0.1681978 -0.10023361 0.1923852 0.22744943 0.08016603 0.060854003 -0.074622504
0.0068029 0.09950796 -0.032831196 0.1871871 -0.11018205 -0.043387804 0.05752963 -0.14702499
0.10189335 0.16082275 0.09359368 0.18279062 0.06329366 -0.13761707 0.018100867 -0.20063806
0.05551128 0.10554581 0.0531047 -0.14767991 0.19576925 0.057536833 0.04034382 0.023572406
-0.12161273 -0.016347108 0.045277238 0.06712217 -0.15324374 -0.08491444 -0.14385495 -0.00039031485
0.20641974 0.0036582898 -0.00019522631 0.13181937 0.32230932 0.30268523 -0.16331168 0.13652483
0.04242503 -0.15349042 -0.012792002 -0.14668249 -0.10365906 0.029755838 0.11649589 0.33751747
00000000: 51a0 0d3e d599 f53d 1e27 073e 95d6 9c3d
00000010: bdba acbc 350f 013e 7d33 9c3c 7755 2bbe
00000020: 1871 cebd 218a c0bd 1659 033e 947d a23d
00000030: 56af 873d cf27 173c be18 14bd 9a48 b93d
00000040: de02 183e a303 e73d 5d76 41bd fa92 4cbe
00000050: bfbe 9e3d d0c4 083e f4a3 49be 40cd ce3d
00000060: 906a 31be 58ee 9e3d 3c69 16bd 1b56 de3d
00000070: 14e6 5dbd b181 bf3c 5ec1 1ebe dc25 483c
00000080: 4dd4 b6bd dda1 2dbe c0d7 7b3d d75b a0bd
00000090: 1683 2bbe ec27 4abe d21c a13d ad78 6cbd
000000a0: 0d57 da3c d3e9 57be 8934 f8bd 70a4 963e
000000b0: 360e a5bc e20a 8cbd eab3 f8bb 118e 043e
000000c0: b985 5a3d 4ec9 f3bc 183a d2bd 6540 56bd
000000d0: 4ff9 a33e f665 a4bc dbf3 933d 35cd 8fbd
000000e0: f4be f3bb ae5e e23c 2adf 103d 6157 923d
000000f0: 1804 c23d ee5f 133e 3351 f1bd 26da 053d
00000100: bb40 37be 1ab3 f23d 3cdf a1be d4bd 373b
00000110: ea76 3f3e d56a d5bd f500 f3bd fd57 54be
00000120: 366b 8b3e 0b3c 2c3e 4747 cdbd a000 453e
00000130: 81e8 683e 162e a43d 0c42 793d afd3 98bd
00000140: ddea de3b d4ca cb3d 017a 06bd faad 3f3e
00000150: 20a7 e1bd 69b7 31bd 30a4 6b3d b88d 16be
00000160: 76ad d03d b8ae 243e 0bae bf3d 772d 3b3e
00000170: 1ba0 813d 7deb 0cbe 4548 943c 1074 4dbe
00000180: cc5f 633d 6728 d83d 5084 593d 6739 17be
00000190: bc77 483e beab 6b3d 903f 253d eb1a c13c
000001a0: 1810 f9bd 5fea 85bc a074 393d 5977 893d
000001b0: edeb 1cbe 9fe7 adbd b64e 13be 2ca3 ccb9
000001c0: b25f 533e ebbf 6f3b aab5 4cb9 a8fb 063e
000001d0: ba05 a53e 8ff9 9a3e 2d3b 27be 2acd 0b3e
000001e0: dec5 2d3d 982c 1dbe 8c95 51bc ef33 16be
000001f0: 344b d4bd 84c2 f33c 6695 ee3d 17cf ac3e
