outputs/E3_budget_sweep/lagrange_seed0_EB0.10_LB0.07/best_feasible.pt (torch, 981466 bytes, 68 tensors)

actor_backbone.0.weight f4 [128, 22]
00000000: bc7b 53be fa14 83bc 3e18 a13e 478c 033c
00000010: f5a5 d3bd 5c7e 48bd 5154 babd 4f8d 373d
00000020: 6f2a dcbd c5a5 a43d bf7a 22bd ec67 41be
00000030: 463f d93c bb6f de3d 1491 05be 7292 ca3d
00000040: 0ac1 963c d04a 4cbd ed86 063e c83a ae3d
00000050: efa2 7b3e 2e31 4fbe 101e bdbb 9720 283e
00000060: 984e 47be 8cab 97bd 2e9d 0dbe 92b3 bb3c
00000070: 0c82 493d 00f8 15be 1ebe 3c3e 6cbd b23d
00000080: a775 5a3e 832e 43bb c611 20be 85fc 64bc
00000090: 2cb9 623b bf38 033e 843a 01bd e116 5cbc
000000a0: 64ba 74bc c152 20be 3db2 b13d 0d9c 1a3e
000000b0: 9339 80be d765 6b3d b636 d2bd 3cfa 2e3c
000000c0: afa7 c7bd 3f61 31bd 76ef 2c3b 5372 2b3d
000000d0: ea12 523d 9911 1d3d 013b dbbd 94a9 3e3d
000000e0: 0979 013e 835b b9bc 255e 0e3e cd6e a6bc
000000f0: 6414 82be cdd2 003c f7e9 1dbd 7d93 c2bc
00000100: a72a f23e 708f b9bd 285c 7cbd 3a88 973e
00000110: 5b2c 253c 6b60 d5bd 5e86 e3bc 8c4d e3bd
00000120: db22 83bc 7e84 f43d 8ba7 1abe ecac bf3d
00000130: fb83 53bd 6621 34be ec97 d93c a2fc 343e
00000140: d75c 20bd dc4b 9abd cb4e a03d 06ea 5abc
00000150: 24d0 183d 6e95 0f3e 071c 21bd 1648 983d
00000160: e4af aebe 1cf3 523e 43bb 9d3e f6d1 39be
00000170: bbe9 083e 44aa 9abc 0757 50be b6ae 0e3e
00000180: b878 86bc 13d6 243d f9e0 eabd 3c0b afbc
00000190: ccea adbd 9846 253d 93b7 443e 77c8 7ebd
000001a0: 9bce 113d d905 9bbb 8320 3fbd 5f6e cfbd
000001b0: 7edb 573b d2cf 9dbd c668 21bd c07b acbd
000001c0: ef14 f53d 361f 943d 90b6 7e3d 9f70 89bd
000001d0: 4f13 adbd f132 2eb9 bd96 3abd 01f4 273d
000001e0: e266 0d3e 1ed3 d4bd 7fed 0bbc 5d60 f93d
000001f0: cc1a 60be de02 96bd daa9 5ebe ad1d 12be
00000200: d374 c0be 3632 f7bc 4b6f 27bd c61c 7a3d
00000210: 204c 32be 9f43 673e fee4 fbbc 5771 f9bd
00000220: 5803 26be 1f7b 73be 90ef ba3c 8e29 8dbd
00000230: 1380 8c3d 8227 6dbd 8089 18be 41e3 dd3d
00000240: b06f a2ba e7b1 35be fbbe c2bc b8ff 083e
00000250: 9bfa 723e 4c0e 65bd 0316 d1bb 49c3 ab3c
00000260: 84c6 253e 946a 21be 6f55 c73e 55f0 1ebe
00000270: 806e 43bd 66b6 143e c523 c2bb 19ce 2abd
00000280: 602c b1bd c99d 8abd eb21 9a3b 24cb d53d
00000290: 1cb1 25be 46b9 4abe 116e d23d 1853 a9bd
000002a0: fdde 503e f8e9 11bd 2141 6dbd 9b9b 0d3e
000002b0: 4813 883c c08d 253e 32d5 c43d 924d 693d
000002c0: 6c87 fb3e 86c1 11be c35c 1e3d 23cd e9bc
000002d0: 5e4a 51be 5a0a 423d 3691 0cbe 25f1 0d3e
000002e0: 86e7 663b c8ae 1fbc a943 a53d 4741 84bd
000002f0: d172 2bbd af61 ddbc 0746 1dbe 373f 2ebd
00000300: 0fc7 a9bd 6e39 9e3d f351 1d3c d056 aa3d
00000310: d8bb 3b3e d63b 933e db5e a3be 4e92 813d
00000320: 12aa 113e c37c 24bc 8b33 c43d cd1f 62bd
00000330: 0cbc 273c 50c1 543d c8e8 973d 1684 51be
00000340: 3c3b e6bb 1e23 bfbb e616 73bd 7457 01bc
00000350: 8cc9 45be bf33 c2bd 89a7 7ebd 65fd adbd
00000360: 1666 bbbd b422 1f3c 4260 f63d e353 e1bd
00000370: 6591 ea3d 629a c5be f18f 20bd c0fe 473d
00000380: 5809 e7bc af45 41be dd52 403c d594 033e
00000390: c582 c2bd 1b6f 393d 83b7 e53d 4076 5dbd
000003a0: cbc8 debc 9f8c ccbd 7e86 b3bd 17e3 883b
000003b0: 6c01 063c a929 90bd fc61 493e 3e9c 49bd
000003c0: 29f4 d33d e0c6 ca3d 9082 603e 4deb 7f3e
000003d0: 2871 a1bd bc6f 01bd 4004 edbd 6eda 133d
000003e0: 7713 d2bd b11e 06be 9463 7ebd e81b 25bd
000003f0: d8ef 983d 56ba 22bd 85ca 0dbc e6e9 16bd
-0.2065267 -0.016001213 0.31463808 0.00802905 -0.10334388 -0.04894863 -0.09098113 0.044812497
-0.10750281 0.080394305 -0.03966784 -0.188873 0.026519429 0.10861155 -0.13043624 0.098912135
0.018402595 -0.049876034 0.13137408 0.085073054 0.24573873 -0.20233604 -0.005771406 0.16418682
-0.19463575 -0.07405767 -0.1382949 0.022912774 0.049196288 -0.14645386 0.18431899 0.087275356
0.21333943 -0.0029782362 -0.1563178 -0.013976221 0.0034595234 0.12814616 -0.031549945 -0.013433189
-0.014937017 -0.15656568 0.086765744 0.15098591 -0.25043926 0.05747017 -0.102643415 0.010679778
-0.0974878 -0.04330563 0.0026387847 0.041857075 0.05128757 0.03834686 -0.107046135 0.04654844
0.12643827 -0.022626644 0.13903101 -0.020316506 -0.25406182 0.007862759 -0.038553204 -0.023751969
0.47298166 -0.09060562 -0.061611325 0.2959612 0.010081376 -0.10418781 -0.027774032 -0.11098775
-0.016007831 0.119393334 -0.15102975 0.09359154 -0.05163954 -0.17590865 0.0265617 0.17674497
-0.03915104 -0.07534 0.078275286 -0.01336146 0.037307873 0.14021847 -0.03933337 0.07435624
-0.3411857 0.20600551 0.30806932 -0.181465 0.13370411 -0.018880017 -0.20345698 0.13933834
-0.016414985 0.04024322 -0.114686914 -0.021367662 -0.084920496 0.040350527 0.19210653 -0.062202897
0.035597425 -0.0047309217 -0.046661865 -0.101284735 0.0032937224 -0.07705654 -0.03940656 -0.08422041
0.119668834 0.072325155 0.062185824 -0.06710934 -0.084509484 -0.0001661291 -0.04555391 0.041004185
0.13808778 -0.1039183 -0.00854051 0.12176583 -0.21885222 -0.073247656 -0.2174448 -0.14269133
-0.3758913 -0.03017531 -0.04087762 0.061062597 -0.17411852 0.22584389 -0.03074884 -0.12179821
-0.16212213 -0.23777436 0.02281931 -0.068926916 0.06860366 -0.057899006 -0.14896202 0.10834361
-0.0012392905 -0.17743646 -0.023772707 0.13378799 0.23728411 -0.055921838 -0.006380798 0.020967143
0.16189009 -0.15763313 0.38932368 -0.15521367 -0.047712803 0.14522704 -0.005924674 -0.041700456
-0.08651042 -0.067683764 0.0047037504 0.104391366 -0.16180843 -0.19797239 0.102749 -0.08267802
0.20397563 -0.03562352 -0.05792344 0.1382889 0.016610757 0.16167355 0.09610976 0.056958742
0.49126756 -0.1423398 0.038662683 -0.0285402 -0.20438525 0.047373153 -0.13727269 0.1386152
0.0035233214 -0.009746261 0.08069546 -0.06457763 -0.041857544 -0.027024118 -0.15358745 -0.042540755
-0.082899205 0.077257976 0.009602058 0.083173394 0.18333375 0.2875659 -0.31908306 0.063267335
0.14225033 -0.010039511 0.095801435 -0.05520611 0.010237705 0.05194217 0.074174464 -0.20460543
-0.0070261043 -0.0058330437 -0.05934801 -0.007894386 -0.19315165 -0.09482526 -0.062171493 -0.08495597
-0.09150331 0.009712864 0.120300785 -0.11002328 0.11453513 -0.38594347 -0.039199773 0.048826933
-0.028202698 -0.18874238 0.011738506 0.12849744 -0.094975986 0.045271974 0.11216643 -0.05406785
-0.027195355 -0.09987759 -0.08765887 0.004177462 0.00817905 -0.07039196 0.19666284 -0.04922127
0.10349304 0.09901214 0.21924806 0.24992104 -0.07882911 -0.0316007 -0.11573076 0.036096983
-0.10257619 -0.13097645 -0.062106684 -0.040309817 0.074676216 -0.039728485 -0.008654241 -0.036844157

actor_backbone.0.bias f4 [128]
00000000: 3404 a53e 9239 c5be 9788 5cbe 37d2 8bbe
00000010: 6b2b 8fbd 49fc 99be 13ae 8bbe e326 57be
00000020: 260a 5f3d 435d 41be b63a 983e 6eb0 eabe
00000030: e679 903e 440e 28be cb08 56be 9302 1abd
00000040: b638 67be 9889 be3e e726 993e d17f cb3e
00000050: 3b9e 16be 5804 8f3d fbfe 693e d364 c3be
00000060: 707a aa3e 8364 bbbe 3673 87be bc24 bebe
00000070: e875 aabe 52d4 a83e 61ca a6be 0748 4d3e
00000080: 5d8d 773e da3b 8cbe 64df b2be 7ae3 c13e
00000090: dc45 c93c b548 25be 7732 983e 850c 443e
000000a0: 85d7 bd3e 782e 30be 1792 3abe 2f47 c2be
000000b0: 6f5f 43be 70f0 f63d e323 853e 57f5 9b3e
000000c0: e78c 4e3e 4506 a1be e876 3f3e 3d7b 2cbe
000000d0: acef a03e 989b b93e 570b 8e3d 041d 29be
000000e0: e44f 913e 65e8 bdbe 404a bd3e 299c d03e
000000f0: 5a7b 1f3e d021 01be cae3 13be facd 2dbe
00000100: b3a8 ac3d 1898 1b3e a156 a73e 975d b23e
00000110: 386a 98be 422d a1be 4ff8 ddbe 896c 653e
00000120: 7ac4 da3e 18cc 42bb dc59 813d f643 aebe
00000130: 047a 823e 14fa e63e 5432 92be 09e6 ab3e
00000140: 49a4 283d 247d 9cbe 7467 923e 2de3 903e
00000150: 261c d13e 8f80 98be 5889 8bbe b048 d23d
00000160: 45e3 7dbe a353 af3e f8bd cbbe 6ae1 cbbe
00000170: f210 a33e d663 853e 954a ab3e 6d7d 5d3e
00000180: 7049 6dbe 7e73 a03e cf92 8a3e 2d62 0bbe
00000190: a99f 7cbe 36b0 533e dfc7 b5be e2a8 b6bd
000001a0: 8134 bfbe 5878 623e 0416 75be 74ef 91bd
000001b0: a8e6 76be a861 b1be 392b 903e 80e4 aabe
000001c0: 1d11 9d3e 12e6 6c3e 89aa 923e 6bba de3e
000001d0: a1e2 96be 655e 2c3e 4418 8fbd fa06 4cbe
000001e0: 3fcd 10be ce0c cfbe 06d2 91be 43c5 923e
000001f0: d23c c33e 2362 bf3e e240 c0be 8e53 6f3e
0.3222977 -0.38520485 -0.2153648 -0.2730882 -0.06990703 -0.3007529 -0.27281246 -0.21010928
0.054453038 -0.18883233 0.29732293 -0.4583773 0.28218 -0.16411692 -0.20901792 -0.03760011
-0.22580227 0.3721435 0.29912493 0.39745954 -0.14708798 0.069832504 0.22851174 -0.3816286
0.33296537 -0.36600122 -0.26455086 -0.371374 -0.3329308 0.32974488 -0.32576278 0.20047008
0.2417502 -0.27389413 -0.3493606 0.37868863 0.024569444 -0.16141017 0.29726002 0.19145401
0.3707849 -0.17205226 -0.18219791 -0.37944934 -0.19079374 0.120575786 0.26003942 0.30460617
0.20170937 -0.31450096 0.18697703 -0.16843887 0.31432855 0.3625152 0.06935757 -0.16514975
0.28381264 -0.37091365 0.3697071 0.4074414 0.15574399 -0.12610555 -0.14442363 -0.16973105
0.08430614 0.15194738 0.3268328 0.34837028 -0.29768538 -0.3147984 -0.43353507 0.22404684
0.42728025 -0.00297237 0.063159674 -0.34036225 0.25483716 0.4511267 -0.28554022 0.3357394
0.0411723 -0.30564225 0.28594553 0.2829832 0.40841788 -0.29785582 -0.27253222 0.1026777
-0.24793728 0.34243497 -0.39793372 -0.39820415 0.31848866 0.2605273 0.3345534 0.21629877
-0.23172545 0.31338114 0.2706513 -0.1361167 -0.2467028 0.20672688 -0.35504052 -0.089189306
-0.37344745 0.2211622 -0.2393418 -0.0712575 -0.24111426 -0.34644818 0.28157976 -0.33377457
0.3067712 0.2313464 0.28645733 0.435016 -0.2946978 0.16832884 -0.0698705 -0.19924536
-0.14140795 -0.40439457 -0.28480548 0.28666124 0.3813234 0.3737956 -0.37549502 0.23371717

actor_backbone.2.weight f4 [128, 128]
00000000: 005c 00be ddf7 513c 84a9 ddbd 5257 323e
00000010: c514 a7bd d2ea d33d fe7e 413e dbba 3cbe
00000020: e6c3 db3d c62b 233d c2c3 81be 6de2 e83d
00000030: 3180 57bd b897 833c 25ba 083d 142b 86be
00000040: 279e 6b3d bd39 2c3c ea93 ad3c 7432 333d
00000050: 8618 203e 18e8 783e a0c3 403d a865 cc3c
00000060: 3bd5 27be e5a1 753d 0b73 943e 7837 143e
00000070: f6c1 ffbd 5c24 e03d 05ee 43bd 0749 8dbc
00000080: 1448 8f3d 44fa 5f3e f913 903d 4099 08be
00000090: e07a f63d 8ce5 9b3d f1cf f13d 7bef 24be
000000a0: ab74 c83d 88ae 4d3e 839f 453e e457 9fbd
000000b0: 34cc 763c e496 16be adab 76bd 8502 01be
000000c0: 0898 48be 5898 453e 9c9c 8c3c 04eb 3a3d
000000d0: fe01 c23d 3170 81be 8142 a1bd d487 69be
000000e0: 5112 68be 2737 a13c 15d7 11bd 33bf f23d
000000f0: d7cd a03d 6e11 983d 9cb6 60bd 31e5 fb3d
00000100: 5a48 4cbe c6bc 2a3d 8b07 36bc 1d6a 683d
00000110: fdf3 b5bc daa4 77bd 2dbf ec3d 6691 d83c
00000120: 638e 8cbb 411c 2c3e fb15 143e 2ca2 5c3e
00000130: 233d 02be 5597 b3bd 22d9 49bc fb9e 18bd
00000140: 099f 08bd 7225 ceba 9178 15be dad8 95bc
00000150: 459b 8fbd b440 993d 0855 853e 3f34 63bd
00000160: edd3 de3d b4db 663e 4db9 8d3e f89b 293e
00000170: 1c9a 473e 2662 9bbe f994 0ebd 774e b93d
00000180: f68b c4be 1f78 f7bd c595 96bd d1aa 87be
00000190: 984b f4bd 8d67 173e af44 83bd c0d2 19be
000001a0: dfb2 87bd f1ad 623d 5d3d d33d 3ec0 afbe
000001b0: 2899 ce3c e243 4abc 08e6 bc3d 693b 63bc
000001c0: 86c5 ac3d 7390 923d 2476 cd3d bbf2 c3bd
000001d0: 6026 4a3e 0489 50be 2b3c 113e 6231 2c3d
000001e0: 0398 023d 2951 ad3d ca6b 433e 3a48 94bd
000001f0: 7a14 64be a94d e8bc 18ef a93e d36c cc3d
00000200: 4390 a83d 7025 933d d4e5 833e 5a94 32be
00000210: 2d88 833e a794 493e 8d42 433d 0078 00be
00000220: 1fc1 593c 23cb 2f3e 051e f2bc c08b 6c3d
00000230: 9846 d33e 6fa0 70bd b87d bfbb d534 f9bd
00000240: f0c4 1ebe b9a4 a83d ddb0 26be 7a12 4f3d
00000250: c045 5b3b 8aa1 983d 8df7 a03d dadf 64be
00000260: f3cf 29be 1586 6fbe d6ef 4cbe d948 9b3b
00000270: dfc9 9ebe 3f4d 3a3e 50a0 08be 5add 39bc
00000280: 4558 8b3d 852c 35be f1f4 1b3d 244f 133e
00000290: 58a5 8abd 5894 f03b c4be 34bd dfc9 1cbe
000002a0: e76f 113d 0769 1d3e e494 a43d b041 30bd
000002b0: c609 fcbd 811a 763d 8503 e63d 8e23 873d
000002c0: abb3 07be 2744 033e 924b 8b3e 0961 08be
000002d0: 3ec4 e13d 74e5 6abc 9d9f 6d3d 89b0 203e
000002e0: 5904 0f3e ba00 cbbd ed91 4dbb 806e 79bd
000002f0: 695a 78bd c473 403e 359d 68bd 785e d7bc
00000300: f2d9 913d 07b6 3abe bcea cebd 0257 a7bc
00000310: 5542 3ebd 776b c0bd 3a53 a6be 2c43 dbbd
00000320: 408a b7bd 3fea 943e bbee f4bd 4d6a a33d
00000330: 7b1f 35be 8577 47be 9fb8 003e 7ba4 003e
00000340: 33f8 583e 7f99 9dbd 2922 5c3a 9bfa 29be
00000350: f61b 773d 7361 59be baf5 6b3c bc14 e53d
00000360: 8b59 0a3d 6cab 073b e2bc 3bbd 8ac6 d2bd
00000370: 7622 853b 4457 b23b 3335 653c f0a5 9fbe
00000380: 07e1 debd 3e4c a6be 2ee1 6d3e 57e1 cb3d
00000390: 6396 b33d 134b 72be b50c 9f3e 848c b03c
000003a0: cde1 2fbd 2d02 4ebe e1b9 05be 8865 8a39
000003b0: b962 12be 4bd8 a8bd c486 bf3d 6a46 2cbd
000003c0: 7109 aabc 401d 083d 0de9 aabb 8261 6c3e
000003d0: bc4f d43d ce3d 323d 6470 7bbe 8507 11be
000003e0: fcac 243e ac4a eb3d f895 9a3e fdce aabd
000003f0: b65e 5d3e 41f6 1a3e b903 02be 5ddb bf3d
-0.12535095 0.012815443 -0.10823348 0.17416123 -0.08158258 0.10347523 0.188961 -0.18430655
0.10730724 0.039836667 -0.25344664 0.11371312 -0.052612487 0.016063556 0.033380646 -0.2620474
0.057523873 0.010511813 0.021188695 0.043749288 0.15634355 0.24307287 0.047061563 0.024950817
-0.16389935 0.059968848 0.2899402 0.14474285 -0.12488167 0.10944435 -0.047834415 -0.017246736
0.0699617 0.21872813 0.070350595 -0.1333971 0.12035155 0.07612142 0.1180724 -0.1610698
0.09787878 0.2008611 0.1929913 -0.07780436 0.015063334 -0.14705998 -0.060222317 -0.12598617
-0.19589245 0.19296396 0.01716452 0.045634285 0.09473036 -0.25280908 -0.07874013 -0.2280572
-0.22663237 0.019679619 -0.03560551 0.118528746 0.07851761 0.074251994 -0.05486165 0.12299574
-0.19949475 0.041683935 -0.011110197 0.056741823 -0.02221107 -0.06045995 0.115599014 0.026436519
-0.0042894348 0.16807653 0.1446151 0.21546239 -0.12718634 -0.08769099 -0.012319835 -0.03726099
-0.033354793 -0.0015727712 -0.14596774 -0.01829188 -0.07012037 0.07483044 0.26041436 -0.055469748
0.108802654 0.22544748 0.27680436 0.16563404 0.19492382 -0.3034832 -0.03481004 0.09048169
-0.38388032 -0.12083458 -0.07352785 -0.2649751 -0.11928481 0.14785595 -0.06409585 -0.15021801
-0.06625914 0.055341665 0.103144385 -0.34326357 0.025219515 -0.012345286 0.092235625 -0.013869145
0.08436112 0.07156458 0.10032299 -0.095677815 0.19741201 -0.20364767 0.14183109 0.042039283
0.03188325 0.08462746 0.19084087 -0.072403386 -0.22273436 -0.028357344 0.33190227 0.09981694
0.08230641 0.07184875 0.25761282 -0.17439404 0.2568983 0.19685613 0.04767089 -0.12545776
0.013290673 0.17167334 -0.02955533 0.057750463 0.41264796 -0.05874675 -0.0058438443 -0.1216828
-0.15504813 0.08234543 -0.16278405 0.05055473 0.0033458322 0.07452686 0.078597166 -0.22351018
-0.16583233 -0.23390992 -0.20013365 0.0047389087 -0.3101339 0.1819353 -0.13342404 -0.011344278
0.068039455 -0.17692764 0.03807539 0.14385659 -0.06769818 0.0073419027 -0.04412724 -0.15311383
0.03550711 0.15372096 0.08036211 -0.043031394 -0.12306552 0.06008387 0.1123114 0.065985784
-0.13252132 0.12818967 0.27206093 -0.13318266 0.11023758 -0.014336932 0.058013547 0.15692343
0.13966502 -0.09912248 -0.0031367496 -0.060896397 -0.060633097 0.18794161 -0.05679055 -0.026290163
0.07121648 -0.182335 -0.10103366 -0.02042723 -0.046449978 -0.09395497 -0.32485372 -0.107061714
-0.08961916 0.29084966 -0.11959597 0.0797926 -0.1768779 -0.19479187 0.12570427 0.12562744
0.2118843 -0.07695293 0.0008397424 -0.16599505 0.0603294 -0.2122858 0.0144018475 0.111855954
0.0337768 0.002070154 -0.04583443 -0.102917746 0.004062946 0.005442532 0.013989734 -0.31181288
-0.10882764 -0.32480043 0.2323043 0.099550895 0.08768918 -0.23661451 0.31064382 0.021551378
-0.04293995 -0.20118017 -0.13059188 0.00026397058 -0.14295472 -0.082443796 0.093518764 -0.04205934
-0.020756455 0.03323102 -0.00521577 0.23084071 0.103667706 0.043515973 -0.24554592 -0.14163025
0.16081613 0.11488852 0.30192542 -0.08340261 0.2161816 0.15133001 -0.12696733 0.09368012

actor_backbone.2.bias f4 [128]
00000000: 9a3a 1dbe 5b68 03be 669c 29be b7eb 92be
00000010: 199d 86be 8bcf 0d3e d7ca 61be b413 903e
00000020: 033b 4abe 9bf2 65be df2d 8b3e ed6c 873e
00000030: c74c 7f3e 5a1c 6b3e 1fe2 4f3e 9266 28be
00000040: eb96 8d3e 8279 843e 9d45 19bd 25c5 773e
00000050: 3015 21be 8a0a 833e 042f 2fbe a001 87be
00000060: 9ba2 85be 110f 223e aa0a 6ebe 6cec 08be
00000070: e7ec 14be 9b13 773e 3f68 8a3e 71bb 8ebd
00000080: e23d 86be 9c8c 4ebe bfba 7dbe ce05 843e
00000090: 1a29 b5bb a5e6 883e 5c67 a23e faf4 89be
000000a0: dc00 37be c4f5 7f3e 7ec4 813e 8f12 21bd
000000b0: fe50 ac3d d77e e2bd 562c b7bd cc9e 393e
000000c0: ddcc 833e ab87 9b3e 995a 183e cadd 523e
000000d0: 9e6d 89be d6ed 063e d97f 773e 9f27 903e
000000e0: a8a5 6e3e c418 463e e361 87be f510 093e
000000f0: 31af 6a3e ef95 66be dde0 953e 0e5c 81be
00000100: 5634 d4bd 8419 853e 2fb7 8ebe 30ce 6f3e
00000110: 83a3 893e 29ff 203e 778c 24be 17fd 98be
00000120: f5e2 8d3e 261e 3fbe 1358 71bc 514f 4ebe
00000130: 5c9a 89be bbe4 7cbe 791b 8b3e 55f2 11be
00000140: 7b43 043e b44e 4cbe e3ab 86be b8dd 7abe
00000150: 0bac 7a3e 55f9 84be 53b4 3fbe 82b8 80be
00000160: f3a0 963e fd57 7b3e 8867 7c3e c64c 5d3e
00000170: b861 cf3d 08cb 173e dbac 383e 2dd6 233e
00000180: 0d91 bbbd c6b5 86be 1c02 82be 6fec 1c3e
00000190: 7ccc 81be 21ab 8ebe 5083 963e e94d 7bbe
000001a0: 513b 39be 1b56 abbd 76f7 85be 9a62 8a3e
000001b0: a9d3 77be 9d07 943e 68c6 6f3e 1723 543e
000001c0: 30db 6f3e 521b 9bbe dfb8 7b3e 3012 a5bd
000001d0: 7baa 76be 65ad 07be 883d 743e 9e22 80be
000001e0: 83cf 773e 4ab9 8bbe 73b8 6cbe ecc2 84be
000001f0: c0d5 903e 0372 39bd 6756 77be f870 803e
-0.15354386 -0.12832777 -0.16563568 -0.2869546 -0.2629173 0.13848703 -0.22050034 0.28140032
-0.19749074 -0.22455828 0.27183434 0.2645029 0.24931632 0.22960034 0.20301102 -0.16445377
0.27654204 0.25873953 -0.037419904 0.24196298 -0.15730739 0.25593978 -0.17107779 -0.26368427
-0.2610062 0.1582606 -0.23246256 -0.13371438 -0.14543496 0.24128573 0.27032658 -0.06969345
-0.26219088 -0.20170826 -0.24778269 0.2578568 -0.0055285813 0.26738468 0.31719482 -0.26944715
-0.17871422 0.24996096 0.25345224 -0.03932434 0.084138855 -0.11059349 -0.08944003 0.18126982
0.25742236 0.30376944 0.1487831 0.20592418 -0.26841444 0.13176665 0.24169864 0.28155228
0.2330538 0.19345385 -0.2644187 0.13385375 0.22918393 -0.22518133 0.2927312 -0.25265545
-0.10361545 0.2599603 -0.27874133 0.23418498 0.26882562 0.15722336 -0.16069208 -0.29880592
0.27712217 -0.18663844 -0.014730471 -0.20147444 -0.2687558 -0.24696629 0.27169397 -0.14252599
0.12916367 -0.19951898 -0.26303014 -0.24498641 0.24479692 -0.25971475 -0.18721132 -0.25140768
0.2941967 0.24545284 0.24648869 0.21611318 0.1012606 0.14823544 0.18034689 0.1599967
-0.091585256 -0.26310557 -0.25392234 0.15324567 -0.25351322 -0.27864936 0.29397058 -0.24541439
-0.18089034 -0.08366033 -0.2616536 0.27028352 -0.24201836 0.28912058 0.2341553 0.2071651
0.23423457 -0.3029428 0.24582241 -0.080601096 -0.2408847 -0.13249739 0.23851597 -0.2502641
0.24200253 -0.27289802 -0.23117237 -0.25929964 0.28288078 -0.045274746 -0.24154054 0.25086188

reward_backbone.0.weight f4 [128, 22]
00000000: 8f81 7a3e fded 993c f4fa 903d 1f6c a73e
00000010: f28c 093c 2520 6bbe 45da 58bd 832c 483d
00000020: add5 fc3d 01a0 46be 0576 46bd 5e24 253d
00000030: 4f2f c03d 2261 8c3c d99d acbd e86d 493d
00000040: 1908 9f3b d2bc a2bb 8db0 2ebd 6911 3abc
00000050: 6315 f43d 6d90 0b3e de88 193e 6a5c f13c
00000060: 1776 d93d c505 ab3d 431b 5e3d 3abd 963d
00000070: 9419 62bd 285c 07bd fa77 cd3d dbf2 adbd
00000080: 69e7 ddbc af6a 67be 3f7c 503e a179 91bd
00000090: 25ea 4cbd 01c0 b8bd e2d2 203c eb4e d93d
000000a0: 084b 08bb 0bc5 40be ed5d c7bd 0c9c 063e
000000b0: ae52 18bd 8ace 36be b076 ddbd 3c41 79be
000000c0: f4aa 2fbb 0be7 d0bd 3183 04bd dfd1 5f3d
000000d0: 6134 1bbe dd65 41bb 4ea6 43bc 7e48 09bd
000000e0: 1412 7a3e 7715 06be 9078 05bd babf 453e
000000f0: 31b0 193c c6cd d9bd e70e 25be 8d8b 2ebe
00000100: 4e94 1cbc d2a3 85be bbdd 023e 204e 0d3e
00000110: f8d5 313e b3f0 e1bd d4a3 1ebc dcf7 a63d
00000120: c31d 15bd 0780 aa3c 5ea6 01bd 065c cb3d
00000130: 1bb1 023c 04f7 0fbe 1fa0 ae3c b4a0 2dbd
00000140: 1851 1fbc 5a70 46bc d64f db3c 3e39 dfbc
00000150: 43a8 d2bc d57f 83be 3bb6 9d3c 1b36 fbbc
00000160: 8d5f 093e e449 523d 6eb8 51be cf0e 953d
00000170: a66f e5bc 49a3 1ebc 352b 043e db9b bf3d
00000180: 02d5 92be 482b adbd 86b8 13be 6827 e1bd
00000190: 0a6f ab3c f1fa b53d b8f4 fa3d 1395 3c3c
000001a0: a103 5e3e cc77 1dbe 42f7 ee3d 1466 06be
000001b0: 63ae 1b3e 301a f5bc 5e2a 163d d164 78be
000001c0: c418 dc39 6506 933e 213d 8abd 3900 4dbd
000001d0: 97cf aa3d 7961 4e3d 807e 0f3d 03c7 e8bc
000001e0: 54b5 a13d d948 95bb f3bc 87bd ed40 4c3e
000001f0: 31be 9a3d 8cc9 113d eb55 eb3c fec4 babb
00000200: 9210 9b3c 87d0 343e dd0d 263e 3802 e53b
00000210: f45e 8a3c 06ab e43d d89f 333e fd75 a9bd
00000220: cd02 eabb 5c19 1ebe 97bb bfbd 9ad8 02be
00000230: 1f50 013e 006d 353e a69f 5abc 7d8a cbbd
00000240: 57a2 c7bd e038 10be 6065 6f3d 198a a83c
00000250: b5c9 25bd a03c bcbc 4d6b 9fbd 1955 f63d
00000260: 799a 8f3d 57fa b0bd 74f2 a5bc b42e 373e
00000270: 01fd 67bd 0a49 37bd 9a6f dc3c ea56 383d
00000280: 1777 b6bd 4cc9 343e ae45 113e deb7 e7bd
00000290: 1faa 06bc 6ba8 33bd 20f3 133e 1fde 833d
000002a0: 999c e3bd 6297 93bd c96c 663c 34cb 01bd
000002b0: 4f21 a7bc e73c 2fbd dbc3 fdbd 715a 42be
000002c0: 5810 08be ac71 02be 2254 62be 8fba 6dbe
000002d0: 6824 bc3d 5fc9 26bd 4531 de3c 738e a1bc
000002e0: 7920 7e3c e23a f2bd 1a9a 1a3c d96b 5a3b
000002f0: cf09 113e 9d08 a6bd 104d 04be 1f3f 8cbd
00000300: 833b 0b3d 0305 553a 4cde 0c3e fd8e 5c3d
00000310: 78c1 24bd 8440 133e f112 1cbd d073 71be
00000320: 2a79 8cbe 561f 4b3e 23f6 293e f951 09be
00000330: 3cd2 70bd 7e06 b1bd d2c3 173c d23d 81bd
00000340: fe5c ab3d 5cb9 28bd 7289 53bc 94df 6e3d
00000350: a3a2 7f3c 2423 8a3b 27ad 573d 166f a23d
00000360: 2ede 72be e3d6 04be c292 11bd 0bbc 0e3d
00000370: e357 2ebe a943 2fbd 7ec7 a23d 0fba 243e
00000380: 2d3c 3f3e 7b48 12bd a66f 52bd 9bba 82bb
00000390: a381 263b 1353 a4bc 3393 cbbc f9d6 373d
000003a0: b2db 65bd 0d3b 873d 904b a43d da90 2dbd
000003b0: 0e15 d73c 6f34 debc 799a 833d 593e 0e3e
000003c0: 1bb0 40be 6e59 1ebd e11a 3c3e 0709 ab3d
000003d0: adca 24be a34d f2bc f1a2 be3c 13d6 623d
000003e0: 1312 4a3d ec80 23bb 3d50 1cbd d950 84bc
000003f0: f4cc 8f3d 94cf 0e3c 229b d53c 42d9 ec3d
0.24463485 0.01879024 0.070791155 0.32699677 0.00839542 -0.22961481 -0.052942533 0.048870575
0.12345443 -0.19396974 -0.048452396 0.040317886 0.093840234 0.01713616 -0.084285446 0.04917708
0.0048532602 -0.004966357 -0.04264884 -0.01135669 0.11918142 0.13629313 0.14993617 0.029463012
0.10618227 0.0835071 0.054225218 0.07360311 -0.055200174 -0.03304687 0.10032649 -0.08493587
-0.027087884 -0.2259929 0.20359896 -0.07103277 -0.050027985 -0.09020997 0.009815903 0.106107555
-0.0020796675 -0.18825166 -0.09734712 0.13145465 -0.037188224 -0.17852226 -0.108136535 -0.24341291
-0.0026804777 -0.10200318 -0.032351676 0.054643508 -0.151567 -0.0029510178 -0.011941506 -0.0335164
0.24420959 -0.13094126 -0.03258568 0.19311419 0.009380386 -0.10634951 -0.16118966 -0.17045422
-0.009556843 -0.26101547 0.12779896 0.13799334 0.17366779 -0.11032238 -0.009682614 0.08152744
-0.036405336 0.020813001 -0.0316528 0.099296615 0.007976796 -0.14059073 0.021316586 -0.042389587
-0.009723924 -0.012111748 0.026771467 -0.027248975 -0.025714999 -0.25683466 0.019251933 -0.030665448
0.13415356 0.05134 -0.2048051 0.07278215 -0.02800734 -0.009682485 0.12907107 0.09355899
-0.28678137 -0.08455521 -0.14425859 -0.10993844 0.020926971 0.08885754 0.12253708 0.011510151
0.21681072 -0.1537773 0.116682544 -0.13124877 0.15203242 -0.029919714 0.0366615 -0.24257208
0.00041980122 0.28715816 -0.06749941 -0.05004904 0.08340376 0.050385926 0.03503275 -0.028415209
0.07895914 -0.0045558033 -0.06627836 0.19946642 0.075558074 0.0355926 0.028727492 -0.005699753
0.0189288 0.17657672 0.16216226 0.00698879 0.01689098 0.11165433 0.17541444 -0.082744576
-0.007141447 -0.15439361 -0.09361952 -0.1277794 0.1262822 0.17717361 -0.013343727 -0.09938524
-0.09747761 -0.14084196 0.058446288 0.020573663 -0.040475566 -0.022978127 -0.07784138 0.1202795
0.07011885 -0.086414985 -0.020257212 0.1788891 -0.056637768 -0.04474739 0.026908685 0.045004763
-0.08909433 0.17654914 0.14186737 -0.11314367 -0.008219271 -0.043861788 0.14448214 0.064388506
-0.11113853 -0.07206608 0.014064022 -0.03168793 -0.020401625 -0.04278269 -0.12390872 -0.18979813
-0.13287485 -0.12738675 -0.22102407 -0.23215698 0.091866314 -0.040719386 0.027123103 -0.019721245
0.015510672 -0.11827637 0.009436155 0.0033328442 0.14163898 -0.081071116 -0.12920022 -0.06847977
0.0339923 0.0008126052 0.13756675 0.0538473 -0.04022357 0.1438008 -0.038104 -0.23579335
-0.2743619 0.19836172 0.165978 -0.13410176 -0.058794245 -0.086438164 0.009262996 -0.063106194
0.08367346 -0.041192397 -0.0129111875 0.05831869 0.01560274 0.004215615 0.052655365 0.07931344
-0.23717567 -0.12972598 -0.03554035 0.0348473 -0.17025714 -0.042789135 0.07948206 0.160866
0.18675299 -0.035713654 -0.051376007 -0.0039895303 0.002540686 -0.020059144 -0.024850463 0.04488275
-0.05611772 0.0660306 0.08022225 -0.04237447 0.026255157 -0.027124612 0.06425948 0.13890971
-0.18817179 -0.038659506 0.18369628 0.08351331 -0.1609294 -0.029578036 0.023271056 0.05537994
0.049333643 -0.002494867 -0.03816246 -0.016151832 0.070215136 0.008716483 0.02607495 0.11564876

reward_backbone.0.bias f4 [128]
00000000: 2478 88bc 459c d13d da70 233d a835 9c3d
00000010: 7a01 bdbd 6f78 e8bd 4b01 723d fcc7 d73c
00000020: c05d 2abe 9dbd d8bc 23ac 7fbe 82d8 db3c
00000030: f0d2 5c3c 161d aabc 0729 4a3b d3a1 59bd
00000040: ee7d 96be baca 423e 1048 f13b 52c4 babd
00000050: 272c 26be 7d57 3e3e f2b3 543e b739 3e3b
00000060: 2c76 05bd e859 eebd 4327 613d 3cbf 17be
00000070: 5554 6a3e 0d93 27be b8e5 cfbc 528f aebe
00000080: 6ea3 95bc 70e4 9f3d 443a cdbb 55e7 0f3e
00000090: e885 113c f05c d23c e909 54be 6cea 84bd
000000a0: 05f4 64be 0adb 6cbb 5965 703e 2b39 5e3d
000000b0: a2da ecb9 b4d9 1c3e 5396 323e 4794 c1bd
000000c0: 0ecb ec3e 9a10 03bd 6d25 34bc 555f 97be
000000d0: a2ff 66bc 7a7f 70be 02dd 4c3e 66ba a6be
000000e0: 5210 cebd 784b 0d3e a159 873c 7c8b d2bd
000000f0: 0a2c aabd 4c93 6b3e fb56 87be 6a95 ae3b
00000100: 3dfe e3bc 1028 283e b5e8 213d 4e30 ce3c
00000110: b8a4 f7bc 9c0b a13d b6a6 6f39 4f5d cdbd
00000120: 95db 81bd ef8e ef3d ab07 ff3d b60f fc3b
00000130: 8cd8 6d3d 4345 5cbe 6b42 313d 90ad d13d
00000140: d064 23be 15ca 2dbd abd8 1c3e d475 583e
00000150: 45ce 44bd 074a 763e 75f4 77be d3a7 4d3e
00000160: d38c bbbc f66a 4fbd c840 323d 30cb 53bd
00000170: 1377 bfbd 125d 60be 8dee 3cbe 6eae 2c3d
00000180: 2bb0 333d 6e8e 7dbb 662f d9bc 8e0b 1dbc
00000190: ee94 8b3c 3be8 78be 0b6b 6f3d 27a4 87bc
000001a0: 22d9 653d 5baf 1f3d 1265 013e 21ee 60be
000001b0: 651a cdbc 1d69 65be 2a98 e1bc 7663 a43c
000001c0: ad38 3b3e 57da a6bc d7eb a23c 05b8 783e
000001d0: 3587 8abc ece5 ab3e ce48 ab3d e70a dc3c
000001e0: ea9b b73d 5028 9ebd 7c87 3abd a2e6 eebc
000001f0: c34f e9bc 92f1 503d 097c d2bb 8250 053d
-0.01665885 0.10234884 0.039902546 0.076274216 -0.09228797 -0.11351096 0.059083264 0.026340477
-0.16637325 -0.026457602 -0.24968009 0.026836637 0.013478026 -0.020765822 0.0030847208 -0.053132843
-0.29392952 0.19022647 0.007363327 -0.091194764 -0.1622778 0.18588062 0.20771769 0.00290261
-0.0325834 -0.11638242 0.054969084 -0.14819044 0.22883733 -0.16364689 -0.025378093 -0.3409372
-0.018266406 0.07807243 -0.0062630493 0.1405309 0.008882023 0.025679082 -0.20706905 -0.06490025
-0.22358711 -0.00361413 0.23476161 0.05425374 -0.00045176322 0.15317422 0.17440157 -0.0945211
0.46248668 -0.031998254 -0.010995251 -0.2956492 -0.014099034 -0.23486128 0.20006183 -0.32564086
-0.100617066 0.1379832 0.01652223 -0.10280511 -0.08309181 0.23005408 -0.26433548 0.00532787
-0.027831191 0.16421533 0.039528567 0.025169518 -0.030229911 0.078635424 0.00022854921 -0.10027563
-0.0634071 0.11697184 0.124526344 0.0076923026 0.058067843 -0.21510796 0.04327623 0.102381825
-0.15956426 -0.04242905 0.15317027 0.21138698 -0.048048276 0.24051677 -0.24214347 0.20083551
-0.022894299 -0.050639115 0.04351881 -0.051707447 -0.093488835 -0.21910504 -0.18450375 0.042158537
0.04386918 -0.003868963 -0.02651186 -0.009585274 0.017038789 -0.24307339 0.058451694 -0.016557766
0.056115277 0.03898559 0.12636212 -0.21965839 -0.025037 -0.22403379 -0.027538378 0.020066958
0.18283339 -0.020367784 0.019887848 0.24288948 -0.016910175 0.33573854 0.08363496 0.026860667
0.08965285 -0.07722533 -0.045539364 -0.029162709 -0.028480416 0.05101163 -0.0064234775 0.03254748

reward_backbone.2.weight f4 [128, 128]
00000000: cafc 0fbd 5861 a7bc 00ff 993d e7dc edbd
00000010: 60fb b7bd b59d 3b3d 7350 2fbd 6b68 b63d
00000020: 775a c63d 998f 4dbc db51 10bc 5761 20be
00000030: 6d84 883d 615d 16be b778 5d3d b2d5 713d
00000040: 7d2a 53be 3d75 b23e d055 5e3d 480e b63c
00000050: e4bf 85bd 124b 09be a0e4 b33e 6a18 01be
00000060: 6e9b 103e eee2 1abe ea12 08be 9628 993d
00000070: 5424 613d 0b17 07be 7795 403d 58a7 15be
00000080: d0e7 863b 19bc ad3d e282 b33c 4ef6 f5bc
00000090: 5b6c aa3d e158 3c3e 0645 e8bd 3114 5e3c
000000a0: 7bf0 aebe 7ac7 d53d 0f7e 8e3e 0818 f4bd
000000b0: a8a6 88bd d001 06bd 03d1 41be 90f8 10be
000000c0: 852d 1c3e 3cee 07be 2a1d a53d c04a 0bbe
000000d0: a50f fdbc 41fc 06be f811 dc3d 9e2e 863d
000000e0: 3bff f9bd 94ac 38be 25f0 d3bc 665d 9d3c
000000f0: 3fc4 8ebc 96fe 6a3d 0a39 8ebe 3a0a 0c3e
00000100: 382a 6d3c b3ef c2bd 7b66 c1bd bc90 83be
00000110: e0d7 16bd 7539 99bd dc5d d9bd fca9 b33c
00000120: f733 4b3e 9b54 e33d 5764 9a3e 8cd8 0bbe
00000130: 6105 d03c af94 93be d655 b0bd 358f 2ebd
00000140: 80ad f33d e664 f4bc 90f7 883e 64a4 b53d
00000150: 2e4c 9cbd 17a7 99bd bd09 97be 13af d93c
00000160: 3047 973e 6108 2a3e 5880 f2bc 491a 483d
00000170: dcb4 b8bc f967 17be bb37 343d 6edd 023d
00000180: 5e87 693d d475 bdbd 0c50 ca3d f331 af3c
00000190: 426c 333d f25e 76be 917f 093c 4ab1 be3d
000001a0: 1a00 5f3d 222c 77bd fd6b 253d 71b6 56be
000001b0: 4280 6cbd 0cb3 7fbd 3809 923d ebea e6bd
000001c0: 70b2 ad3d 0410 02be d200 efbc 30e0 7f3e
000001d0: 8f82 a0bd 60d3 833d 39e3 10bd 5220 393e
000001e0: 0aae 25be 0e33 d43d 567a 1fbc 54fd fe3c
000001f0: 312d 83bc 4d6c 893e e92c 94bd 03cb 89be
00000200: 5dee 9ebd a4ca 05be 15de 233e d7c0 cabd
00000210: ae6c 843b bf60 463d f6f2 aebd d34f 343e
00000220: 599e b93d 9a37 1cbc af51 0cbc 6271 bf3d
00000230: bb5c 1b3e 9c0e 4cbc e9d0 29be e7b0 0a3e
00000240: e881 183d af9f 453e 090d cd3d e512 fe3d
00000250: 08e3 5fbd 10c1 293e 4886 07be e036 de3d
00000260: b6e4 5dbe 4898 a53c c064 89be 8715 a83c
00000270: 4bca 5abe a2f8 c83d 42bc 913d 3c77 023e
00000280: e0de 2ebe 2d20 ac3d 6d50 3dbe cd56 923d
00000290: 2a8d cf3d f8df ecbd e5fd 4e3e a15b b73e
000002a0: f9c2 ee3d f2a6 f4bd 2c72 50be 33ca 0fbd
000002b0: ac96 e53d 92a7 913d 3167 e7bc 33ac c13d
000002c0: ecc4 863e c2e8 39be 0275 773b dd71 b6bd
000002d0: ef67 033d a82d 12be d4c5 39bd d75b 263d
000002e0: 9f85 ae3d fe30 8abd 4adf c2bd da61 d13d
000002f0: 3270 e73d 870c 4cbc 0573 433d 2dc3 303e
00000300: d2c3 13be 937f 303c 732f 113e 7893 373e
00000310: 5854 3c3e 6166 f03c 4d9f dabd b3f5 99bb
00000320: ce55 2dbe 967c f5bc 1f23 cc3c 48ff fcbc
00000330: 9f4f 95bc 04a3 593d ed52 a23d d946 7e3d
00000340: 7806 ba3b fdee cf3d 5ce9 08be 85c7 383e
00000350: 1f70 193e 9f57 e43d f883 ecbb 5275 03be
00000360: 47f4 603d 82dd 22bd 958b 47be 3822 9c3d
00000370: a507 843d 5c7c db3d ee6d 01bc 9df9 8b3d
00000380: d132 1f3d a4aa 783c 8959 113e e27f 45bd
00000390: d0fa 54be 5e63 d33c c26c 1e3c 8750 e4bc
000003a0: 63f6 303d 7f5e 81bd 6c3a 3abe e7f8 f33d
000003b0: cafd b0bc 5c1d 973e f993 cbbd 64d0 153e
000003c0: 177e 28bb 340e dd3d 8499 583d c5e1 29be
000003d0: 1ecd 11be c5d9 893d 2807 bb3e aa86 823e
000003e0: e06e 44bc b20f 903d 3ea7 403d 9a9c 523c
000003f0: e73e 97bc 24d9 b13d 29be 4fbd 5695 993d
-0.035153188 -0.02043216 0.075193405 -0.116143994 -0.08983493 0.045804698 -0.04280133 0.08906635
0.096852235 -0.012546443 -0.008808578 -0.15662132 0.06665883 -0.14684059 0.0540702 0.059041686
-0.20621677 0.3485507 0.054281056 0.022223607 -0.06530741 -0.13407543 0.35135365 -0.1260697
0.14121792 -0.1512563 -0.13288465 0.07478444 0.054966286 -0.13192384 0.04701754 -0.14614618
0.0041169897 0.084831424 0.021912996 -0.030024674 0.083214484 0.1839328 -0.1134129 0.013554619
-0.34167847 0.10438438 0.2783055 -0.11918646 -0.06672412 -0.032716572 -0.18927388 -0.14157319
0.1525174 -0.13274473 0.08062203 -0.13602734 -0.030891249 -0.13182165 0.10745615 0.0655186
-0.122068845 -0.18034583 -0.025871346 0.019209575 -0.017427562 0.0573717 -0.27777892 0.13675776
0.014475398 -0.09518375 -0.09443375 -0.2569636 -0.03682697 -0.07481662 -0.106136054 0.02193164
0.19844042 0.111001216 0.30154678 -0.13656825 0.02539319 -0.28824374 -0.08610122 -0.04261704
0.11898327 -0.029833268 0.26751375 0.08869246 -0.076317176 -0.07502573 -0.29499617 0.02657274
0.295465 0.16604759 -0.029602215 0.048853192 -0.022547178 -0.14785756 0.04399846 0.031949453
0.05701386 -0.092509896 0.09878549 0.021386122 0.043804415 -0.24059656 0.008392231 0.09311159
0.054443456 -0.060344823 0.04038619 -0.20968033 -0.057739504 -0.06242661 0.071306646 -0.11275276
0.084813 -0.12701422 -0.029175196 0.24987864 -0.07837402 0.06436801 -0.035372946 0.18078735
-0.16179672 0.103613004 -0.009733757 0.031126656 -0.01601276 0.2684044 -0.072351284 -0.26912698
-0.07760308 -0.13065583 0.16002686 -0.099000625 0.004041276 0.048432108 -0.08542435 0.17608576
0.090634055 -0.009534741 -0.008564397 0.09347798 0.15172093 -0.012454655 -0.16583599 0.13544045
0.037233263 0.19299196 0.10012252 0.124059476 -0.054659873 0.16577554 -0.13234818 0.1085031
-0.21669278 0.020214215 -0.2683468 0.020518078 -0.21366231 0.09813048 0.071159855 0.12740797
-0.17077208 0.084045745 -0.18487711 0.07145462 0.10134347 -0.11566156 0.2021404 0.35812095
0.11658282 -0.11945905 -0.20356053 -0.03510494 0.11210379 0.071120396 -0.028247448 0.094566725
0.26322114 -0.18155196 0.003775895 -0.089084364 0.03208154 -0.14275229 -0.04535468 0.04061493
0.0852158 -0.06747626 -0.09515245 0.10223742 0.113006964 -0.012454159 0.047717113 0.17261954
-0.14430168 0.010772604 0.14178257 0.17927349 0.1839155 0.029345693 -0.106749155 -0.004698479
-0.16927263 -0.029966634 0.02491909 -0.030883446 -0.018226443 0.05313398 0.07925973 0.062079284
0.0056770407 0.10153005 -0.1337027 0.1804486 0.14984177 0.11149525 -0.0072178803 -0.12837723
0.05492046 -0.039762028 -0.1948684 0.07623714 0.064467706 0.10717079 -0.007899744 0.06834719
0.03886682 0.015177403 0.14194311 -0.04821766 -0.20798802 0.025804218 0.009669485 -0.02787043
0.043203723 -0.06316852 -0.18186349 0.11912709 -0.021605391 0.29514587 -0.09940333 0.14630276
-0.002570992 0.10793725 0.05288078 -0.1659003 -0.14238402 0.06730989 0.36528897 0.25493366
-0.011989325 0.07034244 0.047034495 0.01285472 -0.018462611 0.086839944 -0.05071846 0.07499187

reward_backbone.2.bias f4 [128]
00000000: 5be9 1b3e 657e b1bd c758 40bd d1a4 813e
00000010: c997 1abb b43f 923d bd2f 45bd d7a4 a2bd
00000020: ae9b 843d d698 133c 0f64 9f3d 6ced b73d
00000030: 09d8 94bd f738 b03d ad58 73bd 14f5 58bd
00000040: c056 bd3d 214b a8bd 1be5 80bd 265c b63d
00000050: 29b6 c0bd 1e62 e33d 2d86 84bd 233c 54bd
00000060: a2a8 8ebd bd35 9f3d 8424 aa3d 97bd e93d
00000070: bbe0 8fbd 0ca2 05bd e8e5 97bd 07b1 913d
00000080: c1b0 30bd 16bb a2be b965 73bc 712b a63d
00000090: 3596 b6bc 604f af3d 621b 7dbe f204 583d
000000a0: 7e6f c1bd eca9 67bd 9bba 07bd fbb9 8b3d
000000b0: 4990 62be 8f76 d0bd b5fc 88bd d1af 5a3c
000000c0: 28d8 83bd 1e53 c73c 933b d5bd d94a 5ebb
000000d0: 9ea0 973c 4806 b43d f786 b23d 4d15 b7bd
000000e0: 05b2 923d 5c03 793d ee01 2dbd b75a 5e3d
000000f0: 9e72 8abd c2eb 6f3e ea81 523d a6f5 a5bd
00000100: ca4f 04be b869 c23d 1e15 9b3d d1fb e93c
00000110: 95fb e9bd 1d41 d23d 9343 623c accf 7f3d
00000120: d3e4 463d 2346 663d 1534 adbc af02 873d
00000130: ba6d 673e 021d ef3c 477c 18bd 4dd0 c43d
00000140: 3f16 b43d 08bb 89bd 384b a33d d920 0dbd
00000150: 6e2a fcbd 335c f1bd ed13 c53d 5093 b13c
00000160: 06d4 883d 1501 5bbd b143 d13c 5517 98bd
00000170: 673a 95bd 813d a03d 7b34 2ebd 109e 56bd
00000180: 5afe 773d b458 92bd 17dd 10bd e2fc f8bb
00000190: fad6 393d 6816 3cbd f437 e23d a182 a4bd
000001a0: b192 b6bd c6e5 cfbd a2e4 d7bc 3e4f ad3d
000001b0: d7ad bfbd b22f 243e bafd a1bd 7e47 903c
000001c0: 3e54 92bd 66a4 913d fa83 fa3d 0b53 99bb
000001d0: dff5 edbd 5c48 813d 7ea9 aebd bfdd c0bd
000001e0: f0ba 823d aa27 83bd 27e4 d33d 3166 26bd
000001f0: 3428 8ebd d254 bdbd b1a9 993e e676 113e
0.15225737 -0.08666686 -0.046959665 0.25321057 -0.0023589006 0.07141057 -0.04814123 -0.07941597
0.06475006 0.009008607 0.077827565 0.089808315 -0.07267768 0.08604615 -0.05941074 -0.0529681
0.09245062 -0.08217455 -0.062936984 0.08904295 -0.09409744 0.11102699 -0.064709045 -0.051815163
-0.06965758 0.07773922 0.08307746 0.114131145 -0.07025286 -0.032625243 -0.07416898 0.071138434
-0.043137316 -0.3178336 -0.014855796 0.081137545 -0.022288421 0.085600615 -0.24717477 0.05273909
-0.094450936 -0.056558535 -0.033136945 0.06822582 -0.22125353 -0.10178863 -0.06688825 0.013347582
-0.06437713 0.024331626 -0.104117535 -0.0033919124 0.018509205 0.087902606 0.08717149 -0.0893961
0.07162861 0.06079422 -0.04223817 0.05428573 -0.06760143 0.23429778 0.051393427 -0.08103494
-0.12921062 0.094928205 0.07572387 0.028562458 -0.114249386 0.102663256 0.013810056 0.06245391
0.048558068 0.05621923 -0.021142999 0.06592309 0.22600451 0.029188637 -0.037227895 0.09610043
0.087933056 -0.067251265 0.07973331 -0.034455154 -0.1231278 -0.11785164 0.09622941 0.02167669
0.06681065 -0.05346783 0.025544973 -0.07426325 -0.0728653 0.07824231 -0.042530518 -0.052396834
0.060545303 -0.07145825 -0.035367098 -0.0075985054 0.045371033 -0.045919806 0.110458285 -0.08032728
-0.08914698 -0.10151248 -0.026354138 0.0846238 -0.09359329 0.1603382 -0.079097226 0.017612215
-0.07144974 0.07111435 0.12232204 -0.004679089 -0.11619162 0.063126296 -0.08528422 -0.09417295
0.06383312 -0.0640405 0.10346251 -0.0406248 -0.06941262 -0.09244694 0.30012277 0.14205512

cost_backbone.0.weight f4 [128, 22]
00000000: 2437 0d3e db74 bd3d 8e35 473b 1bae 883e
00000010: edbc 3d3e 83ac c03d d181 f73d 92c6 34bd
00000020: 98f9 c7bd fc19 7e3d ebde 5ebe 1c6b 1c3e
00000030: 6c5f 80bd 96ba 913d 820f 60bc 6e21 8cbd
00000040: cc92 933d 3be4 19bc 6df9 bb3d 13b2 6a3d
00000050: bc5d 543e 817c 003d 1908 153e 271d c33d
00000060: 9e0a 40bb 9b95 523d 66e9 653c 0547 f4bd
00000070: 2082 923c 988a 2e3e d439 80bd 2aa5 da3d
00000080: f357 90be 7532 89bd 2c89 033e d9f5 fbbd
00000090: 3c4d 14bb 5514 0b3e 3411 70bd 70d8 cc3c
000000a0: b2d1 253e 9479 49bd 0254 373e 7c7a 333e
000000b0: b25d e93d cf68 df3b a079 89bd 99c4 8cbe
000000c0: 9e1c 2b3c 5d02 9cbd e819 a7ba 89b9 0ebd
000000d0: 5478 b8bc 0afc 3abd e149 03be 82e0 8cbd
000000e0: ce0b 08be 818b 213e f6de 3dbd 4b3a 813d
000000f0: c0ad f83c b8ad 533c 21b0 f43d 567e 9abd
00000100: ea6e 4f3e 2e2e 6f3e 8b23 cb3d c1b2 1b3e
00000110: e613 cfbc 316b 1d3d 485e 273e 8095 b6bd
00000120: fcdd a2bc 83da 5e3d a47e 7e3c 8c09 55be
00000130: 378a c93d 2a12 1abe 7811 2ebd 6dec 223d
00000140: ff11 d6bd 40b5 86be b302 42bd 8a40 063e
00000150: d364 a63d 7212 1c3d 609f 05be 1958 c43d
00000160: d7d2 983e 5da4 28be 7f5f e8bd a790 61be
00000170: 7f5c 3d3d 08b2 803d 7b8a 82bc 7019 0cbe
00000180: 5f4d 8abd f616 323d 5dac 2ebd c13d a9be
00000190: 59e3 e2bc 5633 953d 1c0f 90bc 7d0f 6d3b
000001a0: 5538 283d e4dc 923d aa14 983e 3628 613c
000001b0: 24a5 2cbe 7d9c 09be 34a8 e8bc 57a7 ecbd
000001c0: a3ce 83bd 9d29 f73d 14d6 87bd f8db 983c
000001d0: c442 5abd 5cbd a83d 410a 843d 45fc d63d
000001e0: 6d40 26bd ade2 2dbc c948 44be 52c9 d73d
000001f0: b29a 513d 8f9d 1cbd e903 a3bd eaa6 cc3c
00000200: c778 ba3d 02b0 543d 414f 57be 5091 a63e
00000210: 87d7 33be 3da6 05be 3892 5cbc 595a 3d3d
00000220: adc5 34bd 167d 53bc 4343 91bd 93bb e43c
00000230: d9f7 39bc 632f 06bd 88c9 28bc c3f2 f83d
00000240: 9238 e53a 3518 a13d b676 0b3e 5e40 fc3b
00000250: 0c31 6bbd 510b 933c c007 cebd a4e6 00be
00000260: 7096 fb3d 79f5 53be 076e 4b3e 24ab f7bd
00000270: 7b2d 82bd 3bb7 d9bc a02b 62bd 39ed 58bd
00000280: ed9c 15bd 31cd b1bd a392 bb3d 2e1d efbd
00000290: bbf4 bdbd 9ecd b9be a4ba 3f3d 99d9 053e
000002a0: 46f8 563d 8024 1abd 4fc4 dc3d c7cf 223d
000002b0: c103 923c 6e48 9a3c 768e 79bd dadd 9fbe
000002c0: b7e5 bdbd 4ff5 06bb 26c5 d33d eeaa 22be
000002d0: cc71 1c3e 1580 66bd 5680 f2bd 28b2 b3bd
000002e0: e7cc 13bd acb5 023e 9696 e63c baec 8e3e
000002f0: 51f3 093d 6c2d 433d e29a 85bd 896d 4f3d
00000300: f576 703d bb9f ccbc 0d00 ef3d 33e8 e13d
00000310: 6a6f 6abe 8136 413c a109 bbbd 61bd bf3c
00000320: 2cc8 423d 06da 423e b616 1abe 6edf 8cbc
00000330: 6e91 95be d950 9d3b a702 7bbc c422 9fbc
00000340: 07d2 bf3d 3854 c33c 0e66 78be e2bf aebc
00000350: 918f 643b cade f6bd a36d 85bd 78a5 e0bd
00000360: 0c5d 203e a788 f83d 4541 e13c 72bd 41be
00000370: 1e12 91bd f230 a0bd 926e 92bd 42fb ffbd
00000380: 4aa4 32be 0360 6bbc 8b69 ef3d 6b6d b33d
00000390: 0db4 c43c a14c 09ba 86bc 13be bdac 963d
000003a0: 6bfc 173c c79b 12be 7dc8 0ebe f42b b63d
000003b0: 0123 213d e778 893e 1447 963e 9e57 b1bd
000003c0: 83c7 e9bb 8ae4 253e 5430 0bbe 0ed8 ecbd
000003d0: 3fdb 753e 0840 4fbe 68ce 933d 70f3 d13b
000003e0: 6c26 bcba f826 f63c 453f ac3c 239f ce3d
000003f0: 0a5f 19bc 161d 33be 6940 8ebd 10c2 163e
0.13790566 0.09250804 0.0030396911 0.26695332 0.185291 0.09407904 0.120853074 -0.044134684
-0.09764403 0.0620365 -0.21764724 0.15275234 -0.062682 0.071156666 -0.013675572 -0.06842314
0.07205734 -0.009392793 0.091784336 0.05729873 0.20738882 0.031368736 0.1455387 0.09527045
-0.0029303203 0.051412206 0.014032697 -0.119276084 0.017884314 0.17045057 -0.0626103 0.10676034
-0.281921 -0.06699077 0.12845296 -0.12302751 -0.0022629043 0.13581975 -0.058610156 0.02500555
0.16193274 -0.04918821 0.1790314 0.17527193 0.11394824 0.006817914 -0.06712651 -0.27493742
0.010443835 -0.07617638 -0.001274881 -0.03484491 -0.022518314 -0.04565052 -0.12821151 -0.06878759
-0.13285753 0.15775873 -0.04635521 0.063099466 0.030356288 0.012919836 0.119476564 -0.07543628
0.20257154 0.2335746 0.09918889 0.15204908 -0.025278043 0.038432304 0.16344559 -0.089152336
-0.019881241 0.054407608 0.015533123 -0.20804423 0.098408155 -0.15045992 -0.04249713 0.039776254
-0.10452651 -0.26310158 -0.047365855 0.13110557 0.081246994 0.03810353 -0.13049078 0.09587116
0.29848358 -0.1646895 -0.113463394 -0.22027837 0.04623079 0.06283957 -0.015935173 -0.13681579
-0.067530386 0.04347893 -0.042644847 -0.33054927 -0.027696298 0.07285182 -0.01758533 0.0036172562
0.041069347 0.07171038 0.29703265 0.013742497 -0.16859871 -0.13438602 -0.028400518 -0.11555355
-0.06435897 0.12068484 -0.06632629 0.018659577 -0.05328633 0.082392424 0.06447268 0.10497335
-0.040588785 -0.010613126 -0.1916839 0.10536446 0.05117292 -0.038236197 -0.0795973 0.024981935
0.09105068 0.051925667 -0.21026327 0.3253274 -0.17562686 -0.13051696 -0.013462596 0.04622874
-0.04413383 -0.012908241 -0.07092907 0.027921474 -0.011350595 -0.032760035 -0.010301955 0.12155678
0.0017488173 0.07865945 0.13619503 0.007698103 -0.05741982 0.017949732 -0.10060072 -0.12587982
0.12284553 -0.20699109 0.19866191 -0.12093189 -0.06356331 -0.026576629 -0.055217385 -0.05296061
-0.03652661 -0.08681715 0.09158828 -0.116754875 -0.09275194 -0.36289686 0.046808854 0.13071288
0.052482866 -0.037632465 0.107796304 0.039748933 0.017824056 0.018833365 -0.060926877 -0.31223947
-0.0927233 -0.0020592993 0.103403375 -0.15885517 0.15277785 -0.056274492 -0.118408844 -0.08774215
-0.036084082 0.12764615 0.028147977 0.27914983 0.03367931 0.04765074 -0.06523682 0.05064157
0.058707196 -0.02497851 0.116699316 0.110306166 -0.22894064 0.01179278 -0.09132696 0.023405733
0.04755418 0.19028482 -0.15047726 -0.017196383 -0.29212517 0.0048008976 -0.015320457 -0.019425757
0.093662314 0.02384387 -0.24257681 -0.021331731 0.0034875611 -0.120542124 -0.06515052 -0.10969061
0.15660495 0.12135439 0.027496943 -0.18919924 -0.07083534 -0.078218356 -0.07149996 -0.124990955
-0.17445484 -0.014366153 0.116900526 0.08761104 0.024011636 -0.0005237554 -0.14427385 0.07357166
0.00927649 -0.14317237 -0.13943668 0.08895102 0.039340023 0.26850054 0.29351103 -0.0865929
-0.0071343794 0.16200462 -0.13592654 -0.11564647 0.24009417 -0.2023927 0.07217103 0.006407194
-0.0014354712 0.030047879 0.021026263 0.10088947 -0.009361038 -0.17491564 -0.06945879 0.14722466

cost_backbone.0.bias f4 [128]
00000000: 4a24 4bbd d362 203d e915 92bd 56ec 54be
00000010: 1eb1 023e 2874 4b3e 6a2a 943d f688 99bd
00000020: 8e4e 24be bd02 013e 81a6 6fbb 18ef 7a3d
00000030: 23e3 d53d d733 1bbd 101e d13d e333 483d
00000040: 4b9c 0a3e b4fe 2ebd 70d1 d5bc 6c29 0dbe
00000050: 4183 6ebd 8359 253d 9845 7cbd ed13 2d3d
00000060: 1afe 883d 4fd2 863b eae4 cb3c 4103 aa3d
00000070: 14c5 70bd 0332 4e3e 434b 553d 5eb3 40be
00000080: 54d0 07be 59d1 1ebd 7356 65bd 189c b2bc
00000090: 61cb 453e 84eb 133d 4e6e e4bc f9b0 01bd
000000a0: 4672 edb9 ef06 f13c 0f31 1cbe 8b20 313e
000000b0: 7c18 2e3e 16f3 dd3d c64a 1cbe 154d 55be
000000c0: 7018 13bd 70e5 9d3b 6be9 62bd 49b1 fbbd
000000d0: 530c 953d dcc3 293d fcfa 7f3d 9be2 043c
000000e0: aad9 fbbd 5cc0 0bbd 9cd3 00bd 2190 49bd
000000f0: 5fe5 14bc d6c4 643e 891b b9bd d078 9d3d
00000100: c051 bd3d d7e9 613e cfd7 4cbd ea7b 52be
00000110: db97 0b3e 52dc 8bbd 7c5a ce3c daed 6f3e
00000120: 53c2 2b3e 6c25 85bd 5186 46be 9dad df3d
00000130: fccb c33d 7808 0dbd d99d 1f3e ba6b 003e
00000140: 0b41 60bc 4ea3 9bbd 1ed5 a53d 85cd 943d
00000150: 3ad8 653d 7631 1e3d fdce 9fbe 6088 bc3d
00000160: 37c2 933d eff3 543d adf1 3ebd 0116 bfbc
00000170: ca21 cf3d 4049 2fbe a5ff 50bd 85aa f0bd
00000180: d6f5 563d db6c e8bd 5fcc 4fbd 61ab bc3c
00000190: 83f0 a63d 0d0c 483d c32a ff3c a363 c63d
000001a0: f9f2 313c dfc1 853d 00fe 10be c71e 1d3d
000001b0: 858d 13be 92b4 743e 5f54 8abe b72d d8ba
000001c0: 3cc5 6c3d e6c7 92bd 90d6 ff3d 7e81 42bd
000001d0: 5477 25be 8a9f 5cbe 090c bc3d 4319 74bd
000001e0: 14d9 f83c 4d95 cc3d 2db5 db3d fbb5 4b3e
000001f0: 6af1 4f3e 65f4 d43d 5e85 053e c044 0f3e
-0.049595155 0.039156746 -0.07133085 -0.2079328 0.12762877 0.19868529 0.07234652 -0.07496826
-0.16045591 0.12598701 -0.003656775 0.061263174 0.104437135 -0.037891235 0.10210812 0.048877608
0.13536184 -0.042723373 -0.026100844 -0.13785332 -0.058230642 0.04036857 -0.061589807 0.04225533
0.06689091 0.004114426 0.024889428 0.08301402 -0.0587817 0.20136265 0.05207373 -0.18818423
-0.13263065 -0.03877387 -0.055990648 -0.021802947 0.19315864 0.036113277 -0.027884629 -0.031662915
-0.00045289303 0.029422252 -0.1525309 0.1729757 0.17001528 0.108373806 -0.15262899 -0.20830186
-0.035911977 0.004818611 -0.055398386 -0.12289674 0.07277741 0.04144655 0.062495217 0.008110668
-0.122973755 -0.034118995 -0.031451806 -0.049209718 -0.009087889 0.22340712 -0.09038455 0.07689059
0.09244108 0.22061859 -0.0500105 -0.20555082 0.13632147 -0.06829132 0.02518963 0.23430577
0.16773348 -0.06501278 -0.19387175 0.10921786 0.09560391 -0.034431905 0.15587558 0.12541094
-0.013687382 -0.07599507 0.080972895 0.07265762 0.056114413 0.03862139 -0.31212607 0.09205699
0.07214778 0.051990446 -0.0466172 -0.023325922 0.101138666 -0.17117786 -0.05102505 -0.11751274
0.05248054 -0.113488875 -0.050732013 0.023030939 0.08151343 0.048839618 0.03114832 0.09686973
0.010861152 0.065311186 -0.14159393 0.03835943 -0.14409454 0.23897007 -0.27017495 -0.0016493116
0.057805285 -0.07167034 0.124920964 -0.047486775 -0.16158801 -0.21545234 0.09181983 -0.059594404
0.030376948 0.09989414 0.10727916 0.19893639 0.20306936 0.10398177 0.13039157 0.1399107
