outputs/E1_penalty_fixedlambda_sweep/penalty_seed1_EB0.10_LB0.05_lamE1.0_lamL0.5/best_fsr.pt (torch, 981729 bytes, 68 tensors)

actor_backbone.0.weight f4 [128, 22]
0.19946718 -0.15096898 -0.006541429 0.16275328 0.06436831 -0.032196105 -0.1178658 -0.00936957
-0.07688543 0.008948346 -0.020181002 0.06925607 0.0287932 0.09411865 0.06996356 -0.0021422163
0.055509206 0.024095742 -0.17914583 -0.06665511 0.3091368 0.044145584 0.06656058 0.22065306
0.10268929 -0.059293915 -0.010839957 0.0599938 -0.18652377 0.103241146 -0.0067427135 0.0686484
0.07422996 -0.03507299 -0.09093057 -0.17369603 -0.08007882 0.03535227 -0.14233615 0.07879239
0.09510196 0.002919897 -0.02120505 0.1277063 -0.0638445 0.25804225 0.09251165 -0.09233624
-0.13447934 -0.26421523 0.05369618 0.08585949 -0.24418575 -0.08353491 0.15727402 -0.058004446
-0.12343556 0.03801926 -0.08267733 -0.04684252 0.18081121 -0.15032616 -0.0005867962 -0.06388375
-0.12275142 0.2408216 0.08459637 -0.19410619 -0.077672094 -0.021766918 -0.009880622 0.030056039
-0.06315629 0.08314887 0.023817986 -0.010213022 0.022126634 0.1282299 -0.158169 -0.10295702
0.007890108 0.044236556 -0.14955543 0.038759325 -0.16106038 0.09344483 0.107894346 -0.020123992
-0.2611793 0.45690086 0.019088058 0.07971454 0.005871269 0.0041470323 -0.009639448 0.17353861
-0.051372714 -0.34400982 -0.022478154 0.2604109 -0.06140356 0.08214425 0.07265519 0.03459135
-0.06953021 0.038733885 0.07699306 -0.03293038 0.07301514 0.10178865 -0.0022507277 0.06390444
-0.18950441 -0.2446683 -0.037722394 0.00092621444 -0.07105752 -0.1988164 0.009445426 -0.073269464
0.22599368 0.119663976 -0.24933062 0.013380065 0.14962783 0.12945695 0.01957394 0.20839873
-0.35748476 0.0077071106 0.20066568 0.055656396 0.030811794 0.17351885 -0.005670517 0.041293453
-0.079411976 -0.0017249068 -0.0056548202 0.15921254 -0.08950676 0.15598144 -0.21842149 -0.23539892
0.075518236 0.0820332 0.118828975 0.12030859 -0.03684419 0.14008898 0.0023900587 0.14314456
-0.20296942 -0.068541944 0.1175684 0.1108487 0.06618289 0.0021940104 0.099861324 -0.08247118
0.059094373 -0.058661442 -0.083747976 -0.08309047 0.08919456 -0.06219764 0.08234556 -0.15804225
-0.09650791 -0.2089414 -0.0026243597 -0.0110258795 0.05443927 0.10534181 -0.12819336 0.018774409
0.044643827 0.1019513 -0.05914324 0.055217735 -0.01816378 0.019468252 0.03431087 -0.043704156
0.06278809 -0.16694263 -0.08288888 0.13915427 0.13007846 0.008835899 -0.012003223 0.012033754
-0.06567062 -0.07502253 -0.3511235 0.098570116 0.07619513 0.09923497 -0.09538818 -0.20740198
0.1227067 0.09404158 -0.0038984853 0.08048385 0.0737758 0.052083723 -0.17870739 -0.09562582
0.16824664 0.02210313 0.090615384 0.010111069 -0.099551156 0.1167243 0.13991562 -0.12786321
0.044807106 0.20793211 -0.022134809 -0.3977457 0.30456093 0.21099633 -0.05255943 -0.09689672
0.02144743 0.07459169 0.050012477 0.13824719 0.047212046 -0.16503951 -0.099623024 0.28247917
0.010221806 0.0012687533 -0.07157699 -0.06597873 -0.00548703 0.07138174 -0.10720183 0.052854978
0.34251162 -0.0961143 -0.16669078 -0.07435172 0.04658702 0.17581765 0.093013704 -0.043579616
-0.041086793 -0.024094002 0.06467937 -0.1259337 0.08940495 0.017956922 -0.06546441 -0.2301689
00000000: 2041 4c3e 9d97 1abe 7c59 d6bb cca8 263e
00000010: 88d3 833d 10e0 03bd a063 f1bd d382 19bc
00000020: 1c76 9dbd 159c 123c a152 a5bc 20d6 8d3d
00000030: b8df eb3c 47c1 c03d 0e49 8f3d 6d64 0cbb
00000040: 9f5d 633d 6f64 c53c 0172 37be 7982 88bd
00000050: 2e47 9e3e 00d2 343d ea50 883d e0f2 613e
00000060: c34e d23d 2dde 72bd 139a 31bc 0fbc 753d
00000070: 1600 3fbe 1870 d33d fbf1 dcbb 8897 8c3d
00000080: e105 983d b2a8 0fbd cf39 babd 5fdd 31be
00000090: 5d00 a4bd 8bcd 103d 91c0 11be e85d a13d
000000a0: d1c4 c23d be5b 3f3b 37b6 adbc 71c5 023e
000000b0: e8c0 82bd 1d1e 843e bf76 bd3d c81a bdbd
000000c0: f4b4 09be 3847 87be 87f0 5b3d 1ad7 af3d
000000d0: d40b 7abe 5a14 abbd 710c 213e 1296 6dbd
000000e0: c8cb fcbd 15ba 1b3d bb52 a9bd f1dd 3fbd
000000f0: 9326 393e 1aef 19be 3ad3 19ba 7cd5 82bd
00000100: 1965 fbbd f099 763e dd40 ad3d c6c3 46be
00000110: 8c12 9fbd 8950 b2bc 55e2 21bc 1538 f63c
00000120: 1658 81bd f449 aa3d f01d c33c 8554 27bc
00000130: ea42 b53c b34e 033e 0ef7 21be 21db d2bd
00000140: 8345 013c 6431 353d 0f25 19be 19c2 1e3d
00000150: 03ed 24be 0160 bf3d b6f7 dc3d 12db a4bc
00000160: 4bb9 85be e9ee e93e 8f5e 9c3c 6041 a33d
00000170: c663 c03b d4e3 873b c6ee 1dbc 1bb4 313e
00000180: 326c 52bd 0e22 b0be 1b24 b8bc 9454 853e
00000190: 4d82 7bbd 3f3b a83d 3fcc 943d a9af 0d3d
000001a0: db65 8ebd 6ca7 1e3d 8aae 9d3d 02e2 06bd
000001b0: f688 953d 9176 d03d f280 13bb 55e0 823d
000001c0: 720d 42be 548a 7abe cc82 1abd 33cd 723a
000001d0: 9b86 91bd 8796 4bbe fdc0 1a3c 4d0e 96bd
000001e0: e36a 673e 6312 f53d 8750 7fbe 0f38 5b3c
000001f0: 0a38 193e 5d90 043e 8759 a03c 7a66 553e
00000200: 3e08 b7be ee8b fc3b 4e7b 4d3e f6f7 633d
00000210: 0469 fc3c edae 313e bfcf b9bb 5323 293d
00000220: bfa2 a2bd 4516 e2ba 124c b9bb 9d08 233e
00000230: 524f b7bd 99b9 1f3e e2a9 5fbe 6a0c 71be
00000240: 4ea9 9a3d 0601 a83d 9b5c f33d 5a64 f63d
00000250: efe9 16bd 7c73 0f3e 88a2 1c3b 7d94 123e
00000260: 37d7 4fbe b85f 8cbd b4c7 f03d a504 e33d
00000270: e58a 873d 63c9 0f3b 1884 cc3d a6e6 a8bd
00000280: f10c 723d fb46 70bd 0f84 abbd 562b aabd
00000290: a3ab b63d f4c2 7ebd caa4 a83d d4d5 21be
000002a0: f0a5 c5bd bcf4 55be 73fd 2bbb e4a5 34bc
000002b0: b6fb 5e3d 72bd d73d 1f45 03be cacc 993c
000002c0: 72dc 363d d8cb d03d 2f40 72bd fe2b 623d
000002d0: 35cc 94bc e27b 9f3c 8e89 0c3d 2103 33bd
000002e0: 0b97 803d 02f3 2abe a5c1 a9bd 757e 0e3e
000002f0: 4a33 053e 72c4 103c 2ba9 44bc 3929 453c
00000300: 517e 86bd 6aa5 99bd 76c6 b3be 21df c93d
00000310: 310c 9c3d b43b cb3d e15a c3bd 2f61 54be
00000320: a64d fb3d df98 c03d bb7d 7fbb b7d4 a43d
00000330: c417 973d be55 553d 12ff 36be 78d7 c3bd
00000340: d948 2c3e a011 b53c 8f94 b93d e6a8 253c
00000350: 7ae1 cbbd 260d ef3d 0a46 0f3e 93ee 02be
00000360: a887 373d 28ec 543e 0f54 b5bc 53a5 cbbe
00000370: 69ef 9b3e 6c0f 583e 8f48 57bd ca71 c6bd
00000380: 85b2 af3c 87c3 983d e2d9 4c3d ac90 0d3e
00000390: 6b61 413d 1e00 29be 2807 ccbd 1ca1 903e
000003a0: 5d79 273c 4c4c a63a f596 92bd db1f 87bd
000003b0: 8bcc b3bb 9730 923d a28c dbbd 767e 583d
000003c0: af5d af3e 93d7 c4bd fdb0 2abe b745 98bd
000003d0: 08d2 3e3d 8b09 343e f87d be3d 8a80 32bd
000003e0: a04a 28bd c960 c5bc 9e76 843d c4f4 00be
000003f0: f119 b73d 651a 933c 3412 86bd 65b1 6bbe

actor_backbone.0.bias f4 [128]
-0.16635455 -0.38222718 -0.14622006 0.13934581 -0.2813815 -0.05991633 0.20976661 -0.4320409
0.2387642 0.38710165 0.012623284 0.3793507 -0.3321541 0.4235099 -0.2989164 -0.15365462
-0.32880846 -0.49132484 0.19152465 -0.0066071902 -0.17312668 0.11498371 0.045465484 0.39175922
-0.38298762 -0.23655902 0.24706516 -0.28415436 0.30670476 0.14478308 -0.028249133 0.14528103
0.28712878 0.30098087 0.11892152 -0.34424663 0.28312126 0.3929359 0.052814428 -0.096070684
0.35272616 0.3291782 0.41720927 0.0992693 0.0993313 -0.4588821 -0.0644232 0.15658346
-0.13446456 0.15334858 0.27909058 0.43727654 -0.002177673 -0.33169442 -0.13727188 -0.3793645
-0.3582481 -0.2735808 0.22640029 -0.38932067 0.012947211 -0.36419192 -0.36256754 -0.18435739
0.038379066 -0.19727159 -0.25660133 0.37244564 0.11289483 0.20064276 0.114028215 -0.31197008
0.22859037 -0.3371032 0.4256619 -0.3278701 -0.09324029 -0.05484239 -0.071185336 0.3678415
0.24167079 -0.33817342 0.03572058 -0.1499635 -0.10318125 0.14913292 -0.32543045 -0.17718832
-0.1489992 0.29131573 -0.20582542 -0.33463526 0.4124437 0.1322133 0.4551432 -0.3014367
0.021016968 -0.19717778 -0.2659894 -0.2324785 0.33757046 -0.096107535 0.15015723 0.22012225
0.26730794 -0.21204814 0.3872636 -0.03366857 -0.41692728 0.24416393 0.1414033 0.16548167
0.40186763 -0.27582037 -0.09667549 -0.24008362 -0.109429054 -0.027266795 -0.43621665 -0.41711134
-0.30541602 -0.27696824 -0.1908406 -0.03611285 0.3211869 -0.045728866 -0.124760665 -0.112245224
00000000: d958 2abe 48b3 c3be b6ba 15be abb0 0e3e
00000010: 3c11 90be d36a 75bd 0fcd 563e 7734 ddbe
00000020: 9a7e 743e 3032 c63e e4d1 4e3c 413a c23e
00000030: 1a10 aabe 4ad6 d83e 920b 99be a357 1dbe
00000040: 9559 a8be ee8e fbbe 0a1f 443e 2181 d8bb
00000050: 1f48 31be 947c eb3d 043a 3a3d aa94 c83e
00000060: f416 c4be 873c 72be a6fe 7c3e ae7c 91be
00000070: 6808 9d3e 0442 143e ba6a e7bc 8dc4 143e
00000080: 8b02 933e 2a1a 9a3e 208d f33d 1841 b0be
00000090: 45f5 903e e52e c93e f153 583d b5c0 c4bd
000000a0: 8698 b43e 0c8a a83e 749c d53e b44d cb3d
000000b0: 356e cb3d 98f2 eabe 50f0 83bd 6a57 203e
000000c0: 14b1 09be 6907 1d3e f6e4 8e3e b6e2 df3e
000000d0: 4ab7 0ebb dad3 a9be 0091 0cbe 103c c2be
000000e0: 4c6c b7be c812 8cbe 7ad5 673e 0a55 c7be
000000f0: 8a20 543c 5d77 babe 74a2 b9be 2fc8 3cbe
00000100: 5e33 1d3d 9001 4abe 4061 83be 32b1 be3e
00000110: 6835 e73d 4c75 4d3e a087 e93d 8bba 9fbe
00000120: 9813 6a3e ca98 acbe 5bf0 d93e 97de a7be
00000130: c4f4 bebd 6aa2 60bd 9ec9 91bd b955 bc3e
00000140: 8c78 773e 1125 adbe be4f 123d 0890 19be
00000150: b150 d3bd 4db6 183e d29e a6be db70 35be
00000160: 3f93 18be 5627 953e e6c3 52be 5055 abbe
00000170: d22b d33e ec62 073e 8808 e93e e955 9abe
00000180: c72b ac3c f9e8 49be c32f 88be d80e 6ebe
00000190: 09d6 ac3e 07d4 c4bd d1c2 193e ba67 613e
000001a0: 96dc 883e 2623 59be 6a47 c63e 0ee8 09bd
000001b0: 7e77 d5be 1c06 7a3e 07cc 103e 0774 293e
000001c0: 98c1 cd3e 5438 8dbe cdfd c5bd 7bd8 75be
000001d0: 571c e0bd 9d5e dfbc ca57 dfbe 9e8f d5be
000001e0: 7d5f 9cbe c8ce 8dbe b86b 43be 11eb 13bd
000001f0: 9c72 a43e 314e 3bbd 8582 ffbd d3e0 e5bd

actor_backbone.2.weight f4 [128, 128]
-0.0028454333 0.20068634 0.046769924 -0.08566696 0.043183804 -0.114896774 0.24668522 -0.031499475
-0.049402457 -0.025362737 0.030520365 0.2427901 0.24827169 0.052770257 0.036076535 0.10964408
-0.07509451 -0.10087437 0.26514325 0.24729753 0.054847177 -0.02025487 -0.07564863 -0.1311577
-0.006651459 -0.03549158 0.043584693 0.09659211 -0.10414133 -0.10628198 0.1795009 -0.09159242
-0.08945996 -0.013816671 -0.1068817 -0.056532513 0.1681148 -0.028959932 -0.33040676 -0.08633373
0.10111807 0.1535854 -0.020872513 -0.010464681 -0.25518933 0.021926718 -0.08823391 0.11843966
-0.09749341 0.17010134 -0.19445018 0.1285519 0.040658493 -0.06010202 -0.0077505 -0.24926578
0.12167784 0.08315015 -0.056041073 0.03026097 -0.052909125 0.035521023 -0.011054878 0.16577291
0.013670131 -0.0055618673 -0.17188124 0.0235475 0.1658643 0.02449918 0.02180371 -0.01688453
-0.33792114 -0.21981739 -0.014733245 0.033051204 0.07071168 0.010037172 0.042697534 -0.05829745
-0.15791184 0.043338995 -0.22123663 0.32976386 -0.14539096 0.030549793 0.20293352 0.13126954
-0.030754121 -0.09348228 -0.36252403 0.04714228 0.02461537 0.08365267 0.15848053 -0.061007366
-0.011211079 -0.12561458 -0.086641416 0.25040972 0.111977704 -0.045908764 0.24880733 -0.2104213
0.269289 -0.20241688 0.08423798 -0.15272814 -0.029423954 0.18474177 -0.20028219 0.12302359
0.032611452 -0.10530005 0.15493633 0.17530037 -0.2001409 0.15272379 -0.21226928 0.11781035
-0.23137635 -0.14983778 -0.31308186 0.19793409 -0.028806264 0.021666598 0.10925222 -0.01070996
0.058459874 0.31342974 -0.25769013 -0.21040301 -0.01941973 -0.023390615 0.10416959 0.13303752
-0.08316346 0.2002161 0.07059727 -0.21775177 -0.2393672 0.02821806 0.07437185 -0.13688067
0.15688865 0.25412896 0.07228279 0.19021414 0.025464123 0.09762848 0.103776686 -0.25381523
0.27724576 0.2177253 -0.4378936 0.12821373 -0.020027049 0.084369436 0.12852073 -0.074796
-0.13123025 -0.34715375 0.12357939 -0.17127374 0.10312963 -0.20488994 -0.23723814 0.18766706
-0.0007140203 -0.0007311064 -0.45735586 0.18035507 0.009881499 0.32209486 -0.15554331 -0.2228392
-0.022926273 0.017952962 -0.1394025 -0.16981293 -0.05845065 0.094553284 0.09199375 0.2774507
0.18238622 -0.10692013 -0.017257271 0.08369796 0.043013968 -0.054411978 0.012756719 0.118439116
-0.022965463 0.057308342 0.11011132 -0.12372819 0.12995073 -0.33323702 -0.06978536 0.07756404
-0.09591841 0.053979304 -0.2680054 0.16482908 -0.13629954 0.033859316 0.16457026 -0.26321724
-0.059514765 0.18942903 0.013256325 0.04541665 0.08621507 0.027260084 -0.07750824 0.048246223
-0.015207291 -0.14231853 0.116591185 0.22817618 -0.4020976 -0.011846388 -0.23851378 -0.048543837
0.24940223 0.103497356 -0.041525953 0.09166361 -0.10820052 0.14050451 -0.10878819 -0.2536039
-0.09314721 0.18275452 0.06596386 -0.0953349 -0.12055275 -0.2008655 -0.26470768 -0.109347805
0.01622907 -0.07899656 0.10159919 -0.13751987 0.020735681 -0.04787649 0.32320362 0.108424015
0.31206122 0.009596281 0.047097035 -0.0249283 -0.4951659 0.14859125 0.07411984 -0.12777801
00000000: 737a 3abb b880 4d3e d291 3f3d 2972 afbd
00000010: 80e1 303d 004f ebbd 0d9b 7c3e 9805 01bd
00000020: 3b5a 4abd 84c5 cfbc d805 fa3c f89d 783e
00000030: ef3a 7e3e a025 583d fdc4 133d 138d e03d
00000040: 27cb 99bd 3997 cebd dbc0 873e 903b 7d3e
00000050: 6fa7 603d 8bed a5bc abed 9abd 344e 06be
00000060: 7bf4 d9bb 9e5f 11bd dd85 323d 16d2 c53d
00000070: 0d48 d5bd 5eaa d9bd 15cf 373e cf94 bbbd
00000080: c936 b7bd 525f 62bc cbe4 dabd a38e 67bd
00000090: 4926 2c3e 613d edbc 132b a9be bdcf b0bd
000000a0: fe16 cf3d 7e45 1d3e d5fc aabc 0e74 2bbc
000000b0: 2da8 82be a99f b33c fbb3 b4bd 7e90 f23d
000000c0: a0aa c7bd 0c2f 2e3e f31d 47be 1ca3 033e
000000d0: 8589 263d 892d 76bd e8f7 fdbb 873f 7fbe
000000e0: 3b32 f93d a04a aa3d 538b 65bd dbe5 f73c
000000f0: 3db7 58bd 7e7e 113d 851f 35bc 60c0 293e
00000100: aff8 5f3c 5340 b6bb a301 30be b0e6 c03c
00000110: 55d8 293e 81b2 c83c b29d b23c 6d51 8abc
00000120: 0004 adbe cf17 61be b563 71bc b360 073d
00000130: 49d1 903d f372 243c 9ce3 2e3d 4fc9 6ebd
00000140: a4b3 21be 3b84 313d db8b 62be cfd6 a83e
00000150: 5ee1 14be 8f43 fa3c cecd 4f3e 866b 063e
00000160: 11f0 fbbc a373 bfbd c09c b9be 4318 413d
00000170: 2ca6 c93c 1752 ab3d b848 223e dce2 79bd
00000180: acae 37bc 1ca1 00be 0e71 b1bd b435 803e
00000190: 9154 e53d d40a 3cbd 59c7 7e3e ae78 57be
000001a0: 3fe0 893e 5f46 4fbe f684 ac3d c464 1cbe
000001b0: 810a f1bc f22c 3d3e c616 4dbe cbf3 fb3d
000001c0: 9693 053d 8da7 d7bd a1a7 1e3e f181 333e
000001d0: bcf1 4cbe a063 1c3e 1e5d 59be 8e46 f13d
000001e0: eced 6cbe 136f 19be 444c a0be 3caf 4a3e
000001f0: 1dfb ebbc 267e b13c a1bf df3d d478 2fbc
00000200: 9f73 6f3d dd79 a03e f6ef 83be e373 57be
00000210: 2016 9fbc ad9d bfbc de56 d53d fd3a 083e
00000220: 9b51 aabd 7305 4d3e 4d95 903d 52fa 5ebe
00000230: ad1c 75be 9029 e73c 4550 983d 722a 0cbe
00000240: 6ba7 203e 311d 823e 0009 943d 7fc7 423e
00000250: 239a d03c 71f1 c73d df88 d43d 12f4 81be
00000260: 28f3 8d3e 62f3 5e3e 9733 e0be 764a 033e
00000270: c40f a4bc e2c9 ac3d f09a 033e a52e 99bd
00000280: 3961 06be 23be b1be 3117 fd3d 6262 2fbe
00000290: a135 d33d abce 51be 8eee 72be cb2b 403e
000002a0: 172d 3bba b8a7 3fba 8c2a eabe 00af 383e
000002b0: 03e6 213c 9ee9 a43e bf46 1fbe f62f 64be
000002c0: e1cf bbbc 1712 933c 87bf 0ebe 71e3 2dbe
000002d0: f369 6fbd 27a5 c13d 3867 bc3d 050e 8e3e
000002e0: 74c3 3a3e f1f8 dabd 1f5f 8dbc d669 ab3d
000002f0: 6a2f 303d 18df 5ebd 8f01 513c 3590 f23d
00000300: 1122 bcbc 27bc 6a3d 0b82 e13d 3565 fdbd
00000310: ce11 053e 0b9e aabe a0eb 8ebd e5d9 9e3d
00000320: df70 c4bd 6719 5d3d 0138 89be f4c8 283e
00000330: 1b92 0bbe 11b0 0a3d 1b85 283e 69c4 86be
00000340: c1c5 73bd aff9 413e 0f31 593c cf06 3a3d
00000350: 8791 b03d 8a50 df3c a4bc 9ebd d59d 453d
00000360: 0028 79bc f3bb 11be 5cc7 ee3d 04a7 693e
00000370: bddf cdbe 5a17 42bc f53c 74be e7d5 46bd
00000380: 4c63 7f3e 6cf6 d33d 1e17 2abd 21ba bb3d
00000390: 3c98 ddbd 6ae0 0f3e 58cc debd 5fd8 81be
000003a0: f7c3 bebd 0024 3b3e 0f18 873d f23e c3bd
000003b0: 5ce4 f6bd b0af 4dbe c487 87be bef1 dfbd
000003c0: d4f2 843c f3c8 a1bd 3c13 d03d 02d2 0cbe
000003d0: e0dd a93c 231a 44bd f27a a53e 690d de3d
000003e0: 7dc6 9f3e b839 1d3c d2e8 403d 6f36 ccbc
000003f0: 6386 fdbe 4e28 183e 25cc 973d 3dd8 02be

actor_backbone.2.bias f4 [128]
0.026979938 -0.3383113 -0.29262003 0.33259636 -0.091890655 0.30781817 0.32835352 -0.23729323
-0.19702685 -0.04758012 0.30561122 -0.30496687 0.3483593 0.30809596 -0.17886955 0.13245879
0.12772733 -0.1489724 0.0038635973 -0.34849963 -0.3435398 0.20049481 -0.33470055 -0.19372888
0.13826165 0.2843547 0.032093428 0.048668575 -0.27838913 -0.047584042 -0.32258144 -0.30913633
0.31910783 0.2576028 -0.34274903 0.27403373 0.09871686 0.2594622 0.17822152 0.18450397
-0.0060996353 -0.07755416 -0.35647273 0.24307172 -0.08213146 -0.011846021 -0.23171832 0.23704591
0.34379938 0.2858548 0.118458964 -0.054745235 -0.30307582 -0.25867847 -0.32492304 0.34235504
0.38621315 -0.21579139 0.045005463 0.2046704 0.070260234 0.36440545 0.22458772 0.21446529
-0.26733035 -0.25578555 -0.12434769 -0.3107537 -0.18973811 -0.16215236 0.013209519 -0.38038072
0.22091651 -0.30701336 -0.28461793 -0.18219696 -0.32922632 -0.32612443 -0.37165546 -0.33024442
-0.17548174 -0.1307431 0.15866852 0.33591634 -0.076233886 -0.29192746 -0.11943126 -0.31104463
-0.2696538 -0.20862819 0.33624882 0.045716118 -0.20354974 -0.25837114 -0.23777455 0.0026321765
0.14309849 0.32456884 -0.32781294 -0.25978345 0.2204747 -0.15638988 0.25618201 -0.18604316
0.19013765 0.07735982 -0.34838372 -0.15883714 0.3243838 0.25935158 -0.30540475 0.072064005
-0.20192899 0.022251138 0.13369077 -0.2876985 0.052422818 0.16209765 0.29626927 0.20032896
-0.24910726 0.3368271 -0.06794564 -0.1426509 0.096155025 0.030055948 -0.32268387 0.2899226
00000000: 0805 dd3c 2437 adbe 4bd2 95be 124a aa3e
00000010: 2b31 bcbd 589a 9d3e f41d a83e fffc 72be
00000020: 68c1 49be 5fe3 42bd 1379 9c3e 9e24 9cbe
00000030: 265c b23e c1be 9d3e 9429 37be 47a3 073e
00000040: f4ca 023e 398c 18be 6834 7d3b 8b6e b2be
00000050: 73e4 afbe 834e 4d3e df5d abbe dd60 46be
00000060: 7694 0d3e f096 913e 6674 033d b358 473d
00000070: 0589 8ebe 7ce7 42bd 6529 a5be 1e47 9ebe
00000080: 1a62 a33e 84e4 833e cd7c afbe 264e 8c3e
00000090: 112c ca3d 3bd8 843e b47f 363e 9cee 3c3e
000000a0: 73df c7bb b7d4 9ebd 9883 b6be cbe7 783e
000000b0: 8a34 a8bd d015 42bc 9147 6dbe 2abc 723e
000000c0: 7906 b03e 8f5b 923e 9d9a f23d 8a3c 60bd
000000d0: c12c 9bbe 8171 84be 505c a6be 2949 af3e
000000e0: bbbd c53e 6bf8 5cbe a657 383d 1e95 513e
000000f0: 99e4 8f3d 5a93 ba3e 53fa 653e ca9c 5b3e
00000100: 86df 88be 53f6 82be 00aa febd 1c1b 9fbe
00000110: b54a 42be 450b 26be bd6c 583c 43c1 c2be
00000120: f037 623e db30 9dbe 71b9 91be d791 3abe
00000130: 5a90 a8be c8f9 a6be a049 bebe cc15 a9be
00000140: 7cb1 33be 85e1 05be 007a 223e 3afd ab3e
00000150: 8320 9cbd 8477 95be 6098 f4bd 3e41 9fbe
00000160: 1010 8abe a1a2 55be ce28 ac3e d340 3b3d
00000170: 586f 50be 3949 84be 2c7b 73be 9880 2c3b
00000180: 6988 123e e32d a63e 19d7 a7be 5602 85be
00000190: 1fc4 613e ab24 20be 4a2a 833e 1982 3ebe
000001a0: 72b3 423e d36e 9e3d 5a5f b2be 34a6 22be
000001b0: a215 a63e bbc9 843e 035e 9cbe 4b96 933d
000001c0: 79c6 4ebe 0548 b63c 3ce6 083e 384d 93be
000001d0: 4fb9 563d edfc 253e 9bb0 973e 0923 4d3e
000001e0: f915 7fbe 9a74 ac3e 1527 8bbd 1413 12be
000001f0: edec c43d e437 f63c d236 a5be bc70 943e

reward_backbone.0.weight f4 [128, 22]
0.05711484 0.24314226 -0.011534652 -0.03298356 0.07639101 0.056434665 0.09930306 0.040977784
0.07505766 -0.015466543 -0.033090804 0.07403579 0.057720076 -0.010514395 0.062042326 -0.031073436
-0.009558862 0.025322825 0.0025290577 -0.10569654 0.10147656 0.09511824 0.000818479 0.19370306
0.052203782 0.035215173 -0.10568587 0.10089307 0.040402144 -0.09303041 0.0042851777 0.0094945785
0.018419465 0.074153334 -0.004387507 0.014678826 0.03138252 -0.097346574 0.04314908 -0.1859644
0.015906869 -0.13953432 0.03960926 -0.1034535 -0.06774853 -0.26937777 0.09244494 -0.11395431
0.053205863 0.07796141 -0.1597007 -0.12968692 0.12554911 -0.30462033 0.13020982 -0.016013365
-0.13870785 0.10584431 0.010530362 0.062215474 0.04743302 -0.027811373 -0.24609555 -0.015378432
0.16488807 -0.027231928 -0.21279803 0.06913522 0.074090905 -0.06334264 -0.032510526 0.05024582
-0.009845766 0.018919593 -0.005986937 0.1268142 0.04521203 -0.013407495 0.042877965 -0.05603428
-0.10342713 0.14277801 0.053749315 -0.048632327 0.042810686 0.19629961 -0.22078972 0.04239983
-0.07778123 0.08765116 0.09070093 -0.06831785 -0.12877034 0.055534072 -0.09754849 0.030256376
-0.03541302 0.26587403 0.17101505 -0.030892497 -0.07511296 0.1283599 -0.007927544 0.0346315
-0.14818497 0.109097235 -0.034956414 -0.040644623 0.054065563 0.10968834 0.11228494 0.05379342
-0.23941492 0.070733525 -0.17981446 0.028248204 -0.05459881 0.057506215 0.1511886 -0.14301807
-0.2862586 -0.046486232 0.19649403 0.112732 -0.10759486 0.11152881 0.030430345 0.18890508
0.015710961 0.1276784 -0.03234337 0.041099343 -0.14267652 -0.22527067 -0.10705255 0.07173991
0.01733239 -0.101404965 0.052340373 0.053474892 0.07813265 -0.13974899 -0.020792162 -0.030710036
0.16960232 -0.0020359142 0.019329583 0.048838925 -0.06923538 -0.078486614 -0.003747427 0.15508999
-0.1459186 0.044552855 -0.23954654 -0.17003196 0.017704938 0.12207909 -0.024119925 0.18179554
0.06642268 -0.06500994 0.025601525 0.09660984 -0.06956059 -0.19993089 0.08382845 0.009311965
-0.0052265977 -0.069504134 0.012896208 0.022759443 -0.05186068 -0.110037886 0.024368007 -0.11381932
-0.0928194 0.07081803 -0.012239946 0.025674323 0.20716791 0.058201995 -0.021541726 0.008694712
-0.1495151 -0.03222805 0.21801978 0.031610344 0.10161774 -0.16735578 0.11489635 0.0334626
-0.09157647 -0.07015053 0.11088832 -0.0056990176 0.15418597 0.004876392 0.12643631 0.01635667
-0.104251206 0.13969846 0.05057631 -0.024371805 -0.17724644 0.15734106 -0.02707795 0.016065469
-0.23172624 0.08396899 0.05111593 0.14428493 -0.077389106 -0.1734173 -0.043027118 0.10197292
0.20215856 -0.13544637 -0.14067826 -0.080429286 -0.021005075 0.34225723 0.017265728 0.050247606
-0.22230008 0.059577186 0.097774066 0.05608897 0.058304958 -0.100787215 -0.034556463 -0.02741071
-0.20323096 -0.057704348 -0.021849265 -0.07297975 0.18220696 0.073838435 0.14758812 -0.07589376
-0.0072338236 0.1007435 -0.13756451 -0.11388188 0.07491433 -0.04399772 0.08808535 -0.06269136
-0.03994925 0.12000067 0.01818196 0.12075012 -0.075776055 -0.06490388 -0.04287263 0.03897243
00000000: 40f1 693d 49fa 783e d6fb 3cbc c519 07bd
00000010: e472 9c3d 0928 673d 675f cb3d 52d8 273d
00000020: d5b7 993d 6267 7dbc 398a 07bd 14a0 973d
00000030: e36b 6c3d 9244 2cbc 1820 7e3d b88d febc
00000040: c69c 1cbc d071 cf3c 8cbe 253b 6d77 d8bd
00000050: f1d2 cf3d 5acd c23d 328f 563a 185a 463e
00000060: a2d3 553d c93d 103d d571 d8bd 07a1 ce3d
00000070: b87c 253d ba86 bebd ad6a 8c3b 268f 1b3c
00000080: 6be4 963c b4dd 973d 14c5 8fbb 757f 703c
00000090: f58a 003d a45d c7bd 17bd 303d 746d 3ebe
000000a0: 1f4f 823c 16e2 0ebe 523d 223d 6edf d3bd
000000b0: bebf 8abd e2eb 89be c653 bd3d e160 e9bd
000000c0: 64ee 593d 3baa 9f3d 9588 23be a6cc 04be
000000d0: f28f 003e 32f7 9bbe b955 053e 762e 83bc
000000e0: 6e09 0ebe e7c4 d83d 8a87 2c3c a7d5 7e3d
000000f0: 2049 423d add4 e3bc 7900 7cbe d2f5 7bbc
00000100: 6bd8 283e 7e15 dfbc bae7 59be c496 8d3d
00000110: f9bc 973d c9b9 81bd c229 05bd 90ce 4d3d
00000120: 2350 21bc 43fd 9a3c 112e c4bb 95db 013e
00000130: 4030 393d 1cab 5bbc cea0 2f3d 3484 65bd
00000140: 9ad1 d3bd 6634 123e 3e28 5c3d b132 47bd
00000150: 425a 2f3d c402 493e b316 62be 72ab 2d3d
00000160: c44b 9fbd 7482 b33d 69c1 b93d 3bea 8bbd
00000170: 5fdc 03be b277 633d 81c7 c7bd 38dc f73c
00000180: 3e0d 11bd a420 883e 921e 2f3e 4312 fdbc
00000190: d3d4 99bd c770 033e 88e2 01bc c2d9 0d3d
000001a0: cdbd 17be 5f6e df3d 752e 0fbd fa7a 26bd
000001b0: da73 5d3d 48a4 e03d a6f5 e53d 7d56 5c3d
000001c0: 2f29 75be bddc 903d 4821 38be c768 e73c
000001d0: 00a3 5fbd a38b 6b3d 2fd1 1a3e 5473 12be
000001e0: 7d90 92be 5968 3ebd bb35 493e 09e0 e63d
000001f0: b25a dcbd 3769 e43d 0f49 f93c 5570 413e
00000200: 46b4 803c 20be 023e 7b7a 04bd c957 283d
00000210: cb19 12be 5bad 66be 5e3e dbbd 60ec 923d
00000220: a8fc 8d3c 68ad cfbd dc62 563d 7d08 5b3d
00000230: 0304 a03d 5c1a 0fbe 5354 aabc 9d93 fbbc
00000240: 3bac 2d3e f96c 05bb 1359 9e3c 530b 483d
00000250: 47cb 8dbd 97bd a0bd 6497 75bb e9cf 1e3e
00000260: af6b 15be 0e7d 363d b04b 75be dc1c 2ebe
00000270: f209 913c 9a04 fa3d 2697 c5bc 9c28 3a3e
00000280: 9d08 883d ee23 85bd 4aba d13c 61db c53d
00000290: c875 8ebd afba 4cbe 40ae ab3d 3691 183c
000002a0: e143 abbb 2f58 8ebd 9e4a 533c 0372 ba3c
000002b0: dd6b 54bd 8b5b e1bd 6a9f c73c 1b1a e9bd
000002c0: 1918 bebd 0b09 913d 0e8a 48bc f552 d23c
000002d0: d323 543e 3765 6e3d 4678 b0bc 4474 0e3c
000002e0: 7d1a 19be 8f01 04bd 9440 5f3e d979 013d
000002f0: f61c d03d 505f 2bbe c74e eb3d 1410 093d
00000300: 728c bbbd 15ab 8fbd 6a19 e33d d3be babb
00000310: ede2 1d3e 24ca 9f3b 8578 013e 6cfe 853c
00000320: a881 d5bd 1d0d 0f3e 1b29 4f3d 61a7 c7bc
00000330: 1780 35be 041e 213e 94d2 ddbc bb9b 833c
00000340: a549 6dbe eff7 ab3d f05e 513d 6ebf 133e
00000350: 2e7e 9ebd 4e94 31be 343d 30bd 2ed7 d03d
00000360: a702 4f3e 74b2 0abe f60d 10be 1cb8 a4bd
00000370: d612 acbc 573c af3e db70 8d3c 6fd0 4d3d
00000380: a2a2 63be 3507 743d c53d c83d 8cbd 653d
00000390: 2ed1 6e3d 8769 cebd 148b 0dbd 6d8c e0bc
000003a0: c71b 50be 655b 6cbd 3bfd b2bc 6876 95bd
000003b0: 7694 3a3e 9b38 973d 5721 173e 306e 9bbd
000003c0: b609 edbb 9c52 ce3d b6dd 0cbe e73a e9bd
000003d0: af6c 993d f436 34bd 1866 b43d 5464 80bd
000003e0: d3a1 23bd e9c2 f53d 55f2 943c d74b f73d
000003f0: 7a30 9bbd 53ec 84bd 369b 2fbd 8ea1 1f3d

reward_backbone.0.bias f4 [128]
0.004471596 0.26141247 0.2499078 0.0015826126 -0.08617734 -0.08388675 -0.0026580468 0.44157425
0.18030533 0.067761585 -0.11392117 -0.036335163 -0.16031599 -0.23108777 -0.043107186 -0.002860886
0.06865967 -0.19622579 -0.043611776 0.23139718 -0.041379925 -0.04621756 0.014506008 -0.3207761
-0.19773261 0.35414547 -0.006661296 -0.105688535 -0.0402602 -0.034859713 0.28863207 0.24560028
0.03270941 0.20540859 -0.026561346 0.21319343 -0.059834816 0.004031006 0.033642303 0.311766
-0.19164872 -0.009892336 -0.10373712 0.27069876 -0.023083031 0.075174645 -0.012988455 0.0968
0.031708315 -0.11123225 -0.26277715 -0.18522665 -0.040510688 -0.12160584 0.08952591 0.025000723
0.09608658 -0.11172887 0.045032065 -0.25860715 0.15808891 0.15634687 -0.06042312 -0.043502558
0.057919323 -0.08597703 -0.15802516 -0.053692758 -0.23076145 -0.055534583 -0.00828052 0.001763243
-0.21997553 0.38055032 0.08950273 -0.14023273 -0.07225628 -0.25303417 0.031529125 -0.22569022
-0.046024527 0.073663525 -0.005981707 0.19597393 -0.045179065 -0.083220854 0.32276887 -0.041969653
-0.14863057 -0.21880758 -0.05142537 0.03951468 0.1728476 -0.05034221 -0.33040866 0.21814007
0.06246418 -0.08121607 -0.0119027905 0.13899982 0.043345097 -0.33479813 0.025803456 0.051528454
-0.034704637 0.0032105495 -0.10167203 0.19227779 -0.14754185 -0.017202592 0.14118113 -0.084692664
-0.035071954 -0.031160215 0.041881777 -0.22831829 0.050701417 -0.20557676 -0.030252593 -0.19733235
0.26258838 -0.066097796 0.06234068 0.011856442 0.080882564 0.01206534 0.06638543 0.031838413
00000000: 7786 923b dbd7 853e d5e7 7f3e ab6f cf3a
00000010: bf7d b0bd d1cc abbd a032 2ebb 0516 e23e
00000020: f6a1 383e 96c6 8a3d 814f e9bd 2ed4 14bd
00000030: e029 24be 46a2 6cbe 2991 30bd b47d 3bbb
00000040: 719d 8c3d 6aef 48be 43a2 32bd 62f3 6c3e
00000050: ff7d 29bd a04e 3dbd 9baa 6d3c c43c a4be
00000060: 6b7a 4abe 8e52 b53e 0047 dabb 3b73 d8bd
00000070: e1e7 24bd 0fc9 0ebd 95c7 933e a47e 7b3e
00000080: 4dfa 053d a156 523e 2e97 d9bc 614f 5a3e
00000090: 5a15 75bd 8716 843b 83cc 093d cb9f 9f3e
000000a0: 903f 44be 7713 22bc 2174 d4bd 0799 8a3e
000000b0: a018 bdbc 2af5 993d 87cd 54bc 143f c63d
000000c0: 94e0 013d bccd e3bd ba8a 86be 0eac 3dbe
000000d0: 89ee 25bd 7c0c f9bd 5c59 b73d 51ce cc3c
000000e0: 0ac9 c43d 1bd2 e4bd 8b73 383d 2868 84be
000000f0: 0fe2 213e 6519 203e 3c7e 77bd bd2f 32bd
00000100: d03c 6d3d ba14 b0bd 59d1 21be f0ec 5bbd
00000110: bb4c 6cbe 3b78 63bd 05ab 07bc 9e1c e73a
00000120: 4441 61be 7ed7 c23e 354d b73d 2b99 0fbe
00000130: 1afb 93bd b28d 81be af24 013d 561b 67be
00000140: 3784 3cbd e7dc 963d 3202 c4bb 64ad 483e
00000150: af0d 39bd b26f aabd f641 a53e 5fe8 2bbd
00000160: 9d32 18be 180f 60be 69a3 52bd 25da 213d
00000170: f6fe 303e a233 4ebd 532b a9be 1c60 5f3e
00000180: 71da 7f3d 9c54 a6bd ec03 43bc f855 0e3e
00000190: a18a 313d a96a abbe c561 d33c 800f 533d
000001a0: 7326 0ebd 1568 523b 6d39 d0bd 78e4 443e
000001b0: 3615 17be 73ec 8cbc c991 103e 5973 adbd
000001c0: 9ca7 0fbd b543 ffbc 3a8c 2b3d 45cc 69be
000001d0: 4aac 4f3d b782 52be 49d4 f7bc 7e11 4abe
000001e0: fc71 863e 485e 87bd f158 7f3d 8641 423c
000001f0: c2a5 a53d b4ad 453c 16f5 873d ff68 023d

reward_backbone.2.weight f4 [128, 128]
-0.19114988 0.04787833 0.024085337 0.043231055 0.11286404 -0.048258934 -0.055091865 0.057544295
0.017811336 0.07620406 0.033414632 -0.18015279 0.03315139 -0.14909816 0.09299986 0.051061783
0.11888938 0.089620605 0.12068229 0.24037883 0.42504302 0.059189435 0.008278862 -0.14853977
0.036563084 0.074159965 -0.011434488 0.14693618 0.017957902 -0.200066 -0.04468244 0.13977137
0.018716987 -0.05785819 0.036755774 0.13539258 0.17353275 0.063753895 -0.06877617 -0.0054099252
-0.09882798 -0.057319842 -0.017074866 -0.20724359 -0.120635316 -0.022573885 0.18121314 -0.1226929
-0.04878612 -0.060398597 -0.060812663 0.06569746 0.010144316 -0.041286927 -0.031117817 0.24412073
0.12982573 -0.13542911 0.18304384 -0.08535842 -0.2561668 0.044743914 -0.23170982 0.011065172
0.04849221 0.08219454 0.031175094 0.08784826 0.17487411 0.0065951147 0.27395037 0.053922966
0.3063472 0.05066449 -0.03180164 -0.012412312 0.02515848 0.10364675 0.050331447 -0.22381535
0.13727699 0.10789908 0.09784093 -0.011873466 -0.04448413 0.05535621 -0.05990457 0.16157658
0.21773235 0.10733341 -0.062417798 -0.04456122 0.032960206 -0.09171619 0.01085295 0.20386356
-0.077885956 -0.27616188 0.08768783 0.037912183 -0.068866916 -0.116989516 0.17590366 -0.19586167
0.010453728 0.16749512 -0.008897663 -0.04877746 -0.004355604 -0.15330154 -0.0136377355 0.023069622
0.07098578 0.08976658 -0.04534675 0.24950226 -0.060618177 -0.072794564 -0.2402929 -0.13072674
-0.08803155 -0.2862021 0.18183424 -0.025167502 -0.044403564 -0.050359257 -0.044009663 -0.10293529
0.013675311 0.06542592 0.02463019 0.02958571 -0.040131383 -0.046148155 -0.09600871 0.08477943
-0.022436038 -0.081422746 -0.0345681 -0.057944845 0.078634776 -0.10029274 0.013575505 -0.19787158
-0.178022 -0.00947801 -0.19578049 0.020642139 -0.094747126 -0.15299962 0.1590185 0.14681655
-0.032269318 -0.011474282 0.05816197 0.13542889 0.003477766 -0.088509284 0.021977015 0.12766054
0.02807994 -0.14754647 -0.06758847 -0.03909038 -0.22477967 -0.017221674 -0.14550532 -0.10801903
-0.08856899 0.08571112 -0.0059919683 -0.1402459 0.07796194 0.2000913 -0.21001936 0.34532416
-0.027298836 -0.09023149 0.02896328 -0.070558354 -0.07105746 0.12354636 -0.015697103 0.17662843
0.10871524 -0.021656735 0.26513028 -0.03785664 0.10847149 0.1485941 -0.21843256 0.047160022
-0.10110212 0.013758087 -0.0031810733 -0.02326763 -0.36215162 -0.04609772 0.23005845 -0.07825266
0.09904262 -0.0005757336 -0.12282069 0.14947487 -0.15858977 0.031376004 -0.20072508 0.0061597023
-0.015832452 0.023966527 -0.044777676 -0.1559473 0.19836855 -0.05397681 -0.11239006 -0.19118845
0.059482284 0.01746286 0.025915736 -0.09370162 -0.1976741 -0.016260048 -0.2615907 -0.20225601
0.12718485 -0.16647978 -0.001765398 0.06550187 0.08568683 0.053374846 -0.011605542 -0.057504363
-0.08451053 0.049056344 -0.011673676 -0.25559166 -0.20013487 -0.2449946 -0.006484701 -0.19970262
-0.09688475 -0.088149644 -0.15906475 -0.03776782 -0.23395155 -0.039675746 -0.13206042 0.04110151
-0.17662942 0.010139868 0.2104395 -0.008997064 -0.0018745123 0.0890694 0.14984003 0.24311031
00000000: cbbc 43be 111c 443d 9d4e c53c 0c13 313d
00000010: 4325 e73d 29ab 45bd 02a8 61bd 91b3 6b3d
00000020: 14e9 913c e010 9c3d c8dd 083d f979 38be
00000030: c0c9 073d 30ad 18be b676 be3d 2926 513d
00000040: 467c f33d 028b b73d 4728 f73d de25 763e
00000050: 3d9f d93e 9f70 723d 10a4 073c cf1a 18be
00000060: 2cc3 153d 2ee1 973d b857 3bbc 7076 163e
00000070: 731c 933c 1ade 4cbe ef04 37bd 3a20 0f3e
00000080: 5e54 993c b6fc 6cbd 398d 163d 5aa4 0a3e
00000090: 92b2 313e 6791 823d 85da 8cbd be45 b1bb
000000a0: 5366 cabd 36c8 6abd 97e0 8bbc aa37 54be
000000b0: a60f f7bd deec b8bc f08f 393e 6a46 fbbd
000000c0: f4d3 47bd 8564 77bd b316 79bd 648c 863d
000000d0: 5834 263c 7b1c 29bd cbea febc c9fa 793e
000000e0: 09f1 043e eead 0abe d86f 3b3e 65d0 aebd
000000f0: 4b28 83be 6545 373d 5745 6dbe b24a 353c
00000100: c59f 463d 9c55 a83d e962 ff3c cae9 b33d
00000110: 3312 333e d51b d83b 3943 8c3e 54de 5c3d
00000120: 8ad9 9c3e 9185 4f3d 7042 02bd 035d 4bbc
00000130: 2819 ce3c bf44 d43d 5928 4e3d da2f 65be
00000140: 5792 0c3e 31fa dc3d d360 c83d ed88 42bc
00000150: fe34 36bd 31bd 623d 7f5e 75bd 5574 253e
00000160: 3bf5 5e3e 9ed1 db3d cea9 7fbd d385 36bd
00000170: 4801 073d b3d5 bbbd 92d0 313c 9cc1 503e
00000180: ac82 9fbd 1765 8dbe ad95 b33d ce49 1b3d
00000190: 190a 8dbd 3398 efbd 1720 343e f68f 48be
000001a0: 1d46 2b3c d783 2b3e 81c7 11bc e0ca 47bd
000001b0: 74b9 8ebb 14fb 1cbe cf70 5fbc 81fc bc3c
000001c0: fe60 913d 8ad7 b73d 84bd 39bd 857d 7f3e
000001d0: c44a 78bd 5115 95bd 580f 76be 3bdd 05be
000001e0: e349 b4bd 1589 92be c132 3a3e 142c cebc
000001f0: 83e0 35bd 8245 4ebd 7a43 34bd bdcf d2bd
00000200: 690e 603c 06fe 853d 41c5 c93c bb5d f23c
00000210: ce60 24bd d905 3dbd 37a0 c4bd d6a0 ad3d
00000220: c8cb b7bc f8c0 a6bd 4897 0dbd 9357 6dbd
00000230: 450b a13d 4866 cdbd cc6b 5e3c d99e 4abe
00000240: 664b 36be a849 1bbc ae7a 48be b419 a93c
00000250: c80a c2bd efab 1cbe bfd5 223e 1457 163e
00000260: d52c 04bd a0fe 3bbc 3f3b 6e3d dfad 0a3e
00000270: 3beb 633b 5b44 b5bd 2409 b43c 72b9 023e
00000280: e707 e63c 6c16 17be d36b 8abd 3c1d 20bd
00000290: a42c 66be 7814 8dbc 59ff 14be 1539 ddbd
000002a0: a963 b5bd 5089 af3d 4658 c4bb 9f9c 0fbe
000002b0: 82aa 9f3d bce4 4c3e 510f 57be 54ce b03e
000002c0: cfa1 dfbc 4acb b8bd 6744 ed3c e680 90bd
000002d0: 9386 91bd e005 fd3d 3697 80bc 15de 343e
000002e0: 19a6 de3d 7769 b1bc 28bf 873e 900f 1bbd
000002f0: 4d26 de3d 0d29 183e c9ac 5fbe de2a 413d
00000300: a10e cfbd 9969 613c 8e79 50bb c29b bebc
00000310: f06b b9be f6d0 3cbd 7194 6b3e ee42 a0bd
00000320: dbd6 ca3d d4ec 16ba 6a89 fbbd f10f 193e
00000330: 5b65 22be 2084 003d e08a 4dbe 54d7 c93b
00000340: 0fb3 81bc 7355 c43c cc68 37bd a6b0 1fbe
00000350: 2021 4b3e ca16 5dbd c32c e6bd e8c6 43be
00000360: b2a3 733d 460e 8f3c 3d4d d43c a3e6 bfbd
00000370: 146b 4abe cb33 85bc 37ef 85be 331c 4fbe
00000380: bf3c 023e ad79 2abe ed64 e7ba d825 863d
00000390: 947c af3d 959f 5a3d 2c25 3ebc b289 6bbd
000003a0: db13 adbd 4eef 483d f242 3fbc e9dc 82be
000003b0: 28f0 4cbe dddf 7abe 9d7d d4bb d87e 4cbe
000003c0: 836b c6bd cd87 b4bd dfe1 22be 6eb2 1abd
000003d0: ff90 6fbe 0983 22bd d93a 07be 0f5a 283d
000003e0: 58de 34be b021 263c 747d 573e 6c68 13bc
000003f0: 32b2 f5ba 056a b63d aa6f 193e e9f1 783e

reward_backbone.2.bias f4 [128]
0.09144442 0.08809838 -0.11528476 0.07702623 0.0715709 0.06927016 0.09312963 0.007246184
-0.08380747 0.02075472 -0.10120078 0.055750478 -0.16133747 -0.18449025 -0.07187847 0.078452714
0.258609 0.025943084 0.070283055 -0.011770806 0.053178437 0.08703207 0.15926418 -0.06449181
0.0536617 -0.09980589 0.07017801 -0.046360917 0.03646792 0.022364303 -0.13761313 -0.025465418
-0.13449071 0.031982437 -0.14185156 -0.041912813 -0.15628777 0.08860683 0.14936447 -0.05624935
-0.07114766 0.065116435 -0.0410512 -0.1206075 -0.11520957 -0.051957123 -0.077740386 -0.114062406
0.23251435 -0.08007749 -0.10892856 -0.10592623 -0.11304878 0.094283774 -0.017785553 -0.02784405
-0.071792245 -0.1146384 0.027645214 0.09216807 -0.024001742 -0.20943838 0.029334031 0.057188123
-0.10203022 -0.10742363 -0.19426818 -0.09917387 0.0041368613 0.02953432 -0.100125834 -0.079687506
-0.12050491 -0.043525465 -0.11693843 0.09335919 -0.0047817286 -0.1768961 0.039801206 0.102257885
0.13965689 -0.08999988 -0.028959379 -0.05393701 -0.038839247 -0.1469545 0.09790356 -0.13730192
0.08741866 0.08839052 -0.061910164 0.12731406 -0.06396709 0.10498362 -0.037274566 0.054828808
-0.08807507 -0.033124894 0.063908964 -0.0689088 -0.06534154 0.095942065 -0.2123834 -0.016191144
-0.0683401 -0.068960726 0.028640423 -0.105005674 -0.07171103 0.032065317 0.15592924 -0.061281923
0.12851812 0.06447471 0.030292004 0.02278071 -0.04537043 -0.105599634 -0.05543037 0.23055103
0.038208332 -0.059693914 -0.03409899 -0.060348924 0.0016450762 0.08292662 -0.08505973 0.079284646
00000000: 3647 bb3d ec6c b43d 6b1a ecbd eebf 9d3d
00000010: c493 923d 83dd 8d3d bfba be3d 6671 ed3b
00000020: 40a3 abbd cd05 aa3c 5b42 cfbd 9d5a 643d
00000030: a635 25be 03eb 3cbe 0535 93bd d1ab a03d
00000040: 6668 843e 9786 d43c 90f0 8f3d 57da 40bc
00000050: a2d1 593d df3d b23d 2616 233e 4814 84bd
00000060: 5fcc 5b3d 0867 ccbd 7db9 8f3d f2e4 3dbd
00000070: 635f 153d 5835 b73c 75ea 0cbe da9c d0bc
00000080: efb7 09be 0400 033d 8941 11be c5ac 2bbd
00000090: e709 20be 7f77 b53d 00f3 183e b865 66bd
000000a0: ddb5 91bd c45b 853d 4e25 28bd 1101 f7bd
000000b0: fff2 ebbd fed0 54bd 5a36 9fbd 8d99 e9bd
000000c0: 3e18 6e3e abff a3bd f015 dfbd daef d8bd
000000d0: 1e86 e7bd da17 c13d 02b3 91bc 3519 e4bc
000000e0: d007 93bd 8ac7 eabd 3778 e23c 9dc2 bc3d
000000f0: 4d9f c4bc 0477 56be ec4d f03c 183e 6a3d
00000100: 38f5 d0bd ec00 dcbd 3dee 46be ac1b cbbd
00000110: 828e 873b f5f1 f13c c60e cdbd 3433 a3bd
00000120: 47cb f6bd c247 32bd 6a7d efbd 1a33 bf3d
00000130: 0cb0 9cbb 4024 35be 9706 233d 956c d13d
00000140: 3702 0f3e db51 b8bd 383c edbc 0eed 5cbd
00000150: e715 1fbd 3e7b 16be a981 c83d e098 0cbe
00000160: 8e08 b33d 1706 b53d 8395 7dbd 9e5e 023e
00000170: 2d01 83bd a701 d73d 37ad 18bd 2c94 603d
00000180: b460 b4bd f8ad 07bd b4e2 823d 0f20 8dbd
00000190: c9d1 85bd 467d c43d 097b 59be 4aa3 84bc
000001a0: e5f5 8bbd 483b 8dbd 529f ea3c 370d d7bd
000001b0: 3cdd 92bd ec56 033d eaab 1f3e c102 7bbd
000001c0: 419a 033e 510b 843d f026 f83c 9d9e ba3c
000001d0: 58d6 39bd 9f44 d8bd f50a 63bd 9215 6c3e
000001e0: 5780 1c3d 9b81 74bd 62ab 0bbd 6f30 77bd
000001f0: 999f d73a 6fd5 a93d cc33 aebd fd5f a23d

cost_backbone.0.weight f4 [128, 22]
0.044192024 -0.0024277235 -0.081701264 -0.03428626 0.029066814 -0.03181943 0.04202981 0.066885434
-0.07611127 0.2065434 -0.009270818 -0.087806575 -0.16340207 -0.07416115 0.034142666 -0.06770447
-0.05202474 -0.037057746 -0.06643831 -0.029464273 0.014975688 0.0018011071 -0.07830403 -0.07611839
-0.050326392 -0.1377232 0.014411503 0.016090553 -0.32487097 0.07458402 0.23505591 0.056692265
-0.10458587 0.02663035 -0.13863951 0.15378761 -0.038240228 0.03953671 0.16106603 -0.009716453
0.15079194 0.018872697 -0.025191506 0.13271394 -0.16304174 -0.11799692 -0.09265444 0.022101423
-0.13687533 -0.01548204 -0.016258176 0.12879096 0.0011757549 -0.04335028 -0.041016847 0.10991073
0.15001209 0.06097048 0.031977214 -0.0481495 0.047381427 -0.074483454 -0.28927743 0.012414698
0.10073151 0.09493979 0.3284755 -0.25608024 -0.080438286 0.24841309 0.01530143 0.018591309
0.029279275 -0.09339048 -0.1003803 0.03155735 -0.049366053 0.1156673 -0.012602319 -0.14230993
0.05659194 -0.064051785 0.03472918 -0.035301592 -0.008127821 0.12344466 0.28497627 0.16189529
0.001882471 0.117612004 0.095466994 -0.14562698 -0.20230848 -0.04449563 -0.10453172 0.19934069
-0.09132608 -0.2215841 0.05328673 0.09895464 0.036264703 -0.026172454 0.12533163 -0.12889703
-0.024771685 0.00994188 -0.1418968 -0.13369142 0.047456153 -0.101186596 -0.11415006 -0.13876061
0.022988997 -0.012544735 -0.020123646 -0.14792936 0.057457235 -0.1856682 -0.025333406 -0.041943483
0.05146348 -0.037786342 0.0153047815 -0.008713287 -0.06642229 0.05316155 0.0028733658 -0.043368496
-0.36665753 0.26071563 0.026460547 -0.10554459 0.10547192 0.08849172 -0.0031925582 0.069353715
0.049862802 0.09793423 -0.005484972 -0.07433526 0.02847825 -0.14453402 -0.023314485 -0.0154043995
0.043965753 -0.014361948 -0.047117736 0.045995675 0.07454453 0.12646878 -0.17640758 -0.008460878
0.14045514 0.15404037 -0.10209813 0.013197089 -0.039839685 -0.006493672 -0.033281248 -0.042500496
0.07452427 -0.25461185 0.017343093 -0.17328979 0.16052759 0.015009925 0.15847144 -0.015994487
-0.029822571 0.03220714 0.03530268 0.018281845 -0.035807643 -0.0034359498 0.2569863 -0.0032334717
0.081425674 -0.14161843 -0.19820358 -0.012855233 0.010433892 0.02180872 0.021551004 -0.10354778
0.20012966 0.03208434 -0.23840623 -0.11103248 -0.1081396 -0.05054878 -0.07293708 -0.04236858
0.25664297 0.15450405 -0.18919413 0.028896352 -0.14200294 0.1675489 0.0881648 0.26295006
-0.02659089 -0.06827376 0.030705996 0.027217567 0.21594162 0.16257882 -0.10058127 -0.017226512
0.24692024 0.09179725 0.21994486 -0.08867605 0.081798024 -0.028740073 0.0882106 0.014206982
-0.014327734 0.05031497 0.04774098 -0.029109737 -0.2464216 0.07685567 0.07974344 -0.056214754
-0.013801615 0.07549669 -0.21816231 0.079328 -0.030037092 -0.13253857 0.033232935 -0.24485944
0.13398811 0.1101168 0.06827712 -0.060011495 0.022838453 0.04774117 -0.15640146 -0.13054486
-0.32431132 -0.15913805 -0.109984234 0.099291 0.012658951 -0.016478278 -0.048735823 -0.0196236
-0.19865052 0.0917659 0.0059069004 0.06074008 -0.032512445 0.019082943 -0.16432372 0.20107526
00000000: b202 353d 711a 1fbb fe52 a7bd c06f 0cbd
00000010: 871d ee3c 1755 02bd 7327 2c3d 3bfb 883d
00000020: 3ae0 9bbd 1d80 533e a1e4 17bc efd3 b3bd
00000030: df52 27be cde1 97bd 2ed9 0b3d a4a8 8abd
00000040: e517 55bd ddc9 17bd cf10 88bd 0f5f f1bc
00000050: 975c 753c 2013 ec3a dd5d a0bd f5e3 9bbd
00000060: 0c23 4ebd 4f07 0dbe 3a1e 6c3c 56d0 833c
00000070: 7d55 a6be 82bf 983d 7fb2 703e 2636 683d
00000080: 1e31 d6bd e427 da3c 84f7 0dbe 807a 1d3e
00000090: c9a1 1cbd 3ff1 213d 7eee 243e c231 1fbc
000000a0: 3469 1a3e ea9a 9a3c 6b5e cebc 2ae6 073e
000000b0: 6af4 26be 5fa8 f1bd 9cc1 bdbd 0b0e b53c
000000c0: 0c29 0cbe 62a8 7dbc de2f 85bc c7e1 033e
000000d0: ca1b 9a3a 1090 31bd 4801 28bd e018 e13d
000000e0: c59c 193e 2fbc 793d 8afa 023d 6938 45bd
000000f0: 0713 423d c88a 98bd 2c1c 94be 0467 4b3c
00000100: 524c ce3d cb6f c23d f12d a83e f31c 83be
00000110: d4bc a4bd 0060 7e3e d9b2 7a3c cd4c 983c
00000120: 17db ef3c 8243 bfbd 3094 cdbd 4842 013d
00000130: 0f34 4abd fae2 ec3d f579 4ebc b2b9 11be
00000140: f3cc 673d 952d 83bd 2f40 0e3d 6798 10bd
00000150: 8d2a 05bc 8ed0 fc3d 69e8 913e e1c7 253e
00000160: 3fbd f63a 90de f03d 3384 c33d 3d1f 15be
00000170: f429 4fbe 0d41 36bd ba14 d6bd f71f 4c3e
00000180: 2b09 bbbd f1e6 62be 3043 5a3d bba8 ca3d
00000190: 4c8a 143d 9d67 d6bc ef56 003e 95fd 03be
000001a0: fded cabc 44e3 223c 654d 11be 67e6 08be
000001b0: 6261 423d eb3a cfbd 82c7 e9bd 4317 0ebe
000001c0: 6c53 bc3c 6f88 4dbc 58da a4bc cb7a 17be
000001d0: 4758 6b3d ce1f 3ebe 0188 cfbc eecc 2bbd
000001e0: 5fcb 523d dac5 1abd e8c0 7a3c 2dc2 0ebc
000001f0: 6908 88bd edbf 593d 144f 3c3b 2aa3 31bd
00000200: 89ba bbbe 857c 853e cac3 d83c c327 d8bd
00000210: a901 d83d 263b b53d 3d3a 51bb 5209 8e3d
00000220: f03c 4c3d be91 c83d 48bb b3bb 163d 98bd
00000230: 384b e93c ba00 14be 05fe bebc bc62 7cbc
00000240: 6f15 343d 604e 6bbc 87fe 40bd f665 3c3d
00000250: cdaa 983d 0881 013e 30a4 34be 7f9f 0abc
00000260: 79d3 0f3e c2bc 1d3e d318 d1bd 9a38 583c
00000270: f02e 23bd dec8 d4bb eb51 08bd 0015 2ebd
00000280: 2ea0 983d 7c5c 82be 1a13 8e3c e172 31be
00000290: 5861 243e 30ec 753c 5646 223e df06 83bc
000002a0: 774e f4bc a2eb 033d 8b99 103d cfc3 953c
000002b0: 09ab 12bd ac2d 61bb b593 833e a7e8 53bb
000002c0: 81c2 a63d 6c04 11be e1f5 4abe c19e 52bc
000002d0: eaf2 2a3c 33a8 b23c bb8b b03c dc10 d4bd
000002e0: caee 4c3e de6a 033d c320 74be ff64 e3bd
000002f0: 4b78 ddbd 3d0c 4fbd 0960 95bd ad8a 2dbd
00000300: b566 833e 4f36 1e3e 1bbc 41be 0bb8 ec3c
00000310: 3869 11be f091 2b3e bf8f b43d 64a1 863e
00000320: 23d5 d9bc 1dd3 8bbd 248b fb3c 60f7 de3c
00000330: cd1f 5d3e 107b 263e 8efd cdbd 9d1e 8dbc
00000340: a9d8 7c3e 3200 bc3d 3a39 613e ca9b b5bd
00000350: b985 a73d 4d70 ebbc c2a7 b43d 67c4 683c
00000360: dfbe 6abc 1217 4e3d 0c8c 433d 8b77 eebc
00000370: f255 7cbe 8166 9d3d 8750 a33d 7141 66bd
00000380: 2b20 62bc 029e 9a3d f165 5fbe b876 a23d
00000390: 5910 f6bc 31b8 07be 421f 083d 6fbc 7abe
000003a0: 2e34 093e eb84 e13d e0d4 8b3d 9dce 75bd
000003b0: b517 bb3c 3f8c 433d b427 20be 8dad 05be
000003c0: 220c a6be 16f5 22be 6a3f e1bd 1459 cb3d
000003d0: 7d67 4f3c 74fd 86bc 379f 47bd acc1 a0bc
000003e0: 0b6b 4bbe c3ef bb3d ac8e c13b 97ca 783d
000003f0: c52b 05bd d553 9c3c 7a44 28be ace6 4d3e

cost_backbone.0.bias f4 [128]
0.15829794 0.10401034 0.050940696 0.07243718 -0.06718839 0.04773237 -0.041232318 -0.13753217
-0.10398092 -0.052185897 0.15814406 0.1066984 0.09708811 0.03589776 -0.06788206 0.07333373
-0.019254373 0.15802029 -0.14644265 -0.16755751 0.079680055 0.0804953 -0.11392618 0.054236397
-0.17469348 0.026543535 -0.05197782 0.085904814 -0.07463629 -0.098818675 -0.15201241 -0.034260947
-0.03302734 -0.17380923 0.04846689 0.019393684 -0.13878779 0.030359134 0.080873676 -0.07820617
-0.0020469718 -0.12794703 -0.12674767 0.32437584 -0.057061154 -0.04448472 0.00038293994 0.024606325
-0.0551268 -0.019706465 -0.053389866 -0.19675943 0.24816804 -0.044938836 0.086552836 -0.041492462
0.091522515 0.14467824 -0.06905636 0.043708615 0.09732947 0.14834589 -0.11972795 -0.021882437
-0.15868583 0.06955297 -0.333969 0.042999286 0.15949734 -0.036654428 -0.09809238 -0.17002945
0.16676126 0.18409474 -0.11055508 0.07657743 0.12748842 0.052586798 0.075266376 -0.12940787
0.01150436 0.09697713 -0.08920141 0.18819128 -0.23491634 0.00014054544 0.12427417 -0.10743416
0.095341206 0.107509784 0.098280974 0.17444459 0.0275662 -0.10434834 0.079919815 -0.2721977
0.021989705 0.062353417 0.053266164 -0.11664198 0.20897737 -0.047853246 0.10714981 -0.043380167
-0.10237223 -0.09687885 0.056616608 0.012623053 -0.1519924 -0.08572675 -0.14931133 0.038120665
0.16409783 0.0036079874 -0.018310085 0.07858529 0.31741425 0.24274549 -0.14558695 0.10423546
0.07220391 -0.2011099 0.035419434 0.09125637 -0.1621756 0.057093494 -0.05670535 0.31013978
00000000: db18 223e 6003 d53d 31a7 503d f259 943d
00000010: 119a 89bd 0583 433d 38e3 28bd 3cd5 0cbe
00000020: f3f3 d4bd e1c0 55bd 84f0 213e b184 da3d
00000030: 22d6 c63d 8809 133d c005 8bbd ff2f 963d
00000040: 59bb 9dbc 12d0 213e 10f5 15be 3294 2bbe
00000050: 4c2f a33d b8da a43d 2152 e9bd fc26 5e3d
00000060: d9e2 32be d471 d93c b2e6 54bd ddee af3d
00000070: e9da 98bd 7261 cabd 24a9 1bbe 3555 0cbd
00000080: ad47 07bd 0cfb 31be 3885 463d 81df 9e3c
00000090: 631e 0ebe b8b3 f83c 19a1 a53d 8e2a a0bd
000000a0: 7d26 06bb 8c04 03be 24ca 01be 9714 a63e
000000b0: f5b8 69bd 9c35 36bd 54c5 c839 3493 c93c
000000c0: a4cc 61bd 746f a1bc 55af 5abd 4e7b 49be
000000d0: c31f 7e3e c911 38bd 9d42 b13d 00f4 29bd
000000e0: 2870 bb3d 8826 143e 6c6d 8dbd ce07 333d
000000f0: ac54 c73d fce7 173e ed33 f5bd cc42 b3bc
00000100: 8a7e 22be ca71 8e3d fcfd aabe 0520 303d
00000110: 4553 233e f422 16bd a8e4 c8bd 331c 2ebe
00000120: 77c3 2a3e 5583 3c3e b46a e2bd a1d4 9c3d
00000130: 538c 023e 4165 573d 4225 9a3d 7f83 04be
00000140: c87c 3c3c f29b c63d 3baf b6bd 37b5 403e
00000150: e98d 70be 615f 1339 7583 fe3d 7106 dcbd
00000160: 4042 c33d 172e dc3d 8947 c93d 9aa1 323e
00000170: 83d2 e13c 95b4 d5bd 00ad a33d 7f5d 8bbe
00000180: c123 b43c 4c66 7f3d 9f2d 5a3d fee1 eebd
00000190: 2afe 553e c401 44bd 5c71 db3d 67af 31bd
000001a0: 88a8 d1bd 6b68 c6bd d1e6 673d ecd0 4e3c
000001b0: e5a3 1bbe 8291 afbd 12e5 18be 6a24 1c3d
000001c0: 4309 283e fc73 6c3b 08ff 95bc 53f1 a03d
000001d0: 1f84 a23e 4692 783e bf14 15be 6779 d53d
000001e0: a5df 933d c1ef 4dbe f813 113d 9fe4 ba3d
000001f0: 5c11 26be deda 693d de43 68bd a4ca 9e3e
