outputs/E1_penalty_fixedlambda_sweep/penalty_seed0_EB0.10_LB0.05_lamE1.0_lamL5.0/best_feasible.pt (torch, 982067 bytes, 68 tensors)

actor_backbone.0.weight f4 [128, 22]
00000000: f5ac 00be c8df 963d 2b23 8d3e 4e64 443d
00000010: c896 91bd 5291 f6bc 439b 85bd e0b2 8f3d
00000020: 79c8 f8bd 783c 6e3e b229 5abd fb15 b6be
00000030: 1c95 02bd dc11 083e 3c83 dbbd b787 ec3d
00000040: e2e2 ea3c e548 4ebd 3b23 583e 0a3a 403d
00000050: ab4c 2c3e cc65 4bbe 80e4 93bd 8d90 943e
00000060: 6651 44be b87f 85bd 36bb e6bd e196 913d
00000070: 524c bd3d c96e c1bd eef6 273e 6aed 63bb
00000080: 4e48 7a3e d99c 56bc d121 38be 1159 813c
00000090: 5ce1 613d ab35 1f3e c6d3 2f3c f8ad 06bb
000000a0: 21f4 ebbc 60ee 31be 18f7 8e3c 205b f63d
000000b0: a923 62be c0b4 713e 87ab bebd 100a 8a3c
000000c0: cdc3 a0bd f33a 533c bd45 d23b 519c dabb
000000d0: 9f48 d73c 6e12 a1bd dad0 20be 94b9 73bc
000000e0: 31d9 b83d 5e63 423c a088 383e 24d9 24bd
000000f0: a5f9 51be 06e2 113c e782 94bd f222 ebbc
00000100: 6bd2 ac3e c001 a9bd 8792 0fbe 6f6a a13e
00000110: 3d5c b6bc 97ed e2bd 7c67 e3bc dcca ccbd
00000120: d7b8 cb3b 73c8 ea3d 693c 38be 2522 363e
00000130: 2365 05bd aae4 89be 74ee bd3c 01e7 733e
00000140: a96e d2bb d0a8 adbc 7890 c03d af33 49bb
00000150: f6d7 cd3d 7e7a 0e3e 724c f4bd 8472 a13d
00000160: 7cd7 fbbe f4b1 84bc a386 953e 0148 20be
00000170: cfed c33d 15ea f0bc f959 67be 380e c53d
00000180: 4618 283d 05d6 123e 9d5c 95bd be60 73ba
00000190: 381a dcbd 2861 6e3c 8a45 f23d 88d1 8cbd
000001a0: d2ee 433d d2e0 353d fb93 15bc b11f e8bd
000001b0: dda5 ca3c 215b e2bd d746 04be e7a5 c6be
000001c0: 93d2 e53d 9d5f 5a3d 087e e93d 97f0 65bd
000001d0: 69ca f5bd 7b6c b6bd 4893 a1bc 5d11 c53b
000001e0: 3f3f 473e b06c 45bc 376d 80bd 3c4e 133e
000001f0: 7423 6fbe 91ea 45bc 86e1 46be 318d b3bd
00000200: 39d2 a6be 13a5 853d a80d ae3d 8498 1a3e
00000210: f1c0 17be 9019 6ebd 40ec c7bd 1d88 173c
00000220: 17a8 0abe 4120 80be 7cc0 703b 9010 ffbd
00000230: 2f64 013d 3ba9 4abe bce8 f3bd 531e 5a3e
00000240: da0a acbc 658c 5dbe 01b8 b6bc 995e 093e
00000250: e65b 963e fde0 37bd 29b8 93bd 290e 183c
00000260: 8c8a 593e c26b 3cbe 89f4 1b3e 5064 95be
00000270: 3549 4abd 2d0c 933d 9c74 0e3d 1a01 03bd
00000280: 62c5 babd 31ca 53bd 37c6 893c 64ba 893e
00000290: ecaf d8bd 7f94 a4be e825 7c3c 3fc7 f4bc
000002a0: 1a83 5c3e 6701 9cbc 4db6 c2bc 5305 ba3d
000002b0: 412c d73d 71c5 5e3e 7ed5 a13d 1a1e 293d
000002c0: 9124 123f 8bf7 0fbe 3c9b 813d 4a24 66bd
000002d0: 09ea 5dbe 1ec6 893d 6b7b 4cbe 58bd 543e
000002e0: 6f81 de3c e423 f83c 5b93 b33d 971b 64be
000002f0: 2b2e 9fbc d72b 43bc d50c 8dbd 5fb8 b1bd
00000300: e008 a1bc 2688 863d dad8 37bc 71be 913d
00000310: 8013 f63d 42f3 463e d9c5 9dbe a37c 8fbe
00000320: de69 1f3e c59d 9e3d fcb2 fd3d c349 bfbd
00000330: 6815 133d 8ef0 b03c 7c7c 8d3d cc45 8fbe
00000340: 8b18 943d 82fa 603e de6e f53b c446 323d
00000350: ccc9 3fbe d97a 38bc c9a5 0abd f995 06bd
00000360: 5317 b9bd 1d33 973d 2a7f 6c3e c5ef 43bd
00000370: d224 983e 719b 08bd 7b90 86bc 4b3c b23d
00000380: a0f0 c1bc e1bb e8bd 3a90 eabb 3ad0 093e
00000390: feea c7bd 0906 353d 4815 153e f6ce 32bd
000003a0: bdca e33d 0b18 f3bd 572e f9bc b82d 22bd
000003b0: ae34 b4bc 6082 c0bd 6f87 0b3e 8d7d cbbb
000003c0: a688 ea3d ef01 c63d bb44 073e a3cf ed3e
000003d0: 2d75 b4bd 8611 ddbd 2c1a e3bd 1339 063e
000003e0: 738b 0d3c fce5 96bd 89a0 f9bc ece6 d5bd
000003f0: d5a7 f23c bccc c7bd 8e77 97bc 4c29 0ebd
-0.12565978 0.07366902 0.27565894 0.04794722 -0.07108837 -0.030098591 -0.065237544 0.070165396
-0.12147612 0.23265254 -0.05326242 -0.35563645 -0.031880483 0.13288063 -0.1071839 0.11549323
0.02867264 -0.050362486 0.2110719 0.04693035 0.16826122 -0.19863051 -0.07221317 0.29016533
-0.19171676 -0.06518501 -0.112661764 0.07108856 0.092430726 -0.09444959 0.1640279 -0.003477896
0.24441645 -0.013098919 -0.1798165 0.01578954 0.05514656 0.15547816 0.010731643 -0.002055047
-0.028802933 -0.17376089 0.017451808 0.120290995 -0.22083916 0.23604107 -0.0931006 0.016850501
-0.07849846 0.012892473 0.006417005 -0.0066714664 0.026279746 -0.07864843 -0.1570467 -0.014875788
0.09025801 0.011864511 0.18020868 -0.040246144 -0.20505388 0.008903986 -0.0725153 -0.028703187
0.33754286 -0.08252287 -0.1402074 0.31526515 -0.02226078 -0.11080473 -0.027759306 -0.0999963
0.006217103 0.11464014 -0.17991795 0.17786463 -0.032567155 -0.2693227 0.023184992 0.2381859
-0.006421883 -0.02119866 0.09402555 -0.0030700972 0.10050957 0.13913915 -0.11928643 0.0788317
-0.4918784 -0.016198136 0.29204282 -0.15652467 0.09566843 -0.029408494 -0.22592916 0.09621853
0.041038774 0.14339454 -0.07293055 -0.000928413 -0.10747188 0.014549531 0.1182967 -0.068759024
0.04783518 0.04440386 -0.00912952 -0.1133417 0.024737293 -0.11052538 -0.12917648 -0.38798448
0.112218045 0.05331384 0.11400992 -0.056137647 -0.12001497 -0.0890741 -0.01972355 0.0060140328
0.1945772 -0.012049839 -0.06270831 0.14385313 -0.23353368 -0.012079851 -0.19421968 -0.087671645
-0.32582262 0.06525626 0.084986985 0.15097243 -0.14819695 -0.058129847 -0.09761858 0.0092487605
-0.13540684 -0.25024608 0.0036735823 -0.12454331 0.031589683 -0.19791119 -0.11909625 0.2130063
-0.021001268 -0.21635588 -0.022304537 0.13414992 0.29366988 -0.0448923 -0.0721286 0.00928072
0.21244258 -0.18400481 0.15230002 -0.29178095 -0.049386222 0.07180057 0.034779176 -0.031983472
-0.09119679 -0.051706497 0.016818149 0.26900017 -0.105804294 -0.32144544 0.015389897 -0.029880164
0.21534386 -0.019043637 -0.023768568 0.09083047 0.10506488 0.21755005 0.079020485 0.041288473
0.57087046 -0.14059274 0.06328437 -0.05618695 -0.21671309 0.06727241 -0.19968955 0.20775354
0.027161328 0.030290551 0.0876834 -0.2227615 -0.019431194 -0.011912308 -0.06887213 -0.08677744
-0.019657552 0.06568937 -0.011221135 0.07116402 0.12015438 0.19428733 -0.30815008 -0.28024778
0.15567729 0.07744936 0.12387654 -0.09340241 0.035909086 0.02159908 0.06908509 -0.27982938
0.07231244 0.21970561 0.007490023 0.04352452 -0.18729323 -0.011259758 -0.03384951 -0.03285787
-0.09037652 0.07382796 0.23095384 -0.047836084 0.29715592 -0.033351365 -0.016426316 0.08702906
-0.02367431 -0.1136396 -0.0071583064 0.13458338 -0.09761618 0.04419521 0.145589 -0.043654405
0.11122654 -0.1186982 -0.030417604 -0.039594382 -0.021997776 -0.09399867 0.13625883 -0.006210035
0.11451845 0.096683376 0.13209812 0.46447477 -0.08811412 -0.10794358 -0.11088976 0.1310771
0.008639204 -0.07368085 -0.030472057 -0.104444355 0.029621044 -0.09755847 -0.018489625 -0.034707353

actor_backbone.0.bias f4 [128]
00000000: af4c 49bd 422b d3be 294d cfbe 8a52 d1bd
00000010: e966 8a3e 279a f63c c7ba 4fbe e0fa 103e
00000020: 7403 6b3d 9b84 e2bd 63a7 d1be 4f03 e0be
00000030: 266b 833e fa5e 003d 169e 3a3e 9d98 d9bd
00000040: 318b 833e 0b00 c83e 9e9e 69bd 6235 a4be
00000050: 7e79 af3b 5939 963e 41ed 7b3e 9ea2 b9bd
00000060: 3450 913e f7f3 933e 5d9a bbbd 968c 42bd
00000070: 9da8 86be f919 4e3e a64c 53be d7df 663e
00000080: 2adf 7fbe 6194 8bbe 5285 a5be e2c7 153d
00000090: cde2 edbd 8130 d23d 9a85 f93d 5b62 a9be
000000a0: fc31 a63e 5ce0 26bd 955d a3be 358d 1f3d
000000b0: 7fab 873e a834 edbd d8da a5be 2c9c b6be
000000c0: 222f 253e 0e59 b0be a7e0 283e e669 b03d
000000d0: c399 493b adfc 973e df5b f2bd 1800 57be
000000e0: 02a1 e5bd 33e6 c7bd 6ddd b43e 0ed0 fdbd
000000f0: d957 1b3e 03d2 47be ae0a a8bb d911 24be
00000100: 2454 a0bd 6a13 00be ac8f 323d 8952 463e
00000110: 2b3d 73be 0130 e9be 6a2a 9c3e d9ed a6bd
00000120: e29d 82be d8c4 5a3e b753 14be e8da ffbc
00000130: ceeb 9fbd 13b0 a93d 6898 97be 0581 8abe
00000140: b652 dabe 137b 303e 41f1 a83d a84b c6be
00000150: cb8b 0bbd 5858 7c3d 0c22 7ebe 30fa 293d
00000160: 3f8d b23d fb3e 7e3e 9279 52be 162a c6be
00000170: 8c7b 16be 31a1 37be b6ae abbe a245 d03d
00000180: 92e4 cdbd 92ff 0a3e f6c7 7b3e b547 cdbe
00000190: 91fa cc3c f2e3 d1be f00b 4cbe 6d78 2d3e
000001a0: 7f51 1e3e 4168 8f3e ef27 62be 4fa0 953e
000001b0: 2b8b a0bd 340a 87bd 448d 763e cec7 63be
000001c0: 1e5b 6abe b7ee b73e cb77 533e 5dbc 973e
000001d0: 00a3 2f3e 866d 2b3e 1f26 7ebe 5677 8b3e
000001e0: be0f 403e 3835 603e b792 babe 2fb2 cd3e
000001f0: 8f95 ad3e 8f2d e03c e0cc 8a3e cc72 df3d
-0.049145397 -0.4124394 -0.40488556 -0.10220821 0.2703164 0.030102802 -0.20286094 0.14158201
0.05737634 -0.11060449 -0.40948018 -0.43752524 0.25667685 0.031340577 0.18224367 -0.10624812
0.25692132 0.39062533 -0.057036035 -0.32071978 0.005355059 0.29340628 0.24602224 -0.0906422
0.28381503 0.28897068 -0.09160302 -0.047497354 -0.26300517 0.20127095 -0.20634708 0.22546326
-0.24987474 -0.27261642 -0.32328278 0.036567576 -0.116155244 0.10263158 0.121836856 -0.33082852
0.3246001 -0.04074131 -0.31907335 0.038953025 0.2649803 -0.11582309 -0.32393527 -0.35666025
0.16131261 -0.34442943 0.16491948 0.086139485 0.0030761815 0.29684964 -0.11833929 -0.2099613
-0.112123504 -0.09760704 0.35325184 -0.12393199 0.1517023 -0.19513707 -0.0051282262 -0.16022433
-0.078285486 -0.12507406 0.043594047 0.19367422 -0.23753802 -0.45544437 0.3050111 -0.081508346
-0.2551108 0.21364152 -0.1448506 -0.031232312 -0.07808648 0.082855366 -0.29608464 -0.2705156
-0.42641228 0.17234449 0.082491405 -0.38729596 -0.034068864 0.06160769 -0.24817675 0.041498363
0.08718347 0.24828713 -0.20554188 -0.38703984 -0.14695567 -0.17932583 -0.3353173 0.101695314
-0.10053362 0.13574055 0.24587998 -0.4009377 0.025021823 -0.4099422 -0.19926429 0.1694047
0.15460776 0.28009227 -0.22085546 0.29223868 -0.07839044 -0.06593743 0.24077326 -0.22244188
-0.22886321 0.35924312 0.20651166 0.29635897 0.17152023 0.16740999 -0.2481923 0.27239484
0.18756005 0.21895301 -0.3644006 0.40175006 0.33903167 0.027365474 0.27109432 0.10910568

actor_backbone.2.weight f4 [128, 128]
00000000: c3bc abbd f4bb c2bc ee76 dabd f77f 913d
00000010: 14c6 0dbe 00a6 b63d 8541 2e3e bf29 95be
00000020: 2964 d33c ceb8 023e e249 61be 0317 633c
00000030: f673 8fbc 1144 28bc 17b6 cb3c 4c46 a5be
00000040: 17c9 80bc 68bb 943d f2b8 653d 9b78 da3d
00000050: c5ea 0a3e e263 793e ad07 6b3d 6f80 e4bd
00000060: b4c9 02be 1855 7fbd a3b0 7e3e bef9 533d
00000070: 4e52 46be f414 083e 1b53 67bd 1704 d2bd
00000080: e460 ea3d b1e0 993d c661 d2bb 8616 11be
00000090: 03f5 053e 46d9 143e a723 6d3e 94e2 31be
000000a0: 98be 1c3e 829d 6b3e 556b 113e cb67 00be
000000b0: c5a3 56bc 5b9f d5bd 3c48 1fbd a739 9dbd
000000c0: bd3e 31be 886b 0d3e cd99 a53d 99a4 723c
000000d0: fcdc 4b3d e3a7 5bbe 3bfd e4bd bc01 48be
000000e0: e94f 65be 32b3 45bd 9c98 953c 463d 8f3d
000000f0: 9d9b 5e3d e24f 023e fcf9 f03c e4c3 ab3d
00000100: 1cb3 7fbe 0616 4e3d d051 63bd 51ae 073e
00000110: 6990 d13a 7564 cfbd e9d9 0b3d 43bc 603d
00000120: e5ab 993d 6c29 5f3e 3b30 073e befc 563e
00000130: f281 3ebe 0309 dabd 9d70 3cbd 5532 973c
00000140: ded9 5cbd 64fe 8dbd 1213 5cbe 8dfc c23c
00000150: 94d0 96bc d8e8 883d 3e31 7c3e 9d05 8bbd
00000160: 9127 a23d 2466 4b3e a83a 3d3e c5a9 fb3d
00000170: b8be 403e be6f 7ebe 741e a83c e53b c93d
00000180: 7b7e f6be 6d87 f8bd 1f3f b5bd ead8 35be
00000190: 5998 0bbe fa1d 763e b472 bebd 76a8 41be
000001a0: 9fc7 e4bd 6187 8c3d 7925 ff3d 0257 c4be
000001b0: a9bd 78bd 852e 3fbe 9927 c43d b6e4 6ebc
000001c0: 57a6 f13d 752f 973d 80d1 2e3e bee5 1fbc
000001d0: b06d 313e b9cc 4dbe 7088 e23d a86d b73c
000001e0: 91b2 a53c d3b3 64bd e687 9e3d 82e0 b53b
000001f0: f14e 17be 8f15 003e 3b4b aa3e b073 033e
00000200: eeeb da3c fe4b a13c 46ad f63c acc2 62be
00000210: d262 dc3c 663a bb3c a346 65bc bae6 80bd
00000220: aef0 613e 7b81 4c3d 63ce 24bc 9507 fa3d
00000230: 7a92 9e3e a287 15be 8fb6 87bd 414f 56be
00000240: 8ca6 6dbd 8172 b83d 4168 77be 02b4 48ba
00000250: 3400 153e 5bb6 393c efaf debd 91b0 3abe
00000260: 9724 d5bd 786f 47be c532 a2bc afb2 fa3d
00000270: c514 bcbe af92 653e 4705 76be a188 d33d
00000280: 3c8d 373e b64e 8cbd 77f9 87bd 7701 b8bc
00000290: d255 02bc 1123 e0ba 59d5 40bd 87b5 7ebe
000002a0: 70f9 febc ee39 413e fe90 4dbd 6eb6 ee3b
000002b0: 051a 57be d746 ec3d 825f 343e 2f5c 86bd
000002c0: 16f2 923d b7d9 edbc 67a5 123d 94af acbc
000002d0: f80f eabc 5999 c6bc 2b89 733c 624f eb3d
000002e0: e13e f63d dc99 14be c847 a13d ee59 8ebe
000002f0: 23f2 1e3e 19f0 c43d 48b2 03be dbea 0bbe
00000300: 286d 0dbe 56bd c3bd 5394 babd 1612 97bc
00000310: f922 14be 5059 0dbe f9eb 1cbe ab76 f5bd
00000320: 0b7f a2be 3a31 bd3d f614 1bbe 0621 223e
00000330: b992 d0bc ecc3 8abe 4fa3 ab3d 292f 6c3d
00000340: cdb7 003e 71d3 1abe 3cdf a1bd 2b03 99bd
00000350: 1657 893d ceeb fdbd b385 0e3e 7610 c43d
00000360: 5738 3c3c b340 e4bd 4d60 cabd a35b b2bd
00000370: 642f 31bd 444d ddbd 452d babd bdec 46be
00000380: 1ae3 38be 633a 74be c0ca 1a3e 9acf 213d
00000390: a037 df3b d092 bbbd f11a 9b3e c1f6 233e
000003a0: 19e7 56bd 2ace dabd 11f4 0fbe 3e98 d1bd
000003b0: 733e a3bd c77e 72be 45fc 343e 3d6b bdbd
000003c0: 2a3b 22bd 53c4 ab3d 821c 433d b1a2 843c
000003d0: 5875 0e3e c51e df3d f608 8fbe 4b77 77bd
000003e0: ef10 d03d c085 d63d 7bf3 833e 8f8a 33be
000003f0: 2ece 813d 8b87 293e 5821 953d 4293 6c3d
-0.08385613 -0.023771264 -0.10667215 0.071044855 -0.13845092 0.08918381 0.17017181 -0.29133412
0.025804596 0.1276581 -0.2200084 0.013860467 -0.01751135 -0.010270135 0.0248671 -0.32280195
-0.015720887 0.072623074 0.05608458 0.10667535 0.1356612 0.24354509 0.057380367 -0.11157309
-0.12772256 -0.06233701 0.24872069 0.051751845 -0.19367334 0.13289243 -0.05647574 -0.10254686
0.11444262 0.075135596 -0.006420347 -0.14168748 0.13081746 0.14536008 0.23158132 -0.17371589
0.15307081 0.23009303 0.142011 -0.12539594 -0.013100569 -0.10430785 -0.038887247 -0.07677012
-0.17309089 0.13810551 0.08085976 0.014809751 0.049771294 -0.21450762 -0.111811124 -0.19531912
-0.22393765 -0.048266597 0.018261246 0.06994109 0.054347623 0.12725785 0.029416077 0.083869725
-0.24970669 0.050313972 -0.055497944 0.1325009 0.0015988472 -0.101265825 0.034143362 0.05486704
0.075034894 0.21793145 0.13201992 0.20994851 -0.18604258 -0.1064625 -0.046005834 0.018456617
-0.05391871 -0.06933287 -0.2149165 0.023802066 -0.018410005 0.066850364 0.2462816 -0.0678818
0.07917703 0.19863182 0.18479407 0.1228824 0.18822753 -0.24847314 0.020522334 0.09825877
-0.48143372 -0.121352054 -0.0884993 -0.17758527 -0.13632335 0.24034873 -0.09299222 -0.18911919
-0.11170887 0.06861759 0.12458319 -0.38347632 -0.06072775 -0.1867009 0.09577865 -0.014580896
0.11799305 0.073820986 0.17072105 -0.009759365 0.17326999 -0.20097627 0.1106118 0.022391155
0.020226749 -0.055835556 0.07740764 0.005550445 -0.14776208 0.12508224 0.3326052 0.128371
0.026723828 0.019689556 0.03011192 -0.22144574 0.02690259 0.022854995 -0.013993892 -0.062940076
0.22064468 0.04992817 -0.010058972 0.122084774 0.30971128 -0.14602521 -0.06626617 -0.2092867
-0.05802016 0.09006215 -0.24160863 -0.0007656218 0.14550859 0.011334981 -0.108734004 -0.18231417
-0.104073696 -0.19476116 -0.0197996 0.122411124 -0.36734596 0.22419237 -0.2402545 0.10328794
0.1792497 -0.068509504 -0.066393785 -0.022461636 -0.0079550315 -0.0017100294 -0.047078464 -0.24873935
-0.0311248 0.18869755 -0.050187103 0.007284931 -0.2100602 0.11536949 0.17614558 -0.065605514
0.071750805 -0.029034479 0.03580227 -0.021079816 -0.028572068 -0.024243044 0.014864246 0.114897504
0.12023712 -0.14511818 0.07875019 -0.27802986 0.15522055 0.096161075 -0.12860978 -0.13663809
-0.13811171 -0.09557597 -0.09110322 -0.018441241 -0.14466466 -0.13803601 -0.15324391 -0.11985525
-0.3173755 0.09237905 -0.15144715 0.1583291 -0.025460588 -0.27102602 0.08380758 0.057662163
0.12570114 -0.15119721 -0.07903907 -0.07471307 0.067060634 -0.12398492 0.1391819 0.09573452
0.011488042 -0.11145153 -0.09881649 -0.087088846 -0.043258086 -0.10805753 -0.09090666 -0.19426246
-0.18055382 -0.23850398 0.15116405 0.039504625 0.006812051 -0.09158862 0.30293992 0.16012098
-0.052466486 -0.10683854 -0.14057948 -0.10234116 -0.079708956 -0.23681174 0.17674358 -0.0924897
-0.039607204 0.08387055 0.04763461 0.016190859 0.1391195 0.10894541 -0.27936524 -0.0604165
0.1015948 0.104747295 0.25771698 -0.17533325 0.06338154 0.16555612 0.072817504 0.057757623

actor_backbone.2.bias f4 [128]
00000000: a6b9 d1bb 6dff d33d 68f0 103c 401f a1bd
00000010: 3e3e c43e 339e a9be 740d ed3d 4c86 883e
00000020: bbe3 c8bd d1af 88be 3daa 6c3e ca87 373e
00000030: 8ad8 303d f0ff 4c3e 1835 9cbe d06c 5cbd
00000040: c3d2 9b3e 87a2 17bb b484 9ebe 82fe 2e3c
00000050: f2b4 013e 90d9 683d ecc3 9a3e 6b83 853e
00000060: c226 b73e ac0e 183e 2474 19be 4f96 d33d
00000070: 5d31 26be f7fa 053c 7631 adbe 9dad 3e3e
00000080: 2572 25be 95dd 9bbe 1391 153d d573 4c3e
00000090: 3986 a23e c476 69be 9a43 08be c4fc 173e
000000a0: 4d59 743e 8462 b6bb f9fa bcbd bbba 08bd
000000b0: 0db6 ff3d 6886 40be b700 083d 8ca0 9ebc
000000c0: 5425 1f3e 6ed5 653e a814 df3d 952a 8a3e
000000d0: 5b39 a73e 8692 b23e 7be3 b33e 78ae ad3e
000000e0: 1142 b53e aad8 a7bd df09 40be 2a5f 8fbe
000000f0: e635 9c3e 3f76 103e a1ef 4fbc 7e0e 7ebe
00000100: 9ff2 f53d de88 33bd 39f1 5c3d d4f9 243d
00000110: 3a8c 7ebe 9170 9a3e 1ed2 53bd 1f97 37be
00000120: a6cd 97be b9da 76be 7a6a a2be 8071 7bbe
00000130: 47ab a43e 9439 a13e f6e3 77be 9980 17be
00000140: fb90 d1be d484 a2be f488 af3e 2f1d fbbd
00000150: 6957 523e 55f4 98be dea6 f9bd 3392 173b
00000160: 4b90 ae3e 57fe 4dbe 9237 96bd 9221 1d3e
00000170: 342b 13be c076 71b7 a1ca 28be 4be1 a03d
00000180: e6ce a5be c2e6 9abe 24b9 99be 4605 4f3e
00000190: 89b5 ab3d 49d6 2dbe c02a 2ebc b879 76be
000001a0: 8f75 a0be 3aba 0abe c90f c43c 4aab 76be
000001b0: 2d64 9bbe 039f 913e db79 f43d 23ba 9c3d
000001c0: d08c 49bb bfec 813e 9fb7 45bd 5621 833e
000001d0: 291b 0cbb ece4 a0be 15aa a5be 6b81 e53d
000001e0: 832d 5d3e c32d 28be 0565 98be 59f0 c2be
000001f0: 81cd c93e ac70 78be 640a c2be 3616 57be
-0.006400305 0.10351453 0.00884638 -0.078672886 0.38328737 -0.3312851 0.115748316 0.2666496
-0.09809061 -0.26696637 0.23111816 0.17922893 0.043175258 0.20019507 -0.30509257 -0.05381471
0.30434236 -0.0023137645 -0.3096062 0.010680797 0.12666681 0.05684811 0.30227602 0.26076826
0.35771757 0.14849347 -0.1498571 0.103314035 -0.16229768 0.00817751 -0.33826798 0.18620916
-0.16156824 -0.3044249 0.036515307 0.19966061 0.3174303 -0.22799212 -0.13307038 0.14842516
0.2386219 -0.005565943 -0.09227557 -0.033381205 0.12485895 -0.18801272 0.033203807 -0.019363664
0.15541583 0.22444698 0.10892612 0.26985613 0.32660946 0.34877414 0.3513449 0.33922172
0.35401967 -0.08195622 -0.18753766 -0.28002292 0.3050987 0.14107607 -0.012691409 -0.24810216
0.12009167 -0.0438317 0.053940985 0.040277317 -0.2485818 0.30164006 -0.051714055 -0.17928742
-0.29649085 -0.24106874 -0.3172186 -0.24555016 0.32161924 0.3148924 -0.24208054 -0.1479515
-0.40930924 -0.31741965 0.34284174 -0.12261426 0.20541157 -0.2987391 -0.121900305 0.0023127913
0.34094462 -0.20116554 -0.07334818 0.15344837 -0.1437195 -1.4392368e-05 -0.16483547 0.07855471
-0.32384413 -0.3025418 -0.30024064 0.20216855 0.083842345 -0.16976275 -0.01063031 -0.2406987
-0.3133969 -0.13547602 0.023933308 -0.24088779 -0.30349866 0.2844163 0.119373046 0.0765269
-0.0030754097 0.25375935 -0.048270818 0.2561137 -0.0021378493 -0.31424654 -0.32356325 0.11206325
0.21599393 -0.16423707 -0.29764572 -0.38073996 0.394146 -0.24261731 -0.37898552 -0.21004567

reward_backbone.0.weight f4 [128, 22]
00000000: 0970 363e 7ec3 64bd c344 b53d 58b2 b43e
00000010: e671 4a3d 0f4a 46be 45a3 643b d36c 86bc
00000020: 3afc e63d 8167 4dbe 71a5 5cbd 5199 6e3d
00000030: 5d7f b83d b8c7 763d 69b9 0cbd 85e6 053e
00000040: 26da 713c f72e 9dbc 4b03 4cbd c7cf 53bc
00000050: b6aa 333e f621 013e 076a 2d3e 0c29 6a3d
00000060: a6d2 273d e2b7 dd3d 1ab1 3f3d 229b b43d
00000070: 4f6b 7fbd 0ed0 0cbd 4341 d73d 12fc 0cbe
00000080: d435 92bd bcb3 96be ddbf 2c3e d4f1 d1bd
00000090: 6531 73bd e456 2ebe 2845 1a3d a4d3 d43d
000000a0: d1e5 3dbd dbd1 39be a79b 2cbd 101c 7a3d
000000b0: f917 1ebd f483 eabd c02d aabd 4d1c 85be
000000c0: ad1f 9e3c 4c90 e3bd 84d4 afbd 3870 443d
000000d0: c77c 3dbe 4eda 9fbc cb8d 1e3d 5794 87bd
000000e0: fc40 823e f873 c6bd e2c2 b5bc 806a 863e
000000f0: 7a7a 98bc 36d2 89bd 2c6a 32be 85b9 eabd
00000100: 5e32 f1bc 4004 67be e5ae 013e b30f 133e
00000110: b180 3d3e e2a9 24bd 2bd0 083d 7899 293e
00000120: 6c47 6a3c b5cd 273c abe7 bbbd 9c2a d03d
00000130: d399 cbba df25 2cbe d4af c739 c0c9 84bd
00000140: 97e7 893c 4602 e93c 9feb 38bc 94d8 18bc
00000150: 69d3 80bd 4c67 62be dbae 1a3d f4dc 65bc
00000160: 72d8 333d fd25 633d 05d1 13be 9af6 d33d
00000170: bf67 bbbc 43b9 1cbd cbfa 593d 7aa6 df3c
00000180: 206b a5be b151 09be d433 11be 6ff7 efbd
00000190: 4e58 833d 759c e83d efc7 d53d 0899 bd3d
000001a0: 8814 2f3e b16f 3ebe c949 eb3d c5b1 28be
000001b0: 1327 183e ca26 ccbc 6fde 95bb e7da a8be
000001c0: 9727 183d 9d28 a03e 94ef 3ebd 5406 36bd
000001d0: 4271 153e dfe4 ac3d b354 9d3d fd3f 98bd
000001e0: c4ad 143e 1043 2d3d 9b5b 45bd 50dc 333e
000001f0: 217c 813d 4f2a cc3c 9f28 7a3c 9b4e bf3c
00000200: 5725 2fbd e03f 153e f693 1e3e 1bbe 913c
00000210: 2cea c33d fa53 a43d f477 cb3d 860a 64bd
00000220: 3921 7abc 906a 25be 7212 01be 6e43 21be
00000230: 1516 193e 99f7 513e c204 66bd 1292 83bd
00000240: fa93 d4bd ce0d f8bd 1b24 a73d 17d6 7dbb
00000250: 5e47 1bbd 9c20 36bb ef0b c1bd 5e82 e33d
00000260: 0c33 6b3c 7553 0bbe db91 89bc c821 463e
00000270: 3029 98bd b835 21bd 4aad f83c 3baf ea3d
00000280: 382c e4bd f110 5c3e b56a 393e 2512 17be
00000290: 933a 25bd eb5e d2bd ec65 1b3e 6029 ac3c
000002a0: 69b3 c0bd ce50 d3bd e018 413c c079 abbd
000002b0: 32c7 7ebd 411f 97bd f273 b6bd 9095 2fbe
000002c0: d33b 3fbd e4c4 183c f328 24be aaed 4cbe
000002d0: ce55 a93d 9b9f 78bd a08b ff3c 8d2e 54bd
000002e0: 9472 ed3c 91b4 1abe b6d0 8bbc 898d a2bd
000002f0: 1248 353e bebd 5bbd d8a9 e3bd 8963 183b
00000300: 5983 573c acbd 013d f69a 3f3e 495a 073a
00000310: 9674 a1bc f326 3d3e ade0 8abd aff3 45be
00000320: bf1e 4dbe 2573 473e 79a0 263e 93bb 0dbe
00000330: eb76 8abd f7a1 f1bd a95d 6439 610a 01be
00000340: 095b bf3d dcdd 5bbd 9639 cebd c7ec eb3c
00000350: ba11 5a3c 5b69 06bd 6f39 9a3d 2598 de3d
00000360: 5b96 9abe 5407 08be d901 1bbd 64fc 203d
00000370: 540b aabe 8eee e8bd 3c80 6ebc bc33 df3d
00000380: c8e0 4b3e 7de8 c9bd 395c 88bd c277 adbc
00000390: 25ad 80bd 1ac9 b0bc d612 acbd 240f 95bc
000003a0: 80aa 2ebe 8d08 5d3d 0472 4e3d 8e79 f0ba
000003b0: 77e5 c23c 3b1f 1fbd 65cf 713d 3ce4 c63d
000003c0: 9a78 88be c69b 31bd 6c9f 4e3e a28e 4d3d
000003d0: bcbc 37be aa00 f1bc 144b 793c 9b61 983d
000003e0: 3416 7e3d 5e9b 81bc fd2d e6bc bac9 c4bc
000003f0: 01c5 a13d fbe2 4e3c 80b4 213d 7370 963d
0.17816176 -0.0558505 0.08851006 0.35292315 0.04942503 -0.19364189 0.0034887355 -0.016409313
0.11278577 -0.20059015 -0.053868715 0.058251683 0.090086676 0.06024906 -0.03435651 0.13076217
0.014761483 -0.019187434 -0.049807828 -0.012927956 0.1754559 0.12610611 0.16934977 0.05716805
0.040972374 0.108260885 0.046799757 0.08818652 -0.062358197 -0.034378104 0.105104946 -0.13768032
-0.07139173 -0.29434 0.16870065 -0.10251203 -0.05937328 -0.17025334 0.03766361 0.1039193
-0.046361748 -0.1814646 -0.04214063 0.06106192 -0.03859708 -0.11450949 -0.08309507 -0.25998154
0.019302214 -0.11111507 -0.08585456 0.047958583 -0.1850463 -0.019513275 0.038709443 -0.066200905
0.25440204 -0.09690088 -0.022187654 0.26253128 -0.018613089 -0.06729548 -0.17423314 -0.11461166
-0.029442962 -0.22560215 0.12664373 0.14361458 0.18506123 -0.040201075 0.03340165 0.1656245
0.014299255 0.0102419155 -0.091750465 0.10164377 -0.0015533514 -0.16811322 0.0003808724 -0.06483793
0.016834063 0.028443467 -0.011286645 -0.00932898 -0.06290323 -0.22109717 0.03776441 -0.01402973
0.04390759 0.05545615 -0.14435203 0.1034977 -0.022876618 -0.038262617 0.05321769 0.027301062
-0.32308292 -0.13410069 -0.14179927 -0.11717116 0.06413327 0.11357967 0.10438525 0.09257704
0.17097676 -0.18597294 0.11488683 -0.16474064 0.14858656 -0.02492084 -0.0045736353 -0.3297951
0.03714713 0.31280985 -0.0466152 -0.04443963 0.14593986 0.08442091 0.07682171 -0.0743408
0.14519411 0.042300284 -0.048183065 0.17564511 0.06322504 0.024922518 0.015268474 0.023352912
-0.04276022 0.14575148 0.1548613 0.017790845 0.09566149 0.0802383 0.099349886 -0.0556741
-0.01526671 -0.16153932 -0.12604693 -0.15748379 0.1494983 0.20504607 -0.05615688 -0.06424345
-0.10379787 -0.12112008 0.081611834 -0.0038732344 -0.037909858 -0.0027790433 -0.09426104 0.1110885
0.014355432 -0.13606055 -0.016793182 0.19348824 -0.07429731 -0.03935787 0.030356068 0.11459204
-0.111412466 0.21490838 0.18107112 -0.14753015 -0.040339064 -0.102720104 0.15175599 0.021015823
-0.0940922 -0.10318147 0.011785716 -0.08372831 -0.062201686 -0.07379008 -0.089088336 -0.17146897
-0.046687912 0.009324286 -0.16031246 -0.20012537 0.08268319 -0.060699087 0.031194508 -0.051802207
0.0289853 -0.15107943 -0.017067295 -0.07937152 0.17703274 -0.05364775 -0.111163795 0.0023252687
0.013153874 0.031675026 0.18711457 0.0005163295 -0.019708913 0.18471889 -0.06781135 -0.19331239
-0.2003126 0.19477518 0.16272153 -0.13841085 -0.06760963 -0.117984705 0.00021778666 -0.12601615
0.093435355 -0.05367838 -0.100695774 0.028799428 0.01330989 -0.03281532 0.07530486 0.10868863
-0.30192837 -0.13284045 -0.03784356 0.0393032 -0.33211768 -0.11373626 -0.014556941 0.108985394
0.19909966 -0.09858797 -0.06658215 -0.021175269 -0.06283025 -0.021580268 -0.0840203 -0.018195696
-0.17057228 0.053963233 0.050401703 -0.0018346773 0.023791058 -0.038848143 0.059035677 0.09711501
-0.26654512 -0.043361448 0.20178002 0.050184853 -0.1794309 -0.029419262 0.015215654 0.07440492
0.062032893 -0.015821155 -0.0280981 -0.024021972 0.07898904 0.012627359 0.03947878 0.07345667

reward_backbone.0.bias f4 [128]
00000000: e7c2 fb3d ee71 ce3c 924c 68bd f67b aebc
00000010: 6262 58bd d20d 9a3c 06b4 d53d bcd0 7b3d
00000020: d05c 3abe 25e2 703c 3fed c13e a10d 473d
00000030: 20af 24be ce46 53bd 5638 13be 1221 193d
00000040: da56 b7be 90ea 1d3e 54da 5d3d 7339 5c3d
00000050: 60d1 89be 1835 4e3e da7d 0e3e 7700 af3e
00000060: 6d15 8fbd 253c c7be 4b6a c03d 45d4 d6bd
00000070: bac1 0c3e 64ed 18be e707 27bc 3823 d7be
00000080: 6637 3b3e 4e6c 603d d0c9 023e b2dd 063e
00000090: 186a 963d 88e7 223d ad9f 8c3d 6553 21bd
000000a0: 432d a93a 5997 993d 783e 71bd 5e39 2dbe
000000b0: b713 e6bc 26ad 83bc 9c08 883d 75ed 80be
000000c0: 0b9c c13e 1b12 81bc 337e b03d 293e c9be
000000d0: cf41 fdbc 0bc6 b2be 9713 923e e21e 1e3e
000000e0: 46f2 113e 91b7 7dbd 0530 823d 44ee a0bd
000000f0: b4ae 2cbe 5d03 9dbc 6a86 913d 7704 87bc
00000100: 5bc4 e3bd c4ce 6d3c 219d 7f3d 9a9b 863d
00000110: 2486 65be 1ae7 773d f4f1 53bc 5dba 1cbe
00000120: e455 443d 6a5a 263e f8b9 bb3d 7a67 4b3d
00000130: 581f 15bd 4dab 62be 9175 11bd 2c94 253e
00000140: 25c8 91bd e81b eb3c 60b8 b0be 047f 46bd
00000150: 1069 5abd 70a7 8e3e 6e55 59be bfdc 33bd
00000160: 5db7 58bd 6770 483d 5619 1d3b 020e 6c3d
00000170: cf16 c83b 61b9 a8be 6069 c43d 2866 57be
00000180: 5307 c53c b7fb 9f3d 76ac 28bd 5816 ab3d
00000190: c66c 103b 2025 2abe a6f1 933d f0a4 37bc
000001a0: 1169 0a3e 38c9 4dbd dbe0 2d3b 65ce 96be
000001b0: f024 20be 9766 f7bd 6be5 7bbc 7747 b6bd
000001c0: 7db2 32be c9b2 54be 3a1f ca3b 3d07 193e
000001d0: 8cd0 eabd 2630 94bb 7f90 f5bc 9664 513e
000001e0: 141a 143e 31a6 d5bc bdfe 023d e2f1 55bd
000001f0: 231d b93d 85b1 4bbd 2706 37bb 99fc 483e
0.12293034 0.02520081 -0.05671365 -0.021299344 -0.0528282 0.018805418 0.10434727 0.06147836
-0.18199468 0.014702355 0.37876317 0.048596982 -0.1608243 -0.051581196 -0.14376959 0.037385054
-0.3580845 0.1542151 0.054163292 0.053765725 -0.26917553 0.20137441 0.13915196 0.34180042
-0.069865085 -0.38913074 0.09395274 -0.10489706 0.13745776 -0.14934307 -0.010194755 -0.42019057
0.18282852 0.054790787 0.12772298 0.13170508 0.073444545 0.039771587 0.06866393 -0.03938617
0.0012907166 0.074995704 -0.058897465 -0.16916415 -0.028085573 -0.016073775 0.06642267 -0.25181165
0.37814364 -0.015755704 0.086178206 -0.39305237 -0.030915169 -0.3491672 0.2853057 0.15441468
0.14252576 -0.06194264 0.06356815 -0.078579456 -0.16863519 -0.019166643 0.071057156 -0.016481621
-0.11121436 0.014514629 0.06240571 0.065726474 -0.22414452 0.06052313 -0.012936104 -0.15305467
0.047933474 0.16245428 0.0916633 0.04965923 -0.036406845 -0.22135659 -0.03551251 0.16169804
-0.07118253 0.02869983 -0.34515667 -0.048460975 -0.05332285 0.2786212 -0.21223995 -0.04391169
-0.052909244 0.04893532 0.00239714 0.057630546 0.0061062346 -0.32953933 0.09590411 -0.21035063
0.024051344 0.07811683 -0.041180097 0.08353871 0.002203749 -0.16615725 0.07223825 -0.011208758
0.13516642 -0.050240725 0.002653173 -0.29454342 -0.1563909 -0.12080114 -0.015374522 -0.089003496
-0.174509 -0.20771326 0.0061682733 0.14944167 -0.114655584 -0.0045223413 -0.029976128 0.20448527
0.14463073 -0.026080223 0.03198122 -0.05223263 0.090387605 -0.049729843 -0.002792725 0.19627608

reward_backbone.2.weight f4 [128, 128]
00000000: 7d8c 14be 4ac3 b43b 88f9 b83d 2918 aebd
00000010: e53e b3bd 5fb4 cf3c 3db8 ebbc 385b 203e
00000020: 11f4 cb3d 03b4 833d 03bb 4a3e be26 53be
00000030: 629e 963d eae3 dbbd 2586 1c3a d3bd 233e
00000040: ba14 87be 2073 cb3e 5971 c23d c9d8 263d
00000050: 3933 3d3d ae62 06bd c96f 8c3e 1c22 353c
00000060: 7c37 1d3e ee3b 96be 143c 3dbe 7c91 ed3d
00000070: 0b1a 9c3d 4ced 03be 5b53 1d3d 0711 4bbe
00000080: 75cf b8bc b4ef f33c af8f 0e3c 7ca3 c3bd
00000090: 35dc 2d3e dcd9 d33d 6632 8ebd 243e 90bc
000000a0: bd97 5dbe cd8c 233e f6a9 d73d eef9 13be
000000b0: d4e5 36bd 3d49 993c 5a96 b8be 068f 19be
000000c0: 99e9 343d 583e 7abd edde 8d3d 8754 afbd
000000d0: 2eec cc3c 796d 39be 68ad 693e cf82 3a3e
000000e0: 5d3f 2cbc 0872 a1be 4ff8 a3bc 2f05 593c
000000f0: 9ee5 b23d b9ac 663c d8ab 40be 1951 e43d
00000100: d76d 9c3d 06e4 3ebe 0d00 41be aaab 94be
00000110: c403 f3bd c4c1 bbbd feed debd 399c 91bd
00000120: a718 6d3e a54a eb3d a98f ba3e dcdd dfbd
00000130: e97d 033c 2dd2 88be d4e9 8cbd 434b be38
00000140: d62c 5c3d 7962 4dbd 5a59 ca3d 8633 973d
00000150: 06dd 1cbd e2a0 d0bd 9a6e d4be 6f30 bbbc
00000160: 021f 853e 7e7a 0f3e dbae c3bc a21b 043e
00000170: c32c faba f371 2abe 8788 193e 6ccf 0dbe
00000180: 58e1 8bbc 8e95 34bc 3191 ee3d 69ae ecbc
00000190: f76a d03d 9af3 2dbe 9f63 2d3e f3d4 4c3e
000001a0: 8ac0 0f3d 122e 52bd 1db4 5fbb 1701 26be
000001b0: e5fb 22be 3c4f c23c 596d 813d 84e6 92bd
000001c0: 5b40 82bd f559 02be 6e42 11bd 3566 2b3e
000001d0: a883 67bd 481e f13c dbc5 acbd 4645 8b3e
000001e0: 0d3c 45be acc9 a93d dcd4 92bd 4bf8 393d
000001f0: 1e5a a6bb 232c 2c3e f2bd b53c 56e7 6cbe
00000200: a940 d6bc 3e04 febd 50ea 013e c72a a2bd
00000210: fbbe 583d 9158 3a3d 670d e3bd ec26 193e
00000220: 26bd e83d 2c2d 7fbd f083 09be a8eb 803d
00000230: 8577 133e 05bc 813d da4a 09be b769 833d
00000240: fd91 0c3e 6ab9 413e 1f8c c53d fe42 1e3e
00000250: 4565 92bd 3311 133e 712a 86bd 51b4 e4bd
00000260: a9d8 53be a281 a23c 68a0 83be 5cc0 eb3d
00000270: 9afd 1abe af26 9b3d 9098 ca3d cf0c 9e3e
00000280: 6428 70be 2f1e 0e3e cfc5 0abe 3cfc f33d
00000290: 7f2f 1a3d bd2d b5bd 6b05 1b3e e92a ca3e
000002a0: f896 1a3e 3796 babd 30f4 71be 2ac8 90bd
000002b0: 3f3e 7a3d 9a4f 603d 159e 313d 2212 823d
000002c0: d7eb 703e 25b9 15be d2df 87bd 815b 31bd
000002d0: 161e 06bc 135e b3bd 4e6a 2cbe e7d1 14be
000002e0: de8f 8abd 3850 97bd b7c6 31be c33c 073e
000002f0: 174b 2b3e 5ea1 2f3e b0e0 efbd 69b8 703e
00000300: 34fe 38bd 12c6 993d 0572 023e 9296 d93d
00000310: e3c7 893e d5e4 003e a12f 29be 2d6c 82bd
00000320: d773 4abe 7884 f7bd f998 943d 547f 83bd
00000330: edfa 4abc f263 f23d 8828 763d a907 373c
00000340: 5dd3 153e f265 dd3d 1a3b c3bd 80b1 a93d
00000350: f454 133e b03d 78bc 29ff d1bc 3de5 d3bb
00000360: 89f9 0b3e b33f 92bd 319f 69be 41db 0a3e
00000370: bae4 bfbc 2871 883e 22d3 c1bd ca15 363e
00000380: 317f eb3c b7d8 f5bd eaed 2f3e 2731 abbd
00000390: 2f7c 4ebe 8800 a4bc f61a 593c e525 b3bc
000003a0: 4fd3 6dbc 9106 e0bd 435c 29be 7256 153e
000003b0: 0a4f 2cbd 3b7a 4b3e 3735 a6bc 7288 083e
000003c0: 0c64 413e f854 093e f6f2 183e 41e8 4ebd
000003d0: 4cc8 04bd d89d e33d 7891 a03e 137a 333e
000003e0: 5eed 1b3c 70a3 a73b d727 17bb 8bf4 09bc
000003f0: 2259 59b9 c368 2e3d f082 f33b 3fdf 343c
-0.14506717 0.0055164443 0.09031969 -0.08500702 -0.087522306 0.025354562 -0.028774375 0.15659797
0.09958661 0.06430819 0.19797902 -0.20620248 0.07354428 -0.107368305 0.0005970917 0.15990381
-0.26383 0.3973627 0.094942756 0.040734086 0.046191428 -0.032808952 0.27429035 0.011055496
0.15353197 -0.29342598 -0.18479949 0.116000146 0.07622155 -0.1288349 0.038409572 -0.19830714
-0.02255986 0.029777385 0.008701249 -0.095526665 0.16978534 0.10344288 -0.069432065 -0.017607756
-0.21639915 0.1597168 0.10530464 -0.1445081 -0.044652775 0.01871168 -0.3605221 -0.14995965
0.04416809 -0.061094612 0.06927285 -0.08561044 0.025014963 -0.18108167 0.22820055 0.18213962
-0.010513154 -0.3153231 -0.020015864 0.013245865 0.08735202 0.014079266 -0.18815553 0.11148281
0.07638138 -0.18641672 -0.18847676 -0.2903722 -0.118659526 -0.09167817 -0.10885237 -0.07109875
0.23153935 0.11488847 0.3643773 -0.10930988 0.008025625 -0.2672285 -0.06880537 9.0739246e-05
0.053753696 -0.05014274 0.09880324 0.07382874 -0.038296722 -0.10186936 -0.41490632 -0.022850243
0.2600022 0.14011571 -0.023887089 0.12901166 -0.0019086826 -0.1664503 0.14993487 -0.13848656
-0.017075226 -0.011021985 0.11648787 -0.028891759 0.10176652 -0.16987458 0.16932534 0.20003109
0.03509573 -0.051313467 -0.0034134455 -0.16211353 -0.15916403 0.023719423 0.063196845 -0.071728736
-0.06359931 -0.12729628 -0.035463743 0.16738208 -0.05652204 0.029433385 -0.084361754 0.2720129
-0.19261189 0.08290419 -0.07169506 0.045402806 -0.005076661 0.16813712 0.0221853 -0.23135123
-0.02615388 -0.12403153 0.1268704 -0.079183154 0.05291651 0.04549462 -0.11086541 0.14956254
0.11364202 -0.06229894 -0.13429236 0.06294948 0.14401062 0.0633469 -0.1340746 0.06416648
0.13727565 0.18918386 0.096458666 0.15455243 -0.07148222 0.1436203 -0.06551064 -0.11167205
-0.20688118 0.019837204 -0.25708318 0.11511299 -0.15135804 0.07575738 0.0989238 0.30869147
-0.23452908 0.13878702 -0.1355202 0.11913344 0.037642952 -0.088466145 0.15138786 0.39485863
0.15096653 -0.091106825 -0.23628306 -0.07069428 0.06109452 0.054763414 0.04336365 0.06351115
0.23527466 -0.14621408 -0.06634487 -0.043300156 -0.008185884 -0.087581776 -0.16837427 -0.14533196
-0.06765722 -0.073883474 -0.1736096 0.13206773 0.16727863 0.171514 -0.117127776 0.23507847
-0.045164302 0.07508482 0.12738807 0.10624422 0.26910314 0.12587292 -0.16522075 -0.06368289
-0.19770752 -0.12085813 0.0725574 -0.0642077 -0.012388927 0.11835469 0.060097247 0.01117126
0.1463141 0.1081046 -0.09532757 0.082858086 0.14387876 -0.015151426 -0.025634365 -0.0064665363
0.13669409 -0.07141056 -0.22814633 0.13560201 -0.023424495 0.2664883 -0.094640985 0.1778175
0.028747173 -0.12004226 0.17180601 -0.083589844 -0.2016456 -0.020019785 0.013251057 -0.021868655
-0.014515712 -0.109387524 -0.16539101 0.14583758 -0.042067565 0.19870846 -0.020289047 0.133333
0.18885821 0.1341132 0.14936432 -0.050514463 -0.03241758 0.11114091 0.31360984 0.17527036
0.009517042 0.005115919 -0.0023064518 -0.00842012 -0.00020727937 0.042580377 0.0074313805 0.011039554

reward_backbone.2.bias f4 [128]
00000000: 5555 073e 54b8 0fbe 9a87 6dbd f49d b73d
00000010: a86b 1b37 eff4 dc3d bbd3 05bb ec1c c9bd
00000020: e3fb 463e d267 7cbe 1f02 0d3e 1e8f 573d
00000030: f04e b0bd 69f4 80be 5819 77bd ddbf 70bd
00000040: 3e58 363e d09f 4bbe 6305 cbbd 0741 1c3d
00000050: cfa8 dbbd ba4b d53d 4492 f3bd 9961 3fbc
00000060: 962b b5bd a3aa 223e f81e f73d 1876 233e
00000070: f9d6 b5bd bf8f 253c 6195 3fbe 2833 5d3d
00000080: 6850 8e3d 4e49 be3d fff3 36bd 2ddb f63d
00000090: 9053 f7bd 9750 003e 4e29 a83d 8d8d 013d
000000a0: 9c92 443d 7463 afbd abb7 a43d 74b4 423d
000000b0: 1406 043e ab66 a6bd 3b3a ccbd 8874 6a3d
000000c0: 5a3c a0bd 95df 54bd ee90 9dbd 0647 c9bd
000000d0: 212a b73d 272b be3d 6d67 b33d f61e 04be
000000e0: a7cf cc3d d793 843c 3b15 c9bd cc34 763d
000000f0: 0119 8abd a50e 8b3d 701c ae3a d55f cebd
00000100: 77f9 dabd ba39 af3c 847d 9d3d 266b 3fbd
00000110: 54ce 1abc d597 ae3d 378d a1bc 708e 6a3d
00000120: 2460 f3bb 6b04 1f3e aab4 32bc 21fd bf3d
00000130: 38bf 6a3e 6e92 1d3d 8a66 9dbd 3ca6 e13d
00000140: 4015 2e3d a42e 55bd d7a6 973d e52b 21be
00000150: 4a36 f9bd 0a0e 8e3c 9d92 3c3e d29d d73d
00000160: 7967 d33d 99bf cdbd 2a22 02bd bd36 ba36
00000170: 7208 c0bd bb59 563d 7b63 26bd ee75 19bd
00000180: b623 3f3e 4d7f f13c 3594 1c3d 432f 733d
00000190: a0f3 163d 2622 acbd 202c b83d 3435 d3bd
000001a0: fe41 f2bc f4d9 e2bc 7a4e 9abd bbc8 9d3d
000001b0: 9358 83bd 6f37 8d3e c7b8 9abd aa00 d8bd
000001c0: 4cad 8cbd b30a c93a 16f3 7d3e 4864 cabd
000001d0: 8a11 c9bd 8676 8e3d 4bda 06be 0861 50be
000001e0: 011e 073e 2e77 7abd ba59 433e 63b3 97bd
000001f0: 94bb 17bd 9ea2 23bd 8e64 0abd e01f 1f3e
0.13216145 -0.1403516 -0.057990648 0.08965674 9.263786e-06 0.10788905 -0.002042039 -0.098199695
0.19432025 -0.2464898 0.1377034 0.05262672 -0.08608806 -0.2518647 -0.060326904 -0.058776725
0.17807099 -0.19885182 -0.09913137 0.038147952 -0.10725557 0.10414834 -0.11893132 -0.011680984
-0.08846204 0.15885405 0.12066454 0.15963018 -0.088788934 0.0101050725 -0.18709327 0.054003865
0.0694893 0.092913255 -0.044666287 0.12053523 -0.12076485 0.12530743 0.08211003 0.031629134
0.04799138 -0.08563891 0.080428444 0.047535375 0.12892944 -0.08125051 -0.09972044 0.05724004
-0.07824011 -0.051971037 -0.07693659 -0.09828 0.08943582 0.092855744 0.08759961 -0.12902436
0.10000544 0.016183777 -0.098185025 0.060108945 -0.0674305 0.067899026 0.0013283622 -0.10076872
-0.10692113 0.02138983 0.07689956 -0.046733044 -0.0094486065 0.085250534 -0.019720657 0.057264745
-0.0074272323 0.15529029 -0.0109073315 0.093744524 0.22924507 0.038469724 -0.076855734 0.11018035
0.042500734 -0.052046433 0.07404869 -0.157394 -0.12168558 0.017340679 0.18415304 0.10528149
0.1032247 -0.1004631 -0.031770863 5.5496043e-06 -0.09376611 0.052331667 -0.040622216 -0.037465982
0.18665966 0.029479647 0.03822728 0.059371244 0.036853433 -0.08404951 0.08992791 -0.10312882
-0.029572483 -0.027691819 -0.075344995 0.07704302 -0.064133786 0.27581355 -0.07554775 -0.10547002
-0.06868991 0.0015338272 0.24799761 -0.098824084 -0.098177984 0.069562 -0.1316921 -0.20349514
0.1319504 -0.061148815 0.19077197 -0.07407262 -0.037044123 -0.039950006 -0.033787303 0.15539503

cost_backbone.0.weight f4 [128, 22]
00000000: 6d86 2f3e cb79 db3d fde8 50bd 26dc 813e
00000010: 9494 0d3e b917 4c3d 858c 003e ec28 89bd
00000020: 1d16 ccbd 5fc1 0b3e b44b 6fbe db82 513e
00000030: 5652 28bd 8a2b b33d 5d47 26bd e8d2 4ebd
00000040: b211 b63c 12b2 12bc 2dbe 083e 93d8 1e3d
00000050: 9e35 6c3e 78f7 de3c 04d4 da3d 1b32 123e
00000060: 01a3 613d 78a5 993c 5211 f23b 354b b7bd
00000070: 88de 60ba 33e6 183e 45c2 0dbd 6cc3 7d3e
00000080: fc49 8cbe 460e 90bd 1953 433e bc41 f5bd
00000090: 1f5a 4d3c f8c6 a23d 4118 dcbc aa49 ba3c
000000a0: a3c6 4b3e 17b2 50bc 0b4a 7f3d 21b7 073e
000000b0: 378b 363e c5fd 063e 4ba6 85bd b4ad 78be
000000c0: 12a1 853c 307f 8fbd 7c1a 4bbb 5a79 5ebd
000000d0: 0d15 8abd 3357 91bd 6930 c6bd aeb9 24be
000000e0: 093e 98bd 8b68 213e 095c 78bd 0e33 e73d
000000f0: 7790 bdbb 65ce 033d c4d4 c43d f519 70bd
00000100: 050b 963d 0be4 983e 5ed5 c93d 6723 2a3d
00000110: c02a abbd 07d5 f6bd a70c 5f3e 1780 bebd
00000120: dcf9 51bd 6592 863d 8fa0 90bd 5041 a9be
00000130: dd63 103e c4e9 b3bd 4050 903c 2ecf 913d
00000140: ba56 fbbd f275 95be c4cf 293c 0aaf c33d
00000150: 0c8f b43d 7f7b 9d3c 09ab 2bbe 0e7f 473e
00000160: 9894 913e 6559 e8bc 4fd8 eebd 4126 4ebe
00000170: f387 cb3c b890 7f3c cb86 743d 82ff 18be
00000180: 9eb5 9fbd 030b 243d afe0 43bd 7537 9cbe
00000190: 5611 8bbd 6cb6 3f3d 5022 88bc 5159 1fbd
000001a0: 160e 8c3d 58c2 9d3d eac7 a33e 6431 9abb
000001b0: eef5 9dbe e1c9 73bd 7366 e7bb 5090 fcbd
000001c0: 47e5 b33c 9534 a23d b91f e8bd dc19 c6bc
000001d0: 0be4 e3bd 69f0 503e 5d49 04bc 1a3f 593e
000001e0: bff5 9f3c 92e0 003d bd19 0fbe 7b7d a63d
000001f0: cf2f 3a3d 75ed 90bd 7652 68bd 50b1 cc3d
00000200: 31ac 4e3d cf00 273e 6202 23be 4abb d83d
00000210: c4bc 16be 30e4 89be 81a2 9dbd a464 423d
00000220: c445 e3bc 7d2b 0b3c 3191 93bd 1217 023d
00000230: c314 5f3c bfdf b2bd 4ef5 26bb 2fb9 bb3d
00000240: 8e60 32bd 0aa5 903d a3b7 e43d 52e5 d53c
00000250: 46f2 90bd 1ff5 b3bb 5de8 2cbe daca e9bd
00000260: 3ccf ea3d 97a1 62be d1ba ea3d e702 6bbd
00000270: 8a0f 4cbb 6812 cdbd 3e41 29bd c604 53bd
00000280: 679d 7dbd c77c a1bd 8983 0a3e 7037 ba3c
00000290: 6088 bcbd b16f 14bf 7b6c e43c 1c5e dd3d
000002a0: 271d 813d e912 6dbd 4f20 6a3d 1256 ac3c
000002b0: e164 ba3d c27f 613d 3591 50be c15f 67be
000002c0: db1d 4dbe c6f1 81be 12bb ca3d 0047 e9bd
000002d0: 6acf 153e f88d afbd 0f41 0bbe da7f aabd
000002e0: bf90 2ebd 00f4 613e 2ec1 f3bb 8ab6 893e
000002f0: 2835 443c aa97 a73d 44e0 ddbd c487 483d
00000300: cfcd c03c bbc9 97bb abd2 c63d 1691 843d
00000310: ea40 33be 5e48 9dbd 74e0 02b9 47fd 07be
00000320: bd36 72bc a16a 763e c01f f5bd e0e0 023d
00000330: 0114 63be 5dde d13c d240 09bd 699e eabd
00000340: 7d77 c53d 487f bebc 8cb2 8fbe ddca babc
00000350: 5f7a 38bc 9e0c 23be 9755 14bd 26ff e5bd
00000360: 836b 6a3d 2bfb ee3d 8379 2ebd 437e 5dbe
00000370: 6d6e 47bd e1b9 6dbd fc12 61bd 8065 d2bd
00000380: 6b8b 4ebe 2b52 07bd adeb ea3d 1946 9c3d
00000390: 18b3 163d 5c10 f7bd f1d2 00be 192c 21bd
000003a0: af6f a5bc c4f6 0fbe 7f5d 21be e108 a23d
000003b0: d325 a63d d207 a13e 8396 0c3e ade0 1dbd
000003c0: 171b 7d3d 86ac 133b f8a2 e8bd efb9 ddbc
000003d0: 2422 603e f477 5abe 8aa3 ba3d 85e6 b23c
000003e0: f320 033d 66c0 993c 8820 303a f9f0 9b3d
000003f0: 07a3 ab3b b36b 39be acc7 54bd 9ffb 1b3e
0.17141123 0.107165895 -0.051003445 0.25363272 0.1382621 0.04982731 0.12553604 -0.06697258
-0.09965155 0.13647984 -0.23368722 0.20460074 -0.041094147 0.08748539 -0.0405954 -0.050494105
0.022225235 -0.008953588 0.13353796 0.03878076 0.23067328 0.027217612 0.1068497 0.14276926
0.055087093 0.01875566 0.0073873186 -0.089498915 -0.00085780816 0.14931564 -0.034609098 0.24781579
-0.27400196 -0.070339724 0.19074668 -0.119754285 0.012533694 0.079481065 -0.026867034 0.022740204
0.19899993 -0.012737772 0.062326472 0.13253452 0.17826544 0.13182743 -0.065258585 -0.24285012
0.016312156 -0.07006681 -0.0030991128 -0.05431495 -0.06742296 -0.0709671 -0.09677202 -0.16086456
-0.07433707 0.15762536 -0.060634647 0.11289035 -0.005785044 0.032179255 0.09610894 -0.058618505
0.073263206 0.29861483 0.0985515 0.04153767 -0.08357763 -0.120523505 0.2178217 -0.09301775
-0.051263675 0.06570891 -0.07061874 -0.33057642 0.14100595 -0.08784822 0.017616391 0.071195945
-0.12272401 -0.29191548 0.010364477 0.095548704 0.088163465 0.019223927 -0.16764463 0.19482061
0.2843368 -0.02836294 -0.11662351 -0.2013178 0.0248451 0.0155984685 0.05969886 -0.14941218
-0.077983126 0.040049564 -0.047821697 -0.3051106 -0.06790416 0.04680483 -0.016617924 -0.03890354
0.06838624 0.07703084 0.3198846 -0.004705595 -0.30851692 -0.0595187 -0.0070617734 -0.12332213
0.021959914 0.079201855 -0.113341756 -0.024182253 -0.1112748 0.20404209 -0.008074132 0.21215478
0.01952636 0.031464167 -0.13974662 0.08129402 0.04545575 -0.07076541 -0.056719266 0.09994757
0.050457183 0.16308902 -0.15918878 0.105825976 -0.14720446 -0.26931906 -0.07697011 0.04745926
-0.027743228 0.008494255 -0.072054274 0.031760283 0.01361579 -0.087340824 -0.0025475803 0.0916618
-0.043549113 0.07062729 0.111678384 0.026110325 -0.0707746 -0.005491867 -0.16885515 -0.11415644
0.11465308 -0.22131954 0.11461414 -0.057375815 -0.0031137192 -0.10013276 -0.041321985 -0.051518224
-0.06191769 -0.078851275 0.13526739 0.022731513 -0.09205699 -0.5798293 0.027883759 0.108089656
0.063043885 -0.057879362 0.057159718 0.021037135 0.091012724 0.05505348 -0.20367892 -0.22595121
-0.2003092 -0.2537977 0.09898962 -0.11390495 0.14629903 -0.08572 -0.13599037 -0.08325167
-0.04261851 0.22065735 -0.0074388003 0.2689708 0.011975564 0.081832245 -0.10833791 0.0489576
0.023535637 -0.0046322024 0.097081505 0.064729854 -0.17505231 -0.076798186 -0.00012481381 -0.13280211
-0.014783558 0.24064113 -0.119689465 0.03195274 -0.221756 0.025618726 -0.033509083 -0.114559956
0.09641931 -0.023254052 -0.28065908 -0.02280181 -0.011259644 -0.15922782 -0.036214437 -0.11230306
0.057231437 0.11669 -0.04259635 -0.21630196 -0.048689295 -0.058038596 -0.054949746 -0.10273266
-0.20170371 -0.033037346 0.11470733 0.076305576 0.03679189 -0.12063667 -0.12580468 -0.039348695
-0.020194856 -0.14058977 -0.15758322 0.0791185 0.08112683 0.3145128 0.1372929 -0.038544346
0.061793413 0.0022533252 -0.11359209 -0.0270662 0.21888024 -0.21334821 0.09113224 0.021838436
0.032013845 0.0187685 0.0006718715 0.07614321 0.0052379402 -0.1810749 -0.051948234 0.15232705

cost_backbone.0.bias f4 [128]
00000000: d96a 123d 17de 2c3d bbda 9cbe c753 8fbc
00000010: 60f1 043c 0102 733d 0da3 103e 7312 b5bd
00000020: de0e 213d e427 383e c6ce e3bd f582 2c3d
00000030: 009e b13d 91fa 62bc f619 c43d 323c d73d
00000040: 506f 133d df94 92bd 7972 12be bdf0 083d
00000050: 5835 0e3d d927 7d3d 600d 8c3c 0a07 203e
00000060: 370f 0c3c 51fc ca3d 93cb 6abd d0bb debc
00000070: bd99 a33b 5396 833e 25e3 353e 81b8 57be
00000080: 5b0d 12be 1b54 90bd 05de 23bd 7af2 013e
00000090: eefe c43d b7a8 b03d 7054 68bd ab70 f6bd
000000a0: 1529 1e3c eb2a b2bd 2aeb 26be 0b66 af3d
000000b0: 4bbc 723d bf97 d03d b8fb 52be 94e9 1d3e
000000c0: 885b a9bc 84bc 42be 9483 b3bd 56f6 1dbe
000000d0: 0930 553d 18f9 f6bd dd22 723e 1c48 90be
000000e0: f0fb d3bd 5b16 15bb 03bb 0abe c0f2 5dbd
000000f0: 66bd 15bd c604 893d 2348 2abe 6246 133e
00000100: bdcc df3d c172 c93d 2eb5 07bd 8f53 93bd
00000110: 6fb0 5e3e 9915 9bbd 82e2 ca3b 841f 903e
00000120: 2db9 d63d 2319 15bb fc5b cebd cf30 ae3d
00000130: cb7e 773d bfd3 16be 9ffa eb3d d169 1b3e
00000140: 8a51 c2bc ffa2 8abd ed35 283e f0b6 693e
00000150: ee96 cebc 9b59 fe3d 8450 82be 9186 bb3d
00000160: 4b89 ed3d 86b8 993d 7820 c9bd 3806 05bb
00000170: 0f33 013c e7db 33be 5dbc 35bd 31e3 09be
00000180: 7d4d f63d d08c 86bd 4ed7 50be 3b94 f43d
00000190: 97a5 893d d78e 963d f04c bbbd 3d36 de3d
000001a0: e436 193e c234 3d3d c7a5 b5bd 8908 85bd
000001b0: 3f4a 083e 9e24 fe3d 600b cdbe 15d3 263d
000001c0: 8fd5 973d 010f 673d a8f0 633e 80d5 83bd
000001d0: 9d20 50be 59bf 5dbe 9125 5a3d 5a73 76bd
000001e0: bae3 d33d 5868 da3d 7d6e fabc f067 9a3e
000001f0: 040a b13d 5b5f f93d 7e24 b13d 69eb fa3d
0.03574643 0.04220399 -0.30635628 -0.017496003 0.008114189 0.059328083 0.14124699 -0.088414095
0.03932082 0.17983967 -0.11123423 0.042117078 0.08672714 -0.013853685 0.09575264 0.10509528
0.035994828 -0.07157301 -0.1430148 0.03343271 0.03471884 0.06180558 0.017096221 0.15627685
0.008548549 0.09911407 -0.05732305 -0.027189165 0.0049926923 0.25700626 0.1776243 -0.21066476
-0.14262907 -0.07047292 -0.040006656 0.12690154 0.096189365 0.0862593 -0.05672115 -0.120332085
0.009653349 -0.08699592 -0.16300645 0.08564385 0.0592616 0.10185193 -0.20603836 0.15421134
-0.020673528 -0.19017226 -0.08765331 -0.15426001 0.052047763 -0.120592296 0.23646112 -0.28180015
-0.10350788 -0.002274892 -0.13547902 -0.054186583 -0.036557578 0.066903636 -0.1662908 0.14382318
0.109277226 0.09836341 -0.03313177 -0.07193672 0.21746992 -0.07572479 0.0061915526 0.28149045
0.10484538 -0.0022750578 -0.100761384 0.08505403 0.060423654 -0.14729212 0.115224116 0.15177085
-0.023720521 -0.0676937 0.16426821 0.22823691 -0.025218453 0.12419435 -0.25452054 0.09156526
0.11598452 0.07505898 -0.09820646 -0.0020297896 0.0078857085 -0.17564355 -0.04436909 -0.13465573
0.120264985 -0.065698266 -0.20394632 0.11942335 0.06721037 0.07351463 -0.09145534 0.10850189
0.14962345 0.046192892 -0.0886951 -0.064957686 0.13309573 0.12409328 -0.4004774 0.040728647
0.0741378 0.056410793 0.22259772 -0.06437206 -0.20324941 -0.21655025 0.053258482 -0.0601686
0.1034617 0.10664433 -0.030570263 0.30157423 0.086444885 0.12176391 0.086495385 0.12251932
