outputs/E1_penalty_fixedlambda_sweep/penalty_fixed_seed0_lE5.0_lL2.0/best_feasible.pt (torch, 981875 bytes, 68 tensors)

actor_backbone.0.weight f4 [128, 22]
0.023425309 0.11192242 0.2090404 0.086412266 -0.08209232 -0.022403331 -0.077408835 0.044685517
-0.12493187 0.07896413 -0.04282499 -0.16069399 0.039519515 0.10520451 -0.14695872 0.09337927
-0.0067558386 -0.059829235 0.19622076 0.027678585 0.24941854 -0.16368622 -0.13751733 0.012040483
-0.22864732 -0.08909098 -0.12144668 0.012463708 0.09486621 -0.1298388 0.17520997 0.11550687
0.25472715 -0.023566172 -0.15670219 0.04931493 -0.035924938 0.15814443 -0.054200623 0.015775595
0.10726776 -0.11697175 0.082788564 0.19647373 -0.15922648 -0.08549881 -0.12406166 0.024695123
-0.09238087 -0.027479997 -0.009860387 -0.017138882 0.03591187 0.044844486 -0.120599605 0.027508672
0.111817524 0.026199011 0.16341941 -0.022268953 -0.30871964 0.04241673 -0.00912909 -0.01896603
0.426596 -0.06185042 -0.12850825 0.1569406 -0.061481867 -0.078242525 -0.03426615 -0.11036358
-0.0076664756 0.089458406 -0.18935893 0.06617835 -0.044780135 -0.20980252 -0.026339428 0.23434956
-0.048259262 -0.065066405 0.08505593 0.005567437 0.09052504 0.16298042 -0.08561804 0.056254618
-0.19985722 0.06548736 0.26734492 -0.101393916 0.11785505 -0.03780567 -0.22257225 0.15579927
0.02565109 0.08708556 -0.12967533 -0.09293601 -0.128231 0.027320437 0.21857293 -0.054733463
0.093196824 0.03295147 -0.034947257 -0.11785807 -0.068880774 -0.10780198 -0.059548408 -0.19263461
0.13491867 0.041318674 0.09326297 -0.00083249895 -0.11684237 -0.10657335 -0.061079215 -0.038683344
0.13334468 -0.13427745 -0.039293524 0.15217997 -0.26868924 -0.049756955 -0.18587406 -0.1109233
-0.406518 0.05249781 0.0436629 0.12940113 -0.15204352 -0.06610313 -0.07164437 -0.019086145
-0.16441405 -0.21424833 0.022123013 -0.14176041 0.08497047 -0.11112107 -0.16685395 0.119362526
-0.046939664 -0.21226028 -0.024770595 0.16303213 0.27504712 -0.05424946 -0.10877043 -0.016110903
0.20289573 -0.21219626 0.16823411 -0.19830033 0.061520394 0.101694666 -0.009661665 -0.014860275
-0.074726515 -0.117677815 -0.019816136 0.03549594 -0.19863386 -0.19103995 0.061938547 -0.059326023
0.2759338 -0.009067017 -0.059528172 0.16449729 -0.060904946 0.18989837 0.16312118 0.011007633
0.3819638 -0.0490633 0.06266934 -0.08050925 -0.15415606 0.12269165 -0.11145572 0.09492364
-0.047095973 -0.04784637 0.098362476 0.010588732 -0.006102858 -0.014302106 -0.10125217 -0.01973715
-0.13685247 0.07583314 0.08997187 0.096600175 0.20916404 0.36258784 -0.21713522 -0.142078
0.14574255 0.05112966 0.117883764 -0.056609232 0.015793566 -0.008808594 0.054867163 -0.24022219
0.03155638 0.04703741 -0.01562347 0.030324701 -0.23132885 -0.014213845 -0.04632111 -0.053322304
-0.09019704 0.06397001 0.23588449 -0.028586878 0.1100577 -0.13547076 -0.062699094 0.0043464573
0.01319001 -0.1834903 0.009702439 0.10011317 -0.1615385 0.034394514 0.14401574 -0.034251824
0.03222012 -0.08866105 -0.08094973 -0.025060438 -0.06399512 -0.090074405 0.2887096 -0.02583212
0.16063385 0.16312192 -0.0509586 0.14849456 -0.06168714 -0.063308366 -0.1486872 0.041906986
-0.09301413 -0.22292826 -0.1315669 -0.07468836 0.114978455 -0.026603488 0.00917941 -0.013211044
00000000: 6fe6 bf3c 9537 e53d b00e 563e eaf8 b03d
00000010: 0520 a8bd 3187 b7bc 8688 9ebd 2908 373d
00000020: 48dc ffbd f2b7 a13d 4269 2fbd f78c 24be
00000030: 37df 213d 7675 d73d 597c 16be a13d bf3d
00000040: 1560 ddbb 800f 75bd 18ee 483e 33be e23c
00000050: 9367 7f3e 5c9d 27be 58d1 0cbe 7245 453c
00000060: 8622 6abe 5575 b6bd 09b9 f8bd 9534 4c3c
00000070: 3749 c23d 76f4 04be 3e6a 333e de8e ec3d
00000080: 996b 823e d80d c1bc 8a76 20be 74fe 493d
00000090: 0726 13bd 9df0 213e 7901 5ebd d23b 813c
000000a0: 33af db3d e38e efbd 0d8d a93d 6930 493e
000000b0: 440c 23be 001a afbd 0a14 febd 6d4d ca3c
000000c0: 2e32 bdbd bb1d e1bc 768d 21bc d766 8cbc
000000d0: 5318 133d daae 373d edfc f6bd de59 e13c
000000e0: 9600 e53d 4f9f d63c 6b57 273e 616d b6bc
000000f0: 8010 9ebe 2abd 2d3d 2e92 15bc a65e 9bbc
00000100: ca6a da3e de56 7dbd ab97 03be 09b5 203e
00000110: 69d4 7bbd 9e3d a0bd aa5a 0cbd 4d06 e2bd
00000120: 0f37 fbbb f835 b73d 4fe7 41be 8488 873d
00000130: 606b 37bd 79d6 56be c9c5 d7bc 55f9 6f3e
00000140: 81ab 45bd 8941 85bd ce31 ae3d 0c6f b63b
00000150: 3165 b93d 57e4 263e 8358 afbd 3e6b 663d
00000160: 5fa7 4cbe 3d1e 863d 6fe1 883e 9da7 cfbd
00000170: fd5d f13d 1eda 1abd fbe9 63be d889 1f3e
00000180: 3c22 d23c ea59 b23d 9cc9 04be 3c55 bebd
00000190: fd4e 03be 1ccf df3c 95d1 5f3e 3230 60bd
000001a0: fadd be3d 1ff8 063d db24 0fbd 925f f1bd
000001b0: 5d11 8dbd 49c7 dcbd 08e9 73bd 0242 45be
000001c0: 1f28 0a3e c53d 293d a800 bf3d 0f3c 5aba
000001d0: 0d4b efbd 2143 dabd 332e 7abd 6d72 1ebd
000001e0: 828b 083e 0780 09be 3ff2 20bd 11d5 1b3e
000001f0: a391 89be f3cd 4bbd c555 3ebe c12b e3bd
00000200: 2123 d0be f207 573d ded7 323d bb81 043e
00000210: 4cb1 1bbe 1461 87bd 49ba 92bd 8c5a 9cbc
00000220: 285c 28be ea63 5bbe 523b b53c a429 11be
00000230: ff04 ae3d 7293 e3bd c3db 2abe 5774 f43d
00000240: ce43 40bd c25a 59be b4eb cabc e5f1 263e
00000250: fad2 8c3e af34 5ebd 08c3 debd 03fb 83bc
00000260: e6c3 4f3e fa49 59be 9045 2c3e 3e0f 4bbe
00000270: cffc 7b3d 4b45 d03d f64b 1ebc 8378 73bc
00000280: 370a 99bd 1101 f1bd 7355 a2bc 3164 113d
00000290: ad66 4bbe fa9f 43be 46b3 7d3d d8ff 72bd
000002a0: 3247 8d3e d38d 14bc d0d3 73bd fa71 283e
000002b0: 7777 79bd b874 423e 3d09 273e 5c59 343c
000002c0: c290 c33e 99f6 48bd c858 803d 09e2 a4bd
000002d0: 16db 1dbe c345 fb3d e642 e4bd 5367 c23d
000002e0: b5e7 40bd 8efa 43bd 4472 c93d 5c7c 2d3c
000002f0: 7cfa c7bb 6153 6abc 4c5d cfbd ceaf a1bc
00000300: 0e23 0cbe 684e 9b3d 2c43 b83d 50d6 c53d
00000310: 192f 563e 1da5 b93e b258 5ebe e57c 11be
00000320: 893d 153e 566d 513d 0b6d f13d 15df 67bd
00000330: 8261 813c ec51 10bc 64bc 603d cefc 75be
00000340: 4341 013d 4daa 403d 95f9 7fbc 826b f83c
00000350: 78e1 6cbe 30e1 68bc 34bb 3dbd 7d68 5abd
00000360: 3ab9 b8bd b502 833d b48b 713e 072f eabc
00000370: ee65 e13d d9b8 0abe 6268 80bd ba6c 8e3b
00000380: e91a 583c e2e4 3bbe fbf6 1e3c 2208 cd3d
00000390: 596a 25be 43e1 0c3d dd78 133e a44b 0cbd
000003a0: 3ff9 033d ed93 b5bd f9c8 a5bd 8c4b cdbc
000003b0: e00f 83bd ee78 b8bd bfd1 933e e29d d3bc
000003c0: 337d 243e 6f09 273e f7b9 50bd f50e 183e
000003d0: a8ab 7cbd d1a7 81bd 7541 18be a9a6 2b3d
000003e0: 317e bebd 4e47 64be 79b9 06be 36f6 98bd
000003f0: d379 eb3d 8fef d9bc 3c65 163c 2273 58bc

actor_backbone.0.bias f4 [128]
-0.08891535 -0.12063761 -0.12701218 -0.0414596 0.12283607 -0.04113608 -0.046608 0.014144459
-0.13369541 -0.11185468 -0.13512202 -0.10878076 0.07756509 -0.013086132 0.00226849 -0.013983999
0.09521444 0.118668914 -0.0327092 -0.105316915 -0.10698614 0.13189794 0.06306701 -0.036456984
0.11156432 0.0379582 0.044109195 -0.09121184 -0.10916063 0.12796076 -0.072751395 0.13847029
-0.091212235 0.012542513 -0.1229154 -0.018550415 -0.040583156 -0.010683047 0.0832901 -0.11819094
0.128855 0.051956803 -0.052306764 -0.055739682 0.1043779 0.03889361 -0.06965814 -0.037851814
0.057482958 -0.13649747 0.08048777 0.043704882 0.102508746 0.13040133 0.016499665 0.002447563
0.13485648 -0.059722986 0.14916465 0.032443147 0.08314409 -0.12187305 -0.036669064 0.02086292
0.012719922 -0.0033037995 0.017919706 -0.0062465295 -0.09686778 -0.095875874 0.094825536 -0.05442753
-0.060870647 -0.10987385 0.12185708 0.124611296 -0.007090397 0.11429651 -0.022397334 0.13144243
-0.13044994 -0.06741844 0.11888564 -0.11219429 0.0052867085 -0.11595542 -0.03321107 0.035111833
0.1341594 0.093965165 -0.020648303 -0.08125284 0.08033071 -0.016547153 -0.12068815 0.064241864
0.04192538 0.08033557 0.070964254 -0.05227888 -0.11416245 -0.051160183 -0.12978265 0.063266575
0.04552137 0.044231903 -0.12113968 0.11365121 -0.0876805 -0.0016848668 0.12234132 0.102862954
0.0952993 0.102686375 0.08241533 -0.024568865 0.078378044 -0.07378466 -0.11268723 0.0898284
0.015053766 0.123339176 -0.029079812 0.059339695 0.012029128 -0.004237211 -0.02999939 -0.010290621
00000000: 4019 b6bd da10 f7bd 7b0f 02be 8bd1 29bd
00000010: 7a91 fb3d 4e7e 28bd 08e8 3ebd 29be 673c
00000020: 73e7 08be 1114 e5bd 6d5d 0abe 72c8 debd
00000030: 72da 9e3d 3767 56bc f2aa 143b 251d 65bc
00000040: caff c23d b008 f33d 15fa 05bd 65b0 d7bd
00000050: 8d1b dbbd 4110 073e 4729 813d eb53 15bd
00000060: d67b e43d 0f7a 1b3d d8ab 343d 46cd babd
00000070: 9c8f dfbd 2508 033e affe 94bd 28cb 0d3e
00000080: 7bcd babd 1d7f 4d3c 12bb fbbd 0af7 97bc
00000090: 863a 26bd f207 2fbc 0094 aa3d 170e f2bd
000000a0: 91f2 033e a8d0 543d 9e3f 56bd 4b4f 64bd
000000b0: 15c4 d53d e84e 1f3d eda8 8ebd 810a 1bbd
000000c0: 4073 6b3d fec5 0bbe c6d6 a43d e403 333d
000000d0: 1bf0 d13d ed87 053e 4e2a 873c 4b67 203b
000000e0: d117 0a3e 17a0 74bd 9ebe 183e 1be3 043d
000000f0: 7347 aa3d 9498 f9bd 4d32 16bd b7e8 aa3c
00000100: 3867 503c 8f84 58bb 59cc 923c b0af ccbb
00000110: 9d62 c6bd 925a c4bd e433 c23d 67ef 5ebd
00000120: 8053 79bd 8b05 e1bd 3490 f93d 3534 ff3d
00000130: 9056 e8bb 4a14 ea3d 9d7a b7bc d898 063e
00000140: ab94 05be ae12 8abd 507a f33d 1fc6 e5bd
00000150: 203c ad3b 097a edbd 5508 08bd 6dd1 0f3d
00000160: 1561 093e cf70 c03d a126 a9bc e467 a6bd
00000170: 6d84 a43d e58d 87bc 592b f7bd 3d91 833d
00000180: f2b9 2b3d fa86 a43d b555 913d 6122 56bd
00000190: 01ce e9bd 578d 51bd bee5 04be e891 813d
000001a0: 9e74 3a3d 832c 353d 1518 f8bd f7c1 e83d
000001b0: d591 b3bd c0d6 dcba 168e fa3d d0a9 d23d
000001c0: 482c c33d 3c4d d23d 5ec9 a83d a544 c9bc
000001d0: ab84 a03d 691c 97bd 90c8 e6bd f4f7 b73d
000001e0: 12a4 763c 4099 fc3d c938 eebc 2e0e 733d
000001f0: d215 453c 4dd8 8abb 48c1 f5bc fe99 28bc

actor_backbone.2.weight f4 [128, 128]
-0.013098788 -0.064356916 -0.1441488 0.13201782 -0.031110873 0.09431958 0.18821964 -0.24550474
-0.0115019865 0.05260364 -0.2876203 -0.014731491 0.06969622 0.011300469 -0.025953164 -0.20792434
0.053998694 0.039664082 0.090345256 0.05864981 0.10182359 0.29133537 0.08413439 -0.046460938
-0.06843687 -0.012426803 0.18010552 0.11472546 -0.19081742 0.2180813 -0.0820417 -0.06774096
0.09543438 0.14299534 -0.0068606935 -0.086905636 0.13009696 0.092234895 0.16475965 -0.16664605
0.14525558 0.21944603 0.20610131 -0.08027689 0.029377492 -0.11373626 -0.11444481 -0.053521607
-0.17669782 0.12886782 0.12855199 0.054717112 0.092896976 -0.14676064 -0.077379346 -0.15818034
-0.14017329 -0.0024468252 0.060562957 0.18267255 0.081943095 0.06693263 -0.029852735 0.16664393
-0.13986939 0.07695659 0.003481382 0.097590804 -0.08302946 -0.13498351 0.008320491 0.031570926
0.09281351 0.17762421 0.13134101 0.21639636 -0.16569445 -0.031943876 -0.029885568 0.033752218
-0.04099014 -0.053849 -0.08062651 -0.06978718 -0.06780146 0.015847597 0.18841869 -0.06617357
0.13136007 0.2585123 0.1270874 0.08187794 0.23734275 -0.23488408 -0.066502765 0.145745
-0.34647524 -0.08350728 -0.11943356 -0.18701005 -0.17211407 0.1092773 -0.09650516 -0.11761692
-0.067124605 -0.016846245 0.028220322 -0.28064084 0.019139767 -0.058643408 0.14446004 0.011223693
0.13869897 0.11780553 0.1847079 0.02699263 0.088917255 -0.19625364 0.13059714 0.06484012
0.043069746 0.041336264 0.08964359 0.10578746 -0.069319494 -0.017376725 0.27876666 0.15488817
0.08626482 0.03015112 0.15061218 -0.17132865 0.127949 0.13642181 0.012577227 -0.027959555
0.159647 0.062478267 -0.032596517 0.12222534 0.3422561 -0.062650755 -0.04194064 -0.20402493
-0.073961414 0.09072321 -0.21975124 0.03895851 0.02057491 0.042978525 0.022826066 -0.20449196
-0.13836381 -0.15820056 -0.10802841 0.1259024 -0.36330208 0.19230764 -0.19482031 0.08720338
0.055860367 -0.026966479 0.025070291 0.015408845 -0.028868515 -0.08235313 -0.07513061 -0.18068057
-0.029558446 0.20697343 0.044054646 0.012006471 -0.20510231 0.017477393 0.10519297 0.04643716
0.021509955 0.08940603 0.19650444 -0.109825514 0.05501669 -0.020093456 0.0119357295 0.18815646
0.1070596 -0.10534031 -0.009196426 -0.17962001 0.06788608 0.10438353 -0.13030177 -0.10547917
-0.07894547 -0.11722035 -0.08046462 -0.018847622 -0.1530557 -0.09566476 -0.23524742 -0.106168024
-0.14092341 0.15323123 -0.100032695 0.13933045 -0.09290456 -0.19201721 0.121186525 0.10480784
0.23157187 -0.113518566 -0.044552114 -0.13785134 0.023174731 -0.17309524 -0.025262842 0.113606006
0.024027059 -0.009767848 -0.032108527 -0.11464125 -0.0035719206 -0.12808438 -0.025708403 -0.29253182
-0.13018425 -0.29562554 0.18134767 0.031094654 0.02380057 -0.1968637 0.3177506 0.08025115
-0.035556585 -0.16963556 -0.1406021 -0.060116872 -0.08664883 -0.14687102 0.15982156 -0.045869656
0.041105922 0.021219729 0.029402092 0.075895615 0.16607432 0.08240525 -0.25483754 -0.075822696
0.08985493 0.13325806 0.31401253 -0.07663773 0.12823251 0.17229539 -0.0384405 0.066550575
00000000: 4d9c 56bc 8fcd 83bd be9b 13be ae2f 073e
00000010: 3bdc febc a02a c13d a6bc 403e 9865 7bbe
00000020: d472 3cbc ea76 573d f842 93be 5a5c 71bc
00000030: e4bc 8e3d 9a25 393c bb9b d4bc 1eea 54be
00000040: bc2d 5d3d ce76 223d ef06 b93d c83a 703d
00000050: e388 d03d e929 953e a74e ac3d d34d 3ebd
00000060: a128 8cbd ca99 4bbc 956d 383e 2ff5 ea3d
00000070: a465 43be b450 5f3e 7b05 a8bd c6bb 8abd
00000080: 1a73 c33d 5f6d 123e abcf e0bb 95fb b1bd
00000090: 2338 053e a6e5 bc3d c1b6 283e 43a5 2abe
000000a0: e1bd 143e 76b6 603e 390c 533e 3668 a4bd
000000b0: 11a9 f03c 8eee e8bd 0a62 eabd 7939 5bbd
000000c0: 46f0 34be edf5 033e 22a3 033e 0d1f 603d
000000d0: c540 be3d 6c48 16be 1079 9ebd 07fa 21be
000000e0: 9689 0fbe ea5a 20bb dd10 783d 830e 3b3e
000000f0: c8d1 a73d fa13 893d b98d f4bc b5a4 2a3e
00000100: ec39 0fbe 6b9b 9d3d e627 643b b0dd c73d
00000110: 590b aabd 1e39 0abe ab52 083c 8450 013d
00000120: 0215 be3d 1fe3 353e 427e 063e 0297 5d3e
00000130: ceab 29be 95d7 02bd 94d2 f4bc c43f 0a3d
00000140: 47e5 27bd c590 5cbd 831f a5bd 95ec 8ebd
00000150: 7edb 8abd d2d2 813c d4f0 403e 0286 87bd
00000160: 4183 063e b95b 843e 3323 023e 9faf a73d
00000170: fa09 733e 7485 70be 9a32 88bd 2d3e 153e
00000180: 3465 b1be dd05 abbd 9599 f4bd 907f 3fbe
00000190: ac3e 30be c7cc df3d 7fa4 c5bd 24e1 f0bd
000001a0: a078 89bd 2301 8abc 4e2e e73c 28b0 8fbe
000001b0: 00cb 9c3c 1234 70bd 55ed 133e 95e3 373c
000001c0: 1a07 0e3e 0744 f13d 1124 3d3e a61f dd3c
000001d0: 401a b63d b7f6 48be 42bb 053e e6ca 843d
000001e0: e769 303d 3750 293d 0f97 b73d 19a7 d83d
000001f0: 61f7 8dbd a259 8ebc 81ba 8e3e 019b 1e3e
00000200: 9cab b03d 7bff f63c 143a 1a3e c770 2fbe
00000210: 1005 033e 29b2 0b3e b710 4e3c 700b e5bc
00000220: 817a 233e 36e9 7f3d ed83 05bd 4751 fa3d
00000230: 313c af3e 0a4f 80bd f3c9 2bbd e9eb 50be
00000240: 1579 97bd 17cd b93d 7806 61be f592 1f3d
00000250: b78c a83c 400a 303d bbfd ba3c 5766 51be
00000260: 3eaf 0dbe 54ff 21be 003e ddbd 8fec 003e
00000270: bb02 babe 4bec 443e fa7e 47be b097 b23d
00000280: d7cd 643d cee8 dcbc 3660 cd3c 6175 7c3c
00000290: aa7d ecbc c2a8 a8bd 14de 99bd 5404 39be
000002a0: 8e24 f2bc d8f0 533e a572 343d cab6 443c
000002b0: 5706 52be c02c 8f3c 696f d73d e434 3e3d
000002c0: a535 b03c 821a b73d 7638 493e 33ec e0bd
000002d0: 2e59 613d 089b a4bc 148e 433c 16ac 403e
000002e0: 1042 db3d a9bc d7bd 9bac 16bc 4fee 37be
000002f0: db07 8b3d 08c7 d53d d46d 05be 7705 d8bd
00000300: 2aae a1bd 3911 f0bd a2ca a4bd 5466 9abc
00000310: a2ba 1cbe e3eb c3bd b3e4 70be 9f6e d9bd
00000320: 3a4e 10be a6e8 1c3e f1dd ccbd a4ac 0e3e
00000330: bf44 bebd 29a0 44be a430 f83d 7ea5 d63d
00000340: 2d21 6d3e 6c7c e8bd 477c 36bd e728 0dbe
00000350: efd8 bd3c e13f 31be 05f4 cebc 44aa e83d
00000360: 65d4 c43c 5309 20bc 3b84 03bd 08c9 eabd
00000370: e216 6abb 8d28 03be 6e9a d2bc bbc6 95be
00000380: 054f 05be 3b5c 97be 34b3 393e 37ba fe3c
00000390: 6af9 c23c a396 49be 35b0 a23e b75a a43d
000003a0: c8a3 11bd f2b4 2dbe fff9 0fbe 1c3d 76bd
000003b0: f174 b1bd 5b65 16be 43a8 233e d2e1 3bbd
000003c0: af5e 283d ffd4 ad3c a8dc f03c 296f 9b3d
000003d0: 630f 2a3e 15c4 a83d 117a 82be ee48 9bbd
000003e0: dd05 b83d cd74 083e 40c6 a03e 3ef4 9cbd
000003f0: 624f 033e 346e 303e c973 1dbd ab4b 883d

actor_backbone.2.bias f4 [128]
0.083779186 0.0027188214 0.013073002 0.06359854 0.089212954 -0.088404596 0.016661331 0.11295491
0.0045907684 -0.123284005 0.10952965 0.08768636 0.018437142 0.09465656 -0.101403356 -0.0348855
0.05850075 0.017599972 -0.11023203 0.12592508 0.039781343 0.02060245 0.12221159 0.07617878
0.10832821 0.08038869 -0.0356711 0.044406094 0.048633594 0.00066107244 -0.13811184 0.055091627
-0.027279576 0.06079207 0.07467124 0.054225717 0.042200714 -0.124150775 -0.07875977 -0.10125577
0.059943702 -0.08185861 0.0050298176 0.046301287 -0.028625563 -0.076674625 -0.0039879004 0.06669603
0.10087715 0.07524496 0.008168106 0.0946015 0.09971642 0.088304356 0.12240256 0.115211666
0.09841862 0.08346397 0.032859564 -0.09942129 0.115768604 0.042070463 -0.024680197 -0.12408993
0.034143586 0.03981073 -0.056750342 -0.013040549 -0.032385714 0.06787409 0.058982998 0.03865634
-0.120919995 -0.08430928 -0.059101332 -0.09269669 0.108124286 -0.078951485 -0.0325933 -0.011758387
-0.10663659 -0.118615724 -0.06388178 -0.07154638 -0.015297683 -0.074327394 -0.0884567 -0.05711415
0.09581748 -0.06614425 0.012487276 0.08340008 0.064606 -0.053676043 0.08629641 0.0032305703
-0.08330513 0.050815206 0.11034582 0.04312895 -0.025143204 -0.069336504 0.034569975 -0.114213645
-0.097871475 -0.06963747 -0.100315236 -0.069608256 -0.077999115 0.119988464 0.097072296 0.09768209
-0.011360862 -0.03295875 0.06762396 0.059564225 -0.010365125 0.070507884 -0.10096882 -0.10389112
0.13779698 -0.09371427 -0.121383294 -0.12112319 0.13179357 -0.10278401 -0.12666586 -0.12028546
00000000: 6c94 ab3d 412e 323b 2530 563c f43f 823d
00000010: 48b5 b63d 780d b5bd 587d 883c e754 e73d
00000020: 286e 963b 537c fcbd 1551 e03d e894 b33d
00000030: 7d09 973c 4cdb c13d 90ac cfbd 19e4 0ebd
00000040: 7c9e 6f3d d12d 903c 55c1 e1bd 81f2 003e
00000050: c3f1 223d 78c6 a83c 124a fa3d 9f03 9c3d
00000060: 2edb dd3d d3a2 a43d dc1b 12bd 2ae3 353d
00000070: 0534 473d d24b 2d3a 316d 0dbe c2a7 613d
00000080: 6b79 dfbc 1b01 793d 3ced 983d c91b 5e3d
00000090: a8da 2c3d c342 febd cd4c a1bd 2f5f cfbd
000000a0: 8787 753d 7da5 a7bd 2bd1 a43b 6ba6 3d3d
000000b0: 2880 eabc 9607 9dbd efac 82bb ee97 883d
000000c0: ae98 ce3d 081a 9a3d 85d3 053c 6ebe c13d
000000d0: 1f38 cc3d ead8 b43d 32ae fa3d 18f4 eb3d
000000e0: b48f c93d 28ef aa3d c097 063d 649d cbbd
000000f0: 1718 ed3d 1452 2c3d 202e cabc dc22 febd
00000100: 25da 0b3d 9310 233d 0c73 68bd 07a8 55bc
00000110: e2a6 04bd 9201 8b3d 2898 713d 1c56 1e3d
00000120: e7a4 f7bd 58aa acbd 3d14 72bd c3d7 bdbd
00000130: 4470 dd3d 51b1 a1bd 8d80 05bd 40a6 40bc
00000140: 4964 dabd cdec f2bd 73d4 82bd e986 92bd
00000150: 22a3 7abc f638 98bd c928 b5bd 87f0 69bd
00000160: f43b c43d a376 87bd 6f97 4c3c a9cd aa3d
00000170: 2750 843d 69db 5bbd 2cbc b03d fab7 533b
00000180: e19b aabd 9b23 503d fdfc e13d fba7 303d
00000190: 1ff9 cdbc 4c00 8ebd 3f99 0d3d d8e8 e9bd
000001a0: d770 c8bd 179e 8ebd 1372 cdbd c68e 8ebd
000001b0: 00be 9fbd 83bc f53d d7cd c63d 8c0d c83d
000001c0: e922 3abc c1ff 06bd 6e7e 8a3d 9ef9 733d
000001d0: 7cd2 29bc 7066 903d bec8 cebd dec4 d4bd
000001e0: a71a 0d3e 44ed bfbd ce97 f8bd 6f0f f8bd
000001f0: e5f4 063e 6c80 d2bd b2b4 01be 3958 f6bd

reward_backbone.0.weight f4 [128, 22]
0.13728143 -0.008031246 0.12154448 0.34651095 0.015080959 -0.26452845 0.05921058 -0.012866902
0.11022828 -0.1269316 -0.035269413 0.05555395 0.17732027 0.041422628 -0.07186094 0.17675892
0.0076149222 -0.011035131 0.017174182 0.017628131 0.19828111 0.1501656 0.114430204 0.017064674
0.06387466 0.11094326 0.0455155 0.14787474 -0.04284187 -0.08553832 0.09648723 -0.13390194
-0.018119395 -0.2754031 0.21596785 -0.07681982 -0.069276124 -0.08632889 0.013289336 0.17392258
-0.07145091 -0.17642234 -0.043837383 0.07933801 0.08930711 -0.18705983 -0.103302926 -0.24248531
0.016315067 -0.12763938 -0.16567111 0.07022785 -0.21421921 -0.055986177 -0.032051746 -0.038709626
0.21401282 -0.10076119 -0.09085343 0.17240752 -0.023077345 -0.1072979 -0.1744412 -0.14283212
-0.013425368 -0.24966304 0.09546172 0.10540835 0.17804188 -0.060062006 0.015723972 0.16712113
-0.003985586 0.0058985595 -0.08478549 0.09511126 0.013854334 -0.16045943 0.003421809 -0.051156666
0.009838632 0.04027284 -0.003433944 -0.01631013 -0.08604208 -0.2088143 0.05322464 -0.054032017
0.082340695 0.015121112 -0.18667778 0.030566396 -0.044006232 -0.035197463 0.079043664 0.04085352
-0.38575807 -0.141745 -0.14801528 -0.12811562 0.054555673 0.09876691 0.126862 0.052273404
0.18469974 -0.24203515 0.13885362 -0.18530135 0.20914088 0.0023364213 0.02454967 -0.2122799
0.047969826 0.2759639 -0.054479714 -0.072353266 0.14221795 0.04032894 0.0172785 -0.070169754
0.08534598 -0.06536883 -0.10067186 0.22824474 0.13765259 0.05659436 0.040903762 -0.047534477
0.059489634 0.15829977 0.19153596 0.032074656 0.04254157 0.099589884 0.11216143 -0.060884338
-0.041940037 -0.198782 -0.09207846 -0.18904716 0.12402884 0.2393484 -0.05316345 -0.06504855
-0.112144366 -0.13455667 0.06648593 0.016063813 -0.042140223 -0.020765789 -0.14950764 0.15709443
0.021765415 -0.17702694 -0.038645513 0.22590326 -0.031726297 0.019861942 0.06371898 0.113049865
-0.09694678 0.26612106 0.2749888 -0.14503841 0.023103153 -0.09003946 0.20518968 0.003612286
-0.1315398 -0.0961385 -0.015737835 -0.07526528 -0.059280265 -0.048674706 -0.08506646 -0.22541133
-0.07353415 -0.05023509 -0.13367055 -0.20431855 0.13008504 -0.05716782 0.092340454 0.038248137
0.045025174 -0.07856962 -0.0039291256 -0.06837347 0.18354672 -0.1581154 -0.24512416 -0.06459081
0.030537495 0.09241634 0.25129277 0.0528949 -0.06950351 0.2203488 -0.04304885 -0.18038087
-0.25342023 0.1851521 0.20165087 -0.19509707 -0.10509927 -0.11047867 -0.017160453 -0.12252898
0.048181847 -0.110536836 -0.10200643 0.049105205 0.02227429 -0.042265836 0.104830295 0.14174855
-0.25749528 -0.19130442 -0.09606226 0.05527701 -0.2581222 0.0014681071 -0.0032240353 0.12520064
0.2850632 -0.04979497 -0.034835875 -0.0018801859 -0.07470833 -0.030114757 0.025050843 0.038476486
-0.10914253 0.15448377 0.17074825 0.024376716 0.06814242 -0.06530969 0.07714476 0.21716131
-0.31817138 -0.11564224 0.14482746 0.045614567 -0.11589949 -0.00087892637 0.027223784 0.10807257
0.08289256 -0.011489633 -0.011662634 -0.029890163 0.14305663 0.079856016 0.0814917 0.076766945
00000000: 8193 0c3e 7d95 03bc 50ec f83d e269 b13e
00000010: 2016 773c 4670 87be cb86 723d b3cf 52bc
00000020: 5dbf e13d 5bfa 01be a976 10bd 8a8c 633d
00000030: 7293 353e c6aa 293d d42b 93bd 4a00 353e
00000040: 9986 f93b b2cc 34bc dfb0 8c3c df68 903c
00000050: 340a 4b3e 03c5 193e 625a ea3d 37cb 8b3c
00000060: b8d0 823d 3836 e33d 766e 3a3d 7a6c 173e
00000070: f57a 2fbd b72e afbd 199b c53d 971d 09be
00000080: 206f 94bc a301 8dbe ad26 5d3e b653 9dbd
00000090: a4e0 8dbd 33cd b0bd 84bb 593c c318 323e
000000a0: db54 92bd 0fa8 34be d48e 33bd f77b a23d
000000b0: a5e6 b63d 9d8c 3fbe 7c90 d3bd 124e 78be
000000c0: 2da7 853c e6b3 02be b0a5 29be 9ed3 8f3d
000000d0: 485c 5bbe c351 65bd b148 03bd fc8d 1ebd
000000e0: 2d26 5b3e e25b cebd 5d11 babd 998b 303e
000000f0: b30c bdbc 00bf dbbd b7a0 32be 9542 12be
00000100: 13f6 5bbc aba7 7fbe 6f81 c33d 55e0 d73d
00000110: 9c50 363e 9403 76bd 8fcf 803c cd21 2b3e
00000120: 8599 82bb b448 c13b 04a4 adbd b1c9 c23d
00000130: 4afd 623c 7a4f 24be 6e40 603b a789 51bd
00000140: 3732 213c 22f5 243d 050c 61bb d29c 85bc
00000150: d436 b0bd 6ad3 55be 1502 5a3d ad50 5dbd
00000160: 3da2 a83d 8abe 773c 7628 3fbe 6166 fa3c
00000170: e13f 34bd 372b 10bd a5e1 a13d 0556 273d
00000180: 1582 c5be 9a25 11be 5191 17be be30 03be
00000190: c575 5f3d 4e46 ca3d 1de8 013e a31c 563d
000001a0: ee21 3d3e 10d8 77be a52f 0e3e a3bf 3dbe
000001b0: 0729 563e a51e 193b 641c c93c e75f 59be
000001c0: 027c 443d 244b 8d3e 1f26 5fbd f32d 94bd
000001d0: 95a1 113e f52f 253d a48b 8d3c 29b5 8fbd
000001e0: e0c9 ae3d 18e0 85bd 0c2d cebd fdb8 693e
000001f0: cdf4 0c3e 7dcf 673d b48a 273d 83b3 42bd
00000200: 67ab 733d 5619 223e 0122 443e b760 033d
00000210: 1240 2e3d c8f5 cb3d e4b4 e53d db61 79bd
00000220: 51c9 2bbd 828d 4bbe a293 bcbd 9495 41be
00000230: d502 fe3d bf17 753e ebc1 59bd 2d38 85bd
00000240: f2ab e5bd 39c9 09be c629 883d 4298 833c
00000250: 3a9b 2cbd 041d aabc 8818 19be 5ddd 203e
00000260: 624d b23c 8d46 35be c24a 1ebd 2f53 673e
00000270: 6ff3 01bd 83b5 a23c 197f 823d b086 e73d
00000280: 098c c6bd 0541 883e 55cb 8c3e f384 14be
00000290: d342 bd3c 9c66 b8bd 3e1d 523e 1abc 6c3b
000002a0: 5fb2 06be 43e4 c4bd a2ec 80bc af24 9abd
000002b0: ddcf 72bd 215f 47bd 5337 aebd 3ad2 66be
000002c0: 1399 96bd 4fc3 4dbd efe0 08be e238 51be
000002d0: 0335 053e ce28 6abd fe1c bd3d 14aa 1c3d
000002e0: 516c 383d 1ce9 a0bd e5bf 80bb 6407 8cbd
000002f0: acf3 3b3e 01e9 21be d401 7bbe 3048 84bd
00000300: c529 fa3c c744 bd3d 72a9 803e 53a8 583d
00000310: db57 8ebd 1ea3 613e fe53 30bd c3b5 38be
00000320: 4cc0 81be 8398 3d3e 917d 4e3e 87c7 47be
00000330: 493e d7bd a442 e2bd 1494 8cbc 79f0 fabd
00000340: 545a 453d 2361 e2bd bfe8 d0bd 8a22 493d
00000350: 9278 b63c f11e 2dbd 44b1 d63d 8826 113e
00000360: 6cd6 83be 4ee5 43be 4abc c4bd 256a 623d
00000370: 9828 84be 806d c03a 564a 53bb 9934 003e
00000380: cef3 913e cff5 4bbd 10b0 0ebd 9270 f6ba
00000390: ae00 99bd 39b3 f6bc 6d37 cd3c 8599 1d3d
000003a0: 1e86 dfbd fe30 1e3e a1d8 2e3e aeb1 c73c
000003b0: 418e 8b3d 16c1 85bd 12fe 9d3d 895f 5e3e
000003c0: 5ce7 a2be d7d5 ecbd a64d 143e 57d6 3a3d
000003d0: b65c edbd c067 66ba 6a04 df3c 2755 dd3d
000003e0: 93c3 a93d 033f 3cbc a214 3fbc 37dc f4bc
000003f0: 707d 123e 8d8b a33d 1fe5 a63d fd37 9d3d

reward_backbone.0.bias f4 [128]
-0.066756 -0.087787755 0.060451236 -0.09726218 0.08516685 0.07308274 -0.083166085 -0.092097
-0.07284689 0.08761136 -0.07861444 -0.08700466 -0.0055371667 0.1012251 0.0715996 0.06234868
-0.08047461 -0.058995638 0.10588248 0.098348245 -0.10230474 0.064859554 0.07811208 -0.076990604
-0.09296458 -0.09998415 -0.080818646 -0.07983762 0.11966485 -0.100214586 -0.108131625 -0.055333067
-0.0810567 -0.085587405 0.092298895 0.068209544 0.09693333 -0.08908965 -0.08380654 -0.10280006
-0.0902376 0.09816923 0.09055894 0.078994885 0.10071442 0.09200436 0.079122774 -0.052925702
0.08830532 0.10764649 -0.08413955 -0.055905826 0.085998744 -0.07282667 -0.08858974 -0.09265264
-0.009935889 0.08703536 -0.09468778 0.07993272 0.07934892 0.038133327 0.054707162 -0.09676075
0.08728083 -0.07681505 -0.076366134 0.088090815 -0.054012287 0.030661454 0.10692632 -0.09463523
-0.09503514 -0.06965945 -0.041844398 -0.09369428 0.10094722 -0.09624327 -0.09453565 -0.0666912
0.06771251 -0.10548124 0.08059921 -0.059140876 0.10185243 0.11242832 0.04749361 -0.105512425
0.0816193 -0.08102073 0.08161145 0.08508805 0.0937366 -0.067060776 -0.09388369 -0.07155244
-0.098348625 -0.012429599 0.100695655 -0.07923228 -0.073497556 -0.021997882 -0.07422824 0.09058159
-0.06830228 0.10549795 0.09170771 -0.05012897 -0.043299325 -0.10458963 -0.09699974 0.071491264
0.092391685 -0.06821381 -0.09756019 0.087154604 0.09133444 0.09471784 0.091459215 0.106074065
-0.07971203 -0.0871416 -0.09207754 0.07895697 0.07867115 0.06740177 0.10075038 0.09982065
00000000: 5fb7 88bd 11ca b3bd b79b 773d 6531 c7bd
00000010: f56b ae3d 67ac 953d fb52 aabd 5a9d bcbd
00000020: c030 95bd 966d b33d 9c00 a1bd 802f b2bd
00000030: 1f71 b5bb 1b4f cf3d d0a2 923d 5461 7f3d
00000040: dfcf a4bd 69a5 71bd ead8 d83d ce6a c93d
00000050: 2685 d1bd 16d5 843d 3af9 9f3d 40ad 9dbd
00000060: 3764 bebd 7dc4 ccbd 3f84 a5bd e881 a3bd
00000070: d812 f53d 4e3d cdbd 1d74 ddbd eda4 62bd
00000080: 0e01 a6bd 7348 afbd 3407 bd3d 72b1 8b3d
00000090: fb84 c63d a274 b6bd c3a2 abbd d688 d2bd
000000a0: 7ece b8bd f30c c93d f776 b93d 12c8 a13d
000000b0: 5d43 ce3d c86c bc3d 1f0b a23d 9fc8 58bd
000000c0: 6bd9 b43d c375 dc3d 5b51 acbd 82fd 64bd
000000d0: 1c20 b03d 2626 95bd 8a6e b5bd abc0 bdbd
000000e0: 24ca 22bc 983f b23d abeb c1bd c4b3 a33d
000000f0: b081 a23d b131 1c3d 9e14 603d 802a c6bd
00000100: 4bc0 b23d 3551 9dbd d965 9cbd f568 b43d
00000110: fd3b 5dbd bb2d fb3c 30fc da3d 1ed0 c1bd
00000120: c9a1 c2bd 9da9 8ebd 0865 2bbd c9e2 bfbd
00000130: 6bbd ce3d 311b c5bd e89b c1bd 6595 88bd
00000140: dbac 8a3d 8c06 d8bd 3311 a53d b43d 72bd
00000150: 0298 d03d d240 e63d a988 423d e616 d8bd
00000160: 0528 a73d 32ee a5bd e723 a73d a542 ae3d
00000170: f9f8 bf3d 2957 89bd 1846 c0bd 168a 92bd
00000180: 016b c9bd 84a5 4bbc 8639 ce3d 8944 a2bd
00000190: e385 96bd e734 b4bc fa04 98bd d782 b93d
000001a0: 11e2 8bbd 4f0f d83d 40d1 bb3d 0954 4dbd
000001b0: a25a 31bd 1733 d6bd cda7 c6bd 036a 923d
000001c0: da37 bd3d afb3 8bbd a3cd c7bd 1d7e b23d
000001d0: 8d0d bb3d 6dfb c13d f84e bb3d 5c3d d93d
000001e0: 1040 a3bd 4c77 b2bd 2693 bcbd 31b4 a13d
000001f0: 571e a13d f009 8a3d 3756 ce3d c56e cc3d

reward_backbone.2.weight f4 [128, 128]
-0.032927614 -0.024863994 0.10427556 -0.050255567 -0.12370984 0.026049752 -0.01449788 0.16165672
0.114982806 -0.052210376 0.06392592 -0.11365389 0.073989086 -0.23563564 0.06350011 0.0822133
-0.002243382 0.367056 0.029828282 -0.009233398 0.06580078 -0.17615545 0.18688777 -0.09716503
0.16964915 -0.121545404 -0.14360942 0.12309068 -0.07314451 -0.04813657 0.05288418 -0.08820784
0.056688033 0.09588363 -0.03479603 -0.09821179 0.041644063 0.20323035 -0.015388961 0.040166456
-0.20521791 0.09498946 0.15150987 -0.1532386 -0.07046838 -0.10915271 -0.2787565 -0.09606646
0.06764998 -0.14414048 0.1651537 0.061534133 -0.060667224 -0.040286485 0.12497729 0.18216372
-0.07790261 -0.3304686 -0.0053952755 -0.027301094 0.019411903 0.020936167 -0.20131655 0.13785447
0.036311053 -0.12712301 -0.11829071 -0.35038117 -0.079300955 -0.09132011 -0.15333118 0.04791787
0.24632747 0.15147673 0.32091504 -0.12858509 -0.03532308 -0.20907927 0.004297213 0.02657748
0.07485463 0.072168685 0.20197774 0.11766189 -0.11874614 -0.17224929 -0.25647917 0.015055494
0.24565752 0.19544531 -0.07875532 0.03193391 -0.113445975 0.021468965 0.21083334 0.0030911588
0.068173535 -0.08781676 0.08393183 0.064068355 0.060470365 -0.16349678 0.123475194 0.065013096
0.08301501 -0.08747982 -0.07266204 -0.05513845 -0.08558363 0.065675415 0.09456277 -0.123486735
-0.08393547 -0.07488272 0.02460957 0.06284329 -0.09744751 -0.027340438 -0.100439414 0.21223047
-0.11577684 0.17766121 0.04961982 0.039433587 -0.04508628 0.2378535 -0.13153839 -0.31103352
-0.043926723 -0.13643609 0.1178628 -0.14385056 0.07423877 0.074482754 -0.17034745 0.05954715
0.123400666 -0.02185641 -0.12566364 0.08949888 0.10065234 0.0642188 -0.16335942 0.1138804
-0.11828747 0.16905616 0.14642498 0.21368773 -0.16018108 0.18845893 -0.023418427 0.006565038
-0.22291395 -0.025439322 -0.25390908 0.01823273 -0.13677984 0.06974179 0.044295263 0.19321346
-0.26777565 0.10700096 -0.07676152 0.13621902 0.06966387 -0.14981866 0.119818285 0.3574472
0.03691875 -0.11412059 -0.13127081 -0.024816703 0.15236105 0.07675113 0.054452926 0.051153045
0.33760774 -0.1205878 -0.06875052 -0.16134588 0.05329017 -0.2014786 -0.15061994 -0.04251096
0.07197599 0.013185451 -0.17639689 0.16386713 0.17112428 0.078824796 -0.017376134 0.19848178
-0.102398984 0.013411507 0.12855281 0.18446326 0.15161261 0.08622812 -0.11342659 -0.046313964
-0.23090331 -0.09802236 0.02077352 -0.13834032 0.011837443 0.020354098 0.04930615 -0.026485473
0.10000032 0.035060536 -0.08787582 0.10079599 0.23005864 0.09330214 0.044971406 -0.15030155
0.13023895 -0.1059916 -0.1829249 0.123082206 0.04224411 0.09449985 -0.06514708 0.109040834
0.015520623 -0.11945232 0.18430479 -0.06989889 -0.2047625 -0.011382366 0.0033199312 -0.010834625
-0.05201612 -0.07606713 -0.098997295 0.043541793 -0.004640856 0.19934814 -0.09286042 0.2115039
0.17196943 0.1305035 0.05637668 -0.07656263 -0.02456669 0.13001572 0.36107934 0.19652256
-0.0629394 0.030297808 0.054235734 0.08827534 -0.0053448183 0.09425212 0.0029557447 0.123033874
00000000: 1bdf 06bd 93af cbbc 6d8e d53d c8d8 4dbd
00000010: 965b fdbd 4a66 d53c 8488 6dbc 5789 253e
00000020: 1b7c eb3d 8cda 55bd 98eb 823d 5fc3 e8bd
00000030: 9787 973d 784a 71be 580c 823d 725f a83d
00000040: b405 13bb c4ee bb3e 715a f43c ae47 17bc
00000050: 8fc2 863d 1862 34be 825f 3f3e 76fe c6bd
00000060: 82b8 2d3e ccec f8bd 590e 13be f716 fc3d
00000070: cacc 95bd da2a 45bd 159d 583d 50a6 b4bd
00000080: b631 683d a35e c43d 4886 0ebd 4323 c9bd
00000090: f792 2a3d 9e1b 503e fb21 7cbc 9585 243d
000000a0: a524 52be d689 c23d 6725 1b3e 94ea 1cbe
000000b0: ba51 90bd 758b dfbd 2cb9 8ebe 7ebe c4bd
000000c0: 138c 8a3d 9099 13be 0d1e 293e 370b 7c3d
000000d0: 327e 78bd 7103 25bd 18f4 ff3d 2089 3a3e
000000e0: 678b 9fbd 2e33 a9be daca b0bb 8ba6 dfbc
000000f0: b605 9f3c 5382 ab3c ed25 4ebe b929 0d3e
00000100: e6ba 143d 892c 02be 6642 f2bd 2965 b3be
00000110: 8a68 a2bd 0a06 bbbd d902 1dbe 8745 443d
00000120: 453d 7c3e b71c 1b3e fa4e a43e cfab 03be
00000130: efae 10bd e018 56be a3cf 8c3b 04b9 d93c
00000140: 624d 993d 2dcd 933d 41d3 4e3e b8f8 f03d
00000150: 2d31 f3bd 1e62 30be 3d51 83be 52ab 763c
00000160: a58d 7b3e d122 483e 784a a1bd 22cd 023d
00000170: 5d56 e8bd afdf af3c b2e4 573e 0a95 4a3b
00000180: 919e 8b3d 46d9 b3bd 74e4 ab3d 4536 833d
00000190: c6af 773d b36b 27be 90e0 fc3d 9625 853d
000001a0: c603 aa3d 9f28 b3bd d6cf 94bd dbd8 61bd
000001b0: 7846 afbd d580 863d 20aa c13d 9de6 fcbd
000001c0: 5ce6 abbd 1d5c 99bd 029a c93c fcb3 803d
000001d0: 8f92 c7bd 0ef9 dfbc 2eb3 cdbd f252 593e
000001e0: 681c edbd d2ec 353e 273e 4b3d 1d85 213d
000001f0: 64ac 38bd de8f 733e 00b2 06be c93f 9fbe
00000200: 82ec 33bd e7b5 0bbe 0d62 f13d 904d 13be
00000210: 7f0a 983d 6a8a 983d 906f 2ebe b6e7 733d
00000220: 7db9 fc3d 370c b3bc f8ad 00be 304b b73d
00000230: d022 ce3d 2585 833d b147 27be 213a e93d
00000240: b340 f2bd 0f1d 2d3e 6ef0 153e f5d0 5a3e
00000250: 8206 24be 61fb 403e 00d8 bfbc 881f d73b
00000260: 8e43 64be 2066 d0bc 5f00 82be ce5c 953c
00000270: 0410 0cbe c9d4 8e3d f36e 353d c0d9 453e
00000280: e419 89be 5223 db3d 2535 9dbd 007d 0b3e
00000290: eeab 8e3d 106a 19be 4a63 f53d 5203 b73e
000002a0: 1d38 173d 0eb8 e9bd db6b 06be 664c cbbc
000002b0: 8904 1c3e b22f 9d3d 080a 5f3d db85 513d
000002c0: ecda ac3e bdf6 f6bd 13cd 8cbd db37 25be
000002d0: cb46 5a3d 6850 4ebe 1d3c 1abe f91f 2ebd
000002e0: 2668 933d ca07 583c 63a1 34be c9cc 273e
000002f0: 343b 2f3e e56e a13d 6558 8ebc cf3e 4b3e
00000300: 8fb6 d1bd f0bb 5b3c 59a3 033e f0e3 3c3e
00000310: 5640 1b3e 5e98 b03d 334c e8bd b6b3 3dbd
00000320: eb71 6cbe f2bf c8bd 3b2d aa3c 16a9 0dbe
00000330: d6f1 413c a3bd a63c 3ff5 493d 10f8 d8bc
00000340: f8cc cc3d a39b 0f3d 3df8 b3bd 216e ce3d
00000350: 7e94 6b3e 3115 bf3d f033 383d a6e8 19be
00000360: 5c5d 053e 2012 d9bd aa50 3bbe 8612 fc3d
00000370: 2908 2d3d 2389 c13d d56b 85bd cd50 df3d
00000380: 364a 7e3c 6ba3 f4bd 65ba 3c3e 2627 8fbd
00000390: 43ad 51be 1a7d 3abc 3493 593b b683 31bc
000003a0: db0e 55bd 15c9 9bbd 18bf cabd e158 323d
000003b0: 5212 98bb eb21 4c3e 9b2d bebd 7a94 583e
000003c0: c118 303e b6a2 053e 3ceb 663d decc 9cbd
000003d0: 1540 c9bc d722 053e 64df b83e 363d 493e
000003e0: 5fe6 80bd 1c33 f83c 4a26 5e3d b4c9 b43d
000003f0: 9623 afbb 4107 c13d 2bb5 413b 2ff9 fb3d

reward_backbone.2.bias f4 [128]
-0.069722965 0.06102247 0.057387456 0.055072147 0.06638385 -0.056724764 0.06932553 0.09418208
-0.061448295 0.085794896 -0.075110175 -0.084063135 0.075788885 0.0633526 0.07466176 0.06473063
-0.06861538 0.08962839 0.07458848 -0.061707944 0.06556275 -0.070320524 0.06259918 0.071444966
0.06394302 -0.058529805 -0.06983271 -0.0625003 0.064419806 0.06167093 0.06333951 -0.06207581
-0.067997284 -0.086613365 0.041779686 -0.07196651 0.07359849 -0.061598495 -0.074780405 -0.062953964
0.064570025 0.07168559 0.077918634 -0.12064129 -0.06757342 0.0920092 0.06336373 -0.068288326
0.09522334 -0.06354187 0.07877267 -0.074109755 -0.068702094 -0.07857411 0.10773563 0.07245675
-0.057854414 -0.06549824 0.072792515 -0.085598946 0.06063297 0.11479329 -0.077598415 0.06374566
0.088666454 -0.0631257 -0.06788299 0.095367946 -0.07015929 -0.10448755 0.08037338 -0.061833106
-0.08523558 -0.07191666 0.06395838 -0.07096236 -0.06222978 -0.066641115 0.06989306 -0.06016866
-0.06261032 0.078341946 -0.06106128 0.06777403 0.060923483 0.05911661 -0.07305417 0.078572355
-0.067764364 0.05905165 0.07034827 0.06389831 0.073462084 -0.079929724 0.07155748 0.059590664
-0.06085097 0.07524293 0.09451483 0.07925416 -0.06050217 0.06476948 -0.06051702 0.08000212
0.06414673 0.092494145 0.058476582 -0.07513509 0.05873178 -0.07831504 0.09318698 0.061052438
0.06429458 -0.05910826 -0.05461678 0.07659708 0.06369479 -0.10256251 0.064671226 0.065951034
-0.06551445 0.07047756 -0.06279085 0.06347203 0.06980049 -0.074604884 0.07387612 -0.060357388
00000000: eaca 8ebd b3f2 793d 1c0f 6b3d 5593 613d
00000010: 42f4 873d 3a58 68bd 8bfa 8d3d 89e2 c03d
00000020: 35b1 7bbd 3cb5 af3d 5dd3 99bd 4b29 acbd
00000030: 3437 9b3d 02bf 813d 44e8 983d 7e91 843d
00000040: 3886 8cbd 178f b73d d8c1 983d 78c1 7cbd
00000050: c345 863d 3504 90bd 0034 803d bd51 923d
00000060: 8ff4 823d f3bc 6fbd 7404 8fbd 2800 80bd
00000070: 88ee 833d a89a 7c3d 25b8 813d 3443 7ebd
00000080: 2942 8bbd 5962 b1bd 2d21 2b3d 2d63 93bd
00000090: ceba 963d b44e 7cbd 7826 99bd 02ee 80bd
000000a0: 4a3d 843d e5cf 923d ce93 9f3d c812 f7bd
000000b0: ef63 8abd 526f bc3d d8c4 813d c0da 8bbd
000000c0: 7404 c33d 3d22 82bd 9153 a13d dbc6 97bd
000000d0: afb3 8cbd 77eb a0bd 7fa4 dc3d 3464 943d
000000e0: c0f8 6cbd f123 86bd 3e14 953d 804e afbd
000000f0: 475a 783d bf18 eb3d ebeb 9ebd 168d 823d
00000100: c296 b53d 0c48 81bd 3d06 8bbd 4550 c33d
00000110: adaf 8fbd 92fd d5bd cc9a a43d b644 7dbd
00000120: fe8f aebd 0b49 93bd 9cfc 823d b754 91bd
00000130: a7e4 7ebd 237b 88bd 1824 8f3d 6a73 76bd
00000140: d739 80bd be71 a03d 651b 7abd 1ccd 8a3d
00000150: e78a 793d 4224 723d 6d9d 95bd 8bea a03d
00000160: 0bc8 8abd 25e0 713d c112 903d 1edd 823d
00000170: 4a73 963d 32b2 a3bd ba8c 923d 5715 743d
00000180: de3e 79bd f718 9a3d fe90 c13d 0150 a23d
00000190: 20d1 77bd dca5 843d b2e0 77bd 27d8 a33d
000001a0: 5c5f 833d 926d bd3d 2485 6f3d 6de0 99bd
000001b0: bc90 703d a363 a0bd d1d8 be3d 1f12 7a3d
000001c0: e0ac 833d 811b 72bd d8b5 5fbd eede 9c3d
000001d0: 6a72 823d 4b0c d2bd 5972 843d 5611 873d
000001e0: 712c 86bd 8a56 903d 7d98 80bd a0fd 813d
000001f0: 8ff3 8e3d 72ca 98bd 5d4c 973d 4f39 77bd

cost_backbone.0.weight f4 [128, 22]
0.12013596 0.12309404 -0.024903843 0.33386788 0.13163367 0.11602747 0.11578397 -0.12367263
-0.05541043 0.08810145 -0.26879683 0.1975698 -0.0063147 0.0694678 -0.074481815 -0.08895176
-0.019160096 -0.00039868455 0.099103965 0.043273777 0.13920853 0.08655549 0.14396746 0.09273806
0.03482544 -0.024996305 -0.01900654 -0.12686545 0.064845785 0.13587649 -0.1011594 0.11553612
-0.2682004 -0.046303995 0.15388793 -0.16555862 0.0037981088 0.07707356 -0.06897178 0.0074546253
0.058500495 -0.06830933 0.12556703 0.14985853 0.11906096 -0.061120357 -0.026049126 -0.3123999
0.0024160726 -0.06717493 0.0072747036 -0.09869878 -0.05916385 -0.029514922 -0.1732766 -0.047284193
-0.08909627 0.1935453 -0.0070946836 0.10445565 0.016414266 0.025174329 0.05739059 -0.123583905
0.06563402 0.24870442 0.114738144 0.04686812 -0.016434478 -0.020191345 0.23667993 -0.13405718
-0.07218094 0.06469415 -0.051043194 -0.26757213 0.11786071 -0.04731784 -0.020370489 0.069032
-0.18272528 -0.3903334 -0.02296083 0.17050527 0.0694845 -0.038692124 -0.15159012 0.13438147
0.20493025 0.016394472 -0.16420963 -0.22910565 -0.009435052 -0.060978394 0.015076158 -0.22424449
-0.14689353 -0.033181947 -0.124135695 -0.23269975 -0.030336116 0.055585817 -0.015830861 -0.029482316
0.0019388552 0.14965001 0.21287443 -0.05402483 -0.1779782 -0.04997788 -0.016610503 -0.08206806
0.07014796 0.1799768 -0.11445264 -0.015699865 -0.036551263 0.14169513 -0.058173947 0.026770502
-0.07091193 -0.035851102 -0.15133701 0.146209 0.012459662 -0.104886904 -0.06654233 0.18165757
0.04811045 0.15629426 -0.099384755 0.15490235 -0.12267376 -0.19457777 -0.08387319 0.0147036435
-0.028190488 0.002584488 -0.11278994 0.0126741845 -0.05528938 -0.11991094 -0.029677726 0.021894976
0.004958702 0.126353 0.17774682 0.016315464 -0.0648049 0.014775279 -0.10273079 -0.14374202
0.06001039 -0.25854334 0.17539261 -0.10716865 -0.06536818 -0.068328954 -0.060226683 -0.10083191
-0.08701693 -0.098650366 0.111785695 -0.015566315 -0.06578411 -0.27928662 0.0942864 0.1650327
0.059995882 -0.103158824 0.14073682 0.022979673 0.04726451 0.04744185 -0.09379806 -0.31022608
-0.01656345 -0.17844701 0.09165849 -0.2042509 0.17813791 -0.12693146 -0.07884131 0.006001247
-0.0023735915 0.19438344 0.0828356 0.21408653 0.019244485 0.053517856 -0.109235406 0.032867454
0.11534323 -0.026409704 0.15609224 0.15357779 -0.13903303 -0.085028425 -0.070051484 -0.02534166
-0.05299792 0.2594904 -0.16075204 -0.027882425 -0.30511308 0.005352778 -0.09872853 -0.044271804
0.067311816 -0.01826256 -0.24220538 0.019691516 0.02002971 -0.17159396 -0.016546665 -0.09454752
0.0911354 0.13126738 -0.079017 -0.22181429 -0.02526357 -0.13147153 -0.05663933 -0.10208446
-0.26201072 -0.0754866 0.094846696 0.08788108 0.0480904 -0.047510974 -0.16283758 0.07899345
0.014194335 -0.20759186 -0.15046895 0.091042645 0.08556136 0.40469036 0.16715086 -0.07314017
0.113041595 0.07463241 -0.06388731 -0.09136717 0.21986933 -0.21308501 0.092094354 0.064290255
0.032928303 0.015160282 0.019928018 0.06599389 -0.0064295474 -0.1439802 -0.06150917 0.16660164
00000000: d809 f63d ba18 fc3d 2503 ccbc bbf0 aa3e
00000010: faca 063e cf9f ed3d 2520 ed3d 1348 fdbd
00000020: 0cf6 62bd 886e b43d bd9f 89be bd4f 4a3e
00000030: 8beb cebb 2245 8e3d ec89 98bd 572c b6bd
00000040: a2f5 9cbc 8906 d1b9 05f7 ca3d d83f 313d
00000050: ae8c 0e3e 0144 b13d 356c 133e 74ed bd3d
00000060: 1fa5 0e3d 0dc5 ccbc 9ab3 9bbc 04e9 01be
00000070: decd 843d 3523 0b3e a92c cfbd 349e ec3d
00000080: 9051 89be 42a9 3dbd cc94 1d3e 3388 29be
00000090: b1e9 783b bed8 9d3d 1441 8dbd ee45 f43b
000000a0: 379e 6f3d c3e5 8bbd a594 003e 8474 193e
000000b0: 3cd6 f33d 5759 7abd fa64 d5bc e1f2 9fbe
000000c0: f956 1e3b 0293 89bd a360 ee3b 9622 cabd
000000d0: cb55 72bd 47c9 f1bc 6c6f 31be 12ad 41bd
000000e0: 1b78 b6bd bd30 463e 857a e8bb d8ec d53d
000000f0: 3677 863c 653a ce3c 6512 6b3d 8f19 fdbd
00000100: 216b 863d 5fac 7e3e d5fb ea3d c9f8 3f3d
00000110: 99a1 86bc 5268 a5bc 395c 723e 4946 09be
00000120: 9ad3 93bd 5e7e 843d ab12 51bd 37ff 88be
00000130: f560 f13d 5ad0 41bd 03e0 a6bc a660 8d3d
00000140: 561c 3bbe c8d9 c7be 5a18 bcbc ef98 2e3e
00000150: e44d 8e3d a27b 1ebd 713a 1bbe 4c9b 093e
00000160: 3cd9 513e b34d 863c 9226 28be ac9a 6abe
00000170: 7a95 1abc 7bc4 79bd fd01 773c 59a0 65be
00000180: 426b 16be cbe9 07bd db3a febd d848 6ebe
00000190: 7283 f8bc f4ad 633d b9af 81bc e684 f1bc
000001a0: 2f21 fe3a da3d 193e c1fb 593e 2449 5dbd
000001b0: eb3f 36be 9bb5 4cbd c012 88bc 4d13 a8bd
000001c0: bca9 8f3d d74b 383e 2566 eabd 019d 80bc
000001d0: c7b6 15bd 8718 113e ce47 6ebd d04d db3c
000001e0: 463a 91bd 9bd8 12bd 17f8 1abe d0b7 153e
000001f0: 9c23 4c3c f2ce d6bd 5847 88bd 7104 3a3e
00000200: 770f 453d 9a0b 203e 3c8a cbbd b99e 1e3e
00000210: 613c fbbd 653f 47be b5c5 abbd 8de7 703c
00000220: bdef e6bc 8360 293b 69fe e6bd 62a7 4f3c
00000230: 1e77 62bd de93 f5bd b41e f3bc 185d b33c
00000240: 9b7c a23b ae62 013e 4303 363e 02a8 853c
00000250: 6eb8 84bd 0314 723c 8564 d2bd 1c31 13be
00000260: 74cd 753d cb5f 84be 1f9a 333e 3d7b dbbd
00000270: c1df 85bd 0df0 8bbd 41b0 76bd f680 cebd
00000280: ef35 b2bd 3409 cabd e6ef e43d db09 7fbc
00000290: d2b9 86bd a8fe 8ebe 3a19 c13d 55fe 283e
000002a0: 3ebe 753d ef44 d3bd 501d 103e de3f bc3c
000002b0: 6e98 413d 6352 423d 3319 c0bd f4d5 9ebe
000002c0: 13b0 87bc d0ba 36be 72b7 bb3d 2627 51be
000002d0: c969 363e 52fa 01be 8e77 a1bd 1ca6 c43b
000002e0: 428e 1bbb 740c 473e b6a5 a93d 8039 5b3e
000002f0: 9ca6 9d3c 8a35 5b3d d0b6 dfbd 06a0 063d
00000300: 1239 ec3d 2a59 d8bc a5d6 1f3e 7f43 1d3e
00000310: ad5e 0ebe 6223 aebd 2777 8fbd 5099 cfbc
00000320: 5914 59bd eddb 843e 2f9c 24be af69 e4bc
00000330: c837 9cbe 5b66 af3b 2f32 cabd 5a56 35bd
00000340: c7da 893d 5d9b 95bc b004 78be 1a50 a13c
00000350: 5915 a43c 54b6 2fbe df8c 87bc 21a2 c1bd
00000360: 32a5 ba3d f56a 063e aad3 a1bd 4923 63be
00000370: 8cf5 cebc 79a0 06be a4fe 67bd a811 d1bd
00000380: 4526 86be b898 9abd fc3e c23d fffa b33d
00000390: 70fa 443d de9a 42bd e5be 26be 51c7 a13d
000003a0: 5b8f 683c f692 54be 8814 1abe 9174 ba3d
000003b0: cb3a af3d 9333 cf3e 9829 2b3e 83ca 95bd
000003c0: 5a82 e73d e1d8 983d 5ad7 82bd b61e bbbd
000003d0: 6d25 613e f532 5abe f79b bc3d 9caa 833d
000003e0: d4df 063d d562 783c 1540 a33c ce27 873d
000003f0: f4ae d2bb 8c6f 13be 0af1 7bbd 9f99 2a3e

cost_backbone.0.bias f4 [128]
0.05076028 0.056821465 -0.049223624 -0.077874996 -0.021596197 0.042453416 0.056336123 0.03972572
0.031608842 0.04978908 -0.03319784 0.050945684 0.046077862 -0.03467016 0.029149892 0.035569254
0.03325599 0.02670893 -0.029458182 -0.002514507 -0.03209342 0.038622547 -0.040813945 -0.020359522
0.05912388 0.04661907 0.036102246 -0.038131107 -0.039255876 0.04865731 0.04514959 -0.04080222
-0.047130708 -0.03595659 -0.041693706 -0.04532147 0.04979429 0.034597766 -0.04528962 -0.034510113
-0.0016593073 -0.06077128 -0.033242114 0.048586193 0.041739676 0.03921239 -0.034350388 0.04208187
-0.030244434 0.024252983 -0.04423534 -0.048454557 0.038929414 -0.03236859 0.050075218 -0.05778356
-0.03518857 -0.049388733 -0.057124797 0.03133471 -0.038635567 0.010241511 -0.04369481 0.045452297
0.048791446 0.06091883 -0.047333054 0.033521675 0.036459133 -0.014656223 -0.04806975 0.06092078
0.054261163 -0.0296549 -0.057940833 0.057596724 0.046111096 -0.042038396 0.036809713 0.05096443
-0.036051042 -0.045458086 0.05164358 0.05286308 0.053777505 0.04724569 -0.060853772 0.0019183228
0.022374343 0.053671923 -0.05073756 0.04306876 0.045493186 -0.05368104 -0.03855309 -0.047743857
0.04073578 -0.035555933 -0.050377592 0.05577431 0.05104068 0.03928211 -0.03363219 0.058813184
0.047562268 0.031811 0.028860282 0.0064427266 0.04529272 -0.06978152 -0.066084154 0.052336857
0.046201482 -0.0119760055 0.046933897 -0.04955435 -0.04601942 -0.053900305 0.058666296 -0.04332552
0.043194745 0.055152252 0.018863976 0.053644534 0.040946428 0.045086116 0.04867802 0.04291638
00000000: 03ea 4f3d a0bd 683d b69e 49bd ed7c 9fbd
00000010: 82ea b0bc a2e3 2d3d b5c0 663d 70b7 223d
00000020: 4678 013d a2ef 4b3d 75fa 07bd 6cac 503d
00000030: 24bc 3c3d 4c02 0ebd c1cb ee3c 11b1 113d
00000040: 6f37 083d b0cc da3c 4952 f1bc 6dca 24bb
00000050: 6474 03bd ad32 1e3d 862c 27bd 03c9 a6bc
00000060: e22b 723d a3f3 3e3d f3df 133d 5d2f 1cbd
00000070: c5ca 20bd e34c 473d c7ee 383d 3b20 27bd
00000080: 210c 41bd 3847 13bd 05c7 2abd 01a3 39bd
00000090: 19f5 4b3d 63b6 0d3d 9c81 39bd 7a5a 0dbd
000000a0: 1d7d d9ba 4eeb 78bd e228 08bd 5102 473d
000000b0: 39f7 2a3d 2c9d 203d feb2 0cbd 0a5e 2c3d
000000c0: 2dc3 f7bc 31ae c63c 1e30 35bd 4978 46bd
000000d0: 7374 1f3d ed94 04bd ac1b 4d3d 74ae 6cbd
000000e0: e421 10bd d74b 4abd b1fb 69bd d358 003d
000000f0: 5440 1ebd 03cc 273c 54f9 32bd 302c 3a3d
00000100: 8ad9 473d 0686 793d 4ee0 41bd 064e 093d
00000110: 2c56 153d a820 70bc c9e4 44bd 1188 793d
00000120: f440 5e3d d5ee f2bc 5e53 6dbd 8bea 6b3d
00000130: fdde 3c3d 7430 2cbd c8c5 163d 14c0 503d
00000140: 42aa 13bd 4232 3abd 3888 533d f586 583d
00000150: cd45 5c3d b284 413d ce41 79bd 3b70 fb3a
00000160: 664a b73c 17d7 5b3d 30d2 4fbd de68 303d
00000170: 1057 3a3d a6e0 5bbd d8e9 1dbd 108f 43bd
00000180: 90da 263d 19a3 11bd bc58 4ebd 9a73 643d
00000190: 0810 513d 47e6 203d e8c1 09bd 18e6 703d
000001a0: a7d0 423d 404c 023d 666c ec3c 821d d33b
000001b0: dc84 393d 9de9 8ebd 2157 87bd 2c5f 563d
000001c0: c43d 3d3d 0237 44bc c23d 403d 81f9 4abd
000001d0: dc7e 3cbd 91c6 5cbd 124c 703d 1a76 31bd
000001e0: f9ec 303d 54e7 613d a088 9a3c 5fba 5b3d
000001f0: 71b7 273d 38ac 383d 9a62 473d 16c9 2f3d
