outputs/E1_penalty_fixedlambda_sweep/penalty_fixed_seed0_lE1.0_lL1.0/best_feasible.pt (torch, 981939 bytes, 68 tensors)

actor_backbone.0.weight f4 [128, 22]
000000 e9 5a 02 be de 06 0e 3d f2 ee 8d 3e 53 b0 61 3d
       -0.12729992 0.034674518 0.27721363 0.055099797
000010 45 fb ad bd 97 00 2d bd 2e 85 9e bd f5 81 fb 3c
       -0.084951915 -0.04223689 -0.07740246 0.030701617
000020 24 82 c6 bd a0 02 29 3e 0a 64 b8 bc 7f 6d 83 be
       -0.09692791 0.16504908 -0.02250864 -0.25669476
000030 bf b3 11 3c 55 09 f2 3d d5 57 27 be dd 47 97 3d
       0.008892952 0.11818186 -0.16342099 0.07386754
000040 64 df b5 3c 5e ed 75 bd 07 1b 7e 3e d0 68 8a 3d
       0.022201248 -0.060040824 0.24814998 0.06758273
000050 36 1b 3a 3e ac 3b 36 be 84 44 b4 bc 30 13 6a 3e
       0.18174443 -0.177962 -0.022005327 0.22858882
000060 31 31 61 be a7 b2 e3 bd 4f 4c 04 be 95 14 82 3d
       -0.21991421 -0.111180596 -0.12919734 0.06351582
000070 db 68 e3 3c 07 3e e1 bd 1d 82 52 3e 02 8e 66 3d
       0.02775996 -0.10998159 0.20557447 0.056287773
000080 ea fa 51 3e ad 7c f3 bc f8 fb 44 be 5c dd 1d 3c
       0.20505872 -0.029722536 -0.19236743 0.009635296
000090 a0 74 13 3c f8 32 1f 3e 3d b6 90 3c 00 67 e9 bc
       0.008999974 0.15546787 0.017665023 -0.028491497
0000a0 8c 63 df bc 83 5b 1c be 98 c3 42 3d 33 d0 0e 3e
       -0.027269147 -0.15269284 0.047549814 0.13946609
0000b0 a2 10 36 be 94 59 36 3d 4b 9c 9e bd 52 da 49 3d
       -0.17779782 0.044519022 -0.07744654 0.049280472
0000c0 87 f9 89 bd 58 2e 4d bd 9e 15 56 bc 94 2e 9e 3d
       -0.06737047 -0.050093025 -0.013066677 0.07723728
0000d0 00 be 54 3d f2 cd ee bc 46 29 25 be 81 3f 26 3d
       0.05193901 -0.029150937 -0.16129026 0.040587906
0000e0 50 5f 30 3d 3b 57 18 3b d6 fe 28 3e 85 d5 0b 3b
       0.043059647 0.0023245353 0.16503462 0.0021336984
0000f0 a1 b4 66 be 13 b0 09 3d fc c3 dd bd 71 0e 6a bd
       -0.22529842 0.033615183 -0.10828397 -0.05714268
000100 c1 0d d7 3e dd b6 cf bd 83 9d e5 bd b5 d2 c8 3e
       0.4200268 -0.101423 -0.112116836 0.39223257
000110 72 ae 44 bc a7 a9 0a be f4 33 d7 bc 30 ab 94 bd
       -0.012004482 -0.1354128 -0.02626989 -0.07259214
000120 91 73 1a bc 82 7f c3 3d f5 15 14 be bb b4 63 3d
       -0.009426967 0.095458046 -0.14461501 0.05559228
000130 88 ea fa bc 9b 1b 10 be de 95 80 3c 4d a3 53 3e
       -0.030629411 -0.1407303 0.015696462 0.20667763
000140 46 60 82 bc 8e 52 8e bd da db d9 3d af 1b 90 bc
       -0.015915047 -0.0694934 0.106376365 -0.017591326
000150 d2 53 ed 3c e7 c5 10 3e 34 8c 9b bd 6c ca 83 3d
       0.028970633 0.14137994 -0.07595101 0.06435093
000160 10 ba dc be da 55 c1 bb d1 fe 96 3e 7d cc 33 be
       -0.43110704 -0.005900127 0.29491284 -0.17558475
000170 85 49 b4 3d 72 fc b3 bc 28 ed 56 be b6 77 e7 3d
       0.08803085 -0.021970961 -0.20988905 0.1130213
000180 ad b2 e0 3c be cb c8 3d b7 14 b1 bd eb 32 ad 3b
       0.02742895 0.09804486 -0.08646529 0.005285611
000190 4a 4a e8 bd d7 40 9c 3c 55 8b 0a 3e 2e 95 97 bd
       -0.113422945 0.019073887 0.13529713 -0.07401501
0001a0 37 00 cf 3c e7 f6 14 3d 14 75 61 bc 87 94 cd bd
       0.025268657 0.036368277 -0.013760824 -0.10038095
0001b0 0c 02 b5 3c 62 21 d1 bd c9 48 71 bd 21 d7 91 be
       0.022095703 -0.102114454 -0.058907304 -0.28484443
0001c0 50 bf 13 3e 98 ab 82 3d 78 51 bb 3d e4 09 e1 bb
       0.14428449 0.06380385 0.09146398 -0.006867634
0001d0 a7 62 b9 bd 01 94 71 bd a4 4a 67 bd ed aa d7 bd
       -0.090520196 -0.05897904 -0.056467667 -0.105306484
0001e0 07 4e 13 3e 57 a7 bb bd 40 40 07 bd 27 dd 2e 3e
       0.14385234 -0.09162777 -0.033020258 0.1707655
0001f0 89 b0 76 be 6b 0b 2e bd dd b2 34 be fb 0f be bd
       -0.2409078 -0.042491358 -0.17646356 -0.09280392
000200 6c 56 e9 be 71 15 4a 3d 29 88 21 3d 56 d3 17 3e
       -0.45573747 0.049336854 0.039436493 0.14826712
000210 b1 47 51 be b9 c8 a0 bd d5 cd 3f bd 46 d9 8a bc
       -0.20437504 -0.07850785 -0.046827156 -0.016949307
000220 f5 1e 2a be 02 86 55 be c0 65 39 3d aa cf 98 bd
       -0.16613372 -0.20851901 0.045263052 -0.07461484
000230 80 b9 ab 3d c9 99 2e be b4 c6 2a be e8 f6 65 3e
       0.08384991 -0.17050852 -0.16677362 0.22457469
000240 b3 4f 38 bd a7 b1 63 be 5e 71 a2 bc d7 97 26 3e
       -0.044997882 -0.22235738 -0.019829448 0.1626886
000250 be f0 71 3e e7 89 a4 bc 17 a1 0e be a8 e8 aa bc
       0.23626992 -0.020085288 -0.13928638 -0.020862892
000260 9e 41 88 3e e1 7d 5b be 65 29 39 3e d3 a8 e6 be
       0.26612562 -0.21434738 0.18082197 -0.45050678
000270 b9 f3 00 3c f5 de 15 3e 8e d1 eb 3c a1 a4 0f bd
       0.007870608 0.14635833 0.028786447 -0.03506911
000280 77 75 a0 bd 89 bd 96 bd 74 c7 c4 bb bf d3 8d 3d
       -0.07834905 -0.0736037 -0.006005222 0.06925153
000290 0b 91 03 be 4f 70 67 be b6 91 62 3d 6f 08 d2 bc
       -0.12848298 -0.22601436 0.055314742 -0.025638787
0002a0 a0 d9 17 3e 25 3b 25 bd 86 d5 4f bd e3 21 eb 3d
       0.14829111 -0.040339608 -0.05074074 0.11481073
0002b0 c6 59 a2 3d 74 61 43 3e c4 b0 cc 3d f6 4d b1 3c
       0.07927279 0.19080144 0.09994653 0.02164362
0002c0 78 96 27 3f 51 a0 92 3d ad 05 f6 3d fa 92 09 bc
       0.6546397 0.07159484 0.12012801 -0.008396858
0002d0 6e c9 14 be e2 99 cc 3d 53 fd 0c be 5d fe ca 3d
       -0.14529964 0.09990288 -0.1376851 0.09911797
0002e0 8b 91 cc bb 1d ac 4f bd 78 5d 9b 3d 04 6c 33 bd
       -0.006242936 -0.05070125 0.07586187 -0.043804184
0002f0 89 7c ad bc 4d 79 43 bd 4c b9 2f bc e9 8a 1a bd
       -0.021177547 -0.047723103 -0.010725331 -0.03773013
000300 ea 79 93 bd 64 bf 95 3d b1 d2 8e 3d bc 08 64 3d
       -0.07200988 0.073118955 0.0697378 0.055672392
000310 44 8c 73 3d 78 1f 8e 3e cc 8d 95 be 6c e3 8f be
       0.05945994 0.27758384 -0.29209745 -0.28103197
000320 4f 29 3a 3e ab 26 90 3d 5b 3a c8 3d 4c bc 97 bd
       0.1817982 0.07038625 0.097767554 -0.07408962
000330 bd 83 bf 3c cc ec 22 3d 97 a3 92 3d 9a 39 91 be
       0.023378247 0.03977661 0.071601085 -0.2836426
000340 af c5 4b 3d d3 e2 1a 3e f4 13 36 bc 5c 6a d7 3c
       0.049749073 0.15125589 -0.011113156 0.026295833
000350 82 22 2b be aa 97 d6 bb cf 64 08 bd 95 a5 20 bd
       -0.16712382 -0.0065488415 -0.033299264 -0.03922041
000360 64 be 08 be ce cd 88 3d d5 a2 78 3e 2c 7e 9c bd
       -0.13353878 0.06679879 0.24280865 -0.07641253
000370 88 0d b1 3e a5 d0 bd bc 6a 07 a2 bd 06 c1 06 3d
       0.34580636 -0.023170779 -0.0791157 0.032898925
000380 7e b9 6c 3c 07 a0 0a be 4f b5 01 bd 0c 75 b7 3d
       0.014448522 -0.13537608 -0.03166705 0.08957872
000390 a2 93 c2 bd f4 87 cc 3c b6 da 20 3e 28 a2 b2 bc
       -0.09500815 0.024967171 0.15708432 -0.021805838
0003a0 29 40 3b 3d 3a f3 f8 bd f4 35 0f bc 32 82 47 bd
       0.045715485 -0.12155767 -0.008740891 -0.04870815
0003b0 9e ab b8 bc 5e 4c 99 bd 24 8a 55 3e 9c c5 fd 3a
       -0.022542771 -0.07485269 0.20853478 0.001936126
0003c0 a1 7d a5 3d 4a 96 03 3e ee a3 32 be 55 e0 1d 3e
       0.080806024 0.128503 -0.17445347 0.15417607
0003d0 bd 56 b4 3c c8 8f c3 bd 5e 65 19 be 08 80 87 3d
       0.022014016 -0.095489085 -0.14980075 0.06616217
0003e0 9e f4 24 bd 4e 97 00 be c6 5f e7 bd f1 95 53 be
       -0.040272348 -0.12557718 -0.11297564 -0.20662667
0003f0 22 42 cd 3d 33 03 5e 3e 78 16 82 bc 08 2b 23 bc
       0.100223795 0.21680908 -0.015879855 -0.00995899

actor_backbone.0.bias f4 [128]
000000 6d 6f 8f 3d ee 65 bc be 83 79 86 be 8e 93 60 be
       0.07003675 -0.36796516 -0.2626458 -0.21931288
000010 4a 19 ae 3e 56 64 eb bd 57 a6 05 be c6 f0 9c 3e
       0.3400367 -0.11493747 -0.13051735 0.30652446
000020 fd 4a b9 be 00 49 2c be 29 81 b9 be 6a 7a 5c 3d
       -0.36190024 -0.16824722 -0.36231354 0.05382768
000030 c6 6a 8a 3e 21 89 c9 3c 91 ae de bc 23 03 a7 bd
       0.27034587 0.024601521 -0.02718285 -0.08154895
000040 d9 14 54 3e 11 f2 d6 3e 46 9d ab 3d 4e 48 c0 bd
       0.20711078 0.41981557 0.08379607 -0.09388791
000050 3b 1f f9 bd 43 8b d0 3e 30 a9 99 3e 5b 3c 53 be
       -0.1216416 0.40731248 0.30011892 -0.20628493
000060 3f a6 a5 3e 17 e6 bd 3e 8a 99 a4 3d 3a 96 e5 be
       0.32353398 0.37089607 0.08037098 -0.44841176
000070 52 2e b2 be 59 4b ae 3e 7a ae a9 be b1 5e 8b 3e
       -0.34800965 0.3404186 -0.33140928 0.2722068
000080 4a 45 87 be ee d5 54 be e5 96 bc be 09 2a 1d 3d
       -0.2642005 -0.20784733 -0.36833873 0.038370166
000090 93 41 f7 bd 19 e2 4e be 90 e7 7b 3e ed 9d ac be
       -0.12073054 -0.20203437 0.24600053 -0.33714238
0000a0 be 04 d1 3e 44 5d 63 3d a7 87 8a 3b 14 d5 b6 bd
       0.4082393 0.055508867 0.004227597 -0.0892736
0000b0 21 94 6f 3e 95 54 66 bc ad 44 2b be a7 78 4f 3e
       0.2339635 -0.014058252 -0.16725416 0.20260869
0000c0 17 ae f0 3d c6 fe b0 be d5 23 58 3e d7 fb 8e 3d
       0.11751955 -0.34569377 0.21107419 0.069816284
0000d0 20 b0 ba 3e e8 b0 9f 3e c3 c8 8a 3e a9 22 83 be
       0.36462498 0.31189656 0.27106294 -0.2561238
0000e0 2a b9 81 3e 80 10 6a be b0 4d ce 3e 66 c0 ab bc
       0.2533658 -0.22857857 0.40293646 -0.020965766
0000f0 8c bf ac bc 8d 90 86 be 6a 1a f9 3c 5d be 78 bd
       -0.02108743 -0.26282158 0.030408103 -0.06072842
000100 12 8f 07 bd a9 12 5f 3c aa 37 03 bd f3 d0 79 3e
       -0.033095427 0.013615289 -0.032035507 0.24396114
000110 52 21 b4 be 32 4d 32 3d 78 c9 07 3e d4 6d 91 bc
       -0.3518167 0.04353065 0.13260448 -0.017752565
000120 b8 3e 08 be c7 32 3a 3e c2 fe 96 3e 83 26 d4 3e
       -0.13305175 0.18183433 0.2949124 0.41435632
000130 35 d3 9f 3d 04 98 b5 3e f2 aa 4a be 44 95 d3 3e
       0.078039564 0.3546754 -0.19791773 0.41324818
000140 74 88 a5 be e7 0a 29 be 45 c8 5d 3e 55 be cc be
       -0.32330668 -0.16508065 0.21658428 -0.39988962
000150 a5 8b c9 bd da 58 b5 be 7b f2 13 bd 59 1d 29 3e
       -0.09841088 -0.3541935 -0.03611992 0.16515101
000160 c1 91 ae 3e 75 f4 cf 3e 3d f7 c5 be e0 ae 84 be
       0.34095576 0.40616193 -0.3866519 -0.2591467
000170 a9 ae 96 be 9d 85 17 be 85 60 cb be 1b 81 2f 3e
       -0.2943013 -0.14797063 -0.39722076 0.17139094
000180 d8 c5 37 be fd 50 6f 3e c9 cf 85 3e e8 a4 97 be
       -0.17946565 0.23370738 0.2613509 -0.29618
000190 f6 4e 8c be 0f 9e d6 be 1d 04 77 be 24 a9 14 3e
       -0.27403992 -0.41917464 -0.24122663 0.14517647
0001a0 32 10 79 bd 78 d3 9b 3e 2c 77 86 be bc aa 86 3e
       -0.06080646 0.30434775 -0.26262796 0.26302135
0001b0 7c 13 c4 be 5b 82 a6 bd 60 09 b8 3e 94 75 94 bc
       -0.38296115 -0.08130332 0.35944653 -0.018122472
0001c0 cf 94 c0 be 1f 30 87 3e 00 2d 64 3e 90 56 c1 3e
       -0.37613532 0.264039 0.22282791 0.37761354
0001d0 11 b9 82 3e 94 5c 0d be 20 9c 74 be ca bf 4c 3e
       0.2553182 -0.13804847 -0.23887682 0.19995037
0001e0 2c af 45 3e 07 9a 72 3e 50 01 72 be a9 04 c4 3e
       0.19305104 0.2369157 -0.23633313 0.38284805
0001f0 7f dd c2 3e ad 04 71 3c 86 66 e7 3d 06 0f 33 3d
       0.38059613 0.014710587 0.11298852 0.0437155

actor_backbone.2.weight f4 [128, 128]
000000 f7 e6 32 bd 5f c6 81 bd 28 2e 0f be 96 68 35 3c
       -0.043677296 -0.063366644 -0.13982451 0.0110722985
000010 bd 67 f8 bd 20 f2 1f 3d e9 14 a6 3d 2e 7f 19 be
       -0.121291615 0.039049268 0.08109457 -0.14989921
000020 60 ce be 3c b9 39 9b 3c 49 55 5d be 04 1a 16 bd
       0.023291767 0.018948423 -0.21614565 -0.036645904
000030 6d f7 a0 3d 76 b8 31 bb 22 06 af 3c 6c 7a 50 be
       0.07859693 -0.0027118004 0.021365229 -0.203592
000040 0a fa 6c 3d a7 df 34 3e 6c cd 94 3d eb e9 86 3d
       0.057855643 0.17663442 0.072657436 0.06587585
000050 5d 0e 6e 3e 4c b0 b1 3e 2d 6c c2 3d c2 93 f7 bd
       0.23247667 0.34704816 0.09493289 -0.120887294
000060 3b b7 9d 3c e2 43 93 bc 2b 46 2d 3e 1a 29 be 3c
       0.01925241 -0.017976705 0.16921298 0.023212958
000070 44 28 90 be d3 25 69 3e 8c 3e 13 be 72 f6 af bd
       -0.2815572 0.22768335 -0.14379328 -0.085919276
000080 4e 2b 0f 3e ac 39 d4 3d f6 cc 0a be e5 4a ba bd
       0.13981363 0.103625625 -0.13554749 -0.09096316
000090 e5 05 4e 3e 21 28 89 3c 0a 10 4c 3e fb e1 5c be
       0.20119436 0.016742768 0.19927993 -0.2157058
0000a0 56 f0 2a 3e 0b 0d 3b 3e 00 e6 46 3d 60 ce de bd
       0.16693243 0.18266694 0.04855919 -0.10879207
0000b0 ea 74 8c bc 08 90 76 be 13 21 db bd 1a 41 1c bd
       -0.017145593 -0.24078381 -0.10699668 -0.038148023
0000c0 86 f1 b5 bd df 2c fc 3d 4f c2 9d 3c e5 e5 ed 3d
       -0.088839576 0.12313246 0.019257693 0.116161145
0000d0 e2 00 c3 3d 5c 9e 22 be bf 2f 8c bc ed d6 86 be
       0.09521653 -0.15880722 -0.01711261 -0.2633585
0000e0 ad de dd bd 26 7d a1 bc 90 ae e6 3d a8 3c 00 3e
       -0.10833488 -0.019712996 0.11263764 0.12523139
0000f0 72 81 a6 3d 52 0b 73 3d c1 26 39 bd 3f 81 be 3d
       0.081301585 0.059336968 -0.045202974 0.093019955
000100 70 73 7f be 09 4e b4 3d 63 04 2c 3d 02 a8 07 3e
       -0.2494638 0.088039465 0.04199637 0.13247684
000110 1c ac d5 bd 1e 74 42 be aa d8 ea 3b 19 7d 70 3d
       -0.10433218 -0.18989608 0.0071669417 0.058713052
000120 0b 36 a1 3d 1a 65 5e 3e ad 07 bf 3d 8a 17 9d 3e
       0.07871636 0.21718255 0.09327636 0.3068202
000130 6c 7e 17 be a5 fd 05 3d c0 10 87 bd 30 b3 15 3d
       -0.1479432 0.032712597 -0.06594992 0.03654784
000140 51 69 5b bc a3 80 27 be 47 d3 1d be 1d 9a 4f bd
       -0.013391809 -0.16357665 -0.15412627 -0.050684083
000150 51 c6 d7 3c 91 32 3e 3d 73 ef 41 3e fd 3b 0c be
       0.026339682 0.046434943 0.18938999 -0.13694759
000160 02 3b 89 3d 64 ce 79 3e 66 f4 ab 3d 74 75 8c 3d
       0.06700708 0.24395138 0.08396225 0.0685834
000170 18 f7 84 3e 41 16 a6 be 4a b2 a0 3c c8 83 2e 3e
       0.25969768 -0.32438853 0.019616265 0.17042458
000180 ae 5d e6 be 5e 14 6b bc 51 31 02 be 97 24 85 be
       -0.44993347 -0.014348118 -0.12714125 -0.26004478
000190 ff 3a 84 be 9f bb 45 3e 2b f1 c0 bd 44 83 17 be
       -0.2582626 0.19309853 -0.09420999 -0.14796168
0001a0 6a 8c ee bd 75 b3 f8 3d c2 10 5e 3d af 91 8e be
       -0.116478756 0.12143604 0.0542152 -0.27845523
0001b0 4b 92 e9 3c c7 47 32 bd 2b ed 7c 3e 59 78 5e bd
       0.02851214 -0.043525483 0.24699847 -0.05431399
0001c0 5c 3c bd 3d 47 ff 2a 3e c2 6e 7b 3e a4 f4 b4 3c
       0.09240028 0.16698943 0.2455397 0.02208931
0001d0 c2 da a9 3d 70 88 1c be 4b bd 64 3d ed a9 e2 3d
       0.08293678 -0.15286422 0.055844586 0.11067567
0001e0 76 29 88 bb 1d ca 20 3d ed 3e ab 3d ad 7e a9 3d
       -0.004155333 0.03925525 0.083616115 0.082761146
0001f0 3a cc 3e bd 4a e6 39 3d 51 83 8c 3e 31 ba 6f 3e
       -0.046581484 0.045385636 0.27443936 0.2341087
000200 64 4b 3e 3d f8 b3 ac 3c b2 4a 34 3e 40 09 49 be
       0.046458617 0.02108191 0.17606619 -0.19632435
000210 50 5f 90 3d f1 25 27 3e d1 30 9c 3c 8c 48 6a bd
       0.070494294 0.16323067 0.019066246 -0.057198092
000220 54 5a 2c 3e ee 2c e7 3d 95 f9 6e bc 3f e1 2a 3e
       0.16831332 0.112878665 -0.014585872 0.16687487
000230 a9 93 b2 3e f1 ab 90 bd 87 44 89 ba 67 f3 74 be
       0.3487828 -0.07064045 -0.0010472693 -0.23920976
000240 81 5f 04 be d8 a7 9a 3d 3f 96 6d be 68 d7 68 3d
       -0.12927057 0.07551545 -0.23201846 0.056846052
000250 36 16 0b 3d 11 62 0a 3d b8 71 80 3c 0d 20 4f be
       0.03395673 0.03378493 0.015679225 -0.2022707
000260 13 81 20 be 27 37 2a be 8b a5 33 bd b2 1c b9 3d
       -0.15674238 -0.16622601 -0.043859046 0.09038676
000270 30 c5 bf be be a3 30 3e 57 98 2c be ee 6f 84 3d
       -0.3745513 0.17249963 -0.16854988 0.064666614
000280 8f 90 cb 3d a8 dd 73 bd 7d aa 06 3d 8a ad ad 3c
       0.09939682 -0.05953756 0.032877434 0.021200914
000290 45 44 a6 bd d1 28 7a bd 0b 2e 8b bd 36 b2 24 be
       -0.0811849 -0.06107408 -0.067958914 -0.16083607
0002a0 fe d9 fb bc 63 6c 58 3e 15 29 93 3d 05 d1 f3 b9
       -0.030743595 0.21135096 0.0718557 -0.00046504303
0002b0 3c 6d 7e be 9d 69 86 bc 7d 98 a2 3d 50 e9 22 3d
       -0.24846357 -0.016407782 0.07939241 0.039773285
0002c0 f1 bd d3 bc 7e cc de 3d a5 ec 63 3e 3b 5f 4b be
       -0.025847407 0.108788475 0.22258241 -0.19860546
0002d0 8b 68 67 3d d2 1e 40 bd 71 f8 28 bb 5d 49 2c 3e
       0.056496184 -0.046904393 -0.0025782848 0.16824861
0002e0 02 0b e9 3d 4c b7 06 be 74 49 3f 3c 63 b5 59 be
       0.11379053 -0.1315586 0.011675227 -0.212606
0002f0 63 03 a6 3d d0 3d ec 3d 8f 33 02 be 5a 08 1c be
       0.08106115 0.11535227 -0.1271498 -0.15237561
000300 9d 13 fe bd aa 8b 3e be 4b d4 f1 bd 91 c7 0f bc
       -0.12406085 -0.18607965 -0.1180807 -0.008775608
000310 04 a6 0a be f7 ac a1 bd 48 2c 63 be 53 67 a9 bd
       -0.13539892 -0.078943186 -0.2218486 -0.08271661
000320 1b c1 01 be 07 0e 33 3e 0b 11 d3 bd 8a 71 34 3e
       -0.1267132 0.1748582 -0.10305985 0.17621437
000330 40 55 90 bd ee 33 76 be f2 85 ed 3d 01 c3 9d 3d
       -0.0704751 -0.24043247 0.11597814 0.0770321
000340 58 13 7d 3e 65 83 fd bd 1b d1 64 bd 4e 0b f7 bd
       0.2471441 -0.12378577 -0.05586348 -0.12062703
000350 7a e9 a4 bc b5 62 36 be a1 73 5f 3c 3d 2c 3d 3e
       -0.020130862 -0.17811091 0.013638408 0.18473907
000360 ae f7 54 bc 4b b2 5b bd 34 3f 88 bd fc 05 02 be
       -0.012998505 -0.05363683 -0.0665268 -0.12697595
000370 a2 a4 82 bd f6 ba 07 be b4 7e 09 bd df d5 a7 be
       -0.063790575 -0.13254914 -0.0335681 -0.32780358
000380 e3 6f 01 be e8 04 a3 be 7e d5 45 3e 64 43 99 bc
       -0.12640338 -0.3183968 0.19319722 -0.018708892
000390 61 0b 6c 3c 8d 8c 32 be 30 94 aa 3e 87 33 b4 3c
       0.01440701 -0.17436428 0.33316183 0.021997226
0003a0 d9 ed 23 bd 54 c9 3a be 55 bd ce bd 1e ed a3 bd
       -0.04002175 -0.18240863 -0.10094706 -0.08004211
0003b0 02 de b3 bd 0f 81 7a be ce 11 1a 3e 23 bc 56 bd
       -0.08782579 -0.24463294 0.15045854 -0.052425515
0003c0 03 73 1f bd 3d 5f fc bb 4a fe ed 3b 97 3d d0 3d
       -0.038928043 -0.007701783 0.0072629796 0.10167997
0003d0 fb 40 46 3e 17 be 8e 3d 34 5e 66 be 47 3c 97 bd
       0.19360726 0.069698505 -0.22496873 -0.07384544
0003e0 78 92 b1 3d 3a d8 db 3d ea 65 a9 3e 71 31 01 be
       0.08670515 0.10734601 0.33085567 -0.12616517
0003f0 97 ae 07 3e c6 2d 44 3e ef 95 6a 3a e5 52 66 bb
       0.13250194 0.19158086 0.00089487334 -0.0035144624

actor_backbone.2.bias f4 [128]
000000 ce 96 35 3e 62 04 60 3d 12 ad 0f 3e 53 db 0f 3c
       0.17733309 0.05469168 0.14030865 0.008780318
000010 58 e8 94 3e b3 a6 91 be 0a 77 de ba d6 9a 99 3e
       0.29083514 -0.28447494 -0.0016972732 0.30000943
000020 b4 38 e3 bd 41 92 a8 be eb 08 94 3e cc 8c 94 3e
       -0.110948 -0.32924083 0.28913054 0.2901367
000030 60 88 e9 3d a0 77 56 3e b4 59 a2 be 69 46 15 be
       0.114029646 0.20944071 -0.31709063 -0.1457764
000040 4e 31 ab 3e 7c 41 23 3e 23 f6 85 be a5 dc 97 3e
       0.33436054 0.15942949 -0.2616435 0.29660526
000050 81 1d 14 3e 64 94 48 3d bf e3 a4 3e e0 ad 6e 3e
       0.1446438 0.04896964 0.32205006 0.23308516
000060 dc 19 b8 3e a1 72 57 3e 41 2d 97 bd 9d 75 97 3d
       0.3595723 0.21039821 -0.073816784 0.0739548
000070 e9 ed d9 bc 64 43 5d 3e a1 e0 bc be bc 3d 6c 3e
       -0.026602702 0.21607739 -0.36890128 0.23070425
000080 dd a5 21 be 2c 88 cf 3d f9 d1 af 3d a6 03 51 3e
       -0.15785928 0.101333946 0.08584971 0.20411548
000090 62 2a 13 3e ec 86 a2 be 57 31 26 be 8e 5a ca bd
       0.14371637 -0.31743562 -0.16229759 -0.09880553
0000a0 80 aa bb 3e e6 86 fe 3c 18 cb 75 3e 1d b5 d0 bc
       0.3665352 0.031070184 0.24003255 -0.025476987
0000b0 8d 66 75 bd 11 f9 54 be f5 2a 31 3e 03 eb 07 3e
       -0.059912253 -0.20798136 0.17301543 0.13273244
0000c0 b0 d1 2e 3e 05 8f 78 3e ef 26 e8 3d 33 a3 ab 3e
       0.17072177 0.24273308 0.11335551 0.3352295
0000d0 27 32 9c 3e 24 e7 9d 3e 98 38 a4 3e ee e8 9f 3e
       0.30507013 0.3084041 0.32074428 0.312324
0000e0 e5 d7 78 3e 61 78 f3 3d a7 f6 a0 be 66 e2 7c be
       0.24301107 0.11888195 -0.3143818 -0.24695739
0000f0 c4 55 a3 3e b5 e2 3d 3e 9d d2 2a bd 2d 9d a4 be
       0.3190137 0.18543513 -0.041704763 -0.32151166
000100 58 5a 20 3e 72 72 fa 3d 68 ff 69 bd b9 ad 54 3d
       0.15659463 0.1222886 -0.05712834 0.051923487
000110 bb 5c 4e be a5 8c 9a 3e 12 39 47 3d 8d 2f a0 bd
       -0.20152561 0.30185428 0.04863841 -0.078215696
000120 d8 9a ac be 18 00 a2 be 57 40 89 be 9a 11 97 be
       -0.33711886 -0.31640697 -0.268069 -0.29505616
000130 ef b0 d0 bc 7e 5f 8d be aa 3e b3 bd 8e 19 fb bd
       -0.025474994 -0.27611917 -0.087521866 -0.122607335
000140 41 7f b8 be 16 d5 ad be c0 76 a9 be b6 14 ab be
       -0.36034587 -0.33951634 -0.33098412 -0.3341424
000150 89 d5 63 3d c8 26 8b be f7 8a 53 be e6 06 de bd
       0.055623565 -0.27178025 -0.2065848 -0.108411595
000160 91 63 b4 3e fb 7c ec 3d 57 70 9f 3d ac 1f 6b 3e
       0.35232213 0.11547276 0.07785099 0.229613
000170 5d 33 90 bc ef 94 9e bd 7d eb 37 3e a3 f3 00 3d
       -0.017602617 -0.077432506 0.17960925 0.03148235
000180 30 79 9e be 99 01 f3 3d f9 13 96 be 6e 35 33 3e
       -0.30951834 0.11865539 -0.29312113 0.1750085
000190 1a 26 80 be be 21 b0 be ce e0 37 3e e0 fe 3c be
       -0.2502907 -0.34400743 0.1795685 -0.18456602
0001a0 98 52 94 be 61 13 84 be 36 61 72 be 43 29 7b be
       -0.28969264 -0.25796035 -0.23669896 -0.24527459
0001b0 44 49 86 be 4c 87 9d 3e 34 bd 85 3e c7 2f 95 3e
       -0.26227772 0.30767286 0.26120913 0.29138014
0001c0 1f 14 7a bd 85 ec 23 3e 23 3b 1b 3d 3a 88 20 3e
       -0.061054345 0.16008194 0.037898194 0.15676966
0001d0 28 3f 5b bd 71 d1 a8 be 4d b4 6d be 32 62 18 be
       -0.053527027 -0.3297229 -0.2321331 -0.14881209
0001e0 58 fc 90 3e 8c 00 b7 be 6c 04 9b be 9c ac 99 be
       0.28317523 -0.35742605 -0.3027681 -0.30014503
0001f0 6a 59 8c 3e d3 06 88 be b6 d6 b8 be 8a e8 a1 be
       0.27411968 -0.26567706 -0.3610131 -0.31622726

reward_backbone.0.weight f4 [128, 22]
000000 76 2a 73 3e 08 fa e5 bc 08 85 8e 3d 0f a6 b7 3e
       0.23746666 -0.028073326 0.069589674 0.3586888
000010 2d e1 4d 3d bf 38 55 be 1a 1d 96 bd c5 ef e9 3b
       0.050263572 -0.20822428 -0.073297694 0.0071391785
000020 86 b5 ee 3d 25 2c 5b be 21 e4 04 bd 04 85 51 3d
       0.116557166 -0.21403559 -0.032444123 0.051152244
000030 20 fc b0 3d 42 44 81 3c 8d 32 51 bd cc bb 88 3d
       0.08641839 0.015779618 -0.0510736 0.066764444
000040 03 3e 18 3c ad c5 91 bc 52 92 8d bd 0b 7a 48 3c
       0.0092921285 -0.017794454 -0.06912674 0.012236129
000050 ab ab 2e 3e 24 81 2c 3e ba 00 62 3e 1f 26 4c 3d
       0.17057674 0.16846138 0.2207059 0.049841043
000060 54 8d 5e 3d 36 74 a1 3d ea 36 74 3d 16 df bb 3d
       0.054334 0.078834936 0.059622683 0.0917341
000070 64 a2 87 bd 5a 52 d3 bc f3 93 f7 3d b6 a4 08 be
       -0.066227704 -0.025796104 0.12088766 -0.13344082
000080 e9 20 f9 bc 49 18 82 be 60 c4 1e 3e e2 7a 90 bd
       -0.0304112 -0.25409153 0.15504599 -0.07054688
000090 01 0f fb bc e7 d5 d6 bd e9 54 f6 3c 73 e7 b4 3d
       -0.030646803 -0.104900174 0.030069785 0.08833208
0000a0 00 c6 86 3c b0 b8 48 be fb c6 4c bd 5d 27 e5 3d
       0.016451836 -0.19601703 -0.04999445 0.111891486
0000b0 47 99 2d bd 84 c8 53 be 08 f1 a5 bd 6a 20 5f be
       -0.042382505 -0.2068196 -0.08102614 -0.21789709
0000c0 57 ac cf bc e3 8f f0 bd 27 d8 9e bd f1 62 a3 3b
       -0.025350733 -0.11746194 -0.077560715 0.00498616
0000d0 b2 0d 19 be 04 3a 0a bd 33 f0 63 bd f0 35 2b bd
       -0.1494663 -0.033746734 -0.055648994 -0.041799486
0000e0 26 52 6b 3e fb ee e6 bd 1c 8d 71 bd 7b c0 47 3e
       0.22980556 -0.11276051 -0.058972463 0.19507019
0000f0 d4 ce 50 3c bf 40 3b bd a9 51 48 be 53 30 2d be
       0.012744624 -0.045716044 -0.19562401 -0.16912965
000100 66 b7 bc bc ff 95 83 be 45 7a 2a 3e e2 ec 1c 3e
       -0.02303667 -0.25700375 0.16648205 0.15324739
000110 aa b1 2f 3e 32 ca 9e bd b0 09 84 3c 65 b9 08 3e
       0.17157617 -0.077534094 0.0161179 0.13351972
000120 87 f5 48 bc 9b 32 00 3d cd 89 82 bd dc fe b0 3d
       -0.0122655695 0.03129826 -0.0637394 0.086423606
000130 00 5f 40 bc 99 53 0a be 0f f3 62 3c 9d 33 21 bd
       -0.0117414 -0.13508452 0.013851895 -0.039355863
000140 f2 9d 0b 3d 31 11 d1 3c 2c 7b bf ba 4b d8 39 bb
       0.034086175 0.025520893 -0.0014608852 -0.002835768
000150 7a b0 f5 bc 76 6f 78 be e7 8e 1b 3d a3 26 aa 3b
       -0.029991377 -0.24261269 0.03797808 0.005192594
000160 99 f2 d8 3d 83 f0 a1 3d 02 ca 64 be 7c c7 88 3d
       0.10593147 0.07907202 -0.22342685 0.066786736
000170 3b 75 bb bb ef 75 c3 bc 36 3a 2b 3e a0 0e 6c 3d
       -0.005720762 -0.023859946 0.16721424 0.057631135
000180 82 f6 98 be 4b d8 57 bd 33 ba b5 bd 50 63 dd bd
       -0.2987557 -0.052696507 -0.08873405 -0.10809958
000190 d4 de 43 3d 73 77 89 3d c9 7a d0 3d 39 7e 83 3d
       0.047819927 0.06712236 0.101796694 0.064205594
0001a0 58 89 1d 3e 12 48 03 be 41 c6 a8 3d 1c 84 0c be
       0.15384424 -0.12820461 0.08240939 -0.1372227
0001b0 b0 05 50 3e 2e ca ad bc 36 93 a3 bc 09 59 7b be
       0.2031467 -0.02121457 -0.019967657 -0.24545683
0001c0 18 73 27 3d ad fa a5 3e 22 7e 39 bd b9 89 86 bd
       0.040881246 0.32417813 -0.045286305 -0.06569237
0001d0 47 85 15 3e d0 d5 2c 3d 17 4c 71 3d 13 11 5f bd
       0.14601623 0.042196095 0.058910456 -0.054459643
0001e0 df f1 98 3d 3a 7c 14 bd 5a 81 9f bd 5f 13 4d 3e
       0.07468008 -0.036251284 -0.07788344 0.2002692
0001f0 f1 91 b0 3d ca 9d 0b 3d bb 15 95 3c 13 1b 81 bc
       0.08621586 0.034086026 0.018198838 -0.01575998
000200 68 7d bb bb 6b 93 1d 3e 06 e4 0c 3e c2 fc c5 3c
       -0.0057217367 0.15388267 0.13758859 0.024168376
000210 e2 3f b9 3d 69 a2 d2 3d 63 f3 3b 3e 59 95 59 bd
       0.09045388 0.102848835 0.18354563 -0.053120945
000220 b9 1f e1 bb 5d 95 18 be ea 91 f1 bd e7 0f 1a be
       -0.0068702367 -0.14900728 -0.11795409 -0.15045129
000230 9a de fd 3d 4a 46 33 3e 70 5f 09 bd b1 43 a7 bd
       0.123959735 0.17507282 -0.033538282 -0.08167208
000240 ea a7 d9 bd 9c fa d8 bd a1 9c a9 3c 1b 98 bf 3b
       -0.1062773 -0.10594675 0.02070457 0.00584699
000250 08 c8 12 bd cf 41 da bc ad 92 9a bd 34 30 01 3e
       -0.035835296 -0.026642708 -0.075475074 0.12616044
000260 f3 2d 84 3d 6a 2a d2 bd 5c 06 ea bc eb ec 6a 3e
       0.064540766 -0.10261996 -0.028567486 0.2294194
000270 d2 f4 88 bd 22 40 5c 3c a1 1f ae 3d 3a fc d1 3d
       -0.06687321 0.013443025 0.085021265 0.102531865
000280 26 a1 b5 bd f1 79 56 3e 45 91 f0 3d d9 c8 08 be
       -0.08868627 0.20944954 0.11746458 -0.13357867
000290 6b 1d 2d 3c be 71 a3 bd 8e f3 18 3e 82 1a 6c 3d
       0.010566096 -0.07980679 0.14936659 0.057642467
0002a0 88 27 6b bd fd e5 9a bd 65 f5 b7 3c fa 8a 3f bd
       -0.057410747 -0.07563398 0.02245588 -0.046763398
0002b0 e6 12 37 bd 29 15 92 bd e1 46 a7 bd 28 4e 41 be
       -0.044695757 -0.07132942 -0.08167816 -0.1887747
0002c0 41 99 e6 bd 43 f5 46 bd 09 d5 20 be ac f8 20 be
       -0.112596996 -0.048573744 -0.15706266 -0.15719861
0002d0 90 af 33 3d c5 de 89 bd 10 eb 15 3d 75 cf 06 bd
       0.0438686 -0.06731943 0.036601126 -0.03291269
0002e0 39 b1 6c 3d 61 c7 ce bd ca 09 09 bd 12 61 71 bd
       0.0577862 -0.10096622 -0.0334566 -0.058930464
0002f0 43 8f 0c 3e 60 b3 36 be 80 da 54 be 0b 47 b8 bd
       0.13726525 -0.17841864 -0.20786476 -0.08997925
000300 20 18 a9 bc 45 0d 62 3d 2f 73 15 3e e1 76 39 3c
       -0.020641387 0.055188436 0.1459472 0.011319847
000310 d0 19 7c bd 39 b0 05 3e 19 ad 7e bd af ee 56 be
       -0.061548054 0.13055505 -0.062176798 -0.20989488
000320 df a4 7c be ef 57 47 3e ff f0 22 3e 1b f9 0e be
       -0.24672268 0.19467138 0.15912245 -0.13962214
000330 ed b3 42 bd b4 85 c9 bd 75 40 88 bb fb cb ba bd
       -0.04753487 -0.09839955 -0.0041580745 -0.091209374
000340 4d ce b7 3d 90 16 87 bd 42 0a 80 bd 2c d2 8f 3d
       0.089748956 -0.065961 -0.062519565 0.07022509
000350 e4 ca b8 ba b1 a4 c2 bc 21 a9 8a 3d 19 30 b7 3d
       -0.0014098552 -0.023760172 0.0677054 0.08944721
000360 cf 52 89 be 80 f0 15 be 66 70 5b bd 03 4a 83 3d
       -0.2682099 -0.14642525 -0.05357399 0.06410601
000370 41 8a 33 be 0b fe 20 3c f7 b1 03 bd e5 8b d2 3d
       -0.17533208 0.009826194 -0.032152142 0.10280589
000380 2b 59 22 3e 08 f8 84 bd 10 be 59 bd f9 5b 1d 3c
       0.15854327 -0.06492621 -0.053159773 0.0096044475
000390 d6 11 5e bb 5c 17 33 bd 81 ed db ba 12 0d ea 3c
       -0.0033885143 -0.04372345 -0.0016779156 0.028570686
0003a0 a3 f2 fb bd 65 99 6e 3d f3 95 5e 3d 34 10 66 bd
       -0.12302139 0.058251757 0.05434222 -0.056167796
0003b0 a4 97 75 3d 9c 47 aa bc e7 a9 67 3d 86 c3 40 3e
       0.05995907 -0.0207861 0.056558516 0.18824586
0003c0 3c e3 a1 be b3 b9 92 bd 0c af 59 3e 83 de b1 3d
       -0.3161868 -0.071643256 0.21258181 0.08685019
0003d0 a9 93 2e be 20 5f 08 bc 09 26 4c 3c 7f ed 89 3d
       -0.17048515 -0.008323461 0.01246024 0.06734752
0003e0 4b a9 57 3d 50 4d f5 bc b5 46 19 bd cd 20 63 bd
       0.052651685 -0.029944092 -0.037420947 -0.055451203
0003f0 29 e8 b1 3d 97 14 d0 3b da ac 20 3d 3f a5 b9 3d
       0.08686859 0.0063501108 0.039227344 0.09064721

reward_backbone.0.bias f4 [128]
000000 33 d8 d7 3c a4 48 a6 3b 09 22 17 3c bc c4 2a bd
       0.026348209 0.0050745774 0.009224423 -0.041691527
000010 3d 7b 9d bd 24 4a 99 bd c6 42 6a 3d a8 3f d0 3d
       -0.076895215 -0.07484844 0.057192586 0.101683915
000020 e1 66 7e be 4e e5 c0 bc 78 0a ec 3d 46 67 57 bc
       -0.24843933 -0.023546841 0.11525434 -0.013147181
000030 c2 a5 27 be ec cf 0c 3d c6 95 a8 bc 35 52 ef 3d
       -0.16371825 0.034377977 -0.02057923 0.116856016
000040 26 b0 ac be 50 33 c8 3d e8 98 f3 bc d7 c5 12 bd
       -0.3372814 0.09775412 -0.029735997 -0.035833206
000050 96 21 5d be 57 f8 81 3e c7 ea 40 3e f1 6c 75 3d
       -0.21594843 0.2538478 0.1883956 0.059918348
000060 22 1f 87 bd c5 86 25 be 5a ff 4f 3d 39 dd 4b be
       -0.06597735 -0.16164692 0.05078063 -0.19908608
000070 7b 51 56 3e fb b5 0b be 9e 4f 05 3d b0 0f ae be
       0.2092952 -0.13643639 0.032546632 -0.33996344
000080 43 a8 03 3e d3 ff a1 3d ab 96 e4 3d 7e 32 de 3c
       0.12857156 0.07910123 0.1116155 0.027123686
000090 7b b0 96 3d 8b b0 96 3c 90 70 69 3d 86 2b 15 bd
       0.0735788 0.01839473 0.056992114 -0.03641846
0000a0 12 5c 1d be 22 aa 98 3d 96 e9 b2 bd 55 96 01 be
       -0.15367153 0.07454325 -0.08735959 -0.12655003
0000b0 c4 23 ef bb 32 b3 62 bc 51 25 8c 3d 5e 31 6c be
       -0.0072979648 -0.013836669 0.06843055 -0.23065707
0000c0 b0 dc be 3e 0c 76 c9 bc 29 4a d3 3c b4 8d b4 be
       0.37277746 -0.024592422 0.025792198 -0.3526436
0000d0 19 67 0c bd 51 22 a1 be 20 2d 2d bd c8 37 c1 be
       -0.03427801 -0.31471494 -0.042279363 -0.3773787
0000e0 f7 f2 86 be 88 1f b0 3a 58 bb 4b bd b0 0a ae bd
       -0.26357242 0.0013437131 -0.04973921 -0.08498132
0000f0 9a 77 fe bd 66 99 94 3e 03 99 15 be 2c 85 a5 bc
       -0.12425156 0.29023284 -0.1460915 -0.020205103
000100 23 a5 cc bc 62 2b 99 3d 4e ad 5e 3d c3 db d2 3c
       -0.024981087 0.07478978 0.054364495 0.025739556
000110 ac 99 70 be 69 66 66 bd ad 74 8a 3c 63 7d 98 bd
       -0.23496121 -0.05625001 0.016901338 -0.074457906
000120 7c 70 2c bc 46 27 44 3e ea 61 d7 3d dc f8 f5 3c
       -0.010524865 0.19155607 0.105167225 0.030025892
000130 b9 c8 d8 3c f7 69 1e be 9f e8 00 bc 12 0f 07 3e
       0.0264629 -0.1547011 -0.007867961 0.13189343
000140 96 ec ad bc 2d 1e f4 bb a3 b6 25 3e 01 11 6b be
       -0.021230977 -0.0074498863 0.16182952 -0.22955705
000150 4a a5 c2 bd f0 67 4b 3e 15 41 3e be f3 cb e7 bc
       -0.09504183 0.19863868 -0.18579514 -0.028295493
000160 c1 bb 51 bd 0e 2a 6c 3c ea ad 1d 3d e5 07 41 3e
       -0.051204447 0.0144143235 0.038495935 0.18850668
000170 21 5c 8d bd 3b e8 a2 be 55 7a 31 bd e3 e4 2b be
       -0.06902338 -0.31817803 -0.043329556 -0.16786532
000180 f9 ae d4 3c 8f 69 01 be 6d 49 7e bc 13 21 52 3a
       0.02596234 -0.12637924 -0.015520436 0.00080157927
000190 5f 9d 07 3c 9d da 98 be 03 4f a0 3d e4 1d 55 3d
       0.008277266 -0.2985429 0.0782757 0.05203046
0001a0 d7 b0 ca 3d ab 5c e3 3c f9 ac 01 bc 79 5d 6c be
       0.09897011 0.027754148 -0.007914775 -0.23082532
0001b0 c1 aa f4 bd 38 6b 08 be 03 31 23 bd d6 64 6a 3c
       -0.11946631 -0.1332215 -0.039841663 0.014306268
0001c0 27 16 2b 3c aa 24 49 bd 13 05 c7 3c ae 12 24 3e
       0.010442293 -0.04910723 0.024294412 0.1602275
0001d0 3d c1 7c bd 50 86 5a bd 89 87 0b 3d 8e f2 3a 3e
       -0.061707724 -0.053350747 0.034064803 0.1825659
0001e0 3b 2f 26 3e ef 2e 0e 3d f4 04 6e 3b 6a 0d 65 bd
       0.16228954 0.034712728 0.003631887 -0.055920996
0001f0 f9 1b 1a 3d c9 31 49 bd 8c e7 b1 3c 4c 18 a6 3d
       0.037624333 -0.049119744 0.021716855 0.08110103

reward_backbone.2.weight f4 [128, 128]
000000 b6 40 64 bc c0 a5 b1 3a 42 ad 9b 3d 98 94 08 be
       -0.013931444 0.0013553426 0.07601406 -0.13337934
000010 d3 b2 80 bd f9 1a 69 3d 8d af a5 bd 85 dd a1 3d
       -0.06284108 0.05691049 -0.08090124 0.079035796
000020 e0 f8 a1 3d 6b 06 25 bc e7 78 a4 3c 3f e8 f2 bd
       0.07908797 -0.010072331 0.020077182 -0.11860704
000030 cd c5 f0 3c a4 1a d4 bd ff dc 54 3d 1f df a3 3d
       0.029391194 -0.10356644 0.05196857 0.08001541
000040 08 15 7d be 4a 01 a0 3e 14 2c 9b 3c 14 56 60 3d
       -0.24715054 0.31250983 0.018941917 0.05476959
000050 25 a9 82 bd 76 d0 ba bd f7 f5 99 3e 58 d0 0c be
       -0.06379918 -0.09121792 0.3007047 -0.13751352
000060 43 67 08 3e d0 90 07 be 26 fc fa bd b4 f8 d3 3d
       0.13320641 -0.13238835 -0.12255125 0.10350171
000070 ec 23 2f bd 5b 79 14 be 52 b7 88 3d 7e 60 e3 bd
       -0.042758867 -0.14499418 0.066755906 -0.11102389
000080 af 89 15 3d 33 01 f7 3d da d2 29 3d c6 2f 94 bd
       0.03650826 0.120607756 0.04146085 -0.072356746
000090 69 c6 80 3d db 0c 34 3e 09 16 e4 bd 3d cb cc 3c
       0.06287844 0.17583029 -0.11137015 0.024999255
0000a0 99 7d 81 be 16 e0 04 3e 21 2a 4d 3e 1b e4 12 be
       -0.25291136 0.12976107 0.20035602 -0.14344828
0000b0 d1 0c a0 bd a2 0c 44 bd a2 55 65 be 85 de 5a be
       -0.078149445 -0.04786361 -0.22395948 -0.21373947
0000c0 44 61 21 3e a2 2b 08 be 7b 95 a6 3d 9a b7 02 be
       0.1575976 -0.13297895 0.0813398 -0.12765351
0000d0 cc ca 7b bd f5 a0 52 be 51 3b cf 3c cb 74 b0 3c
       -0.0614727 -0.20569213 0.025296839 0.021540066
0000e0 bb 97 0d be 6f 1d 6f be 4b ec 41 bd 93 0a b9 3c
       -0.13827412 -0.23351072 -0.047344487 0.02258805
0000f0 e3 80 82 bb c2 99 59 3d 41 60 83 be f6 7e 0f 3e
       -0.0039826497 0.05312515 -0.25659373 0.14013276
000100 a2 a1 c0 3c a2 1b a3 bd a1 e9 a9 bd 9c 88 9a be
       0.023514573 -0.07964255 -0.08296514 -0.3018235
000110 4c 80 83 bd a7 d4 a8 bd aa 54 b2 bd 5c a9 19 3d
       -0.06420955 -0.08243685 -0.08707555 0.03751503
000120 79 c5 3a 3e 5f 41 ea 3d 84 6d af 3e 11 42 1c be
       0.18239392 0.1143825 0.3426324 -0.15259577
000130 ba 04 f2 3c 5b a0 93 be a4 72 89 bd f4 28 1e bd
       0.02954327 -0.2883328 -0.06711319 -0.038613275
000140 01 4e 04 3e eb b3 d1 bc db 75 81 3e a9 1f 3e bd
       0.12920381 -0.025598487 0.2528523 -0.046416912
000150 65 50 ca bd a6 96 f7 bd 7d f7 88 be 1f a0 9c 3c
       -0.09878615 -0.12089281 -0.2675132 0.01911932
000160 30 8e 9d 3e 39 ec 2b 3e 6d 86 55 bd 6e 42 90 3d
       0.30772543 0.1678933 -0.05213015 0.070439205
000170 28 78 86 bd 9a 34 4a be 7d fd d7 3d 8b da f1 bc
       -0.06565887 -0.19746628 0.10546396 -0.029523155
000180 ac 77 c7 3d 18 14 20 be 48 9e ca 3d 71 0a ba 3b
       0.097396225 -0.15632665 0.09893471 0.0056775142
000190 fc 91 b2 3c 5b eb 78 be 3c 82 ae 3d ce 2a ed 3d
       0.021798126 -0.24308531 0.08520934 0.1158043
0001a0 94 d5 fc 3c 04 96 cd bd 97 bb ef bb b8 b2 3f be
       0.03086356 -0.10038379 -0.0073160636 -0.1872052
0001b0 4f e8 05 be 6b 74 6f bd 39 73 96 3d 77 c4 bf bd
       -0.130769 -0.058460634 0.07346196 -0.093636446
0001c0 9a a1 5f 3d b1 9e e9 bd 0b 5f b2 bc 4a 74 fc 3d
       0.054597475 -0.11407221 -0.021773836 0.12326868
0001d0 97 a2 a0 bc 5a 2b 17 3d 6a f8 06 bd 64 b3 65 3e
       -0.019608779 0.036906578 -0.03295175 0.22431713
0001e0 c9 75 0f be 93 42 02 3e 64 fc b6 bc d6 cc ab 3d
       -0.14009775 0.12720709 -0.022337146 0.08388679
0001f0 bd 98 e4 bb 19 ec 3d 3e a2 f0 8e bd 77 33 89 be
       -0.0069762156 0.18547095 -0.06979491 -0.26797077
000200 13 44 94 bd 95 54 ce bd 98 5a 11 3e 1c 66 ab bd
       -0.072395466 -0.100747265 0.14194715 -0.08369085
000210 df 4e 66 3d 71 7d 54 3d c3 01 f7 bd 94 40 13 3e
       0.05622756 0.051877443 -0.12060883 0.14380103
000220 8f 22 b5 3d 42 ae 11 bb f6 d7 c9 bd 64 b2 1c 3e
       0.08844482 -0.002222911 -0.098556444 0.15302426
000230 06 41 06 3e 66 60 eb bb 0d ee 49 be e8 af 2f 3e
       0.13110742 -0.0071831224 -0.19719715 0.17156947
000240 1b 52 f4 bd 8e 50 54 3e 5f 0d 86 3d 40 8b 16 3e
       -0.11929723 0.20733854 0.06545519 0.14701557
000250 1a ff 1b be 08 11 38 3e fc 65 92 bd cc 8c a9 ba
       -0.15234032 0.17975247 -0.07148358 -0.0012935637
000260 0b 7a ff bd f8 8c 9a ba 31 cc 7d be ee 14 04 3c
       -0.1247445 -0.001179128 -0.24784924 0.008061631
000270 ec b7 31 be c0 34 e6 3d cf 03 a6 3d a0 ee 5a 3e
       -0.17355317 0.1124053 0.08106195 0.2138009
000280 13 30 94 be c1 50 a1 3d 79 16 0d be 6b d2 14 3e
       -0.28942928 0.07876731 -0.13778104 0.14533393
000290 92 a1 57 3d 1e 9b cc bd bd 93 36 3e 8d 62 d8 3e
       0.05264432 -0.09990524 0.17829795 0.42262688
0002a0 74 9a 2c 3d 48 24 28 be 7d 8d 04 be 74 57 79 bd
       0.042139485 -0.1642009 -0.12944598 -0.060874417
0002b0 84 1a cb 3d 27 26 bb 3d 18 35 6a bc 14 2f a8 3d
       0.09917167 0.09138136 -0.014294885 0.082121044
0002c0 1e 80 56 3e 93 ae 46 be 1f 04 b4 3b dc 83 ce bd
       0.2094731 -0.19402532 0.0054936553 -0.10083744
0002d0 19 8e 53 3c 10 37 19 be 88 18 02 be c9 2a 2e 3d
       0.012912297 -0.14962411 -0.1270467 0.04252127
0002e0 31 be 0e 3e 49 78 97 3c 20 ae 05 be 22 2e d0 3d
       0.1393974 0.018489974 -0.13054705 0.10165049
0002f0 5e 1a 10 3e 0f e0 60 3d 9f 37 fc bc 08 13 8b 3e
       0.14072558 0.05490118 -0.030788241 0.27162957
000300 2c f2 22 be 3d 86 9a 3d bf 86 17 3e 97 22 2c 3e
       -0.15912694 0.07545135 0.14797495 0.1681007
000310 d3 01 22 3e 2d 44 06 3e 45 25 2a be 8c 46 ec bb
       0.15821008 0.13111944 -0.1661578 -0.0072105583
000320 0f 96 16 be 23 c6 a5 bd 89 16 a5 3c 50 70 2b bb
       -0.1470568 -0.08094432 0.020152347 -0.0026159473
000330 4e 3f 6d bd 2e fa 6d 3d cc 31 b1 3c 10 96 24 bd
       -0.0579217 0.058099918 0.02163019 -0.040182173
000340 3a b0 f3 3c 3a 9f e3 3d 19 14 ec bd 5e 7d 2c 3e
       0.029747117 0.111143544 -0.11527271 0.16844699
000350 71 14 5a 3e 12 5c b6 3d 90 c9 80 3c c4 22 e0 bd
       0.2129686 0.0890428 0.015721112 -0.10944131
000360 00 d8 76 3d a8 ec e4 bc 15 90 3c be fa 7c 3b 3c
       0.060264587 -0.027944878 -0.18414338 0.011443371
000370 12 64 30 3d dc 0a aa 3d 49 3c f9 bc b2 84 07 3e
       0.043064184 0.083028525 -0.030424254 0.13234213
000380 a4 9e a2 3d 01 75 bb bd ee 49 71 3d 8e d8 11 bd
       0.079404145 -0.09153176 0.058908395 -0.035606913
000390 cd a4 4b be 4a 94 ac 3d e6 e2 a8 3c f8 6c 5d bd
       -0.19887085 0.084267214 0.020616006 -0.054059
0003a0 89 0c 07 3d 94 b7 00 be 78 81 33 be bf e9 c4 3d
       0.03297094 -0.1257003 -0.17529857 0.09614896
0003b0 83 27 bd 3d 2d e4 6c 3e 92 9b 88 bd a4 5c 5f 3e
       0.09236052 0.23133917 -0.06670298 0.21812683
0003c0 7f 8e 00 3e 9f 74 10 3e 72 c1 5e 3d 9d 8b db bb
       0.12554358 0.14106987 0.054383703 -0.006699993
0003d0 27 51 cc bd 8c 3e 9d 3d 96 7d a7 3e f8 22 3a 3e
       -0.09976416 0.076779455 0.32713002 0.18177402
0003e0 98 d2 5c bd a9 09 0d 3d 8b 03 f9 3c 3e 11 ab 3c
       -0.053911775 0.03443304 0.030397197 0.020882245
0003f0 f8 82 ac bd d5 59 8a 3d ef 90 5a bd 11 9e 88 3c
       -0.08423418 0.06755415 -0.053360876 0.016676934

reward_backbone.2.bias f4 [128]
000000 86 70 25 3e 0d 44 3f 3d 93 eb d3 bd d1 ad 54 be
       0.16156206 0.046695758 -0.103476666 -0.2076943
000010 67 b2 43 bc 65 17 d8 3d 71 a2 9d 3d 8f 54 da bd
       -0.01194439 0.10551337 0.07696999 -0.106606595
000020 7d 63 10 3e 2a 2e 13 3b ee 4f 02 3e d5 fd 6f 3d
       0.14100452 0.0022457936 0.12725803 0.058591682
000030 8e 89 bd bd 29 ae af bd ba cc 8d bd 9c ba 8d bd
       -0.09254752 -0.0857814 -0.06923814 -0.069203585
000040 ae b8 19 3e 7e 4d c7 bd 27 7f ab bd cc 28 83 3d
       0.15011856 -0.09731577 -0.08373862 0.06404266
000050 c8 48 ac bd 33 89 de 3d 4f 15 a4 bd be 7d 5e bd
       -0.084123194 0.108660124 -0.08011877 -0.054319136
000060 75 fe f9 bd a5 0b a4 3d ca 19 e2 3d 2a 66 6b 3d
       -0.12206737 0.080100335 0.11040075 0.057470478
000070 d8 c6 4d bd e2 ef 72 bd 72 27 00 be 07 e9 8d 3d
       -0.05023846 -0.0593108 -0.12515047 0.06929212
000080 d6 ab 42 bb c8 f8 30 be 5a c0 9f 3d 50 39 b7 3d
       -0.0029704473 -0.17282403 0.0780036 0.08946478
000090 26 10 ad bd 5d d1 e5 3d ef 65 02 3e aa 3d 36 3d
       -0.08450346 0.112215735 0.12734197 0.0444924
0000a0 e0 9d b3 bd 19 d5 ab bd 2f bb 83 3c 79 5f 4f 3d
       -0.08770347 -0.083902545 0.016080467 0.05062816
0000b0 55 32 97 bc 4b 1f 28 be ef af 7a bd 34 b1 85 3d
       -0.018456617 -0.16418187 -0.06120294 0.065279394
0000c0 ee 8f 98 3c 68 f1 ea bb 08 6e eb bd 2c c7 36 be
       0.018623319 -0.007169891 -0.11495596 -0.17849416
0000d0 7f 6d 69 3d 17 c4 96 3d 72 ef 33 bd 64 e7 34 bd
       0.05698919 0.0736162 -0.043929525 -0.044165984
0000e0 3b ae 3d 3d 6c 5b e2 3c 3b 73 9c bd 23 1e b8 3d
       0.046308737 0.027631484 -0.07639166 0.08990123
0000f0 47 fa a9 bd 63 57 75 3d ac 18 be 3d ca 5e ea bd
       -0.0829969 0.05989779 0.092820495 -0.11443861
000100 ce 36 98 bd f0 cf ee 3d b6 5c 60 3d 70 fb fa bc
       -0.07432328 0.11660755 0.054775916 -0.030637473
000110 38 94 8e bd af 10 02 3e 54 f8 5c 3c eb fc 89 3d
       -0.06961864 0.12701677 0.01348694 0.067376934
000120 4d 18 56 3d 5b fe 10 3e bc bc f9 bc 2d 3b a9 3d
       0.05226927 0.14159529 -0.030485503 0.0826324
000130 11 31 69 3e 2d 70 1e 3d 17 9f 86 bd 62 78 49 3d
       0.22772624 0.038681198 -0.06573313 0.04918707
000140 2d 13 da 3d ce f0 8d bd 05 53 c4 3d b1 c0 dd bd
       0.10648189 -0.069306955 0.09586147 -0.108277686
000150 db 87 3c be c8 43 3a be 70 ef ce 3d 7e bd 0e 3e
       -0.184112 -0.18189919 0.10104263 0.13939473
000160 23 12 df 3d 41 95 17 bd f8 cb ea 3a 9a f7 1d 3d
       0.10892131 -0.037007574 0.0017913571 0.03856621
000170 3a 0f 74 bd c8 9b 84 3d f1 d4 d9 bc ee 17 ab bd
       -0.059584834 0.064750254 -0.026590796 -0.083541736
000180 ed a4 c0 3d a6 59 7a bc 37 0a 54 3d 19 57 18 3b
       0.09406457 -0.015280163 0.051767554 0.0023245274
000190 8c ef a4 3d f9 02 7a bd 67 ee af 3d 1f 53 01 be
       0.080535024 -0.06103799 0.085903935 -0.12629364
0001a0 66 51 c4 bd 75 e2 cf bd de 69 59 bd 53 31 a6 3d
       -0.09585838 -0.10150615 -0.05307948 0.081148766
0001b0 16 9e d7 bd 45 7c 30 3e 36 f8 43 bd 0d d4 1e bd
       -0.105281994 0.17234905 -0.047844134 -0.038776446
0001c0 04 77 f9 bd 68 e3 8f bd f8 1a 6a 3e 50 39 ac bd
       -0.121809036 -0.07025796 0.2286185 -0.08409369
0001d0 94 37 08 be 62 1d 02 3d f6 0e bd bd 00 e2 65 bd
       -0.13302451 0.031766303 -0.09231369 -0.056123734
0001e0 fd 49 c0 3d c4 03 a3 bd ed 36 76 3c d8 e6 d5 bd
       0.09389112 -0.079597026 0.015027744 -0.104444206
0001f0 15 01 48 bd f9 d5 f9 bb 9d 4f 56 3e 7e 36 37 3e
       -0.048829157 -0.0076243845 0.20928808 0.17891881

cost_backbone.0.weight f4 [128, 22]
000000 58 59 42 3e 5e 83 e4 3d fa a8 ac bc 48 01 5e 3e
       0.18979394 0.11157869 -0.021076668 0.21680176
000010 e2 3d 1c 3e 69 12 b0 3d 1b 5c 07 3e 10 10 a2 bd
       0.15257981 0.085972615 0.13218729 -0.0791322
000020 f2 ac be bd cc c3 01 3e d2 6c 60 be 7b dc 42 3e
       -0.093103305 0.12672347 -0.21916512 0.19029419
000030 ce 26 9c bc cb ab e5 3d 14 a2 3a bc 5c 3e 37 bd
       -0.019061472 0.112144075 -0.0113911815 -0.044737205
000040 53 15 93 3c b4 06 fe 3a 4f d1 10 3e dc b2 d1 3d
       0.017954504 0.001938066 0.14142345 0.10239193
000050 5f 46 71 3e 08 72 7d 3d c1 f7 08 3e 67 91 c6 3d
       0.23562 0.061876327 0.1337576 0.09695702
000060 68 2b d8 bc da 51 b2 3c 94 ff 32 bc e3 83 c2 bd
       -0.026387885 0.021767545 -0.010925192 -0.09497812
000070 6f 16 e4 bb b0 b8 11 3e f3 26 19 bd 36 4d 37 3e
       -0.006960682 0.14230609 -0.03739066 0.17900547
000080 81 7f 9e be 6e 03 28 bd 3b e9 18 3e 03 80 be bd
       -0.30956653 -0.041018896 0.1493272 -0.0930176
000090 1f 86 e8 3c d2 2b bd 3d 1e 4a 52 bc cf 80 52 3d
       0.028384266 0.09236874 -0.012835054 0.051392373
0000a0 03 92 18 3e 9b 14 67 bd 79 f2 ff 3d e5 b3 32 3e
       0.14899449 -0.056416135 0.1249742 0.17451437
0000b0 7c ff 46 3b 6f be 4f bc 63 cd 44 bd f3 15 92 be
       0.0030364683 -0.01267968 -0.048047435 -0.2853237
0000c0 a4 50 7c bd 3a 72 53 bd 9e b0 4f 3c 2a 76 56 bd
       -0.061600342 -0.051622607 0.012676386 -0.052358784
0000d0 df 59 54 bc 36 4a 88 bd d5 f1 2f be 0f 57 cb bd
       -0.01296088 -0.066547796 -0.17182095 -0.099287145
0000e0 21 da 1e be 38 c4 24 3e 02 16 56 bd a1 2c 19 3d
       -0.15512897 0.16090477 -0.052267082 0.037396077
0000f0 86 1f bc bc e4 80 e6 3b 29 d0 e0 3b 3a 2e a0 bd
       -0.02296425 0.007034408 0.006860752 -0.07821317
000100 d9 ee 7b 3d 89 2a 8b 3e 74 5c 93 bc b7 05 d6 3d
       0.06150708 0.2718089 -0.017988421 0.10450309
000110 f1 42 24 bd cc 4b cf bd 05 57 3a 3e 95 42 6f bd
       -0.040102903 -0.10121879 0.18197258 -0.058413107
000120 1a 12 c0 3c af 37 8f 3d 8c 67 64 bc ce 41 56 be
       0.023446131 0.06993043 -0.013940703 -0.2092354
000130 db 38 16 3e 95 cb 0e be 5d 2e a0 bb 81 89 5f 3d
       0.14670126 -0.13944848 -0.0048883394 0.054574493
000140 12 8b d5 bd f3 06 95 be 69 49 1c bd ff 55 61 3d
       -0.10426916 -0.29106864 -0.038155947 0.055013653
000150 36 16 07 3e 37 b9 83 bc 74 98 f4 bd e4 f4 ea 3d
       0.13192067 -0.016079528 -0.119431406 0.114724904
000160 4b 97 20 3e 25 7a ce 3c 3e c6 b9 bd 66 f2 2d be
       0.15682714 0.025204727 -0.09071015 -0.16986999
000170 a6 43 9e 3c 56 c1 3e 3d 4d c9 0a 3d bc 44 02 be
       0.019319367 0.0465711 0.03388338 -0.12721533
000180 37 39 11 bd ad 32 4a 3d f9 e0 85 bd b6 e4 b0 be
       -0.035454955 0.049364734 -0.06537051 -0.34549493
000190 e0 90 ec bc 94 3b 1a 3d af e3 a3 ba 1c 13 22 3c
       -0.028877676 0.037654474 -0.0012503768 0.009892251
0001a0 92 b1 4c 3d 3c 93 f3 3c 38 bb ae 3e 01 e6 27 bd
       0.04997403 0.029733293 0.34127212 -0.040990833
0001b0 13 ce 65 be 35 fb 7d bd 1f 34 8e 3c e0 6a e1 bd
       -0.22441892 -0.062007148 0.017358838 -0.11006713
0001c0 9e 46 1d 3d 2d c1 33 3e 5a 57 8a bd 47 0b 22 3d
       0.038397424 0.1755416 -0.06754942 0.039561536
0001d0 ae 57 07 bd 37 36 04 3e da 71 15 3b 77 5e 9b 3d
       -0.033042602 0.12911306 0.0022803457 0.07586377
0001e0 8d 65 01 bc c2 f6 e9 bc 2f 6e 38 be 2a ee d2 3d
       -0.007897747 -0.028560046 -0.18010782 0.102993324
0001f0 a4 c3 14 3d 79 57 a4 bd 7f d2 86 bd 82 c5 6b 3d
       0.03631939 -0.080244966 -0.06583118 0.057561405
000200 71 80 0d 3e 83 c3 d0 3d 68 0b 8e bd c7 2f 06 3e
       0.13818528 0.10193541 -0.06935769 0.13104163
000210 27 ed 28 be 55 4f 3c be 04 a6 73 bd 7b 55 0e bd
       -0.16496716 -0.18389638 -0.059484497 -0.03474949
000220 7a 24 d2 bc 30 a7 0f bd de 07 98 bd 6f df 86 3b
       -0.025652159 -0.03507155 -0.074233755 0.004115991
000230 20 d0 3e bd ae 06 90 bd 68 44 83 3c 3e c5 84 3d
       -0.046585202 -0.07032524 0.01602383 0.064829335
000240 04 95 b3 bc 7e 32 8d 3d 52 c8 a8 3d 5f 26 a1 3c
       -0.021921642 0.06894396 0.08241333 0.019671617
000250 07 32 9f bd 9e a5 ff 3b 2f af 1e be 35 7d d2 bd
       -0.07773214 0.0078017255 -0.15496515 -0.102777876
000260 46 31 31 3e 89 d3 75 be d7 6e 0a 3e 18 c0 99 bd
       0.17303953 -0.24006476 0.13518845 -0.07507342
000270 6b ef 83 bd af ab c8 bc d2 12 4f bd 40 f9 65 bd
       -0.0644215 -0.024495928 -0.050555058 -0.056145906
000280 4e fc 93 bd b1 1a e5 bd 42 c3 dd 3d 12 53 14 be
       -0.07225858 -0.111867316 0.10828258 -0.14484814
000290 82 5f d5 bd be 1b a9 be 6b 95 45 3d cb ee f6 3d
       -0.10418607 -0.33028978 0.0482382 0.12057265
0002a0 07 34 62 3d 80 ac 62 bd a2 32 88 3d dd 5a 76 3c
       0.0552254 -0.05534029 0.066502824 0.015036312
0002b0 d7 54 47 3d 99 ca 7b 3c db c8 23 bd 66 db 8f be
       0.048664894 0.015368127 -0.039986473 -0.28097075
0002c0 b4 dc 3c be 5e 8b 03 bd 09 95 ef 3d 61 43 67 be
       -0.18443567 -0.032115333 0.11698348 -0.22584297
0002d0 d3 87 23 3e 09 0b c4 bd bf ec 9d bd 52 54 9b bd
       0.15969782 -0.09572417 -0.07711171 -0.07584442
0002e0 3f 8f d1 bd 61 bd 28 3e c0 68 98 3d 88 19 80 3e
       -0.102324 0.16478492 0.074418545 0.2501948
0002f0 52 2e 91 3c b2 e5 ad 3d e1 1c 94 bd 96 a1 e1 3c
       0.017722283 0.084910765 -0.07232071 0.02754287
000300 de 65 82 3d b1 9b 8a bc 5c 49 c6 3d 63 ec 01 3e
       0.06367086 -0.016919943 0.09681961 0.1268783
000310 1a b4 6d be f3 6e d0 bc c7 69 83 bd 0e 7c 91 bd
       -0.23213235 -0.02544353 -0.0641666 -0.0710374
000320 1e 91 16 bb 4b 08 27 3e 32 ef fe bd 71 dd 1e 3d
       -0.002297468 0.16311757 -0.12447967 0.0387854
000330 cd 37 77 be 3d 9a 8f 3c 06 6f 6e bc 9d 80 03 be
       -0.2414238 0.017529601 -0.014552837 -0.12842031
000340 13 7b e5 3d 44 82 18 bc 81 23 74 be 63 73 ec bc
       0.11205115 -0.0093084015 -0.23841669 -0.028863614
000350 62 af b3 3a df 85 0f be d1 b4 1d bd a6 61 a6 bd
       0.0013708884 -0.14015912 -0.038502518 -0.08124094
000360 04 36 04 3e b8 d5 e7 3d f6 7a b8 bb b0 7b 3d be
       0.1291123 0.113200605 -0.0056298925 -0.18504214
000370 0b 8a bf bc c5 2c 05 be 01 be 68 bc be 7e 49 ba
       -0.023381254 -0.1300536 -0.014205457 -0.00076864276
000380 33 15 38 be 89 2c 3a bb 70 3f cf 3d ba 5b a6 3d
       -0.17976837 -0.0028407893 0.101195216 0.08122964
000390 e3 27 0d 3d 9f 4c 06 be 9a 1d ec bd d0 70 0c 3e
       0.034461867 -0.13115166 -0.115290835 0.1371491
0003a0 62 42 9a 3c eb 0b 15 be ff a4 19 be 3c c4 2f 3d
       0.018830482 -0.14555328 -0.15004347 0.042911753
0003b0 8d bc ab 3d 98 e6 6d 3e 7b 5a 8e 3e 3e 7f 84 bd
       0.083855726 0.23232496 0.27803406 -0.06469582
0003c0 2e 4c bf 3d 34 de 2b 3a da 84 ee bd 7d 87 a6 bd
       0.09340702 0.0006556243 -0.11646433 -0.08131311
0003d0 1d 20 3d 3e 7d 30 32 be 43 cd be 3d bb b2 46 3b
       0.18469281 -0.1740131 0.09316494 0.0030318934
0003e0 6f 6a be 3c 5c 70 e5 3c e6 c2 4a 3c ed fd 33 3d
       0.02324411 0.028007679 0.012375569 0.043943334
0003f0 9f 0b a6 3c 94 57 1e be 7d 2f 12 bc ce f3 11 3e
       0.020269213 -0.15463096 -0.008922455 0.1425316
