outputs/four_group_ablation_20260121/B_multi_critic_fixedlambda_seed0/best_fsr.pt (torch, 981473 bytes, 68 tensors)

actor_backbone.0.weight f4 [128, 22]
000000 49 7b 98 bd 5f 69 84 3d 49 77 91 3e cb e8 59 3d
       -0.0744539 0.064654104 0.2841132 0.053200524
000010 f9 9d bd bd ef c8 9d bd d1 3b 71 bd f5 67 a4 3d
       -0.092586465 -0.07704341 -0.058894936 0.08027641
000020 ac 4c 52 be 83 1c 64 3e c6 3c 64 bd 24 8a c5 be
       -0.2053706 0.22276501 -0.05572202 -0.38581955
000030 b8 c6 8e bd 46 e7 d1 3d ee 32 fc bd d8 08 d7 3d
       -0.06971496 0.1024919 -0.123144016 0.10499734
000040 1a ac c7 3c a4 16 95 bd e4 04 94 3d 5b 25 22 3d
       0.024374057 -0.07279709 0.07227495 0.039586406
000050 ab 50 74 3e 4d 7c 3e be 7a 87 d7 bb 4c 62 97 3e
       0.23858897 -0.18602104 -0.0065774294 0.29567182
000060 71 b2 88 be 60 ec ae bc 43 47 d3 bd 3d 4a fe 3c
       -0.2669864 -0.021352947 -0.103163265 0.031041259
000070 41 76 36 3d 87 03 7c bd 6a e1 7a 3e 87 a4 60 3d
       0.04454637 -0.0615268 0.24500051 0.054844406
000080 74 5b 82 3e 2b 41 7e bc 68 29 4d be 00 11 41 3b
       0.25460398 -0.015518467 -0.20035326 0.0029459596
000090 51 bd 6a 3d f9 bd fa 3d 57 d0 e7 bc 54 30 9d 3c
       0.057309452 0.12243266 -0.028297586 0.019188084
0000a0 a7 e5 25 3d 41 18 05 be 11 e3 88 bc 57 14 a8 3d
       0.040502217 -0.12997533 -0.016709836 0.082070045
0000b0 70 16 85 be a6 88 84 3e 50 32 03 be 93 06 b8 3d
       -0.2599368 0.25885504 -0.12812161 0.08985629
0000c0 6b e6 9e bd 60 e1 24 ba 0e 1c 17 bd 51 3f 9f 3c
       -0.077587925 -0.0006289687 -0.03689199 0.019439371
0000d0 95 1f 92 3d 72 a0 1b be c9 cd d5 bd c9 17 5c 3d
       0.0713493 -0.15197924 -0.10439641 0.05373362
0000e0 8b 32 d3 3d c0 6b 82 bc 71 98 51 3e ab b9 94 bc
       0.10312375 -0.01592052 0.20468308 -0.01815494
0000f0 a6 a0 5c be 19 c3 c5 3c 58 9c 05 be c7 53 c5 3c
       -0.21545658 0.024140881 -0.13047922 0.0240878
000100 c4 ed bc 3e 4a 1a 8b bd 34 02 90 bd 7a 03 6a 3e
       0.3690015 -0.067921236 -0.0703167 0.22852889
000110 25 7a 4e bd e4 5a a3 bd ee da 1d bd 17 b3 06 be
       -0.050409455 -0.079763204 -0.038538866 -0.13154255
000120 b3 29 48 3c e5 f9 f3 3d 50 3e 44 be 2b c9 53 3e
       0.012216973 0.11912898 -0.19164395 0.20682208
000130 5f e6 2d bd ed 5d a0 be f1 79 67 3a 4f cb 47 3e
       -0.042456027 -0.3132166 0.00088301214 0.1951115
000140 4c fa c4 3b 31 b5 72 bd 9c bb 51 3d cf 2f 19 bc
       0.006011283 -0.05925483 0.05120431 -0.009349777
000150 0d 13 1f 3d 5f 24 fe 3d 70 ac 58 bb 12 a0 9a 3d
       0.038836528 0.12409281 -0.0033061765 0.07550062
000160 28 83 04 bf e6 46 94 bc 41 23 65 3e ee a4 3a be
       -0.5176263 -0.018100213 0.2237673 -0.18226978
000170 3a bc 0d 3e 65 bc 8d bc 90 89 42 be 06 b2 e2 3d
       0.13841334 -0.017301748 -0.18997788 0.110691115
000180 8a 69 2d 3d 7b b9 e8 3d 8e 50 e6 bd 85 0c 8d bd
       0.042336978 0.113635026 -0.11245833 -0.068871535
000190 b3 c2 e7 bd ee 79 82 3d ed 97 1f 3d 7a 60 4c bd
       -0.11316433 0.063709125 0.038963247 -0.049896695
0001a0 25 81 b3 3d 52 3b 7e 3c b3 25 fb bc 0c 84 09 be
       0.08764867 0.015517073 -0.030657625 -0.13429278
0001b0 2d 11 8e 3c 2d a6 92 bd 9f 79 9a bd 0d bc c3 bd
       0.017342174 -0.07160602 -0.07542729 -0.09557352
0001c0 41 da 33 3e b9 f8 fe 3c 00 d8 c0 3d d9 03 bb bc
       0.17563726 0.03112446 0.09416199 -0.022828983
0001d0 af e0 1e be 36 77 66 bd 68 e4 30 bd fa 08 08 be
       -0.15515397 -0.056266032 -0.043186575 -0.13284674
0001e0 5d a3 8e 3e d6 ee de 3c 95 e6 c0 bd cd 5b 17 3e
       0.2785901 0.027213495 -0.0941898 0.14781113
0001f0 cd 00 68 be 19 d9 4f bd e9 4f bd bd be 78 1e be
       -0.22656555 -0.05074415 -0.09243757 -0.15475747
000200 d2 c7 0f be e2 6e ca 3d 90 69 18 bd e5 42 1e 3e
       -0.14041069 0.098844305 -0.037210047 0.15455206
000210 e3 d1 4f bc bc 3e a5 3d 6d ed dd bd 51 cc 21 be
       -0.012684318 0.08068606 -0.10836301 -0.15800597
000220 29 a7 25 be 0e 69 5b be 40 aa 09 bc 04 ec d0 bd
       -0.16177048 -0.21426794 -0.008402407 -0.102012664
000230 27 59 7d 3d c8 7b 3b be d7 a3 01 be 20 11 44 3e
       0.0618526 -0.18308938 -0.12660156 0.19147158
000240 a8 9d a4 bb 5d 55 67 be eb b9 04 bd d9 aa e7 3d
       -0.005023677 -0.22591157 -0.032403868 0.113118835
000250 9d 8d 77 3e 14 14 be bc d9 4f 94 3c 5a d1 e0 3c
       0.24175115 -0.023202933 0.01810448 0.027443577
000260 e7 6d 19 3e d6 2f 25 be fe d7 eb 3c 69 49 cc be
       0.1498333 -0.16131529 0.028789517 -0.39899758
000270 38 53 90 3d e5 09 1d 3e 26 bc de 3c ff 76 98 3c
       0.07047123 0.15335806 0.027189326 0.01861143
000280 f9 71 28 bd eb 7d b9 bd a1 01 1a bb 32 c6 e9 3d
       -0.041124318 -0.0905722 -0.0023499506 0.11414756
000290 e1 20 1b be 21 ba 7d be 1f 68 bf 3c f5 f8 04 3c
       -0.15149261 -0.24778034 0.023365078 0.008115997
0002a0 b1 74 26 3e 95 bc b8 3b 81 09 90 3c 01 ca d4 3d
       0.16255452 0.005637715 0.017582657 0.10390092
0002b0 ad d2 dc 3c 44 28 8a 3e d1 95 ed 3d 4d 20 1b 3d
       0.026955927 0.26983845 0.11600841 0.0378726
0002c0 54 db fd 3e 67 e6 ae bd b3 4d b3 3c d2 d1 91 bd
       0.49581397 -0.085400395 0.021887636 -0.07120098
0002d0 3d 48 39 be ce 14 06 3e a6 33 ad bd 55 21 47 3e
       -0.18093963 0.13093874 -0.08457117 0.19446309
0002e0 66 f1 b5 3d b3 4a 05 3e 3c d7 af 3d 71 27 31 be
       0.08883934 0.13016777 0.085859746 -0.17300202
0002f0 df f7 00 be a4 2e cd bb b9 e4 d1 bd c6 78 bf bd
       -0.12594555 -0.0062616635 -0.102487035 -0.093492076
000300 d8 16 10 bd e3 06 bb 3d b5 24 d2 3d bd 20 11 3e
       -0.035178035 0.09132173 0.102609076 0.14172645
000310 5c 62 cf 3d 4e c7 98 3e ea 5d c0 be dd 57 61 be
       0.101261824 0.29839557 -0.3757165 -0.22006173
000320 4d 39 2c 3e be 40 f8 3c 9c 1b cb 3d 9d 16 1d bd
       0.16818734 0.030304309 0.099173754 -0.038351644
000330 6c fe ca 3c 0c e6 ec 3b ba 29 20 3d ff f2 a2 be
       0.02477952 0.007229572 0.039102294 -0.31826016
000340 3a e3 c0 3d f0 4f 49 3e de 7c 09 3d 1e 7e c4 3c
       0.0941834 0.196594 0.03356635 0.023985919
000350 63 57 26 be 9b 50 b0 3c 04 c3 3a bd 3a ea 64 bd
       -0.16244273 0.02152281 -0.045596138 -0.05588744
000360 9e 50 58 bd c3 24 af 3d 9d 64 5e 3e 8f ef 0a bd
       -0.052811258 0.085519336 0.21718068 -0.033919867
000370 3b 81 a5 3e 4c 4d 4e be b2 14 ba bc 71 10 b5 3d
       0.32325158 -0.20146674 -0.022714946 0.088410266
000380 38 91 22 3d 0c 66 28 be 74 46 4e 3b da e4 25 3e
       0.039689273 -0.16445178 0.0031475099 0.16200581
000390 e1 5c 10 be 6e ca e4 3d 35 8d 08 3e 25 44 49 be
       -0.1409793 0.11171423 0.13335116 -0.19654901
0003a0 58 f3 7a bd 0e b7 b4 bd a1 d7 6c 3d c1 89 5f bd
       -0.061267227 -0.088239774 0.057822827 -0.05457473
0003b0 bd 6b 2d 3b c6 cb b3 bd 72 e1 29 3e 24 a1 02 bb
       0.0026461922 -0.08779101 0.16589907 -0.0019932473
0003c0 cc d2 00 3d 5c ec fa 3d 7d 84 b5 3d 19 9f 91 3e
       0.03145103 0.12252113 0.08863161 0.28441694
0003d0 10 ea 6b bd e5 e9 d7 bd 78 8a ef bd af 02 9a 3d
       -0.057596266 -0.10542659 -0.11696333 0.07520043
0003e0 4a 90 b2 bd 40 d6 2c be a1 23 86 bd ba d9 37 be
       -0.08718927 -0.16878605 -0.065497644 -0.1795415
0003f0 b5 4d d8 3d 17 04 d5 3c 56 f2 09 bc 57 b6 1b bd
       0.105616964 0.026002927 -0.008419594 -0.03801569

actor_backbone.0.bias f4 [128]
000000 72 3e 9d bd 76 b7 b1 be f3 44 80 be 7c 9d 48 be
       -0.07677926 -0.34710282 -0.25052604 -0.19591326
000010 c4 97 c4 3e d1 5e 82 be ce ec 5b be 7f b0 7d 3e
       0.38397038 -0.25462964 -0.21477053 0.24774359
000020 5b 46 36 3e 95 27 16 be 90 5e 1a be 90 a2 96 be
       0.17800276 -0.14663537 -0.15075135 -0.294209
000030 4d de 4c 3e a1 dc 3b be c1 63 55 be 54 c4 fd bd
       0.20006676 -0.18345882 -0.20838834 -0.12390962
000040 f3 d3 a7 bd a7 d9 b1 3e 51 89 47 bc 2b c1 b2 3e
       -0.08194723 0.34736368 -0.012178735 0.34913
000050 63 19 61 bd 4e 16 9f 3e fc db 89 3c eb d3 dc bd
       -0.05495585 0.31071705 0.01682853 -0.10782608
000060 a7 9d 83 3e 91 a8 86 3e 2a d0 ca 3d 6f 95 b1 be
       0.25706217 0.2630048 0.099029854 -0.3468432
000070 1a 59 8a be 2c 14 82 3e 5b 7b 88 be 14 5e 41 3d
       -0.27021104 0.25406015 -0.26656613 0.04720886
000080 78 af 77 be 7d 53 a5 be 8a 17 b9 be 9d c8 06 be
       -0.2418803 -0.3229026 -0.3615077 -0.13162465
000090 88 ff a0 be f4 43 8e be 4f 15 35 3e ce f6 98 3c
       -0.31444955 -0.2778622 0.1768391 0.018672373
0000a0 ee b0 a9 3e 33 3c 38 bb d0 07 ce bc 82 81 54 3e
       0.331428 -0.0028112053 -0.02515021 0.20752528
0000b0 87 7a b3 be 32 50 52 3e d9 49 35 3e a1 45 9f be
       -0.35054418 0.20538405 0.17703952 -0.3110781
0000c0 e7 90 34 3e bd da d4 be 62 a5 cd 3d e9 da 84 3e
       0.17633401 -0.41573134 0.1004131 0.25948265
0000d0 a7 e5 8e 3e d6 ab 95 3e 1c 33 0f 3e 6d dd 5d be
       0.27909586 0.29232663 0.1398434 -0.21666498
0000e0 ab e3 9d 3c 1c df 36 be 60 f2 a6 3e df 50 fb bd
       0.0192736 -0.17858547 0.32606792 -0.12271284
0000f0 3e b1 7b 3d 5a 54 0f be ef 2d 7a 3c 91 5f 83 be
       0.06144833 -0.13997021 0.0152697405 -0.2565885
000100 7a 36 08 be cc f3 36 be a0 0a 12 3e 23 1d 4d 3e
       -0.13302031 -0.17866439 0.14261866 0.20030646
000110 24 09 7c be 4e 20 aa be 7b 98 6a 3e 21 c8 db 3d
       -0.24612862 -0.33227772 0.22909729 0.10731531
000120 16 37 9d be c4 76 42 be 12 33 56 3e 07 5b b4 3e
       -0.3070609 -0.18990618 0.2091792 0.35225698
000130 d5 37 d0 3d 26 2d 95 3e d7 42 b7 be 98 eb 9b 3e
       0.10166899 0.29136008 -0.35793182 0.3045318
000140 ca c4 8b be e9 1a 81 be 0a 6b e2 3d 72 d9 b9 bd
       -0.27298576 -0.25215843 0.11055572 -0.090746775
000150 95 fe 38 3e 6c 9b 87 bd 03 c9 9a bd d4 82 3c 3e
       0.18065865 -0.06621441 -0.07557871 0.18409282
000160 cc 82 ab be 42 16 87 3e 1f ba 96 be 65 25 a5 be
       -0.33498228 0.2638417 -0.29438874 -0.32255092
000170 94 ca 3f be 39 71 04 be 88 f0 26 be 60 c9 43 3e
       -0.18729621 -0.12933816 -0.16302693 0.19119787
000180 a5 d7 09 be ac 89 6f 3e 97 42 5e 3e d9 1f 31 be
       -0.13461168 0.23392361 0.2170509 -0.17297305
000190 9f 9a 03 be 17 03 6e 3e 4e 7e 55 be 9e 8b 4a 3e
       -0.12851952 0.23243366 -0.20848963 0.19779822
0001a0 6c 73 4f be a5 e7 a2 3e f7 66 75 be d7 3c d9 3d
       -0.20258874 0.31817356 -0.23965059 0.106073074
0001b0 61 39 21 be f6 8b f4 bd ca a2 a2 3e 2e 60 ad be
       -0.15744545 -0.11940758 0.31764823 -0.33862442
0001c0 cf 47 b1 3e 34 8f 80 3e b2 68 8f 3e 35 c2 9f 3e
       0.34625098 0.25109255 0.28009564 0.31202856
0001d0 bc ab 30 3e 46 b3 f3 3d 51 ca 55 be e0 be 65 3e
       0.17253011 0.11899428 -0.20877959 0.22436094
0001e0 46 9d 83 3e 53 3d 4d be 05 2b c4 be cb 2a 9b 3e
       0.25705928 -0.20042925 -0.3831407 0.30306086
0001f0 ff 27 96 3e 62 dc d2 3d 99 ff e2 bd 34 0b 5d 3e
       0.2932739 0.10295941 -0.11083908 0.21586305

actor_backbone.2.weight f4 [128, 128]
000000 04 5e 42 be 4a d9 10 bd d3 ec 95 be 0b 08 3c bd
       -0.18981177 -0.035363473 -0.29282245 -0.045906108
000010 55 e3 ac bd e7 aa 30 3c e9 d0 94 3d 79 55 95 be
       -0.08441798 0.010782934 0.07266409 -0.29166773
000020 58 fb fe 3d cc c0 b3 3d 24 81 4a be 9f a7 a8 bd
       0.12450284 0.087770075 -0.19775826 -0.08235096
000030 c0 2a a7 3d de 47 28 bd ce a3 74 3d 85 df 95 be
       0.08162451 -0.041084163 0.05972653 -0.29272094
000040 ee 65 3d 3d 71 8d 9e 3c ce 27 4d bc c1 39 84 3d
       0.046239786 0.019354554 -0.012521697 0.06456328
000050 25 e3 92 3e af 05 81 3e 51 91 99 bd cc 38 1b be
       0.28688923 0.2519965 -0.0749842 -0.15158385
000060 5d ff b9 bc e2 3e 42 bc 2f e3 8f 3e 64 90 bd 3d
       -0.022704775 -0.011855813 0.28103015 0.09256056
000070 b9 57 8e be c3 89 65 3e d7 15 a7 bd 76 a4 0e be
       -0.27801302 0.22415833 -0.081584625 -0.13929924
000080 fd 33 41 3e 5a 75 f3 3d 71 5d 48 bd f7 0c 2d be
       0.18867488 0.118876174 -0.048917238 -0.16899477
000090 6d 2b b7 3d 4c 41 89 3c 38 8f 8b 3e 70 57 72 be
       0.0894383 0.016754769 0.27257705 -0.23666167
0000a0 3c 63 07 3e 4e 9d 35 3e 2f d1 24 3d 81 b2 88 bd
       0.13221449 0.17735788 0.040238556 -0.06674672
0000b0 6c e8 a3 bd 23 40 66 bd e9 f3 35 bd 80 b8 e2 bd
       -0.08003315 -0.05621351 -0.044422064 -0.11070347
0000c0 4a d9 b1 bd 63 a4 8e 3d 26 12 8a bd f9 4f d5 3d
       -0.08684023 0.06964948 -0.06741743 0.10415644
0000d0 a6 54 a2 3d 74 5d 34 be 0f 91 59 bd 5d 41 54 be
       0.07926302 -0.17613775 -0.053116854 -0.20728059
0000e0 3a 8e 2d be 9f 53 23 be 4c a9 07 3e dc 89 9a bc
       -0.16948786 -0.15949868 0.13248175 -0.018864565
0000f0 38 6d 3e 3e 23 d2 ba 3d 5e 4f 45 bd 95 f2 e6 3d
       0.18596351 0.09122112 -0.048171394 0.112767376
000100 bf 46 7b be f6 8b 65 3d 16 e0 50 3d 38 05 31 3e
       -0.24538706 0.05604168 0.050994955 0.17287147
000110 47 65 b8 bd 12 c1 37 be 1d 6d fc 39 cd 3b f7 3d
       -0.09003692 -0.17944744 0.0004814648 0.12071953
000120 5a a7 a8 bc d8 d9 4d 3e 66 80 9b 3d be 80 bb 3e
       -0.020587612 0.20102632 0.075928494 0.3662166
000130 ff 91 74 bd a0 b8 8d bd 4d 17 a6 bd e2 0b 78 bc
       -0.059709545 -0.0691998 -0.08109913 -0.015139552
000140 91 c4 e2 bd 85 dd 93 bd 4a df 02 be 56 08 8e 3d
       -0.11072648 -0.07219986 -0.1278049 0.06935184
000150 29 07 15 3e 2c a3 f1 3d c2 32 d3 3e 93 68 08 bd
       0.14553513 0.11798701 0.41249663 -0.033302855
000160 17 45 88 3c 80 5e 49 3e 9e 95 3a 3d 36 5d 10 3e
       0.016634507 0.19664955 0.045552842 0.14098057
000170 e4 31 90 3e ba 11 94 be a1 20 64 bd 84 88 33 3e
       0.28163064 -0.28919774 -0.05569518 0.17532545
000180 da 67 d6 be 42 4e 9e bc b1 d5 4e be 94 0e 32 be
       -0.41876107 -0.019324426 -0.20198704 -0.17388374
000190 c9 f6 a2 be a1 eb ab 3e c9 7d e4 bd 72 ff c9 bd
       -0.31828907 0.33578208 -0.11156804 -0.098631755
0001a0 42 ee 18 be 35 fd 01 3e d1 12 59 3d 4a f1 a8 be
       -0.14934638 0.12694247 0.05299646 -0.3299659
0001b0 0b 55 1d bc 92 dc 2b be 92 ad 65 3e e6 d4 00 bc
       -0.009602795 -0.1678336 0.22429493 -0.007863259
0001c0 c1 7c 7f 3e 9e 37 46 3e 61 43 06 3e 98 28 52 bc
       0.24949934 0.19357154 0.1311164 -0.012827061
0001d0 9e 6b 3b 3e b3 94 11 be 8d 20 33 3e 3d 68 76 3d
       0.18302771 -0.1421688 0.17492886 0.060158003
0001e0 f6 75 a7 bc 44 e3 ca bd d0 8c 8c bc f7 ec e0 bb
       -0.02044199 -0.09906629 -0.017156988 -0.006864186
0001f0 e2 06 e3 bd af fc 8d 3d 0a d3 d1 3e e4 29 5a 3e
       -0.11085297 0.06932961 0.40981323 0.21305043
000200 f6 e6 e6 bc c3 7f 8c 3d a0 54 24 3e 08 e6 54 be
       -0.028186303 0.06860306 0.16047907 -0.20790875
000210 83 a8 2e 3d 6f 2f db 3c 57 63 c6 3c b5 bd 1f be
       0.042641174 0.026756017 0.02421729 -0.15599711
000220 4a a2 1f 3e 38 57 8d 3d ab c9 ce bc 50 4c 46 3e
       0.15589252 0.06901401 -0.025242647 0.19365048
000230 34 2f 96 3e 76 eb a2 bd 2e 01 f1 3c 33 91 96 be
       0.29332888 -0.07955067 0.029419508 -0.29407653
000240 ad 16 8e bd 91 57 5e 3d bd 19 99 be 22 3c 0f 3d
       -0.06937919 0.05428273 -0.2990245 0.034969456
000250 44 09 9b 3b 7b 00 1f bd e3 22 d5 3b d2 9c 6b be
       0.004731329 -0.038818818 0.006504403 -0.23009041
000260 6e da 52 be d1 7d 3f be 91 bf 06 bc 71 5f 05 3e
       -0.20591137 -0.18700339 -0.008224384 0.1302469
000270 91 8b b8 be 9d d0 13 3e bb 3f 4c be 20 3c f7 3d
       -0.3604398 0.14435048 -0.19946186 0.12072015
000280 7a 37 0e 3e 91 41 3b bd 97 12 83 3c c5 b4 0a bc
       0.1388835 -0.045716826 0.016000075 -0.00846595
000290 e9 57 39 bc a7 71 2c bd 38 4b 09 bd 78 83 43 be
       -0.011312463 -0.042100575 -0.033519 -0.1909312
0002a0 cd fe 23 bd 49 94 19 3e cd 9a ba bb 9e 32 50 bd
       -0.04003792 0.14997973 -0.005694723 -0.050829522
0002b0 54 23 2c be d3 3b fd 3c 7d ac 12 3e 19 94 05 bd
       -0.16810352 0.030912315 0.14323612 -0.03261194
0002c0 2b 71 0f 3c 64 c9 b2 3d bf 72 81 3e 7f c7 06 be
       0.008755009 0.087298185 0.25282857 -0.13162039
0002d0 14 79 6a 3d b1 5a ae bc cb 5a ef bb 8d 80 0e 3e
       0.057244375 -0.02128348 -0.0073045245 0.13916226
0002e0 d7 4d ac 3c 63 18 2e be 5e 08 58 bd ae ca 94 be
       0.02103321 -0.1700149 -0.052742355 -0.29060882
0002f0 34 f9 8e 3d e6 3d 7e 3d 93 df 27 be 69 22 37 be
       0.069811255 0.06207075 -0.1639388 -0.1788422
000300 e2 32 36 be 2c 52 89 bd 0a 3d 06 be b7 77 0f bd
       -0.17792848 -0.06705126 -0.13109222 -0.03502628
000310 4c 7e 1a be 71 1d 2c bd b2 d3 31 be 4d b4 6b bd
       -0.15087241 -0.042020265 -0.17365912 -0.057544995
000320 af 85 49 be 4b 85 29 3e 60 91 90 bd e4 f2 2c 3e
       -0.19679902 0.16554753 -0.07058978 0.1688953
000330 45 75 63 bd 9f 60 99 be 96 bc 92 3d 26 d3 76 3d
       -0.05553176 -0.2995653 0.07164876 0.06025996
000340 a5 ed 6c 3e 8b cb df bd 59 62 f2 bd 7c b4 a8 bd
       0.23137529 -0.109274946 -0.118351646 -0.0823755
000350 aa 99 32 bc 82 00 3f be 2b f8 b3 3d 63 e4 34 3e
       -0.010900894 -0.18652537 0.08787569 0.17665248
000360 0c 7c 0e 3d d2 e7 a0 bd fd 78 a9 bc 91 95 88 bd
       0.03478627 -0.07856716 -0.020687575 -0.066691525
000370 89 9c c2 bd a0 b7 08 be 4f a9 d6 3b 03 7c 91 be
       -0.09502513 -0.13351297 0.006550945 -0.28414926
000380 93 8b 2c be 59 73 a6 be c9 e2 49 3e 27 91 3d bd
       -0.16850118 -0.32509878 0.19715418 -0.046281006
000390 08 28 a7 3d 3a a6 e2 bd af e6 aa 3e 59 f1 1c 3d
       0.08161932 -0.110668615 0.33379123 0.038316105
0003a0 48 bb 21 bd 3a 45 28 be c0 d5 c6 bd a3 d5 03 be
       -0.039485246 -0.16432658 -0.09708738 -0.12874465
0003b0 b2 b4 5a be 29 2c a9 be 9e 99 d7 3d 50 2b 96 bd
       -0.21357992 -0.33041504 0.10527347 -0.0733248
0003c0 a5 7e 88 bc 76 38 ed ba 4c 17 c6 bc 1f 54 54 3c
       -0.016661951 -0.0018098492 -0.02418103 0.012959509
0003d0 88 dc 86 3e 4b 6d ac 3d 11 3d 70 be b5 ed d5 bd
       0.26340127 0.084192835 -0.23460795 -0.1044573
0003e0 5b 76 94 3d 8d 4a e8 3d b1 e6 94 3e 29 bf 3d be
       0.07249137 0.113423444 0.29082254 -0.18529953
0003f0 a1 07 05 3d 8d 1e 61 3e ed 2e d0 3d 6c 09 ac bb
       0.03247798 0.2198431 0.101652004 -0.0052501466

actor_backbone.2.bias f4 [128]
000000 c1 42 12 3e e9 ef ac 3d c0 a3 5e 3d 24 f1 c2 bd
       0.14283277 0.08444197 0.054355383 -0.0951865
000010 57 ca 8f be 96 af 25 3e e8 9c 1a 3e ef c7 80 bd
       -0.2808406 0.16180262 0.15098917 -0.06288134
000020 aa 5b fe bd 65 ba 90 be b7 4c 94 3e 92 a0 9b 3e
       -0.12419827 -0.28267208 0.2896478 0.30395943
000030 f9 83 8e 3e fa db 9c bd b2 c4 9e be 4a 51 29 be
       0.27835062 -0.07659145 -0.31009442 -0.16534916
000040 17 09 aa 3e 79 a0 51 3e c8 23 50 be 55 32 9f 3d
       0.3321006 0.20471372 -0.2032615 0.07773272
000050 1e 64 a4 3d 06 46 b5 3d cc d2 84 3e 4e 50 a6 3d
       0.08026908 0.088512465 0.25942075 0.08120786
000060 28 0a 47 be 8e af 4a 3e 32 f4 4b be 96 e1 16 3d
       -0.19437468 0.19793531 -0.19917372 0.03683623
000070 a5 ff a4 be a8 6c 96 3d 23 28 82 be a7 52 0f 3e
       -0.3222629 0.07344943 -0.25421247 0.13996373
000080 b2 39 27 be fc ac 97 be 76 69 c1 3d 35 1e 27 3e
       -0.16330603 -0.29624164 0.09443943 0.16320117
000090 59 ed 88 3e 19 44 93 be 5c 4a ca 3d fb 5c 8b be
       0.26743582 -0.28762892 0.09877464 -0.27219376
0000a0 d5 c8 50 be 1e 2c 77 3d 01 8a 81 3e df 6d 7c be
       -0.20389111 0.060344808 0.253006 -0.24651287
0000b0 f8 58 75 3e 05 35 17 be 34 e1 28 bd af 91 a1 3e
       0.2395972 -0.14766319 -0.041230395 0.3155646
0000c0 f7 11 7c 3e 5e c5 2e 3e 29 d7 f5 3d 4c bb 6f 3e
       0.24616228 0.17067477 0.12003929 0.23411292
0000d0 41 b7 84 3e 4c 15 95 3e ba 53 a8 3e c7 69 9a 3e
       0.25921062 0.2911781 0.32876378 0.30158827
0000e0 d1 d4 0c 3e 94 75 82 bd 50 13 81 3e 87 29 c2 bd
       0.13753058 -0.063700825 0.25210047 -0.09480577
0000f0 4a c6 81 3e c2 63 76 bb 98 e2 60 bd 85 60 8a be
       0.25346595 -0.0037596081 -0.054903597 -0.27026764
000100 9b cf 0e 3e 7e 2a 11 be df aa 39 be 25 16 67 3e
       0.13946383 -0.14176366 -0.18131588 0.22567041
000110 d5 7a 0f be db 68 8f 3e cf 52 94 3e 98 b0 3e 3e
       -0.140117 0.28009686 0.28969428 0.18622053
000120 93 78 95 3e 05 13 40 be c0 fb 75 be 54 89 75 be
       0.29193553 -0.18757255 -0.24021816 -0.23978168
000130 f0 d2 80 be 84 38 26 be 31 7c 2e be b2 b3 48 be
       -0.25160933 -0.16232497 -0.17039563 -0.19599798
000140 8d f5 72 3e 51 6d 22 be f9 59 a6 be c0 4d 63 be
       0.23726483 -0.15862013 -0.3249052 -0.22197628
000150 28 82 97 3e 4d 98 77 be 55 ba 2e be 60 60 94 be
       0.2959149 -0.24179192 -0.17063268 -0.28979778
000160 f6 a0 65 3e 22 e1 0e be e0 f4 15 3e 72 30 4d 3e
       0.22424683 -0.13953069 0.14644194 0.20038012
000170 7c 58 08 be ef e0 19 3e 41 18 24 3e ad 9c c7 3d
       -0.13315004 0.15027212 0.16024877 0.097466804
000180 62 4d 91 be 40 62 8e be 67 d2 8c be b6 8a 0b bd
       -0.2837935 -0.27809334 -0.27504274 -0.034067832
000190 a8 54 2f be eb 4d 8c be 45 82 88 3e 6e db 4d be
       -0.17122138 -0.27403197 0.26661888 -0.20103237
0001a0 24 09 98 be 32 b1 16 bc 1d 13 a6 be 5e 50 8a 3e
       -0.29694474 -0.00919752 -0.32436457 0.2701444
0001b0 c0 73 74 be dd ee 89 3e 66 96 07 3e 2b e4 78 3c
       -0.2387228 0.2694005 0.13240966 0.015191118
0001c0 7e 15 18 3c 91 a5 76 3e 0b 09 e4 3d c0 73 3f be
       0.009282468 0.24086596 0.11134537 -0.18696499
0001d0 a7 b6 2b be 83 32 31 be 07 7a c3 bd 3c 36 0a be
       -0.16768895 -0.17304425 -0.09544759 -0.13497251
0001e0 a1 08 97 3e 5b 07 14 be 34 af 97 be 31 8d 94 be
       0.2949877 -0.14455931 -0.29625857 -0.2901397
0001f0 af 15 a7 3e 7a 52 78 be 70 98 a7 be af 4d 1d 3e
       0.3263373 -0.24250212 -0.32733488 0.15361665

reward_backbone.0.weight f4 [128, 22]
000000 cf f0 2a 3e 47 1e 7a bc bb 70 18 3e 79 f7 b6 3e
       0.16693424 -0.015266008 0.14886753 0.35735682
000010 1b f6 f1 3c 50 6b 86 be ba 8f 66 bd 7e 21 1b 3d
       0.029536298 -0.26253748 -0.056289412 0.037873738
000020 1b e8 e9 3d 1d 6a 50 be e9 65 95 bd c6 d8 72 3c
       0.11421224 -0.20352979 -0.072948284 0.014822191
000030 94 80 87 3d d6 b6 42 bc 43 f4 1d bd 7e 60 04 3d
       0.06616321 -0.011884412 -0.038563024 0.032318585
000040 7c 69 6f 3c 2c 3d 8b bc 38 0d 5c bd 49 56 b7 bc
       0.014612552 -0.016996942 -0.053723544 -0.022380011
000050 0a 0a 02 3e 6f de 1a 3e 0c 2f 94 3d f0 0a eb b6
       0.12699142 0.15123914 0.07235536 -7.004819e-06
000060 0e 98 65 3c 20 60 53 3d 2a 7f 8e 3d b2 aa 02 3e
       0.014013303 0.051605344 0.06957848 0.12760428
000070 82 e6 1e bd ef 1a 6d bd ce d8 ff 3d 7b 3d fb bd
       -0.038794048 -0.057887014 0.12492524 -0.12267586
000080 bc 8f da bc 3f 69 8a be 58 ed 57 3e f1 da 7c bd
       -0.026679866 -0.2703342 0.21086633 -0.061732236
000090 f1 77 2f bd b0 11 7d bd d2 0b d4 3c e9 0f 04 3e
       -0.042838994 -0.061784446 0.025884543 0.12896694
0000a0 20 bf bb bc 94 ad 45 be 6e ff 14 bd da 67 d1 3d
       -0.022918284 -0.19304496 -0.03637641 0.10224886
0000b0 0a b4 2b bc ef 38 02 be 12 ec 53 bd 50 55 36 be
       -0.010479936 -0.12717031 -0.051738806 -0.17805982
0000c0 fc 4e ab bc c4 f9 c1 bd b5 3b 74 bd 81 44 d3 3c
       -0.020911686 -0.09471467 -0.059627254 0.025789501
0000d0 21 6d 26 be 76 00 da 3c a5 f8 9d bc df 8b 79 bc
       -0.16252567 0.026611548 -0.019283602 -0.015231102
0000e0 8a 77 9c 3e 25 44 de bd fc b5 a3 3c 8d ba 71 3e
       0.3055995 -0.10852841 0.019984238 0.2360632
0000f0 01 20 0d bd ab 02 a2 bd 0c 3a 1d be 4c 72 13 be
       -0.03445435 -0.07910665 -0.15354174 -0.1439907
000100 1c 46 f4 bc 53 7a 78 be 39 b7 4e 3e 23 40 13 3e
       -0.029818587 -0.24265413 0.20187081 0.14379935
000110 eb 41 49 3e af 85 d5 bd b2 1a de bc 79 d1 9f 3d
       0.19654052 -0.10425889 -0.027112339 0.078036256
000120 74 1f 35 3c 6e e4 8e 3c f8 33 86 bd 8a e1 1a 3e
       0.011054862 0.017442908 -0.06552881 0.15125099
000130 0e 5a 21 3d d7 c1 46 be bf ba cd 3c 58 f6 a6 bd
       0.039392523 -0.19409882 0.025113462 -0.08152455
000140 17 06 b0 bc ee 43 51 3d eb 3b 65 3d 74 bf 37 3d
       -0.021487279 0.051090173 0.055965345 0.04486032
000150 c4 20 7c bd c7 64 43 be 62 b5 89 3d 5a 3b 79 bc
       -0.061554685 -0.19081412 0.06724049 -0.015211904
000160 95 d4 9c 3d 2c bc b0 bd 32 00 64 be d1 e1 7d bc
       0.07657734 -0.08629641 -0.222657 -0.015495733
000170 01 9c 11 3b 51 ff 06 bd cb 18 1c 3d 6d ca d0 3d
       0.002221823 -0.032958332 0.038109582 0.1019486
000180 00 4b e4 be 11 2d 4e be d4 38 9e bd 49 68 3d be
       -0.4458847 -0.20134379 -0.07725683 -0.18496813
000190 1c 86 9c bb 0f 40 e2 3d 94 65 69 3d 77 cd 88 bc
       -0.0047767293 0.110473745 0.056981638 -0.016699536
0001a0 d3 4d 10 3e a9 23 1b be 22 e4 75 3d 2a 3b ad bd
       0.14092188 -0.15150322 0.060032018 -0.0845855
0001b0 b0 1b ec 3d c6 00 f1 3c 5d 7f 1a 3d 0a c7 9a be
       0.115287185 0.029419314 0.03771912 -0.3022998
0001c0 04 67 65 bc ab c7 97 3e 67 0b 0d bd c4 f6 94 bd
       -0.014001612 0.29644522 -0.034434702 -0.07273629
0001d0 e7 db d4 3d f6 6a 5c 3d 9c 7d 11 3d f9 8e f8 bd
       0.103935055 0.053812943 0.03552018 -0.12136645
0001e0 21 3d 03 3e 7e 51 26 bc 46 47 f8 bd 19 49 5a 3e
       0.12816288 -0.010151265 -0.12122969 0.21316947
0001f0 27 ce 4b 3d cb 22 9e bb ac 6b 02 ba 1b b1 a5 bb
       0.04975715 -0.004825925 -0.0004975151 -0.005056513
000200 e6 35 dd bb bc b3 15 3e 29 85 ed 3d 91 c6 90 bd
       -0.00675081 0.14619344 0.11597664 -0.070691235
000210 1d c0 9a 3d 6b ff a4 3c 5d 5f 08 3e 39 97 7a bd
       0.07556174 0.020141324 0.13317628 -0.061179373
000220 4a 32 d8 bd c8 98 79 be 51 b4 22 be 32 d0 16 be
       -0.10556467 -0.24374688 -0.15889098 -0.14727858
000230 e7 39 90 3d 1b 81 5d 3e d8 34 af bd 07 ba bd bd
       0.07042294 0.21631281 -0.08555001 -0.092639975
000240 42 18 bf bd 34 97 2c be e2 10 13 bb c3 f2 99 bb
       -0.09330799 -0.16854554 -0.0022440483 -0.004698129
000250 68 68 b7 bc ee 71 6e 3b 42 dd 14 bd 4b 6c fe 3d
       -0.022388652 0.0036383825 -0.03634382 0.12422999
000260 58 ed 06 3d 11 d1 c6 bd 6b 2b f6 bd f7 f0 65 3e
       0.032941192 -0.09707845 -0.1202 0.22455202
000270 cf 44 d1 bc 84 32 1d bd 81 0b cd 3d d1 3b 89 3d
       -0.025545506 -0.038378254 0.1001196 0.06700862
000280 31 5f cb bd 50 ec 3b 3e 57 97 75 bc 89 6a 77 be
       -0.09930266 0.18351865 -0.0149896955 -0.24161734
000290 e6 5c 8c bd 15 36 4d be 28 de ae 3d 99 03 41 3d
       -0.068536565 -0.20040162 0.08538467 0.04712257
0002a0 b4 25 e5 bc 27 4b 35 bd a6 f4 0c 3c 72 14 ad bd
       -0.02797208 -0.044261124 0.008603251 -0.08451165
0002b0 cd d7 ae 3c 4c a6 2d bd 10 fd 1f be 6d 77 35 be
       0.021343136 -0.04239492 -0.1562388 -0.17721339
0002c0 e1 1e 67 3d ba 98 21 3e f0 9c e5 bd 36 27 f4 bd
       0.056425933 0.15780917 -0.11211574 -0.119215414
0002d0 c4 1d af 3d ae 79 85 bd 9b 1b a4 3c 8c 34 f6 bc
       0.08550599 -0.06517349 0.020032695 -0.030054353
0002e0 1c 92 48 3b ae ae a7 bd a9 06 68 bd c5 1b 1e bd
       0.0030604666 -0.081876144 -0.056646977 -0.0386007
0002f0 6d a9 64 3e d4 a9 f3 bd 23 35 5a be 7f 20 6b bd
       0.22330256 -0.118976265 -0.21309333 -0.057404038
000300 48 a8 ec bc 1e 28 44 3d bd fd 26 3e d2 2e f0 3c
       -0.028888837 0.04788982 0.16307731 0.0293192
000310 ef c9 9d bc 25 21 23 3e 04 e2 c9 bc 12 f9 a1 be
       -0.019261329 0.15930612 -0.024643905 -0.31635338
000320 f8 91 ad be 1e 98 75 3e f8 32 42 3e b6 bd 05 be
       -0.33900428 0.2398381 0.18964756 -0.1306065
000330 59 1d 3a bd 46 8e 17 be df eb e1 3c 46 4b 78 bd
       -0.045438144 -0.14800367 0.027578292 -0.06061866
000340 c2 d5 dc 3d 79 bc ac bd f7 12 11 bc 51 b4 36 3d
       0.107829586 -0.08434386 -0.008854619 0.044605557
000350 37 eb 91 3d 76 8b 18 3d ee 70 70 3d 5e 30 c9 3d
       0.07124942 0.037242375 0.05870145 0.098236784
000360 ce 16 52 be 2e c0 03 be 6f 1e d1 bb e7 4b bb 3d
       -0.20516512 -0.1286628 -0.006381802 0.091453366
000370 30 81 78 be 6f 4e ae 3d 95 80 34 3d 2f 71 bc 3d
       -0.24268031 0.08511054 0.044067938 0.092012756
000380 16 41 62 3e 9c a5 60 bd a5 fb 7c bd af 90 5e bd
       0.22095141 -0.054845437 -0.061763424 -0.0543372
000390 96 a3 e1 bc 14 c6 31 bc fc 8c b2 bc a0 f0 bc 3d
       -0.027543824 -0.010850448 -0.021795742 0.09225583
0003a0 52 69 af bd fe 1e 89 3d 18 d2 da 3d 12 d4 11 bd
       -0.0856501 0.066953644 0.106846035 -0.035602637
0003b0 48 f2 df 3a ea 09 6b bd 21 86 a9 3d 17 25 21 3e
       0.0017085755 -0.0573825 0.08277536 0.15736805
0003c0 04 a8 3d be 72 2e 8c 3c df e3 70 3e 1a bf d4 3d
       -0.18521124 0.01711199 0.23524426 0.10388012
0003d0 03 7d 0a be 4a b7 be bb 98 46 ba 3c 28 6e 94 3d
       -0.1352425 -0.0058201896 0.02273874 0.07247573
0003e0 84 a5 89 3d 07 55 fb bc 92 d3 9b bc b1 3e 7d 3b
       0.06721023 -0.030680193 -0.019021783 0.0038642103
0003f0 25 62 80 3d 94 5b 06 3d 35 21 3a 3d 7c 21 8c 3d
       0.062687196 0.03280218 0.045441825 0.06842324

reward_backbone.0.bias f4 [128]
000000 28 18 83 3e 27 47 7c 3e 1d e6 85 be 2a 55 f9 3d
       0.25604367 0.24636517 -0.26152125 0.12174447
000010 a1 f1 03 3e d0 e2 e3 bd 10 54 84 3e 70 57 32 3e
       0.12885143 -0.111272454 0.25845385 0.17416167
000020 ff 6d d5 be 00 8d 8a bb e3 a3 99 be 37 42 72 3c
       -0.41685483 -0.0042282343 -0.30007848 0.014786295
000030 72 1f f3 bc 59 25 c5 bd fd a9 49 3c e3 7a 81 3d
       -0.02967808 -0.09626264 0.012308595 0.06322267
000040 24 e0 87 be 86 2f ca 3e a0 3e cc bd 01 df 81 3e
       -0.26538193 0.39489383 -0.09972882 0.2536545
000050 1e a6 4c be 7e 6f a7 3e ca 5f 92 3e d7 9e 62 3e
       -0.19985244 0.3270225 0.28588706 0.22130905
000060 16 6a a5 3d 64 e3 9a be 07 91 13 3e 9d 68 4e be
       0.08076875 -0.3025161 0.14410792 -0.20157094
000070 82 1e 9a 3e 1b 1e 89 bd c7 25 66 bd eb a8 cd be
       0.301014 -0.06695195 -0.05618837 -0.40167937
000080 40 95 89 3e be bb ac 3d d5 b3 12 3e b1 0b c9 3e
       0.2687168 0.084342465 0.14326413 0.39266732
000090 4d fd 90 3d ab 1e 47 3e 89 e4 9e be d0 1c 49 bc
       0.07079563 0.19445293 -0.31033733 -0.012274936
0000a0 db ba a6 be 25 96 76 bc 0c af 85 be 57 56 53 be
       -0.32564434 -0.015050446 -0.26110113 -0.20638405
0000b0 8e 9e 49 bc fa 0e d9 bd e0 61 ac 3e fd 70 49 be
       -0.012305869 -0.1059856 0.33668423 -0.19672008
0000c0 7c 76 95 3e 82 8b a0 be 90 8d 30 3e 3d 16 b5 be
       0.2919196 -0.31356436 0.17241502 -0.3536853
0000d0 91 80 7b bd 13 47 ac be 14 ee 6e be 0e 8e de be
       -0.061401907 -0.33647975 -0.23333007 -0.43467754
0000e0 c3 07 d8 be d6 e0 34 be 4e 93 0d 3e 8d c1 97 be
       -0.42193422 -0.17663893 0.13825724 -0.29639855
0000f0 25 64 a4 be 38 a5 90 3e 1a df 90 be 81 85 94 3b
       -0.32107654 0.28251052 -0.28295213 0.0045325165
000100 11 ab 9c 3e 53 b1 9e 3e ef ad 0c 3e ce c1 39 3e
       0.30599263 0.30994663 0.13738225 0.18140337
000110 8b 47 40 3e f2 02 89 3e 03 6e c0 bd 74 1f 00 3c
       0.18777291 0.2676006 -0.09395983 0.007819999
000120 60 a6 a6 3d b2 76 2a 3e e6 d7 a8 3e 06 7f 42 3e
       0.08137202 0.16646841 0.32977217 0.18993768
000130 36 d5 0c be 91 13 c8 be db d8 44 3e b9 d6 92 3e
       -0.13753209 -0.39077428 0.19223349 0.28679445
000140 9d 67 a4 3e 67 f1 80 ba ba f7 ea be 89 29 62 be
       0.321103 -0.0009837569 -0.45892125 -0.22086157
000150 cd 7d c1 bd 38 5e b7 3e e6 a3 94 be ee 28 b4 3e
       -0.09447823 0.3581407 -0.29031295 0.35187477
000160 6b df 0f 3c 4c 2b e6 3d ac 40 f7 bd 1f b1 62 be
       0.008781294 0.11238727 -0.12072882 -0.22137879
000170 34 cd b8 be 51 61 93 be 76 cb 50 bd b6 10 4b 3e
       -0.36094058 -0.28785184 -0.050975285 0.19830593
000180 75 2c 97 3e 15 8d 72 be e3 4b 29 be a3 c1 a0 3d
       0.29526106 -0.23686631 -0.16532855 0.07849433
000190 72 d5 8f 3c 0f 4e f1 3d 03 e4 c7 3d d7 e9 ee bd
       0.017557833 0.117824666 0.09760287 -0.11665695
0001a0 5f 48 9c 3e a7 6f 7c bd a6 b1 13 be 14 4d b8 be
       0.30523965 -0.061629917 -0.14423236 -0.35996306
0001b0 a9 3b 77 be 35 91 a0 be cd 3e 83 3d e8 1d 82 be
       -0.24143852 -0.31360784 0.06408463 -0.25413442
0001c0 42 eb 91 3e 9d e3 9f bd 9d b0 72 3c c4 ed 62 3e
       0.284998 -0.07807086 0.014812616 0.22161013
0001d0 f6 c9 66 bd 44 62 ec bd e7 83 f3 bd 7f dc 8e bd
       -0.05634495 -0.1154218 -0.11890393 -0.0697565
0001e0 24 b6 25 3e dd 01 37 be 9b ed 39 3e 6c f4 ea bd
       0.16182762 -0.17871805 0.18157046 -0.11472401
0001f0 2c fa 93 bc 92 20 b6 3e 6e 73 70 be 86 ff a6 bd
       -0.018063627 0.35571724 -0.23481533 -0.08154206

reward_backbone.2.weight f4 [128, 128]
000000 be af 08 3d bb 31 92 3d a0 b6 89 bd c4 9b 1b bd
       0.033370726 0.071383916 -0.06724286 -0.037990347
000010 bc 95 77 bb ae b1 d2 bc 30 59 1a 3d 87 a0 0e 3e
       -0.0037778458 -0.02571949 0.037682712 0.13928424
000020 04 30 91 bb 3d dd f2 3b 2f 9c 5a bd c2 99 58 be
       -0.0044307727 0.0074116276 -0.053371605 -0.21152404
000030 79 ce e8 3d 81 43 3e be d1 71 68 3d f2 01 1d 3e
       0.113675065 -0.18580438 0.05674917 0.15332773
000040 60 d0 29 be a8 df 0f 3f 81 3b 1e 3d db 36 00 3e
       -0.16583395 0.5620065 0.038630966 0.12520926
000050 b2 ba 6e bd 3f 52 40 3d f7 c2 c4 3e 42 43 bf bc
       -0.058283515 0.046953436 0.38429996 -0.0233475
000060 f8 69 37 3e a1 c8 81 be 63 0f 22 be 5c 24 04 3c
       0.17911518 -0.2534838 -0.15826182 0.008065309
000070 6f d2 27 3e f2 d8 45 be 75 a6 88 3d 79 86 5f be
       0.16388868 -0.1932104 0.06672374 -0.21828641
000080 59 ed 1b 3e 85 3d 66 3d 3e f3 df 3d c2 ae eb 3d
       0.1522726 0.056211013 0.10935067 0.11507942
000090 e5 09 cc 3d fe 69 4e 3e 5c c1 45 be c0 6f 31 3d
       0.09962825 0.2015762 -0.19312042 0.043319464
0000a0 c9 e1 df be d9 b4 bc 3d 89 15 81 bb 01 37 f2 bd
       -0.43726948 0.092141815 -0.003939335 -0.118268974
0000b0 5e ca 2d bd 91 ab 24 bd c2 81 bf bd 8a 56 3d be
       -0.04242932 -0.04020268 -0.09350921 -0.18490043
0000c0 6f 3d 4a 3e 83 e5 30 be 1b 60 12 3e c3 2b 57 be
       0.19749998 -0.17275052 0.14294474 -0.21012788
0000d0 0b e5 82 3c 23 a6 8e be ab 33 12 be 00 a3 f9 bc
       0.015978357 -0.27861127 -0.14277522 -0.030473232
0000e0 19 eb 89 be 64 22 92 be de 38 c9 3c 1a 37 e5 bc
       -0.26937178 -0.28541863 0.02456325 -0.027980376
0000f0 03 f4 71 be 2c a0 1a 3e 35 e5 9d be 2d 2f 23 3e
       -0.2362824 0.15100163 -0.30838934 0.15935965
000100 8d ac 40 3e b6 52 25 3d bc 34 22 bd b5 19 40 be
       0.18815823 0.040362082 -0.039601073 -0.18759806
000110 cf 6d 3a 3d e6 15 69 3a e7 b2 20 be 8d ae b6 3c
       0.045514878 0.0008891508 -0.15693246 0.02230003
000120 db c5 5a 3e 7c 38 5e 3e cd d1 07 3f 1f d0 2c 3c
       0.21364538 0.21701235 0.53054506 0.010547667
000130 ef 57 8b bd fe 03 dc be 65 cf 4f bd 75 34 8a 3d
       -0.068038814 -0.42971796 -0.050734896 0.06748287
000140 be 30 63 3e 66 04 10 bd a3 65 af 3d 9c 0e da bd
       0.22186562 -0.035160445 0.085643075 -0.10647318
000150 49 91 8a bd 62 3e 85 3d e1 45 c4 be fc d7 21 3e
       -0.06765992 0.06506039 -0.38334563 0.15805048
000160 18 fc 94 3e 9d d9 23 3e 4b 07 06 be 4b cd 02 bd
       0.29098582 0.16000982 -0.1308872 -0.031934064
000170 3e 4f 32 be 7e a1 5c be 9e ec ff 3d 2e b7 dc 3d
       -0.17413041 -0.2154598 0.12496303 0.10777126
000180 5a 07 c1 3d 57 80 46 be 23 45 7a bc d9 76 fe 3c
       0.0942523 -0.19384895 -0.015275273 0.03106253
000190 1f 4b 2a 3d 1e 67 0c be 31 fd 55 bd c2 18 5c 3d
       0.041575547 -0.13711211 -0.052243415 0.05373455
0001a0 38 04 a8 3d fe 41 20 bd 90 8d 2d be fd c4 d2 be
       0.0820393 -0.039125435 -0.16948533 -0.41165915
0001b0 ff bb 57 be fb 23 6c be e8 37 f6 3d f1 ff 0b be
       -0.21067809 -0.230606 0.12022382 -0.13671853
0001c0 80 da 52 3e e7 d4 09 be 7f c4 a5 bd 54 66 5a 3e
       0.20591164 -0.13460122 -0.08094119 0.21328098
0001d0 cf d9 8d bd e9 0f 50 bd 87 e0 18 be 86 91 03 3e
       -0.06926309 -0.050796423 -0.149294 0.12848482
0001e0 3e b9 cb bd ef 72 6f 3d bb f0 c0 3d d8 67 a9 bc
       -0.099474415 0.05845922 0.09420916 -0.0206794
0001f0 b4 27 a5 3d 3d b5 e7 3e 96 e4 1f be 3b cf 87 be
       0.080642134 0.4525546 -0.15614542 -0.26525292
000200 c1 66 8b be b6 7c 6e be 01 20 83 3e 7d 76 df bd
       -0.27226833 -0.23289761 0.25610355 -0.10911272
000210 ef 0c 81 bd 34 8a 0f 3d 81 a4 49 be 7b 27 29 3d
       -0.06301295 0.03504391 -0.1969166 0.041297417
000220 13 79 a9 3e 16 a0 08 be 16 54 44 3d 17 13 f2 3d
       0.33100185 -0.13342318 0.047931753 0.11820047
000230 57 f7 63 3d e2 05 1d 3d 54 30 3e be 7b 73 30 3b
       0.055655804 0.03833569 -0.18573123 0.00269243
000240 52 0a 52 3e d9 63 ee bd c2 51 fa 3d b8 bd 85 3d
       0.2051175 -0.11640138 0.12222625 0.065303266
000250 a7 b2 7b 3d c0 c6 e7 3c b5 57 3f be c9 1b 01 bc
       0.061449673 0.028293014 -0.18685801 -0.00788016
000260 c0 fd 59 be e7 47 4c 3e d5 28 89 be ed aa 30 3e
       -0.21288204 0.19949304 -0.26788965 0.17252703
000270 30 9e a5 be 2c 14 84 3e a7 ba 2d 3e 9b db b9 3e
       -0.3234725 0.2579664 0.16965733 0.36300358
000280 07 20 8f be 04 a9 20 3e 55 ce 38 be ac dc 84 bd
       -0.27954122 0.15689474 -0.1804746 -0.06487402
000290 e1 c6 0a bd 78 0c 23 be 1e b6 b1 3e 60 a9 e2 3e
       -0.033881072 -0.15922725 0.34709257 0.44269848
0002a0 86 cc 8d 3e a8 00 58 be cc 3d cc bb 93 4b 38 bd
       0.27695101 -0.21094 -0.0062329527 -0.04499395
0002b0 f1 90 12 3d 7f 83 bc 3c ad 7b 94 bd 0e 6b 47 3e
       0.03578276 0.023011921 -0.07250152 0.19474432
0002c0 b8 3e 2f 3e 7a 7c ba bc 54 89 03 be 77 f9 ae 3d
       0.17113769 -0.022764433 -0.12845355 0.085436754
0002d0 0f a1 46 3b 9f c0 28 3d 7f f8 24 3d c3 c2 50 3e
       0.00303084 0.041199323 0.040276047 0.20386796
0002e0 5f d8 37 3e e2 5b fc 3c 2c 9c c0 bd 28 42 0a 3e
       0.17953633 0.030805532 -0.094047874 0.13501799
0002f0 d9 41 a2 3e 39 da ce bd 90 ea f4 3d 62 9e a3 3e
       0.31690863 -0.101002164 0.11958802 0.31956774
000300 f9 59 58 be dc cb 5e be 53 d6 2e 3e 91 fd 4e 3c
       -0.21128072 -0.21757454 0.17073946 0.012633697
000310 cd ed c6 3d ea 77 08 3a ef 15 3b be dc 18 4d bb
       0.09713326 0.0005205857 -0.18270086 -0.0031295335
000320 9d 64 21 be 7d ac 40 be b3 bc 2d be 81 5a 19 be
       -0.15761037 -0.18815799 -0.16966514 -0.14975931
000330 59 83 38 3c d6 61 8c 3e cd 2f d2 3c 56 a9 fe bd
       0.0112617845 0.27418393 0.025657559 -0.12434642
000340 32 0f 97 bd 32 17 13 3e 58 5c 9e 3c 9c d7 27 3e
       -0.07375945 0.14364317 0.019331142 0.16390842
000350 ff c4 0e 3e 5f d9 41 be f6 97 6d 3d be 85 c8 be
       0.13942336 -0.18930577 0.05800625 -0.39164537
000360 01 f0 33 3e 68 a0 cf bd 05 de 7b be fb f5 53 3d
       0.17572023 -0.10138017 -0.24596412 0.051748257
000370 d0 d1 06 3e fc b3 47 3e e5 f0 7b 3d 24 14 e3 3c
       0.13165975 0.19502252 0.06150903 0.027719565
000380 54 23 dc bd 89 b6 b2 bb a0 bd db 3d 88 02 6c bd
       -0.10748926 -0.005453889 0.107295275 -0.0576196
000390 49 78 0c be 23 eb 4c bb e6 ac d9 3a af b3 7f 3c
       -0.1371776 -0.0031268082 0.0016607314 0.015606805
0003a0 f5 e3 ad bd b9 46 01 be 6c 4c 92 bd 44 5b b9 3e
       -0.08490745 -0.12624635 -0.071434826 0.36202443
0003b0 73 86 b5 3d fa 20 d7 3e 52 62 f6 bc 69 19 a3 3e
       0.08863535 0.42017347 -0.03007618 0.31855324
0003c0 46 8c 5d bd a3 f2 6f 3e 99 1a 03 3e 37 1f a4 be
       -0.054088853 0.23432402 0.12803115 -0.32055065
0003d0 bd de 08 be 3c ac e5 bc 07 24 b8 3e b9 c1 19 3e
       -0.13366218 -0.02803623 0.35964987 0.15015306
0003e0 a6 00 c3 bd 11 3c 83 3e 6f 98 1b 3d ce 77 8a 3d
       -0.09521608 0.25631765 0.03798717 0.06761132
0003f0 06 e4 66 bd 34 fa 62 bc 88 2a d3 3d 66 5f 95 3d
       -0.056369804 -0.013853598 0.103108466 0.072935864

reward_backbone.2.bias f4 [128]
000000 c7 92 91 3e 19 3f 74 be 47 c4 7d bd cc fd 70 3e
       0.28432295 -0.23852195 -0.061954763 0.23534316
000010 32 31 8c bd 50 42 01 3e 7f 94 a7 bd 73 72 4b be
       -0.06845321 0.12622952 -0.0818262 -0.19867878
000020 1f 07 5c 3e b2 a1 de bd 68 b8 47 3e ba a4 65 3e
       0.21487091 -0.10870685 0.19503939 0.2242612
000030 9d c4 91 bd 80 9e 85 3e c3 c8 7c be 3e 62 f4 bd
       -0.07117579 0.26097488 -0.2468596 -0.11932801
000040 31 91 54 3e 96 f8 7a be 8b ba b0 bd 5a 0f 13 3e
       0.20758511 -0.2450889 -0.0862933 0.14361325
000050 7f fb 18 be 45 ff 03 3e ba f3 44 bc 22 20 e4 bd
       -0.14939688 0.12890346 -0.012021 -0.11138941
000060 03 83 c1 bd 46 c9 18 3e e3 9f ae 3d ce e1 71 3e
       -0.094488166 0.1492053 0.0852659 0.23621294
000070 5d 4f 16 be 48 9d db bd 89 d5 0e be 6e d8 32 3e
       -0.14678712 -0.107233584 -0.13948645 0.17465374
000080 96 8a a8 3b 6f a3 a9 be 73 2d 7c be c5 ee 4b 3e
       0.005143474 -0.33132502 -0.24626713 0.19915302
000090 c4 f6 38 be 35 db 1f 3e a2 80 a8 3b 8c 8d 70 3d
       -0.18062884 0.15610965 0.0051422874 0.05872874
0000a0 1c 6a 36 be 2c 8c 86 be 74 64 ea bd 96 59 83 3e
       -0.17813915 -0.26278818 -0.11444941 0.25654286
0000b0 19 0e 07 bd d4 05 8d be 6c 2f 50 bd d1 ff 08 ba
       -0.03297243 -0.2754351 -0.050826475 -0.0005226108
0000c0 05 95 99 be 9b 87 b2 3d 25 a7 50 be d7 b0 57 3e
       -0.29996505 0.08717271 -0.2037626 0.21063553
0000d0 bc c6 2f 3d e2 35 30 3e a9 00 b0 bd 98 d0 ae bd
       0.042914137 0.17208055 -0.08593876 -0.0853588
0000e0 d8 7b 18 3e f3 5f 73 3c 4b e5 81 be ef c5 86 3e
       0.14890993 0.014854419 -0.2537025 0.26322886
0000f0 36 51 05 be 7f 32 72 3e a9 27 ce 3d ec f5 b2 bd
       -0.13019261 0.23652075 0.10066158 -0.08738312
000100 18 be 05 be cc 26 48 3e 79 2b 1d 3c c9 19 88 be
       -0.13060796 0.1954605 0.009592884 -0.26582173
000110 57 a3 4e 3e 16 27 1b 3e 1e 13 81 be a7 12 51 3c
       0.20179497 0.15151629 -0.25209898 0.012760795
000120 97 37 11 3e 01 0c 6c 3e 22 ab c4 3c e8 4d 0f 3e
       0.14181362 0.23051454 0.024007384 0.13994563
000130 50 57 68 3e 10 c3 98 bc b0 4b 6e be 7c 0f 67 3d
       0.22689557 -0.0186477 -0.2327106 0.05641125
000140 2c ae 5c 3e 37 3d 4b be c4 0a 64 3e 2c f3 95 bd
       0.21550816 -0.1984757 0.22269732 -0.07321772
000150 72 ab 6b be 03 6e 8e be 46 58 86 3e 0a a0 29 3e
       -0.2301462 -0.27818307 0.26239222 0.16564956
000160 b5 30 f7 3d 91 4b 0c be a0 ce eb bc 4c 26 45 be
       0.12069837 -0.13700701 -0.02878505 -0.1925289
000170 0a 04 ea bc dd 16 20 3e dc 6f 70 bd 66 bd 03 be
       -0.02856638 0.15633722 -0.058700427 -0.12865219
000180 e0 21 26 3e a0 95 4d be f1 c0 13 3e 55 99 71 bd
       0.1622386 -0.20076609 0.1442907 -0.05898412
000190 ba 58 d1 bd d5 7b 67 3d d3 8e 50 3e ac 58 28 be
       -0.102220014 0.05651458 0.20366983 -0.16440076
0001a0 d4 aa 9e bd 07 77 79 be 6f 89 34 be fd 89 22 3e
       -0.07747427 -0.24361812 -0.17630552 0.15872951
0001b0 94 a9 71 be 0c 43 82 3e 39 3c 72 be 91 cd 40 bb
       -0.23599845 0.25441778 -0.23655786 -0.0029419402
0001c0 5b b7 ff bc 12 94 47 3c 1d d1 67 3e 5d fd ae bd
       -0.03121536 0.012181299 0.22638364 -0.08544419
0001d0 a6 b7 76 be 36 95 96 3d 28 85 4e be b5 04 f0 bd
       -0.24093494 0.073526785 -0.20167983 -0.11719648
0001e0 f0 ee 62 bd 83 36 53 be 94 4c 6e 3e c5 4a af bd
       -0.05540365 -0.20626263 0.232714 -0.08559183
0001f0 0b a1 af bd ee 0a ca bc 9e 4c bd 3e 6a 89 13 3d
       -0.085756384 -0.024663415 0.36972517 0.03601972

cost_backbone.0.weight f4 [128, 22]
000000 67 2d 68 3e e6 cc c3 3e d6 4e f5 bd fc 12 55 3e
       0.2267357 0.38242263 -0.119779274 0.20808023
000010 30 1f a8 3d 04 fb c7 3c 0c 5c 16 3e 1d 14 18 be
       0.082090735 0.024411686 0.1468355 -0.14851423
000020 ab ea df 3c 8c 1d 3f 3e 28 f0 a4 be e9 f2 1a 3e
       0.027333578 0.18663615 -0.32214475 0.15131725
000030 88 21 a5 3d 58 e7 cd bc 72 85 7c bd 48 8f f1 bd
       0.08063036 -0.025134727 -0.0616507 -0.11794907
000040 f1 68 3e bd 55 6b 11 bc ea cf a1 3d c0 87 0f 3d
       -0.0464868 -0.008875688 0.079009846 0.03504157
000050 c7 a7 2e 3e db 80 be 3d ef c6 e6 3d af da fa 3d
       0.1705619 0.09301921 0.11268412 0.12248742
000060 43 9e 87 bc 91 d6 04 3d ca b4 f0 3c 74 e3 0d be
       -0.016554957 0.03243119 0.029383082 -0.13856298
000070 8a 6c 9a 3d d4 89 82 3e 82 b4 89 bc 18 c0 fe 3d
       0.075402334 0.2549578 -0.016809706 0.12438983
000080 a3 bc 77 be 79 b3 9e bd aa f3 11 3e 2f da 76 bd
       -0.24193053 -0.077490754 0.14253107 -0.06026667
000090 41 32 29 3d 4b 2f eb 3d 9b 8e d3 3c 3a ba 04 3d
       0.04130769 0.1148363 0.025824836 0.032404162
0000a0 92 3e 89 3c 4d 76 08 bd 96 87 28 3e 4d 38 12 3d
       0.016753469 -0.033315945 0.16457972 0.035698224
0000b0 03 e9 80 3e 8b 0c 11 be c8 5f 7e bb 56 8f 07 be
       0.25177774 -0.14164941 -0.0038814414 -0.13238272
0000c0 ac d2 c2 3c 82 c9 f2 bd d3 ed 0d 3e da c5 a0 bd
       0.023782097 -0.11854841 0.13860254 -0.07850237
0000d0 07 d6 27 bf af ed 40 bd c4 bf f9 bc 4d d0 a9 be
       -0.65560955 -0.047101673 -0.030486949 -0.33166733
0000e0 43 56 14 3d 8b ea 10 3e 8c 29 61 3c 13 80 af 3d
       0.036215078 0.14151971 0.013742816 0.0856935
0000f0 22 c3 e5 bb 78 94 c4 bc 4e a3 dc 3c 4d b1 2d bc
       -0.007011787 -0.023996577 0.026933338 -0.010601354
000100 2f 1f b7 3d 9c 18 5c 3e 0a 59 33 bd f5 aa 49 bc
       0.08941495 0.21493763 -0.043786086 -0.012308826
000110 09 46 4b bd b5 ad a6 3d 71 d0 6f 3e 38 ac e6 bd
       -0.049627338 0.08138601 0.23419358 -0.11263317
000120 d8 c0 1a bd 13 73 81 3d 65 2e 28 3c 28 03 b0 be
       -0.037781566 0.06320777 0.010264968 -0.34377408
000130 24 21 a8 3d 9e 78 6b bd e1 16 26 be 6c e6 43 3d
       0.08209446 -0.057488076 -0.16219665 0.04782717
000140 b1 3f 5c bd 90 bc 5c be d4 4b 38 39 3a 61 29 3e
       -0.05377168 -0.21556306 0.00017575856 0.16540995
000150 dc d0 15 3d 60 27 13 3d 0f 34 02 bb 20 de 09 3e
       0.036576137 0.035926223 -0.0019867455 0.1346364
000160 3d 2b d9 3e 20 0f 1c be 07 bf 8c be 03 b6 22 be
       0.424158 -0.15240145 -0.27489492 -0.15889744
000170 76 f1 8e 3d e3 73 49 bd 41 77 9b 3d 76 b4 02 bd
       0.06979649 -0.049182784 0.07591105 -0.031910382
000180 09 a3 a9 bd f9 6b d7 3d 04 f5 fc bd 32 d5 11 bf
       -0.082830496 0.10518641 -0.123514205 -0.56965935
000190 43 e2 47 bd ee 77 30 3d 71 8b 24 bc 5a 51 da bb
       -0.048799764 0.043083124 -0.010043011 -0.00666253
0001a0 5e 1d 32 3d 45 90 21 3c 89 c5 8b 3e b9 b0 19 3d
       0.043485038 0.009861057 0.27299145 0.03752205
0001b0 f1 04 97 be 30 9e 82 3d 43 aa ee bd be 8c 9d be
       -0.29495957 0.06377828 -0.116535686 -0.3077144
0001c0 1c 24 3f 3e b1 ef 5a 3e 33 23 d5 bd 88 ec dd bc
       0.18666118 0.21380498 -0.10407104 -0.027090326
0001d0 24 f5 47 bd 49 d5 a2 3d 0c 43 3e bb 2c 86 91 3d
       -0.04881777 0.07950837 -0.0029031662 0.071056694
0001e0 8d d1 18 be e0 d1 10 bd 87 7f 4d be c5 bc e2 3d
       -0.14923687 -0.035356402 -0.20068179 0.11071161
0001f0 12 30 38 3d 0b e9 d3 bd ec 80 e6 bd 13 41 7a 3d
       0.04496772 -0.10347184 -0.11255059 0.061097216
000200 9e fb 26 3e 10 4f ea 3d a4 5f ed bd 8b 96 d0 3d
       0.16306922 0.11440861 -0.115905076 0.10184964
000210 30 58 3e be 69 c1 32 be 90 ae 92 bd 01 8c ef 3d
       -0.18588328 -0.17456593 -0.071622014 0.116966255
000220 10 f1 3e 3c 85 f7 67 3c 42 ef c5 bd 1a 07 d6 3c
       0.0116541535 0.014158134 -0.096647754 0.026126433
000230 20 dc 75 bb ca de 55 be ed 29 58 3c 4c 39 1e 3d
       -0.0037515238 -0.20885769 0.01319359 0.03862886
000240 b7 13 52 bd 9b c8 7a 3d 93 e4 05 3e 4a a6 a7 3b
       -0.051288333 0.06122647 0.13075475 0.0051162587
000250 02 34 b7 bd e6 b9 31 3d e4 fb 1b be 16 fb 0d be
       -0.089454666 0.043390177 -0.15232807 -0.13865313
000260 85 ef 54 3d 9a 37 42 be e6 2c 59 3e e9 92 d7 be
       0.051986236 -0.18966523 0.21208534 -0.4210427
000270 98 92 e1 3c 83 ba 26 bd cf 5b 4f bd 35 a3 fe 3b
       0.027535722 -0.040705215 -0.050624665 0.0077709206
000280 a6 fc e4 bc de 03 9b bd 8f c3 17 3e 5d fe 96 3e
       -0.027952503 -0.07569097 0.14820693 0.2949094
000290 54 5f d2 bc 02 0c c9 be 61 4a d6 3d d0 5c 8b 3d
       -0.025680222 -0.39266974 0.104634054 0.06804812
0002a0 d8 ed e0 3d 02 4a 2e bd 8b f0 9f 3d 4e 42 96 bb
       0.10982865 -0.042551048 0.07809552 -0.004585541
0002b0 78 aa da 3c 29 f4 b2 3d 92 4a b5 bc fd 35 8e be
       0.026692614 0.08737976 -0.022130284 -0.27775565
0002c0 7c bf 21 be 92 40 83 be 0d 47 40 3e ed 3c 89 be
       -0.15795702 -0.256352 0.18777104 -0.26804295
0002d0 04 32 b3 3d df 94 6e bd 2c 4c 01 bd 7d 4b 12 be
       0.08749774 -0.058247443 -0.031566784 -0.14286609
0002e0 ba a4 ff bc dd 28 41 3e 6e f1 5a 3c 9f 29 b0 3e
       -0.031206477 0.18863244 0.013363225 0.34406754
0002f0 e4 bb 51 3d 08 04 05 3d cc 0f 36 bd 7c ae f1 3a
       0.051204577 0.032474548 -0.04444866 0.0018438841
000300 38 90 9b 3c cd db 09 bc 8e 4c 07 3e b6 4e b3 3d
       0.018989667 -0.008414221 0.13212797 0.08755247
000310 c7 e2 0b be 28 e6 ea bd 64 42 31 be 19 73 45 be
       -0.13660727 -0.1146968 -0.17310482 -0.19282188
000320 fe 73 d5 3c 1e 5c b0 3e b1 69 f9 3c 55 03 61 3d
       0.026056286 0.3444528 0.030445905 0.05493482
000330 db d0 83 be 14 07 08 3d 98 4b ec bb 7d 3b 1c be
       -0.25745282 0.033209875 -0.00721116 -0.15257068
000340 bf bf f4 3d aa d3 a9 3c 41 6c ce be a9 73 25 bc
       0.11950635 0.020730812 -0.40316966 -0.010098376
000350 d3 49 1f 3c e7 64 00 be 3b 27 e5 bc c8 d0 8f bd
       0.009722191 -0.12538491 -0.027972808 -0.07022244
000360 4b c3 04 bd ba 73 16 3e 71 2d 16 bd 4a a1 52 be
       -0.03241281 0.14692584 -0.03666443 -0.2056934
000370 24 67 ae bc 2e 92 0b bd 5c 41 6a bd 1a b3 42 be
       -0.021289416 -0.034074955 -0.057191238 -0.19013634
000380 78 ba 4d be df fe af 3d f9 86 fe 3d 06 b0 13 3e
       -0.20090663 0.08593535 0.12428088 0.14422616
000390 e1 49 40 3d f1 c4 92 bd b5 68 ed bd 2c 81 e9 3d
       0.046945456 -0.0716647 -0.11592237 0.11401591
0003a0 6e 09 d8 3d 9d 2f 1e be 49 46 05 be 34 c7 8d 3c
       0.105486736 -0.1544785 -0.13015093 0.017306902
0003b0 68 47 82 3d 91 03 79 3e 2c d5 06 3e 0f 22 04 bd
       0.06361276 0.24317767 0.13167256 -0.032259043
0003c0 85 70 dc 3b a1 17 b9 bd 92 63 d9 bd 7f 4d 2e be
       0.0067272806 -0.0903771 -0.10614695 -0.1702175
0003d0 2c 4c ae 3e 18 2c 49 be f0 04 6b 3d b5 3d 70 bc
       0.3404249 -0.19645727 0.057377756 -0.01466315
0003e0 d7 bf 6a 3d 0c 34 a3 3d e8 45 26 3c 4c 7a 64 3e
       0.05731186 0.079689115 0.010148503 0.22312278
0003f0 5c 05 47 bd af b8 9d be 65 c8 d9 bd 43 83 8d 3d
       -0.048589095 -0.30804965 -0.10633925 0.06909802
