outputs/E2_costcritic_ablation/E2_costcritic_ablation/E2_separate_seed2/best_feasible.pt (torch, 981594 bytes, 68 tensors)

actor_backbone.0.weight f4 [128, 22]
00000000: 49fb 1ebe 5c61 02be 6416 103e 3c3a c73d
00000010: 7782 04bd 78ca 22be 15c6 e53c 1366 2b3d
00000020: 8ff4 653c 1ffa 003e f898 96bb 0a0e a4bd
00000030: f4e4 0e3d cc6f bb3d fea3 1ebd 6c7c 083e
00000040: a7f9 10bd 1d06 0abe c643 5d3e 9600 e43c
00000050: 4049 40be 4f82 87bd 2f05 d7be c545 cd3c
00000060: a7ce babc 385f d33c d79f fe3c 3954 8b3b
00000070: df82 2cbe 1fa2 413e d265 57be ea2e c13d
00000080: 8650 acbd 3d95 62bd 4566 c03d ab49 77bd
00000090: 58de 87bd b7e6 f73d 787c b73b 6581 edbd
000000a0: b0c0 44bc e287 02bd fa9a dc3d 4dbc f63c
000000b0: 4989 ea3d 6650 76be d197 223c d3b2 0f3e
000000c0: a890 183e 819d f73d 3236 15bd 8e7e 70bd
000000d0: c234 f83d fbc9 3abe d2e3 66bd 2641 23be
000000e0: b89d af3d 30af 013c 5b7b acbd 2cef 233e
000000f0: 8215 2abe 0154 63be fe36 cbbd a45f 543d
00000100: 0211 013d 5c80 a03d 349d 103e d5a7 793e
00000110: d94d 303d 9a42 8dbc 0ed2 493c 6942 89bd
00000120: c337 eabc 4918 39bd 6899 9fbd af26 af3c
00000130: ae0b 963d 1fce 1bbe 2872 a8bd 2a2a 49bd
00000140: 46c3 893c 754d 19be cb5e 1e3e 3601 223d
00000150: 051e 483d 01bd 23be 862d a53d e8c9 2cbe
00000160: 0af9 7cbe 9228 193e f5fa 69bd c1b3 4cbd
00000170: 04a2 e6bd 65de 22be be95 1e3c 57eb 03bd
00000180: 11c2 03bd 8449 143e fb20 843d 19af e23d
00000190: a2a4 e43d 383d 69be ba8c 553d 71b0 e8bc
000001a0: 7363 9ebd e79b cb3d 2c0d 50be 68e2 32be
000001b0: 6536 d6bd 51cb 58bd c75d 463d a4d9 89be
000001c0: 3d3e 073e 2bb0 503d 4541 ad3d d41b d93d
000001d0: a296 78be 5cf5 05bd fbf9 cc3d 8f06 423c
000001e0: 022a 58be 3cca 0f3e 1a16 893e 1647 6bbe
000001f0: 8667 8ebd 9fc2 2e3e 4b89 113d a7fd d73d
00000200: b71d 923d 97c7 cbbd ec91 50bd 2bdc 1dbe
00000210: bf09 8dbd 823e c43e 647f 8f3e 8cb5 15bd
00000220: 2999 85bd 35f2 293e b263 c2bd 81a5 c9bc
00000230: 962a f1bd b4c3 7abd c79d c5bd dd8e d93c
00000240: ab90 213e 9b54 153d a142 ef3d 733b 08bc
00000250: 92e1 9b3c 7874 d93c cb26 a53b 4a7c 293e
00000260: e134 463e b00f 373e cff5 96be 0a15 31be
00000270: 5406 cb3d 2f9a f93c 2971 363e 0a67 2b3e
00000280: b34b 9ebd d173 d0bc d828 4cbc 9ce5 bc3d
00000290: a0d4 94bd 33c8 03be 8982 f5bc 077d 253d
000002a0: 885b eebd 195e a83d d8cd 28be 6f5f 2d3e
000002b0: fa62 c8bc 943d 553e ffb6 8cbe 9fb9 42bd
000002c0: c2f1 bb3d 5407 7f3e 1895 313e 1c6b 93be
000002d0: 54ee a7bd 633c a2bd f26f bc3d ade2 26bc
000002e0: 93e0 8dbc 99c2 6bbd 3cb7 9dbc 0628 88bc
000002f0: fbea 613e dd1f 73bd 32b5 ffbd a184 fcbc
00000300: a124 bdbc 3f8f 433d db44 b6bd 547c 6b3d
00000310: da57 593d e141 78bd bab0 823e b3b8 8bbc
00000320: 6d6e 44bd b741 cd3d 77ca 67bd a65f d4bc
00000330: cd55 1c3c 01c1 cf3d f60d 12bd d297 58be
00000340: 240c 6b3e 6eea cd3d b018 3bbd a283 9dbd
00000350: 523f f9bd 015d de3d f97d 203c c541 2bbd
00000360: cb3d cebd 50c8 df3c 3b10 f63c f824 eb3d
00000370: 230e 1ebd 4415 70bd 82aa 033e 3339 b1bd
00000380: 8706 dcbd 0479 8c3e 4287 b93c ef8a 9d3d
00000390: f329 c9bd 9928 023e 6d32 a2bd 98ac cebd
000003a0: d7a1 e23d a449 76bd 6151 143d 7f76 383d
000003b0: f677 713c 3328 dcbd a2e2 003e bfad 1d3d
000003c0: 0a84 07be 7145 19be 34ef a13e 81e9 84be
000003d0: 4608 96bd 9e4e 4f3d abbe 2dbd 91a8 1ebe
000003e0: 1659 18be 238b 383d b23f 9fbd 1f8c a7bb
000003f0: 8f17 9f3e 0648 493d 736b da3d 3b47 93bc
-0.15525545 -0.12732452 0.14071041 0.09727904 -0.032350983 -0.15897548 0.028048554 0.041845392
0.014035358 0.12595414 -0.004595872 -0.0801049 0.034886315 0.09152183 -0.038730614 0.13328713
-0.035394337 -0.13478895 0.21607885 0.02783231 -0.18777943 -0.06616651 -0.41996142 0.025057683
-0.022803618 0.02580224 0.031082077 0.0042519835 -0.16846798 0.189095 -0.21034935 0.09432776
-0.08413796 -0.055318106 0.09394506 -0.06037299 -0.066342056 0.12104552 0.0055995546 -0.11596946
-0.012008831 -0.03186787 0.10771747 0.030119086 0.11451966 -0.24054107 0.009923891 0.1403306
0.14898932 0.12090588 -0.036428638 -0.058714442 0.12119438 -0.18241112 -0.05636961 -0.15942821
0.08575004 0.007915303 -0.08421966 0.16009206 -0.16609767 -0.22200014 -0.09922598 0.051849023
0.03151036 0.078369826 0.14122468 0.24380429 0.04304299 -0.017243672 0.012318147 -0.0670212
-0.028591042 -0.045189176 -0.07792932 0.02138075 0.073264465 -0.15215348 -0.082248986 -0.049112476
0.016816746 -0.14970954 0.15465848 0.039551936 0.048856754 -0.15990068 0.080653235 -0.16873896
-0.24704376 0.14956883 -0.057124097 -0.049976114 -0.11261371 -0.1590515 0.009679256 -0.03220686
-0.032167498 0.14481169 0.06451603 0.110685535 0.11164214 -0.2277726 0.05213616 -0.028404446
-0.07733812 0.099418454 -0.20317525 -0.1746918 -0.10459594 -0.052928273 0.048429277 -0.2692386
0.13207336 0.050949257 0.08459715 0.10601011 -0.24276212 -0.032704696 0.100086175 0.011842384
-0.21109775 0.1404199 0.26774675 -0.22976336 -0.06953339 0.1706643 0.035531323 0.10546427
0.07134574 -0.09950178 -0.050920412 -0.15416019 -0.068866245 0.3832894 0.2802688 -0.03655009
-0.065233536 0.16596301 -0.094916716 -0.024615051 -0.11775701 -0.061221793 -0.09649234 0.02655738
0.15777843 0.03645764 0.1168263 -0.008314955 0.019028459 0.026544794 0.005040025 0.16551319
0.19356109 0.17877078 -0.29484412 -0.17293182 0.09913316 0.030469028 0.17816605 0.16738525
-0.07729282 -0.02544585 -0.01246091 0.09223482 -0.072671175 -0.12869339 -0.02996947 0.04040244
-0.11638552 0.08221073 -0.16484773 0.16930936 -0.024461258 0.20824271 -0.27483365 -0.047540303
0.09176971 0.24905139 0.17342031 -0.28792655 -0.08199754 -0.07921674 0.092010394 -0.01018588
-0.017319 -0.05755863 -0.019252412 -0.016620647 0.22062294 -0.05935656 -0.12485732 -0.030824961
-0.023088755 0.047744032 -0.08899852 0.057491615 0.053062297 -0.060609702 0.25525457 -0.017055845
-0.047956873 0.100223 -0.05658957 -0.025924515 0.009541941 0.101442344 -0.035657845 -0.21151665
0.2295385 0.100544795 -0.04567784 -0.076911226 -0.121702805 0.10857583 0.009795659 -0.04181077
-0.1007038 0.027317196 0.030037036 0.114816606 -0.0385877 -0.05861403 0.12858012 -0.08653488
-0.107434325 0.27436078 0.022647504 0.07692515 -0.09822454 0.127108 -0.07919774 -0.100915134
0.11066025 -0.060128823 0.03621042 0.04503488 0.014738074 -0.10749855 0.12586454 0.038495775
-0.13233963 -0.14967896 0.3162781 -0.259594 -0.07325797 0.050612085 -0.042418163 -0.1549399
-0.14877734 0.045054566 -0.07775821 -0.0051131393 0.3107266 0.049140953 0.106650256 -0.017978301

actor_backbone.0.bias f4 [128]
00000000: dbfc 5fbe 5086 8f3e e229 883e 187c dfbe
00000010: e326 6d3e f5e2 ab3e 80bc e9bc a44d db3d
00000020: 952a b1be a03d 48be 0699 a03e 54de 413e
00000030: 8945 a43e 312e 77be 077b b03e ac76 7fbe
00000040: 3153 6ebe 528a b0be 5c1d 953d 1f96 c93e
00000050: 8f6e c53d ebf8 f33d 9934 0b3e 95f6 a53e
00000060: 872a 39be 505f 85be 73f2 c3be c4d1 723e
00000070: 08bd a93e 47d2 863e cdc8 343e 7f3e 5d3e
00000080: 7139 973e 2dca c9be 61a7 10be 8ce8 403e
00000090: 1dbc 1d3e 7370 b53e 3d09 a13e 1bfb edbe
000000a0: ff5f 903e ba86 cdbe 26d1 28be f689 963e
000000b0: e0ea 863e f095 0ebe 31dd b93e 650b 493e
000000c0: 7f0b a0bd 2b90 2f3e 93ed 853c 6af3 753e
000000d0: 9130 32be da93 5e3e 9dc2 b53e 083b 9dbe
000000e0: a3cd 19be e267 d0bd 61a5 cbbd 426f cdbe
000000f0: b382 7b3e 1889 30be de53 57be 571c bbbe
00000100: 9bd3 cebe 663f 6f3e 2f9d c83d 4e50 6b3e
00000110: e8ac 983e 46ff aa3e b552 ae3e 096e a23e
00000120: 2fff 96be 48c7 72bd ad38 4dbe e531 9abe
00000130: ce9c 8e3e bb08 b73e 5aa5 b33e 8777 c73e
00000140: be53 353e 952c aa3e c3c8 43be d64b a03e
00000150: 1c86 a93e 209c 99be 8b49 c6be 4ec3 93be
00000160: 7a90 9a3e d9e1 f8bd ca32 6dbe aa29 88be
00000170: 490f adbe 58c1 3bbe 188b 543e 30bf aa3e
00000180: 2c99 41be eef8 9bbe 13ac bfbe d281 c7be
00000190: 6dcd 8e3e 16bc 2a3e a00c 0b3e b25b a13e
000001a0: f8b7 8fbe 91f4 943e d1c4 1dbe 2953 d03e
000001b0: e70f 46bd 88ed ba3e d4dc 6d3e ff73 f63d
000001c0: 865d cbbe 999f 6e3d c9a3 5f3d 80d1 b43e
000001d0: 9a2c 463e b697 373e e3f4 82be 83ed 6bbe
000001e0: 7d57 8abe f695 9abe f432 863e 8013 94be
000001f0: 2287 11be 48b4 ab3e 663d 623e 9af3 803e
-0.218738 0.2803216 0.26594454 -0.43649364 0.23159365 0.33571592 -0.028532267 0.10708168
-0.346028 -0.19554758 0.31366748 0.18932468 0.320843 -0.24138714 0.34468862 -0.24947613
-0.23273923 -0.3448053 0.072809905 0.39372346 0.09640228 0.11912712 0.13594283 0.3241469
-0.18082629 -0.2604928 -0.38270912 0.23712832 0.33152032 0.26332304 0.17654724 0.21605872
0.29536012 -0.3941206 -0.1412635 0.1883871 0.15403791 0.35437354 0.3145236 -0.4648064
0.2819824 -0.4014185 -0.16486034 0.2940213 0.2635107 -0.13924384 0.36301568 0.19633253
-0.07814693 0.1714484 0.016348636 0.24018636 -0.17401339 0.21736088 0.3550004 -0.307091
-0.1501985 -0.10176064 -0.09943653 -0.40123945 0.24561577 -0.17239797 -0.21028087 -0.3654506
-0.40395817 0.23364028 0.097956054 0.22979853 0.29819417 0.33397883 0.34047475 0.31724575
-0.29491565 -0.05927208 -0.20041151 -0.30116192 0.27854007 0.35748848 0.3508709 0.3895838
0.17707726 0.33237138 -0.19119553 0.31307858 0.3311013 -0.30001926 -0.38727984 -0.28859943
0.30188352 -0.12152452 -0.23163906 -0.26594287 -0.33800724 -0.18335474 0.20756185 0.3334899
-0.18906087 -0.30463356 -0.3743597 -0.38966233 0.27891102 0.16673312 0.13579035 0.3151527
-0.28070045 0.2909284 -0.15407111 0.40688446 -0.04835501 0.36509347 0.2322877 0.12033843
-0.3971979 0.058257673 0.054599557 0.35316086 0.19352952 0.17928967 -0.2557746 -0.23039822
-0.27019873 -0.30192536 0.2621075 -0.28921127 -0.14211705 0.3353598 0.22093734 0.25185853

actor_backbone.2.weight f4 [128, 128]
00000000: 9b91 2c3e 4c96 86bd 661e 033d 688b 773e
00000010: 28f9 b4bd 2cab 2dbe 9a0e b03e 636d 053d
00000020: 9004 433e 9fae b6bc 324f 89be d315 ecbd
00000030: b15a 7ebe d31c 383e f527 f9bb f9dd 3d3e
00000040: f310 333e 2dd7 6bbd 1fe9 ef3d 81a6 92be
00000050: 5e08 63be 5ea4 223e 4fdb 97be b702 41bd
00000060: 6cc7 37bd f798 5b3e 5b29 a63e 9cb5 5fbe
00000070: f3e4 ea3c f4db 1a3e 0199 80bd 0c20 98bd
00000080: 22bc bf3b 863d 2b3e 1cc1 293e 4bc4 d23d
00000090: e037 91bd a643 31be f1d9 11be 407b d83e
000000a0: 59d1 b9be 2e21 c83c d1d2 373d ce3f 503d
000000b0: 68fd 6f3d dce1 563d 123a 1cbe 112b 213d
000000c0: 58bc a23d a4b2 c93c 676e ba3c 0712 1b3e
000000d0: 8815 233e 8584 06be 6e19 6dbd 6923 083d
000000e0: dcc4 253e cc19 4a3c 79d6 aebc 1c16 db3e
000000f0: 5677 8dbe cd5f 913d c2cb 943d 51bf f03d
00000100: ebf5 5c3b 7279 c13c bf2e c03c 17f2 3dbe
00000110: 8c40 c4be 4fa9 d13d 4858 11be 261a 8bbe
00000120: 1b6c edbc 59b4 083e b5b9 b23d 8ec1 0d3d
00000130: 0d5e 96be 373f ccbd c6bf 143e 648e 47bd
00000140: 6791 76be 3abe 73be 406b 20bd 806c ba3d
00000150: 9dd0 be3c 18cd 1b3c 0695 8a3e 400a 46be
00000160: 6e0b 833d 965a e53c 8b74 1ebe 393f 1b3c
00000170: 0761 4c3b 94a2 533e cb1e f3bd 281d e7bd
00000180: 909e 8d3d ba46 463e 4329 cabc 761b 453e
00000190: 31ce a73d a92c 82bd 5c81 44be 8dd9 7a3d
000001a0: f6b7 043d ac6e 7bbe f57f 6abe edc1 42be
000001b0: 974e d53d c694 823d a0a0 75bd 4c05 c53c
000001c0: 7ca0 183e 6ade 213e 9f10 6cbd 04ba 92be
000001d0: 0bb4 20be 205e 11be 77e4 9f3e c97c 6c3d
000001e0: ff7b ab3e 7995 973e 0010 3a3d 27a6 843d
000001f0: 4778 273d 91aa 39be 19f0 84bd e3e3 b53e
00000200: 0c02 9bbe 699d 923e 2ea1 913c c315 383d
00000210: 335c 8cbc 9722 c43d 2287 14be c273 82bd
00000220: 902c cdbd 0d3c 85bd d69f 803e 99a2 063e
00000230: c1bf b03d 8802 54be d8a1 b1bc 5bbf 553e
00000240: b438 0cbd b850 3abd bfd3 9a3d 41fd 6f3d
00000250: df48 f43b c515 7cbe 7192 493e 8aa1 873c
00000260: eed2 31be d00e 1cbe a8d4 963d 9137 8e3e
00000270: a272 e5bd 38e2 1ebe bef7 403a f51d 2d3e
00000280: e6c0 95bb 75cb 663e 3be9 7bbe fdc4 00bc
00000290: 3c68 27be 4250 293d f660 3c3e 4afb 09be
000002a0: ee83 4c3d d913 66bd fd42 60bb c976 b73d
000002b0: 5b59 1c3e d1f7 c9bc 04bc 8f3c 4db5 f13d
000002c0: 99b5 28be b9fe 8d3d 32a5 923d b30f 06be
000002d0: beb8 0ebe 3ce1 f8bd d3ea b43d efae 9fbe
000002e0: 89f2 b7bd 3abf 003e d356 4839 9f3b a03c
000002f0: 98d3 963d 53d7 0c3e bf0e 57be 051e cabc
00000300: cb99 e8bd 983f 0bbd 290f 84bd fd14 943d
00000310: bf14 01bd 1f18 6a3d 1db2 e23d 3345 523c
00000320: 1a9c 5b3d cab1 953d bcf5 2abd cc59 33bd
00000330: e61d 903d 6e06 2cbd 0ba7 4d3e 2067 213e
00000340: a0d6 323e 79c9 3c3e 56a6 11be 89b8 2b3d
00000350: 7dd9 a33e cb2d 43bc fe75 a93c b681 42be
00000360: 78f7 1d3e f01e 48be d82c 1e3d cce7 b43c
00000370: dea7 5a3e 8de4 5e3c 83e1 a03d d50d 483c
00000380: d39c 103d a4c2 c7bd 6906 b1be 3285 76ba
00000390: e741 003d b160 c33c ed41 a9bd a030 243e
000003a0: 6c42 10be db1a 8f3e caab 11be 8d9f 53be
000003b0: c619 9dbe 014e 1b3e 9757 073e 4258 0b3e
000003c0: 79dc 9cbd 2433 21bc f570 00bd 5eab 9b3d
000003d0: 0309 03be 2c0c 9b3d 4aab f13c f045 fdbd
000003e0: 8488 1e3e 1b21 e8bb 5c87 523e 4403 38be
000003f0: 1555 783c d26d f43a 4fee 0abe fbce 233d
0.16852419 -0.065716356 0.032011412 0.24174273 -0.08836585 -0.16959828 0.3438614 0.032575022
0.19044709 -0.022300063 -0.26818234 -0.115276 -0.24839284 0.17979746 -0.00760364 0.18541707
0.17486934 -0.057578254 0.11714386 -0.28642657 -0.2217116 0.15883014 -0.29659507 -0.04712173
-0.044867918 0.2144507 0.32453427 -0.21846622 0.028673625 0.15122968 -0.06279183 -0.074279875
0.0058512846 0.16722688 0.16577572 0.10291346 -0.070907354 -0.17310962 -0.14243294 0.42281532
-0.36292532 0.024429884 0.044878785 0.0508421 0.058591276 0.05246149 -0.15256527 0.039347712
0.0794608 0.024621315 0.022757722 0.15143596 0.15926182 -0.1313649 -0.05788558 0.033236895
0.16188377 0.012335252 -0.021342503 0.42790306 -0.2763011 0.07098351 0.07265426 0.11755241
0.0033715914 0.02361748 0.02345979 -0.18549381 -0.38330495 0.10237371 -0.14193833 -0.27168387
-0.028982213 0.13350047 0.08726827 0.034608416 -0.2936863 -0.09972995 0.14526281 -0.04871978
-0.24078904 -0.23803034 -0.03916478 0.09102726 0.023292834 0.009509347 0.2706682 -0.19339848
0.063986644 0.027997296 -0.15474145 0.009475523 0.0031185762 0.20667487 -0.11871108 -0.11284858
0.06915009 0.19362918 -0.024677878 0.19248757 0.08193625 -0.063561745 -0.19189972 0.06124263
0.032402 -0.24553937 -0.22900374 -0.1901929 0.104153804 0.063760325 -0.059967637 0.024050377
0.1490497 0.158075 -0.05763304 -0.28657544 -0.15693681 -0.14196062 0.31228992 0.057736192
0.3349304 0.29606226 0.045425415 0.064770035 0.04088619 -0.18131472 -0.064911075 0.35525426
-0.30275 0.2863572 0.017777052 0.04494263 -0.017133808 0.0957691 -0.14504674 -0.06369735
-0.10018265 -0.065055944 0.25121945 0.13147964 0.08630324 -0.2070409 -0.021683618 0.20873778
-0.034233764 -0.045487136 0.075599186 0.05859113 0.007454976 -0.2461768 0.19684769 0.01655652
-0.1736562 -0.15240026 0.0736478 0.2777677 -0.11203505 -0.15515983 0.0007361135 0.16905959
-0.0045701144 0.2253855 -0.24600689 -0.007859466 -0.16348356 0.041336305 0.18396363 -0.13474765
0.049930505 -0.056171272 -0.0034219616 0.08958203 0.15268461 -0.0246543 0.017545708 0.118021585
-0.16475524 0.0693335 0.07160415 -0.13091926 -0.13937661 -0.12152335 0.08833852 -0.3118815
-0.08981807 0.12572947 0.00019105831 0.01955968 0.07364577 0.13754015 -0.21001719 -0.024672518
-0.11357459 -0.033996195 -0.06448204 0.07230566 -0.031513926 0.05715191 0.11069129 0.012833881
0.053615667 0.07309301 -0.041738257 -0.04378681 0.07036953 -0.04199832 0.20083253 0.15761995
0.17464685 0.1843623 -0.14223608 0.041924033 0.32001868 -0.011912773 0.020686146 -0.18994793
0.15426433 -0.19543052 0.038616985 0.022083186 0.21353099 0.013604295 0.07855513 0.012210329
0.03530581 -0.09753922 -0.34575203 -0.0009404003 0.03131285 0.023849817 -0.082645275 0.16034174
-0.14087838 0.27950177 -0.14225689 -0.20666333 -0.30683726 0.15166475 0.13217007 0.13607886
-0.07659239 -0.009838853 -0.031357724 0.07601045 -0.12796406 0.07570681 0.029500622 -0.12366855
0.15481764 -0.0070840246 0.20559448 -0.17969996 0.015157004 0.0018648452 -0.1356747 0.039992314

actor_backbone.2.bias f4 [128]
00000000: b2b8 90be 1cea 7c3e c9d8 863c 1d1f 923e
00000010: 8efb 3c3e 6be3 00bd 72b2 053e 58a9 77be
00000020: b445 d5bc 342d ce3c 1466 96be 6fc7 873e
00000030: 08af 99bb fea8 61be d0ba 8fbe 5679 8cbe
00000040: aef8 3e3e 0d14 863e 5ee9 08be 38ec 163e
00000050: 14d8 863e e551 2abe c8ec 293e 2b33 85be
00000060: 2268 8dbe e6e8 78be 4b45 93bd 27bc 7cbe
00000070: 7ae7 7fbe 0324 753e f371 97bd 92ff 5ebe
00000080: ab0e 71be dced 913e 95b4 68bd 2878 7ebe
00000090: 5183 d4bd 7ebb 793e a136 91be ac14 8fbe
000000a0: 7793 6ebe 7a17 383e 838b 8fbe e1f9 87be
000000b0: 6e4d 4cbe 861d 5bbe 457f 78be f5f7 35be
000000c0: 914c 933e 4bc0 e73d 036e 6e3e e20d 1cbe
000000d0: 303a 7f3e 1b03 8d3e ca7c 803e c6b3 88be
000000e0: 652c 6fbe b91f 803e 2ccf fb3c bbe8 633e
000000f0: d8f2 333e 0a17 46be d68d 513e a539 83be
00000100: 301d 783e e72b 9cbe ef87 763e 3624 9dbe
00000110: 6e7f 8c3e 6861 743e 926a 593e 9397 733e
00000120: eaa9 1fbe 7401 35be 2245 82be bc30 6b3e
00000130: 34ec 62be ed1d 9c3e 419e 28be 820c b63d
00000140: 4e70 76be dff2 9cbe e688 22be 98fe 89be
00000150: 1a1f 74be ea03 06bd d329 27be 15a0 843e
00000160: c50b 883e be77 323e 2b77 793e a869 873d
00000170: ed91 82be 6e8b 31be 5ee3 9d3e 189c 8f3e
00000180: d9f1 503e e972 7dbe ceaa 6ebe 7536 58be
00000190: 23b9 34be 0dc5 84be 9a0b 4e3e 736b 7abe
000001a0: 049e 713e 86e9 6fbe 8f7d 8c3e 23a0 6cbe
000001b0: 79ec 7d3e 795e 283e 401c 52be 113d 95be
000001c0: 55b2 803e 646d 33be 394d 8c3e 79ae 0d3e
000001d0: 8a7e 79be c77f 883e 0fef 933e 519b 8c3e
000001e0: 497b 79be bd09 783e 15dd 9f3e 5b14 913e
000001f0: a65e 8a3e 8e00 073e 3fef 89be 3897 69be
-0.2826591 0.2469868 0.016460793 0.28539363 0.18455335 -0.031466883 0.13056353 -0.24185693
-0.026034214 0.025168039 -0.29374754 0.26519343 -0.004690055 -0.22037122 -0.28072214 -0.27436322
0.18649551 0.26187173 -0.13370273 0.14738548 0.2633673 -0.16632803 0.16594231 -0.260156
-0.2761851 -0.24307594 -0.07190951 -0.2468115 -0.24990645 0.23939519 -0.07394781 -0.2177718
-0.23540752 0.28501785 -0.05681284 -0.24850523 -0.10376609 0.24387929 -0.2836199 -0.2794546
-0.23298441 0.17977706 -0.28036126 -0.2655783 -0.19951412 -0.21397981 -0.242673 -0.1777037
0.28769353 0.11315974 0.23284154 -0.15239671 0.2492454 0.27541432 0.25095206 -0.26699656
-0.23356779 0.25024202 0.030738436 0.22256748 0.17573106 -0.19344726 0.20464262 -0.25629917
0.24229884 -0.30502245 0.24075292 -0.3069169 0.2744097 0.23865283 0.2123206 0.2378829
-0.15592161 -0.17676336 -0.2544337 0.2296781 -0.22160417 0.30491582 -0.16466619 0.088891044
-0.24066278 -0.30654046 -0.15872535 -0.26952052 -0.2383999 -0.032718576 -0.16324548 0.25903383
0.2657148 0.1742849 0.24361865 0.06611949 -0.25501958 -0.17338344 0.3083753 0.28048778
0.20404758 -0.24750866 -0.23307344 -0.21114524 -0.17648749 -0.25931588 0.20121613 -0.24455051
0.23595434 -0.23428926 0.27439544 -0.23107962 0.24797238 0.16442288 -0.20518589 -0.29148152
0.25136057 -0.17522198 0.27402666 0.13836087 -0.24364677 0.26659986 0.28893325 0.27462247
-0.24363436 0.24222465 0.3122336 0.28335842 0.27025336 0.13183805 -0.26940343 -0.22811592

reward_backbone.0.weight f4 [128, 22]
00000000: 091a 1b3e f1ee 223e 9b50 84bd 5e93 cbbd
00000010: ba97 55b9 62bc b93d e731 5bbd 279a 97bd
00000020: 2d62 6f3d efed babd ba63 a23c 9e17 6ebd
00000030: ba93 f03d 4ec9 db3d 9517 ecbd 52bc 1a3d
00000040: 40cc 853c 74e8 4d3d e68c e1bd 7bc9 e53a
00000050: 4f7e 513e aefe e03d 9f94 673d 4095 00be
00000060: 9868 9e3d 1cca 903c 794f 09be 84a3 18bd
00000070: b90f 2cbe a0c3 a03d 36a1 333e 46c4 233e
00000080: 3bfb 2b3e 4755 943d f286 64bc 64b0 84be
00000090: 773a 043d ea72 3b3e 938f e93c 2469 9abd
000000a0: 9127 88bc 586b 963d 931c 6d3d 85e5 0ebe
000000b0: 2edd 8abd 3bda 703d abf4 9ebd 3286 9dbc
000000c0: 2d09 423e 41d8 5e3e 1e80 423e 5bb3 2ebe
000000d0: 574e 43bd 036a c4bd c061 1b3d 6ac4 7abd
000000e0: b828 9a3d e6cf 473b d397 453e 6a47 613e
000000f0: f357 22be c763 b7bd 9215 45bd bb62 6a3d
00000100: 863e 3d3d bf97 c5bd a4ba 1abe 3b77 cf3c
00000110: 54d5 05be e4e6 1ebd 36a7 85bd 8635 8b3e
00000120: 4e6b f13d 731e 10be 7f6e a7bc a03a 82bc
00000130: 4d22 df3c 0271 8dbd 8ba4 50bd d653 eb3d
00000140: 4058 323d 8e2c e9bc 515d 283d 6ca2 023e
00000150: f205 6f3d 226a 923c 15d2 63bd 7f04 073e
00000160: 56a8 0d3e efd1 21be 0f5a ca3c 175f 553d
00000170: 567c 8ebc 59b9 f6bc 3f95 fa3d 6fa2 72be
00000180: 00a3 103e ca38 cf3b 529d 7a3d 9e9d 383d
00000190: 4f31 6bbd af36 143e 08e0 da3c 4608 dc3c
000001a0: 877a 1c3d 91e1 c3bb b2f8 033a 506f 09be
000001b0: 893e e53d 02de 46bc 1de9 8ebd cb78 27be
000001c0: 222c 0e3e 3fd7 babc 6ecd dabd 61bb b73d
000001d0: e8cb 543e 4312 2e3e 72b5 2abd 1d65 eabc
000001e0: 2e2b 333d e9b4 04be d3a3 a7bd cef9 563d
000001f0: d76b 8bbd f227 36be 7fba edbd fe02 cf3a
00000200: eca8 cbba 8ed1 9fbd f4ad 8f3d 8cd2 0dbe
00000210: bfeb 98bd fe0e 12bd 0220 b73d e9d3 f73d
00000220: fbaf 22bd fa6c 78bc 1c88 a73c 7b9e 1cbd
00000230: 9f75 7fbd 804d b53b c1d7 ca3d daae 9b3d
00000240: dc80 8e3d c5de c73b cabf 193e 49c7 4bbe
00000250: aad6 bcbd 2504 113d f783 66bc 7058 5f3c
00000260: 6d49 0a3e 0593 98bd d2bb 3dbe dfa7 8d3d
00000270: 4765 ee3d bdf0 363e fa63 f1bc d5e5 52be
00000280: 8c02 133d 7abe 4abd 2903 58bd 91aa ec3c
00000290: 469e 91bd 53b1 993d 8716 a5bd 5b87 adbc
000002a0: c320 febd ee64 a23d 7fe9 b03c e019 1c3d
000002b0: bd41 893e 2a3d eebd 3826 aabd 65bc a9bc
000002c0: 7b6c 3c3e 8908 c5bb 1986 d6bd 08b4 70be
000002d0: 5e52 fe3c 34cf 953c 25c2 9e3c a316 e6bb
000002e0: d49d b53d d42b b7bc b288 dbbc 10b0 6e3d
000002f0: 1828 053d 55fe 2a3e d9fc 4fbe c74b c63d
00000300: 9fe5 8e3d 1a5c bfbd fe0a 73bc 102b 47bc
00000310: 2bfa 83bd f98c 13be 8776 adbc d298 c6bd
00000320: d9d6 aebd 2e50 40be 2c54 a4bd 8c73 9bbc
00000330: 9224 0fbe 3f8b 433d be31 77bd c982 1b3e
00000340: 99cf 383e 72aa 163e 53e0 1cbd 5497 863e
00000350: 2ab2 34bc 1928 883d 9a64 a13d 66e3 723c
00000360: c66b c9bc 10ca b0bd add8 0cbd 6d70 9abd
00000370: 8d98 ffbd 1ee6 17be 37e3 0e3e ff84 143d
00000380: e0ca 343c fd4d b6bb bc72 f6bd 2481 03be
00000390: 5104 b1bc 0876 40bd 39e0 37bd 4aa6 55bd
000003a0: ff2e 2abd 2424 43be b07b 2dbe a4aa 3c3c
000003b0: 1a8c a03d 305a bcb6 8bd5 583d 14b3 713c
000003c0: e424 14be 0c6d 5f3c c62b 12be c714 44bc
000003d0: 8229 e93d 6e23 9e3d b3df 38bd 367d c3bd
000003e0: da6a c3bd 3138 353d ac7a bc3d 903c c63d
000003f0: 7549 81bd a442 b0bd dcce ab3c b91e 153d
0.1514665 0.15911461 -0.06460687 -0.099402174 -0.00020369785 0.09069134 -0.053514387 -0.07402449
0.058443237 -0.091274135 0.019822944 -0.05812799 0.117469266 0.10731755 -0.115279354 0.037777252
0.016332746 0.050270513 -0.11013202 0.0017531359 0.20458339 0.10986076 0.05653822 -0.12556934
0.077347934 0.017674498 -0.13409223 -0.037265316 -0.16802873 0.078498125 0.17541966 0.15992841
0.16795056 0.07242828 -0.013948189 -0.25915825 0.03228232 0.18305555 0.028510844 -0.07539585
-0.01662043 0.07344693 0.05788858 -0.13954742 -0.06780468 0.05880187 -0.077615105 -0.019229028
0.18948813 0.21762182 0.18994185 -0.17060606 -0.047682133 -0.09590533 0.03793502 -0.06122247
0.07527298 0.0030488907 0.19296198 0.21999899 -0.15853862 -0.08954578 -0.048116274 0.057223063
0.046202205 -0.09648084 -0.1511026 0.025325408 -0.1306966 -0.038794413 -0.065260336 0.27189273
0.11788045 -0.14074115 -0.02043843 -0.015897095 0.027238036 -0.0690632 -0.05093817 0.114906
0.043541193 -0.028463628 0.04110462 0.12757272 0.05835528 0.017872874 -0.05562027 0.13185309
0.13833746 -0.1580274 0.024701146 0.052092638 -0.017393272 -0.030117678 0.12235498 -0.23694776
0.1412468 0.0063239085 0.06118519 0.04507219 -0.05742007 0.14473985 0.026718155 0.026859414
0.03820279 -0.0059778173 0.0005034312 -0.13421369 0.11193568 -0.012137892 -0.069780566 -0.16354673
0.13884023 -0.022807715 -0.10683714 0.089712866 0.20780909 0.16999154 -0.041676946 -0.028612668
0.04374235 -0.12959637 -0.08185544 0.052484326 -0.06807678 -0.17788675 -0.11607837 0.0015793738
-0.0015538014 -0.07803641 0.07015601 -0.13849849 -0.0746684 -0.03565883 0.08941652 0.121009655
-0.03971861 -0.015162701 0.020450644 -0.038237076 -0.06236803 0.0055329204 0.09904433 0.0760171
0.06958172 0.0060995542 0.15014568 -0.1990024 -0.092206314 0.035404343 -0.014069549 0.013631925
0.13504572 -0.07449917 -0.18528679 0.069167845 0.11640411 0.17865272 -0.029466618 -0.20595486
0.0358911 -0.04949806 -0.05273739 0.028889926 -0.071102664 0.07504525 -0.080609374 -0.021182707
-0.124085926 0.07929407 0.021595715 0.038110614 0.26807967 -0.1163276 -0.08308071 -0.020719716
0.18400757 -0.0060129804 -0.10474796 -0.23506176 0.031045135 0.018287279 0.019379685 -0.0070217415
0.08867994 -0.022359766 -0.02679858 0.058273375 0.03250894 0.16698582 -0.20311297 0.09682422
0.069773905 -0.09343739 -0.014834164 -0.012156263 -0.064442 -0.14409246 -0.021174682 -0.09697117
-0.08537073 -0.18780586 -0.08023867 -0.018975995 -0.13978794 0.047740217 -0.060350172 0.1518661
0.18047942 0.14713457 -0.03829987 0.2628733 -0.011028806 0.06648273 0.07880516 0.014824724
-0.024587523 -0.0863229 -0.034386326 -0.07540975 -0.124802686 -0.14833876 0.13953863 0.036259647
0.011034697 -0.005563496 -0.120336026 -0.12842232 -0.021608504 -0.046987563 -0.04489157 -0.05216054
-0.041548725 -0.19056755 -0.16941714 0.011515293 0.07839222 -5.613336e-06 0.052938025 0.014752168
-0.14467198 0.013636839 -0.1427451 -0.011967844 0.1138487 0.077216014 -0.04513521 -0.095453665
-0.09541865 0.04424304 0.09203085 0.0967952 -0.06312839 -0.08606461 0.020972662 0.036406253

reward_backbone.0.bias f4 [128]
00000000: 3652 0b3d ef89 7cbd c664 86bc 1033 90be
00000010: 14cc 953e ae97 62bd fd27 acbd f93a 053d
00000020: 7a96 a1bc 6cae f33d 5b35 c1bd cefb 5fbe
00000030: 3adc bbbb 337d 04bd 844d c63d 507c 993e
00000040: a47a e63c 2744 e13d 31ad d33b 1560 82bd
00000050: 1dff 15bd 4b37 11bb a5d0 3f3c 7849 a3bd
00000060: 43bc b4bc f8b7 093c 6c79 f63c 9950 3a3d
00000070: e901 6fbb bfe8 803e f44b 49bd 4738 80be
00000080: b913 313c 0dce 98bd 6b53 473e 976d c43d
00000090: 9609 8a3e 630f 723d 9c72 a2bd 8bfb 143e
000000a0: f89f 9c3d dd12 85bb f676 08be 016b 44bc
000000b0: 51ba 91bd 4928 953c 45d9 15bd 45d7 883e
000000c0: 3107 a43b 1d2e f93c b0f2 e1bd b0e8 32be
000000d0: dbaf 563c dab5 163e 43ea 26bd 028b 3bbe
000000e0: 107e 9f3c 2184 9d3e 58f7 85bd 4bce 643d
000000f0: f34e 863d cc6d 093d 77f6 55bc 99f8 8e3e
00000100: cac8 a8bc 8baf 4f3d a9e2 28bd cea4 403d
00000110: 5e9f 1fbd 6104 abbd f28f 563c 3711 55be
00000120: 93d7 9a3d 78dc cc3c 43f1 76be 3823 213e
00000130: bd9c 62bd dbd6 a1bd 9a18 b4bd 5c4c 423d
00000140: 0d53 ab3d 4080 5d3d b22e e3bc bb97 cbbd
00000150: 2ea7 c0bc 951b 48bd 0744 143d 9776 ed3c
00000160: f0c2 fe3c 8aba 7cbe 4b41 603d d1ff 1ebd
00000170: 4b22 98be 2fc3 593e 24cd 873d 2295 1a3d
00000180: 49d1 1cbd 6286 813e 6b3c 983e 5d0c f33d
00000190: 2a76 17bd aa60 773d 1072 97be 6128 6e3d
000001a0: ffd0 053e d3eb 37bd 7b5e f9bb 89e2 b3bc
000001b0: c9fb 37be 656e 993e 5e0c 2d3c 9e50 bfbd
000001c0: 3626 613d 59c2 2abe 9ec0 87be 2594 2f3d
000001d0: efd5 e23c 9de6 64bd f91e 60bd 5b8e 5c3d
000001e0: 666d 963d 21aa 4fbe bab7 843e b3c7 123e
000001f0: a287 2cbd c4d7 1c3e b0ef a1bd ae5f 753d
0.03401395 -0.06165498 -0.016405474 -0.28163958 0.29257262 -0.055320434 -0.08406065 0.032526944
-0.019725073 0.11898503 -0.09434005 -0.218734 -0.00573304 -0.03234596 0.09682754 0.29977655
0.028134651 0.10999327 0.006459855 -0.063659824 -0.036620248 -0.0022158201 0.01170746 -0.079729974
-0.022062426 0.008405678 0.030087195 0.04548702 -0.0036469644 0.2517757 -0.0491447 -0.25042936
0.010807925 -0.07461176 0.19465415 0.09591215 0.26960438 0.059096705 -0.07932016 0.14549081
0.07647699 -0.0040610866 -0.1332663 -0.011988402 -0.07115615 0.018207686 -0.036584157 0.26726738
0.00500574 0.030417496 -0.11032617 -0.17471576 0.013103451 0.14717808 -0.040750753 -0.18314746
0.019469291 0.3076487 -0.06541318 0.0558608 0.06558027 0.033551976 -0.01305925 0.2792404
-0.020603556 0.05070452 -0.041231785 0.04703217 -0.038970344 -0.083504446 0.013095843 -0.20807348
0.07560649 0.025007471 -0.24115472 0.15736091 -0.05532526 -0.079023086 -0.08793755 0.047436103
0.0836545 0.054077387 -0.027732227 -0.0994105 -0.023517217 -0.04885443 0.03619769 0.028987212
0.031098813 -0.24680534 0.05474977 -0.038818184 -0.29713663 0.21265863 0.06630924 0.03773988
-0.038285527 0.25297838 0.29733595 0.118675925 -0.036977924 0.06039492 -0.2957921 0.058143977
0.13068007 -0.044902634 -0.00761014 -0.021958606 -0.17967142 0.29967037 0.010562031 -0.093415484
0.05496808 -0.166757 -0.26514143 0.04286589 0.027689902 -0.055883992 -0.054717038 0.0538467
0.07345085 -0.20279743 0.25921422 0.14333992 -0.042121537 0.15316683 -0.07907045 0.0599057

reward_backbone.2.weight f4 [128, 128]
00000000: 5964 7b3d fc5b 773d aecf 683d a529 f43d
00000010: f0d7 073c bbbb 26be 1b86 2e3c 62e1 85bb
00000020: 3b73 dcbd 3407 f43c dc8d b53d 5bef ab3d
00000030: 1787 343d cfb8 0f3e 72c6 fe3c ccd0 f3bd
00000040: 2139 2ebe c86c 633e 8d1a eb3d 7a5f 103e
00000050: 130d 083e 8347 753d 9103 1cbe 380a 4c3e
00000060: b236 28bd 94dc de3d b401 393e a94a f4bd
00000070: e70c 86bd c1d8 c7bd 2e3b c0bd 99cc ffbc
00000080: a08d c1bd fe18 16be db0c debd c1dd 9a3a
00000090: 774d 10bd a8ef b4bd 1cba 323d 8ff2 58bd
000000a0: 6e5e 05bc ccbb b73d 5e80 04be 0497 083e
000000b0: 66d6 02be b240 c13d 090d 5b3c 235f d53c
000000c0: f490 213d 865c 88bc ce10 803b 0ed3 f23d
000000d0: e2d3 9ebc bd23 003e 6d95 eebc 0020 5d3d
000000e0: 64de 63bd c696 8a3d 4edb c53c 670e a13d
000000f0: 4e94 993d 5705 7dbc 76a6 233d e5d6 61bd
00000100: a0ea 013e 8ed9 a13e 2478 5fbd bb51 babd
00000110: 8950 45be 1ef6 b7be 48c0 453e 5ebc 27be
00000120: cb3c 07be 6d91 413e ac8a 93be dcac 583e
00000130: 618a 8b3d 3f00 363e 25c0 85ba efab 3c3e
00000140: 5e32 ac3d f255 18bb e845 02be 7130 a9bd
00000150: bce2 e63d f113 82be 9e99 21bd 4343 54be
00000160: ae67 373d 5c3a 1fbe c029 8dbd 8e5a d43c
00000170: 3e67 af3e 9e24 113e f0d9 20be a3a7 98bd
00000180: 3b10 a33e fbb2 1c3e 6bc1 acbc 71a2 843d
00000190: 3f60 15bb ebc6 c43c 10b0 65be 9bb2 5bbd
000001a0: 11b9 78bd ac63 10be d34e 9f3d f084 573e
000001b0: 1648 64bd 8240 093e 67af 313e 5804 9fbc
000001c0: 87e3 65be d670 093e 239c 543e 4367 233d
000001d0: ef13 203d 84c4 d3bd 16bd cc3d bbed 003e
000001e0: 296d c7bc fe5a 95bd c110 2e3e 92c7 82bc
000001f0: 4883 ef3d afe0 2abd ebcc 233e 176e a0bd
00000200: ec66 683d 7658 64bd fff8 aebd 4c14 ae3d
00000210: 2567 8fbd 2fa1 72bd 4972 dcbd e39b 8a3e
00000220: 424d fd3c 308f 31be cd8a 033e dda7 a33d
00000230: 0cdc 0b3e cc88 243e a232 103d 279c a8be
00000240: f1f6 393e dac5 df3b ed95 67bd 8e4b 313e
00000250: 516e fd3d 1cc5 b9bd 9680 2f3e a2cb 4dbd
00000260: cf9e e3bd 4f8e 02be 773f a23d 701c 903d
00000270: 0416 313e b0ee 3ebe 8f67 debc 2dc2 543e
00000280: 1837 bf3d 053b 80bd 15da 02bd 079f ae3c
00000290: 0f38 5bbd 87a0 a8bc 7976 a5bd e092 b8be
000002a0: 071a f23d af51 9c3c d5a6 783d 3baa 953d
000002b0: 3dad 143e 311f c1bd c5a0 be3d b7b5 4b3d
000002c0: 3723 883e 10a3 46bd 83d7 52bd 8d2b 943d
000002d0: e7c6 e1bd ec34 c83b 66ea 9d3d 2262 f63d
000002e0: 0f51 72bb 3c4b 15bc ec34 d3bd 2dd6 41bd
000002f0: 1887 13bd d9c4 183e 18ff 1d3e 0e7a 54be
00000300: 02c2 9abc eba0 febd adfb 143d 2180 2d3d
00000310: 7984 8f3c 9bea 4e3d 4023 9ebd 8760 c73d
00000320: 487c 333c 7c25 8e3d c396 8a3d 0e4f c5be
00000330: 4e31 fe3d fa23 b83d ae47 b1bd e692 8dbe
00000340: 53ed a1bc 6665 70bd 3c66 853e 3702 003c
00000350: d0ae 08be 0c8b 79bd 86a3 3d3d 9278 043e
00000360: 1ff8 9e3d b024 e9bd 08d9 a13e b2b6 c73d
00000370: b8b6 3d3c 0582 6b3d 8670 b1bd d9d8 bc3d
00000380: 37f3 313d 6122 2bbe 2a92 2dbe f331 283e
00000390: d95b 0a3e 955a 68bd 693d 95bd 3bb1 483e
000003a0: 7545 093e 6c8d 2b3e f5c5 b6bd 7290 153e
000003b0: e378 7fbc 10e8 a83d 3818 a93d a0f3 9fbe
000003c0: 6973 07be 54d5 093e fcb3 053e 2e25 92bd
000003d0: fdbe b8bd eb19 213e 1ef2 99bd 21a9 f9bd
000003e0: eded 64bd 8534 fbbb 1a3a aabc 6d56 ffbd
000003f0: 92ec 4f3d 8093 28be 37a4 b33d 751e 0d3d
0.061374996 0.060390458 0.056838684 0.119220056 0.00829123 -0.16282551 0.01065209 -0.0040857056
-0.10764166 0.029788591 0.08864948 0.08395263 0.044074144 0.14035343 0.031100485 -0.11905059
-0.1701398 0.22209466 0.114796735 0.14098921 0.13286237 0.059882652 -0.15235735 0.19925773
-0.041067787 0.10881916 0.18067056 -0.11928303 -0.0654543 -0.097581394 -0.09386288 -0.03122549
-0.09450841 -0.14657971 -0.10842296 0.0011815355 -0.035230126 -0.08834773 0.04363452 -0.052965697
-0.00814019 0.08971366 -0.12939593 0.13338858 -0.12777099 0.09436168 0.013369807 0.026046341
0.03944488 -0.016645681 0.0039082533 0.11856662 -0.019388143 0.12513633 -0.029123986 0.053985596
-0.05563201 0.06767039 0.024152424 0.07864075 0.0749899 -0.015443168 0.03995367 -0.05513658
0.12687159 0.31611294 -0.054557934 -0.0909762 -0.19269003 -0.3592996 0.1931163 -0.1638045
-0.13206784 0.18903132 -0.28816736 0.2115969 0.06813503 0.17773531 -0.0010204358 0.18424962
0.08408044 -0.0023244587 -0.1272198 -0.082611926 0.11273715 -0.2540584 -0.03945314 -0.20728783
0.04477661 -0.15549606 -0.06892729 0.025922086 0.34258455 0.14174125 -0.15708137 -0.07453849
0.3184832 0.1530265 -0.021088323 0.06476296 -0.0022792963 0.024020633 -0.22430444 -0.05363713
-0.060723368 -0.14100522 0.077787064 0.21046805 -0.05573281 0.13403514 0.17352067 -0.019411251
-0.22450076 0.1342195 0.20762686 0.0398934 0.03908151 -0.10340217 0.09997003 0.12590687
-0.024344044 -0.07292746 0.16998579 -0.015964303 0.11694962 -0.04171818 0.15996139 -0.07833498
0.05673878 -0.055748425 -0.08543586 0.08499965 -0.07002095 -0.059235748 -0.10763986 0.27072057
0.030920628 -0.17339778 0.12845917 0.07991002 0.1365816 0.16067809 0.035204537 -0.32931635
0.18160607 0.0068290057 -0.056539465 0.17313978 0.12374557 -0.09070799 0.17138895 -0.050243028
-0.11114275 -0.12749599 0.07922261 0.07036674 0.17293555 -0.1864574 -0.02714899 0.20777197
0.0933668 -0.06261257 -0.03194626 0.021316065 -0.05352026 -0.020584358 -0.080792375 -0.36049557
0.118213706 0.019081919 0.06070598 0.073078595 0.1451921 -0.094297774 0.09308008 0.049733844
0.26589367 -0.048495352 -0.05147506 0.07234869 -0.11024266 0.0061098244 0.077107236 0.12030436
-0.0036974584 -0.009112176 -0.103128284 -0.047323395 -0.036017507 0.14918841 0.15429342 -0.20749685
-0.018891338 -0.124330364 0.03637283 0.04235852 0.017519223 0.050516706 -0.07721567 0.09735208
0.010954924 0.06940743 0.06767037 -0.38536876 0.12411748 0.08991237 -0.0865625 -0.27651137
-0.019766485 -0.05869045 0.2605456 0.007813028 -0.13347936 -0.06092362 0.046298526 0.12936619
0.07762169 -0.11383951 0.31610894 0.09751643 0.011579208 0.057497043 -0.0866404 0.09221048
0.04344484 -0.16712333 -0.16950288 0.16425304 0.135116 -0.05672701 -0.07287104 0.19598858
0.13405402 0.16753167 -0.08924476 0.14605883 -0.0155927865 0.082473874 0.082565725 -0.3124056
-0.13227619 0.13460284 0.1305694 -0.07135998 -0.09020803 0.15732543 -0.07516883 -0.12190462
-0.055890966 -0.007666173 -0.020779658 -0.12467656 0.05076272 -0.16462517 0.08771556 0.034452874

reward_backbone.2.bias f4 [128]
00000000: ad09 973d 7a01 eabd 5f02 313e 7fe0 f13d
00000010: 1e6c 96be b618 923e 4a9e 813c a957 b13c
00000020: 44bb a13c 592b 9cbd 486c 8ebd c824 06be
00000030: 8d4f b6bd bb9d f6bd 0980 6d3d 3800 adbd
00000040: 68f1 08be fb81 ac3d beb2 0e3d b58a dd3d
00000050: 37b4 b4bd fc6f 0abd 0703 493e 2f3e 68bd
00000060: 2c2c 9f3d e58a 10bd f1a8 6fbc 9f15 73bd
00000070: 4139 e53d 3f89 c33d 862e ec3d 8d97 7dbd
00000080: caa1 a8bd b60f 7b3d 5fa7 4dbd 18e7 cabd
00000090: 505c 1dbd 6ae9 6a3c 88e6 ab3d e8ea 093e
000000a0: 4df3 923d dc41 933d 97cf c23d 9806 9ebe
000000b0: e2c5 60bd 2bc7 c13d 65ec 183d 565a 6bbd
000000c0: ed41 afbd ed5a 59bd 255a ba3d 66e2 a53d
000000d0: 2261 6cbd 425e e6bd 90c6 7abd df16 bf3d
000000e0: a67b d1bd 5997 243e ad2e 88bd 47cc 2abd
000000f0: 753f 6f3d f252 9b3d dc75 83bc d9ae ddbd
00000100: 4d90 c0bd 5d5d fabd 123b 9cbd 31d1 ff3d
00000110: b7b4 933c 2dcb d2bd 2b0b 3dbd 0e0f 943d
00000120: 5dce edbd 55ea c5bd b6d8 b13b 0041 1abd
00000130: 374f 003d 9ea9 ad3d 8ce1 c7bd 6a5c cfbd
00000140: 90c5 193c 67cb 643d dbe1 18bd 5a96 e4bd
00000150: 0f53 62bd 3e96 913d a193 0abe 5edb b0bd
00000160: 7c9b 84bc 0bbc 283d 9c35 35bd a092 c33d
00000170: ae09 423d c36a 323d 05c0 fcba 3f64 67bd
00000180: 6102 e6bd 30f5 bebd b598 d7bd 8503 103e
00000190: fb8b 0c3d 15bc 3f3d c1e2 9d3d 8175 af3d
000001a0: f085 21bd 0f67 f03d 7a50 7b3d 5e9d 723d
000001b0: fa1f 07be 260f 183d 2206 b73d d4a7 d8bd
000001c0: e1f3 a9bd a4d2 3e3d 2eaa 253e 5598 f43d
000001d0: 1ef3 33bd 125e f4bd 2c0f abbd 6221 87bd
000001e0: e862 963c bd7a b9bd dbc4 babd acc6 f3bc
000001f0: 899d c53d 3ffe a8bd a4c5 79be 877f 163d
0.073748924 -0.11426063 0.17286061 0.11810397 -0.29379362 0.28534478 0.015822548 0.021648245
0.019742616 -0.076254554 -0.06954247 -0.13099968 -0.08901892 -0.120418034 0.057983432 -0.08447307
-0.13373339 0.08423229 0.03483843 0.10817472 -0.08823436 -0.033798203 0.19630061 -0.056699928
0.07772097 -0.03528871 -0.014627681 -0.05934679 0.11192561 0.09547662 0.11532311 -0.06191211
-0.08233984 0.06129428 -0.050208446 -0.09907359 -0.038418114 0.014337877 0.0839358 0.13468516
0.07175312 0.07190296 0.09512251 -0.30864406 -0.054876216 0.094618164 0.03733482 -0.057459198
-0.08557496 -0.05306523 0.09099225 0.08099823 -0.05770982 -0.11248447 -0.06122452 0.09330534
-0.10228662 0.1607336 -0.06649528 -0.04169872 0.058410127 0.0758418 -0.01604741 -0.10824365
-0.09402523 -0.12224839 -0.07628454 0.12491072 0.018030507 -0.10292659 -0.04615323 0.07229434
-0.11611626 -0.09663836 0.0054274453 -0.037659645 0.031325545 0.084796175 -0.097598165 -0.101250485
0.0093854815 0.055858042 -0.037324768 -0.1116149 -0.055254992 0.071087345 -0.13532878 -0.08635591
-0.016187422 0.041194957 -0.04424058 0.09549451 0.047372513 0.043558847 -0.00192833 -0.056492086
-0.112309225 -0.093241096 -0.105271734 0.14063843 0.034313183 0.04681023 0.077092655 0.08567334
-0.039434373 0.11738407 0.061356045 0.05923211 -0.13195792 0.03712382 0.089367166 -0.10578886
-0.08298469 0.0465876 0.161782 0.119431175 -0.043933026 -0.11932005 -0.08352503 -0.06598164
0.018357709 -0.090566136 -0.091195785 -0.02975782 0.09649188 -0.082516186 -0.243918 0.036742713

cost_backbone.0.weight f4 [128, 22]
00000000: a76b cabd d6ec 203e 9850 b73d b1b5 f6bb
00000010: 7000 43bd 44bf 0ebd 5754 5bbc f085 3bbe
00000020: df10 a93d 88b5 c83d bb6e e63d ec72 dc3d
00000030: f107 2fbe c530 413d d495 30bd 68bc 813e
00000040: 22f5 013d 6fe7 c7bd 51e2 013e 733b 803d
00000050: 0553 e8bc 5cc7 a63d aa5a 063e 593b f7bd
00000060: 3e87 67bd 6998 9b3d d7d0 243d 86a5 083d
00000070: 27f5 a9bd c84b d33c 6790 e1bd 447e f7be
00000080: 8620 3bbd b842 243c d156 afbd cc93 6e3c
00000090: 9397 83bd cdc6 15bd c43b bdbd a142 aaba
000000a0: 46c2 cbbd 5c2a a93d 468d 0b3e 03f0 94be
000000b0: d10e 92be 7dca 1bbe 2ac2 083c ce79 edbd
000000c0: b22f bdbd edb0 c7bd 6c0f 31bd 6a9b 42bd
000000d0: bbf4 6cbe 7874 053e e75c 323c 2f7a af3d
000000e0: 5412 2f3e 22b8 a13b 1bbe ddbc 5c77 f53d
000000f0: 11c8 80bc 1f07 ac3d 12a2 e13c 53fe e73d
00000100: ec40 0f3e 71cd ec3c 071b b33d e938 0f3d
00000110: 5351 b43d 40f9 80bd 5742 3f3c 47cf 453d
00000120: b715 26bd 9d9f 9a3d 013c d73d 70ea 6d3e
00000130: c5da a6bb e31d 263d e0fb bb3c 7be0 abbc
00000140: 6939 1e3c c0ce 1ebd fcc9 123d 6608 223d
00000150: 8464 1fbd c1af 6d3d 2636 53be e9f7 5dbd
00000160: 7676 2e3e 876d f53d 67a8 e9bd a41b c5bc
00000170: 6c03 553d bebe cc3d 623f a63d c2b8 0b3d
00000180: 15fe 393d 257f bf3c 8cf9 53be a7ed d13d
00000190: 9753 69bd 7f2b 173e 2dcd e8b9 ed56 bb3b
000001a0: e325 153d 1d90 e6bc 1f0a 7c3c 9ca3 c63d
000001b0: 602b c0bd 5812 f2bd 7b8c 99be a9bb 85bd
000001c0: 2f38 943c ad56 9e3c 2578 ab3c b8b4 dd3b
000001d0: acec 083e b0ab 43bd 1277 523d dbca d3bd
000001e0: 39a7 54be 00b4 b9bd 8d16 b53a b029 f1bc
000001f0: cab3 e53d 870b 953d dc42 5a3d 06fb aa3d
00000200: 9f3d bebc e65b 93bc 187c 4abe fe58 4c3d
00000210: 9823 393e 79b7 c23d 88bd a4bd 0c74 dd3c
00000220: d8b9 65bd 24fb a2bd d677 303d 319d 973c
00000230: d77d df3c e413 3e3e 49f1 5f3a 286b 193e
00000240: b8de 5e3e 5a10 4e3d 010c 383d e513 343e
00000250: 03bc 473d 0679 0c3e d89b 1b3d 758e 01bc
00000260: 87e2 943e f72d 0c3e d50b 243e 271c d9bd
00000270: 5c80 0bbd acad 403d 3046 d2bd d277 6abd
00000280: 0215 8f3d c6d0 3d3d 29a3 2bbe 0544 073e
00000290: 89d4 1f3d a1e2 9ebd ec1a 0b3d 602e 863d
000002a0: a4dd d43c e7a4 4cbd 3e89 813c 756c 0f3d
000002b0: d1de e3bd 0311 f03d c501 b9be 7217 dbbc
000002c0: cd64 22bd bcf0 ba3c 4552 b73d 41e8 16be
000002d0: f38f 1d3d e267 fbbd d355 c03d 7e86 7dbc
000002e0: dc90 8d3d 0ccf 493d e4aa d93d 7d9a abbc
000002f0: 45c9 3d3c bba3 1f3b 60db 173e 9adf 623b
00000300: b207 65bd 4df5 253e f767 40be 7cca f9bd
00000310: 9208 9dbd 1339 c13d 5a1c a43d ab55 b13d
00000320: 75f7 8c3d 7021 0d3e ffa4 833d 22c2 953d
00000330: 6d92 3abe de73 713c 6dc9 4dbd 7ab5 7fbd
00000340: 4261 f63c 61d0 633e fe1e 39be 526c 6f3d
00000350: 725a 113d 2e04 aebd 4213 41bc c136 debd
00000360: 00da 6dbe 5123 2fbd e576 cdbd b748 aabc
00000370: e5d8 0b3e a01b 363e ee70 fdbd 18e1 e5bc
00000380: abfe 473e b5ad c2bd c907 3abe e343 47be
00000390: 5f6d 383d 6169 793d ec0b 053e 500b 0a3e
000003a0: d040 e43d 9382 c9bd 354f 85bd 549b 823c
000003b0: 6489 06be 3dee 453e 1c2e 9bbd ec6c 26bd
000003c0: eaec d9bd 4b7f c4bd 7e44 033e 5f1b 80bc
000003d0: bc93 e43d bdbc 04bd 3c45 96bd d840 c6bd
000003e0: 4eb8 533e e8f8 08be 1996 eebd 337a a3bd
000003f0: efa6 eb3d e97f 17bd aefc e93c 14f9 203e
-0.09883814 0.15715346 0.08950919 -0.0075289835 -0.04760784 -0.034850374 -0.013386807 -0.18312812
0.08255171 0.09800249 0.11251589 0.10764107 -0.17092873 0.04716565 -0.043111637 0.25339055
0.031727917 -0.09760939 0.12683989 0.06261339 -0.0283599 0.081434935 0.13120523 -0.120718665
-0.05652546 0.07597429 0.040238228 0.03336098 -0.08298712 0.025792971 -0.11013871 -0.4833852
-0.045685314 0.010025673 -0.08561481 0.014561605 -0.06425395 -0.036566544 -0.09239915 -0.0012989828
-0.09949164 0.082600325 0.1362811 -0.29089364 -0.2852693 -0.15213962 0.008347074 -0.11595498
-0.09237613 -0.09750543 -0.043227598 -0.047511496 -0.23140232 0.1303271 0.010886407 0.085682265
0.17096835 0.0049352804 -0.027068188 0.119856566 -0.0157204 0.08399796 0.027543101 0.11327805
0.1398961 0.028906556 0.087453894 0.034966383 0.08804574 -0.06297541 0.0116735315 0.04829338
-0.040548053 0.07549975 0.10509492 0.23233962 -0.0050919973 0.040555846 0.022947252 -0.020981064
0.009657242 -0.03877139 0.03583716 0.03955879 -0.03891422 0.05802894 -0.20626125 -0.054191504
0.17037377 0.11983781 -0.11409073 -0.024061032 0.052005216 0.09997319 0.08117558 0.034111746
0.045408327 0.023376057 -0.20700663 0.10250407 -0.056964483 0.14762686 -0.00044403356 0.0057171495
0.036413085 -0.02814489 0.015383272 0.09699175 -0.09383273 -0.11819905 -0.2998999 -0.06529934
0.018093197 0.01932844 0.020931313 0.006765928 0.13371533 -0.047771156 0.051383086 -0.10341426
-0.20766915 -0.090675354 0.0013815925 -0.029438823 0.11215933 0.07277589 0.05328642 0.0834866
-0.023222743 -0.017988157 -0.197739 0.049889557 0.18079984 0.09507651 -0.08043963 0.027032875
-0.056085438 -0.079580575 0.043083034 0.018507572 0.027281685 0.18562275 0.0008542729 0.14982283
0.21764648 0.050308563 0.044933323 0.17585714 0.048763286 0.13718042 0.03799042 -0.0079075
0.29079077 0.13689409 0.16020139 -0.10601073 -0.03405796 0.047040626 -0.102672935 -0.057243176
0.06986429 0.04634168 -0.1676146 0.13209541 0.03902105 -0.0775807 0.03396122 0.06551814
0.025984593 -0.04996195 0.015812512 0.035015542 -0.11126483 0.11721995 -0.36134163 -0.026744578
-0.039646912 0.02281987 0.089512385 -0.14737035 0.03846736 -0.122756734 0.0939137 -0.01547396
0.06912395 0.04926972 0.10628298 -0.02094769 0.011583631 0.0024359066 0.14829779 0.003461814
-0.055915542 0.16206856 -0.1878966 -0.12196824 -0.0766765 0.09434714 0.0801322 0.08658918
0.06883136 0.13782287 0.06427955 0.073124185 -0.1821992 0.014737098 -0.050240923 -0.06242893
0.030075673 0.22247459 -0.18078229 0.05845291 0.035486646 -0.08496891 -0.011784377 -0.10850287
-0.23227692 -0.04275829 -0.10032443 -0.020786626 0.13656957 0.17783976 -0.12375055 -0.028061435
0.19530742 -0.09505788 -0.18167032 -0.1945949 0.04502618 0.060891513 0.12992829 0.13480878
0.111451745 -0.09839358 -0.06509248 0.015943207 -0.13138348 0.19329162 -0.07577154 -0.04063122
-0.10640891 -0.09594592 0.12819096 -0.015638052 0.111609906 -0.032406557 -0.07337424 -0.09680337
0.20675775 -0.133762 -0.116497226 -0.07982292 0.115064494 -0.03698722 0.02856287 0.15720016

cost_backbone.0.bias f4 [128]
00000000: 9c9f 793d c70a 883d eb17 3e3d 5efe 4ebe
00000010: 3999 eebd 4992 83bd 89a9 94be ac43 05bd
00000020: f18f 0dbe c483 3cbd 8d42 a7bd 6f8c de3d
00000030: 6305 2f3e f1c0 d6bd 2cbc 393d 88f7 34bd
00000040: 7305 1b3b 1492 0d3e 9a90 013d d850 27bd
00000050: c793 f2bd 236e 9cbd dd5c b03d 3179 9f3d
00000060: 27c3 22bd 2c36 0d3b 63ca 9f3d e0d7 97bd
00000070: 23c2 16be 8d66 6fbd fd23 a9bd 449a 44bb
00000080: 63a8 28be 5349 563c e2b7 9bbd 6a12 5db9
00000090: 491f 55bd d7bc 8c3d 012d 67bd 2a68 66be
000000a0: 0f87 e63b 0815 7c3d d596 f5bd 0d76 b7bd
000000b0: 19f1 06be 9e8d 0abe 8aa2 43be a627 38be
000000c0: 67f4 623d 664a ac3d cb82 013e 6f28 403d
000000d0: 1089 00be 8da4 a2bd d98c 303c cc94 3abe
000000e0: 85e5 01be beeb 1dbe 9e4f 833e 0fd3 03be
000000f0: e3a0 4a3d 17ef 143d 1bc0 2a3e 762c c53c
00000100: 6245 d8bd 4d44 16be be75 45be bbfb 6f3d
00000110: 90e8 973d 7e12 74bd 0c18 163e 193b c33d
00000120: 3aab 97bd 238d fd3c f52a efbd b20b 873d
00000130: fb05 f23c 67be 8c3c 6cc6 a0bc bbab 003e
00000140: ac8a b93b 6cbe d13d f1b2 3e3d ccab 583d
00000150: b286 dbbc 7e6e 943b 3956 9f3b 642f f93d
00000160: 95ba 8c3d 9b12 26b9 0d4e 233d c5c7 efbd
00000170: 6a8a bdbd 710a 2b3e 630f acbd 36a7 4ebe
00000180: d228 2fbc 14fa 4f3d 8355 c23d ed29 edbd
00000190: dc11 0c3d 5d8d 653e 2410 b13c a75f 92bd
000001a0: 3644 d2bd 7563 67bd 658b 873d 78cc 84bc
000001b0: 5887 3b3e fa70 fe3d f3d5 1f3e 9683 653e
000001c0: b73f dfbd 11b5 70bd 5aac 33bd 8a1d a1bd
000001d0: 997f 8e3d e805 04be f839 f5bd c8ee ab3d
000001e0: 222b 20bd 456e dabc 69a8 6b3d 56a8 f63c
000001f0: 8264 29bd 78e8 a8bc a0e8 213d 594a a6bd
0.06094323 0.066426806 0.04640953 -0.20214221 -0.11650319 -0.06424386 -0.29035595 -0.03253524
-0.1382444 -0.0460241 -0.081669904 0.10866629 0.17091899 -0.104860194 0.04534547 -0.044181377
0.002365437 0.13825256 0.031632043 -0.040848583 -0.118445925 -0.076381944 0.08611462 0.07786787
-0.039736893 0.0021547182 0.07802274 -0.07414222 -0.14722495 -0.05844741 -0.08258817 -0.0029999176
-0.16470484 0.013079005 -0.07603432 -0.00021083062 -0.05203179 0.06871956 -0.056439403 -0.22500673
0.007035143 0.061543494 -0.119916596 -0.08958063 -0.13177909 -0.13530585 -0.19104972 -0.17983875
0.05540886 0.08412628 0.1264755 0.04691356 -0.12552285 -0.07941542 0.010775768 -0.18220824
-0.12685211 -0.1542196 0.2564668 -0.12873481 0.04946984 0.036360826 0.16674845 0.024069052
-0.10560109 -0.14674492 -0.19283196 0.05858968 0.07417405 -0.059587948 0.1465761 0.09532756
-0.07405706 0.030951088 -0.11678115 0.065940276 0.029543867 0.017180635 -0.019625865 0.1256551
0.005662283 0.10241398 0.04655737 0.052898213 -0.026797626 0.0045297733 0.0048625735 0.12167242
0.06871525 -0.00015837925 0.039869357 -0.11708025 -0.09254916 0.16703202 -0.08401372 -0.20180973
-0.010690885 0.050775602 0.09488966 -0.11580262 0.03419672 0.22417207 0.021614142 -0.071471505
-0.102669165 -0.056491334 0.06618384 -0.01621078 0.18313348 0.12423892 0.15608959 0.22413477
-0.109008245 -0.05876643 -0.04386554 -0.07866962 0.06957931 -0.12892878 -0.11973947 0.08395153
-0.039103635 -0.026663909 0.057533655 0.030109566 -0.041355617 -0.020618662 0.03952849 -0.081196494
