outputs/outputs/final_benchmark_repro/stress/v1_unconstrained/best_feasible.pt (torch, 735415 bytes, 51 tensors)

actor_backbone.0.weight f4 [128, 22]
-0.11356444 0.04261424 0.37470397 0.09012798 -0.134869 -0.06914151 -0.11252653 0.049913432
-0.110979624 0.053755727 -0.07441622 -0.19402166 -0.016120417 0.09934716 -0.14449963 0.0842695
0.004083986 -0.07754539 0.11081485 0.03416846 0.2288116 -0.21780968 0.00736951 0.027808014
-0.32923466 -0.09224311 -0.11886174 0.038378503 0.10618361 -0.095297635 0.2086001 0.12627496
0.23116186 -0.030119445 -0.17946674 0.032108024 -0.0054020393 0.18250522 -0.0010808147 0.030266982
0.06495111 -0.14733593 0.06027052 0.13260089 -0.21762443 -0.18798992 -0.13000663 0.14838912
-0.10152024 -0.033112414 -0.022724215 0.0020737182 0.049171317 0.043679323 -0.12796777 -0.0063883006
0.09466201 0.040779304 0.16482519 -0.03645372 -0.22373854 0.044971067 0.010220854 0.02627001
0.3394155 -0.07574018 -0.06503989 0.26873317 -0.055687245 -0.18081857 -0.026335802 -0.08889742
0.022255925 0.08692216 -0.20122585 0.06063808 -0.096700095 -0.22965999 -0.05918465 0.2233622
-0.0022792062 -0.02810383 0.060857628 0.0012875203 0.053517405 0.10217648 -0.03547572 0.026853928
-0.29911438 0.121626906 0.38905114 -0.14710243 0.14490177 -0.020828657 -0.21921806 0.12708303
0.0116881635 0.050412193 -0.13113329 -0.04986356 -0.1149736 0.05451697 0.20126499 -0.056919847
0.051712573 0.016259458 -0.056243785 -0.13550144 0.010227356 -0.0799305 -0.21439728 -0.12533997
0.21888474 -0.0059735016 0.09937286 0.0052811797 -0.12019211 -0.050702557 -0.030631784 0.0016598011
0.16294067 -0.14380082 -0.040672332 0.18061739 -0.2372066 -0.05174775 -0.17563426 -0.12944286
-0.32965642 0.068232894 -0.043005284 0.14580908 -0.18597373 0.09543916 -0.084001295 -0.07359231
-0.16385652 -0.21978295 0.027242543 -0.07111691 0.098597735 -0.080655456 -0.09955983 0.08651393
-0.020396607 -0.19506674 -0.015350805 0.1583006 0.2959529 -0.02769168 -0.018030398 0.013418982
0.12832092 -0.17214666 0.06476096 -0.2760779 0.12747642 0.18473507 -0.021742178 -0.049836487
-0.09799234 -0.13042256 -0.043666404 0.043016907 -0.18266329 -0.21470644 0.06662001 -0.05103186
0.2541477 -0.025938233 -0.03266529 0.15125866 0.01344418 0.21705551 0.09947712 0.054376483
0.4006437 0.012234153 0.0570295 -0.20271699 -0.20562732 0.08848879 -0.14809667 0.08847469
-0.027092181 -0.03141222 0.06663511 -0.046268452 -0.040730935 -0.048256535 -0.10833025 -0.029249718
-0.12199319 0.06088085 0.056067105 0.09652815 0.1465047 0.32812983 -0.3931859 -0.13239042
0.2815027 0.052187186 0.105232306 -0.046872016 0.01815879 0.03547855 0.100274995 -0.20536736
0.03945957 0.03671255 -0.028808847 0.033248354 -0.18399464 -0.003961315 -0.02407849 -0.05396941
-0.032013174 0.08010955 0.15019178 -0.030921087 0.26530886 -0.22783248 -0.105518885 0.07301672
-0.018222587 -0.18177752 -0.006400516 0.1125022 -0.13080873 0.0314171 0.122062124 -0.030255387
-0.000485554 -0.09707484 -0.06785189 -0.024272535 -0.02888341 -0.092313685 0.2082982 -0.020909196
0.1461952 0.14448562 0.013463367 0.2251176 -0.07141596 -0.1944532 -0.16855107 0.044082526
-0.06764522 -0.23332645 -0.14401609 -0.05566675 0.08631949 -0.042575963 -0.0013968238 -0.022083137
00000000: 7994 e8bd 458c 2e3d 33d9 bf3e 0595 b83d
00000010: 191b 0abe 109a 8dbd 4f74 e6bd 0772 4c3d
00000020: 4949 e3bd f72e 5c3d 8867 98bd 9dad 46be
00000030: f70e 84bc 8676 cb3d b6f7 13be 7d95 ac3d
00000040: f5d2 853b 1ed0 9ebd e5f2 e23d 3af4 0b3d
00000050: 974d 6a3e 8009 5fbe ee7b f13b a2cd e33c
00000060: 7291 a8be f5e9 bcbd c96d f3bd c732 1d3d
00000070: cb76 d93d 682b c3bd 449b 553e 394e 013e
00000080: b2b5 6c3e 0ebd f6bc 21c6 37be b483 033d
00000090: 9703 b1bb a6e2 3a3e 20aa 8dba 76f2 f73c
000000a0: 1605 853d 3bdf 16be 39de 763d 87c8 073e
000000b0: f0d8 5ebe 6e80 40be 7520 05be 51f3 173e
000000c0: d8e9 cfbd e2a0 07bd 2228 babc 38e7 073b
000000d0: dd67 493d 17e9 323d fc09 03be f354 d1bb
000000e0: 28de c13d 3308 273d efc7 283e 7f50 15bd
000000f0: b71b 65be 9533 383d 5e75 273c 3434 d73c
00000100: dec7 ad3e ab1d 9bbd a233 85bd 6597 893e
00000110: 4f18 64bd 8128 39be 2ebe d7bc da0f b6bd
00000120: 0f52 b63c 3f04 b23d 260e 4ebe a35f 783d
00000130: b30a c6bd fd2b 6bbe 9b6b 72bd 10b9 643e
00000140: bc5e 15bb 013a e6bc d945 793d 03c2 a83a
00000150: 1135 5b3d e741 d13d fd4e 11bd c5fc db3c
00000160: 8525 99be 8717 f93d b631 c73e 05a2 16be
00000170: 2161 143e dca0 aabc b37a 60be 0e22 023e
00000180: b67f 3f3c 047d 4e3d ce47 06be bb3d 4cbd
00000190: 4777 ebbd 304d 5f3d 6918 4e3e c924 69bd
000001a0: 90d0 533d 8e32 853c e25f 66bd e4c0 0abe
000001b0: a490 273c 9ab2 a3bd f68a 5bbe 1f59 00be
000001c0: 5223 603e 5dbd c3bb ff83 cb3d bf0d ad3b
000001d0: 4827 f6bd 7cad 4fbd 82ef fabc af8d d93a
000001e0: ebd9 263e 8640 13be 0898 26bd c4f3 383e
000001f0: 49e6 72be 73f5 53bd 78d9 33be ab8c 04be
00000200: bac8 a8be b0bd 8b3d 4f26 30bd fa4e 153e
00000210: e66f 3ebe 9b75 c33d df08 acbd 91b7 96bd
00000220: 01ca 27be c80e 61be c12b df3c bea5 91bd
00000230: 9ced c93d b02e a5bd 06e6 cbbd 372e b13d
00000240: c916 a7bc 93bf 47be f181 7bbc 8d19 223e
00000250: 2387 973e a9d9 e2bc 7cb4 93bc 4adb 5b3c
00000260: 8f66 033e 3747 30be 65a1 843d 155a 8dbe
00000270: 2e89 023e 312b 3d3e a71c b2bc 5821 4cbd
00000280: 35b0 c8bd 7e8d 05be 8bdb 32bd 7f32 303d
00000290: 160c 3bbe 01dc 5bbe 1270 883d c906 51bd
000002a0: a61f 823e 6b7c d4bc 0acc 05bd 8de3 1a3e
000002b0: fa44 5c3c cd43 5e3e a9ba cb3d e0b9 5e3d
000002c0: 2c21 cd3e c271 483c c497 693d 0b95 4fbe
000002d0: f88f 52be 9c39 b53d a7a6 17be 3832 b53d
000002e0: 6cf0 ddbc 1aaa 00bd fd77 883d fd83 3dbd
000002f0: 7bd5 26bd a5a8 45bd 40dc ddbd 1b9d efbc
00000300: 91d7 f9bd 335e 793d 9fa6 653d 8db0 c53d
00000310: 5405 163e a200 a83e aa4f c9be 5b91 07be
00000320: 1f21 903e 3bc2 553d 0984 d73d dffc 3fbd
00000330: bec1 943c f551 113d fa5c cd3d d24b 52be
00000340: 5ca0 213d e65f 163d 8800 ecbc 6d2f 083d
00000350: 1769 3cbe ebcd 81bb 4140 c5bc 070f 5dbd
00000360: 3f20 03bd 7a10 a43d e0cb 193e 384e fdbc
00000370: 90d6 873e eb4c 69be 491a d8bd ca89 953d
00000380: 8947 95bc e323 3abe 6bbb d1bb 8e67 e63d
00000390: b9f2 05be 38af 003d b5fb f93d 25da f7bc
000003a0: f491 feb9 2ccf c6bd eff5 8abd 32d7 c6bc
000003b0: e79c ecbc f50e bdbd 204c 553e c349 abbc
000003c0: 32b4 153e 0af4 133e 7495 5c3c 3a85 663e
000003d0: 8842 92bd bd1e 47be a798 2cbe e18f 343d
000003e0: 9489 8abd 21ed 6ebe f478 13be d102 64bd
000003f0: 46c8 b03d 2264 2ebd a115 b7ba b2e7 b4bc

actor_backbone.0.bias f4 [128]
-0.030987639 0.022338923 -0.0074896435 0.022089483 -0.0044192323 0.019219905 0.043407064 -0.029566662
-0.0061868723 0.0014052825 0.0021391888 0.026815293 0.0077750245 0.023247605 -0.029674605 -0.019712245
0.028453927 -0.0031778412 0.0050773215 0.017144673 0.0016002846 -0.023085572 -0.045671724 -0.008856948
-0.021426454 0.021537637 0.015896846 0.034472104 -0.0047673164 0.0024351266 0.03128974 -0.013244113
-0.009963914 0.020272605 -0.004574811 -0.034171652 0.033378046 -0.031618707 -0.025953496 0.0016932789
-0.03187656 0.02983861 0.021834437 -0.010695087 0.0063341404 -0.00354259 -0.013643904 0.011596019
0.026740868 0.03200664 0.025806239 -0.0058906223 -0.016435778 -0.019809373 0.0011172089 -0.0053248256
-0.03245031 -0.007440929 -0.037378363 -0.025850315 0.019979106 0.0005732189 -0.029266715 -0.010311503
-0.0014937972 -0.0013034089 -0.05179465 0.019561464 0.018500838 0.035981998 0.024431609 0.046394948
0.017174898 -0.03332308 0.028252814 -0.026388757 0.025766365 -0.017449751 0.03277363 -0.028588662
-0.004154292 0.030930715 -0.0057484657 0.022375481 -0.025457751 0.0011446622 0.0021220702 0.011608922
-0.021639157 -0.043058764 0.01243669 -0.02613588 -0.021632042 -0.031614378 0.033716258 -0.027157709
0.034797575 -0.011963684 0.016163789 -0.015538596 0.016396064 0.026748223 0.049404833 -0.0023021572
0.029438024 -0.0031312853 0.02851283 0.008800893 0.01279963 -0.025114538 -0.004994621 0.04657299
-0.031006027 0.005195709 -0.013695826 -0.037326727 0.011648015 0.034428902 -0.0038316287 0.021027831
-0.03067275 -0.020088576 0.027039744 -0.026105268 -0.025468167 -0.008897478 0.01819914 0.023053525
00000000: cad9 fdbc 1e00 b73c af6b f5bb 01f5 b43c
00000010: 35cf 90bb 1073 9d3c 9bcb 313d c935 f2bc
00000020: 3fbb cabb 7531 b83a a231 0c3b bfab db3c
00000030: a2c5 fe3b c371 be3c 2818 f3bc 937b a1bc
00000040: 3618 e93c 5443 50bb a95f a63b fc72 8c3c
00000050: a4c0 d13a f41d bdbc 4612 3bbd bc1c 11bc
00000060: 8886 afbc b36f b03c 1a3a 823c 9f32 0d3d
00000070: 2637 9cbb a596 1f3b ac29 003d d6fd 58bc
00000080: af3f 23bc bc12 a63c 4ce8 95bb 93f7 0bbd
00000090: 6bb7 083d 9e82 01bd 6d9c d4bc 03f1 dd3a
000000a0: ff90 02bd 1a70 f43c 22de b23c 723a 2fbc
000000b0: 9f8e cf3b cc2a 68bb ae8a 5fbc 3bfd 3d3c
000000c0: aa0f db3c 6519 033d 9b67 d33c 1f06 c1bb
000000d0: 53a4 86bc 4447 a2bc 4f6f 923a e07b aebb
000000e0: 9eea 04bd 09d3 f3bb 0e1a 19bd 0ac4 d3bc
000000f0: 39ab a33c 1244 163a c0c0 efbc 94f1 28bc
00000100: 84cb c3ba 25d7 aaba a026 54bd 5d3f a03c
00000110: 128f 973c dc61 133d cc24 c83c a108 3e3d
00000120: 5fb2 8c3c c87d 08bd 7272 e73c 3c2d d8bc
00000130: fc13 d33c c8f2 8ebc a43d 063d c532 eabc
00000140: ba20 88bb 6962 fd3c a05d bcbb c94c b73c
00000150: c68c d0bc 7d08 963a 6e12 0b3b 5933 3e3c
00000160: 9a44 b1bc 635e 30bd 42c3 4b3c ea1a d6bc
00000170: ae35 b1bc 147e 01bd 0f1a 0a3d d879 debc
00000180: e787 0e3d 5403 44bc ec69 843c 9895 7ebc
00000190: 0a51 863c 171f db3c b95c 4a3d cadf 16bb
000001a0: 0328 f13c 4036 4dbb bd93 e93c 9f31 103c
000001b0: 8ab5 513c 01bd cdbc eba9 a3bb 52c3 3e3d
000001c0: 5a00 febc c440 aa3b 7564 60bc e9e3 18bd
000001d0: 51d7 3e3c 5205 0d3d 101c 7bbb 8f42 ac3c
000001e0: 6b45 fbbc cc90 a4bc 7482 dd3c b7da d5bc
000001f0: 9ea2 d0bc bac6 11bc 5d16 953c bfda bc3c

actor_backbone.2.weight f4 [128, 128]
-0.058941226 -0.007062194 -0.0922681 0.058403227 -0.17167908 0.05819722 0.11738237 -0.18561673
0.004007479 0.003042545 -0.1664403 -0.05962083 0.034984406 -0.030409839 -0.0131895635 -0.2087184
-0.06660801 0.14965665 0.105799004 0.079847746 0.25968137 0.3063602 0.10584648 -0.13608052
-0.024803491 -0.14136153 0.120721646 0.033853035 -0.22785407 0.12848851 -0.1190706 -0.13862644
0.24961615 0.05747852 -0.123508245 -0.015503476 0.20741639 0.15378696 0.11781743 -0.26749912
0.181748 0.19357337 0.06776461 -0.13702011 0.02367282 -0.20510317 -0.07220266 -0.14529106
-0.11003425 0.1300321 0.026069937 0.11160394 0.11696943 -0.1071576 -0.04658993 -0.22765516
-0.100460954 0.07783884 0.067043506 0.20521127 0.058861 0.09767632 0.0210675 0.18250658
-0.21261169 0.046192206 0.027873887 0.034998044 -0.0017133519 -0.2194586 -0.0052805687 0.037679087
0.08086003 0.19246803 0.10006231 0.28939044 -0.2343043 -0.024059081 -0.06263027 0.0098672025
0.006707032 -0.102349035 -0.20267226 -0.041925654 0.039495062 0.089154765 0.13594009 -0.23804857
0.11146625 0.20268609 0.18577042 0.12622817 0.33057797 -0.22642042 0.016251465 0.20966996
-0.413061 -0.023221066 -0.11362192 -0.11990281 -0.1454863 0.23848924 -0.09380564 -0.27294257
-0.106139906 0.03319111 0.13767226 -0.33328447 0.05208664 0.0136326095 0.13162829 -0.072278894
0.17368773 0.15189862 0.20620033 0.00746799 -0.016580747 -0.24916814 0.093125634 0.07748194
-0.028553125 0.03985023 0.13974361 0.08412643 -0.07509259 0.016148644 0.19150408 0.16022871
0.058463305 0.07515325 0.14086783 -0.16031432 0.056455906 0.092332244 -0.037435204 0.015589806
0.15802981 -0.010673712 0.06868809 0.113577165 0.2900423 -0.0997996 -0.06176175 -0.19559337
-0.11504844 0.1819703 -0.19207372 0.05397637 0.11281532 0.050506674 0.027440187 -0.24435788
-0.1185118 -0.24552168 -0.1292531 0.083593965 -0.40949976 0.16208877 -0.196781 0.06626648
0.1531977 -0.05846372 -0.056618687 0.05264202 0.047410313 -0.03777715 -0.13147092 -0.22466692
-0.03243972 0.17157765 -0.043117967 -0.043629047 -0.18894266 -0.0393054 0.150554 -0.035053264
0.08166358 0.07982813 0.13698149 -0.059281193 0.053375006 0.009983837 0.00715034 0.094169706
0.1504996 -0.024376404 0.019404797 -0.16266868 0.07141981 0.12518544 -0.07407962 -0.096311346
-0.10968801 -0.10345699 -0.060771327 -0.11131634 -0.107470326 -0.13279444 -0.17022508 -0.14346632
-0.16104715 0.12484962 -0.08567427 0.20013408 -0.12351628 -0.19769089 0.123998895 0.08800913
0.24179977 -0.10983054 -0.14089917 -0.119928345 0.0790473 -0.076449156 -0.07046773 -0.024370972
0.021498943 -0.09005164 0.0076197176 -0.08668813 0.05206924 -0.10545391 0.008391904 -0.22252508
-0.11705177 -0.24920772 0.18694516 0.08227276 0.03426886 -0.09843499 0.32257143 -0.0031336183
-0.020814752 -0.1616105 -0.064053476 -0.103910096 -0.062045548 -0.08625113 0.13014863 -0.043539066
0.0374097 0.06707244 0.042937387 0.05531995 0.11124739 0.056131296 -0.32573333 -0.07876603
0.044281334 0.17956825 0.3344818 -0.08879946 0.12026893 0.15898688 -0.10301765 0.053345606
00000000: 5b6c 71bd fa69 e7bb 0ff7 bcbd 3938 6f3d
00000010: a4cc 2fbe 3560 6e3d 2b66 f03d 5012 3ebe
00000020: 2c51 833b 6f65 473b 536f 2abe f934 74bd
00000030: cf4b 0f3d 0e1e f9bc 0a19 58bc 47ba 55be
00000040: c869 88bd 983f 193e 26ad d83d 3787 a33d
00000050: f5f4 843e 3edb 9c3e 0ac6 d83d b158 0bbe
00000060: b130 cbbc 14c1 10be e93c f73d 7ba9 0a3d
00000070: 9452 69be 7e92 033e 49db f3bd 17f4 0dbe
00000080: 609b 7f3e 996e 6b3d e4f1 fcbd 4b02 7ebc
00000090: f664 543e 547a 1d3e 444a f13d a5f5 88be
000000a0: 261c 3a3e 1938 463e 2cc8 8a3d 004f 0cbe
000000b0: 80ed c13c 9106 52be fdde 93bd 2ec7 14be
000000c0: a359 e1bd 2327 053e 9f90 d53c 9b90 e43d
000000d0: ab8d ef3d 7275 dbbd 15d5 3ebd 6f1e 69be
000000e0: 79be cdbd f869 9f3d 1b4e 893d e722 523e
000000f0: 3b18 713d 860a c83d c095 ac3c 01e3 3a3e
00000100: e1b6 59be 0a34 3d3d c757 e43c 1c5a 0f3d
00000110: 8d92 e0ba c1b9 60be 9f08 adbb 6355 1a3d
00000120: f299 a53d 5716 453e 78ed cc3d fc2a 943e
00000130: 77ed 6fbe 8d17 c5bc 4d44 80bd 0caa 213c
00000140: aac6 db3b 5f9c d1bd 5189 4fbe 3cba 2bbd
00000150: 93c5 213d c696 b63d e133 0b3e 01c3 73be
00000160: 6b48 e43d f18c 4f3e 9a3a 3e3e f541 013e
00000170: 8441 a93e c1da 67be cb21 853c b9b3 563e
00000180: bb7c d3be 1b3a bebc 9cb2 e8bd 9b8f f5bd
00000190: 5cfa 14be 8636 743e 2c1d c0bd 21bf 8bbe
000001a0: e15f d9bd 67f3 073d f5f9 0c3e 43a4 aabe
000001b0: cd58 553d 4f5b 5f3c 91c9 063e f506 94bd
000001c0: 32db 313e 508b 1b3e 2e26 533e 0ab6 f43b
000001d0: 59d4 87bc ef25 7fbe a7b8 be3d daae 9e3d
000001e0: 3ee8 e9bc ff39 233d f318 0f3e 7a4a ac3d
000001f0: 25ca 99bd 294a 843c a519 443e ff12 243e
00000200: 3877 6f3d f2e9 993d a83f 103e 7029 24be
00000210: 4f3e 673d b018 bd3d a855 19bd 636c 7f3c
00000220: 91d2 213e cbe0 2ebc 57ac 8c3d 259b e83d
00000230: 6d80 943e bc63 ccbd e4f9 7cbd a149 48be
00000240: 849e ebbd 6c56 3a3e f9ae 44be 5316 5d3d
00000250: b80b e73d 16e0 4e3d 3eca e03c f438 7abe
00000260: 51b6 f2bd 096a 7bbe ed5a 04be 5033 ab3d
00000270: f4a9 d1be 99fa 253e f580 49be b8b6 873d
00000280: dcdf 1c3e a777 6fbd ffe8 67bd 299f 573d
00000290: 5131 423d 36bc 1abd 50a0 06be 160f 66be
000002a0: 83df 04bd 0db2 2f3e 779c 30bd 5fb4 32bd
000002b0: 2f7a 41be b3fe 20bd d42a 1a3e 0394 0fbd
000002c0: 3c3f a73d ee7c a33d e044 0c3e d6d0 72bd
000002d0: c09f 5a3d 3f93 233c 664d ea3b 0cdc c03d
000002e0: 911c 1a3e 06b1 c7bc cff6 9e3c 9e92 26be
000002f0: 8d44 923d 9d30 003e 0eb7 97bd e23e c5bd
00000300: 1ba4 e0bd 42e1 d3bd 5beb 78bd d2f9 e3bd
00000310: 6719 dcbd 44fb 07be 7c4f 2ebe d6e8 12be
00000320: 8be9 24be 28b1 ff3d fe75 afbd f3ef 4c3e
00000330: 1af6 fcbd 7b6f 4abe 22f3 fd3d 213e b43d
00000340: 5c9a 773e d6ee e0bd df47 10be fe9c f5bd
00000350: 8de3 a13d 6091 9cbd 6351 90bd a2a5 c7bc
00000360: 8d1e b03c ff6c b8bd d3ae f93b 8c89 b1bd
00000370: 8e46 553d 38f8 d7bd 327e 093c 9ddd 63be
00000380: d7b8 efbd 4f30 7fbe 8d6e 3f3e 9f7e a83d
00000390: 815d 0c3d 4998 c9bd 1528 a53e 645d 4dbb
000003a0: b383 aabc 397d 25be 782e 83bd d1ce d4bd
000003b0: 7923 7ebd 6fa4 b0bd af45 053e 0556 32bd
000003c0: ea3a 193d 475d 893d 1ddf 2f3d 2c97 623d
000003d0: acd5 e33d eee9 653d 85c6 a6be 1650 a1bd
000003e0: 5860 353d bde0 373e 3341 ab3e 7edc b5bd
000003f0: 8f4f f63d 75cd 223e ebfa d2bd ec80 5a3d

actor_backbone.2.bias f4 [128]
-0.012361143 0.013326267 0.0010393622 0.004865764 0.008219074 0.029080698 -0.0040645706 -0.0033446813
0.008915472 0.016996283 -0.02766216 0.0010623531 0.018894503 -0.026621385 0.002733639 -0.01390678
0.011401077 -0.0072345836 0.029980935 -0.026609747 0.028750133 -0.034949884 0.0062936125 0.021605164
0.018432448 -0.02220529 0.027847987 -0.013924626 -0.0053651044 -0.008351298 -0.0071484535 0.017380308
-0.015215091 0.0012681066 -0.0141157005 0.009337422 -0.0072946157 0.01637823 -0.014375148 0.007471541
-0.025715644 0.012218995 0.023638692 0.016644018 -0.014795713 -0.0056365156 0.0139733255 -0.0027460638
-0.012572159 0.008160065 0.009862693 -0.031136973 0.020974366 -0.016087186 -0.039843265 -0.042130593
0.027236212 0.015230739 0.025216024 0.013215382 -0.02477817 0.0040871603 -0.020656614 0.028073605
0.007846342 0.04647443 0.032240417 0.008386203 -0.013844613 -0.040883847 0.018289102 0.010955644
-0.029043311 0.004375801 0.0040274537 0.0025826015 -0.0016752682 -0.01935798 -0.0023624178 0.03334406
0.043476395 0.012078864 -0.0040656086 0.037615173 -0.020740751 0.027151298 0.01722481 0.0044905078
-0.015905421 -0.027196078 -0.0039847544 -0.033551537 -0.0070432234 0.0354239 -0.010168305 -0.03015512
0.02127236 0.027436871 -0.016029663 -0.0076681664 0.0030336478 0.041898437 -0.039105836 0.016598355
0.018247193 0.035795443 0.02000244 0.0101634115 0.010645673 0.02384036 0.014117797 0.024304561
0.018860733 0.034419194 -0.030330217 -0.023324227 -0.029045403 0.009348886 0.005418162 0.026522983
0.010236254 -0.00044139224 0.032990586 0.010717543 -0.026837843 -0.0067300424 0.037286565 -0.023190793
00000000: 6486 4abc 6a56 5a3c 353b 883a fd70 9f3b
00000010: 4ca9 063c a53a ee3c 1730 85bb 7132 5bbb
00000020: 3312 123c ca3b 8b3c c19b e2bc a83e 8b3a
00000030: a5c8 9a3c 1715 dabc da26 333b 43d9 63bc
00000040: 95cb 3a3c 1610 edbb 949a f53c affc d9bc
00000050: 6685 eb3c 9c27 0fbd a63a ce3b 50fd b03c
00000060: a5ff 963c dee7 b5bc 7621 e43c 1d24 64bc
00000070: c2cd afbb e2d3 08bc 933d eabb 2661 8e3c
00000080: b848 79bc 9936 a63a 8a45 67bc fdfb 183c
00000090: ac07 efbb a32b 863c be85 6bbc d4d3 f43b
000000a0: 9da9 d2bc 2e32 483c eea5 c13c 0959 883c
000000b0: b869 72bc 85b2 b8bb 60f0 643c 4ef7 33bb
000000c0: 75fb 4dbc cbb1 053c 2297 213c f712 ffbc
000000d0: 6fd2 ab3c 46c9 83bc b132 23bd 2191 2cbd
000000e0: 7a1e df3c 598a 793c d691 ce3c 5485 583c
000000f0: 97fb cabc 96ed 853b 0f38 a9bc 9efa e53c
00000100: f28d 003c f95b 3e3d 870e 043d 4966 093c
00000110: 84d4 62bc d275 27bd 07d3 953c 4d7f 333c
00000120: 3dec edbc e162 8f3b bbf8 833b dd40 293b
00000130: ac94 dbba a094 9ebc cbd2 1abb c893 083d
00000140: 4e14 323d 6de6 453c cc38 85bb 5e12 1a3d
00000150: 82e8 a9bc 666c de3c 0b1b 8d3c 1c25 933b
00000160: 164c 82bc 4fca debc 8b92 82bb 566d 09bd
00000170: d7ca e6bb a718 113d f698 26bc df07 f7bc
00000180: 5f43 ae3c 4ac3 e03c a450 83bc 3e45 fbbb
00000190: 2ad0 463b b29d 2b3d 712d 20bd 46f9 873c
000001a0: 237b 953c 3e9e 123d 28dc a33c 7084 263c
000001b0: 306b 2e3c dc4c c33c 554e 673c 5c1a c73c
000001c0: d381 9a3c 24fb 0c3d 1377 f8bc 7312 bfbc
000001d0: a0f0 edbc 122c 193c d68a b13b ba46 d93c
000001e0: f6b5 273c aa6a e7b9 2321 073d a298 2f3c
000001f0: 09db dbbc b087 dcbb ccb9 183d 9efa bdbc

reward_backbone.0.weight f4 [128, 22]
0.19904548 0.034626003 0.1982303 0.39380428 0.018449591 -0.27385092 0.054172795 0.028955266
0.17323315 -0.06994369 -0.040770438 0.046732116 0.20246026 0.064020656 -0.096357554 0.1382781
0.063749544 0.03463659 0.09232258 0.0012273394 0.18292242 0.19641457 0.07414979 -0.047778945
0.07926531 0.08060452 0.070032954 0.11451503 -0.047120694 -0.07076553 0.07791212 -0.101763345
-0.021763334 -0.3261479 0.22488298 -0.02618346 -0.05202889 -0.08635632 0.06965142 0.19739385
-0.018745268 -0.19108796 -0.06532745 0.14902869 -0.0033635283 -0.2207328 -0.16212082 -0.31157944
-0.051181372 -0.1946744 -0.18059309 0.010253566 -0.2799745 -0.0791734 -0.10900424 -0.109338254
0.18480629 -0.1750013 -0.15732771 0.1604542 -0.09084452 -0.16643338 -0.23749153 -0.20804994
-0.098677725 -0.33531284 0.0026062473 -0.0126675675 0.11272246 -0.14425391 0.007914747 0.13329162
-0.036179107 0.013762284 -0.115255184 0.09095353 -0.024862587 -0.26287213 -0.059068725 -0.04182123
-0.006549007 0.0011921478 0.02762546 -0.0343313 -0.06855877 -0.27225232 -0.03127062 -0.0638791
0.036575615 -0.013112273 -0.2821974 -0.057168167 -0.122219846 -0.12743077 -0.013022271 0.0035061208
-0.39785698 -0.19825104 -0.21670459 -0.19167924 -0.04077375 0.0013616943 0.038705118 -0.053496215
0.10662495 -0.27906957 0.03280839 -0.26268575 0.1384901 -0.12333809 0.08940381 -0.18369852
0.044615027 0.2612732 -0.016959136 -0.118130855 0.104433045 0.113867104 0.0029880116 -0.05503493
0.16167308 -0.046015177 -0.06895874 0.22429611 0.07466439 0.020736523 0.09322842 -0.041936312
0.032369006 0.2186605 0.21680963 0.015859134 0.0050884425 0.019642727 0.08847212 -0.09769227
-0.0873036 -0.2542454 -0.15102382 -0.20641583 0.119232185 0.2544948 -0.07254068 -0.09077823
-0.1117494 -0.14470096 0.020247921 -0.03428763 -0.06257839 -0.03961486 -0.10351886 0.09964935
0.018114027 -0.11635791 -0.18484494 0.078344494 -0.1412707 -0.09739918 0.07844571 0.09914164
-0.12947492 0.24698141 0.19387852 -0.2192313 0.004118021 -0.17357366 0.110708386 0.030826768
-0.124719106 -0.1197335 -0.007622066 -0.15960962 -0.067116275 -0.092007115 -0.16404946 -0.24813232
-0.122552335 -0.10854302 -0.110353224 -0.21327119 0.17103057 -0.025241863 0.11690087 0.042813756
0.047274496 -0.090230964 0.06115475 -0.026331568 0.19491178 -0.08357131 -0.20303126 -0.018207971
0.067373365 0.10478475 0.23636198 0.09347817 -0.029333096 0.21799283 0.06338564 -0.055071704
-0.20532642 0.28213257 0.25378868 -0.17900278 -0.027245155 -0.026670547 0.028548975 -0.0132843405
0.13527979 -0.048209995 0.008638985 0.0982912 0.05169503 0.052133184 0.1745665 0.23974897
-0.1599919 -0.06291977 -0.016402703 0.0768036 -0.16536592 0.08309776 0.0654176 0.18395488
0.28420174 -0.05346937 -0.042603705 0.04334252 0.018086862 0.064008646 0.054984 0.11091164
-0.038317524 0.17808506 0.19166446 0.043791324 0.11740038 0.0026014312 0.17801517 0.20386957
-0.29185006 0.008384069 0.20048134 0.09712062 -0.032313723 0.083955266 0.11126115 0.19239551
0.16053256 0.051782623 0.07079192 0.040470757 0.19835919 0.11267774 0.12972204 0.17230244
00000000: 94d2 4b3e ffd3 0d3d e2fc 4a3e b7a0 c93e
00000010: 9923 973c 3036 8cbe 4be4 5d3d 9833 ed3c
00000020: 0864 313e a33e 8fbd e7fe 26bd 2d6a 3f3d
00000030: be51 4f3e 431d 833d 1c57 c5bd c698 0d3e
00000040: 1f8f 823d 19df 0d3d 9f13 bd3d adde a03a
00000050: 0450 3b3e e720 493e d8db 973d dbb3 43bd
00000060: da55 a23d fc13 a53d 706d 8f3d db86 ea3d
00000070: a101 41bd 85ed 90bd 6490 9f3d 4d69 d0bd
00000080: 0549 b2bc dcfc a6be b947 663e b27e d6bc
00000090: 3f1c 55bd 95db b0bd 67a5 8e3d 9d21 4a3e
000000a0: ad8f 99bc 90ac 43be 66ca 85bd fa9a 183e
000000b0: a46e 5cbb c707 62be 0003 26be 5787 9fbe
000000c0: 8fa3 51bd ba58 47be 65ed 38be 93fe 273c
000000d0: d158 8fbe aa25 a2bd 9d3d dfbd bcec dfbd
000000e0: dc3d 3d3e 8a33 33be 841a 21be 1b4e 243e
000000f0: b10c babd 836d 2abe fb30 73be 0b0b 55be
00000100: 8c17 cabd 20ae abbe 93cd 2a3b a18b 4fbc
00000110: 08db e63d 4cb7 13be dbac 013c 997d 083e
00000120: 8b30 14bd 347b 613c e90a ecbd d845 ba3d
00000130: a0ac cbbc 2d97 86be 0cf2 71bd bd4c 2bbd
00000140: 0d99 d6bb d841 9c3a ca4e e23c fa9e 0cbd
00000150: 8a68 8cbd a864 8bbe 9f15 00bd 0cd3 82bd
00000160: 50d0 153d dcd4 56bc 2d7c 90be 2b29 6abd
00000170: 664e fabd 367d 02be 5d5b 55bc f2c6 653b
00000180: e9b3 cbbe 5202 4bbe cfe7 5dbe 9047 44be
00000190: 6002 27bd e17a b23a 4289 1e3d d91e 5bbd
000001a0: 2f5e da3d 35e2 8ebe 1762 063d bf7e 86be
000001b0: 59d0 0d3e ae98 fcbd 5819 b73d 771b 3cbe
000001c0: 3fbe 363d 9ac5 853e e3ed 8abc 97ee f1bd
000001d0: fee0 d53d 2833 e93d 84d2 433b 4f6c 61bd
000001e0: a18d 253e 697a 3cbd 3d3a 8dbd e1ad 653e
000001f0: a5e9 983d a4df a93c 8bee be3d 69c5 2bbd
00000200: 5d95 043d 8ae8 5f3e 5803 5e3e 04eb 813c
00000210: f3bc a63b c9e9 a03c df30 b53d e312 c8bd
00000220: 3bcc b2bd 742c 82be fda5 1abe ac5e 53be
00000230: 0130 f43d 244d 823e 3590 94bd f0e9 b9bd
00000240: dfdc e4bd 7d2c 14be f8de a53c 3071 0cbd
00000250: 1929 80bd 3143 22bd b201 d4bd f514 cc3d
00000260: de63 943c 0e4d eebd fe47 3dbe 1473 a03d
00000270: 44a9 10be 3979 c7bd 25a8 a03d c60a cb3d
00000280: 1395 04be b2e8 7c3e 1788 463e 2b7e 60be
00000290: 77f0 863b 4bbd 31be 14bb e23d 6b88 fc3c
000002a0: bb6c ffbd d636 f5bd 86c2 f9bb b470 23be
000002b0: 4274 89bd 3a6e bcbd 95fc 27be 6616 7ebe
000002c0: b8fc fabd ce4b debd df00 e2bd c363 5abe
000002d0: a322 2f3e 06c8 cebc b969 ef3d 7a5d 2f3d
000002e0: e7a2 413d 03cb b8bd 677d 7a3d 4db5 d7bc
000002f0: f496 473e 6f27 abbd 6de7 4fbe e228 95bc
00000300: 0cfb 893d 6399 d63d e008 723e 7c71 bf3d
00000310: f64b f0bc 8339 5f3e 55d0 813d de92 61bd
00000320: 1741 52be ae73 903e 97f0 813e 814c 37be
00000330: 3b31 dfbc 317c dabc 8adf e93c 90a6 59bc
00000340: c986 0a3e d877 45bd 888a 0d3c e64c c93d
00000350: 2bbe 533d 9b89 553d 90c1 323e c180 753e
00000360: ebd4 23be 15dc 80bd f65e 86bc 354b 9d3d
00000370: af55 29be 292f aa3d aaf9 853d ab5e 3c3e
00000380: e482 913e b302 5bbd 3981 2ebd ed87 313d
00000390: e62a 943c f716 833d e736 613d a425 e33d
000003a0: d6f2 1cbd ee5b 363e b043 443e 885e 333d
000003b0: 9c6f f03d c67c 2a3b 9c49 363e 2fc3 503e
000003c0: 5f6d 95be 565d 093c fb4a 4d3e 2de7 c63d
000003d0: 655b 04bd bdf0 ab3d e3dc e33d 5403 453e
000003e0: a662 243e 041a 543d 5bfb 903d aac4 253d
000003f0: ac1e 4b3e 96c3 e63d dbd5 043e 0d70 303e

reward_backbone.0.bias f4 [128]
0.08385045 0.010794292 -0.09519525 -0.053348433 -0.11458566 0.0069722887 -0.029926607 -0.105162755
0.020175485 0.09369096 0.07939105 0.11848734 -0.012676717 0.18025118 0.04079462 -0.06783408
0.010020498 -0.159306 -0.16275832 -0.15895444 0.06967698 -0.010130031 -0.03098179 -0.0941306
-0.095659584 0.11759164 -0.02565956 0.023409773 -0.087907694 -0.080197245 0.14397441 0.09869349
-0.1562578 -0.10354376 0.07708861 -0.027909234 -0.03074213 -0.022733562 0.1260216 0.08210315
0.1690177 0.109001316 0.037620462 0.03473555 -0.17880267 -0.1604598 -0.018968474 0.039771963
0.10512656 0.08899208 -0.030671727 -0.15917954 -0.043511927 -0.002515023 0.009810208 -0.083668046
-0.009709814 -0.054115828 -0.15086868 0.034793757 -0.10375576 0.056425225 -0.10270164 -0.101725504
-0.019746 0.065789275 0.041497648 0.00433158 0.15608248 -0.035180066 -0.06264513 -0.15498194
-0.12083495 -0.0021344584 -0.067272134 0.041052714 -0.065359764 0.016250638 0.11257902 0.041324474
-0.012809289 -0.03164462 -0.1316472 -0.044660334 0.102452725 -0.04271984 0.010248418 -0.03502249
-0.01782723 0.048807435 -0.12675005 0.058055945 0.013042387 0.09683289 -0.017944805 -0.12108713
-0.011950419 0.15965687 0.017872741 -0.0060675386 0.09201741 0.010679702 0.015663866 -0.014193543
0.0008758575 -0.048935752 0.08841851 -0.010690424 0.16312201 0.030621458 -0.11859898 -0.08925664
-0.033304676 0.033902097 -0.0031453567 -0.004222933 0.1708692 -0.18661149 -0.12771393 -0.025050139
-0.046398036 0.10711649 -0.17381321 -0.00875891 0.013318627 -0.020165991 0.03222328 0.089217044
00000000: c9b9 ab3d 8bda 303c baf5 c2bd e383 5abd
00000010: e3ab eabd cc77 e43b a528 f5bc 925f d7bd
00000020: 0f47 a53c 0ce1 bf3d c697 a23d 7ea9 f23d
00000030: 01b2 4fbc c493 383e 4218 273d 98ec 8abd
00000040: 042d 243c 1d21 23be 1eaa 26be f4c4 22be
00000050: ceb2 8e3d 6ef8 25bc 86cd fdbc 8bc7 c0bd
00000060: 2ce9 c3bd e3d3 f03d ff33 d2bc dac5 bf3c
00000070: f308 b4bd 743e a4bd 076e 133e d01f ca3d
00000080: 0b02 20be c00e d4bd a2e0 9d3d e8a1 e4bc
00000090: ebd6 fbbc bc3b babc ce0b 013e b225 a83d
000000a0: fa12 2d3e 153c df3d ea17 1a3d dd46 0e3d
000000b0: 0c18 37be 934f 24be c663 9bbc ede7 223d
000000c0: 984c d73d 7b41 b63d 4643 fbbc f6ff 22be
000000d0: 9039 32bd 16d3 24bb ffba 203c 275a abbd
000000e0: e915 1fbc 8fa8 5dbd 527d 1abe e683 0e3d
000000f0: e67d d4bd 231e 673d 3d55 d2bd 7655 d0bd
00000100: 5dc2 a1bc 87bc 863d 70f9 293d edef 8d3b
00000110: 16d4 1f3e f918 10bd 174c 80bd 96b3 1ebe
00000120: 5078 f7bd 45e2 0bbb f9c5 89bd e426 283d
00000130: 57db 85bd 0f20 853c d48f e63d da43 293d
00000140: 0dde 51bc ca9d 01bd 86ce 06be c1ed 36bd
00000150: bcd2 d13d 00fb 2ebd fbe8 273c be73 0fbd
00000160: 690a 92bc 4eea 473d c4ca 01be 12cc 6d3d
00000170: bcaf 553c 5250 c63d fc00 93bc 87fc f7bd
00000180: b1cb 43bc 177d 233e db69 923c 34d2 c6bb
00000190: a073 bc3d ebf9 2e3c 8251 803c 098c 68bc
000001a0: cd99 653a db70 48bd c414 b53d e326 2fbc
000001b0: 7509 273e dad9 fa3c 06e4 f2bd 2fcc b6bd
000001c0: 7c6a 08bd eddc 0a3d 5422 4ebb 8860 8abb
000001d0: 56f8 2e3e 1517 3fbe 71c7 02be f335 cdbc
000001e0: de0b 3ebd e45f db3d 17fc 31be 8881 0fbc
000001f0: 5f36 5a3c 2633 a5bc 8ffc 033d 6db7 b63d

reward_backbone.2.weight f4 [128, 128]
0.013419219 -0.037114147 0.016860833 -0.15319201 -0.17997305 0.06796318 -0.118774235 -0.020036386
0.11777434 0.0316677 0.13214356 -0.027139297 0.056092594 -0.010262172 0.096087605 0.023295743
-0.0249184 0.21407603 -0.07296584 -0.061709166 0.07345923 -0.16425453 0.2072911 -0.2081459
0.0888889 -0.06703951 -0.19163953 0.12414208 -0.109252214 -0.14256677 0.10895543 0.017054344
-0.10279917 -0.0018150035 0.07736136 -0.08758286 0.045566328 0.0958615 0.059185617 0.06641916
-0.09180053 0.19196087 0.22505657 -0.0922686 -0.14010495 -0.16181163 -0.2552903 -0.09697113
0.15324281 0.017937494 0.06327288 -0.033007212 -0.0364056 -0.059438184 0.052922387 0.09074312
-0.06694851 -0.34210813 -0.19016513 0.06410193 -0.04010244 0.06114144 -0.24962679 0.01482108
0.04561581 -0.10577378 -0.069575705 -0.2966098 0.12525144 -0.086336516 -0.15150695 -0.08352897
0.11708381 0.10374378 0.24097443 -0.1272114 -0.034420885 -0.24004596 0.098617926 0.019190483
0.13241668 -0.019623632 0.15515569 0.04258385 0.0015156958 -0.16698466 -0.22624308 -0.040627044
0.3086999 0.21318492 -0.18838777 0.14033878 -0.046176817 0.08092387 0.14154974 -0.11746964
0.040459257 0.043413706 0.14622347 -0.0032784268 0.16452442 -0.16733547 0.058326375 0.10197829
0.024220392 -0.08669255 0.05219671 -0.09981335 0.00793901 0.015888205 -0.012502192 -0.14974296
-0.029477963 -0.050856102 -0.029630512 0.06136399 0.09988029 -0.09705185 -0.15992463 0.20795254
-0.23304917 0.26021203 -0.1113856 0.075189896 -0.0001953752 0.26546577 -0.03866272 -0.19200921
-0.09817958 -0.09488729 0.18189257 -0.05236042 0.098791555 0.025077933 -0.05754699 0.22886334
0.0943171 -0.08422081 -0.16243379 0.019853959 0.124227315 -0.14340541 -0.21899042 0.17938794
-0.11633388 0.33371457 0.20185938 0.27223247 -0.17889331 0.21492672 -0.045917463 0.09237472
-0.12629476 -0.07701853 -0.22762154 0.02240378 -0.12720169 0.14813778 0.019342368 0.13316926
-0.09723991 0.18674703 -0.18064204 0.122879505 0.07132253 -0.06147051 0.07234255 0.3473369
-0.037464462 -0.20228265 -0.18672678 -0.12951975 0.20371243 0.14512527 0.029901031 0.051936127
0.2502845 -0.22519849 0.034437247 -0.08505461 0.052190077 -0.18771577 -0.08374042 0.03250151
0.08719015 -0.017119054 0.008305407 0.059834775 0.21325658 0.023326019 0.009820854 0.31588265
-0.1368972 0.032967247 0.12633999 0.12436579 0.038931575 0.10049857 -0.12253372 0.056626383
-0.10625055 -0.009317015 0.12210172 -0.059669938 -0.0031903796 0.04080429 -0.04098879 0.015501409
0.0071996697 0.137668 -0.060364228 0.19316186 0.12456751 0.07785653 -0.017138418 -0.06837846
0.0512711 -0.061511252 -0.073711514 0.034489065 -0.00599226 0.05071242 0.012342877 0.17702681
0.06373541 -0.22837445 0.08829297 0.0028732142 -0.29287207 -0.01473957 0.07474822 -0.02005712
0.04578623 -0.085595146 -0.21071768 0.07477459 -0.114745095 0.2432915 0.019809518 0.24890324
0.1029855 0.12016613 0.111351654 -0.09771978 -0.20743884 0.18831952 0.42696065 0.19886988
0.034714323 -0.0298141 0.20347194 -0.004194688 -0.051925316 0.04080171 -0.0801324 0.0151522225
00000000: 49dc 5b3c 0105 18bd bb1f 8a3c 5ede 1cbe
00000010: db4a 38be 4830 8b3d e83f f3bd 5923 a4bc
00000020: ac33 f13d fdb5 013d a450 073e 3b53 debc
00000030: 59c1 653d ab22 28bc 94c9 c43d b7d6 be3c
00000040: ac21 ccbc bf36 5b3e 1d6f 95bd c0c2 7cbd
00000050: cb71 963d 5732 28be 1e44 543e 3324 55be
00000060: 620b b63d 034c 89bd 273d 44be 343e fe3d
00000070: a0bf dfbd 06fd 11be 0624 df3d 8db5 8b3c
00000080: 5f88 d2bd 69e5 edba a26f 9e3d a45e b3bd
00000090: c2a3 3a3d 0953 c43d 9e6c 723d c506 883d
000000a0: eb01 bcbd 6491 443e 3b75 663e 52f7 bcbd
000000b0: ac77 0fbe f3b1 25be 69b5 82be cd98 c6bd
000000c0: afeb 1c3e a7f1 923c 3695 813d 9232 07bd
000000d0: 0a1e 15bd 7475 73bd 25c5 583d 87d7 b93d
000000e0: 4d1c 89bd cc28 afbe a6ba 42be df47 833d
000000f0: 7542 24bd 726f 7a3d 2a9e 7fbe 1dd4 723c
00000100: a5d7 3a3d ec9f d8bd b57d 8ebd 3ddd 97be
00000110: ea41 003e 33d1 b0bd a324 1bbe 3d11 abbd
00000120: a3c9 ef3d 9e77 d43d 00c2 763e b543 02be
00000130: eafc 0cbd 9cce 75be 32f8 c93d 5c35 9d3c
00000140: 3d98 073e bdc1 a0bc 22e1 1e3e 676c 2e3d
00000150: 50aa c63a 07fe 2abe 44ac 67be 8b68 26bd
00000160: ea0d 9e3e 264d 5a3e b9e8 40be f8b4 0f3e
00000170: e723 3dbd 6abb a53d 6af2 103e ec93 f0bd
00000180: 9bb8 253d 92d2 313d 9bbb 153e e0da 56bb
00000190: 1779 283e fd59 2bbe a3e7 6e3d fed9 d03d
000001a0: d869 c63c dd8b b1bd 38cc 553d f16a ccbd
000001b0: 9f12 023c fb27 823c fed5 4cbc 3856 19be
000001c0: c57b f1bc 7d4e 50bd b0bb f2bc cf58 7b3d
000001d0: 0a8e cc3d 1fc3 c6bd 48c3 23be 83f1 543e
000001e0: 71a4 6ebe 833a 853e 221e e4bd 29fd 993d
000001f0: a2dd 4cb9 21eb 873e cd5c 1ebd 109e 44be
00000200: 6012 c9bd 4454 c2bd 0c42 3a3e e177 56bd
00000210: 3a53 ca3d 3d70 cd3c 65b6 6bbd 275b 6a3e
00000220: 5329 c13d f67b acbd 0b55 26be c5a4 a23c
00000230: e46a fe3d ded8 12be 063f 60be 79b1 373e
00000240: 7540 eebd a3dc aa3e 3ab4 4e3e 0e62 8b3e
00000250: cf2f 37be c015 5c3e f313 3cbd f52e bd3d
00000260: 6a53 01be e4bb 9dbd 9f15 69be 2288 b73c
00000270: 2941 02be 6eb1 173e e373 9e3c 865d 083e
00000280: b825 c7bd 9d3a 3f3e 3afa 38be 40a8 fb3d
00000290: 8c11 923d 80c8 7bbd 5528 943d 24d6 b13e
000002a0: 5674 19bd 2f23 4fbe 4e35 3fbe d3a0 04be
000002b0: fe99 503e b89b 143e 02f3 f43c faba 543d
000002c0: 4a25 803e 6f9a 66be 120e 0d3d 1d31 aebd
000002d0: 43c5 553d 9038 40be 1980 abbd 4e20 053d
000002e0: c090 b23d 423d 8cbc 6713 083c 4f15 753d
000002f0: ef5f 5a3e 3516 bf3c a6e7 203c 5fbb a13e
00000300: c82e 0cbe aa08 073d 455f 013e 7eb3 fe3d
00000310: b776 1f3d 32d2 cd3d f6f2 fabd 11f1 673d
00000320: e399 d9bd 65a6 18bc 7710 fa3d 7768 74bd
00000330: b015 51bb 6622 273d dde3 27bd 9ff9 7d3c
00000340: 35eb eb3b d7f8 0c3e 7b40 77bd 39cc 453e
00000350: 401d ff3d 3f73 9f3d de65 8cbc 020a 8cbd
00000360: a501 523d 39f3 7bbd 10f6 96bd 6844 0d3d
00000370: b85a c4bb d4b7 4f3d c739 4a3c 8446 353e
00000380: b687 823d feda 69be f2d2 b43d 894c 3c3b
00000390: 54f3 95be 3d7e 71bc 9815 993d d44e a4bc
000003a0: 588a 3b3d 824c afbd 60c6 57be 6c23 993d
000003b0: 7aff eabd 6821 793e 9247 a23c 7ee0 7e3e
000003c0: 10ea d23d a919 f63d 560c e43d 4f21 c8bd
000003d0: d96a 54be d5d6 403e 969a da3e 8ca4 4b3e
000003e0: 9b30 0e3d b33c f4bc f35a 503e 9873 89bb
000003f0: a4af 54bd b21f 273d 751c a4bd 0741 783c

reward_backbone.2.bias f4 [128]
0.05233086 -0.05126712 -0.049769677 -0.04591539 -0.033617135 0.04093334 -0.04657818 -0.045965835
0.036641043 -0.04761524 0.040345103 0.036597498 -0.04292703 0.064454585 -0.054027233 -0.04298002
0.04592513 -0.04987556 -0.041156273 0.050224997 -0.04940973 0.046340022 -0.043738294 -0.036144204
-0.048872337 0.043999057 0.041794244 0.03639361 -0.048732597 -0.03922421 -0.046603423 0.04871144
0.044308405 0.07332431 -0.06891427 0.039943617 -0.048038118 0.050696645 0.05582401 0.042358246
-0.03861776 -0.047625292 -0.054619916 -0.07351717 0.032199845 -0.05593594 -0.038629137 0.03361661
-0.03925865 0.043664955 -0.04061789 0.05081559 0.048391365 0.05454136 0.050022233 -0.05907995
0.044669032 0.038093157 -0.054398444 0.040855095 -0.048528858 -0.061087918 0.04642527 -0.033128083
-0.043603364 0.037050977 0.039351363 0.0817636 0.037240878 0.048826702 -0.047454417 0.0438787
0.048589103 0.049565956 -0.063595265 0.05139038 0.047271907 0.052527465 -0.04924694 0.060357567
0.036223453 -0.04048151 0.042279243 -0.05010642 -0.043588102 0.059830267 0.047531713 -0.07400979
0.038981162 -0.0436363 -0.064018995 -0.045195702 -0.047879253 0.053839985 -0.049616437 -0.0532585
0.03292289 -0.045647737 -0.04802137 -0.037824575 0.04223184 -0.051720347 0.036594864 -0.05307376
-0.052565575 0.10177048 -0.041456446 0.051213842 -0.042933635 0.056637954 -0.031234792 -0.043075554
-0.03488525 0.047362566 0.0492635 -0.041528124 -0.04800632 -0.04915247 -0.049613886 -0.050157215
0.04766975 -0.034760643 0.040643904 -0.03803873 -0.044621516 0.039820373 -0.08994779 0.045029934
00000000: e258 563d 79fd 51bd 4adb 4bbd c711 3cbd
00000010: 1fb2 09bd b8a9 273d c3c8 3ebd ac46 3cbd
00000020: eb14 163d 3308 43bd e840 253d 42e7 153d
00000030: 41d4 2fbd c400 843d a94b 5dbd d10b 30bd
00000040: fd1b 3c3d 514a 4cbd 7b93 28bd bab8 4d3d
00000050: db61 4abd 09cf 3d3d ed26 33bd f20b 14bd
00000060: 5c2e 48bd 5b38 343d 7130 2b3d 7711 153d
00000070: d59b 47bd 91a9 20bd 3be3 3ebd a685 473d
00000080: bb7c 353d 0e2b 963d ed22 8dbd eb9b 233d
00000090: 9ec3 44bd 49a7 4f3d b8a7 643d d77f 2d3d
000000a0: a82d 1ebd bd12 43bd 22b9 5fbd 2c90 96bd
000000b0: fce3 033d 161d 65bd 9639 1ebd 92b1 093d
000000c0: aecd 20bd 06da 323d f25e 26bd 0224 503d
000000d0: 0636 463d c366 5f3d 1de4 4c3d d1fd 71bd
000000e0: e0f6 363d 9207 1c3d e7d0 5ebd ac57 273d
000000f0: 32c6 46bd 5337 7abd 6d28 3e3d 50b1 07bd
00000100: 7199 32bd c4c2 173d e52e 213d ad73 a73d
00000110: e489 183d 82fe 473d 905f 42bd 27ba 333d
00000120: 5e05 473d ac05 4b3d 3c3e 82bd b87e 523d
00000130: 30a0 413d 0a27 573d 29b7 49bd 7f39 773d
00000140: 0b5f 143d f1cf 25bd 002d 2d3d 643c 4dbd
00000150: 7089 32bd 9510 753d 9db0 423d 7292 97bd
00000160: b6aa 1f3d fabb 32bd 641c 83bd 211f 39bd
00000170: 091d 44bd 5187 5c3d 9b3a 4bbd 9625 5abd
00000180: 27da 063d 1ff9 3abd 0eb2 44bd f1ed 1abd
00000190: 4bfb 2c3d b7d8 53bd 7fe4 153d df63 59bd
000001a0: 004f 57bd 0b6d d03d 3cce 29bd 9bc5 513d
000001b0: 2edb 2fbd 33fd 673d 1be0 ffbc fe6f 30bd
000001c0: d6e3 0ebd 40ff 413d 86c8 493d 6519 2abd
000001d0: 46a2 44bd 1a54 49bd ee37 4bbd a771 4dbd
000001e0: 5b41 433d 2d61 0ebd 397a 263d 80ce 1bbd
000001f0: 0dc5 36bd b01a 233d 8c36 b8bd 4f71 383d

cost_backbone.0.weight f4 [128, 22]
0.13511404 0.17237298 0.038477875 0.41552 0.13370158 0.09297725 0.08792365 -0.12614942
-0.08889798 0.05730154 -0.2772398 0.1602359 -0.05108476 0.05297533 -0.03679864 -0.06751496
0.0076857368 0.015543286 0.1456733 0.02752013 0.18658406 0.10106486 0.17700717 0.09346166
0.082000054 0.02383504 0.005533117 -0.1140822 0.045095112 0.20072162 -0.047807127 0.12715003
-0.27160102 -0.038005844 0.1392615 -0.16104297 0.030076925 0.07577817 -0.0072916104 0.010974857
0.06743284 -0.0555411 0.17640047 0.14434317 0.10661361 -0.12016976 -0.035693362 -0.35807526
0.0074349004 -0.0770834 -0.005655871 -0.12290864 -0.10810398 -0.0601189 -0.15937687 -0.06008239
-0.10656391 0.2039355 -0.014517812 0.09123298 0.0029989395 0.008595677 0.020271173 -0.101611584
0.07010293 0.22010817 0.07425022 0.035976324 -0.058681756 -0.06732627 0.23537493 -0.16813391
-0.046920013 -0.011842678 -0.15566199 -0.30366886 0.07490249 -0.1124536 -0.051316142 0.07568248
-0.17811814 -0.34312108 -0.024798535 0.150871 0.09574515 -0.026708491 -0.13162301 0.12910825
0.11165189 -0.083602734 -0.23042053 -0.2807802 0.012910685 -0.06914981 0.015916165 -0.22675282
-0.21022454 -0.08274384 -0.10123821 -0.24493209 -0.05232928 0.12361642 0.016370209 -0.0141940005
0.03247762 0.18298706 0.15987602 -0.02837592 -0.14495349 -0.07455969 0.025149615 -0.06473596
0.15236607 0.22619571 -0.091272555 -0.03819057 -0.029838761 0.13868742 -0.10707725 -0.029554805
-0.033466507 -0.05658729 -0.14172824 0.20041549 0.049773254 -0.046864666 -0.0016605206 0.23574229
0.12245897 0.22001031 -0.00928752 0.19462106 -0.15139718 -0.2088476 -0.13404341 -0.021482011
-0.029999143 -0.010724508 -0.10771216 0.009087808 -0.06277473 -0.13851094 -0.05013069 -0.00097424496
0.03509537 0.13136576 0.16342527 0.018245421 -0.050874326 0.0009446005 -0.102109134 -0.13136588
0.04311284 -0.23778157 0.17576212 -0.10402323 -0.083582185 -0.08019059 -0.032331016 -0.027718397
-0.045773793 -0.03109266 0.21085672 0.053788994 -0.018718125 -0.20910956 0.1502186 0.16707928
0.04586478 -0.11976388 0.12851302 0.005308137 0.016620753 0.05440449 -0.119343236 -0.34547508
0.028691059 -0.1666721 0.11447719 -0.18324196 0.21146655 -0.12067691 -0.08401616 0.083504334
0.032193024 0.22137322 0.12703152 0.24669878 0.033316977 0.07957394 -0.10095978 0.03270281
0.16374256 -0.026768899 0.17836183 0.19643052 -0.11424134 -0.057628542 -0.12320101 -0.062349916
-0.12382064 0.22201209 -0.2015936 -0.12189467 -0.37215787 -0.048431613 -0.18078032 -0.12606607
-0.006894496 -0.121207125 -0.29774335 0.02021736 -0.001582513 -0.20625626 -0.016390428 -0.15538819
0.058392674 0.10914571 -0.09372704 -0.24167846 -0.07172222 -0.18496707 -0.07088211 -0.13738152
-0.24722907 -0.069180824 0.09752394 0.08048159 0.008294016 -0.09544311 -0.14299645 0.058450114
-0.013801976 -0.20910437 -0.15134256 0.082903065 0.067698754 0.37599224 0.17570102 -0.07106001
0.06687486 0.015475401 -0.049492657 -0.08821398 0.24784838 -0.2048991 0.08847889 0.08074929
0.007665404 0.045298964 0.06780956 0.07033836 -0.01308226 -0.1363115 -0.05925999 0.18180496
00000000: 565b 0a3e 8b82 303e fa9a 1d3d 0abf d43e
00000010: 11e9 083e db6a be3d 5111 b43d 502d 01be
00000020: 2510 b6bd 05b5 6a3d 60f2 8dbe e114 243e
00000030: 413e 51bd a9fc 583d 2cba 16bd 4945 8abd
00000040: a2d8 fb3b 44a9 7e3c 622b 153e e571 e13c
00000050: e40f 3f3e 18fb ce3d 5e41 353e d468 bf3d
00000060: a5ef a73d b441 c33c 264f b53b eea3 e9bd
00000070: a7b5 383d f889 4d3e 68d1 43bd 9e33 023e
00000080: 4a0f 8bbe 04ac 1bbd 919a 0e3e 73e8 24be
00000090: e263 f63c 9631 9b3d 76ee eebb e3cf 333c
000000a0: 3b1a 8a3d 117f 63bd 53a2 343e b2ce 133e
000000b0: 3d58 da3d 901b f6bd 3433 12bd a455 b7be
000000c0: 77a0 f33b e7dd 9dbd e254 b9bb 86b7 fbbd
000000d0: 9f65 ddbd 3c3f 76bd b133 23be f418 76bd
000000e0: 2e3e dabd 78d4 503e 1edc 6dbc 5bd8 ba3d
000000f0: db89 443b e2d4 0c3c bb0f a63c bc19 d0bd
00000100: 2092 8f3d 0964 613e 8010 983d e95b 133d
00000110: 485c 70bd 5be2 89bd 2006 713e 4c2b 2cbe
00000120: 332f 40bd cb07 42bc db65 1fbe 7c7a 9bbe
00000130: 7a66 993d 134e e6bd e030 52bd 6bff 9a3d
00000140: 9a64 36be 91ad afbe 4c26 cbbc ed7d 1a3e
00000150: 0916 c43d c4cb dabc 2fc8 06be f434 043e
00000160: bfa9 e43d e937 abbd 5cf3 6bbe 6cc2 8fbe
00000170: 5687 533c 6a9e 8dbd 9e62 823c e431 68be
00000180: 1a45 57be 9a75 a9bd fb55 cfbd 7acf 7abe
00000190: 3a57 56bd 9b2a fd3d d11a 863c f48d 68bc
000001a0: 4107 053d f660 3b3e 8ab6 233e 9e74 e8bc
000001b0: b06e 14be c0b2 98bd 9106 ce3c 4994 84bd
000001c0: da05 1c3e d99f 673e 1bed babd b76d 1cbd
000001d0: 6b70 f4bc 1304 0e3e 514b dbbd eb1c f2bc
000001e0: 2d14 09bd 13c8 67bd 3521 11be b839 4d3e
000001f0: 0adf 4b3d 2af5 3fbd d3a5 d9ba 6d66 713e
00000200: c5cb fa3d 624a 613e af2a 18bc be4a 473e
00000210: dd07 1bbe 25dc 55be ad42 09be 0bfb afbc
00000220: c3c0 f5bc d9b5 2fbc 3198 dcbd 08e5 143c
00000230: 0a90 80bd d0d5 0dbe d755 4dbd 7964 7fba
00000240: 2ac0 0f3d bf84 063e f458 273e 6c77 953c
00000250: 9961 50bd 119f 773a 981e d1bd c784 06be
00000260: 1797 303d 037d 73be fcfa 333e 220a d5bd
00000270: 232d abbd f73a a4bd 876d 04bd b111 e3bc
00000280: 4d7d 3bbd 09b6 febc d3ea 573e d951 5c3d
00000290: c156 99bc d120 56be e8d2 193e d516 2b3e
000002a0: b5dc 3b3d c446 f5bd eb98 033e e1ef ad3b
000002b0: 3f28 883c 3ed7 5e3d 3a6a f4bd 1ce2 b0be
000002c0: 8309 eb3c 17ac 2abe 0473 ea3d c8a3 3bbe
000002d0: b08a 583e 7525 f7bd aa10 acbd 5204 ab3d
000002e0: d5dc 033d a9af 623e 8d14 023e 9b9e 7c3e
000002f0: 6277 083d a9f7 a23d 00c4 cebd 62f3 053d
00000300: 21ac 273e 734a dbbc 7ca4 363e 1525 493e
00000310: 5df7 e9bd e80b 6cbd d050 fcbd a062 7fbd
00000320: ad95 fdbd 2357 633e 8d6e 4ebe eaa3 f9bd
00000330: 7a8b bebe 3a60 46bd 7a1e 39be 7717 01be
00000340: 39eb e1bb 713b f8bd d171 98be e19e a53c
00000350: 536c cfba d734 53be 3845 86bc 151e 1fbe
00000360: 282d 6f3d c987 df3d f6f3 bfbd 8f7a 77be
00000370: 19e3 92bd 0268 3dbe a42a 91bd bead 0cbe
00000380: 9e29 7dbe adae 8dbd a2ba c73d 88d3 a43d
00000390: a0e3 073c ad77 c3bd a96d 12be 6369 6f3d
000003a0: af21 62bc 751f 56be 8bf9 1abe 15c9 a93d
000003b0: a5a5 8a3d 0e82 c03e f8ea 333e e987 91bd
000003c0: b0f5 883d 898c 7d3c d0b8 4abd 88a9 b4bd
000003d0: f7cb 7d3e 12d1 51be 6c34 b53d e25f a53d
000003e0: 122e fb3b 688b 393d bddf 8a3d 8f0d 903d
000003f0: fa56 56bc 3e95 0bbe 9aba 72bd 142b 3a3e

cost_backbone.0.bias f4 [128]
0.040022682 0.034856714 -0.030270815 -0.032723412 -0.017801099 0.029353047 -0.02031553 -0.0030239178
0.03154778 -0.03816597 -0.032704085 0.029362086 0.02756138 -0.036224272 0.019399388 0.040789023
0.031184206 0.023658019 0.004261334 0.026071772 -0.02190869 0.052572254 -0.034412183 -0.010567513
-0.02617138 0.028410913 0.0385132 -0.034102026 -0.03323665 0.023173438 0.025346778 0.051781792
-0.029595017 -0.030905174 -0.033163194 -0.015021321 0.020892672 0.027749153 -0.034048427 -0.031102814
-0.025936522 0.013003273 -0.031907633 0.029218568 0.0040917876 0.029825892 -0.024852127 0.031511966
-0.03486233 0.034428924 0.019612605 0.042793244 0.04316898 -0.03473734 0.022409512 0.017099546
-0.029624902 -0.043651078 0.034256615 -0.03394568 -0.02718233 -0.007529587 -0.03673192 0.03644533
0.03822454 0.023849178 -0.034319803 0.036155306 0.019475257 -0.027276853 -0.02898726 -0.026717953
-0.025905328 -0.020203771 -0.0037060583 0.040091306 0.029968545 -0.041466948 0.010665308 0.02871953
0.032455917 -0.017302642 0.023271227 0.025182037 -0.030546263 0.039724823 0.020235196 -0.007888773
0.014789798 0.027903497 -0.03596691 0.03792537 0.03831133 -0.03947698 -0.030895025 -0.029707653
0.031311013 -0.003630425 -0.05068413 -0.01895696 0.030647602 0.031079248 -0.028917175 0.03464146
0.036791623 0.014315689 0.03467862 0.036785953 0.023417817 -0.028338553 0.032108232 0.03158734
0.031933647 -0.004256257 -0.030769631 -0.033123437 -0.031818945 -0.029554963 0.034445807 -0.027587578
0.032776255 -0.00044809133 -0.0036278646 -0.033303473 0.006738455 -0.02880754 0.03595186 0.027075673
00000000: d3ee 233d eac5 0e3d 80fa f7bc fc08 06bd
00000010: 9cd3 91bc cd75 f03c c16c a6bc ec2c 46bb
00000020: 3f38 013d ec53 1cbd b8f4 05bd c288 f03c
00000030: 67c8 e13c e75f 14bd 77eb 9e3c 6412 273d
00000040: 0576 ff3c 76ce c13c a9a2 8b3b 7894 d53c
00000050: da79 b3bc 0156 573d caf3 0cbd 5d23 2dbc
00000060: 5d65 d6bc 01be e83c 04c0 1d3d 91ae 0bbd
00000070: 2723 08bd 39d6 bd3c 0ca4 cf3c 2519 543d
00000080: 4071 f2bc d92c fdbc 21d6 07bd fd1b 76bc
00000090: 1c27 ab3c 3152 e33c 5d76 0bbd 54cb febc
000000a0: d478 d4bc ae0b 553c 94b1 02bd c75b ef3c
000000b0: 6714 863b 6e55 f43c b096 cbbc b112 013d
000000c0: cdcb 0ebd 5805 0d3d 9daa a03c f847 2f3d
000000d0: f5d1 303d be48 0ebd 2794 b73c 5914 8c3c
000000e0: ecaf f2bc 79cb 32bd aa50 0c3d a00a 0bbd
000000f0: 7aad debc c1ba f6bb 3674 16bd b347 153d
00000100: 5691 1c3d 5a5f c33c ec92 0cbd 9617 143d
00000110: 938a 9f3c b573 dfbc b176 edbc 9cdf dabc
00000120: 6937 d4bc 6182 a5bc 57e1 72bb c836 243d
00000130: 9880 f53c 3fd9 29bd 8bbd 2e3c 3845 eb3c
00000140: 7ff0 043d 45be 8dbc 4da3 be3c 8f4a ce3c
00000150: 283c fabc 7fb6 223d 48c4 a53c ea3f 01bc
00000160: e950 723c e095 e43c 0a52 13bd a257 1b3d
00000170: 57ec 1c3d 9db2 21bd 9017 fdbc 775d f3bc
00000180: fa3f 003d 6dec 6dbb 2a9a 4fbd a04b 9bbc
00000190: ae10 fb3c e899 fe3c b6e3 ecbc 34e4 0d3d
000001a0: d0b2 163d 5a8c 6a3c 2b0b 0e3d deac 163d
000001b0: b9d6 bf3c 4126 e8bc ec83 033d ba61 013d
000001c0: dbcc 023d 1278 8bbb 9810 fcbc 71ac 07bd
000001d0: 9554 02bd 401d f2bc 0c17 0d3d 58ff e1bc
000001e0: 6540 063d cded eab9 78c1 6dbb 3969 08bd
000001f0: 42ce dc3b cafd ebbc 4242 133d cdcd dd3c
