outputs/four_group_ablation_20260122/A_multi_critic_adaptive_seed0_v2/best_feasible.pt (torch, 981875 bytes, 68 tensors)

actor_backbone.0.weight f4 [128, 22]
-0.14082068 0.042714626 0.31335542 0.044019636 -0.07607988 -0.02107854 -0.07700987 0.07137953
-0.16341275 0.14151058 -0.039897848 -0.28003 -0.014580678 0.11864593 -0.13479815 0.09210991
0.037738625 -0.07692317 0.090581104 0.076466404 0.23981011 -0.19937949 -0.044825032 0.12524901
-0.24564381 -0.099299245 -0.14367513 0.032951504 0.03968857 -0.09460229 0.25546318 0.09829135
0.25480023 0.02024866 -0.13574123 -0.004355104 0.035176814 0.16616338 -0.023689799 0.00310514
0.052019835 -0.13660738 0.070994765 0.15260969 -0.39616516 -0.059814032 -0.08339482 0.15037023
-0.101957224 -0.03828441 -0.020477107 -0.046894938 0.008041797 0.027217645 -0.048361935 0.04958937
0.11374949 0.009325537 0.0942173 -0.004369939 -0.21939425 -0.00180578 0.036838736 0.029084418
0.3262453 -0.047097284 -0.06049298 0.23374403 -0.04223547 -0.14000323 -0.04069427 -0.12611982
-0.02562308 0.10672932 -0.1778772 0.12787707 -0.08035916 -0.25839666 -0.005824407 0.19775993
0.0019287409 -0.08485306 0.049351368 -0.024783073 0.06312638 0.17441188 -0.027216792 0.05636895
-0.40860313 0.10662436 0.3073703 -0.13630229 0.14280485 0.019360837 -0.20749025 0.117070325
-0.027457284 0.09900481 -0.10124009 -0.10822519 -0.0932939 0.049266938 0.15433426 -0.04931811
0.02378436 -0.012270049 -0.046359636 -0.113245696 0.027168697 -0.04411858 -0.07359366 -0.11103772
0.16956826 0.07081128 0.055959355 -0.048915975 -0.15631405 -0.12733485 -0.10581155 -0.02208514
0.12202464 -0.20880575 -0.03775011 0.10065918 -0.21234317 -0.10193398 -0.18471807 -0.1401176
-0.2662174 0.071599066 -0.05724098 0.12692747 -0.23998305 0.123913646 -0.034992646 -0.09963457
-0.18897828 -0.25235364 0.009922988 -0.10448329 0.07009294 0.018065087 -0.15418528 0.03358792
-0.017388538 -0.21477714 -0.0111330105 0.14352326 0.25421917 -0.06819447 -0.025032006 0.024414068
0.11162142 -0.15821816 0.13041563 -0.34173548 0.0791403 0.1649279 0.02267314 -0.0354416
-0.04161774 -0.121981144 -0.03889742 0.023739401 -0.17561501 -0.21345314 0.03693905 -0.031155858
0.21064852 -0.02205151 -0.024460953 0.15427235 0.041212242 0.2083419 0.06905802 0.052619535
0.39745528 -0.08333608 0.012491402 -0.042793717 -0.22748917 0.044184092 -0.18390876 0.15039213
0.038942866 -0.08795916 0.12149015 0.04536527 -0.06404427 -0.06551653 -0.16154544 -0.052641116
-0.056201957 0.12990572 0.058593035 0.06295584 0.11415315 0.262389 -0.26528656 -0.06353747
0.18220688 0.12654229 0.11661928 -0.047584258 0.027322732 0.011484782 0.10997109 -0.21302044
0.016313195 0.024606152 -0.030841675 0.01706259 -0.12950574 0.0091260895 -0.068309076 -0.07309008
-0.06241132 0.059131004 0.1675014 -0.039704833 0.16831659 -0.3193059 -0.04232474 0.0814415
-0.030132916 -0.24561131 0.011243887 0.13689145 -0.14427374 0.02171861 0.12954184 -0.047454126
-0.053203236 -0.09483883 -0.1178166 -0.045158446 0.037278645 -0.058483597 0.20378345 -0.050950177
0.10371798 0.07613125 0.06799522 0.18235281 -0.092463486 -0.12026052 -0.1654427 0.03566645
-0.10746476 -0.18169168 -0.066854715 -0.08188978 0.053895406 -0.03444151 0.004347116 -0.02910428
00000000: 4c33 10be 88f5 2e3d 1f70 a03e ef4d 343d
00000010: c5cf 9bbd e7ac acbc 5ab7 9dbd 6e2f 923d
00000020: ac55 27be 26e8 103e ed6b 23bd 1860 8fbe
00000030: cce3 6ebc a3fc f23d 8708 0abe 1fa4 bc3d
00000040: d193 1a3d e589 9dbd 9682 b93d 6b9a 9c3d
00000050: c890 753e 232a 4cbe 749a 37bd 4741 003e
00000060: 0d8a 7bbe 675d cbbd 931f 13be 28f8 063d
00000070: 7b90 223d d8be c1bd 12cc 823e fa4c c93d
00000080: 2d75 823e 85e0 a53c c0ff 0abe 43b5 8ebb
00000090: 9015 103d bc26 2a3e 1c11 c2bc 9b7f 4b3b
000000a0: c012 553d cee2 0bbe b465 913d b745 1c3e
000000b0: 29d6 cabe 8fff 74bd e7ca aabd a7fa 193e
000000c0: f3ce d0bd 1dd0 1cbd 9bbf a7bc e814 40bd
000000d0: bec1 033c 8af7 de3c 2a17 46bd 391e 4b3d
000000e0: 7ef5 e83d 23ca 183c 00f5 c03d b531 8fbb
000000f0: e3a8 60be ecaf ecba 37e4 163d 7242 ee3c
00000100: a009 a73e 15e9 40bd 7dc7 77bd 985a 6f3e
00000110: 1aff 2cbd 025d 0fbe 09af 26bd 8e25 01be
00000120: 7ee7 d1bc e794 da3d 7125 36be 35f2 023e
00000130: 5893 a4bd 914c 84be abda bebb 9481 4a3e
00000140: cecd fc3a 71c7 adbd a924 4a3d df05 cbbc
00000150: 6748 813d 0799 323e c0f5 debc 21e3 663d
00000160: 6e34 d1be df5d da3d a45f 9d3e d492 0bbe
00000170: 6f3b 123e 9e9a 9e3c 5378 54be 91c2 ef3d
00000180: 19ee e0bc 09c3 ca3d f756 cfbd 2ba5 ddbd
00000190: df10 bfbd 21cc 493d cd09 1e3e c901 4abd
000001a0: 6bd7 c23c 5108 49bc 9ae3 3dbd 5ced e7bd
000001b0: e390 de3c afb5 34bd 46b8 96bd bf67 e3bd
000001c0: 4da3 2d3e 8105 913d a335 653d 1e5c 48bd
000001d0: ca10 20be 1164 02be bab3 d8bd e5eb b4bc
000001e0: 0ee8 f93d 2dd1 55be dc9f 1abd 6626 ce3d
000001f0: 7d70 59be c3c2 d0bd bc26 3dbe fd7a 0fbe
00000200: a64d 88be 88a2 923d 8575 6abd 46f9 013e
00000210: 1ebe 75be 70c6 fd3d 7354 0fbd 360d ccbd
00000220: 8683 41be 7f34 81be 0794 223c 56fb d5bd
00000230: e38c 8f3d 3cfd 933c bfe2 1dbe 7d93 093d
00000240: 6872 8ebc 8aee 5bbe 3b67 36bc c3f7 123e
00000250: 0429 823e 8ba9 8bbd ec0f cdbc 0300 c83c
00000260: c599 e43d f103 22be ad8b 053e f4f7 aebe
00000270: 4f14 a23d dce2 283e 05bd b93c 362b 11bd
00000280: 5d77 2abd 40d1 f9bd e752 1fbd 2279 c23c
00000290: 6cd4 33be 7693 5abe 674d 173d 923a ffbc
000002a0: 3fb4 573e 5ea5 b4bc 5662 c8bc 92f9 1d3e
000002b0: 2bce 283d 9457 553e 4b6e 8d3d 9587 573d
000002c0: 427f cb3e 1bac aabd bda8 4c3c 7748 2fbd
000002d0: ecf2 68be 61fa 343d 9452 3cbe 6500 1a3e
000002e0: 8e82 1f3d ef23 b4bd d4cf f83d efd0 393d
000002f0: a429 83bd 882d 86bd 2b6c 25be 369e 57bd
00000300: 0634 66bd 0106 053e 40ff 6f3d feee 803d
00000310: 20c9 e93d da57 863e a4d3 87be ef1f 82bd
00000320: 7194 3a3e 4d94 013e 17d6 ee3d b6e7 42bd
00000330: ecd3 df3c ab2a 3c3c 8638 e13d 0822 5abe
00000340: 40a3 853c d792 c93c aea7 fcbc d8c6 8b3c
00000350: 279d 04be 9885 153c a1e5 8bbd 40b0 95bd
00000360: 03a3 7fbd 5a33 723d 7d85 2b3e 89a1 22bd
00000370: 2f5b 2c3e 107c a3be b55c 2dbd cdca a63d
00000380: 4ed9 f6bc 8881 7bbe 4838 383c 462d 0c3e
00000390: 7fbc 13be 3aeb b13c 9ea6 043e 425f 42bd
000003a0: a3eb 59bd dc3a c2bd d449 f1bd 10f8 38bd
000003b0: 7eb1 183d 7f8c 6fbd 9cac 503e 22b1 50bd
000003c0: 186a d43d b3ea 9b3d 1441 8b3d b2ba 3a3e
000003d0: 7f5d bdbd 264b f6bd d069 29be fc16 123d
000003e0: 7c16 dcbd 620d 3abe 20eb 88bd d4b5 a7bd
000003f0: 6ec1 5c3d 8a12 0dbd 4172 8e3b 196c eebc

actor_backbone.0.bias f4 [128]
0.12474328 -0.2782616 0.14982012 -0.17724234 0.14547573 -0.1808939 -0.11864524 0.20936777
0.16069952 -0.28388652 0.22739877 -0.283647 0.27749345 -0.21278165 -0.2314869 -0.13902338
-0.16856652 0.25508928 0.18401109 0.29163292 -0.13341123 0.22553642 0.2418084 0.16498436
0.24270593 -0.1548217 0.037280053 -0.20852187 -0.13976596 0.26510808 -0.18172364 0.23924638
0.23223466 -0.27986246 -0.22843193 -0.072772905 -0.19334942 -0.24574411 0.21896817 0.14135471
0.19380042 -0.14227009 0.17973898 0.18237908 -0.18599778 0.22056028 0.2637704 0.20051175
0.18085031 -0.23814568 -0.25961167 -0.05469058 0.21132171 0.25474903 0.22951058 -0.1771576
0.21592814 -0.17275131 0.20669802 0.14119004 0.09340962 -0.22120737 -0.16312729 -0.19173297
0.057358496 -0.16803506 0.26277754 0.17449209 -0.26175195 -0.26549673 0.09512922 0.1307396
0.2680694 -0.17997465 0.19463104 0.275494 0.24421737 0.2469677 -0.2808975 0.2405801
-0.08165647 -0.20827226 0.15014328 0.15676989 0.16174193 -0.18824588 -0.1115291 0.16552365
-0.21688461 0.22717953 -0.26384634 -0.2607896 0.23186463 0.052745897 0.18209532 0.2030047
-0.13899168 0.2581516 0.21708913 -0.16360581 -0.18303265 0.14315696 -0.16489305 0.18211184
-0.20040397 0.1860855 -0.24869953 0.17668112 -0.27554402 -0.13563636 0.2800289 -0.18377167
0.2563247 0.2839788 0.24253647 0.25441068 -0.23458923 0.14172229 -0.15785809 0.1695325
0.07987682 -0.17896333 0.13259567 0.25330275 0.15116984 0.10799128 -0.2055924 0.16397041
00000000: 6879 ff3d 4e78 8ebe 726a 193e 047f 35be
00000010: 97f7 143e 403c 39be 47fc f2bd 8164 563e
00000020: 6a8e 243e 9359 91be 39db 683e 2e3a 91be
00000030: 9f13 8e3e 6fe3 59be e70a 6dbe 255c 0ebe
00000040: b49c 2cbe 109b 823e 676d 3c3e e950 953e
00000050: f49c 08be 05f3 663e 9f9c 773e a9f1 283e
00000060: e787 783e 9489 1ebe f8b2 183d c286 55be
00000070: cf1e 0fbe 3fbc 873e c315 3abe 01fd 743e
00000080: ecce 6d3e 224a 8fbe 0fea 69be f609 95bd
00000090: 64fd 45be 58a4 7bbe 3139 603e 4abf 103e
000000a0: 9e73 463e 40af 11be 7f0d 383e 95c1 3a3e
000000b0: 3476 3ebe 8eda 613e ea0c 873e f452 4d3e
000000c0: d330 393e 76dc 73be d2eb 84be 3b03 60bd
000000d0: b864 583e 776e 823e d204 6b3e cd68 35be
000000e0: 441c 5d3e b8e5 30be a5a8 533e 1f94 103e
000000f0: 8b4d bf3d 2f84 62be d70a 27be a655 44be
00000100: bef0 6a3d 6211 2cbe c78a 863e 0eae 323e
00000110: 5a04 86be 30ef 87be 1cd3 c23d 9ae0 053e
00000120: 6440 893e 464b 38be 5c4d 473e 8d0d 8d3e
00000130: 1e14 7a3e 1ae5 7c3e ccd1 8fbe a15a 763e
00000140: 823b a7bd 5345 55be 29bf 193e 4988 203e
00000150: ad9f 253e 87c3 40be 5e69 e4bd 087f 293e
00000160: 0017 5ebe c0a1 683e de16 87be 3786 85be
00000170: ec6d 6d3e 150c 583d 3277 3a3e 77e0 4f3e
00000180: d653 0ebe 722c 843e 9d4c 5e3e 4888 27be
00000190: e96c 3bbe bd97 123e b9d9 28be 877b 3a3e
000001a0: b336 4dbe 338d 3e3e 17ab 7ebe e5eb 343e
000001b0: 1b14 8dbe 42e4 0abe f35f 8f3e a42e 3cbe
000001c0: fe3c 833e ab65 913e 7b5b 783e 1e42 823e
000001d0: 2938 70be a61f 113e 8da5 21be ed99 2d3e
000001e0: 7596 a33d 2a42 37be 29c7 073e e6b0 813e
000001f0: 44cc 1a3e 882a dd3d d086 52be dce7 273e

actor_backbone.2.weight f4 [128, 128]
-0.09534937 -0.035814743 -0.13792975 0.01815002 -0.14730233 0.034274794 0.10683069 -0.26320994
0.0658011 0.028154938 -0.20657046 -0.010835001 0.0065237326 -0.08563603 -0.0035451353 -0.27391797
0.0125408145 0.04902293 0.060581733 0.05061775 0.20285873 0.2515777 0.048843384 -0.06909503
-0.09130651 -0.04926213 0.2342928 0.058427036 -0.22645144 0.1899156 -0.10640364 -0.037749454
0.20542216 0.112455025 -0.076317355 -0.14549196 0.15819107 0.10193622 0.20020515 -0.19487476
0.19772871 0.21565078 0.12519202 -0.07858344 0.0016634086 -0.06910962 -0.0763228 -0.109469846
-0.15607548 0.08887133 0.022260683 0.09055255 0.07948675 -0.14638463 -0.071203195 -0.17522891
-0.1959297 -0.05350138 0.057085637 0.068828456 0.12896876 0.055533845 -0.0337221 0.11104315
-0.23922996 0.07648002 0.009132126 0.16816795 -0.033691496 -0.15418176 0.015928585 0.10983441
0.046954308 0.13646217 0.12436166 0.21684927 -0.13147314 -0.084359325 -0.105503954 -0.011355443
-0.027266117 -0.06986112 -0.12973519 0.035385225 0.01008508 0.014148549 0.30261102 -0.06694574
0.089234576 0.25593385 0.1262915 0.120288625 0.19944064 -0.26908264 -0.04664037 0.14927916
-0.46428916 -0.07607225 -0.13486402 -0.2278656 -0.18116552 0.21647877 -0.09258882 -0.12940198
-0.107429646 0.09834903 0.050023217 -0.31292784 -0.0026135212 -0.15541765 0.16942757 -0.05752777
0.1698846 0.12993753 0.15614007 -0.02779865 0.031526413 -0.16795082 0.16599013 0.07976064
-0.029954964 -0.08470734 0.106294505 -0.0049149496 -0.12372768 0.04638938 0.34070736 0.16638853
-0.03219241 0.08331656 0.16599473 -0.20286892 0.061083443 0.0016933548 -0.03484165 -0.07837974
0.20133407 -0.0238136 0.029590422 0.1600121 0.28724658 -0.105979264 -0.06523632 -0.27338254
-0.067417406 0.13172375 -0.234572 0.042541064 0.06289406 -0.02136744 -0.040156834 -0.22974592
-0.14669317 -0.1818062 -0.031923912 0.066326104 -0.4245622 0.24214423 -0.23540321 0.15061176
0.13815291 -0.062273182 -0.03207642 -0.052044913 0.023580646 -0.051966667 -0.03561503 -0.21285202
0.0011459474 0.1463521 0.0040366286 -0.02181803 -0.2075952 0.045309536 0.20169984 -0.046937525
0.07307877 0.06782231 0.14703277 -0.039631408 0.063695565 0.0190016 -0.0020440118 0.04659745
0.07642325 -0.153746 0.0014957469 -0.30263463 0.1239799 0.07098775 -0.10890011 -0.16711059
-0.1752483 -0.09215208 -0.08097988 -0.019074801 -0.1379575 -0.07945951 -0.12578118 -0.05356246
-0.21020095 0.1215368 -0.029642899 0.17972693 -0.0335681 -0.24881081 0.044881456 0.071467154
0.2336484 -0.09484105 -0.16145885 -0.06205717 0.11522455 -0.14633906 0.05562868 0.05896203
0.014661339 -0.03107439 -0.012994813 -0.059736997 -0.04695842 -0.12993294 -0.023016708 -0.21370344
-0.19764796 -0.2885635 0.17837703 0.0071931356 0.04145426 -0.041470453 0.26799998 0.051796205
-0.06448661 -0.0855718 -0.14171721 -0.124249995 -0.117648296 -0.24991685 0.1272489 -0.06051281
0.0077168606 0.04551457 0.009269443 0.043239128 0.14059222 0.1172765 -0.3041349 -0.059594516
0.049804192 0.069734246 0.3396407 -0.11664114 0.061686262 0.21455446 -0.0012085951 0.08955496
00000000: 8846 c3bd 7bb2 12bd 753d 0dbe 5aaf 943c
00000010: 6cd6 16be ba63 0c3d 0cca da3d 74c3 86be
00000020: bac2 863d 2fa5 e63c 3587 53be 4a85 31bc
00000030: 09c5 d53b f161 afbd 8055 68bb fa3e 8cbe
00000040: fd77 4d3c 45cc 483d 8d24 783d 8f54 4f3d
00000050: 33ba 4f3e cbce 803e 0010 483d b281 8dbd
00000060: e8fe babd 16c7 49bd 74ea 6f3e 3051 6f3d
00000070: e3e2 67be 3c79 423e 27ea d9bd 2c9f 1abd
00000080: 305a 523e d24e e63d 464c 9cbd d8fb 14be
00000090: d7fc 213e f0c3 d03d 9402 4d3e 408d 47be
000000a0: 6579 4a3e 8fd3 5c3e 5632 003e 5bf0 a0bd
000000b0: bb06 da3a 5889 8dbd 214f 9cbd ba31 e0bd
000000c0: 40d2 1fbe 2c02 b63d 095c b63c 9e73 b93d
000000d0: f3c9 a23d dae5 15be fbd2 91bd 356f 33be
000000e0: cca1 48be 4324 5bbd a1d2 693d eff5 8c3d
000000f0: 6310 043e 7577 633d 2f20 0abd 976a e33d
00000100: b3f8 74be 8fa1 9c3d ea9e 153c 3834 2c3e
00000110: 1800 0abd d3e1 1dbe aa7c 823c ddf0 e03d
00000120: 2953 403d bdbc 0b3e 53b1 fe3d bc0d 5e3e
00000130: e5a0 06be 95c4 acbd 7512 d8bd 2e0c 3abc
00000140: 315d dfbc 5913 8fbd 4dd9 04be 19f0 103d
00000150: e43b 253c 51cf 673c d5ef 9a3e d91a 89bd
00000160: 9ec0 b63d c309 833e 8f52 013e e259 f63d
00000170: 2b3a 4c3e 33c5 89be f909 3fbd a3dc 183e
00000180: 4fb7 edbe c5cb 9bbd cb19 0abe 9a55 69be
00000190: 7483 39be 9cac 5d3e 359f bdbd f481 04be
000001a0: 1304 dcbd 376b c93d 25e5 4c3d 1438 a0be
000001b0: 9c47 2bbb ce25 1fbe 6c7e 2d3e 3da2 6bbd
000001c0: 3bf6 2d3e 580e 053e 2fe3 1f3e ffb9 e3bc
000001d0: d721 013d 4dfb 2bbe 51f9 293e 8c59 a33d
000001e0: 1d64 f5bc 0b7b adbd efb0 d93d 960d a1bb
000001f0: f064 fdbd ca02 3e3d 3271 ae3e c161 2a3e
00000200: 30dc 03bd dfa1 aa3d 86fa 293e dfbc 4fbe
00000210: a232 7a3d 8ff3 dd3a 1eb6 0ebd 8f85 a0bd
00000220: 852a 4e3e bd14 c3bc 9d67 f23c 36da 233e
00000230: fc11 933e a80b d9bd 9f9a 85bd ccf8 8bbe
00000240: 2312 8abd 97e2 063e a433 70be 8a3f 2e3d
00000250: 9ace 803d c50a afbc 7e7b 24bd 8442 6bbe
00000260: bc36 16be 682b 3abe a6c2 02bd fbd5 873d
00000270: 3760 d9be a8f4 773e 8a0d 71be f839 1a3e
00000280: f577 0d3e 2a12 7fbd 9062 03bd 0c2d 55bd
00000290: 332c c13c 00db 54bd 11e1 11bd e1f5 59be
000002a0: 9d33 963a 53dd 153e b245 843b babb b2bc
000002b0: d693 54be 7e96 393d 678a 4e3e 9041 40bd
000002c0: 52aa 953d 6ce6 8a3d c28f 163e 8b54 22bd
000002d0: d272 823d 3ea9 9b3c d4f4 05bb f8dc 3e3d
000002e0: cb83 9c3d 976f 1dbe f00c c43a edf2 9abe
000002f0: 2ce9 fd3d 0762 913d 0507 dfbd 0a1f 2bbe
00000300: 4a74 33be 3bba bcbd c8d8 a5bd c242 9cbc
00000310: bb44 0dbe abbb a2bd c8cc 00be 4f64 5bbd
00000320: eb3e 57be 49e8 f83d aad5 f2bc 560a 383e
00000330: b47e 09bd 43c8 7ebe 9ed5 373d 5f5d 923d
00000340: 8741 6f3e 063c c2bd 7855 25be a92f 7ebd
00000350: d9fa eb3d e8d9 15be e6da 633d 2b82 713d
00000360: 1d36 703c b88f febc 32e8 54bc c8ae 74bd
00000370: 7957 40bd 240d 05be 898d bcbc 13d5 5abe
00000380: 3a64 4abe 98be 93be 78a8 363e 65b4 eb3b
00000390: f1cb 293d ecdc 29bd 4b37 893e 4228 543d
000003a0: 8e11 84bd 4540 afbd 511e 11be c876 febd
000003b0: 97f1 f0bd 34ea 7fbe 894d 023e 48dc 77bd
000003c0: b8dd fc3b 7c6d 3a3d ddde 173c 831b 313d
000003d0: 68f7 0f3e a92e f03d 92b7 9bbe 6119 74bd
000003e0: 7bff 4b3d d4d0 8e3d 63e5 ad3e 8de1 eebd
000003f0: bcaa 7c3d 2ab4 5b3e b969 9eba 9768 b73d

actor_backbone.2.bias f4 [128]
0.041378804 0.08673031 0.050585415 -0.07668804 -0.19824749 0.23205405 -0.012131722 -0.06394098
-0.09909294 -0.18223245 0.22924599 0.20457932 0.22112611 -0.17255206 0.13019387 -0.15077636
0.22980759 0.21300353 -0.11497488 0.22991922 0.11815156 0.00964868 -0.14154315 -0.22489089
-0.18053296 0.20754528 -0.15489101 -0.15172535 -0.22682892 0.19785087 0.20416988 -0.028331632
-0.19474955 -0.19453804 0.19492018 0.17601354 0.053479325 -0.20308475 0.23819777 -0.22118391
-0.105971135 0.13732044 0.19646625 -0.23897308 0.089547694 -0.06493959 -0.19432616 0.1924573
0.21548803 0.21783184 -0.045776386 0.23135774 -0.036629867 0.19602238 0.17248271 0.2175606
0.16180554 0.14157586 -0.040326305 0.031639002 0.21351318 -0.16390519 0.24168518 -0.16217704
-0.056017086 -0.13887888 -0.2075254 0.21537434 0.12982018 0.18847193 0.16157535 0.16727512
0.20549242 -0.2173542 0.030376997 -0.21122071 -0.23642507 -0.21376932 0.07400507 -0.1755284
0.13511325 -0.16437481 -0.23364173 -0.18668176 0.2065092 -0.18511014 -0.15711686 -0.21897349
-0.021806851 0.119122416 0.21888056 0.19450964 -0.029660985 0.21176685 0.19662265 0.1787489
-0.07393026 -0.18571454 -0.22613057 0.17348795 -0.2272252 -0.21357706 0.23385553 -0.21185647
-0.19888052 -0.0903228 -0.2249507 0.22704028 -0.18182135 0.20812453 0.19293755 0.14603233
0.14164646 0.14419132 0.24409313 -0.10418559 -0.2078502 -0.17183702 0.22174263 -0.2079781
0.18725783 -0.23636268 -0.22252175 -0.22854984 0.19875024 0.0061608595 0.14387551 0.18543357
00000000: d27c 293d a99f b13d a732 4f3d 9e0e 9dbd
00000010: 6401 4bbe 949f 6d3e 21c4 46bc 7df3 82bd
00000020: 3df1 cabd 259b 3abe 76bf 6a3e 3e7d 513e
00000030: e26e 623e 7db1 30be 8b51 053e 1e65 1abe
00000040: ae52 6b3e 991d 5a3e f377 ebbd f26f 6b3e
00000050: 72f9 f13d 7f15 1e3c b0f0 10be cc49 66be
00000060: a2dd 38be c086 543e c09b 1ebe e45d 1bbe
00000070: d745 68be 6b99 4a3e e911 513e bd17 e8bc
00000080: 6d6c 47be fb34 47be 2899 473e e53c 343e
00000090: 230d 5b3d 73f5 4fbe 1eea 733e 097e 62be
000000a0: 6507 d9bd bb9d 0c3e 732e 493e 5cb5 74be
000000b0: c864 b73d 0cff 84bd 70fd 46be 8713 453e
000000c0: e5a8 5c3e 4f0f 5f3e 0580 3bbd 0be9 6c3e
000000d0: 3309 16bd 17ba 483e 4f9f 303e 35c8 5e3e
000000e0: 5ab0 253e 43f9 103e 322d 25bd e697 013d
000000f0: 33a3 5a3e c3d6 27be 527c 773e bd11 26be
00000100: 2c72 65bd 4436 0ebe 8a81 54be 178b 5c3e
00000110: 95ef 043e c9fe 403e 0274 253e 2b4a 2b3e
00000120: 9b6c 523e 1992 5ebe 2ed9 f83c 3e4a 58be
00000130: 6a19 72be 58e6 5abe f88f 973d b8bd 33be
00000140: 215b 0a3e df51 28be c73f 6fbe 8129 3fbe
00000150: 2677 533e 838d 3dbe 3ee3 20be 963a 60be
00000160: 48a4 b2bc 74f6 f33d 3a22 603e 892d 473e
00000170: 98fb f2bc 69d9 583e 7357 493e f409 373e
00000180: c068 97bd f42b 3ebe c68e 67be d3a6 313e
00000190: b9ad 68be f2b3 5abe d377 6f3e e7f0 58be
000001a0: 56a7 4bbe 29fb b8bd 7a59 66be 3f7d 683e
000001b0: 602f 3abe 991e 553e 6c91 453e 8089 153e
000001c0: c50b 113e e4a6 133e 8df3 793e 415f d5bd
000001d0: afd6 54be 0bf6 2fbe 8010 633e 36f8 54be
000001e0: 84c0 3f3e 0f09 72be bedc 63be f808 6abe
000001f0: 2f85 4b3e 09e1 c93b 1a54 133e 4ce2 3d3e

reward_backbone.0.weight f4 [128, 22]
0.17614171 -0.060275238 0.13722263 0.31172094 0.0034714635 -0.32639015 -0.06424211 0.037014104
0.14993027 -0.148573 -0.09038636 -0.018469682 0.07461813 0.008836143 -0.119094215 0.04154733
0.072805084 0.014942574 0.008759758 -0.016236166 0.124135196 0.120448686 0.10749675 -0.030084856
0.07475036 0.06288786 0.06883021 0.08185186 -0.106599405 -0.05110907 0.10159686 -0.12861742
0.00015812123 -0.27340892 0.2114736 -0.035333514 -0.0745095 -0.106700644 0.070575416 0.13739224
-0.02895247 -0.14039701 -0.038719513 0.14156446 0.049643997 -0.16268577 -0.07815999 -0.16170807
-0.03119325 -0.14353856 -0.13025568 0.037738033 -0.1722388 -0.038224783 -0.026730608 0.0030381952
0.2806311 -0.119668126 -0.06819126 0.19490892 -0.034837175 -0.09737882 -0.14937727 -0.13091797
-0.048384774 -0.28237587 0.18323126 0.095018685 0.18197072 -0.12106747 -0.03955964 0.09953105
-0.039057735 -0.013487768 -0.0423737 0.14898197 0.004847464 -0.15861312 0.023653822 -0.0574824
-0.009590986 -0.018736998 0.02221063 0.0019310734 -0.06843247 -0.19884434 0.05449294 -0.0073402813
0.09106934 0.09111205 -0.17198877 0.059626706 -0.074028775 -0.07332331 0.121536545 0.0531327
-0.38243514 -0.09117231 -0.13466467 -0.19192867 0.0031302427 0.078440644 0.09708945 0.042113125
0.19179432 -0.15639798 0.13473389 -0.18752687 0.1700743 -0.038456924 0.0838235 -0.28667197
0.039009534 0.2827061 0.0024368034 -0.06673014 0.10472999 0.069070086 0.023448959 -0.102030516
0.12912373 -0.047958616 -0.12534244 0.26111576 0.061714552 -0.016259076 0.07843727 -0.002759419
0.0013721014 0.18949363 0.14747015 -0.025346838 0.027024763 0.06431073 0.080152884 -0.059805583
-0.07742296 -0.24825814 -0.15564795 -0.17932974 0.10991576 0.25330395 -0.054393046 -0.069838196
-0.08659504 -0.15902883 0.017732106 -0.012249197 -0.042568434 -0.007652566 -0.085506044 0.080201656
0.03735234 -0.10471963 -0.078571685 0.21436118 -0.07523853 -0.012246641 0.09632644 0.111276016
-0.1167969 0.2264977 0.11579801 -0.1816758 0.018825796 -0.104565926 0.15678191 0.06073972
-0.042403348 -0.060134757 0.057956543 -0.043037765 -0.010980965 -0.011143995 -0.073163144 -0.1633818
-0.02838859 -0.020044273 -0.1035106 -0.14688459 0.08431096 -0.081367716 0.0142240375 -0.056260735
0.027357446 -0.10169157 -0.046138823 -0.043786403 0.1896441 -0.14024515 -0.23367238 -0.064876586
-0.0206625 0.055871285 0.18613915 0.009968575 -0.066327654 0.16796358 -0.046293046 -0.2024392
-0.2970515 0.20118278 0.21739428 -0.20815636 -0.07213645 -0.10178666 -0.037506886 -0.10561096
0.17406856 -0.049984105 0.012623932 0.08424494 0.013770441 0.039091796 0.11536801 0.103021964
-0.20837188 -0.09450503 -0.025380919 0.07880179 -0.16406286 0.06115556 0.09887012 0.12766731
0.25697565 -0.05762221 -0.050488196 -0.00027085157 -0.058948226 -0.009921846 0.023308525 0.046125103
-0.09204959 0.16008918 0.10802424 -0.040091142 0.051803682 -0.054139234 0.101572156 0.1462463
-0.22611415 0.018661102 0.17530403 0.055812128 -0.14992757 -0.050726987 0.03893468 0.07653602
0.07446989 -0.014945458 0.0018349988 -0.00027886833 0.09104606 0.049591072 0.06418654 0.0820756
00000000: 7e5e 343e 2be3 76bd 1784 0c3e e399 9f3e
00000010: 7e81 633b 9c1c a7be 5e91 83bd 1a9c 173d
00000020: 5287 193e 8523 18be 7c1c b9bd bb4d 97bc
00000030: 64d1 983d 78c5 103c abe7 f3bd 882d 2a3d
00000040: d51a 953d b3d1 743c 1785 0f3c b501 85bc
00000050: 983a fe3d cdad f63d 4227 dc3d 8474 f6bc
00000060: b716 993d 5acb 803d daf6 8c3d f3a1 a73d
00000070: ca50 dabd bf57 51bd 0412 d03d 49b4 03be
00000080: 58cd 2539 41fc 8bbe 898c 583e e0b9 10bd
00000090: 7098 98bd de85 dabd d889 903d 8db0 0c3e
000000a0: bb2d edbc 3cc4 0fbe 5a98 1ebd 46f6 103e
000000b0: 8157 4b3d 1997 26be 5812 a0bd cd96 25be
000000c0: fd88 ffbc c6fb 12be bf61 05be 3293 1a3d
000000d0: 5e5f 30be 9791 1cbd 26fa dabc 751c 473b
000000e0: e1ae 8f3e 9014 f5bd dca7 8bbd 3496 473e
000000f0: 6db1 0ebd 8c6e c7bd 5bf6 18be 5c0f 06be
00000100: 1d2f 46bd 9293 90be faa0 3b3e 2899 c23d
00000110: 8856 3a3e 39f2 f7bd 4a09 22bd efd6 cb3d
00000120: 01fb 1fbd cdfb 5cbc 0b90 2dbd bb8e 183e
00000130: 7ad7 9e3b 7a6b 22be a9c5 c13c aa72 6bbd
00000140: 8323 1dbc 557e 99bc 11f3 b53c 121c fd3a
00000150: 5326 8cbd da9d 4bbe fd33 5f3d be86 f0bb
00000160: 9082 ba3d f498 ba3d d31d 30be 223b 743d
00000170: 669c 97bd 882a 96bd 27e8 f83d ada1 593d
00000180: 8ace c3be 8cb8 babd 89e5 09be f388 44be
00000190: c224 4d3b 7da5 a03d d5d6 c63d d07e 2c3d
000001a0: bb65 443e cb26 20be aef7 093e 0b07 40be
000001b0: f527 2e3e 0285 1dbd a8ab ab3d abc6 92be
000001c0: 76c8 1f3d dbbe 903e c7b2 1f3b d0a9 88bd
000001d0: ad7c d63d 9e74 8d3d 0818 c03c 60f5 d0bd
000001e0: 0339 043e 4170 44bd c559 00be f7b0 853e
000001f0: 66c8 7c3d c131 85bc b8a3 a03d 5ed7 34bb
00000200: 15d8 b33a 9e0a 423e 6a02 173e 2ca4 cfbc
00000210: 0963 dd3c 58b5 833d 3227 a43d b3f6 74bd
00000220: ee8f 9ebd 6237 7ebe 2d62 1fbe 37a2 37be
00000230: 841b e13d 0eb1 813e 3ecb 5ebd 5407 8fbd
00000240: be58 b1bd 74d8 22be ec42 913c dbb0 48bc
00000250: 3d5c 2ebd 60c2 fabb cb1d afbd c440 a43d
00000260: c4fe 183d 3f77 d6bd 31ea a0bd 7f81 5b3e
00000270: a916 9abd 23a6 48bc cc46 c53d aee4 e33d
00000280: 3733 efbd 03ef 673e 8227 ed3d 3909 3abe
00000290: 8e38 9a3c a926 d6bd 708b 203e 36ca 783d
000002a0: 22af 2dbd dd4f 76bd d763 6d3d 5e48 30bd
000002b0: 81e9 33bc 4e95 36bc 8fd6 95bd 8f4d 27be
000002c0: 308f e8bc e333 a4bc 5efd d3bd ea68 16be
000002d0: 39ab ac3d 1ea4 a6bd f00b 693c a871 66bd
000002e0: b91c e03c ab43 d0bd 10fc 3cbd 5f59 33bd
000002f0: 1032 423e 6d9c 0fbe d047 6fbe 04de 84bd
00000300: 6744 a9bc 4ad9 643d 439b 3e3e 3c53 233c
00000310: cbd6 87bd a5fe 2b3e c79d 3dbd 394c 4fbe
00000320: 2217 98be dc02 4e3e 9b9c 5e3e f126 55be
00000330: 46bc 93bd 8675 d0bd d2a0 19bd 8f4a d8bd
00000340: 073f 323e 22bc 4cbd 9cd4 4e3c 9c88 ac3d
00000350: 6a9d 613c b81e 203d 1046 ec3d 2efd d23d
00000360: 705f 55be da8b c1bd a5eb cfbc d562 a13d
00000370: 1800 28be 417e 7a3d 6b7c ca3d 38bb 023e
00000380: 5092 833e 4405 6cbd b6cc 4ebd 1501 8eb9
00000390: b273 71bd 3d8f 22bc 85f1 be3c aded 3c3d
000003a0: 7f84 bcbd 6bee 233e d03b dd3d 9c36 24bd
000003b0: 1930 543d 1ac1 5dbd 1005 d03d 97c1 153e
000003c0: 788a 67be 2bdf 983c e682 333e 429b 643d
000003d0: 9d86 19be 1ac7 4fbd f979 1f3d ebbe 9c3d
000003e0: ab83 983d cbdd 74bc 5884 f03a 1335 92b9
000003f0: 5b76 ba3d 0220 4b3d 3c74 833d 4117 a83d

reward_backbone.0.bias f4 [128]
0.161222 0.14210638 -0.100142516 0.030785307 -0.03919966 -0.08972561 0.12386074 0.12609781
-0.20147881 -0.014415997 -0.20367151 0.050416876 -0.05860285 -0.10385479 -0.13574108 -0.037007306
-0.21513684 0.22969076 -0.119490944 0.13389431 -0.14560276 0.23315954 0.1661626 -0.15432772
0.076293975 -0.071815476 0.16205414 -0.13074109 0.19703962 -0.00187694 0.05254005 -0.071878925
0.095149234 0.10763899 0.10039823 0.15990354 0.0017796942 0.1188713 -0.2033649 0.002779241
-0.19618315 -0.06975105 0.27235815 -0.14639139 -0.12606108 0.08688029 0.24505357 -0.17914808
0.09773326 0.030502507 0.12157926 -0.22412947 -0.062113587 -0.24964681 -0.21463084 -0.24714895
-0.27970886 0.20959726 0.12657587 -0.1268653 -0.17438848 0.15356039 -0.13767491 0.03785882
0.19537672 0.24101055 0.05736925 0.1071351 0.20758209 0.08247032 -0.109986626 0.040361125
0.11001647 0.1266596 0.2536612 0.16186611 -0.08609011 -0.1601847 0.031814158 0.16148478
0.083861336 0.06005161 0.15710668 0.06123578 -0.09220277 0.21196048 -0.13900486 0.24570341
0.1816308 0.08243472 0.15333201 -0.15050775 -0.10308258 -0.182667 -0.13977608 0.09220371
0.14957248 -0.18852127 -0.13591048 0.07591057 -0.19037354 -0.24413921 0.09750386 -0.08609471
0.14548774 -0.08622911 0.07937496 -0.2545098 0.17628081 -0.21291809 0.059249435 -0.14429066
0.17769815 -0.15520133 0.056574844 0.20018558 -0.076261014 0.22640845 -0.071691126 -0.0694112
0.11878317 0.057431612 0.09060292 -0.09872365 -0.10866675 -0.16809519 -0.13073772 -0.12127531
00000000: 6117 253e 5684 113e 8517 cdbd 7831 fc3c
00000010: d38f 20bd 10c2 b7bd b3aa fd3d c91f 013e
00000020: 7650 4ebe 1331 6cbc 448f 50be ed81 4e3d
00000030: 8b09 70bd d2b1 d4bd b6ff 0abe f994 17bd
00000040: d54c 5cbe 0e34 6b3e abb7 f4bd 971b 093e
00000050: e418 15be 60c1 6e3e 8726 2a3e 1608 1ebe
00000060: 0440 9c3d fe13 93bd 85f1 253e fee0 05be
00000070: c1c4 493e a803 f6ba 3c34 573d 4235 93bd
00000080: 9add c23d d571 dc3d 969d cd3d c1bd 233e
00000090: a144 e93a cc72 f33d e33e 50be ed23 363b
000000a0: 3ce4 48be a3d9 8ebd 8772 8b3e a0e7 15be
000000b0: 2816 01be 4bee b13d 53ef 7a3e 9872 37be
000000c0: 6028 c83d 65e0 f93c 8cfe f83d 3282 65be
000000d0: d16a 7ebd 6aa3 7fbe 30c8 5bbe 9d14 7dbe
000000e0: 0036 8fbe aaa0 563e 1b9d 013e fae8 01be
000000f0: e592 32be ef3e 1d3e a7fa 0cbe da11 1b3d
00000100: d610 483e 78cb 763e 05fc 6a3d a669 db3d
00000110: 6690 543e 33e6 a83d ab40 e1bd b551 253d
00000120: 5150 e13d 0eb3 013e e1df 813e 3bc0 253e
00000130: 0350 b0bd 7507 24be 904f 023d 445c 253e
00000140: 7ebf ab3d adf8 753d 93e0 203e 5fd2 7a3d
00000150: ced4 bcbd 2b0c 593e 4a57 0ebe ad99 7b3e
00000160: 6dfd 393e 89d3 a83d 1103 1d3e b41e 1abe
00000170: f61c d3bd 0f0d 3bbe 7621 0fbe 4cd5 bc3d
00000180: 8729 193e b80b 41be 1e2c 0bbe 0077 9b3d
00000190: 48f1 42be a1ff 79be 1bb0 c73d 6c52 b0bd
000001a0: bdfa 143e e398 b0bd 578f a23d 1c4f 82be
000001b0: f582 343e 3307 5abe 89af 723d eec0 13be
000001c0: 81f6 353e 19ed 1ebe 06bb 673d 73fd 4c3e
000001d0: bc2e 9cbd 9ed7 673e ccd2 92bd 7627 8ebd
000001e0: 9744 f33d 693d 6b3d 068e b93d a02f cabd
000001f0: ac8c debd 2521 2cbe 1ce0 05be 315f f8bd

reward_backbone.2.weight f4 [128, 128]
0.058119155 0.11742216 -0.032435916 -0.10282987 -0.09719417 0.014064614 -0.0047938665 0.17212884
0.041865543 -0.0034711198 -0.03605051 -0.11461748 0.048911706 -0.1958564 -0.06640721 0.10074695
-0.2521443 0.4568613 -0.051329166 0.10688829 -0.06971941 -0.011233629 0.33682427 -0.27439126
0.20691964 -0.12363213 -0.11537101 0.06946913 0.17785211 -0.1045938 0.12639888 -0.07962734
0.062152807 0.06609098 0.10222042 0.0242169 0.09077857 0.17472675 -0.18314643 0.04241348
-0.33400556 0.07749803 0.36608252 -0.19422081 -0.17807563 -0.04255934 -0.07618 -0.17378588
0.14819974 -0.0036137698 0.12258433 -0.12681434 -0.040063526 -0.24210098 -0.10761189 0.040746547
-0.14466147 -0.12937175 0.054636553 0.008974751 -0.11731657 0.05891161 -0.24209096 0.16874331
0.14493987 0.030747198 -0.07563084 -0.24837269 0.15268561 -0.0673484 -0.15950753 0.048701636
0.25906998 0.15034103 0.46047086 -0.034422632 -0.07387772 -0.29552644 -0.036959335 0.04120837
0.14452545 0.048309665 0.3184903 0.08293755 -0.09416229 -0.03474498 -0.2798408 0.11885273
0.372815 0.23757021 0.053407148 0.05786733 -0.030013066 -0.11132195 0.09206054 0.064070314
0.10792816 -0.17538854 0.020431207 0.04450972 -0.06287637 -0.26672742 0.050001986 0.042427238
0.036624018 -0.11973475 -0.014512134 -0.3243661 0.04639483 -0.10665344 0.09513997 -0.13116895
0.12750266 -0.111155055 -0.047399186 0.26822293 -0.11592827 0.085997574 -0.16184267 0.1315339
-0.14397293 0.15308139 0.06290015 -0.042028833 -0.06326487 0.2160642 -0.123454094 -0.31608683
-0.13983166 -0.21275386 0.20469049 -0.104480825 0.0024822343 0.07975213 -0.13584201 0.040478848
0.18907104 -0.06663831 -0.002702402 0.09883678 0.13766584 -0.014792248 -0.10209183 0.11547538
0.1577504 0.034008067 0.13048759 0.10899969 -0.046902023 0.04465313 -0.15384193 0.19682226
-0.22237365 0.04031874 -0.2918942 0.06310019 -0.3917096 0.16207635 0.08808447 0.1816945
-0.21107051 0.10665984 -0.2228508 0.018001333 0.029892057 -0.0960387 0.29954332 0.3990793
0.14899349 -0.13873568 -0.3309044 -0.03817158 0.1440231 -0.0043841484 -0.102568164 0.15672602
0.24662974 -0.1647611 -0.04123144 0.0059358007 0.065440826 0.005647274 0.07292844 0.08327737
0.13583611 -0.14219213 -0.20052904 0.12491237 0.24280804 -0.042083573 0.060957044 0.22251993
-0.2509775 -0.121159 0.1479071 0.1263893 0.026109818 0.030349405 -0.08955934 0.051920187
-0.2051298 -0.057583373 -0.12676756 -0.1012111 0.006791245 0.11938483 0.08067565 -0.030188253
-0.047866985 0.082266316 -0.2107756 0.09413173 0.17195952 -0.053456828 0.06314335 -0.2558474
-0.01323066 -0.06985095 -0.26732567 0.06655418 0.015797509 0.19219014 0.043168474 0.03815685
-0.014756731 0.024863303 0.15902424 -0.05476562 -0.10408165 0.07620623 0.010916614 -0.01736341
0.007791084 -0.051318005 -0.1908414 0.2682853 -0.116723485 0.3604455 -0.088665105 0.226541
-0.039463233 0.20890574 0.05873812 -0.30075258 -0.08476273 -0.0059263315 0.41143203 0.1975749
-0.08314037 0.1144039 0.07425874 0.07475332 0.05323577 0.098581344 -0.010291015 0.088422
00000000: 5a0e 6e3d 087b f03d 86db 04bd 7898 d2bd
00000010: bd0d c7bd 446f 663c de15 9dbb 8b42 303e
00000020: 347b 2b3d ba7b 63bb b3a9 13bd 92bc eabd
00000030: a457 483d 958e 48be 8100 88bd 6b54 ce3d
00000040: 0f19 81be b9e9 e93e 883e 52bd 3fe8 da3d
00000050: 0dc9 8ebd 410d 38bc 3b74 ac3e 037d 8cbe
00000060: bee2 533e d832 fdbd a347 ecbd d545 8e3d
00000070: dd1e 363e 4635 d6bd b56e 013e a913 a3bd
00000080: f193 7e3d b55a 873d f158 d13d 8562 c63c
00000090: 1dea b93d 92eb 323e bd8a 3bbe c2b9 2d3d
000000a0: c702 abbe 4ab7 9e3d 2b6f bb3e d2e1 46be
000000b0: 7559 36be b452 2ebd 4304 9cbd edf4 31be
000000c0: acc1 173e ffd4 6cbb 7e0d fb3d 9edb 01be
000000d0: a719 24bd 52e9 77be 9f63 dcbd dae5 263d
000000e0: 2322 14be 077a 04be 94ca 5f3d d60a 133c
000000f0: ab43 f0bd 4d4d 713d b1e6 77be 0ccb 2c3e
00000100: 1e6b 143e 8ce1 fb3c 58e4 9abd 6955 7ebe
00000110: 9e59 1c3e f5ed 89bd f155 23be 5e7b 473d
00000120: d2a4 843e 00f3 193e d6c2 eb3e bffe 0cbd
00000130: 344d 97bd 3e4f 97be ac62 17bd 1cca 283d
00000140: 7bfe 133e 5be0 453d 2911 a33e 2adb a93d
00000150: 29d8 c0bd c150 0ebd 4b47 8fbe 0f69 f33d
00000160: 9ce1 be3e 9b45 733e 74c1 5a3d 4b06 6d3d
00000170: f6dd f5bc c3fc e3bd 3d8a bc3d 4c37 833d
00000180: 7009 dd3d 0e99 33be 595f a73c d34f 363d
00000190: 54c5 80bd 7f90 88be e2ce 4c3d 2fc8 2d3d
000001a0: 1103 163d 7e37 f5bd 4dc4 6dbc 5013 a6be
000001b0: 8108 3e3d 1e6d dabd bfd8 c23d 2751 06be
000001c0: 0f90 023e 43a5 e3bd a625 42bd 8454 893e
000001d0: cd6b edbd 7f1f b03d 16ba 25be d3b0 063e
000001e0: a46d 13be 5ec1 1c3e cbd1 803d 6d26 2cbd
000001f0: 0391 81bd ef3f 5d3e 80d5 fcbd 22d6 a1be
00000200: 0830 0fbe 26dc 59be 629a 513e 0bfa d5bd
00000210: fbac 223b 1655 a33d 2b1a 0bbe 26cd 253d
00000220: d79b 413e ab79 88bd c81a 31bb f06a ca3d
00000230: 46f8 0c3e 2f5b 72bc 8515 d1bd 5b7e ec3d
00000240: 5289 213e 0b4c 0b3d 8a9e 053e 3b3b df3d
00000250: 561c 40bd 33e6 363d bd88 1dbe c68b 493e
00000260: ebb5 63be 4325 253d 2873 95be ac3a 813d
00000270: 298e c8be 58f7 253e a165 b43d 1f0e 3a3e
00000280: de22 58be 7970 da3d 0033 64be 8877 933c
00000290: 30e0 f43c f0af c4bd be5d 993e 1f54 cc3e
000002a0: c091 183e ba10 0ebe 4d6c a9be cd59 1cbd
000002b0: cb7a 133e e7a8 8fbb 420f d2bd c97c 203e
000002c0: 828c 7c3e 22b7 28be 4ce2 28bd 1b81 c23b
000002d0: d705 863d c50c b93b 825b 953d 538d aa3d
000002e0: 9f18 0b3e d09a 11be 7c57 4dbe 0fd2 ff3d
000002f0: aca2 783e d35f 2cbd 18ae 793d 44dc 633e
00000300: 1f80 80be 3622 f8bd f574 173e 326c 013e
00000310: 42e4 d53c 519f f83c e36a b7bd 43aa 543d
00000320: 8c0d 52be 8bdc 6bbd 5bcf 01be c447 cfbd
00000330: 1889 de3b 0980 f43d 4639 a53d 5b4d f7bc
00000340: 2c10 44bd 3e7b a83d 8fd5 57be 23c8 c03d
00000350: 2816 303e 8cf5 5abd 4d51 813d 6efe 82be
00000360: 69c5 58bc 040e 8fbd e9de 88be 8f4d 883d
00000370: c769 813c 7ecd 443e 6dd1 303d 5b4a 1c3d
00000380: 37c6 71bc 20ae cb3c 40d7 223e ea51 60bd
00000390: c328 d5bd 0312 9c3d 99db 323c b63d 8ebc
000003a0: 594c ff3b d432 52bd ee6b 43be b15c 893e
000003b0: b90c efbd 508c b83e 0d96 b5bd 5dfa 673e
000003c0: 33a4 21bd 63eb 553e 6297 703d 3efc 99be
000003d0: 1598 adbd ac31 c2bb 38a7 d23e 1351 4a3e
000003e0: 8045 aabd 984c ea3d f714 983d 4518 993d
000003f0: c00d 5a3d 04e5 c93d a59b 28bc 9816 b53d

reward_backbone.2.bias f4 [128]
0.16491455 -0.17205204 -0.060944814 0.22291213 0.022731364 0.049824297 -0.0373095 -0.06856089
0.12613623 -0.10904383 0.090810016 0.17714417 -0.05787732 0.17133823 -0.09422005 -0.08134823
0.110382184 -0.14794391 -0.067471534 0.1558062 -0.058083788 0.08251036 -0.037771624 -0.10552842
-0.086526 0.08901493 0.045484148 0.0972703 -0.09049752 -0.04851457 -0.088730745 0.08920259
-0.025968878 -0.24633126 -0.21800086 0.12206688 -0.055665895 0.10238088 -0.20126432 0.03711081
-0.064731576 -0.1128324 -0.08187552 0.17547657 0.050706632 -0.12794428 -0.080997996 0.050105568
-0.22852218 0.077809535 -0.15209334 0.12482154 0.029578583 0.04793436 -0.12105698 -0.052645788
0.06265816 0.022359226 -0.063838705 0.15749927 -0.047895677 0.1862758 0.05559487 -0.06492754
-0.18407355 0.047226917 0.061777703 -0.15723453 0.024420569 0.117588416 -0.12857214 0.037719104
0.1505278 0.0018299739 -0.0045772847 0.07676238 0.1680277 -0.013369992 -0.12403064 0.109278776
0.11362447 -0.14186597 0.11652098 -0.103864886 -0.11723727 -0.21295366 0.15330021 0.062954925
0.048240203 -0.027773911 -0.0007180414 -0.124104865 -0.04370689 0.09413155 -0.0541562 -0.039808527
0.04650832 -0.12778132 -0.05641555 -0.00091237546 -0.044618033 -0.041164365 0.10051351 -0.18109947
-0.08109908 -0.1504593 -0.09953611 0.068627104 -0.06373725 0.18607645 -0.12677823 0.019025266
-0.021593988 0.038746398 0.13394041 -0.035620976 -0.13470612 0.13125946 -0.0933461 -0.08543172
0.015080749 -0.08642595 0.14043099 -0.08170397 -0.05479156 0.07785014 0.25475842 0.08448467
00000000: 5cdf 283e 692e 30be 45a1 79bd 1443 643e
00000010: 2037 ba3c 9014 4c3d d9d1 18bd a769 8cbd
00000020: db29 013e 5f52 dfbd 9afa b93d 4865 353e
00000030: c510 6dbd 4a73 2f3e 71f6 c0bd e799 a6bd
00000040: 0e10 e23d 9c7e 17be 842e 8abd a98b 1f3e
00000050: 44e9 6dbd 31fb a83d 6bb6 1abd 491f d8bd
00000060: 8b34 b1bd 764d b63d 964d 3a3d a735 c73d
00000070: c456 b9bd 37b7 46bd 77b8 b5bd d9af b63d
00000080: afbc d4bc 433e 7cbe 9e3b 5fbe 33fe f93d
00000090: ec01 64bd 11ad d13d 3c18 4ebe 8101 183d
000000a0: fd91 84bd ac14 e7bd 5aae a7bd 21b0 333e
000000b0: c2b1 4f3d d303 03be 47e2 a5bd 7f3b 4d3d
000000c0: b801 6abe 9b5a 9f3d 5bbe 1bbe 70a2 ff3d
000000d0: c94e f23c d256 443d b9ec f7bd 1ca3 57bd
000000e0: ec52 803d b22a b73c debd 82bd 7d47 213e
000000f0: 422e 44bd 15bf 3e3e 72b7 633d bbf8 84bd
00000100: c77d 3cbe 0371 413d 9e0a 7d3d 1702 21be
00000110: a50d c83c 32d2 f03d 6aa8 03be 597f 1a3d
00000120: f623 1a3e bcdb ef3a 0cfd 95bb 9835 9d3d
00000130: 740f 2c3e d00d 5bbc c703 febd 8dcd df3d
00000140: f2b3 e83d 5045 11be 8da2 ee3d 1db7 d4bd
00000150: 181a f0bd 8610 5abe bbfa 1c3e 83ee 803d
00000160: 8597 453d 1d86 e3bc f13a 3cba b12a febd
00000170: ff05 33bd 0bc8 c03d e4d2 5dbd 440e 23bd
00000180: 827f 3e3d 1bd9 02be fe13 67bd 7b2c 6fba
00000190: 66c1 36bd f79b 28bd 07da cd3d 2472 39be
000001a0: 4617 a6bd 0112 1abe 97d9 cbbd 5e8c 8c3d
000001b0: ad88 82bd d38a 3e3e 27d2 01be e0da 9b3c
000001c0: e0e5 b0bc 8bb4 1e3d ad27 093e 4de7 11bd
000001d0: 67f0 09be e168 063e 3d2c bfbd d3f6 aebd
000001e0: 3f15 773c 1700 b1bd 24cd 0f3e 6954 a7bd
000001f0: 1d6d 60bd e56f 9f3d b26f 823e 4c06 ad3d

cost_backbone.0.weight f4 [128, 22]
0.16131318 0.16532408 -0.056347337 0.37480283 0.19123262 0.117194936 0.2604619 -0.08832593
-0.045682363 0.27898592 -0.2498594 0.07164221 0.014554853 0.07356791 -0.060557675 -0.02752479
-0.04205064 0.017896092 0.122153096 0.040263366 0.15738027 0.10679383 0.099664 0.1230822
0.02792856 0.0057984176 -0.004949937 -0.12481024 0.04126321 0.23412855 -0.006983084 0.124952145
-0.22144149 -0.060448904 0.20861672 -0.13783751 0.03319395 0.08394142 -0.01217376 0.049653787
0.045596547 -0.04653928 0.16936123 0.09159108 0.17323941 0.03529012 0.039085038 -0.37221766
0.016770147 -0.07652124 0.049430378 -0.06368727 -0.0919446 0.027011825 -0.11644691 -0.101005636
-0.05871427 0.1618741 -0.014175268 0.06051982 0.035118602 0.006424101 -0.0007034615 -0.080159865
0.019844247 0.2025097 0.049727473 -0.05639363 -0.076883025 0.05104777 0.28096274 -0.094650246
-0.08704899 0.06345776 -0.0026880163 -0.34225127 0.11339955 -0.019639581 -0.092148446 0.12802698
-0.10833841 -0.2712888 0.05622393 0.16280963 0.03892929 0.041389335 -0.04694003 0.10615363
0.16801633 -0.06673732 -0.21006927 -0.21379961 0.050626222 -0.058219876 0.05491592 -0.08967124
-0.13497072 0.08348951 -0.13564898 -0.4736682 -0.08509725 0.10251199 -0.0019307063 -0.015700432
0.068086304 0.11319368 0.15611517 0.018861966 -0.17999308 -0.06412732 -0.1336572 -0.09244034
0.15499468 0.077422634 -0.09368641 -0.0060482277 -0.013282767 0.15292944 -0.010544166 0.1813875
-0.13860351 -0.09603599 -0.1594254 0.12900703 0.04156983 -0.080936454 -0.07139183 0.11292435
0.16508615 0.10297159 -0.08415253 0.16063054 -0.0759499 -0.22169542 -0.022533858 0.091667235
-0.012738737 0.020397428 -0.116579436 0.008612486 0.009505761 -0.15407453 -0.051129147 0.04422173
-0.035654485 0.10382927 0.12068648 -0.0020118677 -0.09558758 0.0138265 -0.16067451 -0.15570357
0.028129913 -0.2665062 0.0927489 -0.115483575 0.048899096 -0.20692003 -0.03398587 -0.045885354
-0.033427797 -0.063181 0.066233315 0.08290338 -0.03700267 -0.32657436 0.10178104 0.18331875
0.116894186 -0.05705127 0.13148195 0.023252912 0.05248759 0.06909822 -0.07088297 -0.29582068
-0.11376352 -0.23005645 0.102266476 -0.29745036 0.16468498 -0.08506183 -0.039992295 -0.04055769
-0.02932426 0.18628511 0.0263381 0.22939172 0.08379027 0.042384036 -0.06030331 0.025198275
0.038893007 -0.060712747 0.12253688 0.12197517 -0.1297033 -0.10234473 -0.053876713 -0.089454204
-0.026079368 0.2848217 -0.10831504 -0.00854039 -0.28743455 0.030817563 -0.018580489 -0.03787874
0.060903404 0.02106917 -0.29187158 -0.0069051054 -0.00866725 -0.16220495 -0.025755664 -0.10624616
0.018902954 0.16968657 -0.040610615 -0.210637 -0.040644106 -0.114898 -0.123784065 -0.04110806
-0.23535019 -0.10154767 0.066002786 0.111367755 0.018862844 -0.1155032 -0.14579554 0.046869054
0.009428916 -0.20038444 -0.13227506 0.08907414 0.082018256 0.39743906 0.18808691 -0.057224058
0.043640837 0.036122322 -0.12872863 -0.08442371 0.32689527 -0.31326497 0.026307192 -0.042308714
-0.03418209 0.038595952 -0.03641501 0.15820357 -0.109913915 -0.37077838 -0.15208806 0.106305405
00000000: 482f 253e b74a 293e 77cc 66bd 28e6 bf3e
00000010: 7cd2 433e e603 f03d 435b 853e 3ae4 b4bd
00000020: 6e1d 3bbd 3ed7 8e3e 24db 7fbe 27b9 923d
00000030: 7a77 6e3c c6aa 963d 530b 78bd ab7b e1bc
00000040: 4b3d 2cbd d39a 923c 672b fa3d 33eb 243d
00000050: 4b28 213e b9b6 da3d a41c cc3d 8512 fc3d
00000060: 6fca e43c a700 be3b 1533 a2bb 839c ffbd
00000070: 9d03 293d 65bf 6f3e 5bd2 e4bb e9e6 ff3d
00000080: 8fc1 62be 4599 77bd 9f9f 553e 4725 0dbe
00000090: 61f6 073d 7be9 ab3d 7374 47bc c561 4b3d
000000a0: 72c3 3a3d f99f 3ebd 086d 2d3e 1b94 bb3d
000000b0: ac65 313e 5f8c 103d a217 203d 5093 bebe
000000c0: 8c61 893c 2bb7 9cbd 8277 4a3d 796e 82bd
000000d0: 734d bcbd e747 dd3c b87b eebd 0bdc cebd
000000e0: 607e 70bd 53c2 253e 623f 68bc a1e3 773d
000000f0: 86d8 0f3d 4481 d23b 8168 38ba db2a a4bd
00000100: 6790 a23c b45e 4f3e 09af 4b3d 02fd 66bd
00000110: d974 9dbd 7717 513d 59da 8f3e fdd7 c1bd
00000120: be46 b2bd 24f6 813d 6e29 30bb 8f3b afbe
00000130: 063e e83d 30e3 a0bc 53b8 bcbd 8119 033e
00000140: 87e0 ddbd 5ee6 8abe 104b 663d 91b7 263e
00000150: 5274 1f3d dd87 293d 3044 40bd 1367 d93d
00000160: 790c 2c3e 93ad 88bd 661c 57be 49ee 5abe
00000170: 715d 4f3d f777 6ebd 84ef 603d 8ea5 b7bd
00000180: c435 0abe 8cfc aa3d 91e7 0abe a384 f2be
00000190: 7847 aebd cef1 d13d c10f fdba 319e 80bc
000001a0: d570 8b3d 17d2 e73d a8dc 1f3e 6984 9a3c
000001b0: 1b50 38be 2f55 83bd 6fdd 08be 5c51 bdbd
000001c0: edb6 1e3e c28f 9e3d a9de bfbd 3630 c6bb
000001d0: f69f 59bc 8999 1c3e 70c1 2cbc a5bd 393e
000001e0: 14ee 0dbe 84ae c4bd 6940 23be 6b1a 043e
000001f0: 2045 2a3d 03c2 a5bd e135 92bd e244 e73d
00000200: 580c 293e c5e2 d23d 2958 acbd 557c 243e
00000210: 9f8b 9bbd 2004 63be ed98 b8bc 08bc bb3d
00000220: 23b6 50bc 8218 a73c 33c1 eebd 621b 0d3c
00000230: 0dbe 1b3c b7c5 1dbe cc6c 51bd d821 353d
00000240: 700a 12bd 71a4 d43d 792a f73d 8ad9 03bb
00000250: 6cc3 c3bd 8b88 623c dc87 24be c270 1fbe
00000260: b470 e63c 8073 88be 23f3 bd3d a782 ecbd
00000270: 6b4a 483d d8e2 53be c534 0bbd 48f2 3bbd
00000280: 96eb 08bd 0a65 81bd 55a5 873d 3fc9 a93d
00000290: 1d90 17bd c134 a7be 9472 d03d e9b7 3b3e
000002a0: 3866 ef3d 98ae 69bd 34a3 063e e47c be3c
000002b0: 3afd 563d 5e83 8d3d 172b 91bd cf75 97be
000002c0: d9fc e8bd eb93 6bbe 1671 d13d 6a4b 98be
000002d0: 2ea3 283e e634 aebd f6ce 23bd d21f 26bd
000002e0: 6e39 f0bc 86c1 3e3e 00c3 d73c aae5 6a3e
000002f0: 3c9a ab3d e29a 2d3d 9b00 77bd 9d6c ce3c
00000300: 464e 1f3d eead 78bd 9ef4 fa3d 1ece f93d
00000310: f1d0 04be 1d9a d1bd d4ad 5cbd c433 b7bd
00000320: 66a4 d5bc 26d4 913e 47d4 ddbd feec 0bbc
00000330: 9f2a 93be 1d75 fc3c 1c36 98bc bd26 1bbd
00000340: d975 793d 4199 ac3c 3170 95be 3944 e2bb
00000350: 1501 0ebc 0e19 26be 8bfd d2bc 9697 d9bd
00000360: 5eda 9a3c 51c2 2d3e 5157 26bd 3ab1 57be
00000370: 6f7a 26bd a54f ebbd 8082 fdbd ed60 28bd
00000380: a4ff 70be 3af8 cfbd 782c 873d c714 e43d
00000390: 4086 9a3c f18c ecbd 6d4b 15be c4f9 3f3d
000003a0: bd7b 1a3c 9431 4dbe 1d73 07be 816c b63d
000003b0: 30f9 a73d 227d cb3e db99 403e c663 6abd
000003c0: bcc0 323d 00f5 133d 70d1 03be 57e6 acbd
000003d0: d15e a73e 4464 a0be 2e82 d73c e74b 2dbd
000003e0: 8502 0cbd ca16 1e3d e827 15bd 1e00 223e
000003f0: 8c1a e1bd aad6 bdbe f9bc 1bbe a6b6 d93d

cost_backbone.0.bias f4 [128]
0.09698907 -0.17244071 -0.08783976 -0.120262414 -0.12752284 0.09216007 0.14594813 0.08079952
0.05601001 0.16796458 -0.18564777 -0.026768064 0.08232794 -0.09962905 0.13093567 0.17927717
0.13745245 0.08616339 -0.1595792 0.15447706 -0.08700072 0.11380267 -0.07941028 0.16519174
0.04917768 0.17013612 0.015480237 0.11920533 -0.10336643 0.29406098 0.15266535 -0.2073915
-0.14402159 -0.09050865 -0.15104257 -0.14978139 0.11241601 0.14351115 -0.11738045 -0.10582329
-0.05176996 0.0046125664 -0.12080842 0.20857307 -0.30712417 0.10698809 -0.09587903 0.18143862
-0.10035295 0.15123895 0.118768826 -0.14614916 0.100356236 -0.16202423 0.06596698 -0.14081225
-0.10661902 -0.19895957 -0.12138917 0.08052948 -0.027841454 0.15566589 -0.1894872 0.1581157
-0.12782341 0.10921014 -0.12585998 0.004163556 0.14213093 -0.1106947 -0.1398888 -0.16793543
0.18175869 -0.145979 -0.14906949 0.1731971 0.06075475 0.15296553 0.02181638 0.1984368
0.15391453 -0.14748 0.12380938 0.18954833 0.09985278 0.068783335 0.015799966 0.08288018
-0.016678976 0.07983403 -0.09754583 0.14868447 0.10117791 -0.10041803 -0.073416896 -0.154925
0.23301049 -0.17424077 -0.15401316 -0.017479466 0.07090894 0.13313907 -0.20262635 -0.19957356
-0.037276205 -0.10446055 -0.03908918 0.116945155 0.1809353 -0.104309864 -0.0412178 -0.17412642
0.10408513 -0.12067269 0.011785538 -0.127797 -0.0998454 -0.09445577 0.12541677 -0.16641364
0.08692824 -0.010401924 0.118131116 0.17005125 0.151451 -0.110870816 0.17128335 0.19111702
00000000: 35a2 c63d 4c94 30be 55e5 b3bd 244c f6bd
00000010: 5995 02be 6bbe bc3d 6d73 153e 387a a53d
00000020: c16a 653d e8fe 2b3e 731a 3ebe b348 dbbc
00000030: 8d9b a83d 510a ccbd 0014 063e 6f94 373e
00000040: 56c0 0c3e 6e76 b03d bb68 23be 3c2f 1e3e
00000050: 6f2d b2bd 6011 e93d dba1 a2bd 0628 293e
00000060: 896e 493d 2a38 2e3e d2a0 7d3c ed21 f43d
00000070: c7b1 d3bd 298f 963e 4e54 1c3e 705e 54be
00000080: 657a 13be 995c b9bd e7aa 1abe 4b60 19be
00000090: 5d3a e63d 96f4 123e 2965 f0bd e2b9 d8bd
000000a0: bd0c 54bd 0325 973b 686a f7bd 2e94 553e
000000b0: 613f 9dbe 921c db3d 3a5c c4bd 0ccb 393e
000000c0: d985 cdbd 62de 1a3e 123d f33d 20a8 15be
000000d0: 9287 cd3d aee9 25be b219 873d 1631 10be
000000e0: 135b dabd 0fbc 4bbe e39a f8bd a4ec a43d
000000f0: c313 e4bc e166 1f3e ef08 42be 15e9 213e
00000100: 24e4 02be 91a9 df3d 70e1 00be 706e 883b
00000110: c58a 113e e7b3 e2bd 023f 0fbe 44f7 2bbe
00000120: f31e 3a3e 857b 15be aca5 18be 955a 313e
00000130: f9d9 783d ffa2 1c3e 44b8 b23c 0433 4b3e
00000140: c59b 1d3e ff04 17be c68f fd3d f518 423e
00000150: 9d7f cc3d 47de 8c3d ee6e 813c 15bd a93d
00000160: 59a2 88bc 0680 a33d 1cc6 c7bd be40 183e
00000170: 5d36 cf3d f8a7 cdbd 995b 96bd a9a4 1ebe
00000180: 4d9a 6e3e 2c6c 32be a0b5 1dbe 1931 8fbc
00000190: b538 913d 9c55 083e 487d 4fbe 035d 4cbe
000001a0: efae 18bd 6aef d5bd fa1b 20bd f180 ef3d
000001b0: 1a47 393e 69a0 d5bd ffd3 28bd 324e 32be
000001c0: 962a d53d 3e23 f7bd 2118 413c 37dd 02be
000001d0: bf7b ccbd 0772 c1bd 416d 003e 5668 2abe
000001e0: 6f07 b23d d56c 2abc baee f13d ea21 2e3e
000001f0: f915 1b3e 3d10 e3bd e764 2f3e 2eb4 433e
