outputs/sat2_c2c_L0p60_dual_3modes_3seeds_20260117_b/C2C_V0_dual_decorrelated_E1.35_L0.60_seed2/best_feasible.pt (torch, 734647 bytes, 51 tensors)

actor_backbone.0.weight f4 [128, 22]
-0.22296391 -0.23973721 0.20897087 0.29388362 -0.03082097 -0.22891131 0.023982268 0.014274103
-0.033008926 0.034140877 -0.05241574 -0.06412676 -0.00031968343 0.095142715 0.024539595 0.1673205
-0.020725228 -0.15409583 0.13628092 0.012827026 -0.10085192 -0.033508327 -0.16860178 0.30147222
-0.19364506 -0.09688683 -0.005968807 0.026595397 -0.24081188 0.19666114 -0.19654454 0.05067202
-0.09794208 0.008932035 0.1732712 -0.07916269 -0.13391404 0.10909834 -0.02405179 -0.1659529
-0.035509225 -0.028266234 0.11618009 0.05639025 0.29629093 -0.19717091 -0.08022795 0.19671756
0.10245457 0.18395905 -0.14376315 -0.026185244 0.2890488 -0.14433727 -0.061979707 -0.20797709
0.12775655 0.036284294 -0.20894386 0.09228147 -0.13808745 -0.23332529 -0.076965906 0.03819601
0.14147155 0.08853431 -0.04837878 0.16360688 0.13614057 -0.12220794 0.04932078 -0.18401243
0.1457026 0.023882832 -0.19378951 0.122615054 0.03360347 -0.18510607 -0.13027254 -0.0037008652
0.04160446 -0.048878476 0.18989931 0.07109645 0.12612882 -0.18619663 0.110675074 -0.20275064
0.024441797 0.40096065 -0.15404367 -0.20551214 -0.087428935 -0.15416756 0.049976315 -0.03673043
0.017118694 0.16049933 0.051044516 0.13839477 0.13665022 -0.20668793 0.028958347 -0.051163927
-0.0972711 0.072101295 -0.21455511 -0.20156962 -0.031369857 -0.018289387 0.059341192 -0.23708996
0.13715819 0.23477782 0.06783001 0.12869722 -0.2701268 -0.033416945 0.11431372 -0.023996819
-0.18171291 0.23458621 0.31638077 -0.25782165 -0.073741876 0.20490982 0.054120712 0.084118284
0.10235988 -0.14736295 -0.07946483 -0.16126898 0.06604167 0.1596589 0.28967518 0.016331807
-0.08353741 0.19321972 -0.13537598 0.00068591314 -0.13556656 -0.31155285 -0.16701734 -0.026375202
0.1414238 0.0311916 0.08645356 -0.015389811 -0.010080056 0.0735993 -0.097392194 0.18253234
0.19713372 0.15912393 -0.2772012 -0.034120798 0.21557918 0.049289245 0.107960284 0.1568991
-0.11055504 -0.05710704 -0.08331083 -0.039287135 -0.1727927 -0.1464539 0.09433778 0.026680503
-0.13235947 0.06727068 -0.20100363 0.1454475 -0.19381842 0.17427605 -0.13645768 0.048536155
0.04043481 0.08039601 0.17649621 -0.33398822 -0.06594481 -0.050072633 0.12496026 -0.030891145
-0.00366062 -0.2376675 -0.006676348 0.08886765 0.20678693 -0.09003738 -0.096102394 0.026016936
-0.026070632 0.08861989 -0.10139307 0.07088845 0.09169766 -0.123785675 0.10118817 -0.13912368
-0.046198413 0.19459473 0.038919836 0.09862025 -0.03880601 0.17504853 0.0066620097 -0.32175377
0.2627768 0.04966956 -0.131195 -0.074712045 -0.06274251 0.13252057 0.06389209 -0.026755288
-0.17214887 0.03360617 0.07652998 0.1350662 0.080144726 -0.02169263 0.25252607 -0.0328092
-0.16372931 0.2422728 0.09793973 0.06276175 -0.12744816 0.10042158 -0.13910814 -0.08118562
0.10226809 -0.08997116 0.036103338 0.004202127 -0.050315198 -0.12930077 0.12082949 0.0031559633
-0.11657936 -0.15534018 0.3439095 -0.12815122 -0.20517851 0.0040758075 -0.070285946 -0.12912513
-0.26353228 -0.022372171 -0.066134654 -0.047995903 0.3994792 0.06903815 0.13392836 -0.09817667
00000000: a750 64be ac7d 75be 76fc 553e ea77 963e
00000010: 427c fcbc ba67 6abe 7676 c43c eddd 693c
00000020: 5e34 07bd 4ed7 0b3d e3b1 56bd e454 83bd
00000030: 2f9b a7b9 2fda c23d 4307 c93c 1156 2b3e
00000040: f4c7 a9bc 4ccb 1dbe 3a8d 0b3e 7228 523c
00000050: 748b cebd 0740 09bd f2a5 2cbe 915a 9a3e
00000060: e44a 46be 9a6c c6bd fb95 c3bb 97de d93c
00000070: 6497 76be 8a61 493e f942 49be 778d 4f3d
00000080: db95 c8bd ac57 123c 016e 313e 0c20 a2bd
00000090: c320 09be f36e df3d 4208 c5bc 8fef 29be
000000a0: 1f72 11bd 978e e7bc d4ef ed3d 76f9 663d
000000b0: 72b3 973e 2ce7 49be 8d4e a4bd 5470 493e
000000c0: b4d3 d13d c35f 3c3e a636 13be 7082 d6bc
000000d0: 34fe 933e 26cd 13be 6fde 7dbd f2f7 54be
000000e0: 9dd2 023e d79e 143d 61f5 55be 11fe bc3d
000000f0: cc66 0dbe d3ec 6ebe 4da0 9dbd 6b73 1c3d
00000100: ebdd 103e 7a51 b53d d428 46bd 9088 273e
00000110: 6f68 0b3e 2848 fabd 9604 4a3d c16d 3cbe
00000120: 1033 153e eea5 c33c c270 46be 9a1d fb3d
00000130: cba3 093d 728c 3dbe 2a66 05be 378a 72bb
00000140: 7069 2a3d cc34 48bd f774 423e 049b 913d
00000150: ea27 013e 54aa 3ebe 9da9 e23d dd9d 4fbe
00000160: 2a3a c83c b74a cd3e a0bd 1dbe c671 52be
00000170: f10d b3bd 1ade 1dbe f7b3 4c3d a672 16bd
00000180: 813c 8c3c f059 243e 0e14 513d 5cb7 0d3e
00000190: 09ee 0b3e 00a6 53be 0e3a ed3c 4491 51bd
000001a0: 1236 c7bd d8a9 933d 56b4 5bbe 4468 4ebe
000001b0: ae7d 00bd a0d3 95bc c00f 733d b6c7 72be
000001c0: 3273 0c3e 9969 703e 76ea 8a3d 34c9 033e
000001d0: 0f4e 8abe 35e0 08bd 501d ea3d fa94 c4bc
000001e0: f312 3abe 5e37 703e a9fc a13e 3301 84be
000001f0: fb05 97bd e1d3 513e aead 5d3d 3546 ac3d
00000200: 0fa2 d13d 50e6 16be 75be a2bd b223 25be
00000210: db40 873d 9f7d 233e 4e50 943e 48ca 853c
00000220: a915 abbd 64db 453e 00a0 0abe dace 333a
00000230: f6d1 0abe db83 9fbe 9806 2bbe cf10 d8bc
00000240: 67d1 103e 8785 ff3c 900e b13d 8c25 7cbc
00000250: d226 25bc 3bbb 963d 8f75 c7bd c2e9 3a3e
00000260: 6cdd 493e 62f1 223e 51ed 8dbe 40c2 0bbd
00000270: cac0 5c3e 85e3 493d 481a dd3d 28aa 203e
00000280: ae6a e2bd 12e9 69bd de9e aabd 8ceb 20bd
00000290: 92f0 30be 03f8 15be 2a34 c13d 1291 da3c
000002a0: 3e89 07be 36c5 893d e5d3 4dbe 30f0 143e
000002b0: 5678 46be 6c75 323e 90bb 0bbe d9cd 463d
000002c0: f99e 253d aaa6 a43d 6cbb 343e 8100 abbe
000002d0: 130e 87bd f618 4dbd 2aeb ff3d 6d0f fdbc
000002e0: 03e7 6fbb 1c5f 73be 44c5 dabb 3e00 b63d
000002f0: f4bf 533e 8565 b8bd 55d1 c4bd 7821 d53c
00000300: 1492 d5bc 587e b53d 2ba7 cfbd f72d 913d
00000310: fccb bb3d 5883 fdbd be3b cf3d 7076 0ebe
00000320: 8c3a 3dbd d743 473e 686a 1f3d 6af9 c93d
00000330: 0df3 1ebd ec3f 333e fd4c da3b e9bc a4be
00000340: ae8a 863e 4f72 4b3d fb57 06be a102 99bd
00000350: 257f 80bd 79b3 073e dbd9 823d e82d dbbc
00000360: cb47 30be a0a6 093d c0bb 9c3d cb4e 0a3e
00000370: eb22 a43d beb4 b1bc 194b 813e f162 06bd
00000380: a8a8 27be 5c16 783e a094 c83d 3b89 803d
00000390: c581 02be d4a9 cd3d 5d72 0ebe a544 a6bd
000003a0: ef71 d13d cd42 b8bd 18e1 133d ffb1 893b
000003b0: 4f17 4ebd 6c67 04be 7475 f73d 47d4 4e3b
000003c0: 29c1 eebd 7f11 1fbe e814 b03e 133a 03be
000003d0: 511a 52be 5a8e 853b 14f2 8fbd 6139 04be
000003e0: b4ed 86be d845 b7bc 9b71 87bd 5a97 44bd
000003f0: 8a88 cc3e e063 8d3d 8424 093e da10 c9bd

actor_backbone.0.bias f4 [128]
0.023480793 0.014096937 -0.042063907 0.09468336 0.042513445 0.0040379474 0.004144933 0.09301959
-0.03696876 -0.044315036 0.051076334 -0.08140079 0.040183168 0.08546647 -0.028161615 -0.001170517
-0.048702933 0.019122822 0.04845559 -0.08457433 -0.03623682 0.052449178 0.005480365 -0.06479908
0.09009977 0.071550734 0.05853641 0.009099918 -0.01396872 -0.012072697 -0.034045402 0.07839425
0.0821546 -0.003853595 0.077273704 0.029169884 -0.09476209 0.030450184 0.09829754 -0.02358248
-0.013547125 0.052536543 0.029551635 0.06443223 -0.013075761 0.08920187 -0.05740986 0.06454738
-0.090010956 0.09181414 0.034229465 0.018210886 0.037633874 0.02967651 -0.052867092 -0.019752419
0.13210712 -0.022006609 0.014009054 -0.011206669 -0.039739948 -0.04670952 0.06997431 -0.013833542
-0.0075301053 0.045673802 0.01836867 -0.0774278 -0.039336916 -0.0059982506 0.027671812 -0.03943459
0.05838261 0.016517626 0.04047081 0.027861563 0.078402385 0.07646213 -0.068471566 0.0037401957
-0.047881722 -0.0042920765 0.0915439 -0.0074998415 -0.058147203 -0.066154964 -0.0013330543 0.0494228
0.0071682325 -0.04165682 0.03305262 -0.02055498 0.021944989 0.043291155 -0.015670845 0.052340966
-0.05700732 -0.006894017 0.018650126 -0.04648354 0.023866402 -0.007013763 -0.053440966 0.118257694
-0.096771106 -0.017314533 -0.114735454 -0.003280663 0.05633651 -0.04116302 -0.058311716 0.037452955
-0.0188787 0.021102518 -0.004034773 -0.03613019 0.042403467 -0.04636883 0.015873747 -0.053799883
0.0023661554 0.016115932 0.0016590517 -0.031328265 -0.052948177 -0.062834 0.021171786 0.012891021
00000000: cb5a c03c d7f6 663c 344b 2cbd 59e9 c13d
00000010: 9422 2e3d c250 843b 38d2 873b 0e81 be3d
00000020: 8e6c 17bd af83 35bd 6b35 513d 75b5 a6bd
00000030: 1b97 243d 0b09 af3d 30b3 e6bc 086c 99ba
00000040: ba7c 47bd 77a7 9c3c 5e79 463d 4e35 adbd
00000050: 0f6d 14bd f3d4 563d a294 b33b 61b5 84bd
00000060: 3a86 b83d 3189 923d e0c3 6f3d d317 153c
00000070: 0fdd 64bc 90cc 45bc 3173 0bbd 2a8d a03d
00000080: ac40 a83d 988c 7cbb ad41 9e3d aef5 ee3c
00000090: a012 c2bd aa72 f93c 3850 c93d 0c30 c1bc
000000a0: c3f4 5dbc 8f30 573d 4516 f23c 0cf5 833d
000000b0: b73b 56bc 78af b63d 9a26 6bbd 6b31 843d
000000c0: aa57 b8bd 0d09 bc3d 3234 0c3d ff2e 953c
000000d0: fa25 1a3d 271c f33c 2a8b 58bd d3cf a1bc
000000e0: 1747 073e 3447 b4bc 3b86 653c 2d9c 37bc
000000f0: 5bc6 22bd 7b52 3fbd b14e 8f3d 15a6 62bc
00000100: 1abf f6bb 7414 3b3d e579 963c 7792 9ebd
00000110: bf1f 21bd f98c c4bb ffaf e23c 2a86 21bd
00000120: 9b22 6f3d f94f 873c b8c4 253d ef3d e43c
00000130: 6e91 a03d 2d98 9c3d d23a 8cbd 121e 753b
00000140: a01f 44bd 8ca4 8cbb 5e7b bb3d 3bc1 f5bb
00000150: c32b 6ebd 417c 87bd e1b9 aeba 906f 4a3d
00000160: 7ee3 ea3b 57a0 2abd 2f62 073d eb62 a8bc
00000170: fac5 b33c 1152 313d 2560 80bc 7b63 563d
00000180: 8280 69bd 35e7 e1bb 26c8 983c 8665 3ebd
00000190: 7983 c33c b5d3 e5bb eae4 5abd 1731 f23d
000001a0: ee2f c6bd 35d7 8dbc 6cfa eabd 6400 57bb
000001b0: 1dc1 663d 8e9a 28bd 44d8 6ebd 4568 193d
000001c0: 81a7 9abc 30df ac3c 2136 84bb 40fd 13bd
000001d0: 42af 2d3d 3eed 3dbd a909 823c 445d 5cbd
000001e0: 8011 1b3b 8f05 843c 8a74 d93a 1152 00bd
000001f0: 30e0 58bd 1daf 80bd 7470 ad3c dc34 533c

actor_backbone.2.weight f4 [128, 128]
0.0323733 0.004591667 -0.041905135 0.1745567 -0.040236842 -0.11067781 0.21676663 0.115841255
0.00918751 -0.15403266 -0.09636843 -0.05683159 -0.18756144 0.16566448 -0.05387747 0.046617586
0.06533262 -0.14242998 0.21508193 -0.18971601 -0.31805998 0.33815405 -0.17855117 0.027917992
-0.019631073 0.20903721 0.25422964 -0.12628734 0.09608213 0.2533308 0.07936242 0.05220828
0.060109034 0.065410376 0.10802382 0.079486445 -0.078491636 -0.07512011 -0.021725416 0.27191967
-0.22865704 0.0126790255 0.046469245 0.22344793 0.161647 0.07601601 0.038458794 0.10747902
0.12681545 0.14444575 0.050058775 0.21087535 0.15827368 0.11861375 -0.02919284 -0.092396244
0.14246336 -0.2892884 0.1118681 0.3020853 -0.31706414 -0.00060564897 -0.034448784 0.028687995
-0.19846228 0.23150004 0.12081066 -0.111941144 -0.41089812 0.19694178 -0.036308095 -0.32508138
0.0061220326 0.16060805 -0.057249762 0.022040745 -0.23528682 0.06324683 0.24308428 0.0071308813
-0.24702743 -0.31726363 -0.10849878 0.24185753 0.10022555 0.010625292 0.23931472 -0.19583839
0.25536385 -0.0414748 -0.09446296 -0.20020589 0.0147366235 0.19886358 -0.18039489 0.10651138
-0.101014756 0.09642952 -0.07512255 -0.00016768638 -0.026744412 -0.042828508 -0.2842399 0.250036
-0.02674446 -0.12309168 -0.15952569 0.16804557 0.13135567 -0.022530958 0.021134084 0.12407627
0.2307576 0.1085367 0.060717933 -0.17363878 -0.08058636 -0.21647021 0.1416853 -0.21559916
0.3573392 0.30777788 0.1683286 -0.062996514 -0.02348926 -0.053630415 0.13926531 0.49459746
-0.19434418 0.23550576 0.20294333 0.040310245 -0.096684955 0.042019535 -0.076945975 -0.13500658
-0.024232697 0.18584253 0.20659372 0.09891451 0.11587944 -0.23632896 -0.0054490054 0.33420882
0.040247787 -0.12767223 -0.06367246 0.14302896 0.17881262 -0.43603474 0.11523583 0.048865598
-0.27021417 -0.17042963 0.07886714 0.14181553 -0.151452 -0.1634757 -0.08995831 0.1759445
0.102013126 0.33858886 -0.19775195 -0.026087904 -0.058225043 -0.03854739 0.17450464 -0.008065186
-0.032071356 -0.062321033 0.057080455 -0.09171029 0.10539187 0.02158842 0.023969175 -0.083834544
-0.118053265 -0.018956635 0.026961174 -0.2657779 -0.20952827 -0.34080416 0.12242268 -0.20626915
0.020462915 0.2760632 -0.19405079 0.066051565 0.11052283 0.19745229 -0.21166243 -0.040495034
0.059117656 -0.16946022 -0.13210773 0.13283251 -0.017805416 -0.010843016 0.12122129 0.23799254
0.07867635 0.13691925 0.009835868 -0.051690906 0.086038485 -0.119303435 0.23845321 0.050194144
0.21186416 0.30919686 -0.20089585 0.07715419 0.33705285 -0.06013835 0.0022091062 -0.312176
0.12541154 -0.17520349 -0.026465936 0.22150059 0.14012109 0.04020411 0.2850321 -0.085244656
0.15020016 -0.10744695 -0.37784952 0.25183436 0.18492666 0.0379681 -0.05473828 -0.055107325
-0.14463118 0.27273312 -0.17518044 -0.3966124 -0.5025939 0.24897408 0.08148264 0.105364576
-0.089031205 0.052848637 -0.037564814 0.10639763 -0.23553337 0.16223182 0.22546704 0.024338499
0.117424086 -0.082411 0.13899928 -0.031391073 0.12944071 -0.033037934 -0.3829654 0.007613514
00000000: de99 043d b275 963b b8a4 2bbd febe 323e
00000010: 63cf 24bd 0cab e2bd 12f8 5d3e 2e3e ed3d
00000020: 3687 163c bdba 1dbe d05c c5bd 3ec8 68bd
00000030: 1b10 40be f3a3 293e 9fae 5cbd 15f2 3e3d
00000040: 1ccd 853d 2ad9 11be 703e 5c3e ea44 42be
00000050: c2d8 a2be 8722 ad3e 1ed6 36be 46b4 e43c
00000060: 58d1 a0bc da0d 563e 632a 823e 7851 01be
00000070: b5c6 c43d 93b4 813e c488 a23d 59d8 553d
00000080: e434 763d e0f5 853d 983b dd3d cac9 a23d
00000090: 39c0 a0bd 92d8 99bd 80f9 b1bc 0e39 8b3e
000000a0: 1225 6abe b0bb 4f3c 8956 3e3d 89cf 643e
000000b0: cb86 253e 48ae 9b3d f886 1d3d f61d dc3d
000000c0: e9db 013e 96e9 133e 6e0a 4d3d b5ef 573e
000000d0: 7f12 223e c4eb f23d d325 efbc 3e3a bdbd
000000e0: eae1 113e 9c1d 94be 1a1b e53d edaa 9a3e
000000f0: 3b56 a2be 6ac4 1eba 2b1a 0dbd 1603 eb3c
00000100: b239 4bbe 590e 6d3e 946b f73d 6641 e5bd
00000110: 3d61 d2be 1bab 493e ccb7 14bd 1171 a6be
00000120: 559b c83b 7076 243e ba7e 6abd cb8e b43c
00000130: 07ef 70be 8e87 813d 16eb 783e 2baa e93b
00000140: c2f4 7cbe 6170 a2be 9c34 debd 80a9 773e
00000150: 0e43 cd3d b415 2e3c eb0e 753e dc89 48be
00000160: 0dbf 823e 7be1 29bd cc75 c1bd c602 4dbe
00000170: e171 713c e5a2 4b3e 70b9 38be a322 da3d
00000180: d3e0 cebd d77c c53d dad9 99bd f8d4 2fb9
00000190: 1917 dbbc f26c 2fbd e487 91be b804 803e
000001a0: 3317 dbbc 7e17 fcbd b45a 23be 2314 2c3e
000001b0: 1a82 063e d892 b8bc 6321 ad3c b31b fe3d
000001c0: b84b 6c3e 7d48 de3d 5eb3 783d 5dce 31be
000001d0: 760a a5bd 5eaa 5dbe f415 113e 07c6 5cbe
000001e0: 2af5 b63e 1095 9d3e 555e 2c3e 5104 81bd
000001f0: 8c6c c0bc 91ab 5bbd 919b 0e3e e13b fd3e
00000200: 2902 47be 6c28 713e 60d0 4f3e 5b1c 253d
00000210: c302 c6bd ad1c 2c3d da95 9dbd 2a3f 0abe
00000220: a683 c6bc 814d 3e3e 4e8d 533e b193 ca3d
00000230: 3352 ed3d 3800 72be 928d b2bb 6b1d ab3e
00000240: ddda 243d 82bc 02be b566 82bd 2f76 123e
00000250: a81a 373e f23f dfbe c300 ec3d 4b27 483d
00000260: 8359 8abe 1b85 2ebe 1885 a13d 1738 113e
00000270: 3c16 1bbe 2d66 27be 103c b8bd cc2a 343e
00000280: 42ec d03d 855b ad3e 7d7f 4abe 4db6 d5bc
00000290: 627d 6ebd dee3 1dbd 58b1 323e d823 04bc
000002a0: 415d 03bd 5744 7fbd 32cd 693d 9bd2 bbbd
000002b0: b1d7 d73d 33da b03c 015b c43c 72b1 abbd
000002c0: e9c5 f1bd f24a 9bbc aedd dc3c 0a14 88be
000002d0: 948e 56be e27d aebe beb8 fa3d 3838 53be
000002e0: d8a1 a73c 2858 8d3e 40b5 46be 0b46 873d
000002f0: cb59 e23d ef30 4a3e 09be 58be 1fde 25bd
00000300: 5b25 723d fb86 2dbe 4047 07be 3f05 083e
00000310: aadc 91bc e8a6 31bc de42 f83d 51b4 733e
00000320: 1121 a13d 8f34 0c3e 9f26 213c d8b9 53bd
00000330: f234 b03d 5c55 f4bd 142d 743e 6098 4d3d
00000340: ebf2 583e 0d4f 9e3e a4b7 4dbe 0403 9e3d
00000350: 3192 ac3e a153 76bd a7c6 103b 88d5 9fbe
00000360: e26b 003e 8b68 33be 17cf d8bc 0dd1 623e
00000370: e77b 0f3e 11ad 243d baef 913e c094 aebd
00000380: 12ce 193e 260d dcbd 7e75 c1be 6ff0 803e
00000390: 6a5d 3d3e 7084 1b3d 3f35 60bd 38b8 61bd
000003a0: 321a 14be ada3 8b3e 8062 33be c810 cbbe
000003b0: fea9 00bf 10f3 7e3e 5fe0 a63d 62c9 d73d
000003c0: fe55 b6bd d077 583d 90dd 19bd 00e7 d93d
000003d0: a92f 71be 1920 263e d5e0 663e 8861 c73c
000003e0: 0a7c f03d 19c7 a8bd d455 0e3e ed93 00bd
000003f0: 1b8c 043e c952 07bd 0a14 c4be c97a f93b

actor_backbone.2.bias f4 [128]
0.043435432 0.013346096 0.0047877706 0.07501134 0.009050168 -0.0010978378 -0.095181145 -0.019776346
-0.04699846 0.00958957 0.11917442 0.112564795 -0.062564366 0.008542844 0.05520115 0.022085728
-0.091243654 -0.07134929 -0.09789308 0.06268289 -0.032683842 -0.06511563 -0.040167186 0.025261668
-0.07217158 -0.076551124 -0.049357213 -0.0121567445 -0.06695937 0.11834779 0.07898042 -0.084861256
-0.096975535 -0.09023083 0.018604854 -0.093453266 -0.004301292 0.031709958 0.05205667 -0.05365657
-0.050287694 0.036742143 0.008669971 0.04912317 0.09373003 -0.0038973892 0.02615378 0.04681545
-0.0947951 -0.014210637 -0.029617945 0.07788699 0.015613243 -0.048720617 0.029075915 -0.06419226
0.005409841 -0.016358588 0.015215288 0.1859173 -0.09112904 -0.14154658 -0.0037749847 0.058919076
0.023947455 0.11184139 0.10290912 0.08526361 0.03573277 -0.059399623 0.040732864 0.113748
0.028709643 -0.099406175 -0.11492428 0.01097679 -0.041438144 0.05355496 -0.10645683 -0.10357502
-0.015818473 0.053437807 -0.024464985 0.03489668 -0.02943864 0.11066027 0.055097815 0.05569391
-0.11098153 0.012154208 0.12025982 -0.108050875 -0.07198189 -0.18180357 0.18131076 0.07365403
0.076388165 -0.028379777 0.03314566 0.08948838 0.039246816 0.057818573 0.051906634 0.047510054
0.017615417 0.03691503 -0.012343015 -0.06829262 0.033040103 -0.03174793 -0.041977942 -0.093045704
0.052404575 -0.010199601 0.08130138 0.04185896 -0.13544287 -0.086871676 -0.017646508 -0.064717695
-0.13966295 0.0058921995 -0.07241807 -0.0035461965 0.07452953 0.17483903 -0.07825247 0.08504377
00000000: 5ae9 313d 95a9 5a3c bbe2 9c3b 8c9f 993d
00000010: 2847 143c 53e5 8fba 55ee c2bd 0102 a2bc
00000020: 7581 40bd 921d 1d3c b811 f43d 5f88 e63d
00000030: bf21 80bd 49f7 0b3c 9a1a 623d 21ed b43c
00000040: f4dd babd 941f 92bd 2b7c c8bd e35f 803d
00000050: 7edf 05bd 585b 85bd 5986 24bd 8ff1 ce3c
00000060: b1ce 93bd d6c6 9cbd ca2a 4abd 152d 47bc
00000070: ff21 89bd 5360 f23d 7dc0 a13d bdcb adbd
00000080: 1c9b c6bd f1ca b8bd 3569 983c 6d64 bfbd
00000090: daf1 8cbb 4de2 013d 6039 553d fec6 5bbd
000000a0: 78fa 4dbd ee7e 163d 7e0c 0e3c 6135 493d
000000b0: 88f5 bf3d 576b 7fbb 7440 d63c 8fc1 3f3d
000000c0: ef23 c2bd bbd3 68bc 55a1 f2bc 3783 9f3d
000000d0: b0ce 7f3c 458f 47bd 9d30 ee3c 3b77 83bd
000000e0: 0945 b13b 7202 86bc 8b49 793c 1b61 3e3e
000000f0: dda1 babd 96f1 10be bc65 77bb 2155 713d
00000100: 742d c43c 190d e53d 04c2 d23d b09e ae3d
00000110: 865c 123d 054d 73bd 81d7 263d b6f4 e83d
00000120: 7c30 eb3c 7795 cbbd 6c5d ebbd ffd7 333c
00000130: 0bbb 29bd 725c 5b3d 0a06 dabd 241f d4bd
00000140: be95 81bc 9ae1 5a3d cb6a c8bc d2ef 0e3d
00000150: 4e29 f1bc daa1 e23d 3fae 613d 4c1f 643d
00000160: 494a e3bd 7122 473c c84a f63d c749 ddbd
00000170: 3e6b 93bd b72a 3abe 87a9 393e edd7 963d
00000180: 6671 9c3d b57c e8bc bec3 073d af45 b73d
00000190: 45c1 203d 2bd3 6c3d 0d9c 543d e799 423d
000001a0: 354e 903c 3734 173d 5b3a 4abc 00dd 8bbd
000001b0: 0f55 073d 1e0a 02bd 10f1 2bbd bf8e bebd
000001c0: 2ea6 563d 3a1c 27bc 5781 a63d 4d74 2b3d
000001d0: 89b1 0abe c7e9 b1bd 698f 90bc b68a 84bd
000001e0: ce03 0fbe 5a13 c13b ed4f 94bd 4e67 68bb
000001f0: f0a2 983d 0109 333e d542 a0bd 6e2b ae3d

reward_backbone.0.weight f4 [128, 22]
0.16602622 0.16964671 -0.05519148 -0.034720033 0.058871154 0.11432368 -0.07518568 -0.07171521
0.070596546 -0.15413474 0.061565716 -0.031089 0.16642565 0.14273772 -0.13431641 0.08660545
0.08007774 0.08925967 -0.15845422 0.0278571 0.24313958 0.12811604 -0.035565358 -0.14309566
0.2800359 0.17366043 -0.08321391 -0.042205095 -0.18948206 0.07979183 0.18078528 0.14304529
0.062659696 0.019954031 -0.07604292 -0.27283671 0.031900622 0.19106714 -0.0308901 -0.15068403
-0.07377418 0.09127148 0.03861501 -0.14039086 -0.16550386 -0.1271211 -0.19955035 -0.09683434
0.10414076 0.20219958 0.14138673 -0.32272753 -0.122169964 -0.11044233 0.1204288 0.09160852
0.08075028 -0.035406284 0.15008333 0.16104743 -0.15837744 -0.178399 -0.07948941 0.10266516
0.10993875 -0.106306486 -0.1343039 -0.09403747 -0.3578572 -0.1731503 -0.25300956 0.1742622
0.069636725 -0.33572164 -0.08693213 0.016992694 0.08808502 -1.1173326e-05 -0.04153929 0.043044157
-0.045528743 -0.07623218 0.037690908 0.15991482 0.10807825 0.07540971 0.00081435964 0.2622141
0.16693282 -0.16485785 0.07053925 0.22607724 -0.0029083318 -0.03366508 0.17027576 -0.23955762
0.23973487 -0.0010436968 0.10526856 0.05507964 -0.061330643 0.17215255 -0.023351243 -0.020686371
0.06534956 -0.031301424 -0.10388979 -0.17778312 0.09633645 -0.14026748 -0.008392845 -0.1503415
0.1660165 -0.09453819 -0.15049985 0.1650462 0.3138475 0.17534971 -0.04254419 0.036675904
0.051410154 -0.08716815 -0.08374491 0.046887536 -0.07336005 -0.16513066 -0.104976274 -0.013839144
0.029894454 -0.05583752 0.13144264 -0.14628527 -0.25277525 -0.089759886 0.35134664 0.31390822
-0.04021507 -0.03544284 -0.012991934 0.016243003 -0.038028855 -0.041227963 0.08197084 0.03433748
0.026625149 -0.0076933964 0.17377394 -0.25146607 -0.02378727 0.018991198 -0.044943523 0.0062132413
0.013733261 -0.108283654 -0.31846333 -0.050724946 0.28207457 0.30589452 -0.0628971 -0.3090126
-0.021409996 0.019679027 0.052077476 0.06518343 -0.12350729 -0.026046142 -0.13014531 -0.020686485
-0.15799531 0.08247975 0.09169696 0.024320187 0.27884457 -0.104822055 -0.10906262 0.027643828
0.25505427 -0.034500744 -0.28692266 -0.26439944 0.07989593 0.034966584 0.017952295 -0.04552223
0.09844132 0.030413087 0.03961765 0.18544422 0.046553843 0.049025454 -0.25407162 0.10053394
0.017168326 -0.11767117 -0.00081140676 0.006657608 0.0065936055 -0.010437733 0.17082272 -0.031154256
-0.18329103 -0.3034321 -0.112198755 -0.071585305 -0.201011 0.01113229 -0.091904506 0.19939446
0.23612668 0.19979732 0.012044624 0.24552722 -0.013409592 0.04658876 0.05220092 0.0018917804
-0.014371944 -0.072901145 -0.040325925 -0.16628106 -0.1673602 -0.16838954 0.1950741 -0.044264566
0.001369842 0.019655908 -0.1309498 -0.1790101 -0.05876622 -0.054128855 -0.049821135 -0.03961039
-0.022592913 -0.22289683 -0.19743112 0.061865043 0.10400319 0.03563179 0.09283692 0.00014691715
-0.17981851 0.06612928 -0.19619636 -0.080561005 0.10065519 0.09188778 -0.051434405 -0.14133702
-0.08452483 0.10401189 0.15802446 0.1904234 -0.100679934 -0.14906402 -0.013292897 0.08408377
00000000: c702 2a3e deb7 2d3e 7610 62bd 9836 0ebd
00000010: e122 713d 8922 ea3d f3fa 99bd 6ddf 92bd
00000020: ec94 903d 7fd5 1dbe 552c 7c3d 5cae febc
00000030: 7c6b 2a3e d629 123e 3e8a 09be 335e b13d
00000040: ccff a33d c6cd b63d d341 22be 9334 e43c
00000050: 95f9 783e da30 033e fbac 11bd ab87 12be
00000060: de60 8f3e 0ad4 313e 0e6c aabd 40df 2cbd
00000070: 9607 42be e669 a33d c71f 393e 777a 123e
00000080: ba53 803d a376 a33c 64bc 9bbd 41b1 8bbe
00000090: 3aaa 023d 1ba7 433e 3c0d fdbc ea4c 1abe
000000a0: eb16 97bd 8bec ba3d c62a 1e3d 9fc2 0fbe
000000b0: d879 29be 092c 02be ed56 4cbe 1551 c6bd
000000c0: c047 d53d 680d 4f3e afc7 103e 8b3c a5be
000000d0: 3f34 fabd 972f e2bd 60a3 f63d 3f9d bb3d
000000e0: 6760 a53d 2e06 11bd 72af 193e 9ee9 243e
000000f0: b22d 22be 3aae 36be 58cb a2bd 1d42 d23d
00000100: 9127 e13d 37b7 d9bd f686 09be b896 c0bd
00000110: 0f39 b7be 504e 31be 788a 81be ca71 323e
00000120: b39d 8e3d b5e3 abbe 7909 b2bd 4334 8b3c
00000130: eb65 b43d 1275 3bb7 1a25 2abd 124f 303d
00000140: 597c 3abd 9e1f 9cbd c861 1a3d b6c0 233e
00000150: 2158 dd3d 6870 9a3d c07a 553a ed40 863e
00000160: 70f0 2a3e 7fd0 28be e276 903d cb80 673e
00000170: b699 3ebb 65e4 09bd c55c 2e3e 984e 75be
00000180: 0f7d 753e a7cc 88ba 0b97 d73d 309b 613d
00000190: d735 7bbd c248 303e 1b4b bfbc 7776 a9bc
000001a0: fdd5 853d ec35 00bd 2cc4 d4bd c70c 36be
000001b0: 0b4c c53d 47a2 0fbe 2582 09bc 1ff3 19be
000001c0: 3b00 2a3e 3d9d c1bd a21c 1abe df01 293e
000001d0: 9fb0 a03e e08e 333e d142 2ebd 7939 163d
000001e0: 7493 523d 3785 b2bd 7482 abbd 250d 403d
000001f0: cb3d 96bd 0318 29be cdfd d6bd 94bd 62bc
00000200: 37e5 f43c e2b5 64bd e698 063e cecb 15be
00000210: c26b 81be 08d4 b7bd b5e3 b33e 94b8 a03e
00000220: 8fb8 24bd 832c 11bd 1fdc 54bc 0c10 853c
00000230: 25c4 1bbd a7de 28bd 54e0 a73d 75a5 0c3d
00000240: fc1c da3c e318 fcbb ccf1 313e 29c0 80be
00000250: 85dd c2bc 6e93 9b3c b316 38bd 7298 cb3b
00000260: 7901 613c d2c3 ddbd a00d a3be f6c4 4fbd
00000270: 146c 903e 359e 9c3e 32d0 80bd e636 9ebe
00000280: 0464 afbc e935 a13c 314f 553d e47e 853d
00000290: 64f1 fcbd b85e d5bc d044 05be b476 a9bc
000002a0: 86c9 21be 25eb a83d 9ecb bb3d 213b c73c
000002b0: b7c4 8e3e f2ac d6bd 395c dfbd 4f75 e23c
000002c0: 7996 823e a750 0dbd 87e7 92be 5d5f 87be
000002d0: 7aa0 a33d 1f39 0f3d b110 933c 8575 3abd
000002e0: 9a9b c93d de24 f93c 1e46 223d 17e5 3d3e
000002f0: 3eaf 3e3d eace 483d ad15 82be bde4 cd3d
00000300: 97a4 8c3c 95fd f0bd 96b4 54ba 1028 da3b
00000310: 2c0f d83b 0603 2bbc 27ec 2e3e 3637 ffbc
00000320: a5b0 3bbe 745b 9bbe 76c8 e5bd 519b 92bd
00000330: d4d5 4dbe 3564 363c 6e38 bcbd 102e 4c3e
00000340: 31cb 713e ab97 4c3e d156 453c 7d6b 7b3e
00000350: e8b3 5bbc dbd3 3e3d a2d0 553d 9ef5 f73a
00000360: 4d78 6bbc 324d 95bd cc2c 25bd 9545 2abe
00000370: 7960 2bbe 4f6e 2cbe 81c1 473e c34e 35bd
00000380: 458c b33a 6d05 a13c b417 06be 6c4e 37be
00000390: d9b4 70bd 38b6 5dbd 3f11 4cbd 813e 22bd
000003a0: c614 b9bc 113f 64be 622b 4abe 3366 7d3d
000003b0: a0ff d43d a4f2 113d 4821 be3d c60d 1a39
000003c0: 5822 38be ca6e 873d b3e7 48be 2bfd a4bd
000003d0: 4f24 ce3d a92f bc3d e2ac 52bd a7ba 10be
000003e0: 5b1b adbd 3004 d53d 2ad1 213e 5afe 423e
000003f0: 4831 cebd 3da4 18be 73ca 59bc 1d34 ac3d

reward_backbone.0.bias f4 [128]
0.03785658 -0.043906137 -0.05192665 -0.00608142 -0.16440985 0.01867588 -0.052022748 -0.085432515
0.17232212 0.16589053 0.02769958 -0.021208148 -0.001970087 0.07343044 0.10047036 -0.017150274
0.0027726027 0.10852547 0.1128848 0.0688922 -0.077041395 -0.016890686 -0.006269169 -0.018582907
-0.022772634 -0.08182772 0.018485826 0.024605857 0.11592666 0.006302222 0.050029196 0.043699056
0.21579558 0.08616964 0.030623723 0.08442452 0.2081795 -0.06812245 -0.12443458 -0.14445744
0.057878472 0.020911468 0.16910477 0.1756561 -0.019485876 -0.10844805 0.026492517 0.21618295
-0.0002179006 0.17468782 -0.11471965 -0.026011718 -0.009964998 -0.034452878 0.102899164 0.03766699
0.02800024 -0.041129038 0.01271188 0.07150141 0.03956792 0.079541236 0.01759801 -0.051155798
-0.008452595 0.061180696 0.03656939 0.113852836 0.115094304 0.13972123 -0.011295963 -0.030939663
0.031206427 -0.023747629 0.011665879 -0.055868287 -0.058152076 -0.021580154 -0.17020285 -0.12863648
-0.082881846 -0.005287959 0.016375901 -0.19485478 -0.059415713 0.00085426186 -0.05094865 0.1265578
-0.0015407992 -0.14470486 -0.034094203 0.1696915 0.14092554 -0.016158866 -0.0932373 -0.0016370148
0.012674458 0.15222146 -0.44254896 -0.153066 0.042141225 -0.05195724 0.15765858 -0.20523551
0.15330131 -0.04333401 0.061709803 -0.0031618066 0.04195496 -0.17897391 0.031460408 0.060867913
-0.13771467 0.0017198843 -0.1720132 0.15708283 -0.053071544 -0.08567803 0.03469427 0.37438944
0.035598986 0.015569956 0.19751488 0.15108426 -0.024506764 0.04168924 -0.048497 0.13996767
00000000: 800f 1b3d ecd6 33bd 0ab1 54bd a646 c7bb
00000010: 0e5b 28be 29fe 983c ce15 55bd 3ef7 aebd
00000020: 3675 303e 35df 293e 3bea e23c b6bc adbc
00000030: 931c 01bb b362 963d 67c3 cd3d bb7e 8cbc
00000040: 8eb4 353b 9a42 de3d 2530 e73d 5b17 8d3d
00000050: e1c7 9dbd 565e 8abc 9a6d cdbb 2e3b 98bc
00000060: ad8d babc 4b95 a7bd 966f 973c 3992 c93c
00000070: f56a ed3d df82 ce3b 6aeb 4c3d c8fd 323d
00000080: 84f9 5c3e b579 b03d 9ade fa3c c3e6 ac3d
00000090: 022d 553e c883 8bbd 8fd7 febd a7ec 13be
000000a0: fa11 6d3d 874e ab3c cd29 2d3e 31df 333e
000000b0: d8a0 9fbc 031a debd d606 d93c 105f 5d3e
000000c0: 3f7c 64b9 5de1 323e 23f2 eabd 8716 d5bc
000000d0: 3b44 23bc 761e 0dbd ccbc d23d b448 1a3d
000000e0: c260 e53c ec76 28bd 7d45 503c 556f 923d
000000f0: f911 223d 84e6 a23d b429 903c be88 51bd
00000100: c17c 0abc 9c98 7a3d c9c9 153d ad2b e93d
00000110: 90b6 eb3d 1513 0f3e b412 39bc 2d75 fdbc
00000120: 9fa4 ff3c 638a c2bc 3e22 3f3c 25d6 64bd
00000130: df30 6ebd ddc8 b0bc a849 2ebe 48b9 03be
00000140: f5bd a9bd 9d46 adbb c126 863c 0388 47be
00000150: e45d 73bd 8bf0 5f3a 88af 50bd 5e98 013e
00000160: a4f4 c9ba 832d 14be 5da6 0bbd 9cc3 2d3e
00000170: c94e 103e 995f 84bc 33f3 bebd 1a91 d6ba
00000180: 88a8 4f3c f1df 1b3e c795 e2be 55bd 1cbe
00000190: 479c 2c3d 1dd1 54bd 4071 213e 4229 52be
000001a0: 05fb 1c3e 017f 31bd 6bc3 7c3d 5036 4fbb
000001b0: f7d8 2b3d f044 37be a1dc 003d a250 793d
000001c0: 1305 0dbe be6d e13a 3a24 30be 52da 203e
000001d0: 8c61 59bd f777 afbd 941b 0e3d f9af bf3e
000001e0: 3ed0 113d 2119 7f3c 5741 4a3e d5b5 1a3e
000001f0: 69c2 c8bc 56c2 2a3d caa4 46bd af53 0f3e

reward_backbone.2.weight f4 [128, 128]
0.009745837 0.03760039 -0.08090521 0.0977712 -0.117679425 -0.18891147 -0.06116121 0.028618403
-0.0041867634 0.040300485 0.20515814 0.08781065 0.018257588 0.17137551 0.07300715 -0.021008547
-0.20373654 0.2778422 0.19372022 0.17695607 0.14131327 0.0037529417 -0.1985555 0.26992074
-0.10841469 0.08105339 0.24264735 -0.15590638 -0.050833702 -0.11590385 -0.07784582 -0.059796933
-0.073231116 -0.1451299 -0.14128096 0.016998667 -0.049046975 -0.085245185 -0.04108607 -0.004071926
0.029006915 0.067045756 -0.02449786 0.22480178 -0.09132371 0.078050666 0.11819182 0.043701116
0.114711136 0.0214808 0.01737448 0.14720723 0.06082939 0.08486614 -0.012171804 0.10525699
-0.023105577 0.06622922 -0.026909646 0.13778871 -0.025403216 0.006798581 0.11296155 -0.03927858
0.06446112 0.23569499 -0.061814614 -0.048210952 -0.16222294 -0.31937593 0.12896907 -0.26951563
-0.112657875 0.11350293 -0.29874066 0.25265968 0.04905013 0.17259379 -0.021029074 0.19362684
0.109484605 0.010322762 -0.16781127 -0.18492149 0.14287655 -0.34264636 -0.10071115 -0.28217268
0.08542959 -0.085115634 -0.062748566 0.15237263 0.35265 0.13629611 -0.15217295 -0.05831866
0.25792518 0.18842578 -0.00908959 0.058775414 -0.07328222 -0.022889523 -0.26007935 -0.10850687
-0.12008257 -0.018547406 0.029022558 0.20850602 0.013753897 0.16106257 0.22702903 -0.001366488
-0.31680584 0.059481595 0.13864085 0.105193086 -0.025425106 -0.12110136 0.022797382 0.06241611
-0.018060675 -0.08941939 0.20059988 0.025593018 0.150976 -0.026892122 0.10851941 0.043156594
0.10126394 -0.044017404 -0.05715029 0.05954273 0.026673514 -0.098839745 -0.08868916 0.3335886
-0.028722653 -0.2235849 0.12304627 0.021673407 0.16070934 0.16871436 0.05098275 -0.3652738
0.20760685 -0.030848112 -0.050655797 0.11883618 0.12700951 -0.02548732 0.17377923 -0.16375986
-0.01263963 -0.118859895 0.038337946 0.04785552 0.13243558 -0.1533383 -0.009441464 0.19686203
0.0066699716 -0.108301654 0.023250272 -0.026123991 -0.08111221 -0.024589736 -0.08575 -0.32112038
0.07581908 0.030687131 -0.046223883 0.036578335 0.12744197 -0.057553027 0.09601028 -0.012177857
0.3111244 -0.08387546 -0.043253865 0.017063173 -0.14755325 0.019028753 0.09250934 0.08674924
-0.048968926 -0.010031959 -0.06782239 -0.06923629 -0.009026353 0.045656595 0.111648 -0.18264143
-0.049384475 -0.145145 0.040445037 0.00071684574 0.034549437 0.04189034 0.018256895 0.17069925
-0.010169009 0.09621212 -0.013901028 -0.38552105 0.15562208 0.14992382 -0.106633075 -0.3266857
-0.010660483 -0.09176837 0.28441384 0.08202342 -0.13407016 -0.0021832273 0.07325931 0.14398107
0.029506983 -0.12007478 0.29908288 -0.034328166 -0.076916456 0.07043976 -0.06873109 0.07062919
0.07321353 -0.22593462 -0.04243852 0.21294908 0.13953175 0.052023914 -0.15734638 0.28359193
0.16102374 0.16165113 -0.2571147 0.16332622 -0.12306291 0.10906022 -0.0062892577 -0.3064696
-0.11064907 0.095755056 0.16237833 -0.064803064 -0.06829423 0.16536158 -0.12585545 -0.12119291
-0.072805904 -0.060936034 -0.01778339 -0.14941312 0.040124264 -0.18631868 0.091446154 -0.044781398
00000000: 01ad 1f3c de02 1a3d a1b1 a5bd 443c c83d
00000010: e901 f1bd 0272 41be 2d84 7abd 2471 ea3c
00000020: 1e31 89bb 1f12 253d fa14 523e 12d6 b33d
00000030: f090 953c 107d 2f3e c684 953d 1e1a acbc
00000040: 50a0 50be 5541 8e3e 985e 463e f933 353e
00000050: 6db4 103e eaf3 753b 2252 4bbe 0d33 8a3e
00000060: 8508 debd 52ff a53d 8c78 783e eca5 1fbe
00000070: 0037 50bd ff5e edbd a16d 9fbd a1ed 74bd
00000080: 32fa 95bd ef9c 14be f5ab 10be ca40 8b3c
00000090: 7be5 48bd 0795 aebd de49 28bd cb6d 85bb
000000a0: e99f ed3c 494f 893d bcaf c8bc 7032 663e
000000b0: ed07 bbbd 07d9 9f3d 8e0e f23d f1ff 323d
000000c0: aced ea3d 81f8 af3c ed54 8e3c 7ebd 163e
000000d0: 3d28 793d 4cce ad3d 3f6c 47bc fa90 d73d
000000e0: e847 bdbc 2fa3 873d 9e71 dcbc 7c18 0d3e
000000f0: 681a d0bc a2c6 de3b 6358 e73d 94e2 20bd
00000100: 3104 843d 075a 713e 5231 7dbd d978 45bd
00000110: c51d 26be 3e85 a3be 7810 043e f4fd 89be
00000120: 2cb9 e6bd 3974 e83d 89f4 98be 9c5c 813e
00000130: cae8 483d 6dbc 303e 2a45 acbc 1d46 463e
00000140: 7739 e03d cd20 293c b8d6 2bbe 0f5c 3dbe
00000150: 3b4e 123e 586f afbe a641 cebd f078 90be
00000160: b5f5 ae3d 1b51 aebd 5282 80bd 9207 1c3e
00000170: 8a8e b43e 3591 0b3e 3ad3 1bbe 8cdf 6ebd
00000180: c50e 843e b0f2 403e 81ec 14bc 7dbe 703d
00000190: fd14 96bd cf82 bbbc 1f29 85be da38 debd
000001a0: daed f5bd bbf0 97bc b7c0 ed3c 9a82 553e
000001b0: 0658 613c 96ed 243e 4c7a 683e bb1b b3ba
000001c0: 6034 a2be f9a2 733d def7 0d3e 796f d73d
000001d0: 5048 d0bc fd03 f8bd 93c1 ba3c 09a8 7f3d
000001e0: fbf3 93bc 8321 b7bd 0e6a 4d3e 73a8 d13c
000001f0: 7499 1a3e de4c dcbc 6d3f de3d f8c4 303d
00000200: 7863 cf3d 984b 34bd 6c16 6abd 14e3 733d
00000210: 6a82 da3c 7e6c cabd aaa2 b5bd 20cc aa3e
00000220: c54b ebbc 71f3 64be afff fb3d 6e8c b13c
00000230: fd90 243e 75c3 2c3e 4ad3 503d 2b05 bbbe
00000240: e496 543e 2eb5 fcbc 747c 4fbd 6260 f33d
00000250: c80e 023e c9ca d0bc 2ff3 313e aab0 27be
00000260: 7316 4fbc d16c f3bd 4008 1d3d 2604 443d
00000270: 319d 073e b704 1dbe 5fb0 1abc 3396 493e
00000280: c78f da3b 42cd ddbd 5b77 be3c fb01 d6bc
00000290: 291e a6bd 6a70 c9bc b29d afbd e469 a4be
000002a0: 0947 9b3d 9463 fb3c 4155 3dbd 2ad3 153d
000002b0: 2680 023e b9bc 6bbd 0aa1 c43d a285 47bc
000002c0: b34b 9f3e e6c6 abbd f72a 31bd 11c8 8b3c
000002d0: 3318 17be 30e2 9b3c 8975 bd3d 96a9 b13d
000002e0: a493 48bd 165d 24bc 77e6 8abd c2cb 8dbd
000002f0: 45e3 13bc 6902 3b3d b5a7 e43d 5b06 3bbe
00000300: 6047 4abd e4a0 14be b2a9 253d b4ea 3b3a
00000310: b683 0d3d 3595 2b3d 7c8f 953c c9cb 2e3e
00000320: ea9b 26bc dc0a c53d 23c1 63bc 0463 c5be
00000330: 655b 1f3e a185 193e 7162 dabd 5943 a7be
00000340: 4ea9 2ebc 0ef1 bbbd b19e 913e e5fb a73d
00000350: b049 09be 7a14 0fbb fa08 963d c66f 133e
00000360: a1b8 f13c c4e9 f5bd 6421 993e b19b 0cbd
00000370: 6086 9dbd b942 903d e3c2 8cbd 09a6 903d
00000380: faf0 953d 685b 67be 03d4 2dbd 530f 5a3e
00000390: 69e1 0e3e 0717 553d 691f 21be f632 913e
000003a0: 68e3 243e e087 253e 8aa4 83be fd3e 273e
000003b0: 6808 fcbd f75a df3d 1e16 cebb 95e9 9cbe
000003c0: fb9b e2bd 3a1b c43d 8146 263e 78b7 84bd
000003d0: d8dd 8bbd 8c54 293e 40e0 00be fd33 f8bd
000003e0: 431b 95bd 1098 79bd 79ae 91bc c1ff 18be
000003f0: 5759 243d 53ca 3ebe 1f48 bb3d b36c 37bd

reward_backbone.2.bias f4 [128]
-0.039489966 0.01723525 -0.051335715 0.10464819 -0.010631424 -0.025093446 0.058195427 -0.00984244
-0.0057761003 -0.12056269 -0.091466725 0.040897395 -0.06954213 -0.059161928 0.031024072 -0.08898897
-0.03836566 0.06543541 0.09000661 0.033376053 -0.06967044 -0.0389152 0.08412169 -0.10630526
0.084021345 -0.10052193 -0.042098343 -0.10528856 0.0018352944 0.021968784 -0.0058993977 -0.10192019
-0.0061431974 -0.058342956 -0.07700749 0.041258328 -0.011171985 0.051635407 -0.0034896312 0.030877303
0.075803466 0.026473096 0.029823394 -0.024581153 0.02114995 0.039109845 -0.026396351 -0.025806248
-0.053834066 -0.038365163 0.08278589 -0.0811611 -0.110878386 -0.076483935 0.0010257586 0.075528145
-0.044916674 0.006667934 -0.017221326 -0.025559602 -0.009574667 -0.02148292 -0.021979623 -0.06989501
0.010093543 -0.045051 0.03657068 0.08820718 0.050088365 0.09311315 -0.04826908 -0.011179467
0.00862222 9.7760305e-05 0.044980716 -0.033286676 -0.0059307404 -0.0073370417 -0.059259452 -0.100700326
-0.001417526 -0.029121166 -0.009404597 -0.006049109 0.04573737 -0.073152326 -0.017446658 -0.03535802
-0.115647 -0.02139371 -0.03458446 -0.021000994 0.03671107 0.04167681 -0.05697456 -0.121893466
-0.011325357 -0.098954 0.0001941247 0.10280321 0.020068359 0.01688981 0.055787742 0.08314595
0.0052636694 0.069239356 0.14439946 -0.021481391 -0.043525163 0.05117253 -0.00780777 -0.040294662
0.0014460541 0.007975704 -0.03666034 0.10137021 0.006434728 -0.044076752 -0.095616676 -0.018301807
0.122816205 -0.034833737 0.005579166 0.0051937466 -0.018426556 -0.049130287 0.012461774 0.098716035
00000000: 3bc0 21bd f030 8d3c 6645 52bd ca51 d63d
00000010: 6d2f 2ebc c590 cdbc 545e 6e3d 2f42 21bc
00000020: 7145 bdbb 92e9 f6bd e852 bbbd 0784 273d
00000030: 1b6c 8ebd c753 72bd 3226 fe3c d93f b6bd
00000040: 4f25 1dbd 0003 863d 6355 b83d 54b5 083d
00000050: 60af 8ebd 8b65 1fbd fe47 ac3d 92b6 d9bd
00000060: 6213 ac3d 71de cdbd 506f 2cbd 87a1 d7bd
00000070: 438e f03a e1f7 b33c bc4f c1bb 88bb d0bd
00000080: e04c c9bb 06f9 6ebd 1ab6 9dbd 7efe 283d
00000090: b40a 37bc a67f 533d 4cb2 64bb 66f2 fc3c
000000a0: d93e 9b3d 1bde d83c 3150 f43c 6a5e c9bc
000000b0: a942 ad3c a531 203d 293d d8bc a067 d3bc
000000c0: 1c81 5cbd ca24 1dbd a68b a93d ca37 a6bd
000000d0: 3514 e3bd 9ca3 9cbd bf72 863a 80ae 9a3d
000000e0: 8cfa 37bd af7e da3b bd13 8dbc 5f62 d1bc
000000f0: 10df 1cbc f3fc afbc 9c0e b4bc 1d25 8fbd
00000100: 635f 253c 6687 38bd 23cb 153d f7a5 b43d
00000110: 7529 4d3d 1bb2 be3d cdb5 45bd 152a 37bc
00000120: 3644 0d3c aa04 cd38 b33d 383d 9c57 08bd
00000130: a856 c2bb 916b f0bb 0aba 72bd f93b cebd
00000140: 48cc b9ba 838f eebc bd15 1abc 9b37 c6bb
00000150: 1c57 3b3d e3d0 95bd 4bec 8ebc 92d3 10bd
00000160: 56d8 ecbd dd41 afbc 6fa8 0dbd 470a acbc
00000170: 595e 163d 4db5 2a3d 285e 69bd 48a3 f9bd
00000180: fd8d 39bc 65a8 cabd f48d 4b39 7d8a d23d
00000190: 6666 a43c 805c 8a3c b081 643d 6d48 aa3d
000001a0: dc7a ac3b 5dcd 8d3d 74dd 133e bef9 afbc
000001b0: 7147 32bd 499a 513d 52d8 ffbb 040c 25bd
000001c0: 8689 bd3a 87ac 023c 2729 16bd 2f9b cf3d
000001d0: 69da d23b d389 34bd add2 c3bd aced 95bc
000001e0: 1087 fb3d d2ad 0ebd 70d1 b63b 4e30 aa3b
000001f0: 4af3 96bc d73c 49bd 782c 4c3c a22b ca3d

cost_backbone.0.weight f4 [128, 22]
-0.4731757 0.10455789 0.19872962 0.0102712875 -0.030099763 0.030976852 -0.036235932 -0.33031324
-0.035688113 -0.18587059 0.120239936 0.28056026 -0.29952046 0.048171043 -0.016490914 0.35242447
0.047777154 -0.13881911 0.2361898 0.10613182 -0.20791288 0.04130383 -0.23536193 -0.3800069
-0.15932119 0.29641786 0.112530544 0.1744911 -0.12702627 0.09853509 -0.24293768 -2.2424207
0.014325116 0.30283853 -0.55807424 0.062487073 -0.040756296 -0.08731085 -0.062864035 0.02739192
-0.112531394 0.043113958 0.049458202 -0.27460036 -0.044752907 -0.072122626 -0.22949272 -0.54979944
-0.11372523 -0.19683759 0.055565946 -0.091043234 -0.696856 0.2841612 0.07562927 -0.6822819
0.18478948 0.0584495 0.0029781903 0.12370099 0.05786514 0.049298108 0.14531568 0.25241497
0.29168016 0.08710605 0.6208474 -0.1957062 0.24019551 0.14392489 -0.10835764 -0.06210393
-0.26286668 0.4823854 0.73473996 0.541899 0.071387075 0.29391253 -0.39455414 -0.16237834
-0.10645841 -0.1241767 -0.009421029 0.06815202 -0.032679897 -0.119330905 -0.020183425 -0.018281156
0.063882835 -0.13495792 -0.07334649 0.3638847 0.10593665 0.13192508 0.1559623 0.23915409
0.49288023 0.058757026 -0.48282006 0.52534515 -0.26028582 0.07025542 -0.03978264 0.020199038
0.06683696 0.016746543 0.019688437 0.05089156 -0.23712161 -0.114445955 -0.51080567 -0.022656137
-0.024784442 -0.15866865 -0.09595955 -0.029370194 0.10217111 -0.93677527 0.035548 -0.15622263
-1.3992085 -0.059598103 -0.05043767 -0.10210307 0.09000619 0.057101198 -0.022105226 0.055200506
-0.095123746 -0.068782456 -0.14002079 0.012528378 0.33973747 0.20757167 0.15614669 -0.074143626
-0.0823553 -0.20018888 0.12567821 0.061662838 -0.052909516 0.98836213 -0.022301558 -0.22770165
0.78775287 -0.006597167 0.022959674 0.28097767 0.09807125 0.042979017 0.081868485 0.1581401
0.2516104 0.15863708 -0.015832217 -0.17045715 0.12296407 0.19688177 -0.17240049 -0.09741538
0.13976248 -0.018773496 -0.39635047 0.1835641 0.15491018 -0.07112622 0.06722384 0.11916983
0.10562228 -0.028904065 0.08543808 0.06751079 -0.027109733 0.17041479 -0.18573904 -0.061302345
-0.33580184 -0.10962483 0.05048369 -0.29724643 0.026727378 -0.16798253 0.08586012 -0.13589327
-0.12992485 0.08295498 0.11745402 -0.07731522 0.21303771 0.016123703 0.077848904 0.026654305
-0.03483009 0.18908028 -0.3459568 -0.10528156 -0.115696155 0.06891108 -0.015993858 -0.1232638
0.26823214 0.4564065 -0.020537084 -0.020440558 -0.2112326 -0.16786997 0.29795927 -0.33983666
0.17257449 2.097273 -0.29352486 0.05977324 -0.011119812 -0.08169699 0.0885258 -0.052616768
-0.16255718 0.024913212 0.09624617 -0.03150652 0.094137676 0.20817423 -0.28875044 -0.019389726
0.17645568 -0.146479 -0.30136347 -0.15492399 0.007261936 -0.029434903 0.35563478 0.4277931
0.19026056 -0.023465404 -0.04995354 0.06482864 -0.14884397 0.26167172 -0.08914369 -0.039413415
-0.051710196 -0.07632935 0.4316736 0.12261961 0.1804818 -0.0073965713 0.12198928 -0.007246183
0.109073885 0.37533295 -0.07820111 -0.22230992 0.565824 -0.37124282 -0.13998258 0.15980329
00000000: 1644 f2be 7222 d63d c77f 4b3e e748 283c
00000010: c793 f6bc 2bc3 fd3c 216c 14bd d11e a9be
00000020: b32d 12bd dc54 3ebe 5b40 f63d 98a5 8f3e
00000030: bf5a 99be 004f 453d f417 87bc fb70 b43e
00000040: fab1 433d 9926 0ebe bddb 713e a45b d93d
00000050: 1de7 54be 342e 293d b802 71be 4490 c2be
00000060: 1825 23be 15c4 973e 6a76 e63d cbad 323e
00000070: 2d13 02be c4cc c93d a8c4 78be d283 0fc0
00000080: e4b3 6a3c a70d 9b3e f4dd 0ebf 72f2 7f3d
00000090: 13f0 26bd 08d0 b2bd dcbe 80bd 0565 e03c
000000a0: dc76 e6bd 4398 303d af94 4a3d 6b98 8cbe
000000b0: d34e 37bd 07b5 93bd 2400 6bbe a8bf 0cbf
000000c0: c6e8 e8bd cb8f 49be 1e99 633d e074 babd
000000d0: 2865 32bf 947d 913e 85e3 9a3d 07aa 2ebf
000000e0: 7439 3d3e be68 6f3d be2d 433b f256 fd3d
000000f0: ff03 6d3d d0ec 493d a2cd 143e 893c 813e
00000100: 1a57 953e a864 b23d dbef 1e3f 3567 48be
00000110: d0f5 753e 0c61 133e 9cea ddbd b160 7ebd
00000120: 7696 86be 38fb f63e eb17 3c3f e5b9 0a3f
00000130: 6333 923d b47b 963e 0003 cabe 8246 26be
00000140: de06 dabd 5b50 febd a95a 1abc 4993 8b3d
00000150: 5bdb 05bd c363 f4bd b657 a5bc 5dc2 95bc
00000160: 01d5 823d 6932 0abe af36 96bd 184f ba3e
00000170: 50f5 d83d 5e17 073e 95b4 1f3e cfe4 743e
00000180: cc5a fc3e 35ab 703d 3134 f7be 057d 063f
00000190: 2f44 85be 13e2 8f3d 1ff3 22bd 7478 a53c
000001a0: d1e1 883d 0c30 893c a549 a13c ab73 503d
000001b0: 02d0 72be a462 eabd 29c4 02bf 5d99 b9bc
000001c0: be08 cbbc 097a 22be 7186 c4bd c399 f0bc
000001d0: 163f d13d 81d0 6fbf c89a 113d d3f8 1fbe
000001e0: 4419 b3bf 241d 74bd bb97 4ebd 6a1b d1bd
000001f0: 2a55 b83d f2e2 693d 0516 b5bc ed19 623d
00000200: 3dd0 c2bd d1dd 8cbd 9c61 0fbe d343 4d3c
00000210: 12f2 ad3e ab8d 543e ebe4 1f3e 9dd8 97bd
00000220: e5a9 a8bd 50fe 4cbe cab1 003e 2c92 7c3d
00000230: a6b7 58bd 4d05 7d3f c2b1 b6bc 9f2a 69be
00000240: 2caa 493f 0c2d d8bb ed15 bc3c 4edc 8f3e
00000250: 94d9 c83d c40a 303d aaaa a73d 7aef 213e
00000260: 14d3 803e c271 223e 91b2 81bc 528c 2ebe
00000270: 96d4 fb3d 609b 493e c189 30be b781 c7bd
00000280: e51d 0f3e e0ca 99bc 73ee cabe 3af8 3b3e
00000290: c6a0 1e3e a0aa 91bd a7ac 893d 500f f43d
000002a0: 7e50 d83d 38c8 ecbc 29fa ae3d 1943 8a3d
000002b0: 3b15 debc 3781 2e3e 6032 3ebe 2b18 7bbd
000002c0: 38ee abbe fc82 e0bd fcc7 4e3d af30 98be
000002d0: 60f3 da3c 9d03 2cbe 6ed7 af3d 9b27 0bbe
000002e0: 050b 05be 4de4 a93d bc8b f03d 7157 9ebd
000002f0: 8f26 5a3e db15 843c 3f6f 9f3d 215a da3c
00000300: ffa9 0ebd 439e 413e 4021 b1be dc9d d7bd
00000310: 1bf2 ecbd 4121 8d3d 8d05 83bc bb71 fcbd
00000320: b955 893e 1dae e93e 633d a8bc f572 a7bc
00000330: 5c4d 58be 1be6 2bbe 1e8e 983e 12ff adbe
00000340: 5eb7 303e b939 0640 e448 96be c9d4 743d
00000350: df2f 36bc c050 a7bd 044d b53d ae84 57bd
00000360: 6475 26be cb16 cc3c b61c c53d fb0c 01bd
00000370: 41cb c03d a02b 553e 19d7 93be 34d7 9ebc
00000380: ccb0 343e 97fe 15be 504c 9abe 65a4 1ebe
00000390: 89f5 ed3b 7721 f1bc c315 b63e b207 db3e
000003a0: aad3 423e 853a c0bc 159c 4cbd e1c4 843d
000003b0: 8e6a 18be d6f9 853e f890 b6bd f66f 21bd
000003c0: 12ce 53bd 9052 9cbd 5204 dd3e fd1f fb3d
000003d0: 39d0 383e f05e f2bb 84d5 f93d 6471 edbb
000003e0: 2162 df3d a42b c03e e727 a0bd 36a5 63be
000003f0: d7d9 103f 8a13 bebe 9857 0fbe 79a3 233e

cost_backbone.0.bias f4 [128]
-0.11272703 -0.050263714 -0.1699363 0.199077 0.01093719 0.10608177 0.10690573 -0.23836307
0.18155113 0.22486526 -0.064307265 0.02141265 0.20360222 -0.19684401 0.20163248 -0.10712283
0.19040668 0.24255338 0.2954905 0.24440482 -0.08376861 0.1499321 -0.027310684 0.18763615
0.26053354 -0.012782239 0.16277075 0.023377148 -0.19901375 0.12504494 -0.21284688 0.11052884
-0.22772682 -0.17384954 -0.017588716 -0.19304684 -0.14507547 -0.14648609 -0.21108331 -0.14423712
-0.020624626 0.09618125 -0.011330689 -0.38203734 -0.11586203 -0.21196294 0.17697883 -0.09078666
-0.20000482 -0.15605882 -0.115558974 -0.17575698 -0.30421484 0.19499618 0.14753525 -0.0018154568
0.04842357 -0.16068363 0.21760891 -0.2586129 0.041218717 -0.068140075 -0.06933982 0.117969126
-0.14949782 -0.24215816 -0.18020217 0.15245011 0.11062841 -0.07825655 -0.10054276 -0.15066949
-0.02947941 0.18612498 -0.11751046 0.038549602 -0.14083238 0.24088676 0.057010915 0.12571985
0.096285775 0.18509774 0.13217144 0.09960578 0.14885275 0.03450542 0.13231833 0.192589
0.26360655 0.0405358 0.17378214 0.20056763 -0.05748317 0.014862488 -0.2052267 -0.20080587
-0.047336537 0.17083377 0.15106511 -0.16853532 -0.17512965 0.06034065 0.16732708 0.014592446
0.13647321 0.18451571 0.18193874 -0.20649908 0.16044287 0.11475596 0.2953108 0.081106976
-0.38271922 0.1783999 0.15581402 -0.06333276 -0.14666216 -0.36075023 0.10271992 0.16478896
-0.048662998 -0.03779062 -0.20788547 -0.2642744 0.22586346 0.08646934 -0.09756838 -0.20332013
00000000: 6edd e6bd 53e1 4dbd c803 2ebe d7da 4b3e
00000010: e631 333c 6641 d93d 64f1 da3d 7315 74be
00000020: 8ae8 393e 1443 663e 87b3 83bd 9569 af3c
00000030: 1a7d 503e 7a91 49be bf78 4e3e 3763 dbbd
00000040: f8f9 423e ea5f 783e 884a 973e 4245 7a3e
00000050: e18e abbd cd87 193e a8ba dfbc b123 403e
00000060: a764 853e 996c 51bc 60ad 263e 6f81 bf3c
00000070: 43ca 4bbe c80b 003e 88f4 59be f25c e23d
00000080: 3831 69be 9d05 32be 3616 90bc 12ae 45be
00000090: aa8e 14be 7300 16be 3926 58be e5b2 13be
000000a0: faf4 a8bc adfa c43d 5ba4 39bc 669a c3be
000000b0: 1249 edbd d00c 59be f039 353e 5bee b9bd
000000c0: 10ce 4cbe e2cd 1fbe 2faa ecbd a3f9 33be
000000d0: 0cc2 9bbe 14ad 473e 7b13 173e 9ff4 edba
000000e0: cb57 463d 408a 24be dfd4 5e3e e968 84be
000000f0: f5d4 283d 068d 8bbd 0902 8ebd cc99 f13d
00000100: f515 19be 4ff8 77be eb86 38be e21b 1c3e
00000110: 2691 e23d f844 a0bd 5de9 cdbd 1a49 1abe
00000120: ce7e f1bc 8c97 3e3e 53a9 f0bd 30e6 1d3d
00000130: 5d36 10be 05ab 763e 4784 693d b4bc 003e
00000140: 7a31 c53d 438a 3d3e f357 073e 1dfe cb3d
00000150: db6c 183e 8e55 0d3d 757e 073e 0d36 453e
00000160: 70f7 863e de08 263d f2f3 313e 9a61 4d3e
00000170: 7973 6bbd cb81 733c f326 52be 0ea0 4dbe
00000180: f5e3 41bd 0cef 2e3e d0b0 1a3e 8694 2cbe
00000190: 3055 33be c227 773d ca57 2b3e 2815 6f3c
000001a0: a2bf 0b3e b0f1 3c3e 264e 3a3e 7f74 53be
000001b0: 234b 243e 2c05 eb3d fa32 973e 6a1b a63d
000001c0: c6f3 c3be 77ae 363e b68d 1f3e 9bb4 81bd
000001d0: 9b2e 16be 41b4 b8be d25e d23d 70be 283e
000001e0: da52 47bd 56ca 1abd eedf 54be f94e 87be
000001f0: c048 673e d616 b13d eed1 c7bd 2733 50be
