outputs/four_group_ablation_20260121/D_two_critic_aggcost_adaptive_seed0_v4/best_feasible.pt (torch, 976981 bytes, 64 tensors)

actor_backbone.0.weight f4 [128, 22]
-0.019241927 0.0869799 0.24990875 0.059369516 -0.08851326 -0.023550779 -0.058497682 0.09850435
-0.12594076 0.26213 -0.085591726 -0.42224956 -0.03374065 0.07310441 -0.11241492 0.07708109
0.036127977 -0.061863955 0.10933734 0.06489143 0.22246996 -0.21467973 -0.12603773 0.38568112
-0.13576415 -0.076673895 -0.17010917 0.014132533 0.030134967 -0.1603358 0.19020922 0.16968383
0.27418712 -0.020096915 -0.17146122 -0.02374858 0.03487995 0.14716505 -0.05409255 0.006726506
0.025441583 -0.19137211 0.018574722 0.15237968 -0.27307257 -0.06690305 -0.16554897 0.017342722
-0.10063106 -0.07514858 -0.017335044 0.03114537 0.072778866 0.28791508 -0.18125618 -0.16795805
0.17537525 0.031683825 0.13813907 -0.032266792 -0.17511843 0.04591184 0.009840156 0.0029155193
0.30674848 -0.030322233 0.013395788 0.25056913 -0.092987046 -0.09230292 -0.019137247 -0.11543213
0.018154232 0.12599027 -0.18928856 0.19552378 -0.010085404 -0.2980241 0.024129279 0.21819198
-0.009236867 -0.047889285 0.08108319 -0.029249245 0.035473596 0.16784841 -0.043405175 0.07686047
-0.32980165 0.09931505 0.27367118 -0.1465671 0.119893126 -0.05013902 -0.24634182 0.13727027
-0.0040299697 0.26315504 -0.12727682 -0.22102535 -0.05742841 0.03568005 0.13779624 -0.04694428
0.046920203 -0.0051943716 -0.045654517 -0.1106654 0.02495932 -0.11178218 -0.01708258 -0.16396478
0.10262876 0.029760359 0.080023706 0.008330848 -0.0928018 -0.11464386 -0.1154396 0.10151837
0.19412437 -0.16173346 0.060936525 0.1443411 -0.17201401 -0.06279453 -0.20899701 -0.13440232
-0.34156442 0.082064606 -0.025649266 0.14746326 -0.13741584 0.20676976 -0.14521487 -0.037224032
-0.15147088 -0.1717789 -0.012942792 -0.06123829 0.12704031 -0.08204069 -0.24477412 0.1030596
0.05077123 -0.16001016 -0.030359859 0.14148872 0.2040855 -0.101953916 -0.08906443 -0.0056224554
0.13243763 -0.10381345 0.14902528 -0.18778412 0.019828763 0.0788873 0.011565584 -0.041916724
-0.02978188 -0.053089015 0.006255907 0.28639668 -0.18606213 -0.40335804 0.090838104 -0.05465925
0.22847065 -0.0351116 0.0005781508 0.088620074 0.011115096 0.23021793 0.064258344 0.057069298
0.3697215 -0.028099185 0.10201732 -0.11554626 -0.26932132 -0.031361263 -0.27212882 0.13091992
-0.009937299 -0.22183153 0.08127968 0.026681557 -0.11783427 -0.08143685 -0.16642837 -0.06505541
-0.06614548 0.060123593 -0.0039020164 0.028629096 0.11331835 0.2999952 -0.38040242 -0.07889801
0.20553073 0.035573304 0.10172728 -0.042478614 -0.02495245 -0.03464522 0.048403695 -0.34430155
0.019233672 0.19459127 0.05108468 0.009776661 -0.15536669 -0.025946686 -0.07354815 -0.052502275
-0.052224286 0.007909108 0.17683433 -0.07053415 0.14868248 -0.34052673 -0.04336748 0.08382977
-0.028042007 -0.26984304 -0.05783404 0.16189483 -0.15821314 -0.16845967 0.11253534 0.09575642
-0.059653327 -0.10186969 -0.10108479 -0.049934752 0.046938416 -0.064605735 0.14838763 -0.014378547
0.14645566 0.048458844 0.02833859 0.3123918 -0.06788614 -0.110706486 -0.13877124 0.114520244
-0.10587946 -0.16173705 -0.021981718 -0.07721691 0.06755736 -0.002246069 -0.015119138 -0.043520536
00000000: 3fa1 9dbc 8522 b23d 14e8 7f3e 732d 733d
00000010: 7146 b5bd 90ed c0bc 449b 6fbd a6bc c93d
00000020: 9df6 00be e735 863e b74a afbd 1831 d8be
00000030: a333 0abd c4b7 953d cb39 e6bd b1dc 9d3d
00000040: eefa 133d 0f65 7dbd 41ec df3d cce5 843d
00000050: 2acf 633e 01d5 5bbe 0910 01be ff77 c53e
00000060: c205 0bbe 3407 9dbd 1931 2ebe 248c 673c
00000070: 9bdd f63c 112f 24be 35c6 423e 99c1 2d3e
00000080: 4162 8c3e 49a2 a4bc 8893 2fbe 628c c2bc
00000090: 47de 0e3d 6fb2 163e 2690 5dbd 066a dc3b
000000a0: de6a d03c 0df7 43be 042a 983c 6b09 1c3e
000000b0: 2bd0 8bbe 7704 89bd ab85 29be 5312 8e3c
000000c0: a817 cebd 80e7 99bd 3902 8ebc 9324 ff3c
000000d0: 160d 953d 9b69 933e 389b 39be 32fd 2bbe
000000e0: 9295 333e e6c6 013d 5474 0d3e 2f2a 04bd
000000f0: 3f52 33be 0e0e 3c3d 9b38 213c 4c12 3f3b
00000100: 230e 9d3e 5566 f8bc 027a 5b3c 994a 803e
00000110: fe6f bebd 5009 bdbd b7c5 9cbc ae67 ecbd
00000120: 2fb8 943c 9803 013e dcd4 41be 6337 483e
00000130: 403d 25bc 9d96 98be c4aa c53c b86d 5f3e
00000140: 3a56 17bc 8e27 44bd f20e a63d 1d9c efbc
00000150: c34c 113d 74e0 2b3e a0c9 31bd 0669 9d3d
00000160: c3db a8be b065 cb3d a11e 8c3e b015 16be
00000170: 878a f53d 935e 4dbd 0841 7cbe 9490 0c3e
00000180: d60d 84bb 42bc 863e db54 02be 7854 62be
00000190: 0d3a 6bbd 3e25 123d 751a 0d3e a548 40bd
000001a0: 662f 403d 8c35 aabb 3b00 3bbd 8ba4 e2bd
000001b0: 7d77 cc3c 0eee e4bd c4f0 8bbc 62e6 27be
000001c0: 072f d23d ffcb f33c 78e3 a33d 1c7e 083c
000001d0: df0e bebd 66ca eabd 996b ecbd dde8 cf3d
000001e0: 8ac8 463e 759d 25be 9498 793d 27ce 133e
000001f0: 7124 30be 6b9a 80bd 5003 56be c3a0 09be
00000200: 88e1 aebe 7d11 a83d 691e d2bc 9c00 173e
00000210: bdb6 0cbe 74bb 533e 35b3 14be 3a78 18bd
00000220: 2f1b 1bbe cfe6 2fbe 010e 54bc 00d5 7abd
00000230: db16 023e f304 a8bd 11a6 7abe e910 d33d
00000240: 7ef5 4f3d b4d9 23be 3db5 f8bc 6be2 103e
00000250: cafb 503e 37cd d0bd 6967 b6bd 933c b8bb
00000260: bb9d 073e 259c d4bd 159a 183e 7b4a 40be
00000270: ee6f a23c aa8f a13d 937d 3d3c dfb0 2bbd
00000280: 21f9 f3bc de73 59bd 5afe cc3b 96a2 923e
00000290: 1287 3ebe f284 cebe 5409 ba3d 61e2 5fbd
000002a0: 36f4 693e 2ed1 0fbd 0b8f 173a 717e b53d
000002b0: 171c 363c 40be 6b3e e199 833d 7fc1 693d
000002c0: 234c bd3e 4330 e6bc 75ee d03d 84a3 ecbd
000002d0: 7ce4 89be ab74 00bd 7854 8bbe df0f 063e
000002e0: 0ed0 22bc ce27 63be f675 a63d 4893 da3c
000002f0: 1853 f1bd 5dc8 a6bd 336c 2abe c53b 85bd
00000300: 4877 87bd 2844 763d f9b8 7fbb 9187 ea3c
00000310: 7313 e83d f998 993e 1bc4 c2be 4895 a1bd
00000320: a676 523e 50b5 113d 6456 d03d 0efe 2dbd
00000330: 1569 ccbc 25e8 0dbd f442 463d 4b48 b0be
00000340: ef8f 9d3c ef42 473e 2b3e 513d 4a2e 203c
00000350: 7218 1fbe 258e d4bc 6aa0 96bd a00c 57bd
00000360: 22e9 55bd 3495 013c 0f14 353e 3574 90bd
00000370: 3840 183e 8559 aebe 19a2 31bd f1ae ab3d
00000380: 5ab8 e5bc de28 8abe 63e3 6cbd c2c7 253e
00000390: a002 22be b180 2cbe ee78 e63d f11b c43d
000003a0: 0c57 74bd 0ea1 d0bd 8b05 cfbd 6288 4cbd
000003b0: 7f42 403d 0350 84bd edf2 173e ff93 6bbc
000003c0: 79f8 153e c87c 463d 5526 e83c d1f1 9f3e
000003d0: e307 8bbd 15ba e2bd 0c1a 0ebe 9789 ea3d
000003e0: 55d7 d8bd 669e 25be 0113 b4bc e623 9ebd
000003f0: 835b 8a3d c932 13bb 43b6 77bc 9742 32bd

actor_backbone.0.bias f4 [128]
-0.06642987 -0.3337175 -0.13455163 -0.16317867 0.009474275 -0.23853683 -0.283119 -0.1050499
0.099945895 -0.23522952 0.09432885 -0.3585643 0.081045866 -0.09953208 -0.23736563 0.07442194
-0.3219026 0.29008228 0.32759416 0.13507748 -0.18963842 -0.2834402 0.29308617 -0.14279649
0.19127333 0.20977448 0.10335486 -0.13655213 -0.15934357 0.23113649 -0.22434406 0.17160515
-0.20867643 -0.24734688 -0.22619444 0.3044678 0.2691075 -0.24904057 0.15173094 -0.122681
0.21713541 -0.09826229 0.14557365 -0.0120413 0.18353844 0.20167543 0.13202316 -0.21028353
0.153465 -0.25895518 0.26841748 0.16312096 0.23495099 0.2506406 0.22206002 0.10482161
0.29062375 -0.15287657 0.26756898 0.19206673 0.10465089 -0.10732896 0.005008764 -0.124874055
-0.056391105 -0.039612666 0.16056979 0.23269182 -0.25693634 -0.297257 0.05443448 0.20390114
0.19142476 0.05959193 0.11522913 -0.08015949 0.16932116 0.21214898 -0.1672209 0.16492634
-0.09618824 -0.2423792 0.19973136 0.23101972 0.263295 -0.17465892 0.06513907 0.13562107
-0.12011502 0.23640199 -0.22174954 -0.31695244 0.16629678 -0.07479828 0.03551 0.16679557
-0.120724976 0.18801174 0.15951267 -0.14398102 -0.11802282 0.10942778 -0.22983348 -0.076985605
-0.18830623 0.21999343 -0.19650672 0.17681722 -0.18511213 -0.12893544 0.3678023 -0.23188923
-0.0018046697 0.28040817 0.27081388 0.3283033 -0.10017786 0.032582387 -0.028119778 0.10604885
-0.1079819 -0.19744088 -0.19604333 0.1925095 -0.048856575 0.04103446 -0.17297453 0.16194807
00000000: 620c 88bd 05dd aabe e7c7 09be 4f18 27be
00000010: fd39 1b3c 0043 74be f9f4 90be 6724 d7bd
00000020: 6fb0 cc3d 02e0 70be 7c2f c13d bd95 b7be
00000030: 60fb a53d 7ad7 cbbd fa0f 73be 886a 983d
00000040: 6bd0 a4be aa85 943e 6cba a73e c051 0a3e
00000050: 9330 42be 131f 91be 640f 963e 3e39 12be
00000060: 28dd 433e 1fcf 563e b6ab d33d 52d4 0bbe
00000070: f62a 23be 0baf 6c3e 73ba 65be 43b9 2f3e
00000080: 46af 55be 8048 7dbe 849f 67be 34e3 9b3e
00000090: 75c8 893e 7e04 7fbe 5b5f 1b3e 2d40 fbbd
000000a0: bf58 5e3e bd3d c9bd 4211 153e df48 45bc
000000b0: 80f1 3b3e 0184 4e3e 1431 073e 9154 57be
000000c0: ee25 1d3e c695 84be 046e 893e 2e09 273e
000000d0: fe96 703e f753 803e b463 633e b6ac d63d
000000e0: a3cc 943e ad8b 1cbe cdfe 883e 24ad 443e
000000f0: 3553 d63d 49cf dbbd 8f20 a43b f8bd ffbd
00000100: 5cfa 66bd e440 22bd 686c 243e c446 6e3e
00000110: 298d 83be 1232 98be b0f6 5e3d 76cb 503e
00000120: da04 443e ab16 743d 40fd eb3d a92a a4bd
00000130: 8762 2d3e 953d 593e f53b 2bbe 73e2 283e
00000140: 57fe c4bd 4132 78be 6186 4c3e 6f90 6c3e
00000150: 9ace 863e cad9 32be a267 853d 40e0 0a3e
00000160: ddfe f5bd 5d13 723e 5012 63be 9747 a2be
00000170: b449 2a3e d72f 99bd ef72 113d 75cc 2a3e
00000180: a83e f7bd 2686 403e 4a57 233e c36f 13be
00000190: f3b5 f1bd ac1b e03d 7859 6bbe a1aa 9dbd
000001a0: 59d3 40be f545 613e 0f39 49be 930f 353e
000001b0: 098e 3dbe a707 04be 9550 bc3e 5f74 6dbe
000001c0: ab8a ecba a991 8f3e 1ea8 8a3e 5f17 a83e
000001d0: 0d2a cdbd 1c75 053d 735b e6bc 2430 d93d
000001e0: 9d25 ddbd f12d 4abe 95bf 48be 3621 453e
000001f0: d51d 48bd c013 283d 3c20 31be b7d5 253e

actor_backbone.2.weight f4 [128, 128]
-0.1510464 -0.089266285 -0.14974332 0.02467876 -0.11675239 0.044180296 0.1377874 -0.43187794
0.074077666 0.15836121 -0.1892821 0.0041553364 -0.048653062 0.012969354 0.025182348 -0.320752
0.015794799 0.05393427 0.045391522 0.106248796 0.121201724 0.30034748 0.006766567 -0.099743046
-0.17206648 -0.016520556 0.35196355 -0.011939463 -0.2534115 0.117237285 -0.068672985 -0.03774124
0.18643767 0.07016135 -0.05788309 -0.08052047 0.10960824 0.14061418 0.28039354 -0.19438581
0.16222335 0.23014347 0.12625685 -0.13268787 0.058010112 -0.012050057 -0.016661566 -0.15337111
-0.18503919 0.100748695 0.085533045 0.030652272 0.08995471 -0.22542143 -0.099201374 -0.18235719
-0.18538798 -0.08464256 0.05252351 0.13377401 0.06891696 0.06370794 -0.0654665 0.0925769
-0.22719686 0.07040205 -0.071224265 0.10279554 0.026335651 -0.060646955 0.007851292 0.0783707
0.08425187 0.14107025 0.15658441 0.17164347 -0.103638336 -0.18960871 -0.079405166 0.03002958
-0.07142111 -0.069816455 -0.09869494 0.048178732 -0.074038655 -0.021529997 0.4184859 0.03980351
0.15449297 0.23240288 0.18044777 0.11484659 0.11225095 -0.22235794 0.01971149 0.049455732
-0.48117292 -0.16381335 -0.16300535 -0.19455539 -0.20352027 0.22565654 -0.08530493 -0.22495191
-0.11783494 0.10226888 0.11890875 -0.38139778 -0.058718693 -0.19615038 0.10898519 -0.045086414
0.08030273 0.08035496 0.09841807 0.0259227 0.14466031 -0.20015275 0.18598066 0.0045000287
0.033681747 -0.049609147 0.090800874 -0.086725704 -0.19283938 0.13908893 0.30457267 0.092850305
0.09686628 0.26262105 0.2883461 0.0039374363 0.14123593 0.044504896 0.21830696 -0.09865019
0.081842296 0.1103031 -0.05054072 0.35286 0.28540987 -0.001709554 -0.115001105 -0.11689933
0.06701715 -0.038278554 -0.21881565 0.003161531 -0.049212046 -0.005555557 -0.117472045 -0.15038052
-0.1964534 -0.26880294 -0.18745144 0.14106208 -0.22430998 0.047742274 -0.12261136 0.07316511
0.0866169 -0.08105784 0.16286354 -0.0215066 -0.07300555 0.032492746 -0.25902402 -0.12476868
-0.15503822 0.04416358 0.118754625 -0.07151838 -0.10294842 -0.0050770896 0.26012492 0.036974106
0.08260321 0.24596712 0.2102381 -0.055259574 0.14879267 -0.029539626 0.018342627 -0.101852566
-0.12965423 -0.01021271 -0.27248123 -0.22860806 -0.09509489 0.14896426 -0.08196032 -0.062351502
-0.05633448 0.0043375627 -0.13334642 -0.09353393 -0.027545368 0.09067515 -0.15617217 -0.14645591
-0.18339254 0.20641468 -0.026110016 0.0912906 -0.10621171 -0.25219387 0.122929014 0.029672883
0.30363077 0.102995895 -0.22057538 -0.18100071 -0.03034941 -0.15437129 0.02144296 0.002180804
0.14549863 -0.089036986 0.09441088 0.015314331 -0.12118791 -0.034595516 0.06846018 -0.23437037
-0.07035203 -0.2859432 0.26038644 0.06677292 0.20392469 -0.19747742 0.28876653 0.031368878
0.055596948 -0.29731765 -0.11857591 -0.07928492 -0.06986961 0.008381243 -0.16493067 -0.04762712
-0.19387637 -0.0276262 -0.17274457 0.018260522 0.1573543 0.1741797 -0.2988826 -0.0785514
0.1637525 0.28029355 0.3008981 -0.15137032 0.09348558 0.09511188 -0.070858486 0.13471276
00000000: e8ab 1abe 3ed1 b6bd 5056 19be 1c2b ca3c
00000010: e11b efbd 66f6 343d 2418 0d3e 1b1f ddbe
00000020: 08b6 973d 7129 223e 2bd3 41be 7d29 883b
00000030: 6f48 47bd 6a7d 543c 364b ce3c 9b39 a4be
00000040: 1864 813c 2eea 5c3d 76ec 393d f898 d93d
00000050: 9c38 f83d 25c7 993e 14ba dd3b 1546 ccbd
00000060: 3232 30be 1e56 87bc 9134 b43e bd9d 43bc
00000070: 27bf 81be 1a1a f03d 6ca4 8cbd 8f96 1abd
00000080: 84e9 3e3e c1b0 8f3d d216 6dbd ebe7 a4bd
00000090: 497a e03d 2afd 0f3e be8f 8f3e 130d 47be
000000a0: e11d 263e bbaa 6b3e 7a49 013e 54df 07be
000000b0: 039c 6d3d 9a6d 45bc d67d 88bc 510d 1dbe
000000c0: ea7a 3dbe 5555 ce3d f32b af3d 791a fb3c
000000d0: 2d3a b83d e0d4 66be 172a cbbd d8bb 3abe
000000e0: 59d6 3dbe 1459 adbd e422 573d 0efc 083e
000000f0: 5624 8d3d 4f79 823d 4d13 86bd f598 bd3d
00000100: 4ba6 68be f32e 903d 07de 91bd 7886 d23d
00000110: ddbd d73c f168 78bd b5a2 003c d180 a03d
00000120: 3f8c ac3d b874 103e aa57 203e 4ec3 2f3e
00000130: 5640 d4bd c928 42be 2d9f a2bd 9800 f63c
00000140: 3b45 92bd eefb 8ebd 9320 cabd 1057 453d
00000150: 94a1 97bd ad5f b0bc c943 d63e 0109 233d
00000160: 6833 1e3e 05fb 6d3e 4dc7 383e b034 eb3d
00000170: d3e3 e53d cdb1 63be fe79 a13c 1892 4a3d
00000180: 4c5c f6be b0be 27be e0ea 26be 8739 47be
00000190: 9e67 50be 8212 673e 5ab4 aebd cb59 66be
000001a0: 7253 f1bd 5972 d13d 6e86 f33d 9246 c3be
000001b0: 0383 70bd a5db 48be a133 df3d 88ac 38bd
000001c0: c275 a43d 2491 a43d 6a8f c93d d85b d43c
000001d0: d521 143e d8f4 4cbe b771 3e3e fa74 933b
000001e0: dff5 093d f632 4bbd cff5 b93d 3f9d b1bd
000001f0: b077 45be 546d 0e3e f3f0 9b3e 4d28 be3d
00000200: d461 c63d 4476 863e 1aa2 933e 9c05 813b
00000210: 27a0 103e c44a 363d dc8b 5f3e 1c09 cabd
00000220: ef9c a73d 97e6 e13d c903 4fbd 11aa b43e
00000230: 3e21 923e 1d13 e0ba b385 ebbd ea68 efbd
00000240: 4a40 893d f9c9 1cbd 3611 60be b031 4f3b
00000250: 9292 49bd 640b b6bb 2f95 f0bd 5afd 19be
00000260: 152b 49be 8aa0 89be 45f3 3fbe 9472 103e
00000270: 84b1 65be 678d 433d aa1b fbbd 97d7 953d
00000280: 3464 b13d a701 a6bd b3c5 263e 9c2e b0bc
00000290: ef83 95bd 1d17 053d cc9e 84be b986 ffbd
000002a0: 57c2 1ebe dfe4 343d a035 f33d 3a78 92bd
000002b0: 9fd6 d2bd b75d a6bb 182f 853e 2972 173d
000002c0: df2b a93d cede 7b3e a848 573e dd57 62bd
000002d0: 1b5d 183e 16fd f1bc 4743 963c 1498 d0bd
000002e0: 14c4 04be 3653 27bc a982 8bbe 3b18 6abe
000002f0: 1cc1 c2bd 168a 183e d0da a7bd 4a64 7fbd
00000300: fcbe 66bd 1d22 8e3b f78b 08be b88e bfbd
00000310: d3a6 e1bc e5b3 b93d 99eb 1fbe 8af8 15be
00000320: 41cb 3bbe 5f5e 533e ace4 d5bc 91f6 ba3d
00000330: 8685 d9bd 8e1f 81be 35c2 fb3d 8c14 f33c
00000340: 7e75 9b3e 83ef d23d 83de 61be 4058 39be
00000350: 539f f8bc 8213 1ebe 25a9 af3c d2eb 0e3b
00000360: 98fd 143e 0659 b6bd 7e5a c13d f6e8 7a3c
00000370: 5e31 f8bd 07b4 0dbd da34 8c3d c9fe 6fbe
00000380: ba14 90bd 2667 92be 5f51 853e 3ec0 883d
00000390: a2d1 503e 8537 4abe 35d9 933e a77c 003d
000003a0: a0b9 633d 053a 98be edd7 f2bd 2260 a2bd
000003b0: cc17 8fbd 7b51 093c 96e3 28be a814 43bd
000003c0: 8787 46be 5750 e2bc f4e3 30be 1797 953c
000003d0: 7c21 213e 2a5c 323e 2407 99be 8edf a0bd
000003e0: bcae 273e a382 8f3e 510f 9a3e d200 1bbe
000003f0: 5e75 bf3d 04ca c23d 411e 91bd 24f2 093e

actor_backbone.2.bias f4 [128]
0.049432527 -0.20978424 -0.25710684 -0.28977478 -0.11619739 0.26859093 0.10867721 0.036979474
-0.11807573 -0.27097777 0.28498703 0.0958746 0.24924815 -0.010222843 0.0071205464 -0.13191764
0.33347014 0.2936465 -0.017081646 0.2886381 0.13686621 -0.080255985 -0.03042921 -0.25934422
-0.24561219 0.25916559 -0.20062189 -0.13933949 0.36300984 0.28237876 0.02325633 -0.16251555
-0.2658361 -0.23669833 -0.121817164 0.24819441 -0.021019828 -0.1082658 -0.046275925 -0.28472278
-0.12246003 0.13933699 0.15720895 -0.26930758 -0.17170447 -0.17628518 0.30782503 0.15597561
0.22052968 0.32264274 0.08190154 0.31961903 0.2362139 -0.11232356 0.1697081 0.29465097
0.23282503 0.24056442 -0.19398049 -0.10159435 0.2278682 0.03999913 -0.060017776 -0.12382754
0.023622153 0.3033322 -0.27749074 0.24649553 0.060943935 0.23725633 -0.10443222 -0.020291228
0.014214351 -0.19218622 0.08537499 -0.17677322 -0.11952619 -0.17177346 -0.12329424 -0.1498284
0.17247711 -0.20036757 -0.30499476 -0.22372715 0.068243936 -0.14540966 -0.1183705 -0.2823505
0.1589639 0.24004689 0.28084832 0.22553487 0.06780408 0.14260271 0.20417419 -0.0024589181
-0.100915186 -0.11022469 -0.24099253 0.1504803 -0.30626228 -0.1833423 0.11393249 -0.19960761
-0.16417721 0.20628634 -0.2669128 0.3374485 -0.26687655 0.27025664 0.12174317 0.09373718
0.1209271 0.103173494 -0.089841716 -0.030206315 -0.27533445 -0.15333326 0.16879643 -0.23377177
0.23253398 -0.28084782 -0.1266379 -0.24343188 0.3072108 -0.07179401 -0.28735983 0.27348542
00000000: c379 4a3d aed1 56be 82a3 83be 5c5d 94be
00000010: e6f8 edbd c084 893e 2892 de3d ca77 173d
00000020: b0d1 f1bd 99bd 8abe d2e9 913e e759 c43d
00000030: e83a 7f3e b67d 27bc 7953 e93b 6b15 07be
00000040: 99bc aa3e d658 963e cfee 8bbc 5fc8 933e
00000050: a826 0c3e 405d a4bd ae46 f9bc c4c8 84be
00000060: c381 7bbe 5ab1 843e d36f 4dbe 03af 0ebe
00000070: 6ddc b93e f393 903e 0f84 be3c 7a6a 26be
00000080: ab1b 88be 0c61 72be 477b f9bd ad26 7e3e
00000090: c631 acbc 76ba ddbd d38b 3dbd 2fc7 91be
000000a0: 53cc fabd 5bae 0e3e 62fb 203e afe2 89be
000000b0: 4cd3 2fbe 1a84 34be 3e9b 9d3e 12b8 1f3e
000000c0: 88d2 613e 6e31 a53e ffbb a73d 1ba5 a33e
000000d0: 0ee2 713e e509 e6bd f6c7 2d3e 7edc 963e
000000e0: af69 6e3e 8556 763e d2a2 46be b310 d0bd
000000f0: 4856 693e 21d6 233d 33d5 75bd 4b99 fdbd
00000100: 3f83 c13c 5c4e 9b3e 4413 8ebe 5369 7c3e
00000110: 59a0 793d 53f3 723e 8fe0 d5bd ca39 a6bc
00000120: 4fe3 683c 77cc 44be 15d9 ae3d 0a04 35be
00000130: 26ca f4bd 62e5 2fbe b181 fcbd 9e6c 19be
00000140: d79d 303e 282d 4dbe 4628 9cbe bb18 65be
00000150: 7ac3 8b3d 45e6 14be 3c6c f2bd 3f90 90be
00000160: 6fc7 223e dace 753e 5acb 8f3e 9df2 663e
00000170: dedc 8a3d 7206 123e 0a13 513e cd25 21bb
00000180: 9fac cebd 7bbd e1bd bfc6 76be 8217 1a3e
00000190: 69ce 9cbe 15be 3bbe 7055 e93d f065 4cbe
000001a0: 121e 28be ba3c 533e cba8 88be 0dc6 ac3e
000001b0: 0ba4 88be 145f 8a3e 7c54 f93d 47f9 bf3d
000001c0: a1a8 f73d a04c d33d effe b7bd 3c73 f7bc
000001d0: a3f8 8cbe 6503 1dbe f9d8 2c3e de61 6fbe
000001e0: 631d 6e3e 49cb 8fbe 5ead 01be 3546 79be
000001f0: bc4a 9d3e bd08 93bd d420 93be 4806 8c3e

reward_backbone.0.weight f4 [128, 22]
0.11695672 -0.035037484 0.2743603 0.4876811 -0.04506484 -0.22462322 0.0019531923 -0.005802663
0.10362508 -0.12406623 -0.057594106 0.12189589 0.1053237 -0.013655528 -0.06903639 0.056603357
0.021409042 -0.0015257874 -0.037419852 -0.049962994 0.118447535 0.1614771 0.05416775 -0.10167039
0.10296441 0.055664834 0.090675995 0.08273295 -0.05209657 -0.026491655 0.07252753 -0.11473015
0.036190256 -0.31243044 0.2626613 -0.04243885 -0.0029107057 -0.06371061 0.04740483 0.11669282
0.000698996 -0.12341934 0.0001471843 0.15442313 0.066742 -0.13654473 -0.06723239 -0.18208009
0.013690878 -0.14723045 -0.14590345 0.050238702 -0.20727997 0.008486136 -0.0051880847 0.0056784977
0.5089774 -0.08709305 -0.083495304 0.14626357 -0.005796901 -0.10610773 -0.1292179 -0.11389217
-0.046142403 -0.20193921 -0.099588156 0.042482022 0.22069202 -0.05431124 0.095554985 0.2463664
0.1523074 0.08088228 -0.008191583 0.21198055 -0.043575697 -0.3047719 -0.24144311 0.004339501
0.037230838 0.05513919 0.053531557 0.05310518 -0.015002254 -0.23556823 -0.0642886 -0.022241015
0.20577165 -0.0584471 -0.12228664 0.16815655 -0.003591094 -0.13610695 0.07040384 0.09934102
-0.47094744 -0.18009178 -0.16146193 -0.4746924 -0.20414212 0.024981631 0.0879484 0.017462559
0.05170492 -0.16471142 0.08733973 -0.12985699 0.084936365 -0.08327717 0.14577127 -0.39949188
0.07447524 0.31934607 -0.05296905 -0.102429405 0.07708273 0.009991654 0.002522358 -0.089249715
0.09073337 -0.072619066 -0.105089195 0.18708535 0.03620647 -0.049770743 0.041868158 -0.0048620156
0.01577784 0.13435346 0.061298933 -0.057179328 -0.11502075 0.080332525 0.16821977 -0.020209711
-0.13030931 -0.21008019 -0.2966674 -0.19114451 0.19165921 0.1935184 -0.031446364 0.015276092
-0.18467595 -0.15293388 0.0053231553 0.0005038946 -0.036765993 -0.009633167 -0.04057858 0.070254184
0.073444836 -0.08213446 -0.15317091 0.3298884 -0.06555004 0.010710413 0.13445763 0.13728511
-0.10240582 0.27098113 0.07952726 -0.2548153 -0.054310307 -0.24510565 0.033958822 0.075103335
-0.024646306 -0.08273323 0.018969689 -0.028002929 -0.02881748 -0.09018957 -0.110748254 -0.18848658
0.03325791 0.01504017 -0.11654266 -0.14080967 0.123470806 -0.060311373 0.10884926 -0.05813032
0.04109122 -0.13606603 -0.14123155 -0.15693884 0.2706096 -0.0900813 -0.12365271 -0.02079883
-0.07127836 0.035478678 0.14822534 -0.019948538 -0.056730628 0.10867234 0.09367105 -0.28977615
-0.32624817 0.30978 0.18419676 -0.15625997 0.018865867 -0.15126811 -0.013245777 -0.09330508
0.079823226 -0.113623 0.07306048 0.024489673 0.02834931 0.048938587 0.030414341 0.07519854
-0.17304878 -0.10658891 -0.0561287 0.08621781 -0.32509696 0.16311266 0.011385161 0.08682129
0.2866322 -0.038789757 -0.034241293 -0.013974441 -0.11470229 -0.06664563 0.08240184 0.06781868
-0.077912994 0.16259146 0.09953496 0.007440517 0.082212664 -0.057768863 0.1121829 0.2015072
-0.21557395 0.076801986 0.29681224 0.14277805 -0.23961323 0.017509345 0.0055366578 0.07551002
0.0832606 -0.04676899 -0.005267849 0.058483053 0.07480219 0.0018047169 0.0981618 0.07266469
00000000: 0187 ef3d 7783 0fbd f478 8c3e 56b1 f93e
00000010: e995 38bd a103 66be 2101 003b 4424 bebb
00000020: 6339 d43d 7016 febd cce7 6bbd 8da4 f93d
00000030: f4b3 d73d 70bb 5fbc f362 8dbd ecd8 673d
00000040: 0462 af3c eefc c7ba 8f45 19bd ffa5 4cbd
00000050: 9f94 f23d 415a 253e 01df 5d3d 9138 d0bd
00000060: 01df d23d cf00 643d 56b4 b93d e56f a93d
00000070: 3763 55bd 0705 d9bc 5089 943d a4f7 eabd
00000080: 3c3c 143d e2f6 9fbe 8b7b 863e 5cd4 2dbd
00000090: 8ac1 3ebb b57a 82bd 912b 423d a5fc ee3d
000000a0: d43c 373a 47c3 fcbd 7c55 1a39 1921 1e3e
000000b0: 08b0 883d 62d2 0bbe 23b1 89bd 3473 3abe
000000c0: b44f 603c 94c3 16be b767 15be 19c7 4d3d
000000d0: 3341 54be 6f09 0b3c cf00 aabb b112 ba3b
000000e0: 584c 023f d75d b2bd 96ff aabd 1ec6 153e
000000f0: eef3 bdbb 024f d9bd b251 04be 4c40 e9bd
00000100: d1ff 3cbd 27c9 4ebe e0f4 cbbd a101 2e3d
00000110: 17fd 613e 7675 5ebd 55b2 c33d 7947 7c3e
00000120: 79f6 1b3e 9ca5 a53d fd35 06bc 6e11 593e
00000130: 6e7c 32bd 100b 9cbe dd3c 77be 5f32 8e3b
00000140: 5d7f 183d a2d9 613d e843 5b3d d184 593d
00000150: 04cc 75bc cc38 71be bea9 83bd ca32 b6bc
00000160: ceb5 523e 3a66 6fbd 6b71 fabd 3b31 2c3e
00000170: 8f58 6bbb 9f5f 0bbe e32f 903d 4e73 cb3d
00000180: 0620 f1be fb69 38be 4756 25be e20a f3be
00000190: a20a 51be 47a6 cc3c 4a1e b43d a40d 8f3c
000001a0: 8ac8 533d 1caa 28be 2cdf b23d 3bf9 04be
000001b0: 1ef3 ad3d 398d aabd 1045 153e 338a ccbe
000001c0: 7a86 983d 5481 a33e 13f6 58bd 82c6 d1bd
000001d0: 8ddd 9d3d 09b4 233c 254e 253b 8ec8 b6bd
000001e0: 6bd2 b93d 4eb9 94bd 0139 d7bd 4d93 3f3e
000001f0: 3c4d 143d 68dc 4bbd f27d 2b3d 8b51 9fbb
00000200: 8740 813c f493 093e 9714 7b3d df34 6abd
00000210: 0090 ebbd 6185 a43d ce41 2c3e d68e a5bc
00000220: ce6f 05be 431f 57be cae4 97be 63bb 43be
00000230: 5042 443e b029 463e e7cd 00bd 9348 7a3c
00000240: b11b 3dbe b39a 1cbe dd6d ae3b cb17 043a
00000250: f097 16bd 6ed4 1dbc ba35 26bd 6de1 8f3d
00000260: 3f6a 963d 1d36 a8bd d6d8 1cbe 22e7 a83e
00000270: 193f 86bd ba7a 2f3c 43af 093e 7894 0c3e
00000280: 24ba d1bd 0abe 8a3e 30df a23d 2777 82be
00000290: 7c74 5ebd fafc 7abe 6818 0b3d c7cf 993d
000002a0: 0de7 c9bc 0a70 a9bd 5266 9b3c 6666 e5bc
000002b0: a312 ecbc 4fb5 b8bd fbcf e2bd a002 41be
000002c0: 7239 083d 0c6b 763c ebad eebd 6930 10be
000002d0: 43de fc3d 0f09 77bd 5cec de3d 0f1a 6ebd
000002e0: 444f 283d e554 0bbe 019f 10be 93b4 20be
000002f0: 578d 8a3e 8b7c b8bd a23d fdbd 4f62 aabc
00000300: 64fa 91bd 1752 113d 62c8 173e 1e6b a3bc
00000310: 605e 68bd 9b8f de3d 9cd6 bf3d 8a5d 94be
00000320: 000a a7be 7c9b 9e3e 139e 3c3e 9d02 20be
00000330: 978c 9a3c 07e6 1abe d104 59bc bc16 bfbd
00000340: 5c7a a33d 2db3 e8bd bca0 953d 919e c83c
00000350: d03c e83c d473 483d 7f27 f93c b101 9a3d
00000360: b333 31be 494b dabd 35e7 65bd f792 b03d
00000370: 1c73 a6be 0107 273e d488 3a3c 5ccf b13d
00000380: 75c1 923e 02e2 1ebd 9940 0cbd 0ef5 64bc
00000390: 09e9 eabd 817d 88bd 4cc2 a83d 85e4 8a3d
000003a0: d990 9fbd 607e 263e fcd8 cb3d 95cf f33b
000003b0: 1d5f a83d 0b9f 6cbd 26c0 e53d e757 4e3e
000003c0: 6bbf 5cbe 5c4a 9d3d c6f7 973e 6934 123e
000003d0: 2c5d 75be c26f 8f3c da6c b53b ffa4 9a3d
000003e0: 8984 aa3d d790 3fbd ec9d acbb ed8b 6f3d
000003f0: e431 993d 408c ec3a 0e09 c93d 3ad1 943d

reward_backbone.0.bias f4 [128]
0.2892861 0.3645543 -0.3081545 0.32006618 -0.08895171 -0.2525816 0.3050012 0.26024908
-0.4326809 -0.21018453 -0.40659204 0.078638 -0.08140043 -0.2747159 -0.22350298 -0.08328976
-0.44155988 0.42240772 -0.21416749 0.005628531 -0.28019336 0.4035126 0.33971727 -0.2812151
0.177979 -0.35637623 0.25671744 -0.41646513 0.35024193 -0.14271887 0.019486384 -0.46871942
0.37754613 0.12585142 0.26281136 0.3559176 -0.0052091796 0.08640859 -0.35563418 0.16628024
-0.38639453 -0.19561186 0.4452285 -0.43063495 0.10954154 0.28804275 0.39787233 -0.2433793
0.42681447 -0.44338784 0.31112778 -0.38237342 -0.0964231 -0.35428104 -0.33571473 -0.5112436
-0.5114694 0.36785164 0.31359178 -0.3108834 -0.35377115 0.36109453 -0.37852728 0.07376428
-0.423482 0.40451705 0.22159423 0.28375137 0.45436698 -0.30651113 -0.17727181 0.14045389
0.24199162 0.34973055 0.2506138 0.3478381 -0.23781934 -0.4409674 0.24695978 0.408865
0.080725715 0.122335136 0.3731534 -0.32776025 -0.31720594 0.40946043 -0.31911707 0.37070444
0.22777522 0.11232833 -0.14470196 -0.39316463 -0.34111235 -0.4178099 -0.30233783 0.31213862
0.34491637 -0.12716068 -0.31439716 0.1886075 -0.09859266 -0.52115905 0.06109222 -0.08578913
0.16336155 -0.17475791 -0.34673798 -0.45539802 0.10272623 -0.36894807 0.116174884 -0.36997777
0.28271413 -0.27464107 0.27940246 0.404372 -0.36495855 0.34065685 -0.18782535 -0.15976547
0.3678114 -0.12062062 0.23612814 -0.21606927 -0.09769127 0.09627997 -0.29045358 0.11677137
00000000: 4f1d 943e dca6 ba3e 6dc6 9dbe b7df a33e
00000010: 502c b6bd 6052 81be 1e29 9c3e 5e3f 853e
00000020: 5a88 ddbe 9d3a 57be d52c d0be f60c a13d
00000030: 45b5 a6bd 90a7 8cbe f7dd 64be d293 aabd
00000040: 2314 e2be d345 d83e b94e 5bbe 8a6f b83b
00000050: 8175 8fbe 3499 ce3e 6cef ad3e 6dfb 8fbe
00000060: 2140 363e f276 b6be 7870 833e eb3a d5be
00000070: e952 b33e e524 12be e9a1 9f3c fefb efbe
00000080: ba4d c13e 32df 003e 368f 863e d53a b63e
00000090: c4b1 aabb fdf6 b03d af15 b6be 5e45 2a3e
000000a0: 81d5 c5be 7a4e 48be fdf4 e33e 2f7c dcbe
000000b0: 5157 e03d 577a 933e ecb5 cb3e 6c38 79be
000000c0: 6d87 da3e bb03 e3be 244c 9f3e 73c6 c3be
000000d0: 7979 c5bd 5364 b5be cde2 abbe dce0 02bf
000000e0: a9ef 02bf 0d57 bc3e 1a8f a03e 1c2c 9fbe
000000f0: 7e21 b5be 62e1 b83e 54ce c1be ba11 973d
00000100: a2d2 d8be dc1c cf3e 99e9 623e dc47 913e
00000110: caa2 e83e 07ef 9cbe be86 35be 25d3 0f3e
00000120: a7cc 773e e20f b33e 7450 803e d617 b23e
00000130: ea86 73be 7bc6 e1be 06e3 7c3e c156 d13e
00000140: 8653 a53d d88a fa3d f60d bf3e 31d0 a7be
00000150: d168 a2be cca4 d13e 5063 a3be f9cc bd3e
00000160: e83d 693e 650c e63d c02c 14be e04c c9be
00000170: 47a6 aebe 2eeb d5be 06cc 9abe a2d0 9f3e
00000180: e198 b03e 6936 02be aaf8 a0be 5322 413e
00000190: f3ea c9bd ae6a 05bf d63b 7a3d 36b2 afbd
000001a0: 4048 273e bdf3 32be a487 b1be ee29 e9be
000001b0: 2162 d23d c3e6 bcbe 19ed ed3d ba6d bdbe
000001c0: e8bf 903e c19d 8cbe d70d 8f3e d909 cf3e
000001d0: d9db babe 936a ae3e 4a55 40be 8f99 23be
000001e0: c751 bc3e f207 f7bd 93cb 713e 4341 5dbe
000001f0: 5c12 c8bd 6f2e c53d 55b6 94be d425 ef3d

reward_backbone.2.weight f4 [128, 128]
-0.0018942009 0.16270237 -0.029681206 0.06063709 -0.13799211 -0.064103544 -0.054506943 0.16279683
0.058778457 -0.17234686 -0.011137297 -0.114249066 0.07806852 -0.1946484 -0.006410819 0.062283445
-0.21522574 0.47418162 0.027837614 0.04000923 -0.0281222 -0.08347492 0.31851467 -0.20266484
0.19585888 -0.1876782 -0.059307326 0.06564012 0.07347177 -0.1497818 0.16181405 -0.14045838
0.2649812 0.06839831 0.14844479 0.14673714 0.020134266 0.110039584 -0.13695876 0.16768952
-0.34539595 0.0398583 0.25131458 -0.15572266 -0.07000016 -0.016343957 -0.16174369 -0.27349955
0.31807795 -0.22691436 0.21733423 -0.117902584 -0.013730906 -0.21431865 -0.2038707 -0.027417164
-0.20332237 -0.1861893 0.07662597 0.009852549 -0.108595245 0.071957864 -0.2765237 0.18985486
-0.06577462 0.012482031 0.028745187 -0.30199316 0.1314052 -0.22494364 -0.14633 0.12644434
0.21384938 0.15853299 0.22416972 -0.008995589 -0.1756807 -0.33669546 0.038429 0.14441009
0.04496021 0.010017592 0.32420766 0.011755915 -0.15086463 -0.056858845 -0.34544975 0.060789917
0.29628178 0.26135567 -0.0866949 -0.015493456 -0.0012085931 -0.17152971 0.12737182 0.051077086
0.101568505 -0.11090375 -0.02850941 0.09312768 -0.035587784 -0.26408106 -0.039529935 0.08415754
0.0067425827 -0.09302491 -0.2895675 -0.33281562 -0.09988466 -0.18452713 0.14091541 -0.03882646
0.041848104 -0.100483194 0.027913973 0.24153599 -0.18185106 0.022754407 -0.16111289 0.14086623
-0.054233305 0.17555757 0.09866278 0.039079364 0.014191625 0.30928475 -0.14213297 -0.18483707
-0.10625502 -0.17594145 0.3608978 -0.21980254 0.07017945 0.18758503 -0.22632131 0.009394875
0.2772804 0.07845091 0.010033028 0.14507097 0.1482819 0.13337334 -0.16518839 -0.0173412
0.14169349 -0.0855119 0.09662725 -0.033160508 -0.058660943 0.06772089 -0.23251131 0.0997363
-0.2838591 0.31348148 -0.42343873 0.33988014 -0.29695305 0.35153338 0.17402987 0.5351546
-0.4775132 0.15295725 -0.2775031 -0.07227593 0.0035202391 -0.033185646 0.30001405 0.21537547
0.36378282 -0.08758554 -0.29225042 -0.06788981 -0.048766263 -0.06730087 -0.11596566 0.30903503
-0.05011871 0.06043793 -0.19488253 0.117278665 0.08118101 0.041635957 0.08211533 0.04669221
0.31089723 -0.14439064 -0.3152702 0.14149378 0.30956224 -0.16238187 0.17063324 0.32343456
-0.0050062165 -0.15178418 -0.034178384 0.031198636 -0.018593375 0.21380684 -0.19378053 -0.013793759
-0.2200321 -0.09734304 0.078139365 -0.107164696 0.19076355 0.40199998 -0.14205751 -0.2598366
0.032727066 0.12128686 -0.23356377 0.17975079 0.15983705 -0.30826637 0.3210405 -0.28310418
-0.09077941 -0.09560258 -0.14060423 0.07837612 0.05300321 0.3525745 0.050283987 0.027343595
0.013191323 -0.029161073 0.20548777 -0.14271292 -0.11868294 0.14980906 0.10490778 -0.04262654
0.007865363 -0.13542095 0.14136358 0.29407957 0.008153516 0.4495554 -0.11703816 0.3251906
-0.018101646 0.12577732 0.06623878 -0.34012613 0.10586018 0.030448 0.4349251 0.10159023
-0.04135081 0.27784848 -0.06449761 0.046082124 0.072935484 -0.1077612 0.18436694 -0.01489035
00000000: d646 f8ba 739b 263e 0026 f3bc 995e 783d
00000010: ce4d 0dbe b848 83bd ac42 5fbd 36b4 263e
00000020: aec1 703d b27b 30be 3679 36bc 6afb e9bd
00000030: 63e2 9f3d e951 47be d911 d2bb ed1c 7f3d
00000040: 2364 5cbe efc7 f23e b50b e43c b8e0 233d
00000050: 8760 e6bc e6f4 aabd 5b14 a33e 5f87 4fbe
00000060: 3b8f 483e b72e 40be 3dec 72bd 546e 863d
00000070: 5e78 963d 6660 19be 95b2 253e 52d4 0fbe
00000080: 9eab 873e 6a14 8c3d e901 183e 4342 163e
00000090: 9ef0 a43c 6f5c e13d eb3e 0cbe cdb6 2b3e
000000a0: bdd7 b0be 7542 233d 4eac 803e c375 1fbe
000000b0: 3e5c 8fbd c3e3 85bc 23a0 25be 2208 8cbe
000000c0: 1ddb a23e 3d5c 68be dd8c 5e3e e976 f1bd
000000d0: 98f7 60bc 5976 5bbe 7bc3 50be f699 e0bc
000000e0: bd33 50be 68a8 3ebe 14ee 9c3d 966c 213c
000000f0: 2f67 debd a55e 933d 8494 8dbe 5069 423e
00000100: d8b4 86bd 6f81 4c3c 077b eb3c d99e 9abe
00000110: 168f 063e a057 66be 88d7 15be a07a 013e
00000120: 55fb 5a3e 7956 223e bf8c 653e 3c62 13bc
00000130: a4e5 33be 5963 acbe ba67 1d3d 3de0 133e
00000140: 3228 383d d420 243c 8cfe a53e e29b 403c
00000150: 427c 1abe d2e4 68bd cade b0be d9fe 783d
00000160: 3fb2 973e 69d0 853e 198d b1bd 44d8 7dbc
00000170: a869 9eba 7ca5 2fbe c26d 023e 3536 513d
00000180: 2603 d03d 8121 e3bd 918c e9bc bab9 be3d
00000190: 7fc4 11bd a235 87be 24ea 21bd ca5a ac3d
000001a0: e2f0 dc3b d883 bebd 3142 94be cf66 aabe
000001b0: 5490 ccbd aef4 3cbe 214c 103e 7e08 1fbd
000001c0: eb68 2b3d 22ca cdbd d8ab e43c 3655 773e
000001d0: 2a37 3abe 7367 ba3c c7fa 24be 3d3f 103e
000001e0: be23 5ebd 5dc5 333e b60f ca3d af11 203d
000001f0: fd83 683c 925a 9e3e 4e8b 11be ee45 3dbe
00000200: 3b9c d9bd ff29 34be 99c7 b83e eb13 61be
00000210: 3eba 8f3d 4a16 403e c6c0 67be f6ec 193c
00000220: b2f7 8d3e dfaa a03d 9261 243c 7c8d 143e
00000230: 36d7 173e 0593 083e 2527 29be 220f 8ebc
00000240: 1918 113e dd20 afbd 82e4 c53d 50d3 07bd
00000250: 7546 70bd 40b1 8a3d 7217 6ebe 8c42 cc3d
00000260: fb55 91be a580 a03e f6cc d8be c504 ae3e
00000270: 3b0a 98be 2ffc b33e e334 323e e4ff 083f
00000280: 9c7c f4be d3a0 1c3e e314 8ebe 6705 94bd
00000290: d0b3 663b aced 07bd 719b 993e 638b 5c3e
000002a0: be41 ba3e 0c60 b3bd d9a1 95be d009 8bbd
000002b0: 22bf 47bd 0ad5 89bd 677f edbd d739 9e3e
000002c0: 4749 4dbd c38d 773d 498f 47be cc2f f03d
000002d0: 3b42 a63d 778a 2a3d 152c a83d 5540 3f3d
000002e0: ec2d 9f3e 24db 13be 186b a1be bfe3 103e
000002f0: f17e 9e3e 6f47 26be 7bba 2e3e 3799 a53e
00000300: 300b a4bb 506d 1bbe a2fe 0bbd 4894 ff3c
00000310: 2251 98bc 2ef0 5a3e 676e 46be 38ff 61bc
00000320: 1850 61be ca5b c7bd 8807 a03d 2a79 dbbd
00000330: 8557 433e f1d2 cd3e 8677 11be 4e09 85be
00000340: d10c 063d 3f65 f83d 572b 6fbe 9710 383e
00000350: 53ac 233e 17d5 9dbe 6c5f a43e 08f3 90be
00000360: 8eea b9bd 49cb c3bd 8efa 0fbe a983 a03d
00000370: e519 593d a584 b43e 95f6 4d3d adff df3c
00000380: 6b20 583c 34e3 eebc 636b 523e 5623 12be
00000390: 0b10 f3bd 8c67 193e e4d9 d63d 2b99 2ebd
000003a0: b9dd 003c caab 0abe 9dc1 103e 9991 963e
000003b0: 5396 053c 202c e63e b4b1 efbd 627f a63e
000003c0: e749 94bc c5cb 003e 33a8 873d 0325 aebe
000003d0: 39cd d83d 166e f93c 81ae de3e 8a0e d03d
000003e0: 785f 29bd 2842 8e3e 5317 84bd 9cc0 3c3d
000003f0: 335f 953d e7b1 dcbd b0ca 3c3e a8f6 73bc

reward_backbone.2.bias f4 [128]
0.22310083 -0.25105932 -0.26640317 0.019341182 0.121268585 0.16443792 -0.17942953 -0.18813668
0.2601869 -0.16638388 0.1825501 0.23990828 -0.05336978 -0.3070348 -0.1620139 -0.2173974
0.23532335 -0.33387563 -0.2549156 0.09054799 -0.08298529 0.15399408 -0.10761081 -0.24534932
-0.21424375 0.2331044 0.16425592 0.32575127 -0.12729952 0.011031071 -0.09237071 0.27287054
0.21128054 -0.3449252 -0.38573322 0.21198916 -0.0827024 0.19102873 -0.066848 0.15590245
-0.21225607 -0.114486404 -0.18377034 0.36787453 -0.0019308769 -0.27826113 -0.09677618 0.07165388
-0.08917364 0.1723689 -0.16383225 0.17788497 0.03192324 0.24274024 -0.25871176 -0.14954226
0.08160474 0.060969923 -0.17191692 0.19583832 -0.2734397 -0.2341554 0.066635184 -0.1843013
-0.22823559 0.20679222 0.017528271 -0.04923549 0.092279084 0.23575285 -0.29835415 0.0066785053
0.26168975 0.20561385 0.0072416905 0.07962922 0.23656093 0.10694351 -0.21463203 0.26921555
0.19670093 -0.24511893 0.17478968 -0.23976856 -0.18923014 -0.2202655 0.29422608 0.031565383
0.14790668 -0.14215915 0.014940804 -0.16108105 -0.107268 0.18965071 -0.21604662 -0.24377678
0.1328187 -0.22218993 -0.22771408 -0.08815332 0.028859366 -0.08284996 0.2645336 -0.28223374
-0.23033325 -0.29951128 -0.07192281 0.15383017 -0.2735575 0.2101404 -0.31308556 -0.016216723
0.014252335 0.12978598 0.2739527 -0.22070384 -0.26167855 0.16873917 -0.2850403 -0.25276393
0.026643984 -0.24391983 0.20047103 0.09034525 -0.15186316 -0.052609466 0.2536538 0.10620329
00000000: 8b74 643e d98a 80be ff65 88be 6671 9e3c
00000010: aa5b f83d 6a62 283e 60bc 37be e7a6 40be
00000020: 3837 853e 8960 2abe 6aee 3a3e 84aa 753e
00000030: 459a 5abd aa33 9dbe f9e6 25be 6d9d 5ebe
00000040: 9bf8 703e bff1 aabe 4c84 82be 3971 b93d
00000050: 31f4 a9bd a0b0 1d3e 0e63 dcbd da3c 7bbe
00000060: b762 5bbe ebb2 6e3e b432 283e dfc8 a63e
00000070: ce5a 02be aabb 343c db2c bdbd b0b5 8b3e
00000080: ed59 583e 099a b0be d37e c5be b013 593e
00000090: e05f a9bd 099d 433e 9be7 88bd e4a4 1f3e
000000a0: a859 59be d977 eabd 4b2e 3cbe 0d5a bc3e
000000b0: 7a15 fdba 3e78 8ebe 9732 c6bd 45bf 923d
000000c0: aba0 b6bd 7981 303e a4c3 27be 7a27 363e
000000d0: f1c1 023d e690 783e de75 84be 9b21 19be
000000e0: 6320 a73d 99bb 793d fd0a 30be d789 483e
000000f0: 4a00 8cbe 6fc6 6fbe 0778 883d 7bb9 3cbe
00000100: 97b6 69be 57c1 533e 7397 8f3c 27ab 49bd
00000110: d1fc bc3d 3269 713e e0c1 98be 5dd7 da3b
00000120: 33fc 853e 708c 523e b44b ed3b a514 a33d
00000130: 073d 723e 3305 db3d 80c8 5bbe 9fd6 893e
00000140: f86b 493e 7500 7bbe 11fc 323e e485 75be
00000150: 8cc5 41be 478d 61be cda4 963e b44a 013d
00000160: d974 173e 2b92 11be 46ca 743c 6ef2 24be
00000170: 53af dbbd cc33 423e 533b 5dbe 9fa0 79be
00000180: a001 083e c285 63be e12d 69be ba89 b4bd
00000190: 7a6a ec3c 3dad a9bd f370 873e f180 90be
000001a0: 7bdc 6bbe 8b59 99be 444c 93bd a885 1d3e
000001b0: bb0f 8cbe 0c2f 573e c04c a0be efd8 84bc
000001c0: a082 693c 9ee6 043e 8743 8c3e 3000 62be
000001d0: bbfa 85be f6c9 2c3e cdf0 91be 466a 81be
000001e0: 7c44 da3c 1fc6 79be 4748 4d3e ee06 b93d
000001f0: 0482 1bbe 067d 57bd e9de 813e 1c81 d93d

cost_backbone.0.weight f4 [128, 22]
0.18982664 0.16208763 -0.043218642 0.46236333 0.08053589 0.09693599 0.34221262 -0.054617103
-0.03984513 0.42181265 -0.30943727 0.13323013 -0.013472564 0.025353635 -0.06836449 -0.08207294
-0.063208275 -0.036805008 0.03192784 0.046828043 0.044272784 0.08049366 0.14449115 0.14922783
0.123869315 -0.13701357 0.09635763 -0.09046031 0.09775834 0.36469692 0.04196283 0.24731207
-0.18750769 -0.28500685 0.13355887 -0.08472659 0.020889828 0.052946582 0.035051756 0.009131302
0.015832964 -0.006555242 0.104219146 0.072714545 0.22494365 -0.14801206 0.07260964 -0.28835934
-0.05477968 -0.07907393 -0.038759366 -0.2032946 -0.16206336 -0.12061541 -0.12993106 -0.040711503
-0.11296488 0.093987115 -0.039723497 -0.02845783 0.012761358 -0.015154852 -0.0876438 -0.032871716
0.07311056 0.15295894 0.021528859 0.0070673972 0.01959415 0.0020363668 0.35562357 0.006120053
-0.1523331 0.15376464 -0.043602716 -0.5524525 0.21730913 0.023413317 -0.19757923 0.030784704
-0.060528044 -0.35419393 0.025844064 0.115242824 -0.06428335 0.039557002 -0.090636775 0.045806114
0.28411818 -0.2243639 -0.21746917 -0.16068037 0.07128309 -0.111865744 0.17075786 -0.03927614
-0.22268389 0.1236112 -0.07404106 -0.74774975 -0.1129201 0.05778582 -0.006085241 0.00046309928
0.034040466 0.06411174 0.06670409 -0.015277448 -0.14459942 -0.048713315 0.08332379 -0.70725584
0.19258916 0.16637878 -0.17703608 -0.0040850067 -0.04749665 0.10290485 0.07130491 0.42403433
-0.21646762 -0.18314162 -0.21935624 0.028691066 0.065505944 -0.0645139 -0.024764627 0.012253161
0.07411236 0.116349004 -0.006910515 0.080844186 -0.079270266 0.021265084 -0.11386333 -0.031219255
-0.06752823 -0.02843055 -0.0024386623 -0.12192772 -0.12593156 -0.19010554 -0.09537232 -0.020598609
-0.43323627 0.021205775 0.08326809 0.0030784928 -0.0647831 0.019356744 -0.15229595 -0.23580636
0.030697346 -0.25307593 0.35452855 -0.1335012 -0.11988619 -0.011745823 -0.06549987 -0.08039743
0.009285478 -0.094390854 0.02887345 0.05639448 -0.103159994 -0.5475869 0.20911844 0.105617136
0.024843179 -0.07738193 0.016954307 -0.020178739 0.045046568 -0.00053354143 -0.11581741 -0.20760998
-0.08491709 -0.2890365 0.1125072 -0.3486303 0.069542445 -0.091914505 -0.11355995 -0.09452266
-0.008311102 0.20597275 0.07961593 0.4275567 0.08472805 -0.004427667 -0.07182876 0.01882596
0.017899673 -0.0020859474 0.027705742 0.086572655 -0.052020833 -0.0876095 -0.013377424 -0.087567136
-0.009285461 0.35641578 -0.22007425 -0.00814333 -0.12097896 -0.15142418 -0.12945417 -0.03795068
-0.07411868 0.016259138 -0.5154228 -0.033800304 0.0077716415 -0.10468062 -0.07903488 -0.094642796
-0.011854607 0.027187454 0.06363288 -0.18853423 -0.12909295 -0.21777318 0.005053633 -0.09263724
-0.21658462 -0.09054233 0.28320318 0.075429566 -0.0976986 -0.15671454 -0.08675585 -0.05206553
-0.1084032 -0.12795408 -0.041861944 0.09698497 0.08553043 0.29495034 0.07515216 -0.067813724
0.101517886 0.03803684 -0.33234942 -0.5590031 0.32420066 -0.38303638 0.14647081 0.16871405
-0.036558855 0.11988253 0.19800918 0.080147184 0.055356983 0.030355366 -0.054034274 0.012653576
00000000: ea61 423e 4dfa 253e 0806 31bd e3ba ec3e
00000010: 00f0 a43d 6086 c63d 7e36 af3e 2fb6 5fbd
00000020: a634 23bd d4f7 d73e 906e 9ebe 7b6d 083e
00000030: 07bc 5cbc 6db2 cf3c af02 8cbd dc15 a8bd
00000040: 5773 81bd d9c0 16bd c4c6 023d c3ce 3f3d
00000050: 6157 353d dcd9 a43d 7df5 133e 2ecf 183e
00000060: 32af fd3d 494d 0cbe 2657 c53d 4143 b9bd
00000070: 8635 c83d 8eb9 ba3e 37e1 2b3d 603f 7d3e
00000080: 0402 40be 6bec 91be a8c3 083e 2285 adbd
00000090: 2521 ab3c 84de 583d 6e92 0f3d 759b 153c
000000a0: 22b4 813c 5bcd d6bb d970 d53d 5deb 943d
000000b0: a157 663e 7990 17be 5db4 943d d6a3 93be
000000c0: a860 60bd 83f1 a1bd 24c2 1ebd 762c 50be
000000d0: f0f3 25be 3605 f7bd a60c 05be 1bc1 26bd
000000e0: 225a e7bd 517c c03d 1bb5 22bd 6520 e9bc
000000f0: 0415 513c 0e4c 78bc 987e b3bd 7ea4 06bd
00000100: fdba 953d 45a1 1c3e 4a5d b03c a095 e73b
00000110: e983 a03c 9174 053b 4b14 b63e ba8a c83b
00000120: 35fd 1bbe 7a74 1d3e c398 32bd 876d 0dbf
00000130: 4986 5e3e 49cd bf3c 3652 4abe 3430 fc3c
00000140: 41ec 77bd e858 b5be eeb6 d33c 6e04 ec3d
00000150: fda6 83bd 8606 223d c69f b9bd 319f 3b3d
00000160: f077 913e a6bf 65be 3db0 5ebe 6589 24be
00000170: defc 913d de19 e5bd 26db 2e3e 05e0 20bd
00000180: 3f07 64be de27 fd3d d7a2 97bd 876c 3fbf
00000190: a742 e7bd d3b0 6c3d b466 c7bb 22cc f239
000001a0: 046e 0b3d 044d 833d 279c 883d 434e 7abc
000001b0: df11 14be 9d87 47bd aaa5 aa3d b80e 35bf
000001c0: 1836 453e 335f 2a3e f248 35be 85db 85bb
000001d0: d98b 42bd c7bf d23d 4f08 923d 071b d93e
000001e0: b0a9 5dbe 7a89 3bbe ec9e 60be 8709 eb3c
000001f0: fb27 863d dd1f 84bd 30df cabc 7bc1 483c
00000200: 39c8 973d 6348 ee3d 9a71 e2bb a391 a53d
00000210: 7358 a2bd 1d34 ae3c 2d31 e9bd 86bf ffbc
00000220: 3e4c 8abd 2fe7 e8bc f7d1 1fbb 3eb5 f9bd
00000230: 34f4 00be 07ab 42be 9052 c3bd 6abe a8bc
00000240: 25d1 ddbe bcb7 ad3c 7688 aa3d 8ac0 493b
00000250: 00ad 84bd 0992 9e3c 78f3 1bbe 3977 71be
00000260: 0079 fb3c 2b93 81be c484 b53e 8ab4 08be
00000270: e486 f5bd 8d71 40bc cc24 86bd 68a7 a4bd
00000280: 1e22 183c fe4f c1bd 0388 ec3c e6fd 663d
00000290: 8c45 d3bd a82e 0cbf 2523 563e cc4d d83d
000002a0: ec83 cb3c 6b7a 9ebd c2e3 8a3c e24d a5bc
000002b0: c082 383d 5cdd 0bba ae31 edbd b697 54be
000002c0: 03e9 adbd 98fc 93be 2d6a e63d ac7f b2be
000002d0: 456c 8e3d ac3d bcbd 1e92 e8bd 1995 c1bd
000002e0: 4a2b 08bc 85ea 523e ad0d a33d b6e8 da3e
000002f0: e685 ad3d f615 91bb f51a 93bd e638 9a3c
00000300: 56a2 923c 64b4 08bb 27f7 e23c 014d b13d
00000310: cc13 55bd 9c6c b3bd fc2c 5bbc 6656 b3bd
00000320: 0c22 18bc 217c b63e 255b 61be 9a6b 05bc
00000330: d1c3 f7bd f10e 1bbe a28f 04be 2c72 1bbd
00000340: 89cb 97bd e231 853c c0f2 03bf 3072 0abd
00000350: 41a9 fe3b cb62 d6bd 0add a1bd 15d4 c1bd
00000360: d339 42bc 39b8 de3c f551 823d 1e0f 41be
00000370: f130 04be efff 5ebe f298 a53b 98b8 bdbd
00000380: 5cc8 5dbe 426e b9bd 0200 913e d17a 9a3d
00000390: 3416 c8bd c779 20be 0dad b1bd aa42 55bd
000003a0: 7f02 debd 6506 03be 6e77 2bbd 0ea0 c63d
000003b0: 942a af3d bb03 973e 60e9 993d ece1 8abd
000003c0: 9ce8 cf3d 84cc 1b3d b429 aabe d41a 0fbf
000003d0: a1fd a53e 581d c4be 72fc 153e 60c3 2c3e
000003e0: bdbe 15bd f984 f53d ebc2 4a3e 3524 a43d
000003f0: 01be 623d d1ab f83c 0b53 5dbd f250 4f3c

cost_backbone.0.bias f4 [128]
0.0453834 -0.11835797 -0.3099788 -0.11417754 -0.14747071 -0.06494249 0.5376043 -0.06908382
0.07053795 0.4152069 -0.28964752 -0.18044822 -0.14419462 0.049449023 0.19691108 0.13388216
0.10791476 0.11667341 -0.17190132 -0.326711 -0.20320448 0.0143950535 -0.08454104 -0.08174292
0.14576535 0.291997 0.035223454 -0.10452621 -0.068786696 0.35768542 0.13970618 0.17626223
0.09788279 -0.1123549 -0.28778 -0.26792058 0.22679122 0.25151366 -0.26422757 -0.21692926
0.2829431 -0.044781245 -0.10056188 0.22187959 0.033823464 0.22283171 0.20305409 0.3377382
-0.06607222 0.20789169 0.16218145 -0.33679464 0.080697075 -0.18951881 0.15556414 0.12876715
-0.033439133 -0.19997542 0.16903153 0.018142655 -0.00840025 0.23016846 -0.2763446 0.22487389
0.30027422 0.09048943 -0.11067169 -0.10806573 -0.14064725 -0.17291903 -0.14000154 -0.26664585
0.28235435 -0.0019198668 -0.38022095 0.1301321 0.14182323 -0.06963222 -0.24579556 0.36913294
0.29735664 -0.11376324 0.2446179 0.26882094 -0.17841771 0.039962694 0.008883177 0.2558307
-0.47808495 0.024572527 -0.019481331 0.30069494 -0.35601592 0.012201496 -0.24195491 -0.07327281
0.41144887 -0.7128616 0.011281188 -0.016763905 0.10214443 0.082722105 -0.3109565 -0.05841133
-0.23645172 0.14529754 0.1100833 0.09274549 -0.3192898 -0.08411619 -0.72647804 -0.35980785
0.22456262 -0.2800777 0.6229859 -0.22290589 -0.22663683 -0.056832045 0.14452718 -0.1436867
0.12986211 -0.022773994 0.31686535 0.29293674 0.2698649 -0.12201258 0.056184985 0.21683502
00000000: f2e3 393d aa65 f2bd 8bb5 9ebe ead5 e9bd
00000010: 9002 17be 9100 85bd 6fa0 093f d17b 8dbd
00000020: 3376 903d 0096 d43e ae4c 94be 6bc7 38be
00000030: c1a7 13be 0f8b 4a3d 0fa3 493e 6818 093e
00000040: 6a02 dd3d 78f2 ee3d e606 30be aa46 a7be
00000050: d614 50be 3bd9 6b3c da23 adbd d568 a7bd
00000060: 8343 153e a180 953e 7846 103d d611 d6bd
00000070: 0ae0 8cbd 8b22 b73e 230f 0f3e 167e 343e
00000080: c676 c83d 531a e6bd e657 93be e32c 89be
00000090: f53b 683e 66c6 803e d648 87be b422 5ebe
000000a0: ebdd 903e 8a6c 37bd 63f3 cdbd 6734 633e
000000b0: 798a 0a3d ff2d 643e 69ed 4f3e 05ec ac3e
000000c0: df50 87bd 8fe1 543e e512 263e 5970 acbe
000000d0: 8244 a53d 3811 42be 354c 1f3e 89db 033e
000000e0: 79f7 08bd 5bc6 4cbe 9a16 2d3e e89f 943c
000000f0: 34a1 09bc 48b1 6b3e 0a7d 8dbe 5745 663e
00000100: 8bbd 993e 8652 b93d d7a7 e2bd 9151 ddbd
00000110: d505 10be b011 31be 905c 0fbe ce85 88be
00000120: c090 903e 0aa4 fbba 52ac c2be 5941 053e
00000130: 1c3a 113e 569b 8ebd d5b1 7bbe fefe bc3e
00000140: 213f 983e b4fc e8bd 1d7d 7a3e e6a2 893e
00000150: 22b3 36be ecaf 233d bf8a 113c 3efc 823e
00000160: 8dc7 f4be 534c c93c 5097 9fbc b0f4 993e
00000170: b847 b6be c9e8 473c 07c3 77be 0e10 96bd
00000180: 6da9 d23e 197e 36bf bbd4 383c 7554 89bc
00000190: 1931 d13d 356a a93d b135 9fbe b840 6fbd
000001a0: 6620 72be e1c8 143e 5a73 e13d 59f1 bd3d
000001b0: f479 a3be 1c45 acbd 77fa 39bf bc38 b8be
000001c0: bef3 653e 5866 8fbe 017c 1f3f 7141 64be
000001d0: 7c13 68be b8c8 68bd effe 133e 9b22 13be
000001e0: 93fa 043e 8790 babc 2d3c a23e cefb 953e
000001f0: bb2b 8a3e bbe1 f9bd 3a22 663d 000a 5e3e
