outputs/E1_penalty_fixedlambda_sweep/penalty_fixed_seed0_lE5.0_lL0.5/best_feasible.pt (torch, 981939 bytes, 68 tensors)

actor_backbone.0.weight f4 [128, 22]
00000000: ef5e 393a 4185 be3d a3f0 6b3e 3820 813d
00000010: f303 92bd ef84 90bc d851 bcbd d211 843d
00000020: 207e f4bd b634 693d a9f5 47bd 3754 44be
00000030: c2d4 a9b9 59f5 013e c5b8 ccbd 1bcc a03d
00000040: 936e 87bd 6036 88bd 8198 5b3e 775b c23c
00000050: e05b 4f3e 8bcc 2ebe 085e d8bd 52e5 aa3b
00000060: 4760 6bbe 0123 e9bd 990c debd 5db8 223c
00000070: f191 d53d c7b5 03be 4efe 203e b777 c83d
00000080: 7a9d 6f3e 922a c1bc 555b 2dbe 1b4e 783d
00000090: 4405 38bd 35e9 3e3e 72fc 9ebd 5a6e 5b3c
000000a0: 1ee0 e43d d2b9 11be 5f68 da3d b867 633e
000000b0: 98b4 16be dcd1 dbbd b6ad d3bd 4a97 1b3c
000000c0: 6fe1 ddbd 8bdd 6fbd 8717 56bc 1970 80bc
000000d0: db65 0a3d c8ee 783d 7ea7 22be 167e 79bc
000000e0: 9b3a bd3d ce88 dc3c 6100 203e 5f46 e4bc
000000f0: edfe aebe 51ce 553d d020 87bc 0877 57bd
00000100: a47b dd3e 771f 29bd b3a2 debd 9deb 363e
00000110: 2b01 86bd aa5a 7cbd b083 d0bc 1ea9 9abd
00000120: 2b70 193c a021 bc3d 1803 29be 7657 923d
00000130: c744 50bd f6ec 3bbe f010 f3bc 6af8 6b3e
00000140: fe3f 2cbd c69e 35bd 3406 ce3d 81fc 52bc
00000150: 7c76 e43d fe21 223e dfe0 eabd cb92 573d
00000160: 4f30 52be 6cb0 c13d 935c 933e 66c7 bfbd
00000170: 40a6 d93d 0d6e 07bc 19a3 69be 6bb2 073e
00000180: 1036 f63c c7e3 a33d 725f babd ca90 0ebd
00000190: 6a16 dbbd d91b cb3c 34b5 813e 9031 37bd
000001a0: 8027 c33d e9e9 e23c 4ce6 e0bc d032 d2bd
000001b0: 52c6 80bd e70d f8bd 7337 9abd 981b 57be
000001c0: e171 fd3d 9c8b 483d eba2 a43d a174 3cbc
000001d0: d89e fcbd 297f b8bd 6099 88bd ed6c 8fbc
000001e0: b6ba 053e d2a4 23be ab49 06bd cc23 1e3e
000001f0: 428a 74be e435 6fbd 3d16 4ebe b63a 01be
00000200: 9fd2 debe b432 1f3d 8ce0 353d 8d98 ea3d
00000210: 9c60 2bbe 7b48 72bd f6a1 a0bd 90c1 2ebc
00000220: c4f5 33be ec21 6abe 487a 143d b19d f8bd
00000230: 3bde 993d d000 89bd b4b3 23be 46dd a83d
00000240: 0194 2bbd d150 4fbe b809 4d3b 35fe 1f3e
00000250: d425 943e 4e44 34bd 6365 03be 21de e1bb
00000260: 7cbf 323e abbd 68be 2d79 303e 080b 43be
00000270: 0ba2 853d 3463 ca3d 5bcc e5bc 9183 e9bc
00000280: 9d83 aabd 0a51 e6bd abbf 87bc 075e 833d
00000290: 2fdd 4cbe 7ade 51be bfe0 813d c7d8 96bd
000002a0: d134 9b3e 265e fabc 6cb5 2bbd 5b18 363e
000002b0: 55ca 9cbd d4c0 323e 9e70 053e bdab 9a3b
000002c0: fa00 c73e 0220 27bd e708 bb3d fa5c bfbd
000002d0: bd4e 1abe 7544 ac3d 123d fabd 3660 f83d
000002e0: 5ed2 aebc 1db1 4dbd fd87 973d 11f1 20bd
000002f0: eba6 d5bc 4262 83bc 554f 0dbe f8e8 eebc
00000300: e76b 2abe 90e5 e03d 6616 0d3e 90b3 8d3d
00000310: e4f6 3d3e 8d7a cb3e d975 66be 11c3 31be
00000320: e7a9 153e b742 8a3d 58c3 e13d 048d 90bd
00000330: d812 be3c 155d 693c 3d22 5e3d 625b 5cbe
00000340: 23f9 993c 0d73 8c3c 34a0 83bc 9035 213d
00000350: 3e88 65be e157 c0bc 49be b2bd f4d3 a5bd
00000360: 98cb d4bd 1992 8e3d 60e9 793e 9b1c 95bc
00000370: 4d38 0b3e 2684 13be a95b 34bd 3669 acbb
00000380: 88f4 de3c b521 4ebe f211 193c b93d e73d
00000390: f3d3 11be 1932 923c a939 df3d c9e1 59bd
000003a0: 8ec4 20bb 86a0 a2bd 7db7 cebd 8f09 a8bc
000003b0: 0028 bfbd 1bff b3bd 164b 993e d8a3 3bbd
000003c0: 5143 223e ce90 3a3e 2e82 b3bd b28d 043e
000003d0: e64d fbbc cc65 b8bc 0a7d 29be 8961 953d
000003e0: 5c17 bcbd ca85 54be 42fb dbbd 1af7 abbd
000003f0: f1da fe3d 5c8d 2ebc 3928 1ebc 1e65 3ebc
0.0007071336 0.0930276 0.23041014 0.06304973 -0.071296595 -0.017641513 -0.09195298 0.064487115
-0.11938119 0.056935035 -0.048818264 -0.1917275 -0.0003239271 0.12691249 -0.099961795 0.0785143
-0.06612887 -0.06650996 0.21444894 0.023725254 0.20249891 -0.17070214 -0.1056481 0.0052153254
-0.22985946 -0.113836296 -0.108422466 0.009931651 0.10428227 -0.12862311 0.1572201 0.09788459
0.23399916 -0.02357987 -0.16929372 0.060621362 -0.044926897 0.18643649 -0.07762994 0.013393009
0.111755595 -0.14231041 0.106644385 0.22207534 -0.14717329 -0.10733387 -0.10335867 0.009496519
-0.10834014 -0.05856089 -0.013067133 -0.015678452 0.033788543 0.060774595 -0.15884206 -0.015227815
0.09239694 0.026920702 0.15625145 -0.027865587 -0.34178868 0.05219871 -0.016495138 -0.05260375
0.43258393 -0.041289773 -0.10870876 0.17863317 -0.065431915 -0.0616099 -0.025453418 -0.07551788
0.009365122 0.09186101 -0.16505086 0.07145588 -0.05084684 -0.18352112 -0.029671162 0.23043981
-0.042053215 -0.04434087 0.10059777 -0.012877584 0.111554116 0.1583328 -0.11468672 0.052630227
-0.20526241 0.09457478 0.28781566 -0.09364204 0.10627413 -0.008265984 -0.22816123 0.13251655
0.030055076 0.080024295 -0.09100236 -0.03480605 -0.106976345 0.024793552 0.2533356 -0.044725
0.095290184 0.027699428 -0.027453564 -0.10263598 -0.062878266 -0.12112027 -0.07530107 -0.2100662
0.12375236 0.048961267 0.08038887 -0.011502416 -0.123349845 -0.09008629 -0.06669879 -0.017507995
0.13059506 -0.15980843 -0.0327851 0.15443343 -0.23880866 -0.058401003 -0.2012567 -0.12620053
-0.43520066 0.038866714 0.044403598 0.11454878 -0.16736072 -0.059151154 -0.078433916 -0.010666266
-0.17574221 -0.22864503 0.03624943 -0.12139452 0.0751309 -0.06689608 -0.1598652 0.082453296
-0.041889194 -0.20245673 0.003128631 0.15624316 0.2893511 -0.044010453 -0.12831645 -0.006892935
0.17455858 -0.22728603 0.17233725 -0.19047177 0.06525048 0.09882203 -0.028051546 -0.028505119
-0.083258845 -0.11245926 -0.016570887 0.06414419 -0.2000625 -0.20495024 0.06341695 -0.07365566
0.30313733 -0.030562472 -0.041921064 0.17782728 -0.07655779 0.1745637 0.13031241 0.00472018
0.38867933 -0.04080201 0.09132557 -0.09343906 -0.15069099 0.08411495 -0.122186795 0.12127726
-0.021340545 -0.050217737 0.073989846 -0.0392924 -0.02608057 -0.016038064 -0.13799794 -0.029163823
-0.16642724 0.109812856 0.13778076 0.069190145 0.18551213 0.39741936 -0.22505893 -0.17359568
0.14615594 0.06751006 0.11023587 -0.070581466 0.023202345 0.014243384 0.05423187 -0.21519235
0.018795555 0.017144704 -0.016067602 0.03935772 -0.22415254 -0.023479404 -0.087277 -0.080970675
-0.10390395 0.0696146 0.24405432 -0.018202117 0.13595696 -0.1440588 -0.044032726 -0.0052615656
0.027216211 -0.20130046 0.009342657 0.112910695 -0.14241008 0.017846154 0.1089967 -0.05319384
-0.0024531218 -0.07940774 -0.10093591 -0.02051237 -0.09333801 -0.08788892 0.299401 -0.04581055
0.15845992 0.18219301 -0.08765064 0.12944677 -0.030676793 -0.022509478 -0.16551605 0.07293994
-0.09184143 -0.20754161 -0.10741283 -0.0839674 0.124441035 -0.01065382 -0.0096531445 -0.011620788

actor_backbone.0.bias f4 [128]
00000000: c1e0 febc 8517 cabd b15d 07be 7ef6 af3b
00000010: 984c 053e c497 babc 7dae 2dbd 519d f83c
00000020: 1b8b d5bd 8169 f1bd 2521 cbbd 147b d43d
00000030: 2f97 603d 11e9 e3bc 8bd0 37bd 0cd7 09bc
00000040: bfa3 9a3d ac28 c83d d6e4 7eb8 a9c1 72bd
00000050: 1abd debd 2ae9 c53d f838 4e3d 3c1e 58bc
00000060: 2317 a13d 61f2 e0bc 415e 193d a931 b4bd
00000070: 38fd 04be 7003 f13d 23c2 02bd a45a 043e
00000080: 3698 8bbd 982b 073d f9a7 00be d946 643b
00000090: 547d 183c 5c48 efbc cd0a 863d 7140 d1bd
000000a0: abc6 ea3d 8f9b 533d 3b08 22bd 0e8e 8ebd
000000b0: 52fb c93d ff34 263d 668f 38bd 0318 73bd
000000c0: a93e 173d ae04 02be c6e2 863d c8e1 973c
000000d0: 8905 bb3d 6d55 013e 3fbe 09bc 5021 0f3d
000000e0: 36d1 e53d 9d30 ef3b 1392 023e e563 993d
000000f0: 0f6c af3d a411 bbbd b1a7 ed3c 4311 4bbd
00000100: 50ab 5b38 5aa6 023d 2935 47bc 5031 04bd
00000110: a4f6 c3bd ef6d 1a3d add3 ef3d bd1c 83bd
00000120: e39b 5abc b013 16be c4d8 053e 99bd e93d
00000130: 4fc8 4dbc b32e 683d d2b3 b33c 7312 c13d
00000140: 51b9 fdbd 166c 55bd 9d97 a43d 87c1 82bd
00000150: 50c1 55bc 33c0 9cbd 4cdf 0abd d856 db3c
00000160: b1c9 0e3e 27ee 903d 2365 e43c c790 83bd
00000170: 670c bc3c 1f12 dd3c d8ad d3bd dceb 6b3d
00000180: bbe9 773d 0626 e43c b90f 9a3d 9f5f 8bbd
00000190: c368 57bd 1b03 2b3d f2c5 dcbd a892 c5bc
000001a0: cbc8 9d3d ce06 013c 8733 bbbd 6e6f e93d
000001b0: a143 f0bd 306b b8ba 6d18 8e3d 30d5 d53d
000001c0: ccc1 913d 79c1 9b3d 8e33 913d 69d4 74bd
000001d0: f212 8d3d 613a 84bd 8e6e 78bd 023e 953d
000001e0: 05b8 78bc ad6a c43d 784a 6a3b 4d93 e13c
000001f0: a426 99bc f77b 043b 6ce5 893b 834e f4bc
-0.03111303 -0.09867767 -0.13219334 0.0053699603 0.130175 -0.022777446 -0.042402733 0.030348452
-0.10426923 -0.117877014 -0.09918431 0.10375038 0.05483168 -0.027821096 -0.044876616 -0.008413088
0.07550763 0.097733825 -6.077144e-05 -0.05926672 -0.10875912 0.09663613 0.0503473 -0.013190802
0.07865741 -0.027459325 0.037443403 -0.087985344 -0.1298722 0.11768234 -0.031923424 0.12925202
-0.06816141 0.03300056 -0.12564076 0.0034832268 0.009307224 -0.029209308 0.06545029 -0.10217369
0.11463674 0.051662024 -0.03955863 -0.069606885 0.09862389 0.040577885 -0.04505863 -0.05934907
0.03692499 -0.12697098 0.06586222 0.018540278 0.09131915 0.12630244 -0.008407175 0.03494388
0.112215444 0.0072994963 0.12751035 0.074897565 0.085655324 -0.09134224 0.029010626 -0.04957701
5.2373216e-05 0.031896926 -0.01215867 -0.03227359 -0.09568527 0.037702497 0.11710296 -0.06401966
-0.01334283 -0.14655948 0.13070971 0.11413116 -0.012559964 0.05668516 0.021936331 0.09427347
-0.12388862 -0.052105032 0.080367304 -0.06384569 -0.013046578 -0.076538466 -0.03390436 0.026774809
0.13944127 0.07076674 0.027880257 -0.064240985 0.022955133 0.02698618 -0.103358924 0.05759798
0.060525637 0.027850162 0.0752253 -0.06805348 -0.052590143 0.04175101 -0.107799426 -0.024117783
0.07704314 0.0078751575 -0.091406874 0.11398207 -0.11731649 -0.001407003 0.069382526 0.10441053
0.07117042 0.07605261 0.070899114 -0.059772883 0.06888379 -0.064564474 -0.06065231 0.07287218
-0.015180592 0.09590659 0.0035749953 0.027536059 -0.018695183 0.002021549 0.0042082574 -0.029822594

actor_backbone.2.weight f4 [128, 128]
00000000: 0015 b8bc 1f29 8bbd caf4 2abe c68e 293e
00000010: d23e babc 6146 ae3d cf3c 493e 2a89 74be
00000020: 5fe7 12bd 2c69 ad3c 89a4 9abe cfb0 8a3c
00000030: 02ce aa3d ed56 db3c 1781 8fbd a199 46be
00000040: 3ab1 c23d b019 403d 1182 a43d 581e a73d
00000050: 0e5f f23d 7d36 9b3e 7bd2 963d f7c4 8fbc
00000060: 6377 9ebd 6a5b 02bd 586a 2a3e 99ca 003e
00000070: f49c 2bbe 25b1 713e 0587 27bd fa83 67bd
00000080: ae06 c13d 20e1 2b3e 3486 d0bc 785c 9bbd
00000090: 7b0b f73d 0a96 b13d 6e56 1c3e 7a78 24be
000000a0: c803 f23d 2466 753e c543 643e 8d3c e9bd
000000b0: a7b9 7a3d c0bc 04be cfbe 05be fd65 70bd
000000c0: 7586 59be 9f96 143e 1306 263e 71ed 523d
000000d0: 4724 ae3d 672e 1abe 6bf6 e8bd f108 07be
000000e0: 9bb7 04be 4259 2b3d 6138 2d3d f2fe 623e
000000f0: 9a89 903d 3e12 4c3d 6f08 2ebd a66b 223e
00000100: a40b 1bbe 4fc0 a33d 7605 3cbb 98fd 223d
00000110: 91f4 9dbd 9e82 08be e822 8d3c 2cc0 34bb
00000120: 329f de3d 201a 0d3e 62cd 0b3e 04af 573e
00000130: 55f6 2dbe 0fad 45bd fc98 a13c 434c 753d
00000140: 4b31 7fbd 3e76 98bd 0862 84bd 1e52 fabd
00000150: 0654 99bd e43a d83b 5e5c 1e3e 4f84 8cbd
00000160: eacb 283e d312 793e 744b 253e 3607 b13d
00000170: 8b17 743e 5c53 6ebe f8dd 83bd f9be 143e
00000180: 098e a4be c668 ebbd fac5 01be 43d6 3dbe
00000190: 12e2 47be f892 d13d 324e d8bd 8e3f 03be
000001a0: a738 6ebd 3009 1fbd 54cc 643d edd4 84be
000001b0: af9d ea3c e1fb 18bd 8ab7 083e 01a6 7a3d
000001c0: 419d 1a3e 7873 023e b441 4b3e 2f40 f33c
000001d0: 2695 ca3d 10fb 41be 2175 ee3d 7c55 853d
000001e0: c101 363d a397 df3d 7696 d43d e658 0d3e
000001f0: 5f00 54bd d4f2 ccbc afc0 833e 45a3 0e3e
00000200: 2e0a 943d c0c0 e33c dcb2 2d3e 23ae 22be
00000210: 752a 053e 231d 1b3e 4eb8 873b 9abd bbbb
00000220: 5e25 0c3e 16cf 3f3d f0e7 d6bc 059e da3d
00000230: 8366 af3e b747 85bd eba1 46bd 6c20 50be
00000240: 5717 a0bd 0994 ce3d 7c85 5dbe 8045 483d
00000250: 794a d13c 3a9a 423d 21ce ee3c a0a1 4cbe
00000260: cf5d 12be 3baa 18be 092e 07be 581c 0a3e
00000270: b9b8 adbe 7217 483e 620d 3cbe 8ba6 9e3d
00000280: 3ebb 993d d193 12bd 6c40 983c f62c 733c
00000290: 63b2 cbbc d21f aabd b346 dbbd 070f 22be
000002a0: 0885 05bd ac6d 653e fe0b 283d 049f 9b3c
000002b0: ae7e 50be 7ef9 0f39 1ec4 b63d ae21 863d
000002c0: 0f42 af3c 176a dd3d 63bf 5c3e a46f e4bd
000002d0: 4ffb 853d 3014 cbbc f473 503c bdd0 453e
000002e0: 3790 ef3d 71a1 babd 5bc1 c2bc 3673 15be
000002f0: 4ecd 3b3d 542f ae3d 45c7 0ebe 0630 d3bd
00000300: 267c 92bd 293b 01be 75fd ccbd a092 a9bc
00000310: 6d43 02be 280a c1bd 91d9 66be d07c e0bd
00000320: dafe 04be e188 0f3e 3c03 bfbd 45fe 083e
00000330: 1809 c6bd 4485 42be 5122 043e a486 c33d
00000340: 2286 743e ed40 fabd 1e38 40bd 230e 0cbe
00000350: a289 b33c d837 31be 6d85 6cbd ab26 dd3d
00000360: ddc3 eb3c 8e81 d5bc 9c4f cebc 9fd2 f7bd
00000370: 0516 7b3b f196 0dbe 5069 39bb 1fc3 99be
00000380: ca1a e2bd 5d18 a2be 8dca 313e c43c 0a3d
00000390: fe47 063d 87c1 3dbe b2e5 a23e 2f6a 813d
000003a0: e6f7 afbc 4211 2bbe b62e eebd a98f 36bd
000003b0: 9907 9fbd e836 f7bd 5e5e 273e 019e 1abd
000003c0: e8ee 473d b86d 8b3c ebe2 ab3c 45f6 ad3d
000003d0: a2fb 253e e480 dd3d e69e 8cbe 7748 52bd
000003e0: c9b4 b13d 19de 1b3e 2c39 a93e f014 adbd
000003f0: 1572 1b3e a228 193e 1722 87bd e506 a43d
-0.022470951 -0.067949526 -0.16694942 0.1655837 -0.022735033 0.085095175 0.19652103 -0.23880449
-0.035865184 0.021168314 -0.30203655 0.016930012 0.08340074 0.026774848 -0.07007044 -0.19394542
0.095064595 0.046899498 0.08032621 0.081600845 0.118345365 0.3031501 0.07364365 -0.017549975
-0.07737615 -0.03182546 0.1664213 0.12577285 -0.16759092 0.23602732 -0.04090025 -0.056522347
0.09425102 0.16785097 -0.025454618 -0.075859964 0.120627366 0.08671196 0.15267345 -0.16061583
0.118171275 0.23964745 0.22291477 -0.11388502 0.061212208 -0.12962627 -0.13061069 -0.058691014
-0.21242698 0.14510582 0.16213255 0.051495973 0.08503013 -0.15056764 -0.113751255 -0.13187005
-0.12960665 0.04183317 0.042290095 0.22167566 0.070574954 0.049822085 -0.04248851 0.15861377
-0.1514116 0.07995664 -0.0028689778 0.039792627 -0.07712663 -0.13331077 0.017228559 -0.0027580364
0.10870208 0.13779497 0.13652566 0.21062857 -0.169885 -0.048260745 0.019726269 0.059887182
-0.06230287 -0.07444428 -0.064640105 -0.12222694 -0.07486729 0.006598817 0.15464923 -0.06861173
0.16484037 0.24323587 0.16142064 0.086439535 0.23837106 -0.23273987 -0.064388216 0.14525975
-0.32139614 -0.11494593 -0.12673178 -0.18538766 -0.19519833 0.1023311 -0.105617896 -0.12817213
-0.058159497 -0.03882712 0.055858925 -0.259437 0.028639643 -0.037349585 0.13351265 0.06119347
0.1509905 0.1273936 0.19849283 0.029693691 0.09891729 -0.18943429 0.11643434 0.065104455
0.044435266 0.10917594 0.10380261 0.13803443 -0.051758166 -0.025018133 0.25732943 0.1392947
0.07228504 0.027801871 0.1696276 -0.1588674 0.13004477 0.15147834 0.004141844 -0.0057293894
0.1368613 0.046828352 -0.026233643 0.10674671 0.34257898 -0.06507819 -0.04849426 -0.20324868
-0.07816952 0.10086829 -0.21632951 0.048894405 0.025548207 0.047510363 0.029151024 -0.1998353
-0.14293598 -0.14908688 -0.13201155 0.13487375 -0.33929995 0.19540194 -0.1836448 0.07746609
0.07506417 -0.0357855 0.018585406 0.0148422625 -0.024865335 -0.083068505 -0.10706844 -0.15826045
-0.03259757 0.22405118 0.04102706 0.018996723 -0.20360824 0.00013730486 0.08924125 0.06549393
0.021393804 0.10811251 0.21557383 -0.11154106 0.06542074 -0.0247899 0.012722958 0.19317909
0.11697429 -0.09112824 -0.02377384 -0.1459473 0.04585009 0.08505121 -0.13943203 -0.10311894
-0.07152586 -0.12620224 -0.100092806 -0.020699799 -0.12721033 -0.09425765 -0.22543932 -0.10961306
-0.12987843 0.14017059 -0.09326789 0.13378246 -0.09669703 -0.1899615 0.12903716 0.09547165
0.23879293 -0.12219415 -0.046928518 -0.13677268 0.021916214 -0.17306459 -0.057744432 0.10798391
0.028779918 -0.026062753 -0.025184445 -0.1210072 0.0038312685 -0.13827111 -0.002829153 -0.30031678
-0.11040266 -0.31659213 0.17362423 0.033749357 0.0327835 -0.18530856 0.3181587 0.06319081
-0.021480512 -0.16705802 -0.11630003 -0.0445706 -0.07765121 -0.120710194 0.16344592 -0.03774834
0.048811823 0.017020091 0.020982226 0.08494238 0.16209272 0.108155996 -0.2746498 -0.05133864
0.0867706 0.15221442 0.3305143 -0.08451259 0.15180238 0.14956906 -0.06598299 0.080091275

actor_backbone.2.bias f4 [128]
00000000: 82ba 553d 091b 75bc a8d2 98bb 7753 213d
00000010: fc39 b33d 4a79 75bd 92ca e93c 4510 d73d
00000020: 624f cabc 9cb1 cabd 4b31 883d 6a96 a63d
00000030: 50b1 6c3c 80b2 783d 7487 c2bd 2726 37bc
00000040: 9e68 b73d d7dd af3c 3a27 b1bd 27c8 ef3d
00000050: 4c57 283d aecd 1e3d 8471 b73d afcd 1d3d
00000060: 222b ba3d de7a 283d bca3 d1bc 7ef6 733d
00000070: b565 173d 2ce5 00bc 8b07 00be 5bd3 a93c
00000080: e23c babb d2bd 393d f14e bc3d cb07 1a3b
00000090: e882 153d 58af fabd 17f2 c6bd c041 cabd
000000a0: 7f68 663d fe6f 95bd 2654 74bb a71b f13d
000000b0: 9fad 92bd 7ba0 86bd 3e72 adbc 5658 7d3d
000000c0: 6f27 a23d 625a 583d 2312 823c ac1d 803d
000000d0: 7ddb b63d baa2 423c f76d d03d 3a97 de3d
000000e0: 7ca0 c03d 1931 ad3d 897f 203d 9152 aabd
000000f0: bde4 c93d cc16 273c 10ea cfbc 74e6 c1bd
00000100: 36c7 b83c 972a 453b a0ba 47bd d934 c9ba
00000110: 0342 77bc 2bc0 613d 74c2 bd3b 71e6 8abc
00000120: 0c9d eabd 36e4 bebd d1d1 02bd f00b 86bd
00000130: 5f85 863d fb32 ddbb cd32 253c c26a 143c
00000140: f5a2 92bd ab53 cebd c57c 4fbd 2ed2 9dbd
00000150: eec4 20bc 79a0 7bbd e276 98bd 9f8d e6bc
00000160: 5403 a93d 67f3 043c 7c7b 063d 4902 713d
00000170: 9434 703d 18ff d1bc 808f bd3d ed63 b5bc
00000180: 6791 42bd 9e06 443d c0a6 f23d ad8f d53c
00000190: 8b1f 793d 61b6 2cbc 337c dc3c 3328 a7bd
000001a0: b3bf e6bd ec09 aebd 58c5 8ebd e318 8fbd
000001b0: fa36 88bd ab4f cb3d 8f46 c63d d303 933d
000001c0: 87fb 833c 32d9 b1bc d703 8dbb c1c8 f63c
000001d0: 89ca 8dbd 6dcd cc3d 938b aebd 54b2 d3bd
000001e0: 0f74 343d 6acb cbbd 6d11 e8bd 762c 09be
000001f0: aedf 003e ab78 a2bd 2702 d1bd 2b08 e7bd
0.05217982 -0.014960059 -0.004663784 0.03938624 0.08751294 -0.059930123 0.028538976 0.1050115
-0.024696056 -0.098971575 0.06650027 0.08134158 0.0144465715 0.060717106 -0.09498492 -0.01117853
0.08955501 0.021468086 -0.0865006 0.11708098 0.041098878 0.03877037 0.08957198 0.038526233
0.09090258 0.0411328 -0.02559077 0.059561245 0.03696223 -0.007867139 -0.12502877 0.020730665
-0.0056835273 0.045347042 0.091947444 0.002350318 0.036501795 -0.122404754 -0.09714144 -0.09875822
0.056252 -0.072967514 -0.0037281602 0.117728524 -0.07162022 -0.06573578 -0.021172639 0.06185182
0.079176776 0.05282057 0.015877789 0.062556595 0.08928583 0.011879617 0.10177224 0.10868688
0.0940561 0.0845663 0.039184127 -0.083165295 0.098580815 0.010198306 -0.025380164 -0.094677836
0.022555929 0.00300852 -0.048761964 -0.0015350833 -0.015091422 0.055114906 0.005791003 -0.016955586
-0.114557356 -0.093208715 -0.031938378 -0.06545246 0.06568407 -0.006750462 0.010082913 0.009058656
-0.07159988 -0.10074552 -0.0506561 -0.07706104 -0.009812577 -0.061432336 -0.0744455 -0.028143702
0.08252588 0.008114672 0.032832608 0.05884007 0.058643892 -0.025634333 0.09255886 -0.022142375
-0.047501948 0.047857873 0.11848211 0.026069487 0.060821097 -0.010541529 0.026914692 -0.08161964
-0.112670325 -0.08497986 -0.06971234 -0.06987169 -0.06651111 0.09927305 0.09681427 0.07178464
0.016111149 -0.021710012 -0.0043034363 0.030125024 -0.06923396 0.10000119 -0.085227154 -0.10336748
0.044055995 -0.099509075 -0.11331449 -0.13395867 0.12585327 -0.07933172 -0.10205489 -0.11280855

reward_backbone.0.weight f4 [128, 22]
00000000: c3e9 b93d 2fb5 9bbd 3ee0 0d3e b350 b63e
00000010: 3e14 323d 0822 58be de52 ba3d 4267 313d
00000020: 76da 273e a2ad c8bd af05 90bd 1ea6 d43c
00000030: 0274 263e b9c2 163d d9e5 b3bd 25e9 2c3e
00000040: fec7 2dbc 6b50 febc 6039 5e3c 9fb5 23bd
00000050: d709 433e 7306 0b3e 7430 d73d 7c54 80bc
00000060: 6d33 883d 7bb6 d03d b907 583d e0b8 1c3e
00000070: a6a1 83bd 4753 8dbd 0e04 013e 7c1f 1ebe
00000080: 6f9b f4bb 25c3 77be ce1a 4f3e 1317 67bd
00000090: 79b1 fabd 8c6c 82bd 5c16 413c 79f1 283e
000000a0: 4422 e3bd 6c82 37be 72e3 74bc 45f0 a33d
000000b0: fec1 e23d deb9 dcbd e9f3 a7bd 4589 78be
000000c0: 4eba 3e3c 00ff 1fbe 865d 07be e88a 4e3d
000000d0: 356d 81be 2333 0fbd 31cf 61bd 5489 9fbd
000000e0: 63dc 593e 190d c7bd 3267 c2bd 7219 523e
000000f0: 564c f4bc 8668 c4bd 60cf 6bbe 5be9 34be
00000100: e86f 823d ec05 67be 3666 8b3d 73dd a83d
00000110: cec4 2f3e 7259 68bd fcc2 103d 611e 363e
00000120: 548a ebbc af48 0d3c 2f57 74bd 38fc 723d
00000130: 4ba7 cb3c e9e7 fcbd 564c 623c edd6 18bd
00000140: 0324 a13b 5e8c a93d c96f a4bc 02c1 08ba
00000150: 3506 a2bd f6f4 58be b0e6 ab3d 2dc3 a5bd
00000160: 6ab8 053e 8509 3c3d a2d5 46be d99d 1abc
00000170: 2702 78bd cd7e 5cbd cc57 803d 631c 1e3c
00000180: cd9a dbbe 520d 24be 991b 2abe e4ef 34be
00000190: 65fe 323d f507 0f3e 2417 e53d 1400 a83c
000001a0: 84da 2b3e fda4 88be 19fa db3d ee0c 6abe
000001b0: 8338 723e fb9f 30bb 3109 af3d 4759 64be
000001c0: 5704 a33d da3a 853e 4762 67bd 404e 80bd
000001d0: f283 083e 6ced e23c 5928 823c f984 90bd
000001e0: c670 ce3d 231d 65bd d389 e7bd 4750 653e
000001f0: 460d 4d3e 29f3 473d 9a0e 653d 55bf 5fbd
00000200: e80c 833c bdb2 fc3d 9896 853e fe9a a53b
00000210: 35d4 833c e30e 943d a8c9 d43d e2b2 5dbd
00000220: 33f0 16bd 93ed 3cbe 99e4 fabd be40 2bbe
00000230: 2312 173e d7f4 663e 58d9 30bd 4d59 a8bc
00000240: 051c e7bd c7af e1bd 1619 783d e3bf 423d
00000250: d7b3 21bd 92cc 1fbd 2ada 08be e219 293e
00000260: 84d4 e63b 4bf6 4dbe 3aa1 b4bd 8781 653e
00000270: ae65 b2bc c7f4 2139 09a8 ab3c 55df 9f3d
00000280: a62b 07be 09cd 8f3e 736d 9a3e c5f6 18be
00000290: ae02 733c e381 c5bd d9e5 5a3e b59c 7c3c
000002a0: 43f9 38be 3e0f a7bd 9d2c ccbc 7363 00be
000002b0: aaa1 55bd 0239 27bd 5de5 09be 88e5 81be
000002c0: 8393 2cbc 2c74 de3c 943a 0ebe a7a3 6cbe
000002d0: c7ed 283e 6d8e c4bd e4e4 8a3d 10ed 00bc
000002e0: bc5e 8bbd 6215 edbd 4282 70bd e929 fdbd
000002f0: 3f2a 013e ebfe 2fbe 612f 6bbe c4b2 ffbd
00000300: 8a59 f53c 4960 c53d 550e b23e 7992 aa3d
00000310: 29c6 52be e562 7b3e f977 aebd ed58 63be
00000320: ccf3 7cbe 9f7b 253e 3c32 323e 3c6e 26be
00000330: a114 dabd 7d02 debd b2de d23c ed58 06be
00000340: 7e0e 213d bbad e5bd 176f 18be be08 0a3c
00000350: 3b65 ad3d adb8 5dbd 0c45 d53d dcbc 203e
00000360: 31aa adbe 22d2 8cbe ba8a 23be eacf 0d3d
00000370: b397 94be 08ee 82bb 7037 08bd a1cc f03d
00000380: 0694 663e fe8a a9bd 4376 8bbd 3e03 f93a
00000390: 07e7 a5bd e191 0fbd 824f a4bc e596 1f3d
000003a0: e4ae e5bd ea4c 0c3e a0e4 323e 2d7a 9dbc
000003b0: 0d88 083d c2ca abbd 5f18 293e 0e8f ac3e
000003c0: f973 c0be 0521 cdbd df86 ac3d 6722 c23b
000003d0: 16a7 14be deec 24bd e738 1e3c 4224 e93d
000003e0: ad8c 863d 86c6 97bc 36a9 e03b 1be1 1abd
000003f0: 7441 083e 62ed d33d 27f3 743d 026d a73d
0.0907779 -0.076029174 0.13855073 0.35608444 0.043476336 -0.21106732 0.09097837 0.043311365
0.1639193 -0.09798743 -0.07032334 0.025958117 0.16255191 0.036806796 -0.08784074 0.16885813
-0.010606764 -0.031044206 0.013563484 -0.03996813 0.19046722 0.13576679 0.105072886 -0.015665285
0.06650434 0.101910554 0.05274174 0.15304899 -0.06427316 -0.069006495 0.12599203 -0.15441698
-0.007464818 -0.24195535 0.20225069 -0.05641849 -0.122408815 -0.0636836 0.011785116 0.16498365
-0.1109052 -0.17920846 -0.014946805 0.08004812 0.11072157 -0.10777639 -0.08200819 -0.24271114
0.011641098 -0.15624619 -0.1321927 0.05042544 -0.2527863 -0.034960877 -0.055129234 -0.07789865
0.21275477 -0.09719295 -0.09492339 0.20517519 -0.029821556 -0.09590249 -0.23028326 -0.17667143
0.06369001 -0.22560853 0.068066046 0.08245363 0.17164919 -0.056725927 0.0353422 0.17785026
-0.028752483 0.008623286 -0.059653457 0.059322566 0.024860045 -0.12348921 0.013812145 -0.037314344
0.004917623 0.08278726 -0.020072835 -0.00052167487 -0.0791134 -0.21187195 0.083936095 -0.080938675
0.1305863 0.045907516 -0.19417432 -0.009437048 -0.060548928 -0.053831864 0.06266746 0.009650323
-0.4289154 -0.16020706 -0.1661209 -0.17669636 0.04369964 0.13967879 0.11186054 0.02050785
0.16782576 -0.26688376 0.10741062 -0.22856495 0.2365437 -0.0026950825 0.08546675 -0.22299682
0.07959812 0.26021463 -0.05649021 -0.06264925 0.13331583 0.027701102 0.01588838 -0.070566125
0.100801036 -0.05593599 -0.11305585 0.22393905 0.20024595 0.04881588 0.05592213 -0.054625828
0.015997365 0.12338779 0.26091456 0.005053877 0.0160924 0.07229402 0.103900254 -0.054125674
-0.036850166 -0.18450002 -0.12250633 -0.16723916 0.14753012 0.22554336 -0.043176025 -0.020550394
-0.11284641 -0.11019855 0.0605708 0.04754628 -0.03947815 -0.039013453 -0.13364473 0.1651378
0.007044377 -0.20113485 -0.08819814 0.22412692 -0.021777 0.00015445343 0.020954149 0.07806269
-0.13200244 0.28086117 0.30161628 -0.14937885 0.014832182 -0.096439146 0.21376742 0.015418221
-0.18063836 -0.08157204 -0.024923617 -0.12537937 -0.052156128 -0.04082585 -0.13466401 -0.2537043
-0.010533216 0.027155004 -0.13889533 -0.23109303 0.16496955 -0.09597478 0.06781939 -0.00786902
-0.068051785 -0.11576344 -0.058717974 -0.12361509 0.12613772 -0.17187087 -0.22967292 -0.12485269
0.029949922 0.096375056 0.3477656 0.08328719 -0.20583405 0.24549444 -0.08518977 -0.22201891
-0.24702376 0.16160439 0.17401975 -0.16252989 -0.10648466 -0.10840318 0.025740955 -0.1311986
0.03932046 -0.11214777 -0.14886127 0.008424936 0.08466574 -0.0541312 0.1041356 0.15697044
-0.33918908 -0.2750407 -0.15970889 0.03462211 -0.29021987 -0.0039956607 -0.033255994 0.1175778
0.22517404 -0.08278464 -0.06809666 0.0018998159 -0.081007056 -0.03505123 -0.020057444 0.038962264
-0.11214998 0.13701215 0.17470026 -0.019223297 0.033332873 -0.08388282 0.16513203 0.33702892
-0.3758848 -0.100160636 0.08424162 0.0059245112 -0.14516863 -0.040264957 0.009657121 0.11383869
0.065698005 -0.01852728 0.006856109 -0.037812334 0.13306218 0.103480116 0.0598022 0.081750885

reward_backbone.0.bias f4 [128]
00000000: 9ac8 e6bd c4ca 0fbe 1b92 f33d 251e 25be
00000010: 43a3 e43d efc9 dc3d a493 04be 8cd3 e6bd
00000020: 297f b8bd 06a5 d73d 6534 25be 618c 27be
00000030: a9dd 83bd c413 253e 5a21 073e 6d51 eb3c
00000040: e3cd 1fbe 86b3 d3bd 52c5 353e 04f3 1f3e
00000050: 55b7 4cbe 2263 343e d2f2 103e 736b d0bd
00000060: 85a8 01be dce6 39be eee5 16be 374f f0bd
00000070: bec1 5e3e 8703 14be ceff 30be 58a4 0ebe
00000080: e3cc 01be 7295 01be 4042 233e bc17 a43d
00000090: 1ae6 0a3e b5a5 0ebe a0e1 19be e63d 0fbe
000000a0: a398 06be 307b 103e 4d71 3f3e dc33 093e
000000b0: b8ba ee3d 7c9f 1c3e 3c07 ef3d 17b7 24be
000000c0: d937 503e 81fe 3c3e 3505 05be eb40 24be
000000d0: 4cc2 293e a8d8 0abe 0d2c 19be 8e7d f3bd
000000e0: 0823 0e3d 3114 153e 229c 19be 58e3 ff3d
000000f0: 148f fd3d c988 a13d 1413 283e 8f0f 27be
00000100: 83d2 483e 73b4 52be 557c ebbd 980d 0a3e
00000110: 2c40 25be bdfe 043e b738 493e c1df 27be
00000120: 802c 15be 0e5b 06be 0b4d c2bd 2e8c 11be
00000130: 8c7c 1a3e f99b 3cbe 4356 50be cb3f d7bd
00000140: 4047 fb3d cbff 2ebe 7323 273e 0bd0 01be
00000150: 1c95 273e 5087 223e 4a6e 193e 8586 23be
00000160: 646c 073e a0d2 f9bd 72a9 153e 1f07 243e
00000170: 5946 1c3e 3d4e e1bd 690d 2ebe d3ed 0abe
00000180: 770d 1bbe 3ebd 49bd fd4c 1c3e e545 f9bd
00000190: f609 febd fc00 963d e646 f8bd 06ec 323e
000001a0: 7f8f bcbd c7cc 343e 1a7f 063e a5f8 83bd
000001b0: e44b 0dbe 7ce8 3cbe b85f 2abe 4df3 e23d
000001c0: 7c88 023e cae8 b4bd ed38 0fbe 745a 353e
000001d0: 4b4f 213e ef4c 133e 0f73 213e 6e77 233e
000001e0: ca5b 09be 3853 e3bd 50a5 2abe e7cd f73d
000001f0: b1ec c93d 43c0 113e 107e 223e e823 283e
-0.112687305 -0.14042193 0.11893102 -0.1612478 0.11163952 0.10780703 -0.12946945 -0.11270818
-0.09008629 0.105295226 -0.16133268 -0.16362144 -0.06438763 0.16120821 0.13196316 0.02872535
-0.15605883 -0.10336976 0.17751053 0.15620047 -0.1999181 0.17615941 0.14155129 -0.10176744
-0.12661941 -0.18154472 -0.14736149 -0.11733859 0.21753594 -0.1445447 -0.17285082 -0.1392988
-0.12675814 -0.12654665 0.15943241 0.080123395 0.1356434 -0.139304 -0.15027475 -0.13988456
-0.13144164 0.14109492 0.18695565 0.13398689 0.116567075 0.15295213 0.11671302 -0.16085468
0.20333804 0.1845646 -0.12990268 -0.16040389 0.16578025 -0.1355921 -0.1495821 -0.11889182
0.034701377 0.14558484 -0.15000966 0.12494534 0.123808056 0.07887418 0.16413528 -0.16314529
0.19611554 -0.20576648 -0.11498324 0.13481748 -0.16137761 0.129878 0.19650541 -0.16393949
-0.14567757 -0.13120672 -0.09487351 -0.1421363 0.15086573 -0.18418874 -0.20345406 -0.105102144
0.12269449 -0.17089765 0.16322117 -0.12677018 0.16365474 0.1587193 0.14983478 -0.15969284
0.13224941 -0.12198377 0.1461542 0.16018341 0.1526121 -0.11001251 -0.16997303 -0.13567285
-0.15141855 -0.04925274 0.15263744 -0.121715344 -0.12404244 0.073244065 -0.12122898 0.17472848
-0.09207057 0.17656241 0.13134423 -0.064439096 -0.13798481 -0.18448061 -0.16638076 0.11081562
0.12747377 -0.088334635 -0.13986559 0.17710286 0.15752904 0.14384817 0.15766548 0.15963528
-0.13413921 -0.11099857 -0.16664624 0.1209982 0.098595984 0.14233498 0.15868402 0.16419947

reward_backbone.2.weight f4 [128, 128]
00000000: c411 c0bc 2a29 8abd 3a8b bc3d 2d24 bcbd
00000010: 37b3 50be fb8d d7bc 60e7 833c a9cf 823e
00000020: 5117 163e 3453 19be 291a 5c3d c17a edbd
00000030: 341c 3c3d 8185 69be c1b5 023e f20b 5f3b
00000040: 6a3a 723a 3fb7 bf3e 01cc 8a3d b127 a63c
00000050: 9fa3 c53c f5b9 4cbe 1803 753e 9829 02be
00000060: 960b 5e3e 036a c6bd fd69 afbd 83d7 483e
00000070: d184 18bd a6af a2bd 3821 823d afa8 69bd
00000080: 4775 723d a452 0c3e 29ab 67bd 8eec f5bd
00000090: a5ee a33c cb57 653e c4ea 79bd c107 983d
000000a0: d668 06be 1293 553d 686f b03d 6ab8 46be
000000b0: 4fd8 98bd b8ca f2bd 8c0a 83be fd32 f3bd
000000c0: 9ef3 c73d 3ef4 1bbe fb31 333e fb6a 823c
000000d0: fad2 a2bd 21f2 57bc 47e2 d93d 9d5b ab3d
000000e0: edc1 0abe f5fa 9fbe 6895 34bc ab9c 85bd
000000f0: 4131 033d 8301 72bd e34c 97be f07e 213e
00000100: a555 9c3d f61a aebd ce31 f7bd 8f81 d1be
00000110: 056b babd 0679 3bbd 5c5f 17be 7026 40bc
00000120: bc46 993e c4db b63d 86e5 ca3e 7dd3 0abe
00000130: 6a43 01bd 60f0 60be d2f4 47bd 51c5 333d
00000140: e782 2b3d 0a9e ab3d ba4d 6a3e b88e 093e
00000150: bd54 f2bd 7ace 46be f93b 90be 6453 cc3d
00000160: 5fe1 8c3e dad0 733e 43a7 50bd 18aa fc3c
00000170: 2e47 17be 19a4 803d a33c 403e 449a 04bd
00000180: f75d 003e 4abd ffbd 44fe f13d be89 803d
00000190: f6aa ac3b 781b 30be cb59 e73d c7d8 ae3d
000001a0: f6a1 9d3d 4248 edbd 4ca4 4cbd b0c6 24bd
000001b0: 29e5 09be 3f4c c63c 3196 043e aad0 18be
000001c0: 25b9 cebd 79ea a4bd 2bb7 ba3d 762a b33d
000001d0: 3e63 aabd df4c 01bc f652 c0bc b8d5 363e
000001e0: 9f25 dabd 867a 3f3e c25f 223d 27b1 17bc
000001f0: a19e 46bd b1a3 433e dc00 dfbd e484 aebe
00000200: c732 0abd e2c3 d9bd 6f09 233e 2b44 05be
00000210: 189a 223e e723 a73d 0515 48be 063b 28bd
00000220: de1f 3b3e 2391 e0bc 1109 53be 7c8c 033e
00000230: a387 0f3d 9421 e73d f410 67be 559a 323d
00000240: e1c6 93bd 1173 063e 8a2a c13d 0826 5a3e
00000250: 332e 40be 8a45 833e a759 a8bb c96f 2abd
00000260: 7118 70be 0bd9 913c bb16 61be eacc 91bc
00000270: 3bd2 39be 4321 283e 4cb5 f53d 7120 6d3e
00000280: 38d5 a0be 798b 113e 73cb 6abc 9264 1e3e
00000290: 752b 27bc b92b d5bd 9041 cb3d 37f8 d43e
000002a0: 5a9d 82ba ca22 4bbe 24eb 93bd b23d 723b
000002b0: 67e4 2f3d 1742 f73b 27e4 2c3d 6687 a03c
000002c0: 9231 913e 7833 18be e6fb dfbd 367f d0bd
000002d0: 4a74 81bb ddd3 50be 12eb 40be 7cc8 bebb
000002e0: 15a6 e03d a11c 063d f88a 31be eb3c 3a3e
000002f0: e0e7 653e d6f4 483e e6d1 cc3c 7d2f a13e
00000300: d45e c8bd f7ed ca3c 3b65 0e3e 39d5 1f3e
00000310: 645f 393e 40e0 1d3e 0e36 6abe fafd f53c
00000320: 6ab7 82be afda 96bd 2314 f4bc 8ccb 43be
00000330: ce7a e63c c279 643d c417 763d fb72 f5bd
00000340: ae7e 523e f0b6 923d e5ee a7bd c920 f33c
00000350: bbe3 653e 86ca 343d 7a15 a23d 8def 5dbe
00000360: 6748 063e efa3 4bbe 6836 5cbe b652 c43d
00000370: 5865 173d 6abc 023e 2fc6 c2bd e48d 283e
00000380: cfd3 9bbc fb99 35be 2771 fd3d 08fd b5bd
00000390: 0966 48be ab63 063d 3e82 7d3d d85a 6ebd
000003a0: 137e a3bd e513 20be 4036 f4bd 5879 cf3c
000003b0: 1fd9 cc3d 9129 413e 9bb7 85bd 4281 933e
000003c0: 3571 8d3e 9441 473e 5046 9f3d b00c d8bd
000003d0: b538 d93c a0b5 c53d 8fc6 953e 2c71 243e
000003e0: 261c b4bc 7760 503d 98e7 323d b7dd fe3d
000003f0: 897b 1cbd 92d6 933d d8b3 673d a478 d93d
-0.023445971 -0.06746133 0.09206243 -0.091865875 -0.20380865 -0.026312819 0.01610154 0.25549057
0.14657332 -0.14973146 0.053735886 -0.11595679 0.045925334 -0.22804834 0.12764646 0.003403422
0.0009240272 0.37444493 0.06777192 0.020282598 0.024125872 -0.19992812 0.23926961 -0.1271118
0.21684107 -0.09688189 -0.085651375 0.19613461 -0.03723604 -0.079436585 0.06353992 -0.057045635
0.059193876 0.137034 -0.056559715 -0.1200801 0.020011256 0.22396772 -0.061014906 0.07423354
-0.13125929 0.05214221 0.08614999 -0.19406286 -0.074631326 -0.11855072 -0.25593984 -0.118749596
0.09763263 -0.1522989 0.17499535 0.015920153 -0.07950397 -0.013180287 0.10638862 0.08367083
-0.1355054 -0.31246153 -0.011021949 -0.06524023 0.032029394 -0.059083473 -0.29550847 0.15771079
0.07633523 -0.08501236 -0.12070046 -0.40919158 -0.091024436 -0.045769714 -0.1478247 -0.011727914
0.2993678 0.08928636 0.39628237 -0.13557239 -0.03155843 -0.21966696 -0.048817463 0.043889347
0.041872885 0.08379753 0.22881213 0.13433349 -0.11832569 -0.19414702 -0.28170756 0.09976843
0.27515694 0.2381014 -0.050940763 0.030842826 -0.14773247 0.06281299 0.18773131 -0.03237368
0.12535845 -0.12487276 0.118160754 0.06276272 0.0052694036 -0.17197978 0.112964235 0.08537441
0.07696907 -0.11586048 -0.049961373 -0.040228546 -0.13466324 0.024206279 0.12947918 -0.14923349
-0.10093907 -0.080525346 0.09116968 0.08748333 -0.0831971 -0.007891863 -0.023477059 0.17854965
-0.10651707 0.18699083 0.039642103 -0.009258545 -0.048491124 0.19105412 -0.10888836 -0.34085763
-0.03373983 -0.10633065 0.15921567 -0.13014285 0.15879095 0.08161145 -0.19539268 -0.041071914
0.18273875 -0.027412957 -0.20608927 0.1284656 0.035041463 0.112857014 -0.22565061 0.043604214
-0.072156675 0.13129832 0.09431942 0.2130357 -0.18767624 0.25638992 -0.0051376405 -0.041610513
-0.23446824 0.01780369 -0.21981327 -0.017797906 -0.18146603 0.16418938 0.1199747 0.23156907
-0.31412673 0.14213361 -0.014330733 0.15468052 -0.010203232 -0.1040873 0.099246144 0.41595623
-0.0009965107 -0.1983749 -0.07222584 0.0036963043 0.04294243 0.0075457203 0.04220977 0.019595813
0.28358132 -0.14863384 -0.10936718 -0.101805136 -0.0039506303 -0.2039332 -0.18839672 -0.0058222394
0.10969178 0.032742146 -0.17338169 0.18187301 0.22451735 0.19624647 0.025002431 0.31481543
-0.09783712 0.024771674 0.13905804 0.15608682 0.18102795 0.15417576 -0.22872183 0.030028332
-0.2553056 -0.07365929 -0.029794758 -0.19120616 0.02813473 0.05578018 0.06008126 -0.119848214
0.20556137 0.07163799 -0.081998624 0.02967872 0.22450154 0.044138454 0.079142526 -0.21673413
0.13113557 -0.19886754 -0.2150513 0.09586088 0.036961883 0.12767187 -0.09510457 0.16460377
-0.019021897 -0.1773452 0.12375098 -0.088861525 -0.19570173 0.032809895 0.061891787 -0.058192104
-0.07983031 -0.15632589 -0.1192441 0.025326416 0.1000235 0.18863513 -0.065291606 0.28809553
0.27625433 0.1945861 0.07777083 -0.10549295 0.026516298 0.09653783 0.2925305 0.16058797
-0.021986078 0.050873246 0.043677896 0.124446325 -0.03820375 0.072186604 0.056567997 0.106187135

reward_backbone.2.bias f4 [128]
00000000: 271b 81bd 5fd0 583d 98c9 8c3d 0e00 af3b
00000010: 4cb5 f53d 97e2 89bd 0e76 bb3d 591c 133e
00000020: e224 ddbc 99de 143e c586 ebbd d14d 0ebe
00000030: 7fe9 ef3d 78e7 0f3e 5c65 f73d dd37 d03d
00000040: 5bc0 cbbd 4b41 243e b644 da3d 52f6 2bbd
00000050: 6479 de3d 9325 b9bd cd8d d73d f3f3 e83d
00000060: 2c67 d63d 57db 97bd e8fd c4bd 1662 c6bc
00000070: 2e50 b43d e179 be3d 64cf 2d3d 363a b0bd
00000080: a5c8 ddbd 34d4 34be c36e f7bd 93b6 fcbd
00000090: 55f3 fc3d a98f aebd 8d94 a7bd 7532 c1bd
000000a0: de90 ea3d cf67 e33d 6e00 fc3d d753 59be
000000b0: 4891 c2bd afea 243e 4d01 c83d 4656 c9bd
000000c0: 6d90 263e d706 c4bd 7aa6 033e e2fe d8bd
000000d0: 29cf ddbd fb88 03be 2988 2d3e d7df d83d
000000e0: 63d7 90bd 4df3 b7bd 5dee 933d c6c4 0bbe
000000f0: b150 aa3d 1d8d 3a3e bb44 e3bd 91da b93d
00000100: e951 203e 116a a5bd 05b5 d3bd 291d 2c3e
00000110: 62b0 c4bd 791f 30be f1ba 173e a3f3 d0bd
00000120: 9bda 20be eb5b d2bd e860 c53d e110 f8bd
00000130: 66ca b6bd fda0 d2bd e6d9 003e 0642 a8bd
00000140: 8cb5 a0bd 157a 093e 873a e5bd 1ebd d13d
00000150: 75a0 6f3d 041d 093e 311b d0bd 38d0 123e
00000160: f13b d6bd 2522 cf3d 72ec f43d c26d f13d
00000170: 124f f53d 331d 0bbe 05ab ed3d 366f 9b3d
00000180: e4a0 b7bd 1f22 f33d caec 293e 7d08 e33d
00000190: 37a2 b6bd 05e4 b33d cf80 abbd 1b16 fb3d
000001a0: 3567 d53d 72ab 233e 48c0 9e3d 0967 e9bd
000001b0: 63a4 a23d 89ee 22be 97d5 123e e347 c43d
000001c0: 61ee c93d 17c5 b3bd 5048 41bd 8430 fb3d
000001d0: 2203 803d 4494 2dbe f568 7e3d c783 a23d
000001e0: 2608 abbd 6790 d63d 7eca 00bd 7166 8f3d
000001f0: 5729 c93d 383c f4bd 2ad1 fb3d f1af d5bd
-0.06304007 0.052933093 0.068743885 0.0053405827 0.1199747 -0.06732672 0.091533765 0.14366283
-0.026995126 0.1453804 -0.115003146 -0.13896872 0.11714458 0.14053142 0.1207988 0.10166905
-0.09948798 0.16040532 0.10657637 -0.041982956 0.10862997 -0.0904037 0.10525093 0.113746546
0.10468897 -0.07414883 -0.09618741 -0.024216693 0.088043556 0.0930059 0.04243411 -0.08604853
-0.108292855 -0.17659074 -0.12081673 -0.12339511 0.123510994 -0.08523495 -0.08182631 -0.09433452
0.114534125 0.11103784 0.123047695 -0.21223389 -0.095003664 0.1610515 0.09765873 -0.098309085
0.16266032 -0.09571617 0.12856475 -0.1059549 -0.10830528 -0.12845223 0.16946472 0.10589569
-0.07072332 -0.08981953 0.072231986 -0.13649282 0.08316172 0.18217893 -0.11097094 0.09074891
0.15656246 -0.08076871 -0.10337261 0.16807999 -0.09603955 -0.17199506 0.14817406 -0.1020272
-0.15708391 -0.10271438 0.09637624 -0.121125944 -0.08925323 -0.10284612 0.12583122 -0.08215718
-0.07847127 0.13425477 -0.11192804 0.10241149 0.058502633 0.13389975 -0.10161436 0.14337242
-0.10460652 0.101139344 0.11959161 0.11788513 0.11977972 -0.13585357 0.11604885 0.07589571
-0.08966234 0.118717425 0.16594234 0.110856034 -0.08917659 0.08783726 -0.08374178 0.12260076
0.10420076 0.1598337 0.077515185 -0.113966055 0.079415105 -0.15911306 0.1433929 0.09584024
0.0985992 -0.08777826 -0.047188103 0.12265113 0.062505975 -0.1695109 0.062111814 0.07935291
-0.083511636 0.10476761 -0.03144311 0.07001961 0.09822338 -0.11925548 0.12295754 -0.10433949

cost_backbone.0.weight f4 [128, 22]
00000000: c5e2 0f3e a95d 163e d601 e0bc 796f a23e
00000010: 6873 143e 9194 223e 4f4a 083e 7afb d7bd
00000020: 257e 20bd 6814 be3d a627 8abe 38fd 343e
00000030: a3d7 acbc 3cb2 993d 75ed b7bd 1306 86bd
00000040: 32f3 a1bc fdfc 9a3c 7940 1e3e 64ef 923d
00000050: 85db 1a3e a529 ca3d c0be 3e3e 63fa 8f3d
00000060: a051 083c 15e5 1bbd 4e89 e6bc ddc4 d1bd
00000070: e9d1 fe3c 66e4 bd3d 9ae9 90bd 256a d03d
00000080: 3fb8 85be b467 e5bc 69c8 123e b2cd 01be
00000090: 98e4 2c3c a154 753d 4a04 94bd 6e08 8dbc
000000a0: 6e35 8e3d b0e5 aabd 3ef4 f23d fa00 2a3e
000000b0: 15d9 123e bc1e 84bc abd2 e7bc 4177 a3be
000000c0: f8b4 9db9 b0fa a2bd 142d 62bb 97c7 d8bd
000000d0: c786 99bd 123b a6bc 39df 36be 47a5 4fbd
000000e0: 8ae7 b2bd a257 283e 4417 2fbc 0bca c93d
000000f0: 9d19 843c 38f5 d63c a284 7a3d 1f3e 00be
00000100: 4578 8d3d 36f7 893e f9b6 cb3d 82d0 8b3d
00000110: dfcc 87bd a135 b5bc f1e5 783e 8bcb f0bd
00000120: 654f a0bd dd42 8a3d 7f8b 8abd afb4 83be
00000130: 33fa a93d 907f b1bd 08fa 02bc c088 ad3c
00000140: d3a4 48be fd13 c0be eba1 d2bc 3d3d 5b3e
00000150: f4a6 b03d 463b 1ebd 944e 2cbe 750c 183e
00000160: a934 5e3e 98b3 5f3d 2120 e9bd 1f72 74be
00000170: 1d3b 4e3c 3007 df3c c684 0e3d f6db 74be
00000180: 3eab 02be d0d2 2cbd b2b8 34be ba8d 80be
00000190: db49 95bd 33e0 e63c a6f1 32bd 63c7 d0bc
000001a0: 3d7a 0cbc b988 fe3d 8f65 793e 5fc5 afbd
000001b0: 8e5e 53be 70d3 30bd fd17 b6bc 51c1 c6bd
000001c0: e02f c33d 5d66 383e 81cb ebbd 15b1 73bc
000001d0: 932c 51bd 13aa a83d 1db1 84bd 81b0 e23c
000001e0: fb51 dfbd 647c 7abd 6280 0cbe 3791 ec3d
000001f0: 731a 6e3c 5d44 1cbe 244f 92bd 5556 513e
00000200: 6630 e03c 06fb 0e3e 6d07 d2bd 3e1a 473e
00000210: 58cc f7bd e792 4cbe 1fe0 abbd 0ffb 993c
00000220: 31a1 90bc 1857 ad3c 60de d9bd 89b0 383c
00000230: 7960 12bd 7dbd 03be 1010 b4ba 5088 733d
00000240: bafd b43b 381a 0c3e 8852 2e3e 527a 063d
00000250: cbe3 93bd fcb9 823c 0ef2 e7bd 1b24 0bbe
00000260: e205 773d bf57 7ebe 8659 3d3e 0d8c c2bd
00000270: cb58 3dbd 7515 95bd 5513 86bd 9aa6 f7bd
00000280: 4945 cebd 812f f4bd 8bdd e43d 0ac1 59bd
00000290: 6a74 88bd ee67 87be 1424 5f3d e8f3 233e
000002a0: a567 8b3d 5a7a c3bd fc94 e83d f39f 2d3d
000002b0: 1b34 693d ef32 c73c 47c8 b9bd 451a a8be
000002c0: 5c03 20bd 12aa 3dbe ccf3 c73d 46a9 4fbe
000002d0: c736 313e b86e 1abe 82d2 d4bd 07eb 9b3b
000002e0: 9480 78bc c934 3e3e 22cb c03d e8bd 4e3e
000002f0: 0f71 fc3b 463a 343d 0b5f dabd 8e91 f83c
00000300: e7c8 093e 467a 45bc 001f 0d3e e629 263e
00000310: e508 03be bda8 c5bd 89bd b5bd 9d42 38bd
00000320: efdd 54bd c6ad 883e 9605 23be ba2b e0bc
00000330: 0265 98be 37db 0c3b 6cde d0bd cc26 05bd
00000340: 0c21 973d 09f0 ae3a 6733 6fbe a7d7 423c
00000350: 8287 fb3c 2dee 2bbe f5c5 e7bc b47b e1bd
00000360: 51fd b33d f893 0a3e 5921 a8bd 7515 6dbe
00000370: 8053 a6bc 0073 f7bd bf11 87bd dc71 dfbd
00000380: 9f93 8ebe e3df 9ebd 9780 cf3d e6bd 9b3d
00000390: 1995 e53c 4516 aebc 6079 3fbe f0ab 403d
000003a0: 6ef5 7d3c ca33 4fbe 1306 0dbe 5316 a03d
000003b0: 2b71 a53d a625 dc3e 74b4 1f3e 7381 c0bd
000003c0: a935 ae3d aeb8 b53d aad6 87bd 21ed d7bd
000003d0: 9c4c 703e f494 54be 7d15 e03d cbaf 953d
000003e0: e044 0d3d 7307 b53c 5aac ad3c 6fe5 543d
000003f0: 3478 a03a bef7 0fbe 6b74 96bd 299e 1c3e
0.1405135 0.14684166 -0.027344625 0.31725672 0.14497149 0.15876986 0.13309596 -0.10546012
-0.0391828 0.09281236 -0.26983374 0.1767472 -0.021098917 0.07504699 -0.08980838 -0.06544127
-0.019769285 0.018919462 0.15454282 0.071745664 0.15122803 0.09871224 0.18627453 0.07030179
0.008320242 -0.038060267 -0.028141644 -0.10242627 0.031105952 0.09272079 -0.07075806 0.101764955
-0.2611713 -0.028003551 0.14334263 -0.12676123 0.010552548 0.05989516 -0.072273806 -0.017215934
0.06943785 -0.08344591 0.11862992 0.16601935 0.14340623 -0.016127937 -0.028298697 -0.3192692
-0.00030080206 -0.07957971 -0.0034511732 -0.10584944 -0.0749641 -0.020291839 -0.1785859 -0.05069473
-0.08735569 0.1643968 -0.010686699 0.0985299 0.016125495 0.026239976 0.061161645 -0.12523697
0.06907705 0.2694642 0.09947009 0.06826879 -0.06630873 -0.022120299 0.24306466 -0.11757573
-0.07827643 0.067510344 -0.06764888 -0.25723788 0.08299675 -0.08666909 -0.007994182 0.021183372
-0.19594125 -0.3751525 -0.025711974 0.2141008 0.08625594 -0.038630746 -0.1682685 0.14848502
0.21699776 0.054614633 -0.11383081 -0.23871659 0.012587336 0.027225107 0.03479459 -0.23912033
-0.12760636 -0.042193234 -0.1764858 -0.2510813 -0.072894774 0.028183078 -0.043687485 -0.0254857
-0.008574066 0.124284215 0.24355148 -0.085825674 -0.20641539 -0.043170393 -0.022228235 -0.09704841
0.09530616 0.18007798 -0.11513425 -0.014873763 -0.0510679 0.08235564 -0.06479094 0.027672054
-0.109043084 -0.061153784 -0.13720849 0.11551135 0.014532673 -0.15260454 -0.07144001 0.2044309
0.027366828 0.13962945 -0.102553226 0.19443604 -0.12099522 -0.19977914 -0.08392357 0.018796472
-0.017654987 0.021159694 -0.10638118 0.011272558 -0.035736535 -0.12865253 -0.0013737697 0.05945617
0.0055234106 0.13681877 0.1702367 0.032831497 -0.072211824 0.015957825 -0.11325465 -0.13587992
0.060308345 -0.2483816 0.18491182 -0.09499369 -0.046227258 -0.07279483 -0.06546656 -0.120923236
-0.10071809 -0.11923123 0.111750685 -0.053162612 -0.06662829 -0.2644648 0.054477766 0.16011012
0.06806878 -0.09544821 0.113565415 0.042388868 0.056934457 0.02431628 -0.09071403 -0.32832542
-0.039065704 -0.18521908 0.097632974 -0.20279416 0.17306052 -0.15081298 -0.10391714 0.004758242
-0.015167374 0.18574823 0.094137445 0.20189631 0.0077039073 0.044000886 -0.10662659 0.030342843
0.13455544 -0.012053078 0.13781357 0.1622692 -0.12796362 -0.09651325 -0.088740416 -0.044985402
-0.051969465 0.2669508 -0.159201 -0.0273646 -0.29764563 0.0021492967 -0.101986736 -0.032507703
0.0737935 0.0013346683 -0.23359452 0.011892236 0.030704264 -0.16790076 -0.028292635 -0.110099226
0.08788551 0.13533008 -0.082094856 -0.23152716 -0.020303488 -0.120824814 -0.06595182 -0.10910389
-0.27847 -0.07757547 0.101319484 0.0760458 0.028025197 -0.021250853 -0.18698645 0.047038972
0.0155004095 -0.202346 -0.13771848 0.07816758 0.08078226 0.42997473 0.15596181 -0.093996905
0.085063286 0.088731155 -0.06632741 -0.105432756 0.23466724 -0.20759946 0.109415986 0.073089205
0.034489512 0.022098279 0.021200348 0.051976617 0.0012242855 -0.1405935 -0.07346424 0.15294708

cost_backbone.0.bias f4 [128]
00000000: f3b9 773d 7ba4 c43d 8a79 8cbd afa4 0dbe
00000010: 1712 08bd 97af 383d c8f6 5e3d 1922 aa3a
00000020: 2720 a63c f5a0 353d 9164 5bbd 6da9 4e3d
00000030: caf2 863d 2bb4 e4bc a3f5 483d b04e 3a3d
00000040: fcc0 fa3c 14e3 323d 1706 50bc c9c0 0ebd
00000050: e7dc fbbc 2e11 ff3c 1844 d2bc 12c1 173d
00000060: 606b 673d d1da 883d 1d59 af3c b08a f3bd
00000070: ae21 45bd e8a4 b13d e2b5 5f3d 9b3d 22bd
00000080: c021 4bbd 5e1f 28bd 57f3 47bd 6fd3 febd
00000090: 353c 773d 8a10 0c3d 4a12 51bd 004c 51bd
000000a0: babd 5e3d bd26 a1bd 98e1 64bd 5180 4c3d
000000b0: 652e 593d 5167 043d 111f b6bc 50ab 513d
000000c0: 3f12 e2bb b3fc 853d d964 89bd 30af 4c3c
000000d0: 3cf3 173d c452 06bd 131d 8e3d 3fe6 94bd
000000e0: 287a 04bd eae2 34bd ec59 9fbd ade0 ba3d
000000f0: 8eb8 14bd 1930 863d 7267 20bd bf1e 803d
00000100: 2fc7 863d 8569 783d f3f6 64bd e008 f63c
00000110: da0d 893d 236a ac3b 91f1 4cbd 1363 573d
00000120: ce9d 823d f410 ddbc 8c19 99bd 433c 5b3d
00000130: 120c 3f3d 259f b1bc 7f57 fb3b 3a58 b43d
00000140: 9514 103d 4cb9 62bd 9707 ab3d 045b 873d
00000150: ebce ed3c 091c 543d db71 e2bd a12e db3c
00000160: 583b 183c 4b2b 793d eccf 6bbd 5340 153d
00000170: e482 223d 6094 5cbd c191 47bd b0f5 6fbd
00000180: a0cf 4a3d 5f65 85bd a2fc 20bd 31fe 993d
00000190: 077e 6f3d 0051 373d 7e94 44bd 7d27 9f3d
000001a0: 7c0c 5c3d 7e27 deba 7c6f 273d 396c 2d3d
000001b0: f8a9 973d 59f5 05be a7e1 45bd 1e64 653d
000001c0: cf8f 203d 901d 33bd 3fc7 083d 8f23 59bd
000001d0: 3484 52bd 456f a6bd d9ea 9c3d 64b1 3dbd
000001e0: 434a 1f3d e521 ca3d ed81 bd3c 8038 433d
000001f0: 1e33 563d 5c44 e13c 1197 493d b1cd 353d
0.06048007 0.09601685 -0.06859119 -0.13832353 -0.033220377 0.04508933 0.054434568 0.0012980133
0.020279003 0.044342954 -0.053562704 0.050454546 0.06589277 -0.027917942 0.049062382 0.0454852
0.0306096 0.04367359 -0.012696764 -0.034851823 -0.030744983 0.031136122 -0.025667235 0.03704936
0.056498885 0.06682361 0.021404797 -0.11891687 -0.048127823 0.086740315 0.054616816 -0.039609533
-0.049592733 -0.04104554 -0.04881605 -0.124426715 0.060360152 0.03419546 -0.051042832 -0.05109787
0.054380156 -0.07868717 -0.055879205 0.04992706 0.05302276 0.032325093 -0.02223161 0.051188767
-0.0068991478 0.06542339 -0.06708688 0.01249294 0.0370972 -0.032793775 0.06939139 -0.072704785
-0.03234306 -0.044161715 -0.07780823 0.09124885 -0.036308818 0.06552143 -0.039161153 0.06255864
0.0658096 0.060647506 -0.05589957 0.030033529 0.06692095 0.005261676 -0.050035063 0.05258472
0.06377755 -0.026985623 -0.07475576 0.053524267 0.04664237 -0.021682331 0.0076703425 0.088058904
0.03517588 -0.055352494 0.08351057 0.06609157 0.02902933 0.05178455 -0.110568725 0.026755633
0.009291492 0.060832303 -0.057571337 0.036438297 0.03967561 -0.05385244 -0.048722986 -0.058583915
0.049514413 -0.065134756 -0.03930343 0.07519186 0.0584698 0.044754982 -0.047993176 0.07771204
0.053722844 -0.0016949025 0.040877804 0.042339537 0.07405466 -0.13081874 -0.048310902 0.056003682
0.039199647 -0.043729365 0.03339314 -0.053012427 -0.05139561 -0.08126692 0.07661981 -0.04631175
0.03888918 0.09869746 0.023133243 0.047661304 0.052294843 0.027498417 0.049216334 0.044385616
