outputs/E1_penalty_fixedlambda_sweep/penalty_seed0_EB0.10_LB0.05_lamE1.0_lamL0.5/best_feasible.pt (torch, 982067 bytes, 68 tensors)

actor_backbone.0.weight f4 [128, 22]
00000000: 0ba7 01be d938 8a3c 3673 953e 6045 b03c
00000010: f96d d2bd 68c3 19bd 4bb3 91bd fa7d 1f3d
00000020: 766e efbd c511 0e3e b1ed f9bc d644 2dbe
00000030: 080d 053d 4a20 dc3d c5f4 04be 224d d93d
00000040: 9a97 bbba 76a2 71bd e032 043e 37b8 e03d
00000050: f537 903e ab9d 5dbe b092 d6bc d625 673e
00000060: 61a3 47be 82bd dfbd e4cd 16be 5e3b 153d
00000070: d5b9 373d d1b3 d4bd 8913 663e c132 b23d
00000080: f4d1 5c3e c818 fbbc 186c 4fbe 1aa4 623b
00000090: 54cc 263d e9d5 f03d 70b6 1cbc 25fc 993b
000000a0: 5894 febc 7f17 fdbd 8836 393d 2344 053e
000000b0: d822 cfbd 7a86 a73b d454 a7bd 6283 5c3d
000000c0: 3990 84bd 5e7b 0bbd 39fb 4fbd c4ef 263d
000000d0: a8f6 413d 8920 bc3b 4b2c e8bd a4ef 893c
000000e0: 127b a53d 1894 153d 8e8f 513e cd32 26bd
000000f0: f279 5fbe df5a 563d d200 0bbe 1fef ee3b
00000100: 333b d23e cb29 82bd 61bf b9bd ba77 ac3e
00000110: 40f8 86bc f60d 06be 7c2b 35bd ea8a aabd
00000120: 74f7 60bc 420d e53d f8fc 10be 50a9 b23d
00000130: 5ca6 10bd 4df7 15be a2de 9cbc 4f59 5a3e
00000140: 62d9 d7bb 77b5 42bd 3e25 953d 8d15 52bc
00000150: 978f 3f3d c0e9 1e3e 8a07 97bd 2c0b 4d3d
00000160: eb88 dbbe a102 29bb 6f1d 953e 374b 37be
00000170: 4ba5 e33d 2c89 18bb 2d06 56be c65d dc3d
00000180: b3e8 6f3c 0ef5 6f3d d7cc b0bd 9c3b 7b3b
00000190: 8f1c d4bd 1705 083d f407 073e b7cc 93bd
000001a0: 9620 813d dc11 053d b270 c2bc d248 f0bd
000001b0: d2f8 683d 35eb c6bd 1e0e dcbc d904 94be
000001c0: d18c fa3d 1fed a53d b513 d23d 67b9 533c
000001d0: a87d ccbd 5972 a1bd cc2b 0bbd 6224 9cbc
000001e0: be90 153e 1ddd fabd fdd9 f5bb c43b 223e
000001f0: 0efa 75be 23d5 f6bc 9d03 34be e1cd b8bd
00000200: f2ea e5be a64d 553d 3124 033c 691d f23d
00000210: a870 40be ac41 c5bd daa8 92bc d454 5e3c
00000220: 8ec5 0dbe bfc1 45be b93a 913d 2c86 e7bd
00000230: f169 923d 0e9b 92bd a732 10be 57f1 3b3e
00000240: 0538 4fbc e891 3ebe 065f 453c 0ee4 2a3e
00000250: d693 783e 91d2 26bd ade9 46be 6b64 7e3c
00000260: bf0f 923e 3b94 85be 49a2 6d3e 5ebb b2be
00000270: e6d2 8e38 22e6 1f3e 49a3 123c 3edb 28bd
00000280: ab93 96bd ce07 88bd b1e7 a1bc fc2f b43d
00000290: c2ee 18be 9fc9 63be 8a81 a03d 6895 75bd
000002a0: b03f 533e 5964 21bb f14a 8abd 01f1 f73d
000002b0: df12 5a3d c2f6 263e 7f7c 893d 3257 aa3d
000002c0: 5fbc 1b3f a83b 083c 936b bd3d a7ed dabc
000002d0: 8d01 1fbe 8640 ec3d b0bf 0fbe 6597 f93d
000002e0: 31f1 4cbb 2ef6 6cbd dab2 bc3d 748f 24bc
000002f0: d2ec 33bd 4398 d6bc 16a6 4dbd c644 ebbc
00000300: 39b0 5cbd 021e 9a3d 7676 923d b81d 973d
00000310: 3a87 8e3c da6b 993e 1707 8ebe de6a 6abe
00000320: bd40 3f3e 89e5 9d3d 2be4 c83d 7790 93bd
00000330: 0250 a93c 180c 663c ace7 593d eef8 7dbe
00000340: 3286 7b3d 0a7d be3d feeb 313c f0d7 0d3d
00000350: b963 30be 6545 5ebc fddd 71bc 7b29 72bd
00000360: a60b 27be 4430 3b3d 833f 673e 0b9b b8bd
00000370: d791 b93e b39d 04be d1ba b0bd 9b48 653d
00000380: a4f1 4cbb 95de 17be 4121 6dbb c41d d23d
00000390: 08a0 debd 022f 1c3d 7fc8 093e f561 3ebd
000003a0: 81a0 a23c 65f3 cbbd 3126 b6ba dc97 e8bc
000003b0: 2df0 a9bc 6a52 a1bd edca 643e 4ab4 143a
000003c0: b806 083d 9a1b e73d 8859 e43d 67a4 a23e
000003d0: f6b1 88bd a429 80bc 43c1 10be d90d c63d
000003e0: 076b 89bd da63 14be 5820 28bd 0770 b3bd
000003f0: 8add 323d b601 edbc 3610 d5bc e644 15bd
-0.12661378 0.01687281 0.2918946 0.021517456 -0.10274882 -0.03753987 -0.071142755 0.0389385
-0.116909906 0.13873966 -0.030508848 -0.1692079 0.03248313 0.10748346 -0.12983997 0.10610415
-0.0014312149 -0.058992825 0.12910032 0.10972636 0.28167692 -0.21642177 -0.026192993 0.22573027
-0.19495918 -0.109248176 -0.14726979 0.03643357 0.044854958 -0.1038586 0.2246839 0.08701087
0.21564466 -0.030651465 -0.20256078 0.0034582675 0.040722206 0.1175955 -0.009564981 0.0046992474
-0.031076595 -0.12357997 0.04521802 0.13014273 -0.10114068 0.0051124664 -0.081704766 0.053836234
-0.06472821 -0.0340532 -0.050776694 0.040756002 0.04735437 0.005741183 -0.11336573 0.016837902
0.080801144 0.036518186 0.20464918 -0.04057579 -0.21823862 0.052332755 -0.13574532 0.007291689
0.4106079 -0.063556276 -0.09069706 0.33685094 -0.016475797 -0.13091263 -0.044230923 -0.08327277
-0.013730872 0.11184169 -0.14159 0.087237 -0.035314903 -0.14645119 -0.019149128 0.21323131
-0.0065871933 -0.04753634 0.07282494 -0.012822521 0.046767797 0.15518856 -0.07374485 0.050059482
-0.42877898 -0.002578892 0.2912402 -0.17899786 0.111155115 -0.002327512 -0.20900793 0.10760073
0.014642882 0.05858331 -0.0863282 0.003833509 -0.103570096 0.03320798 0.13186628 -0.07216781
0.063050434 0.032487735 -0.023735378 -0.11732639 0.05687792 -0.09712831 -0.0268622 -0.28909948
0.1223389 0.08101868 0.10257665 0.012922621 -0.099849045 -0.07883138 -0.033977315 -0.019060317
0.14605996 -0.12249205 -0.007502793 0.15843111 -0.2402117 -0.030130928 -0.17579503 -0.09023643
-0.44905812 0.052076004 0.008004234 0.11822016 -0.18792975 -0.096316665 -0.01790278 0.013570029
-0.13844892 -0.1931219 0.070912786 -0.11304888 0.07149113 -0.071584806 -0.14081822 0.18353783
-0.012647633 -0.18610346 0.012046581 0.16688558 0.24275145 -0.040728156 -0.19425078 0.015526871
0.28527638 -0.26089653 0.23206438 -0.34908575 6.8103705e-05 0.15615132 0.008950063 -0.04122471
-0.07352384 -0.066421136 -0.0197638 0.08798215 -0.14934829 -0.22244881 0.078372076 -0.059956938
0.20629764 -0.0024626462 -0.06752575 0.12106515 0.053240653 0.16305068 0.06713199 0.083174124
0.60834306 0.008315004 0.09249034 -0.02672465 -0.15527935 0.11535744 -0.14037967 0.12187079
-0.003127169 -0.057851963 0.09213801 -0.0100439675 -0.04392702 -0.02619565 -0.05020722 -0.028719317
-0.053878997 0.07525255 0.07151501 0.07378715 0.017398465 0.29965097 -0.27739784 -0.22892329
0.1867704 0.07709796 0.098091446 -0.07205289 0.020668034 0.014040969 0.053199455 -0.2480199
0.061407275 0.09301193 0.010859488 0.034629762 -0.17225541 -0.01356635 -0.014762399 -0.05912159
-0.16313037 0.045700327 0.22582822 -0.09013947 0.3624408 -0.12950782 -0.086293824 0.055977445
-0.0031271959 -0.14831002 -0.003618315 0.102595836 -0.10870367 0.038130768 0.1345539 -0.046480138
0.019851925 -0.09958533 -0.001389688 -0.028392725 -0.020744408 -0.07877047 0.22343035 0.0005672617
0.033209532 0.112845615 0.11149889 0.31766054 -0.06674568 -0.015644856 -0.14136223 0.0967061
-0.06709867 -0.14491215 -0.04104647 -0.08761602 0.043668307 -0.02893148 -0.026008707 -0.03644266

actor_backbone.0.bias f4 [128]
00000000: f850 19bc f196 bfbe 2098 95be 315b 79be
00000010: 6bd9 b73e 613f febd e0d3 97bb 24e9 d03d
00000020: 0e67 bdbe 5a8a 1bbe 999f a7be 9ea1 d3be
00000030: 5e35 893e d780 8b3d 6e31 4fbe 1c39 e3bd
00000040: bf5d 263e 5e4c d83e 69f1 29bd f9b2 223e
00000050: 95f2 37be a106 ca3e 1764 7c3e 93ba 47be
00000060: 2ab5 a93e 72ad c23e 8af2 043e 2de3 cdbe
00000070: 266f 96be 0872 b83e 308e b0be 07a1 723e
00000080: 93a5 92be d589 34be 29ef bfbe 5b9e 983c
00000090: e938 80be febb 8ebd 9268 6d3e ec24 d9be
000000a0: 848f b63e 078c 233e b506 703e 0a00 efbd
000000b0: 3aca 3d3e 14d4 4a3d 4e99 23be a1e9 1abc
000000c0: 5ee0 cebc 1434 a1be c3aa 843e dc15 4b3d
000000d0: 2d4c d13e a81a b53e 2641 7b3e 388f 49be
000000e0: 0443 ce3e aada 76be 69a2 cf3e 1287 76bd
000000f0: ebe8 d03d c77d bdbe b0a3 a53c b089 9bbc
00000100: 9b23 1bbd 045c 5cbd 9535 d5bc 2932 223e
00000110: 4879 b5be 38db a6be 0aad 4c3e 0560 0abc
00000120: 6395 94bd c035 30be 010d 6d3e c3de 2f3e
00000130: 7b2c b13d e4a4 cc3e a74e 42be 9724 d53e
00000140: e48d 98be 16e4 72be d2a3 9c3e d1e8 d0be
00000150: 93bd 833c e3bc a5be f3e8 30be 262c 463e
00000160: 0973 923e be66 d33e a35c 89be 1c7b 63be
00000170: 3c98 a0bd d2f5 cfbd b4e7 c2be c130 2f3e
00000180: 5229 25bd 8642 843e e469 543e e2f5 59be
00000190: 4c2a 77be 6720 cbbe f87e 3fbe d7a3 273e
000001a0: a105 18be 1940 9d3e 063f 83be 912d cb3e
000001b0: 1620 8dbe 9e1b bdbd e319 d13e d9dd 4bbe
000001c0: 559c d53e a4bc 863e da3a 563e 6ab9 b03e
000001d0: 6383 a73e 7584 5bbe 8a10 98be 0fac 903e
000001e0: 1b7d 3f3d 2c05 363e 346c 493d 9633 ca3e
000001f0: b0ec 103e 5e31 563d f452 4f3e 3693 773b
-0.009357683 -0.37419847 -0.29217625 -0.24351193 0.35908064 -0.12414432 -0.0046334118 0.10200718
-0.36992687 -0.15189496 -0.3273895 -0.41334242 0.26798528 0.068116836 -0.202337 -0.11094877
0.16246699 0.42245764 -0.041489992 0.15888585 -0.17963631 0.39458182 0.24647556 -0.19504766
0.3314603 0.38022953 0.12983146 -0.40212384 -0.29381675 0.360245 -0.3448348 0.2369424
-0.28641948 -0.17630704 -0.37487152 0.018630197 -0.2504342 -0.069694504 0.23184422 -0.42410982
0.3565637 0.15971385 0.23440059 -0.11669929 0.18534175 0.04951866 -0.1597645 -0.009455116
-0.025253471 -0.31485045 0.2591153 0.049581394 0.4087843 0.353719 0.24536571 -0.1968354
0.40285504 -0.24106851 0.40553597 -0.060187407 0.102006756 -0.37010023 0.020219654 -0.018986553
-0.037875753 -0.05379869 -0.026026526 0.15839447 -0.35444093 -0.32589126 0.19987884 -0.008445744
-0.07255056 -0.17208004 0.23149492 0.1717482 0.08651062 0.39969552 -0.18975316 0.41629478
-0.29795754 -0.2371982 0.30593735 -0.40802625 0.016081607 -0.32370672 -0.17276363 0.19352779
0.2860339 0.41289324 -0.2682849 -0.22214931 -0.078415364 -0.101543084 -0.380674 0.17108442
-0.04032261 0.25832003 0.20743519 -0.21285203 -0.24137229 -0.3967316 -0.18700778 0.16371094
-0.14845897 0.30712965 -0.2563402 0.39683202 -0.27563542 -0.09233783 0.40840062 -0.19908847
0.41720834 0.26315796 0.20920888 0.3451646 0.32717428 -0.21437247 -0.29700118 0.2825627
0.04675017 0.1777541 0.049175456 0.39492482 0.14152789 0.052293174 0.20246488 0.0037776954

actor_backbone.2.weight f4 [128, 128]
00000000: 72ea 84bd 59cd 0fbe 82c4 20be db9f 19bc
00000010: ae9e 12bd e56e 803d 628c 943d 137b 0ebe
00000020: 4d78 9abd f427 633c f2e2 72be 5433 4fbe
00000030: 22dc 113e 749a 69bd 7176 d4bd 77fc 40be
00000040: 26b9 9e3d b350 8a3e 704b b83d 4546 563d
00000050: c173 433e 70b5 d63e 2b70 303e 3fa3 dabd
00000060: deb1 a63d 6977 8e3c a942 3f3e b25b d8bc
00000070: 6b47 96be 2d40 aa3e 8dd0 35be c67d f8bd
00000080: 4a2a 2c3e a417 a63d 055c 86be 18f8 9bbd
00000090: 258b 2c3e 311e 813d 9e66 e03d a2e5 9cbe
000000a0: 85c4 643e 833c 773e 1efe fd3d 9e31 9cbd
000000b0: 319f 7e3d 3552 3ebe 9f47 28be 26db 05be
000000c0: 1c49 17be 4d6f 953d 5665 3d3d a2f0 2a3e
000000d0: 2b59 163e 1faf 15bd 904e 60bb 688d 69be
000000e0: 1a1a d33c 947e 423c 0c71 223e c17c 1c3e
000000f0: 5593 b73d c164 0fbc 0116 80bb 6027 1e3e
00000100: 4957 31be eff4 883d 7c23 bd3c a6d0 c53d
00000110: 585c efbd 5092 98be 957b 883d 0bae ca3c
00000120: 33ef 833d 35c8 dc3d 2a16 ff3d 8d2f 813e
00000130: 9278 10be 9919 903d b0cc 03be 52c9 663d
00000140: c3be ca3b b572 2dbe e477 b4bd 7961 fbbd
00000150: 1d71 a7bc 6320 f03c 6166 093e 3b31 3bbe
00000160: 8b5a 1a3e 0755 8d3e 3ba2 d03c 9e9a 453d
00000170: acaf 943e 198e 8bbe afcf c2bd 9465 483e
00000180: 1e7b bfbe 1294 02bd ece8 22be 2bee 45be
00000190: 23dc 79be 6634 f53d f3e3 c5bd 921a ffbd
000001a0: bd49 9abd 57b1 053e f7c2 133d e392 10be
000001b0: e723 cb3c d0ae bf3c fea9 9c3e 58b0 00be
000001c0: ee07 bb3e f833 293e c1bb 633e eb10 ba3d
000001d0: b26d 6d3d 7675 61be 8be7 44bc 5d0f 4f3e
000001e0: 9b6a d4ba e8a6 ba3d 975b 303e d7dc 2b3e
000001f0: 5856 dc3b db74 c6bc 7df9 a13e 7c44 423e
00000200: c204 923d 5c36 643c ad5f 143e 6347 49be
00000210: d327 bd3d f35b 443e 63cb 5a3c 4718 9cbd
00000220: 774c 0a3e aede d43d 519b 3abc 1a10 d03d
00000230: de8b b63e 935d a2bd a96d f1bc 3114 3dbe
00000240: 5d74 16be 8569 8a3d 4f06 4fbe 8a3f a03d
00000250: 4cf9 d63c 3345 443d e28f 4d3d f7d1 4ebe
00000260: 8d0a 13be 2be9 29be 05b2 bbbd e68a 9b3d
00000270: 3f56 b4be a31a 2d3e fc77 17be 9a6d c33d
00000280: da55 db3d cfb0 84bd eb5e 5f3a 52b7 9a3d
00000290: 5f26 1ebd bc3c 69bd 268d e2bd 8a5b 31be
000002a0: b7ec c1bc 4a2e 513e ed69 c03d d6c9 24bc
000002b0: aef9 3ebe 1518 e83b 4025 7f3d cb1e 523d
000002c0: 6bf8 95bc 0c8f b03d 458d 673e 7011 35be
000002d0: 9b09 b53d ac5b fdbc 0f4f b43b 7ada 503e
000002e0: b14b 203e 34a2 ebbd d35b 6b3c 429f 07be
000002f0: 29ac 883d 5ec7 d23d 5f62 f5bd 41c9 0bbe
00000300: f5db 8bbd 5020 2dbe 1fc1 00be 8276 5abc
00000310: 1b67 dbbd a308 fcbd 215d 80be f9e2 acbd
00000320: ed79 d9bd 0ce0 2b3e 9a9f c6bd b264 063e
00000330: 6de1 95bd 0177 63be 6791 123e 58b7 e63d
00000340: c7dd 803e 4e3e d3bd 394c 6fbc 660b 20be
00000350: 98e0 05bc 9032 41be 7ca1 eb3b ba5b 203e
00000360: 948a ea3c fc46 f8bc fa1c 50bd db99 ddbd
00000370: a588 27bd ccfe ecbd 4d18 46bd 5618 a2be
00000380: 72f8 0abe 5a6b a2be d3a4 403e 5946 86bb
00000390: f064 b73c 7977 3dbe 5a8b a23e ee04 863c
000003a0: 6131 8cbd 7027 26be dbe8 d9bd 0d2c 2cbd
000003b0: 0593 96bd 54cf 1ebe 8c0f 343e 5bfc 41bd
000003c0: 237e 363d 6120 993c a530 df3b 8d61 da3d
000003d0: a2f4 153e 27f5 883d 760e 71be 1b60 62bd
000003e0: 71c0 823d 477b 043e 544b b13e f4ca ffbd
000003f0: 78e7 153e 242f 263e 541e 42bd 4ed6 1e3d
-0.064900294 -0.14043178 -0.15699962 -0.009376491 -0.03579586 0.062711515 0.072533384 -0.13914137
-0.07542477 0.013864506 -0.23719385 -0.20234424 0.1424413 -0.057032064 -0.103741534 -0.18846308
0.07750158 0.27014694 0.089987636 0.052313108 0.19087125 0.419353 0.17230289 -0.10675668
0.08139394 0.017390924 0.18677773 -0.026410911 -0.29351363 0.33252087 -0.17755337 -0.121333644
0.16813007 0.08109978 -0.2624208 -0.076156795 0.16849954 0.06304587 0.10957073 -0.30643946
0.22340591 0.24144177 0.12401985 -0.07626651 0.062163536 -0.18586047 -0.16433571 -0.1307188
-0.14773983 0.072966196 0.04623922 0.16693357 0.14682452 -0.03654396 -0.0034226514 -0.22807848
0.025769282 0.011870999 0.15863436 0.15281965 0.08963648 -0.008752049 -0.003908873 0.15444708
-0.17318453 0.066873424 0.02308821 0.09658937 -0.11687535 -0.29799128 0.066641964 0.024741193
0.06442108 0.10780374 0.12455399 0.2523159 -0.14108494 0.07036132 -0.12871051 0.056344338
0.0061872914 -0.16938289 -0.0881193 -0.12274451 -0.020439679 0.029312318 0.1341796 -0.18280499
0.15073602 0.27603933 0.025467983 0.048243158 0.29040277 -0.2725685 -0.09512269 0.19569999
-0.37398618 -0.031879492 -0.15909165 -0.19329135 -0.24400382 0.11972885 -0.096626185 -0.1245624
-0.07533596 0.13055931 0.036074605 -0.14118533 0.024797393 0.023398787 0.30598444 -0.1256727
0.36529487 0.16523731 0.22239591 0.09085258 0.05796594 -0.22017464 -0.012018095 0.20220704
-0.0016206087 0.09113866 0.17222439 0.16783462 0.00672416 -0.024225643 0.31635657 0.18971437
0.07129814 0.013928976 0.14489622 -0.19656138 0.092361115 0.19175701 0.013354155 -0.07621818
0.13505732 0.10394035 -0.011389569 0.10159321 0.35653585 -0.07928004 -0.029471235 -0.18464734
-0.14692827 0.067584075 -0.2021725 0.07824619 0.02624192 0.047917556 0.050186045 -0.20197283
-0.14359494 -0.16592853 -0.09164814 0.07594852 -0.3522205 0.16904692 -0.14791864 0.09542389
0.10709734 -0.06479036 0.0008520919 0.07554497 -0.038610812 -0.056942686 -0.11062078 -0.17320076
-0.023672445 0.20427814 0.09395204 -0.010057887 -0.18649933 0.007082949 0.062291384 0.051298898
-0.018306931 0.08621034 0.22612484 -0.17682433 0.08839723 -0.030927502 0.0055025886 0.20395842
0.15653874 -0.11505547 0.014365154 -0.13244346 0.06673462 0.102919325 -0.119816534 -0.13650991
-0.06829063 -0.16906857 -0.1257367 -0.0133339185 -0.10713025 -0.12306335 -0.25071052 -0.08441729
-0.106189586 0.16784686 -0.0969841 0.1312435 -0.07318387 -0.22213365 0.14313279 0.11265439
0.25169203 -0.10314618 -0.014605575 -0.15629348 -0.008171223 -0.18866944 0.0071908813 0.15659991
0.028630532 -0.030307285 -0.050808884 -0.10820361 -0.0409018 -0.11572036 -0.04836302 -0.31659192
-0.13571337 -0.31722528 0.18812875 -0.0040977416 0.022386998 -0.18502606 0.31746942 0.016359773
-0.06845356 -0.16225982 -0.10640117 -0.042034198 -0.073522605 -0.15508777 0.17584056 -0.047359806
0.044553887 0.018692197 0.006811219 0.106631376 0.14644101 0.06687384 -0.23540673 -0.055267435
0.063843615 0.12937652 0.34627783 -0.12489882 0.1463908 0.1622892 -0.047392204 0.038778596

actor_backbone.2.bias f4 [128]
00000000: fb51 863e b8bc 7c3d 1dee 4e3e 97fa 4c3e
00000010: 4d88 983e 0320 8dbe 95ff 383e a058 a53e
00000020: dfd2 77bd 27b9 97be 5857 a33e 621d 893e
00000030: 18a9 e13d 6902 8e3d 5b7c 98be fec5 02be
00000040: 3bfd a23e d195 973e 0266 4abe b485 ac3e
00000050: 893f 373e bf33 073d 6e77 9d3e e0f9 723e
00000060: 4786 b63e 2290 4f3e cb1b 09bd 77d7 8d3c
00000070: b023 5a3d fab4 cc3d 53c5 a2be 6b05 2b3e
00000080: 9db8 18be 0020 ee3d 6207 cd3d a46a 9a3e
00000090: b440 ef3d 46ff 99be ac11 0ebe 6f72 58be
000000a0: fbfb a93e fe2b 713d 2acc 0e3d b635 b9bc
000000b0: 4504 5c3d 957b 52be e05b 0a3e 5f4b 843e
000000c0: 8ff3 3d3e 4345 6b3e 759f 473d eb7b 9b3e
000000d0: 4f07 993e 3538 8c3e 8ca3 953e d20f 9c3e
000000e0: 6bb4 823e e8a9 0e3e 50b1 42be df7c 06be
000000f0: e324 9f3e f5d6 ab3d dea7 dfbc f972 91be
00000100: 607a 083e 8af8 4c3e c68e 8fbd 9f97 04be
00000110: 57b3 79be 9390 9e3e bf3c ca3d 7f42 483b
00000120: a6f8 a6be 12ce 8dbe 584e 75be ec2d 99be
00000130: 6919 623d 6f6b a2be 296d f03b 5a71 b43d
00000140: dc63 aebe e17a 9cbe 9790 8dbe 4355 96be
00000150: 1fc9 e23d 3f42 82be 1d7d 78be 79fb 92be
00000160: 3fe6 963e 720f 9ebe b893 02bd 9c5c 803e
00000170: d6c4 f63d 5e7b 73bd 5f0f 6a3e 4236 b0bd
00000180: 8365 8dbe e341 833d 6a30 863e 5d6a b33d
00000190: d078 5f3d d6e6 b1be 5236 2a3e d02d 58be
000001a0: aceb 97be cf63 5abe 9c06 94be 6050 38bd
000001b0: cf43 7dbe 61df a13e 638f a23e 3611 903e
000001c0: 9998 9ebd 0c13 993d 297d 273e 0a44 613d
000001d0: 625a 2e3e c7db 88be 31e3 73be 6a2b 15be
000001e0: f3c6 a63e 34cd a3be 5c15 97be c396 9abe
000001f0: b703 b43e d594 8abe 2148 93be 9a75 9ebe
0.2623442 0.061703414 0.2020802 0.20017467 0.2979149 -0.27563486 0.18066247 0.32294178
-0.060503837 -0.29633448 0.31902575 0.2678023 0.1101858 0.069340535 -0.29782376 -0.1277084
0.31833825 0.29606488 -0.19765475 0.33695757 0.1789533 0.033008333 0.3075518 0.23728132
0.3564932 0.20269826 -0.03347377 0.017314656 0.05325669 0.09995456 -0.3179117 0.16701286
-0.14914174 0.11627197 0.10011174 0.30159485 0.11682263 -0.3007757 -0.13873929 -0.21137403
0.33200058 0.058879845 0.034862675 -0.02260862 0.05371501 -0.20554955 0.1351161 0.25838754
0.18549941 0.2297564 0.048736054 0.3036798 0.2988839 0.27386633 0.2922634 0.3048082
0.25528273 0.13932002 -0.19012952 -0.13133572 0.3108283 0.08390609 -0.027301725 -0.2840803
0.13327932 0.20016685 -0.07009654 -0.12948464 -0.24384819 0.30969676 0.09874868 0.0030557213
-0.3261158 -0.27696282 -0.23955667 -0.29917848 0.055200014 -0.3172259 0.0073372317 0.088106826
-0.34060562 -0.305625 -0.27649376 -0.29361925 0.11073517 -0.25441167 -0.24266477 -0.28707483
0.2947254 -0.3087116 -0.031879157 0.25070655 0.12049262 -0.059443824 0.22857426 -0.08604099
-0.2761651 0.06409051 0.26208812 0.087605216 0.054558575 -0.34746426 0.16622284 -0.21111226
-0.2967199 -0.21327136 -0.28911293 -0.044998527 -0.24732898 0.31615737 0.3175002 0.2813813
-0.077439494 0.07474336 0.16356339 0.054996528 0.17026666 -0.26730177 -0.23817135 -0.14567342
0.3257366 -0.31992495 -0.29508483 -0.30193147 0.35159084 -0.27066675 -0.28765967 -0.30949098

reward_backbone.0.weight f4 [128, 22]
00000000: 0cb0 823e 7376 9ebc 0955 ca3d 308b a43e
00000010: b0b6 2a3d 00de 65be ab17 9bbd 3a02 ca3c
00000020: 4083 043e 5a79 4cbe d6c1 51bd 4436 e43c
00000030: d417 b63d 61c9 2d3d 8a4d 8dbd 043e af3d
00000040: e408 95b9 af28 d9bc f278 9abd 6434 8cbb
00000050: 4e38 0b3e 9a3a 203e 5ccf 263e 9f8a f83b
00000060: cdbf 623d 58e7 c73d 5f35 433d 6bd4 b83d
00000070: fc49 a9bd c6b7 31bd 881a cd3d 91d0 12be
00000080: 3be2 0ebd aa74 8cbe 9943 2c3e 9717 95bd
00000090: 8ec9 94bd 5aa8 bdbd d923 d83c c8e2 d83d
000000a0: f038 98bb 7c14 3cbe 7114 aabc 7584 e33d
000000b0: bc9d baba 3021 6dbe 00ea c8bd 9da0 4cbe
000000c0: b7dc c6bc 3f10 febd 0c6b cfbd de38 4f3c
000000d0: 0ffd 38be c9a7 47bd 19f5 afbc ab51 ebbc
000000e0: 3651 5e3e 6dea eabd 5ab2 72bd e339 173e
000000f0: 3d25 a6ba e3c5 abbd 8701 62be 488d 22be
00000100: 0ca3 d3ba f039 96be d13b e43d 3df1 173e
00000110: 1d9a 413e f0c1 cbbd d908 053d 01b3 183e
00000120: f8fe 65bb 0c5e d63c 5a0a 48bd 5913 a83d
00000130: d7b6 f4bb fa0e 19be 83e0 e43b 5f7b bbbc
00000140: f1d2 f83c c0ee 543d 81fd 6c3b 3c63 93bb
00000150: 45d3 9fbc 74dd 78be 8d67 0a3d 40d0 433b
00000160: 8f77 ef3d a763 553d b32f 62be ae0c 613d
00000170: 6ce8 afbc 5878 7dbd 12b7 0e3e ce8d 5c3d
00000180: 6545 a5be c5fa 6bbd 6048 1cbe 0156 c9bd
00000190: 5d07 383d da6a 8d3d 6d73 f13d fb01 193d
000001a0: 4408 3b3e 6c01 3bbe 6bbd cc3d 477c 21be
000001b0: 2b81 513e bdd9 14bd 95d7 603c 582e 7fbe
000001c0: 1dd6 aa3c 3771 a53e 1f08 22bd 0c4c 89bd
000001d0: c217 183e 9497 0b3d 05a1 8f3d 00ec 6abd
000001e0: 641d b43d ea7b 7dbd 37b8 b8bd e8db 403e
000001f0: 57fa bf3d e404 983c 3a83 763c 97eb 8fbc
00000200: f0aa f33c 27ad 3d3e e587 413e fa90 b43c
00000210: 7c2d bc3d 47f9 c23d 8339 453e abbc 8fbd
00000220: 1d30 00bc 0a3a 19be b882 c2bd 3700 24be
00000230: 4adb 0f3e de3b 573e 0e2a 0abd 486c 8fbd
00000240: 2eda c7bd 18ff fbbd 176f f23c f8e0 2c3c
00000250: 0f41 8ebd 704b 40bd 9cc3 59bd 765e 1a3e
00000260: 1882 e33d 84dd a2bd 385c e4bc 1a50 7a3e
00000270: 66d3 72bd ebd3 6bbc 4d3f 843d 1368 f03d
00000280: 84bf aebd 74bf 4f3e c638 0b3e 4c48 04be
00000290: 4e63 0d3c 14f4 a6bd 7582 3a3e 05da 583d
000002a0: 47b9 97bd f029 78bd 9e4b fa3c 366d 46bd
000002b0: 1a2c 86bb 8343 93bd c87b b0bd 7ca4 41be
000002c0: 300b ccbd 2852 71bd 3700 06be b092 33be
000002d0: 4b81 803d 3d25 a2bd c200 993c d1d7 ccbc
000002e0: 0cb8 5d3d ae1e f4bd bdbd 19bc db7d a0bc
000002f0: 7654 293e 18dd 14be 6434 54be 7bf9 a2bd
00000300: 03ab dabc 4443 aa3d 7540 4d3e e4e1 e23c
00000310: 0773 14bd 33e1 013e ce71 12bd ffde 5fbe
00000320: bb48 7ebe 7056 4e3e d109 2a3e 38ed 1cbe
00000330: 5bae 8ebd 8b99 fabd b28a b1bc 2331 bebd
00000340: 6174 a13d 527c 84bd e8e2 91bd 2752 5d3d
00000350: 0967 c13c eac2 5739 c5c7 913d 8a4e ce3d
00000360: 5624 81be f266 fabd 05ec 85bd 76bc 7f3d
00000370: 7811 a2bd 2ade b23d 2462 a13c 186c 103e
00000380: bf00 643e 3b08 80bd f4ad e9bd f14f d3bb
00000390: 107e ccbc 38da 8dbd 62db 88bc 91d7 ff3c
000003a0: fc9d 14be 9235 a33d 2d40 9b3d 10f4 0cbd
000003b0: f2b1 ba3d b0dc 4ebc 289d c43d a2ae 603e
000003c0: 4a36 a0be bb90 67bd 90d7 493e 2739 bd3d
000003d0: 6bbe 1ebe 40d3 19bd 2a88 6c3c d80c 853d
000003e0: ad63 713d c0b5 7fbc 981e 11bd 1b43 11bd
000003f0: 5365 b83d b5be b83c 8ae1 3a3d f9d0 eb3d
0.25524938 -0.01934359 0.098795004 0.32137442 0.04167813 -0.22447968 -0.07572874 0.024659265
0.12940693 -0.19968167 -0.051210247 0.027857907 0.088912636 0.042428378 -0.06899555 0.085567504
-0.0002842612 -0.026508657 -0.075426 -0.0042787064 0.13595697 0.15647355 0.16290039 0.0075848843
0.055358697 0.09760922 0.04765832 0.090248905 -0.082660645 -0.04338815 0.10014826 -0.14337374
-0.03488372 -0.27432758 0.16822661 -0.0727989 -0.07265006 -0.09260626 0.026384281 0.1059013
-0.0046454594 -0.18367189 -0.0207617 0.111092485 -0.0014237682 -0.23157191 -0.09810257 -0.19983144
-0.024275167 -0.124054424 -0.101278394 0.012647836 -0.18065284 -0.048743997 -0.021479176 -0.028725466
0.21710667 -0.114704944 -0.05925212 0.14768176 -0.0012675893 -0.08387353 -0.22070895 -0.15874207
-0.0016146614 -0.29341078 0.111442216 0.14838119 0.18906446 -0.099491 0.03247914 0.14912035
-0.00350946 0.026167892 -0.048837997 0.08206815 -0.0074680853 -0.1494712 0.0069847717 -0.022885976
0.030374022 0.051985502 0.0036161842 -0.0044979136 -0.01950992 -0.24303228 0.03379016 0.0029878765
0.11692726 0.05209699 -0.22088508 0.054943733 -0.021473132 -0.061882347 0.13937023 0.053846173
-0.32279506 -0.0576122 -0.15261984 -0.09830857 0.044928897 0.06905146 0.11789594 0.037355404
0.18264872 -0.18262261 0.09997066 -0.15770064 0.2045943 -0.036340464 0.013723274 -0.24920022
0.02085405 0.3231294 -0.039558526 -0.06703958 0.14852813 0.034080103 0.07013134 -0.057353973
0.08794668 -0.06188575 -0.09019511 0.18833888 0.093739204 0.01855702 0.015045935 -0.017568393
0.029744595 0.18523084 0.18899496 0.022041786 0.09188363 0.09520202 0.1926022 -0.070184074
-0.007823971 -0.14963546 -0.09497589 -0.16015707 0.14048496 0.21018931 -0.033731513 -0.07003075
-0.09758411 -0.12304515 0.029593987 0.010551684 -0.06946003 -0.046946943 -0.053165063 0.15075096
0.11108798 -0.07952407 -0.027876005 0.24444619 -0.059283637 -0.014393787 0.06457386 0.117386006
-0.085326225 0.20287877 0.13595876 -0.12918204 0.008629633 -0.08152023 0.18213828 0.052942295
-0.07408386 -0.06058687 0.030553635 -0.048443995 -0.004094613 -0.07190611 -0.086173594 -0.18910402
-0.09963071 -0.05891624 -0.1308602 -0.17536426 0.06274661 -0.07917259 0.01867712 -0.025005253
0.0541306 -0.11919914 -0.009383616 -0.019591263 0.16536126 -0.14537466 -0.2072311 -0.07957741
-0.026692873 0.08313611 0.2004412 0.027695604 -0.03624251 0.12683563 -0.035753064 -0.2186241
-0.24832432 0.20150161 0.16605307 -0.15324867 -0.069668494 -0.12236317 -0.02167258 -0.09286716
0.07883526 -0.06469025 -0.07123357 0.054033425 0.023608701 0.00020576609 0.07118181 0.10073574
-0.25223035 -0.122266665 -0.06539158 0.06243559 -0.07913488 0.08733781 0.019700117 0.14103734
0.2226591 -0.0625157 -0.11410132 -0.0064487387 -0.024962455 -0.069263875 -0.016706172 0.03123072
-0.14513391 0.07969202 0.075806 -0.034412444 0.091159716 -0.012625858 0.09600288 0.21941617
-0.3129142 -0.05653451 0.19711137 0.092394166 -0.15502326 -0.03755498 0.014436761 0.064965904
0.05893295 -0.015607297 -0.035429567 -0.035464387 0.09003701 0.022551874 0.045625247 0.11514468

reward_backbone.0.bias f4 [128]
00000000: 4220 4cbc 91b8 5d3d c545 8cbb be53 3c3b
00000010: faf5 b4bd b98e 1cbd afa9 5a3d 9ae2 873d
00000020: e921 66be 8f3b a2bc 809c f5bc 4980 93bb
00000030: cbac 30be 7473 5e3c c8b3 87bc d822 a53d
00000040: c6b7 adbe 77be 143e 4f13 c3bc 5921 c6bc
00000050: b9f3 85be 8694 853e 39ad 313e 70e4 dc3d
00000060: c9d8 30be 6706 03be ffed 083d f02c 77bd
00000070: ad74 2b3e 6cf6 27be f147 48bc 2d44 bbbe
00000080: 85ef f13d 2193 293d 0dbc 583e 02e3 3b3e
00000090: 7384 673d 9e73 72bb cf6a 8abc 4666 0dbd
000000a0: 7ddd 30be 92b0 9e3d 9d52 34be c416 b9bd
000000b0: abad 1b3c f963 1a3d a483 82bc 2108 3fbe
000000c0: b483 9e3e 68ae 46bc bbd4 073d eef5 a3be
000000d0: e573 b7bb 7fa9 9bbe 8e62 893d ed0f 96be
000000e0: 94d6 a7be f544 f0ba a71d 94bc 34b6 99bd
000000f0: e0ef dfbd c8f0 833e 8b33 4d3d bf2d b4bc
00000100: e385 75bc 0270 d23b 99f3 133d e7b2 793d
00000110: 8ff6 1ebc 51ab 2bbe 3870 c4bb 64f1 c1bd
00000120: c2d4 03bc aa94 ee3d 74ba 553d 6d49 993c
00000130: 2d9a 013c c7bd 8abe 77c8 8d3b 81df cd3d
00000140: 7166 4bbd b16d e7bc 06d5 d13d ffa1 f2bd
00000150: 9154 40bd 361f 333e e08b e1bd b252 493d
00000160: 9325 8abd 6094 92bc cdd7 8f3d d832 8d3d
00000170: 874c 6bbd eb47 91be 5596 12be e00f c5bd
00000180: 47c5 fd3d c0ad e6bd 2e6f c83b 9f62 7fbb
00000190: 2a5e bf3a efdc a1be 1660 613d 6009 603c
000001a0: ff9e b13d 4944 d03c ec86 07bd c4dd 62be
000001b0: eb98 223c 1b58 0bbe fd4e fcbc 1dd4 18bd
000001c0: 8107 02bb 2e00 debd bc0c a3bb bd3d 4e3e
000001d0: edab 11bd d205 f23d 5bc6 9f3d 02a7 b33d
000001e0: 12af ce3d 1f87 83bd 80ca cfbc 168d 47bd
000001f0: 63dd 893c 4b82 9b3c 9a24 adbc ae55 2c3d
-0.012458863 0.054131094 -0.004280778 0.0028736438 -0.08835979 -0.03822205 0.05338448 0.06635018
-0.22473873 -0.01980379 -0.029981852 -0.0045013768 -0.17253415 0.013577331 -0.016565219 0.080632865
-0.3392927 0.14525782 -0.023812918 -0.024185823 -0.26162508 0.26089877 0.17351235 0.107857585
-0.17270197 -0.12795411 0.033430096 -0.06034559 0.16743727 -0.16402596 -0.012224183 -0.36575451
0.11813263 0.04140008 0.21165486 0.18348315 0.056522798 -0.0036995183 -0.016896633 -0.034521364
-0.17271991 0.07748522 -0.1760964 -0.09037545 0.009501855 0.037692998 -0.015931912 -0.18655445
0.30959857 -0.012126543 0.03316186 -0.32023567 -0.0055985325 -0.30402753 0.06708251 -0.29309025
-0.32780898 -0.0018331098 -0.018080546 -0.075054556 -0.109344244 0.2576964 0.050097983 -0.02199447
-0.014985534 0.006422044 0.036120985 0.06096163 -0.009702339 -0.16764571 -0.005994823 -0.0946987
-0.008046331 0.11649449 0.05217977 0.01871177 0.0079102935 -0.27097914 0.004326876 0.100523956
-0.049658243 -0.028250547 0.10245709 -0.118473046 -0.04695565 0.17492375 -0.11013007 0.04915113
-0.06745448 -0.017893016 0.070235826 0.06894463 -0.05744603 -0.28375182 -0.1431516 -0.096221685
0.12391143 -0.11263609 0.0061167693 -0.0038968695 0.0014600207 -0.3161387 0.055023275 0.01367411
0.08672904 0.025423186 -0.033087656 -0.2215491 0.009924154 -0.13607828 -0.030799383 -0.037311662
-0.0019840898 -0.10839878 -0.0049758833 0.20140739 -0.03556435 0.118175164 0.07801505 0.087720886
0.10091986 -0.06422257 -0.025365114 -0.048718534 0.016829198 0.018983027 -0.021135617 0.042073898

reward_backbone.2.weight f4 [128, 128]
00000000: 1961 3ebd 5bc8 3fbc a436 a93d cde4 cfbd
00000010: 1fd3 afbd 45de df3c 30d9 97bd d170 043e
00000020: 70bd e73d 51e4 d4bc 8137 f33c 94b3 1fbe
00000030: d12c d73b 57cf 05be 7e46 6f3d de42 9e3d
00000040: 473d 7ebe 17b5 a63e b88e 4d3d f0ab 063d
00000050: 53c3 8cbd 70e0 dfbd 7ffb 833e f124 d6bd
00000060: 4f3b ef3d 6e12 0cbe 607d e1bd 65f2 023e
00000070: b60f 09bc 8a50 d6bd 886b 9f3d 43a2 eebd
00000080: bd15 533d d0b2 e33d 225b bf3d bfd8 a5bd
00000090: f7e3 5c3d 9df8 293e 23c6 c0bd edf0 dd3c
000000a0: e032 82be 75e3 db3d eab3 253e f6ba 04be
000000b0: b9ea 70bd 3040 65bd 13aa 6ebe 3a71 58be
000000c0: 8451 cc3d febb f7bd 3243 8e3d 158e e9bd
000000d0: d9f1 8cbd 320d 41be 0099 8b3d 4511 903d
000000e0: 904a 6cbe 2a43 68be 9222 c2bc 8902 753c
000000f0: 1791 0dbb 9fad 513d a4a4 23be 930d 0b3e
00000100: d7f9 8a3d 0f7a 12be db57 d3bd 0966 9ebe
00000110: bda7 a5bc 636f 9dbd 4289 0abe c5db 2a3d
00000120: 05bc 473e c13a c83d 3a88 923e 4ac3 1dbe
00000130: fec7 8fbc c8bc b4be 0a7a 88bd d8ca fcbc
00000140: 037a 0f3e 7966 073b 76be 723e 4b1a 9fbc
00000150: cc29 e2bd b702 cabd 974a 79be b078 90bc
00000160: cd51 9e3e 836b 113e 779e 8bbd 76ba 353d
00000170: 2141 ebbc 562d 4bbe c4c8 f53d 418d e13a
00000180: 6744 b23d 5a6d 10be 6dde ea3d d30f 2e3d
00000190: d1a3 2c3d 549f 89be d182 fa3c 0ed5 d53d
000001a0: 6d28 aa3c e796 e6bd 77d7 81bd d49a 2bbe
000001b0: a230 83bd 05fd 14bd e415 ce3d a01d ccbd
000001c0: 3e12 163d e09f 03be 8759 50bb bb5d 3b3e
000001d0: a1e8 61bd 44ca babb 3609 c2bc 2c1f 613e
000001e0: 0afd 27be 001c 003e 5ad7 df3b fc1a 753d
000001f0: e8ed 5ebc a265 8a3e 2cde a3bd 3d45 8dbe
00000200: e62e 7dbd 535c febd 6151 1f3e b796 07be
00000210: d73a ed3b 5fbe cf3c b78f dbbd cd32 043e
00000220: 3635 1c3e a3b8 733b 7a05 93bd 8afc d53d
00000230: 5dea 1e3e a58c b83c a04e 2fbe fbd2 fd3d
00000240: eb9a 803d d6d2 1a3e bf49 083e 4dd5 303e
00000250: af41 95bd bcca 2e3e 4649 8bbd 0a3f 463d
00000260: a1da 39be 8f81 953c 119f 8abe 314c 843c
00000270: 62dc 3cbe 6817 ed3d 1fec 653d 9ac0 493e
00000280: cc30 7cbe 6f74 d23d e7ba 28be 1aeb 953d
00000290: 2f09 ba3d abbc f0bd 4a4a 2c3e bfea aa3e
000002a0: 543a 7b3d 5800 fcbd 22c6 16be a80d 06bd
000002b0: d406 f93d f506 873d f071 f33c 4301 e43d
000002c0: 2d58 893e c868 33be 81a4 94bc 87b0 9bbd
000002d0: f3e9 8d3d e5f7 c5bd c805 9dbd 58f3 903c
000002e0: 0741 d63d 513d c2bc a7c7 eabd 07ce e13d
000002f0: e1b7 333e 970e 18bc 7db2 18bc 1413 453e
00000300: dffb 15be cda2 cbba f6a4 243e 43af 2b3e
00000310: e1cc 1e3e 9627 953d 8ef5 b2bd 1a09 ff37
00000320: 7bdf 2abe 7821 84bd a4d7 e83c fd2f b2bd
00000330: eea8 623c 4aaa 933d d618 b03d 81e2 ce3c
00000340: b541 283d c0f5 393d 43b0 cdbd ebdb 443e
00000350: ebad 313e 0fa0 903d 2499 fe3c 652d 1bbe
00000360: ae2b 103d c8ee 05bd 915e 35be bf7e 703d
00000370: 2600 c83c 8220 243e ea35 ddbc f610 a63d
00000380: 911e c23b ac02 89bc dbe3 0d3e e3ce 73bd
00000390: d303 4ebe 5deb 6c3d 0864 ce3c 0642 85bb
000003a0: 76b6 813b e019 83bd 857c d1bd da72 ca3d
000003b0: 3a4b a4bb bb19 883e c20c fbbd 7d17 413e
000003c0: 5df5 a13d de9a 203e 706c 5a3d 88be 01be
000003d0: 08ef c7bd db88 ac3d 714c ba3e 079e 603e
000003e0: 96d7 22bd e1cc a73d ea92 cc3c 5ae2 1f3d
000003f0: f99f 44bd e6e8 4b3d 65b0 9fbc 2c3a b33d
-0.04647932 -0.011705483 0.08262375 -0.10151062 -0.0858519 0.027327666 -0.07414472 0.12933661
0.11315429 -0.025987776 0.029689552 -0.15595847 0.006566622 -0.13067375 0.058416836 0.07727598
-0.24828063 0.32560036 0.050184935 0.032878816 -0.06873193 -0.1093148 0.25777814 -0.10456265
0.11681234 -0.13678905 -0.110102415 0.12787779 -0.008365562 -0.1046458 0.07784182 -0.11652043
0.051534403 0.1111809 0.09343554 -0.08097982 0.05392834 0.16598745 -0.094127916 0.027092421
-0.2542944 0.10736743 0.16181913 -0.12961945 -0.0588176 -0.055969417 -0.23307066 -0.21136943
0.09976485 -0.120964035 0.0694641 -0.11404053 -0.06882066 -0.1885269 0.06816292 0.07034544
-0.23075318 -0.22681871 -0.023698125 0.014954218 -0.0021601373 0.05119097 -0.15980774 0.13579397
0.067859344 -0.14304374 -0.103194915 -0.30937222 -0.020221585 -0.07687261 -0.13528922 0.041713495
0.19505318 0.097768314 0.28619558 -0.15406528 -0.017551418 -0.3530028 -0.06663902 -0.030858442
0.14011388 0.0020660444 0.23705468 -0.019421717 -0.11043128 -0.09863799 -0.2434486 -0.017635673
0.30921784 0.14201169 -0.06817334 0.044367276 -0.02871758 -0.19841513 0.12001184 0.0017208235
0.08704453 -0.14104214 0.114682056 0.04249556 0.042148415 -0.2687937 0.030579956 0.104410276
0.02077123 -0.11259251 -0.06339925 -0.16758281 -0.0640576 -0.03637411 0.10062769 -0.09966588
0.03663849 -0.12853956 -0.0031791644 0.18297474 -0.055153493 -0.0057003815 -0.023686033 0.21984547
-0.1640512 0.12510681 0.006831092 0.059840187 -0.013606526 0.27030665 -0.0800136 -0.27591887
-0.061812304 -0.12419953 0.15558387 -0.13241087 0.0072396803 0.02535933 -0.10720771 0.12910004
0.15254673 0.003718891 -0.07178779 0.10448559 0.1551909 0.022528002 -0.17119837 0.12393757
0.06279548 0.1511949 0.13309382 0.17268868 -0.07287919 0.17069525 -0.06801085 0.048399962
-0.18149807 0.018250255 -0.27074483 0.016149612 -0.18443444 0.1157673 0.056133386 0.19702378
-0.2462799 0.10276114 -0.16477548 0.07320233 0.09083783 -0.117547356 0.16825214 0.33382222
0.061334923 -0.12304753 -0.14724019 -0.032727867 0.121595055 0.06593124 0.029717416 0.11133053
0.26825085 -0.1752044 -0.018144848 -0.07602029 0.06929388 -0.09666423 -0.07667118 0.01769416
0.10461622 -0.023710879 -0.11463862 0.11025625 0.17550613 -0.009280822 -0.009319899 0.19245559
-0.14646862 -0.0015536189 0.16078553 0.16766076 0.15507843 0.07282941 -0.08738242 3.0402607e-05
-0.16686814 -0.06451696 0.028423138 -0.08700559 0.013834221 0.072102144 0.08598487 0.02525449
0.041078288 0.04540038 -0.10043385 0.19224517 0.173515 0.07061779 0.031078883 -0.15154035
0.035197906 -0.032698423 -0.17711855 0.058714624 0.024414133 0.16028026 -0.027003247 0.08108704
0.005924054 -0.016724907 0.13856451 -0.059523474 -0.20118646 0.057841647 0.025194183 -0.0040667085
0.0039585186 -0.0640142 -0.10228828 0.098851874 -0.0050138505 0.2658213 -0.12258293 0.18856616
0.079081275 0.15684077 0.05332607 -0.12670338 -0.097623885 0.084245406 0.36386445 0.21935283
-0.03975638 0.081933744 0.024972398 0.039034225 -0.048004124 0.049782656 -0.019493291 0.0875133

reward_backbone.2.bias f4 [128]
00000000: 4a6a 093e 9416 67bd 5e6f 8bbd 024c 66be
00000010: 12b4 5bbc ff86 a13d 7303 babc 9f76 26bd
00000020: fcc1 d73d 3d85 5f3c 4b23 a03d c188 383d
00000030: 7dc2 aabd 888f 2cbd 2e00 8fbd 0af4 0cbd
00000040: 2dc1 083e 0816 a2bd cbcf 2ebd 2017 473d
00000050: ebdd a5bd eadf e03d d272 1abd aa73 2abd
00000060: 697d f7bd 9048 6d3d 548b cd3d 5349 b53d
00000070: e966 82bd ffa6 1d3c 9b90 b4bd 6047 933d
00000080: 8311 0c3c 088e 00be f6f6 e33d 9a21 ab3d
00000090: f691 b6bd 4ccd c83d c4c3 073e 011f 2e3d
000000a0: a188 6bbd 1423 52bd 51a7 80bc 22c9 743d
000000b0: 6a0d 44be b86c cebd 1639 57bd 764c 493d
000000c0: ea43 2ebd 8bc3 753c 9d32 e1bd 2da4 93bd
000000d0: 72e8 bf3c 7fd2 6c3d dd7e 773c b0f3 3abd
000000e0: f441 103d 3186 cf3c 106c a3bd 07db 973d
000000f0: a611 4cbd 9dd0 3a3d 2394 3c3c d257 a6bd
00000100: 9da5 57bd 73da 3d3d 3181 523d 19e5 7339
00000110: df2d 19bd 929b c83d b486 58bd 538b 993d
00000120: 5a55 113b 913f 033e 1869 aabc de90 8e3d
00000130: 75f5 413e b4ee 7d3b 7211 07bd c418 883d
00000140: 09c9 9a3d 62e9 8dbd 2a39 8b3d a285 c1bd
00000150: cf34 20be 76f2 0a3e 4d52 ed3d 7696 423e
00000160: 8f94 713d 9467 e4bc 3492 663c 2d66 5d3d
00000170: fa92 90bd de2a 443d 1e66 f2bb 3f70 95bd
00000180: c755 813d 4fb1 81bd 947c 633e dd8c 203d
00000190: e01d 183d 5b3c ebbc 72ec c33d d4fb d2bd
000001a0: 41f8 9fbd d39c 17be f897 ecbc 851c ae3d
000001b0: 053d 86bd e3cc 173e 79a0 95bd e135 afbc
000001c0: a133 9ebd 406f 14bc 6429 5c3e 59b3 60bd
000001d0: 1358 e1bd fc8d 093a 8e4b abbd a9aa 94bd
000001e0: 81b8 2a3d bd6b b7bd b67e 843d cf64 e9bd
000001f0: 7b52 74bc 0415 a1ba 30d5 923e 6079 043e
0.13419452 -0.056418017 -0.06808351 -0.22489932 -0.013409631 0.078870766 -0.022706723 -0.04064047
0.105350465 0.013642606 0.078192316 0.045052294 -0.08337877 -0.04212907 -0.06982456 -0.03441242
0.1335494 -0.079143584 -0.042678636 0.048606038 -0.08098968 0.10980208 -0.037707157 -0.041614212
-0.12084467 0.05793053 0.1003634 0.08851876 -0.06367285 0.0096223345 -0.08816644 0.07191348
0.008549097 -0.1255418 0.111310884 0.08356018 -0.089145586 0.09804782 0.13258272 0.042510036
-0.057503346 -0.051302984 -0.015704783 0.059762128 -0.19145742 -0.1007933 -0.052544676 0.049145184
-0.042545237 0.015000234 -0.10995982 -0.072090484 0.023426268 0.057817932 0.01510593 -0.045642555
0.035219148 0.025332542 -0.07979596 0.07414823 -0.04982152 0.045609105 0.011509928 -0.08122219
-0.052648176 0.046350908 0.051392738 0.00023259631 -0.03739726 0.09795298 -0.052862838 0.07497277
0.0022176118 0.12817217 -0.020802066 0.06961225 0.1894129 0.0038747014 -0.03297562 0.06645349
0.07557876 -0.0692928 0.067980126 -0.094493166 -0.15645145 0.13569054 0.11587963 0.19002709
0.058979567 -0.027881421 0.0140729435 0.05405252 -0.070592836 0.047892444 -0.007397427 -0.072968
0.06315189 -0.06332647 0.22215492 0.039196838 0.037137866 -0.028715303 0.09566583 -0.10301939
-0.078110225 -0.14805917 -0.028881058 0.085015334 -0.06554607 0.14824252 -0.07305998 -0.021387996
-0.07724691 -0.009059727 0.21500164 -0.05485854 -0.11003127 0.00052472926 -0.0836402 -0.07259113
0.041679863 -0.08956096 0.06469481 -0.11396181 -0.014912243 -0.0012289588 0.28678274 0.12936926

cost_backbone.0.weight f4 [128, 22]
00000000: 7b07 2b3e 713d f43d 0f02 fcbc 369a 663e
00000010: 7026 1b3e 88b5 a83d 788a 153e 24c5 a9bd
00000020: 04b0 cfbd 2a1e ef3d 637c 54be c837 2f3e
00000030: afc6 69bd 0e99 de3d a7a6 f7bc fe89 7bbd
00000040: 0c85 073d 70bc 6ebc 3a24 e23d 40c4 b13d
00000050: 59f9 523e 629f ad3b 24dc db3d 6f01 cf3d
00000060: 60bb 003c bbb3 043d aac1 af38 47cb e1bd
00000070: 30c7 e03b 639e 123e ed51 90bd 1d2c 1f3e
00000080: 14d7 a5be 28c6 97bd 001e 0f3e 5f0f f0bd
00000090: 4e2d 9e3c 1626 c73d 0c16 0abc 1691 3a3d
000000a0: 2e2f 063e 8d91 5bbd 8308 133e 4be5 383e
000000b0: 6ce6 1e3a 3598 21bb dcf0 72bc ca11 8fbe
000000c0: eaa6 25bc e88c 21bd 0b65 953c 8db1 3cbb
000000d0: d5fd 56bd 9a3f b5bd bd13 e3bd 0b3e 57bd
000000e0: f6a7 14be ab2e 093e 7976 80bd cb18 203d
000000f0: 06f7 0b3c f8e4 bf3c 08d4 533d 4605 d2bd
00000100: a67b a63d 117b 933e 422b 003c 1edf e13d
00000110: d9ab 95bd 8f04 92bd c777 203e b0df 95bd
00000120: e35e 83bc e044 843d 8ed3 803a acd6 69be
00000130: 42aa 033e b400 3abe d4bb aabc 8166 9c3a
00000140: fb10 13be 64c9 95be 2d29 dabc a657 b73d
00000150: ff09 043e 4d0a c2bc be0e 6ebd 1e43 053d
00000160: c56b 043e c492 9cbc a2f9 65bd 9bca 5cbe
00000170: 3116 ee3c 3ebc 623d 630d 353d a5eb 10be
00000180: ef07 9abd daef 41bb 7fae 94bd b3af abbe
00000190: 4f3f 82bd 69b1 1a3d b616 87bb 1bd1 843c
000001a0: 84c9 9f3d 348b 263d 76f3 b93e b391 8ebc
000001b0: 6fac 9fbe 9290 c6bd 5931 923c 0cb9 95bd
000001c0: 1907 65bc 7f62 5f3e d6d8 70bd 8835 fc3b
000001d0: e848 1bbd 88df 133e f68d c5bb 310a bc3c
000001e0: 0b6f 64bc 0515 e8bd 02ec 07be 9743 b13d
000001f0: 8aaf 0b3d 2248 9abd 0f35 98bd 7c4d 7d3d
00000200: c0aa 923d 2772 aa3d 98b7 d9bd 70b9 003e
00000210: 7f7d debd f45c 3dbe 90d4 d7bd 5019 c93c
00000220: 71d8 c2bc 015f 61bc 480c 93bd 9232 99bb
00000230: 088a 46bd 3026 9dbd 9cd1 cbbb 4fb4 da3d
00000240: 3b5f 063d 611f b13d 7176 fb3d a5f3 a23c
00000250: 58ad aebd 9203 e839 3e62 17be 5a72 e9bd
00000260: 0d70 f93d b17c 7dbe 1a65 363e b117 95bd
00000270: ce77 b0bd 4877 16bd c427 01bd 11d0 43bd
00000280: fb3d 5dbd 6c2b 99bd 10a6 0b3e 95e0 bdbd
00000290: cfdf b9bd 9626 abbe 827f b43d 5f9c 033e
000002a0: 2b7d 7b3d 64af 6ebd e778 a13d c8c5 4b3a
000002b0: 8896 ae3d 5501 323c cb90 f6bc e4ee 83be
000002c0: af31 04be d85b 00be 6d3d db3d 385c 5ebe
000002d0: 459b 1f3e 5d17 f6bd 37cd a4bd cdf3 cdbc
000002e0: 31bb 1bbd b686 0c3e 546f 8e3d 29fb 843e
000002f0: 4969 513d 71a4 a03d 7fa7 b3bd 7f36 493d
00000300: 96db a53d 7904 a8bb 8a05 f93d 9cc0 063e
00000310: 0c7a 4dbe 548a 5bbc 7198 6fbd 76dd 0abd
00000320: 786c 05bd 59ac 063e 38bb 18be cd36 963b
00000330: 2813 76be 8384 15bc 9fa2 7abd 274f ddbd
00000340: e678 cd3d c17a 85bd 9257 54be e1a8 99bc
00000350: 27fe 77bc ca9c 04be 3495 0bbd ef18 9ebd
00000360: e048 1c3e 1acc 0c3e cde4 d1bc 92a4 5cbe
00000370: 2351 fe3c c09c e0bd 2d80 7fbd a82e 89bb
00000380: f4db 3dbe af4a 61bd 2fb9 c33d f766 923d
00000390: 2303 7d3c 686c cdbd 5c6a 02be 9bfc 3b3e
000003a0: 973e 363c ec82 17be d7bd 0fbe 3c20 eb3c
000003b0: c5d0 cd3d cd88 893e a5a4 803e 69f8 49bd
000003c0: 7311 d23d 76a2 f83d 5f39 25bd 43c6 e6bd
000003d0: a693 613e 09d3 3dbe fc6f ce3d 828c b3bb
000003e0: b3d2 ce3c 03ab 263d f493 673c ca9f 7d3d
000003f0: 7c7c 7c3c 0ec8 4dbe 0524 98b9 4247 173e
0.16702072 0.119257815 -0.0307627 0.22519764 0.15151381 0.08237749 0.14603603 -0.08289555
-0.10140994 0.11675675 -0.20750575 0.17111123 -0.057074245 0.108690366 -0.030230833 -0.061410896
0.033085868 -0.014571294 0.11042066 0.0868001 0.20602931 0.005298541 0.10735348 0.10107695
0.007857174 0.032397967 8.380723e-05 -0.110251 0.0068596825 0.14318232 -0.07046876 0.15544172
-0.32390654 -0.07410842 0.13976288 -0.11721682 0.019308712 0.09724061 -0.008428108 0.04554852
0.13103935 -0.053605605 0.14358716 0.18056218 0.0006061557 -0.0024657373 -0.014827933 -0.2794326
-0.010110596 -0.03944102 0.018236658 -0.0028792352 -0.052488167 -0.08850022 -0.11087749 -0.052549403
-0.14517197 0.13396709 -0.06272597 0.039086144 0.008542782 0.02342461 0.05171588 -0.10254912
0.08129053 0.2880483 0.0078228135 0.11028884 -0.07308168 -0.07129776 0.15670691 -0.07318056
-0.016036456 0.06458449 0.0009828673 -0.22835797 0.12857917 -0.1816433 -0.020841517 0.0011932404
-0.14361946 -0.2925521 -0.026630962 0.089522645 0.12894438 -0.023686552 -0.058119528 0.03253471
0.12931736 -0.019112952 -0.05614627 -0.21561663 0.029063316 0.055355303 0.04420222 -0.14152391
-0.075210445 -0.0029592426 -0.07259845 -0.33532485 -0.063597314 0.037766848 -0.0041225804 0.01621299
0.07802108 0.0406601 0.36318558 -0.01740346 -0.31186244 -0.09695543 0.017845796 -0.073106855
-0.013978743 0.21814917 -0.05880054 0.007696811 -0.037911326 0.14440739 -0.006028886 0.022954078
-0.01394249 -0.11332134 -0.13273624 0.0865547 0.034102954 -0.075332895 -0.07431995 0.061841473
0.07161474 0.08322554 -0.10630721 0.12570739 -0.1086378 -0.1849249 -0.1053859 0.024548203
-0.023784848 -0.013755561 -0.07180077 -0.004675218 -0.04847148 -0.07673299 -0.0062200557 0.106789224
0.032805663 0.08648563 0.1227845 0.01989157 -0.085291564 0.00044253148 -0.1478357 -0.11398764
0.12179575 -0.24754597 0.17812005 -0.072799094 -0.08616601 -0.03673485 -0.031532064 -0.04780585
-0.054014187 -0.07478985 0.13637567 -0.09271351 -0.09075891 -0.33427876 0.08813383 0.1285262
0.061398666 -0.058272734 0.078843884 0.0007773307 0.08524805 0.010864575 -0.03009834 -0.25768197
-0.12909578 -0.12535036 0.107050754 -0.21714866 0.15586574 -0.12016175 -0.08046954 -0.025140667
-0.038020317 0.13723263 0.06954828 0.2597287 0.0511258 0.07843865 -0.08772182 0.049124237
0.08098523 -0.0051274863 0.121592596 0.13159412 -0.20066088 -0.013399679 -0.05849499 -0.033902608
-0.032574147 0.13151683 -0.14915168 0.0045841695 -0.24030745 -0.009125832 -0.061190244 -0.10806113
0.10032825 -0.06517554 -0.2073653 -0.018757286 -0.015136278 -0.12950435 -0.034077838 -0.077195995
0.15262175 0.13749734 -0.025621796 -0.21547154 0.031044548 -0.10967398 -0.062378097 -0.00418647
-0.18540937 -0.055002864 0.09556805 0.07148545 0.015442642 -0.100304425 -0.12735885 0.1835808
0.011123321 -0.14796036 -0.14037262 0.028701894 0.10049585 0.26862183 0.25125614 -0.049309168
0.102572344 0.12140362 -0.040337916 -0.11268284 0.2202898 -0.18537535 0.10079953 -0.0054793963
0.025246954 0.040690433 0.014134396 0.061919965 0.015410539 -0.20095846 -0.00029018536 0.14773276

cost_backbone.0.bias f4 [128]
00000000: 7930 b3bc d9fc d93c f13d 31bc c381 5bbe
00000010: 99ff 43be 8689 043d 8569 a93d 5457 d6bd
00000020: 4ecb b53b 0447 ad3d 430d 90bd 2c0f 8ebb
00000030: 02e2 bf3d 1b51 81bc cbad ff3d 3594 be3d
00000040: af3e 3c3d 558c d1bc 87e8 96bc 97eb 17be
00000050: 545a 29bd 1e85 e63c 8b8f 2eba e0ec bbbd
00000060: ab80 883d 3280 f13c e364 55bd deb0 463d
00000070: 3193 acbd 75b1 903e ae4a 8a3d 2a6d 27be
00000080: 6d01 cdbd cd29 18bd 243e 153d 651e 993d
00000090: 6743 1c3e 7991 413b 46e8 09bd b090 b3bc
000000a0: bd6a 253e e397 dbbc e8ea 2abe 161a 1d3e
000000b0: 56e1 f53d 3dba 543d 6f4c f5bd 6051 66bd
000000c0: a019 4abd eb43 6ebe 6d3c b5bd e8ba b7bc
000000d0: a43e 843d 2c18 0bbd 3d73 cd3d a849 89bd
000000e0: 415e 95bd 7c83 02bd a631 10be 3727 c13c
000000f0: bcc8 89bd a9b8 c63d 34fc 3fbd 45e4 483e
00000100: da36 503d 8213 e13d c747 74bd faeb febd
00000110: ea31 063e 50c7 7bbd 57f5 413b eee8 ac3e
00000120: 2ad9 203e 6674 633a fae6 66be 0b81 7b3d
00000130: 93e9 303d 4a69 e5bb 67c2 933c b593 123e
00000140: 4d8b 0fbe 4a24 bfbd a240 1b3e 1224 0f3d
00000150: f780 943c 3390 ac3d 065f 90be 4a2a 08be
00000160: a934 bc3d 479a 913c b244 333c da73 8bbd
00000170: 0711 7f3d 8c0d 25be 7636 71bd ebee 16be
00000180: ff37 103e 74d7 c6bd 8dc2 04be aa91 823c
00000190: 7e03 8b3d 262c 4d3d 5294 853d 8220 723d
000001a0: 1996 e03d 10d4 26bd 8fee 5abd 1a71 7f3c
000001b0: 6ae4 253d 7a38 b93d b0d0 57be 433c 083d
000001c0: fce6 cdbb b071 22bd dc3f 9f3d 801b a5bd
000001d0: 28af d7bd deda 3cbe ab5c 5e3d 0ed9 87bd
000001e0: 5870 cd3b fc3a e03d 47f1 5e3c 67fb 263e
000001f0: 3f2b d93d 3476 c43d 7793 163d fa36 3f3e
-0.0218737 0.026609825 -0.010817991 -0.21436219 -0.19140472 0.032357715 0.082720794 -0.10465875
0.0055479174 0.08460811 -0.070337795 -0.0043353047 0.093692794 -0.015785744 0.1248432 0.09305612
0.045958217 -0.02557961 -0.018421425 -0.14835964 -0.04134591 0.028139647 -0.0006658963 -0.0917604
0.066651665 0.029480074 -0.052098166 0.048508517 -0.08426512 0.2826039 0.06752525 -0.16350237
-0.100100376 -0.03714924 0.036436215 0.074765004 0.15260087 0.0029536171 -0.03366878 -0.021919578
0.16153999 -0.026805824 -0.16691172 0.15341982 0.1200587 0.051935423 -0.11977469 -0.05622995
-0.049340844 -0.23268096 -0.08849416 -0.022427991 0.0645726 -0.0339586 0.100317456 -0.06703502
-0.07293368 -0.031863675 -0.1408144 0.02357827 -0.0672774 0.0970319 -0.04687138 0.19618328
0.05083356 0.10990049 -0.059638765 -0.12447353 0.13104978 -0.061469376 0.0029595697 0.3377146
0.15707842 0.00086767075 -0.22549048 0.06140236 0.043191504 -0.007001077 0.018037034 0.14314158
-0.14017983 -0.093330935 0.15161374 0.03494651 0.018127901 0.08425941 -0.28197497 -0.13297382
0.09189732 0.01777376 0.010941671 -0.06809206 0.062272098 -0.16118449 -0.05888983 -0.14739577
0.14083861 -0.09709063 -0.1296484 0.015938599 0.067877755 0.05009093 0.065224305 0.059113033
0.10966129 -0.040729582 -0.053450163 0.01559093 0.040501036 0.09043975 -0.21075702 0.033260595
-0.006283639 -0.039659202 0.07775852 -0.08061886 -0.10531455 -0.18442866 0.054287594 -0.06633197
0.006269496 0.109487504 0.01360733 0.1630684 0.10603952 0.09592858 0.036761727 0.18673316
