outputs/E1_penalty_fixedlambda_sweep/penalty_seed0_EB0.10_LB0.05_lamE2.0_lamL0.1/best_fsr.pt (torch, 981665 bytes, 68 tensors)

actor_backbone.0.weight f4 [128, 22]
000000 05 c6 b6 3c cc bf f8 bd 02 db 7a 3e 67 94 07 3e
       0.02231122 -0.12145957 0.24497607 0.13240205
000010 e3 16 96 bd fd 0c fe bc a2 39 06 bd 7b ca 5d 3d
       -0.07328584 -0.031012053 -0.032769807 0.05414818
000020 af 28 27 be b2 73 c3 bb d4 80 ea bc 13 91 40 be
       -0.16324113 -0.0059647197 -0.028625883 -0.18805341
000030 e7 6b 61 ba de 52 b3 3d 8e d7 3f be 2c b1 d8 3d
       -0.00085991475 0.0875604 -0.18734571 0.10580668
000040 24 cb 54 bd 63 46 91 bd 1c 34 2a 3e ac 88 64 3d
       -0.051951542 -0.07093503 0.1662144 0.055794403
000050 97 2b ad 3e 50 58 54 be b1 c9 58 bd 31 43 07 3e
       0.3382232 -0.20736814 -0.052926723 0.13209225
000060 e5 31 50 be 9a d9 00 be a3 83 0c be 88 fe 42 3d
       -0.20331533 -0.12583008 -0.1372209 0.04760602
000070 4d d4 bd 3c e8 e4 ee bd 64 af 61 3e 4e fa db 3d
       0.023172522 -0.11664754 0.22039562 0.10741101
000080 ad c3 78 3e 08 59 6f 3c a5 06 2e be b0 44 e7 3c
       0.24293394 0.014608629 -0.16994722 0.028230995
000090 54 30 6c 3d 78 c0 0a 3e c1 17 36 3d 65 07 dc 3c
       0.057663277 0.13549984 0.044456247 0.026858995
0000a0 b6 18 c8 bb f0 e1 19 be 1b 7d ad bc c6 ad 17 3e
       -0.0061064614 -0.15027595 -0.021177819 0.14812383
0000b0 fe 77 9a bd 30 b9 b0 bd 9f 20 29 be 4f 4a 06 3d
       -0.07542418 -0.08629072 -0.1651635 0.03278571
0000c0 00 39 b4 bd 73 b8 22 bd 0f 5e 31 bd 00 e6 47 3c
       -0.087999344 -0.039726686 -0.043302592 0.012200832
0000d0 b6 f5 72 3d d3 a4 4f 3d c9 2d fa bd bb 99 bd bc
       0.05931636 0.050694298 -0.12215764 -0.023144593
0000e0 ef 3e ba 3d 9c 93 02 3d df f9 48 3e 42 e5 44 bd
       0.09094035 0.031879053 0.19626568 -0.0480702
0000f0 0b c6 7a be f8 5e 7e 3d 62 3d c1 bd 97 df ba bc
       -0.2448961 0.062102288 -0.09435536 -0.022811694
000100 f9 a3 ce 3e e5 40 72 bd c1 29 30 be e1 3f 8b 3e
       0.40359476 -0.05914392 -0.17203428 0.27197173
000110 65 92 a3 3a 58 ae e1 bd 4e 31 1b bd b8 68 88 bd
       0.0012479542 -0.110195816 -0.037888817 -0.066605985
000120 a9 1e d0 3c f7 ea a3 3d 9c 39 2b be ba 03 b0 3d
       0.025405245 0.080038 -0.16721195 0.08594461
000130 85 7b 4c bd 88 4b 2a be a9 bb 5e bb b5 be 54 3e
       -0.049922485 -0.16630375 -0.0033986366 0.20775874
000140 b5 35 e8 bc e2 35 4a bd 0c 58 01 3e 01 34 aa bb
       -0.028345922 -0.049367793 0.12631243 -0.0051941876
000150 3a f3 dc 3d 4d 76 16 3e 90 6d 16 be 02 ce 30 3d
       0.10788579 0.14693566 -0.14690232 0.043165214
000160 e8 9e b1 be c5 34 99 3c 95 6b 8d 3e c0 6c 1e be
       -0.34691548 0.01870192 0.2762114 -0.15471172
000170 92 66 05 3e fc e6 8d bb af 88 0e be 04 bd ea 3d
       0.13027409 -0.004330514 -0.13919328 0.11461833
000180 c9 ba b3 3c fa 8d d8 3d 11 80 e9 bd 1a 47 27 bd
       0.021939652 0.10573955 -0.1140138 -0.040839292
000190 81 b5 b0 bd 2d 03 a4 3c 60 75 1f 3e 61 0b 86 bd
       -0.08628369 0.020021046 0.15572119 -0.06545139
0001a0 16 60 25 3d 3b f0 d7 3c 65 c0 4e bc 69 6a db bd
       0.040374838 0.026359668 -0.012619113 -0.107136555
0001b0 76 8b e6 3a d7 f9 02 be b4 5e 55 3b 24 58 8e be
       0.001758917 -0.12790619 0.0032557668 -0.2780162
0001c0 f6 2d a8 3d 61 d8 8a 3d 61 1b a2 3d 93 0d 6b 3c
       0.08211891 0.06779552 0.07915378 0.014346498
0001d0 02 f1 c1 bd 9a 56 b3 bd d6 07 69 bd 0c 85 d0 bc
       -0.09469797 -0.08756752 -0.05689224 -0.025454067
0001e0 bc 8f 0f 3e 26 21 21 be 70 a3 17 bc 3d de 10 3e
       0.14019674 -0.15735301 -0.009255275 0.14147277
0001f0 15 1d 7a be b3 da 86 bd 5e 17 3c be bb de cc bd
       -0.24425156 -0.06584682 -0.18368289 -0.1000342
000200 36 0e e5 be 41 2f 4d 3d a5 77 92 3d e5 15 fc 3d
       -0.44737405 0.050093893 0.07151727 0.123088636
000210 bd 62 68 bd d0 be a3 bd 03 8b bf bd 3c 42 7e 3c
       -0.05673479 -0.07995379 -0.09352686 0.015518721
000220 f8 a3 32 be 85 75 55 be 0e 7d f2 bb 5f ec fd bd
       -0.17445362 -0.20845611 -0.0074001616 -0.123986
000230 cb 98 d9 3d b5 6e a4 bd 71 5d 1d be fe 35 ef 3d
       0.10624846 -0.08028928 -0.15367676 0.1168022
000240 8b ae 00 bd d8 c3 68 be d8 4a 47 bc 1f ee 19 3e
       -0.031416457 -0.22730958 -0.01216384 0.15032242
000250 ed 40 5b 3e 4d 7e 6d bd 41 8f 11 be fa 2a 9f 3c
       0.21411486 -0.057981778 -0.14214803 0.019429673
000260 fa 93 75 3e 6e 85 4f be ce 37 49 3e e6 c5 a0 be
       0.2398223 -0.20265743 0.19650194 -0.31400985
000270 db 5f d3 3c 3f 95 0f 3e 04 4a 17 3b bc bf 21 bd
       0.025802543 0.14021777 0.0023084888 -0.039489493
000280 d5 9f 69 bd 93 39 9e bd cf 59 ce ba 7c 38 4d 3d
       -0.057037193 -0.07725825 -0.0015743318 0.050102696
000290 3c bc 41 be 2d fc 70 be 11 b4 90 3d ea 5f 26 bd
       -0.18919462 -0.23533697 0.07065595 -0.040618815
0002a0 8a 31 43 3e c2 51 14 bc be ed 5c bd 26 d7 03 3e
       0.19061866 -0.009052696 -0.053937666 0.12875041
0002b0 40 66 a3 bc f2 1c 36 3e 81 9c 31 3e b2 fc 00 3d
       -0.019946218 0.1778448 0.17344858 0.03149099
0002c0 15 21 13 3f 7a 09 9b bd 2e 57 b4 3d d6 b7 4c bd
       0.57472354 -0.07570167 0.08805691 -0.049980007
0002d0 78 f6 10 be e4 64 ee 3d 92 bb 26 be 46 d8 a6 3d
       -0.1415652 0.11640337 -0.1628249 0.0814672
0002e0 05 17 b4 bc 43 64 82 bd 69 2f 79 3d 3b 59 11 bd
       -0.021983633 -0.0636678 0.06083623 -0.035485487
0002f0 f1 8a c8 bc 5f 12 e8 3c 7c 87 5c bd 22 37 95 3b
       -0.024480315 0.028329073 -0.053840145 0.0045536915
000300 a8 4b 42 bd af bc 86 3d ff b1 53 3d bf 0f 5b 3d
       -0.047435433 0.06578957 0.051683422 0.053481814
000310 85 c5 fd 3d 0b cc ae 3e 40 e7 3f be 73 9e 15 be
       0.123911895 0.34140047 -0.18740559 -0.14611225
000320 f9 98 0b 3e 08 1e b7 3d 2d b0 91 3d 0c 2f 39 bd
       0.13632573 0.08941275 0.07113681 -0.045210883
000330 a2 3f af bc 36 67 a3 3b e8 1e 8f 3d 35 61 84 be
       -0.021392647 0.004986669 0.06988317 -0.25855413
000340 00 2e b4 3c c7 b3 fe 3c f3 cf 1e bd 7c 70 dd 3c
       0.02199459 0.031091584 -0.038772535 0.027031176
000350 3b b6 2e be ae fc 4d bd 85 18 7b bd 54 50 06 bd
       -0.17061703 -0.050289802 -0.06130268 -0.03279145
000360 7e 37 34 be 91 6c b4 3d 85 81 6c 3e d1 1c 89 bd
       -0.17599294 0.0880977 0.23096283 -0.066949494
000370 32 87 b0 3e 66 4e f0 bd 77 90 a2 bd 20 19 dd 3c
       0.34478146 -0.11733703 -0.07937711 0.02698952
000380 78 03 9d bc 2d be 1d be c8 b6 2e bd c4 29 ae 3d
       -0.019166693 -0.15404578 -0.042654783 0.0850406
000390 66 06 fd bd 71 73 2b bc 99 41 c2 3d db a2 29 bb
       -0.12354736 -0.010464535 0.09485168 -0.0025884423
0003a0 1a 22 57 3c 4f 9f bc bd 21 ac b0 bc d8 97 6c bc
       0.013130689 -0.09210073 -0.021566452 -0.014440499
0003b0 b4 ba 9b bc e6 ff 51 bd f4 51 4c 3e e3 09 03 bd
       -0.019009925 -0.051269434 0.19953138 -0.03199185
0003c0 3d f3 06 3e ac 77 21 3e 7e 73 48 be d5 40 d9 3d
       0.13178726 0.15768307 -0.19575307 0.10608069
0003d0 b2 0a c1 bd 97 9b 5d bd dc 1a 11 be 6c 8e 3d 3d
       -0.09425868 -0.05410346 -0.14170402 0.046278402
0003e0 80 7d 42 bd 29 0c 38 be db e9 f0 bd 58 4b f0 bd
       -0.047482967 -0.17973389 -0.117633544 -0.11733121
0003f0 35 0c 2e 3e 7f ca bb 3c 78 d2 a7 3a 32 bc 06 bd
       0.16996844 0.022923706 0.0012803813 -0.03289432

actor_backbone.0.bias f4 [128]
000000 b8 3e 38 3e 86 88 b4 be 17 36 6e be f2 23 f0 bc
       0.17992675 -0.3526041 -0.23262821 -0.029314015
000010 02 dd b4 3e 11 fd 5c bc 55 23 a2 bd 0f c7 44 3e
       0.35324866 -0.01348807 -0.07916895 0.1921656
000020 ca a6 a3 be 94 6b 7e be fb 59 9b be 05 a5 9e 3e
       -0.31963187 -0.24845725 -0.30342087 0.30985275
000030 d5 e5 34 3e 0e 95 81 bd 96 a0 6f be 23 71 47 bd
       0.17665799 -0.06327258 -0.23401102 -0.04869188
000040 17 e6 0a 3e 8f a2 bb 3e 33 3b da bc 5c d1 2a be
       0.13564335 0.3664746 -0.026639557 -0.16681427
000050 53 2b 7a be a3 1d b6 3e 0a 49 35 3e ab 30 02 3c
       -0.2443059 0.35569486 0.17703643 0.007946174
000060 6e 64 b2 3e 66 81 f8 bd e3 c1 9c 3c 1a ed dc bd
       0.34842247 -0.12134056 0.019135421 -0.10787411
000070 19 e1 b5 be 71 6a a6 3e 42 ae 9a be 71 ba b5 3e
       -0.35523298 0.32503083 -0.30211073 0.35493806
000080 2e 1b 9d be e8 b1 eb 3c 03 2f a1 be d5 2b 19 3e
       -0.306848 0.028771356 -0.3148118 0.14958127
000090 35 77 8a 3c bd 67 27 bd 34 72 7c 3e 5e 81 7a be
       0.016902545 -0.040870417 0.2465294 -0.24463412
0000a0 10 ef b2 3e ae 2c 68 3e 6b 6f 87 bd 2e 46 3e be
       0.34948015 0.22673294 -0.06613048 -0.18581459
0000b0 e6 99 02 3e b0 01 93 3d 70 58 c5 bd 03 ff b9 bc
       0.1275402 0.07178056 -0.09636009 -0.022704607
0000c0 bc 73 14 3d 63 3a 94 be 9b 8f 6d 3e b1 a1 51 3d
       0.036243185 -0.28950796 0.23199312 0.05117959
0000d0 5b 35 ac 3e 44 33 af 3e bd 0e 4b 3e 57 43 45 3e
       0.33634457 0.342188 0.19829841 0.1926397
0000e0 43 c5 c8 3e e6 b1 4c be 48 ce b9 3e e4 1d a5 3e
       0.39213 -0.19989738 0.36290193 0.32249367
0000f0 b3 f8 01 3e 10 ff 69 be cf 9a 65 bd 62 78 72 bd
       0.12692527 -0.22851205 -0.05605584 -0.059196837
000100 52 3b 85 3d 75 2d 51 3d f2 cb 6b 3d 7c 2d b9 bd
       0.06505455 0.05106874 0.057567544 -0.090418786
000110 5d 4f 5a be 39 f0 33 3e a4 3b 49 3e 34 28 a2 bd
       -0.21319337 0.17572106 0.19651657 -0.079178244
000120 54 ac d9 b9 da 46 a1 be e5 a2 a7 3e 02 34 bb 3e
       -0.0004151786 -0.31499368 0.32741466 0.36563116
000130 f7 aa 49 be 7a cd 9a 3e 8b 95 98 3d 05 b0 b2 3e
       -0.19694124 0.3023489 0.07450398 0.34899917
000140 18 e0 73 be 59 0f 86 be c4 4f 8c 3e 4f 2c a6 be
       -0.23815954 -0.26183584 0.27404606 -0.3245568
000150 a5 2e 9e bd 99 ee ad be 59 0d 51 bd 2d da f5 3d
       -0.077237405 -0.33971098 -0.05103812 0.12004504
000160 19 a4 92 3e da 59 b9 3e f2 73 a3 3e 2a 3a fc bd
       0.28640822 0.36201364 0.31924397 -0.123157814
000170 16 89 5e 3e ee 9f 28 3d 4b f7 aa be cd f3 b4 3d
       0.21731982 0.041168146 -0.33391795 0.08835564
000180 21 05 42 3e 09 42 f6 bc d6 98 ef 3d 5b 9e 2c be
       0.18947269 -0.030060785 0.11699073 -0.16857283
000190 0f 13 a3 bd 0e 57 c7 bd 7c ea 62 be eb 2d 18 bd
       -0.079626195 -0.09733401 -0.22159761 -0.037153166
0001a0 76 9a 46 3d 0a a1 3a bc 49 22 99 be b2 0c ab 3e
       0.04848715 -0.011390934 -0.2990897 0.33408123
0001b0 87 92 71 be 78 7b 35 bc 97 8e bb 3e 4f c8 9f 3e
       -0.23591052 -0.0110768005 0.36632225 0.3120751
0001c0 f0 cf ca 3e f3 f6 f5 3d 71 92 51 3e a4 07 db 3c
       0.3961177 0.120099925 0.20466019 0.026737042
0001d0 80 17 93 3e 3a 12 ad be 17 ab 33 be 67 d3 e4 3d
       0.28728867 -0.33802968 -0.17545734 0.11173134
0001e0 09 12 8c bc 00 84 41 3e 03 c0 7d 3d 2e 08 89 3e
       -0.017098444 0.1889801 0.061950695 0.26764053
0001f0 80 9b 5a be 91 a4 77 3d d5 fb 9f 3d 8b 52 bd bd
       -0.21348381 0.060459677 0.07811705 -0.092442594

actor_backbone.2.weight f4 [128, 128]
000000 44 a3 9b 3d 3a 93 b5 bd ab 57 ce bd d0 23 0f 3e
       0.075995 -0.08865972 -0.10075315 0.13978505
000010 c3 9f 28 bd 99 50 96 3d 8e a0 8a 3d 92 37 17 be
       -0.041167986 0.073395915 0.067689046 -0.14767292
000020 00 ce 6c bd a2 c8 55 bd 04 60 58 be 57 04 97 3d
       -0.057813644 -0.05219329 -0.21130377 0.07373875
000030 bb a1 09 3e 60 10 b6 bd e3 b9 0e bd df 75 3c be
       0.13440602 -0.08889842 -0.034845244 -0.18404339
000040 ba df a3 bc 87 30 55 3e 79 45 bc 3d a0 98 4b bc
       -0.020004142 0.20819293 0.09192938 -0.012426525
000050 e3 33 2d 3e 7e 2a ae 3e bf be 35 3e 50 83 40 bd
       0.16914324 0.34016794 0.17748545 -0.04700023
000060 6d 9c 75 3d d0 3e 0d be 62 d2 09 3e 39 a4 ab 3d
       0.059963632 -0.13793492 0.13459161 0.08380932
000070 d3 31 9d be 1d 11 90 3e d0 e1 12 be 14 4b 8a bd
       -0.30702075 0.28138056 -0.14343953 -0.06752601
000080 a2 80 19 3e d9 fe df 3d f5 0a 2d be de 9d 4e bd
       0.14990476 0.1093728 -0.16898711 -0.050443523
000090 2a 00 59 3e 56 4a f6 3d 66 24 02 3e 4d 9d 60 be
       0.21191469 0.12025897 0.12709197 -0.21935005
0000a0 26 b8 75 3e 09 6e 3d 3e 67 6d 97 3d 6b b5 ba bd
       0.23996028 0.18499006 0.07393914 -0.09116634
0000b0 5e 43 47 bc 49 0c 3d be a3 db ea bd cf 24 d0 bd
       -0.012162058 -0.18461718 -0.11467674 -0.10163271
0000c0 7f 2c ec bd 39 9a 16 3e 92 68 d0 3d e9 34 04 3e
       -0.115319245 0.14707269 0.10176195 0.12910809
0000d0 dd 25 11 3e cb 7d c1 bd 1a 52 a4 3c f8 dc 11 be
       0.141746 -0.09447821 0.02005868 -0.14244449
0000e0 e5 75 8b bc 39 a0 20 3c 71 47 01 3e 7c 71 7a 3e
       -0.01702399 0.009803825 0.12624909 0.24457353
0000f0 2d 98 a4 3d a1 82 d0 3a 36 d0 5e 3c 23 d1 ea 3d
       0.08036838 0.0015908071 0.013599446 0.11465671
000100 32 75 18 be f1 8c 8f 3d e3 64 cf 3d 34 9b 08 3d
       -0.14888456 0.07009304 0.101266645 0.03335114
000110 bf a3 be bd 23 3d 0c be 39 87 08 3d b0 a9 28 3b
       -0.09308576 -0.13695197 0.033332083 0.0025735907
000120 47 5d d4 3d 73 3a 02 3e 95 60 01 3e 7b 6c ce 3e
       0.10369354 0.12717609 0.126345 0.4031714
000130 2d d8 8a be ab f4 0b 3d f1 1c 85 bd 55 0c 97 3c
       -0.27118054 0.03416888 -0.06499661 0.018438498
000140 3f 23 99 3c c5 30 c0 bd 87 a8 ea bd 9d 53 c4 bd
       0.018693564 -0.09384302 -0.11457925 -0.095862605
000150 f3 f6 4e bd 89 88 67 3d e5 d1 24 3e c8 fd 3b be
       -0.050528478 0.056526694 0.16095693 -0.18358529
000160 0a f3 e6 3d 63 2d 83 3e ce fc 53 3e a9 e0 87 3d
       0.11276825 0.25620565 0.20701906 0.066346474
000170 77 55 a2 3e 95 44 4f be 72 94 58 bd e6 45 42 3e
       0.3170583 -0.20241006 -0.052875943 0.18971977
000180 44 f7 b5 be 5f 75 a7 bd fc f3 ce bd 85 d1 69 be
       -0.3554021 -0.08176684 -0.1010513 -0.22833832
000190 41 3b e7 bd 89 e3 1d 3e 38 fa 7d bd 9c 97 7c be
       -0.11290599 0.15418829 -0.062006205 -0.2466721
0001a0 92 54 b6 ba ac cd c0 3c 5f 3e 57 3d 2c de 14 be
       -0.0013910702 0.023535572 0.052549716 -0.14537877
0001b0 6e 65 59 3d 3c 3a ec 3b 87 26 44 3e ea bf 89 3d
       0.053075247 0.0072090905 0.19155322 0.06726058
0001c0 30 75 37 3e a3 79 86 3d 9f 5c 40 3e d5 eb 28 3d
       0.17915797 0.06566169 0.18785332 0.041240532
0001d0 66 d0 93 3d d5 55 87 be b0 66 ce 3c 17 ca d4 3d
       0.07217483 -0.26432672 0.02519545 0.10390108
0001e0 be e7 58 bb ce ad 71 3d 8a 05 0b 3e d4 77 e5 3d
       -0.0033097113 0.059003644 0.13576332 0.11204496
0001f0 c5 62 e6 bd e5 26 8c bd 04 f3 90 3e 7e 8e 33 3e
       -0.112493075 -0.06843356 0.28310406 0.17534825
000200 df 7a db 3d a3 21 95 3c 2a a6 0d 3e 3b 10 58 be
       0.10716795 0.018204516 0.13832918 -0.21099941
000210 50 44 02 3e 6b 68 2c 3e a4 e2 56 bc 36 f3 da bc
       0.12721372 0.16836707 -0.013115559 -0.0267273
000220 e6 6b ec 3d 13 6d 7a 3c 72 b2 b1 bc d8 0b 0f 3e
       0.115440175 0.015284794 -0.021691535 0.13969362
000230 fd 61 dd 3e 7f 4b 06 bd de 7a 75 bd 06 c9 32 be
       0.43238822 -0.032786842 -0.05993163 -0.17459497
000240 df 37 00 be 7f f8 c1 3d 5e df 6a be 67 fc 7f 3d
       -0.12521313 0.09471225 -0.2293677 0.06249657
000250 71 32 37 3d b8 46 63 3d ac ea a8 3d c1 45 5f be
       0.04472584 0.055487365 0.08247885 -0.21803953
000260 e5 89 a8 bd 39 56 37 be 2d 53 a0 bd 60 2b cc 3d
       -0.08229426 -0.17903985 -0.078283645 0.099692106
000270 1e b9 bf be e0 7c 5f 3e 4e d2 38 be 0e 77 d9 3d
       -0.3744592 0.2182498 -0.18048975 0.10618411
000280 0a aa a8 3d 40 43 4c 3a 80 40 c5 bb 01 78 8c 3d
       0.082355574 0.00077920035 -0.006019652 0.068588264
000290 bf f3 87 bc 74 9c d0 bd 17 4a 9c bd e5 78 37 be
       -0.01659572 -0.10186091 -0.07631319 -0.17917211
0002a0 48 b9 cf bb a9 f0 62 3e 8d a0 3a 3d f8 22 61 bd
       -0.006339226 0.22162117 0.04556327 -0.05496499
0002b0 dd 0a 61 be 69 e7 91 bd 6d da 4b 3d 3a 5f 86 3d
       -0.219768 -0.07124216 0.049768854 0.06561132
0002c0 6a 9d 3b bb fb 70 00 3e f8 d5 77 3e 22 4c 2b be
       -0.0028627762 0.12543099 0.24202716 -0.16728261
0002d0 41 b7 db 3d 88 63 69 3b 0f f8 01 3d 22 05 52 3e
       0.10728312 0.0035612304 0.031730708 0.2050977
0002e0 26 13 62 3e 02 e0 11 be 4a 2f 1d 3c 16 f8 ce bd
       0.22077617 -0.14245608 0.009593794 -0.101059124
0002f0 87 58 fe 3d 47 59 f8 3c 5d 86 2a be 9a 30 2c be
       0.12419229 0.030316008 -0.16652818 -0.16815415
000300 5c ce f5 bd 74 29 45 be 06 d9 74 bd e9 25 35 bb
       -0.120022506 -0.19254094 -0.059777282 -0.0027641004
000310 f9 3e 3f be d6 1c 00 be 15 58 79 be 4b 73 61 bd
       -0.18676366 -0.12511 -0.24350007 -0.055041593
000320 b9 4a 2a bd e4 be e0 3d 30 75 34 bd ca c4 78 3e
       -0.041575167 0.109739095 -0.04405707 0.24293819
000330 98 c6 9a bd da f6 29 be 86 c1 31 3e d1 cc 1f 3e
       -0.0755741 -0.16598073 0.1735898 0.15605475
000340 94 08 77 3e 18 a3 10 be 90 0f c7 bc 3b b4 3a be
       0.24124366 -0.14124715 -0.024299413 -0.18232815
000350 46 ac 93 3c 4a fe 56 be 86 e0 5a bd 85 07 e9 3d
       0.018026482 -0.20995441 -0.05343678 0.11378387
000360 47 8b 25 3d 32 8c 8e 3c 9c d9 c6 bb a8 9b 09 be
       0.04041603 0.017400835 -0.0060684215 -0.13438284
000370 9d c8 17 3d 20 3f 25 be 08 00 33 bd 4b f6 7b be
       0.037056554 -0.16137362 -0.0437012 -0.24605672
000380 d3 3b ff bd ad 27 8f be 85 36 68 3e ab fe ff bc
       -0.124625824 -0.27959958 0.22677048 -0.031249365
000390 b5 d2 83 b9 d6 41 42 be 8e 6c 93 3e 99 59 60 bd
       -0.00025143256 -0.18970427 0.28793758 -0.054772947
0003a0 ff eb 85 bd d8 64 47 be 12 3c 07 be f3 e4 a7 bb
       -0.06539153 -0.19472063 -0.13206509 -0.0051237284
0003b0 7d e3 1e bd 47 ec 25 be eb 33 53 3e a1 da c5 3c
       -0.03879117 -0.16203414 0.20625274 0.024152102
0003c0 00 35 90 3d 36 de ad 3c 0b fb 8c 3d 24 aa b6 3d
       0.07041359 0.021224122 0.0688382 0.089191705
0003d0 9b e7 1a 3e 85 dc e4 3c 9a 8d 85 be a6 69 81 bd
       0.15127413 0.027937183 -0.26084596 -0.06318979
0003e0 b1 42 03 bd 08 b7 19 3e a7 9e c4 3e 24 f8 9a bd
       -0.032046024 0.15011227 0.38402292 -0.0756686
0003f0 23 d9 01 3e 41 8e 23 3e 8a 19 1a bd ff 4f 22 3d
       0.12680487 0.15972234 -0.037622012 0.03962707

actor_backbone.2.bias f4 [128]
000000 40 d3 88 3e 57 7f 09 3e 83 f5 0a 3e 40 5e 1d 3e
       0.2672367 0.13427483 0.13570218 0.15367985
000010 ec cf 94 3e e2 0f 7d be d5 f7 35 3e a2 1c 9a 3e
       0.29064882 -0.2471309 0.17770322 0.3009997
000020 83 6e 17 bd 51 36 8b be 26 a4 3b 3e d8 e6 7d 3e
       -0.036970627 -0.27189878 0.18324336 0.24795091
000030 09 c0 1e be a8 4b f2 bd 94 c4 07 be 46 b9 08 be
       -0.15502943 -0.118308365 -0.13258582 -0.13351926
000040 52 26 a3 3e d4 cb 7d 3e 59 58 2a be b3 07 93 3e
       0.31865174 0.24784786 -0.16635264 0.28716812
000050 2c 3a 24 3e a8 02 03 3e 75 23 83 3e 89 c5 a9 3e
       0.16037816 0.12793982 0.2561299 0.3315852
000060 e1 0e 96 3e e2 39 e6 3d 8c 2b 88 3d 78 4b b3 3d
       0.29308227 0.11241509 0.06648931 0.08754629
000070 99 39 ed 3d fe 36 41 3d 6f 40 a0 be 2c ab 5a 3e
       0.115832515 0.047171585 -0.3129916 0.2135436
000080 0d 35 6e 3b ba 75 4a 3e e5 a1 5c 3e d4 a1 4c be
       0.0036347539 0.19771472 0.21546133 -0.19983608
000090 35 41 02 3e a2 25 a2 be 4a c1 1b be 74 ff 88 be
       0.12720187 -0.31669337 -0.15210453 -0.26757395
0000a0 d4 7c 3c 3e 34 2d 50 be 2a 74 21 3d 0f ed 8c 3e
       0.18406993 -0.20329744 0.039417423 0.2752461
0000b0 b2 1e e3 bd 25 63 49 be 54 b2 10 bd 91 10 48 3e
       -0.11089839 -0.19666727 -0.035326317 0.1953757
0000c0 83 22 3a 3e d2 c4 42 3e 97 95 c4 3c 20 d7 90 3e
       0.18177228 0.19020393 0.023997111 0.28289127
0000d0 87 50 88 3e 61 12 dd bc 4b c4 98 3e 9e e8 ac 3e
       0.26623937 -0.026986303 0.2983726 0.33771223
0000e0 57 2e 98 3e 5c f8 2e 3e b6 aa d0 3a 8b 76 80 bd
       0.29722854 0.17086929 0.0015920016 -0.0627261
0000f0 f0 2b 91 3e b9 aa 03 3e 69 be a2 bd 25 fb 94 be
       0.28353834 0.12858094 -0.07946474 -0.29097858
000100 4e 57 e7 3d e2 2e 03 3e 10 2e 01 be 89 4e 3c bd
       0.11295949 0.12810853 -0.12615228 -0.045973334
000110 01 92 26 be 20 88 84 bc fb 81 8a bb 1c 0f 26 be
       -0.16266634 -0.01617819 -0.0042269207 -0.16216701
000120 02 f9 a5 be 3b 7c a1 be 5d f5 99 bd 8a 7a 84 be
       -0.3241654 -0.31540093 -0.075175025 -0.2587474
000130 32 00 b2 bb 02 34 61 be e8 1c a6 3d f5 65 02 3e
       -0.005432152 -0.21992496 0.08110982 0.12734206
000140 24 5f 4b be ec a0 a4 be 78 4a 8f be 37 41 8d be
       -0.19860512 -0.32154024 -0.27986503 -0.27588817
000150 02 4f 06 be a0 59 48 be 6f 67 97 be b2 2a 45 be
       -0.13116077 -0.19565439 -0.295711 -0.19254568
000160 f6 2e b2 3e 20 6b 51 be 60 8a da 3d 47 c2 5f 3e
       0.34801453 -0.20451021 0.10670924 0.21851455
000170 6b d5 86 3e 75 77 d4 bd 27 33 76 3e 74 b8 1b be
       0.263347 -0.10374347 0.2404295 -0.15207082
000180 87 1a 3c be 8d 24 20 3e 73 e4 ab 3e c2 4b eb 3d
       -0.18369494 0.15638943 0.3357273 0.11489059
000190 d9 b8 72 3e 7b 31 14 3e 6a 75 eb 3d f0 81 57 be
       0.23703326 0.14472 0.11497004 -0.21045661
0001a0 9c 13 8d be ea 6b 4c be 0e 96 8d be 11 fe 3c be
       -0.27554023 -0.19963041 -0.27653545 -0.18456294
0001b0 f2 36 47 be ff d2 58 3e 66 de 38 3e e5 b7 7a 3e
       -0.19454554 0.21174239 0.18053588 0.24484213
0001c0 a1 7a 72 bc 7d fd 69 be 42 9d a7 3d 01 87 d7 3d
       -0.014799745 -0.22850604 0.081842914 0.10523797
0001d0 8b 76 1a be 58 a7 81 3e 14 08 99 be 3c 9f 9e be
       -0.15084283 0.25322986 -0.29888976 -0.3098086
0001e0 de 48 cc bd 1f bd 8f be cb 6c 86 be 61 eb 9d be
       -0.09974836 -0.28073975 -0.26254877 -0.30843642
0001f0 e3 c0 ae 3e 97 d2 96 be 77 ec 9d be 91 3b a3 be
       0.34131536 -0.29457542 -0.3084447 -0.31881383

reward_backbone.0.weight f4 [128, 22]
000000 d8 e3 57 3e 71 23 c3 bd 91 de bc 3d 6c 1d b0 3e
       0.21083009 -0.09528244 0.09222139 0.34397447
000010 d7 5d 35 3d e8 fe 68 be 88 1b 25 bd 94 f5 58 3d
       0.044278946 -0.22753489 -0.04030946 0.052968577
000020 ef 60 11 3e 40 15 3c be e5 20 6c bd bb 4c 1e 3d
       0.14197133 -0.18367481 -0.05764856 0.038647395
000030 21 91 ec 3d ed c6 88 3d 80 11 c4 bd a4 d2 ac 3d
       0.11551119 0.06678567 -0.0957365 0.08438614
000040 c9 32 e7 ba 86 72 bb 3b ce 9a 11 bc e7 0d 96 bb
       -0.0017639037 0.0057204394 -0.008887006 -0.004579294
000050 4c 75 f3 3d 95 d6 db 3d f3 98 35 3e 24 4b 71 3a
       0.11887607 0.10734288 0.17734127 0.0009204617
000060 25 27 67 3d d7 b1 a7 3d 07 61 5f 3d ae 58 e3 3d
       0.056433816 0.08188217 0.05453589 0.11100899
000070 99 70 90 bd f5 03 2a bd 4f 09 db 3d ce f3 01 be
       -0.07052726 -0.04150768 0.10695135 -0.1269066
000080 38 0c 0b bc dc 17 7b be df 81 63 3e 90 f4 90 bd
       -0.0084868 -0.2452082 0.2221751 -0.070778966
000090 29 f0 71 bd 93 bd 97 bd 89 bc 2a 3c 22 7f 12 3e
       -0.059066925 -0.07409205 0.010420927 0.1430631
0000a0 8e ec 55 bc 16 27 35 be 6e ca 49 bd a9 80 e9 3d
       -0.013056887 -0.17690691 -0.049265318 0.11401493
0000b0 61 7e 84 bc 1e ba 26 be ae 95 f2 bd ac 25 82 be
       -0.016173543 -0.16281936 -0.118449554 -0.25419366
0000c0 3b a7 9f bc 62 a1 31 be 57 22 c7 bd 85 cd 1f 3d
       -0.019488921 -0.17346719 -0.09723347 0.039014358
0000d0 a1 67 4f be f5 cb b2 bc b8 b3 0b bd 25 a5 70 bd
       -0.20254375 -0.02182577 -0.03410694 -0.058751244
0000e0 6a 1b 63 3e f7 eb af bd de eb 7f bd 37 7f 4d 3e
       0.22178426 -0.085899286 -0.0624808 0.2006806
0000f0 98 5e 0d 3c 7b 70 9c bd c7 81 4b be a4 b5 17 be
       0.00862851 -0.076386414 -0.19873725 -0.14815384
000100 38 e9 2f 3b 85 0a 83 be 5f 03 dc 3d 71 ca 2a 3e
       0.002684189 -0.25593963 0.107428305 0.16678788
000110 59 65 40 3e fa e5 ae bd e1 5e c8 3c 8c 01 17 3e
       0.18788661 -0.08539958 0.024459304 0.14746684
000120 5c 19 cb bc b6 b6 a5 3b 63 3d 85 bd c2 b5 96 3d
       -0.024792366 0.005057181 -0.06505849 0.07358886
000130 7a 27 57 3c b5 1d 15 be e1 5c ca 3c a6 95 04 bd
       0.013131971 -0.14562114 0.024702491 -0.03236928
000140 97 04 b7 3c 8b 07 19 3d 51 f0 5a bb f1 fe 3c bc
       0.022341056 0.03736071 -0.00334074 -0.011535392
000150 0d b8 68 bd fb 80 64 be d7 5d 52 3d 91 81 d3 bc
       -0.05681615 -0.22314827 0.051359024 -0.025818618
000160 73 ef ae 3d 95 85 54 3d db 9e 52 be 48 72 c4 3c
       0.08541765 0.051885206 -0.20568411 0.023980275
000170 e3 02 1e bd 5b d2 78 bd 47 c9 e6 3d a7 dc 5c 3d
       -0.03857697 -0.060747486 0.11268859 0.053921368
000180 17 46 a3 be 5d b2 df bd 57 c5 27 be 06 2a 09 be
       -0.31889412 -0.10922692 -0.16383873 -0.13394937
000190 1f 3e e8 3c 7c 7d 7d 3d bd a5 ec 3d f2 3e da 3c
       0.028349934 0.06188725 0.115550496 0.026641343
0001a0 13 4d 32 3e 44 2a 4d be 53 54 fd 3d 7d 8a 3d be
       0.17412214 -0.20035654 0.12369599 -0.1850986
0001b0 25 a5 52 3e 80 d2 23 bd b1 eb 31 3d 68 30 9f be
       0.2057081 -0.03999567 0.043437663 -0.3109162
0001c0 34 ee b9 3c fa 8c c4 3e 22 ec 25 bd 15 b5 bd bd
       0.022696592 0.38388807 -0.040508397 -0.09263054
0001d0 06 ba 11 3e 25 da 9f 3d 15 93 55 3d be ea fc b9
       0.14231119 0.0780528 0.05214222 -0.00048240082
0001e0 df 8c ad 3d 47 0b 61 bc 03 78 5a bd b6 6a 2b 3e
       0.08474135 -0.013735599 -0.05333711 0.16739926
0001f0 b8 fd ec 3d 6e 93 ed 3c 00 6b 96 3c f3 51 b2 3c
       0.115718305 0.029000964 0.018361568 0.021767592
000200 2e d3 95 3b c3 9d 1f 3e c5 52 00 3e 9c f7 1c 3c
       0.0045722937 0.15587525 0.12531574 0.009580519
000210 2c 36 55 3b e0 36 14 3e fa 4f 32 3e 42 09 bb bd
       0.003253351 0.14474058 0.17413321 -0.09132625
000220 12 0b 8d bc 53 77 19 be d6 3e da bd 14 74 3b be
       -0.017217193 -0.14986925 -0.10656516 -0.18305999
000230 47 35 08 3e 73 26 56 3e 2b 0b b3 bc 51 e2 7c bd
       0.13301574 0.20913105 -0.021855911 -0.06173927
000240 78 2e b5 bd 92 39 f1 bd 4b a6 38 3d 3c 5c dd 3b
       -0.08846754 -0.11778559 0.045080464 0.00675538
000250 64 ef 1d bd 80 2b 3a bd 6f 8c e5 bd 54 fd 09 3e
       -0.03855838 -0.04545164 -0.11208426 0.13475543
000260 78 03 a7 3d e6 fc 11 be 72 b5 06 bd 68 57 7a 3e
       0.081549585 -0.1425663 -0.032887883 0.24447405
000270 b5 0d 6c bd 67 9f fe bc 1e be 83 3d de a5 e2 3d
       -0.05763026 -0.031081868 0.06432746 0.11066793
000280 fd a6 b8 bd b6 72 51 3e 10 61 2b 3e b2 22 12 be
       -0.090162255 0.20453915 0.16736245 -0.14271048
000290 28 e8 07 3c 44 cb c5 bd c0 89 32 3e f8 ab f9 3c
       0.008295096 -0.096579105 0.1743536 0.030477509
0002a0 37 91 d5 bd 24 7b 98 bd 3e a7 8a 3c 2c 5b 20 bd
       -0.10428088 -0.07445362 0.01692545 -0.03914945
0002b0 76 21 08 bd b7 4e 31 bd 3a 25 9e bd fa 2f 56 be
       -0.033235036 -0.04328796 -0.07721944 -0.20916739
0002c0 da 74 d4 bd e7 97 01 be fa d5 12 be 66 c2 61 be
       -0.1037385 -0.12655602 -0.14339438 -0.22046813
0002d0 ed 3a ab 3d 88 a0 6d bd b8 c6 21 3d 56 17 23 bd
       0.083608486 -0.058014423 0.039496154 -0.039817177
0002e0 38 8a 3f 3c e2 20 12 be f5 15 c3 bc 5f 96 e1 bc
       0.011690669 -0.14270356 -0.02381418 -0.027537523
0002f0 b8 20 03 3e 64 90 20 be 7b bc 45 be b6 fc 87 bd
       0.1280545 -0.1568008 -0.19310181 -0.06639998
000300 97 57 cf bc dd 5c 89 3d cc 23 76 3e f4 fe 30 3c
       -0.02531032 0.067071654 0.24037093 0.010802973
000310 2b d6 3d bd e1 b8 25 3e 45 cf 41 bb 4a 2c 59 be
       -0.046346825 0.16183807 -0.0029573005 -0.21208301
000320 dd 57 7a be 87 95 5a 3e 67 b5 24 3e 8a 66 1b be
       -0.2444758 0.21346103 0.16084825 -0.15175834
000330 4b 24 a2 bd 9f 73 f9 bd 77 9c 35 3b e7 5c c1 bd
       -0.079170786 -0.12180256 0.0027711669 -0.09441548
000340 d2 1a 8b 3d 15 9f 85 bd bf b8 5b bd 25 da 0d 3d
       0.06792225 -0.06524483 -0.053642984 0.034631867
000350 f5 d1 ff 3c c7 a9 2f bc 08 57 90 3d 9e 11 f8 3d
       0.031228045 -0.01072163 0.0704785 0.12112735
000360 f7 eb 74 be e9 ab 2c be 8f 6a 9c bd ac d0 97 3d
       -0.23918138 -0.16862454 -0.07637512 0.07412848
000370 f0 8c 14 bd b5 4e 04 3d f4 f5 f4 bc d2 3e 55 3e
       -0.03626722 0.032301623 -0.029902436 0.20824745
000380 5b 7e 84 3e a7 54 8c bd fe 67 a5 bd c7 4f ee bc
       0.25877652 -0.06852084 -0.080764756 -0.029090775
000390 9e 1a 86 bd 00 30 a5 bd 1f dc 98 bd 9e 0a 36 3c
       -0.065480456 -0.08065796 -0.0746386 0.01111093
0003a0 6e 3c 12 be c6 3e cd 3d 2a 06 fd 3d 98 4e f1 bc
       -0.14280865 0.10021739 0.12354691 -0.029456422
0003b0 d1 eb 7e 3d 9e d1 bd 3b d2 42 eb 3d 97 5c 38 3e
       0.06223661 0.0057928106 0.11487354 0.1800407
0003c0 25 9c ae be c5 d2 f4 bc 95 9f 16 3e 41 00 c9 3d
       -0.34103504 -0.029885659 0.14709313 0.098145016
0003d0 61 57 22 be 66 e1 62 bd 6a 8b 15 3c ca 4a 88 3d
       -0.15853645 -0.055390738 0.009127477 0.0665489
0003e0 38 aa 44 3d b6 66 f4 bc d8 f3 ce bc 93 3b 13 bd
       0.048013896 -0.029834133 -0.025262758 -0.035945486
0003f0 08 c6 db 3d a1 a0 33 3d 00 59 27 3d b3 0a b7 3d
       0.10731131 0.04385436 0.04085636 0.089375876

reward_backbone.0.bias f4 [128]
000000 ca cd fc 3c 2d 7e c2 3d 41 91 af 3b 2b ed 43 3c
       0.030859847 0.09496722 0.005357892 0.011958401
000010 92 42 64 bd a0 0b de bc 86 f8 52 3d 1e 56 9c 3d
       -0.05572755 -0.027105153 0.05150654 0.07633613
000020 92 70 30 be 65 c4 9b bc 8d de 04 bd 65 e1 50 3d
       -0.17230442 -0.019014547 -0.032438803 0.050996203
000030 5b dd 88 be 5c 12 1c bd 7b fb 6f bd d2 b5 3b 3c
       -0.2673138 -0.038103446 -0.05858944 0.011456924
000040 db ef a0 be 04 72 08 3e 94 60 52 bd 4b 86 4f bd
       -0.31432995 0.13324744 -0.051361635 -0.05066518
000050 22 4e 8b bd c5 65 8b 3e 42 82 f6 3c 3d 32 0e be
       -0.06802012 0.27226081 0.030091409 -0.13886352
000060 68 8f 49 be 1b 6e be bc 1e 34 c2 3d 21 ed 19 be
       -0.19683611 -0.023245862 0.09482597 -0.15031864
000070 87 35 04 3e 6c b1 a8 bd 72 08 9f 3c c9 9f a8 be
       0.12911044 -0.082369655 0.019413207 -0.32934406
000080 3c b5 8e 3d 49 13 7f 3d 10 37 5a bd 1a 03 d2 3d
       0.069681615 0.06227425 -0.053275168 0.10254498
000090 39 01 37 3d 50 b6 58 3d 72 1e f6 bc 48 37 ea bc
       0.0446789 0.05290824 -0.030043814 -0.028590813
0000a0 32 f1 14 be 71 61 80 3c c1 d3 0d 3e d0 ec 05 be
       -0.14545134 0.015671464 0.13850309 -0.13078618
0000b0 c8 a3 e2 bc 7a 10 2e 3d b2 33 30 3c 3c 63 d5 3d
       -0.027665988 0.042496182 0.010754513 0.10419318
0000c0 4e 17 04 be 14 1c 2b bd aa 59 9f 3d f7 9c 80 be
       -0.12899515 -0.041774824 0.07780774 -0.25119755
0000d0 8a c3 4a bd 2f 78 af be a5 92 b8 3d b0 08 88 be
       -0.049502887 -0.3427138 0.09012345 -0.26569128
0000e0 c8 b7 94 be 2e 64 0d bd 9a 04 16 3c 44 44 df bd
       -0.29046464 -0.034519367 0.009156371 -0.109016925
0000f0 9c 8c b5 bd 77 e6 1f 3e df 03 5d b9 02 d4 99 3c
       -0.0886471 0.15615259 -0.00021077644 0.018777851
000100 13 c3 8f bd 5c 8d d2 3c f0 7f 94 3c 59 62 29 b9
       -0.07019629 0.025702171 0.018127412 -0.00016153733
000110 8a a2 d6 3d 26 80 4e be 83 91 63 bc 79 12 9a bd
       0.104802206 -0.20166072 -0.013889673 -0.07523055
000120 e2 99 b5 3c 3f c8 ee 3d c8 f9 19 3e 0e 57 38 3d
       0.022168104 0.11659288 0.1503669 0.045004897
000130 be 7d 43 3b 03 ba 07 bd bd 86 62 3d e4 05 0d 3e
       0.0029829587 -0.03313638 0.055304278 0.13771778
000140 0c 82 be bd 95 c5 08 3b f7 b0 81 3e 38 7e 30 3e
       -0.09302148 0.0020869721 0.25330326 0.17235649
000150 64 fa ac bd ad 49 bb 3d 5e 75 33 be 4c ca 88 3d
       -0.08446196 0.09144912 -0.17525241 0.0667921
000160 5b 44 89 bd b0 24 96 bc 80 c5 8d bb 80 63 7e bd
       -0.06702491 -0.01832804 -0.0043265224 -0.06210661
000170 a7 04 83 bd cc d1 99 be 7c 87 33 bd 59 ce bf 3c
       -0.06397372 -0.30042875 -0.04383038 0.023413824
000180 bf dc 39 3e f7 2c 13 be f2 76 13 bd 5c b8 2d 3d
       0.18150614 -0.14372621 -0.036002107 0.042412147
000190 84 40 33 3d 0a e8 8c be bb db 9d 3d 37 02 44 3c
       0.0437627 -0.27520782 0.07707926 0.011963419
0001a0 3b c8 ae 3d 2e 9b 26 ba cc be 4b 3d b5 78 26 be
       0.08534285 -0.0006355521 0.049742505 -0.16256984
0001b0 60 30 af 3c 23 2b d5 bd 5d 00 ab bc 32 f3 8b bd
       0.021385372 -0.10408618 -0.020874197 -0.06833495
0001c0 b4 7a c6 bd 87 49 52 bd 9a 90 4e bc 62 ba 8b 3d
       -0.096913725 -0.051339652 -0.012607718 0.06822659
0001d0 3f e1 3f bd 0f 18 5a 3d 4a 81 3a 3c 01 69 c6 3c
       -0.04684567 0.0532456 0.011383364 0.024219992
0001e0 70 b9 f1 3d e4 89 47 bc 20 ba 21 bd 62 f1 51 bd
       0.118029475 -0.012178872 -0.039484143 -0.05125559
0001f0 00 31 72 3a cf 7f d0 bd 89 8d f2 bc 44 62 76 3c
       0.0009238869 -0.101806276 -0.029608505 0.015038077

reward_backbone.2.weight f4 [128, 128]
000000 36 dd 29 bd a5 28 c5 3b 49 d9 9e 3d 18 9d ab bd
       -0.04147073 0.006016808 0.077562876 -0.08379573
000010 a1 78 ab bd a1 cf 0f 3d 63 3f 9c bd 88 8c c6 3d
       -0.083726175 0.03511012 -0.076292776 0.09694773
000020 23 96 08 3e e8 a0 37 bd cb a5 9b 3c 89 a2 fb bd
       0.13338523 -0.044831187 0.018999955 -0.122868605
000030 4c 3b b7 bc 54 da 18 be 8a c3 3d 3d b4 88 5e 3d
       -0.022367142 -0.14927036 0.04632906 0.05432959
000040 32 c7 19 be 6d 06 b0 3e 40 5d eb 3c a6 da f7 3c
       -0.15017393 0.34379902 0.028730989 0.030255627
000050 b0 d8 ec bb 30 75 c6 bd 41 9b 6c 3e 8d ba 26 be
       -0.0072279796 -0.096903205 0.231061 -0.16282101
000060 97 bc ce 3d 40 54 14 be 43 8c e5 bd c8 82 a8 3d
       0.100945644 -0.14485264 -0.112083934 0.082280695
000070 93 72 07 bd 65 d2 d1 bd 2c f5 9e 3d 89 02 f9 bd
       -0.03306825 -0.10245208 0.077616066 -0.12158687
000080 8e 06 bf 3c 7d b1 07 3e 18 2f d8 38 7c e9 a1 bd
       0.023318555 0.132513 0.000103084545 -0.07905862
000090 c7 42 30 3d 56 29 49 3e 98 a6 9c bd 20 20 69 3c
       0.043032434 0.19644675 -0.07648963 0.014228851
0000a0 8b 69 8a be d3 da e7 3d eb a2 6e 3e 03 ae 34 be
       -0.27033648 0.11321034 0.23304336 -0.17644505
0000b0 b6 ad 94 bd a7 e3 a0 bd 87 99 64 be 2a eb d0 bd
       -0.07259695 -0.07855921 -0.22324191 -0.10201104
0000c0 e0 5e 84 3d 4e 73 f5 bd 56 42 a5 3d 6b 98 c6 bc
       0.064634085 -0.11984883 0.08069293 -0.0242426
0000d0 62 a5 96 bd 97 63 35 be a8 03 c4 3d b5 00 a3 3d
       -0.07355763 -0.17713772 0.0957101 0.07959119
0000e0 5f ca 47 be 5d d0 64 be 7b da 2b bd 07 48 06 bc
       -0.19510792 -0.2234511 -0.041956406 -0.008195884
0000f0 22 6a 2b bb e8 01 cb 3b 7c ae 30 be a6 89 19 3e
       -0.002615579 0.0061952956 -0.1725406 0.14993915
000100 03 32 c3 3c 9f 63 f4 bd 2f 58 ff bd 05 f2 9f be
       0.023827558 -0.11933064 -0.124679916 -0.31239334
000110 65 ce c9 3c e9 4a 02 be d8 92 13 be 2d 04 42 3d
       0.02463455 -0.12723888 -0.14411485 0.047367264
000120 93 fd 4e 3e c3 da f2 3d f7 bc a2 3e 71 a3 16 be
       0.20213918 0.11858132 0.31784794 -0.14710785
000130 29 37 3a bc eb 11 86 be 90 de 1a bd 9f 70 0d bd
       -0.01136569 -0.26185545 -0.03780991 -0.034531232
000140 f4 0a e8 3d be 3c 3e 39 b1 2a 92 3e 84 2d 90 3d
       0.11330214 0.0001814244 0.28548196 0.070399314
000150 5c 88 fc bd 81 03 f4 bd 8d a5 8b be 9c 9a 49 bc
       -0.12330696 -0.11914731 -0.27274743 -0.012304928
000160 05 4b 96 3e c7 45 e7 3d bd e9 b0 bd c8 d9 8b 3c
       0.2935411 0.11292606 -0.08638332 0.01707162
000170 87 65 84 bd 65 2c 0c be 70 19 1b 3e ef 0f 5e 3c
       -0.06464677 -0.1368881 0.15146422 0.013553604
000180 b3 20 9b 3d ff 85 28 be 43 c3 cd 3d b2 c0 02 3d
       0.07574596 -0.16457365 0.10047009 0.03192205
000190 6b fa a6 3d 96 ec 89 be 86 25 cf 3d 55 02 b9 3d
       0.08153232 -0.26938313 0.10114579 0.09033648
0001a0 e6 be ca 3c 09 81 c4 bd 34 ba e1 38 86 60 10 be
       0.02474923 -0.09594924 0.00010763519 -0.14099321
0001b0 05 66 46 bd 11 aa 83 bc e1 dd c6 3d 0b 75 d8 bd
       -0.048437137 -0.016072305 0.09710289 -0.10569199
0001c0 44 35 0d 3b 21 df b5 bd 27 f4 d3 bc 5e d1 b1 3d
       0.0021546641 -0.08880449 -0.025873257 0.08682512
0001d0 30 86 62 bd 3e 28 e2 3b e5 58 31 bd 48 66 41 3e
       -0.055303752 0.00690177 -0.043297667 0.18886673
0001e0 f9 fb 16 be 90 ae 11 3e 10 4e ad 3c ce c7 28 3d
       -0.14744557 0.14226747 0.021155387 0.041206174
0001f0 fe fa 50 bc f6 42 54 3e e2 5c 9d bd 0a bb 91 be
       -0.012755154 0.20728669 -0.076837316 -0.28463012
000200 38 c9 92 bd 1e f8 fe bd 0f d0 1f 3e 69 68 1a be
       -0.07167286 -0.12449668 0.15606712 -0.15078892
000210 9c 6e 78 bb ca 2f df bb 92 b6 a7 bd 7d 7b 05 3e
       -0.0037907725 -0.006811117 -0.081891194 0.13035388
000220 1e f1 2c 3e 6c 58 58 3c ea 11 b7 bd a3 1d cd 3d
       0.16888854 0.013204675 -0.08938964 0.100154184
000230 2b 72 5f 3e 53 5b 60 3d 56 5a 0f be 58 5e ec 3d
       0.21820895 0.054774594 -0.13999304 0.11541432
000240 24 ac 71 3d bf bb de 3d ad be 0d 3e 65 52 48 3e
       0.059002057 0.108756535 0.13842268 0.19562681
000250 62 8d ca bd 78 8b 09 3e b4 17 bc bc 40 d7 15 3e
       -0.09890248 0.1343211 -0.022960521 0.14632893
000260 3c 62 03 be 4c 4f b0 3a e6 cb 84 be 00 fc 19 3d
       -0.12830442 0.0013451367 -0.25936812 0.03759384
000270 0c be 72 be cc df 12 3e 5f cd 73 3d d0 f8 88 3e
       -0.2370531 0.14343184 0.05952203 0.2675233
000280 d9 48 69 be 41 98 d5 3d e6 ff 2a be 0e d7 88 3d
       -0.22781695 0.10429431 -0.1669918 0.066816434
000290 f5 cc aa 3d 08 80 fc bd 57 55 34 3e 52 66 bc 3e
       0.08339874 -0.123291075 0.1761068 0.36796814
0002a0 57 b1 a6 3d 3b a4 fc bd 1c c5 32 be 6c 1d 39 bd
       0.08139294 -0.12336012 -0.17458004 -0.045194075
0002b0 1c 62 d1 3d 8e e0 39 3d 5a 8c c7 3c 83 10 8c 3d
       0.10223791 0.045380168 0.024358917 0.06839087
0002c0 31 6d 97 3e a7 83 39 be 2e 2d f4 bb 6c f7 3a bd
       0.29575494 -0.18116628 -0.007451675 -0.045646116
0002d0 57 59 9c 3d e9 8f 1e bd 2b dc cf bd e2 7a 90 bc
       0.07634228 -0.038711462 -0.101494156 -0.01763672
0002e0 38 69 13 3e 71 fc 28 bd 65 5b f9 bd 25 0e e7 3d
       0.14395607 -0.041256372 -0.12175635 0.11281995
0002f0 ac 3d 4d 3e 40 73 eb bc 93 71 24 bd c7 71 65 3e
       0.20043057 -0.028741479 -0.040147375 0.22406684
000300 c8 da f2 bd f2 bf a8 3c 11 74 1c 3e 03 da f6 3d
       -0.118581355 0.02059934 0.15278651 0.12053301
000310 ee 3d 14 3e e5 b5 0d 3e 95 2c 9d bd f3 e7 6e 3d
       0.1447675 0.13838919 -0.07674519 0.058326673
000320 fa 83 fe bd 07 9b 58 bd 7a 63 5f 3c b7 1c a8 bd
       -0.12427516 -0.05288222 0.013634557 -0.08208602
000330 fe dc 0d bc 54 89 f1 3c f9 12 ae 3d 1e e1 2b 3d
       -0.008658646 0.029484428 0.084997125 0.041962735
000340 b5 1a 85 3d 6b 3a 57 3d b4 63 39 be cd 2a e7 3d
       0.064992346 0.052545946 -0.1810444 0.112874605
000350 0c 94 18 3e 7d aa c9 bb a9 7d c6 3d 44 a1 18 be
       0.14900225 -0.006154357 0.096919365 -0.14905268
000360 03 cc 85 3d 5e 35 36 bc 35 c1 28 be 01 01 7d 3d
       0.06533053 -0.011121122 -0.16479953 0.061768536
000370 bc 55 4e 3c af 52 80 3e ad 7d 7e bc 94 9c 13 3d
       0.012593683 0.25063083 -0.015532893 0.036037996
000380 16 46 0a bd 85 ff 89 3c f2 4b 07 3e 31 b6 96 bd
       -0.033758245 0.016845474 0.13212565 -0.07358969
000390 08 13 6c be 13 b4 d8 3d 80 94 ed 3c 7b 82 a1 3b
       -0.23054135 0.105812214 0.029001474 0.0049288846
0003a0 1c 5a fd bb 64 79 9f bd 76 46 22 be e8 91 98 3d
       -0.007731689 -0.07786825 -0.15847191 0.074497044
0003b0 4c 96 02 bd 9d 3f 8c 3e 16 24 ec bd 03 dd 55 3e
       -0.031881616 0.27392283 -0.1153032 0.2088509
0003c0 7c 5a db 3d 89 9e 30 3e 05 91 90 3d 80 8b 08 be
       0.10710618 0.17247976 0.0705891 -0.13334465
0003d0 ad 1e c9 bd 64 cf 6f 3d b7 18 be 3e b6 09 59 3e
       -0.09820304 0.058547392 0.3712823 0.2119511
0003e0 1e 55 5c bd d6 be be 3d e6 7f 5e 3d 96 c3 bf 3c
       -0.05379211 0.09313743 0.054321192 0.023408692
0003f0 8e 34 60 bd f7 08 1d 3c 3b 53 fd bc bc 74 5d 3d
       -0.05473762 0.009584657 -0.030923476 0.054066405

reward_backbone.2.bias f4 [128]
000000 62 cc ec 3d 3a 0f 27 be 12 22 9c bd f7 15 7a be
       0.115624204 -0.16314402 -0.07623686 -0.24422441
000010 af bd 8b bc c7 1e ba 3d b0 ee 74 bd 1e 17 cc bd
       -0.017058222 0.090879016 -0.059797943 -0.09965347
000020 b8 d0 a5 3d 0b 34 1c bc 0e 68 9a 3d 93 78 a8 3d
       0.080964506 -0.009533892 0.07539378 0.08226123
000030 2b d0 0b be b4 9b 03 be 9e 41 85 bd 12 11 93 bd
       -0.13653629 -0.12852365 -0.06506656 -0.0718099
000040 ec f4 de 3d 2b c7 c0 bc 4f ab 8a bd 80 ea 3e 3d
       0.10886559 -0.02353247 -0.06770956 0.046610355
000050 e4 47 98 bd 6a 9b 05 3e 42 66 41 bd 55 42 61 bd
       -0.07435587 0.13047567 -0.04721666 -0.0549949
000060 70 e7 03 be 6f 06 ab 3d 77 e7 be 3d 85 1a df 3d
       -0.12881255 0.083508365 0.09321492 0.1089373
000070 da 1b ab bd 5b cc 02 bd d9 71 5a bd ef aa 96 3d
       -0.08354922 -0.03193317 -0.05333123 0.07356822
000080 21 b5 3b 3d b0 02 c8 3d d0 19 d4 3d 4b 33 c7 3d
       0.045827035 0.097661376 0.10356486 0.0972658
000090 29 0f 06 bc 65 e5 b7 3d c1 cc 8e 3d ed a1 4c 3d
       -0.008182325 0.089793004 0.069726475 0.049959112
0000a0 47 04 41 bd b6 0e 8a bd 76 4c a0 bd 7d 8b 8f 3d
       -0.04712322 -0.06741087 -0.07827084 0.07009027
0000b0 92 fa bc bd 44 5e b2 bd 3c 42 01 bd f2 4d 24 3d
       -0.0922748 -0.08709386 -0.031557307 0.040113397
0000c0 41 aa e3 bd 85 da f7 3c 62 56 e2 bd 72 0e 59 bd
       -0.11116458 0.030255565 -0.110516325 -0.05299229
0000d0 a4 3c 8e 3c 98 5d b5 3d 85 19 f0 bc 2e b8 03 bd
       0.0173629 0.08855742 -0.029309044 -0.03215807
0000e0 e7 8e 65 3d b6 24 12 3c 40 0a ae bd 3f 5d 03 b9
       0.056044485 0.008919885 -0.08498049 -0.0001252787
0000f0 c4 50 79 bd 27 c4 8d bc c8 fc 33 3d 14 a9 65 bd
       -0.06086804 -0.017305447 0.043942243 -0.05606945
000100 e2 a7 f3 bd 89 dc b4 3d f4 f0 89 3d d9 da 56 bd
       -0.118972555 0.08831126 0.06735411 -0.052454803
000110 c1 23 3d bd e0 eb f9 3c 2e 81 8e bd 52 79 bf 3d
       -0.046176676 0.030507982 -0.06958233 0.09349312
000120 0f c8 d7 3d f7 49 c2 3d ac 23 a9 bc f4 4b c5 3c
       0.10536205 0.09486764 -0.020646892 0.024084069
000130 40 4f 17 3e 9b 1a 30 3d 39 08 c8 bd 51 e8 50 3d
       0.14776325 0.042994123 -0.09767193 0.051002804
000140 23 e8 d6 3d e7 9a ee bd 3c 22 a8 3d 3a f5 e3 bd
       0.10493495 -0.11650639 0.08209655 -0.11130758
000150 2e a3 0f be 90 02 76 be 3d 03 f8 3d 97 0d 08 3e
       -0.14027092 -0.24024415 0.12109993 0.13286434
000160 76 8e e4 3d 49 7f 9a bd 7f a4 ba bc e9 e6 b6 bc
       0.11159985 -0.07543809 -0.022783516 -0.022326903
000170 2a 38 b7 bd f4 c9 b0 3d e3 39 b4 bb dd 50 e5 bd
       -0.08946259 0.086322695 -0.0055000647 -0.11197064
000180 b5 56 3d 3d 3d 5d e7 bd 31 42 06 be 9b 23 4e bb
       0.04622527 -0.11297081 -0.13111188 -0.0031454328
000190 05 a7 41 3d 89 6b 8b bd 9a 3b bf 3d db 4e 16 be
       0.047278423 -0.0680762 0.0933754 -0.14678518
0001a0 21 dc ed bd 20 28 75 bd 6e 9e 9f bc 44 59 a2 3d
       -0.11614252 -0.05985272 -0.019484725 0.07927182
0001b0 af f4 7f bd da bc 29 3e 35 8b 85 bd 06 e3 5d bd
       -0.062489208 0.16575947 -0.06520692 -0.054171585
0001c0 67 ff b3 bd b7 71 8f 3d 7a 62 43 3e 57 75 32 bd
       -0.087889485 0.07004111 0.19080535 -0.043568935
0001d0 0d da e8 bd 18 23 95 bc f0 88 a9 bd 11 c6 88 bd
       -0.11369715 -0.01820521 -0.08278072 -0.06678403
0001e0 ed 94 22 3d e1 af b3 bd 17 10 04 3e 38 eb a1 bd
       0.039692808 -0.087737806 0.12896763 -0.079061925
0001f0 dd 65 c4 bd 75 a8 4a 3d 05 ad 04 3e e0 cf ea 3d
       -0.095897414 0.04947706 0.12956627 0.1146543

cost_backbone.0.weight f4 [128, 22]
000000 40 f9 00 3e 97 09 e6 3d c9 ea 2e bd 87 37 91 3e
       0.12595081 0.11232298 -0.042704377 0.28362677
000010 2a cb 05 3e ba 0e 8d 3d f0 09 2d 3e 05 bb dc bd
       0.13065782 0.068875745 0.16898322 -0.10777859
000020 75 e4 cf bd 82 0e c7 3d 9f 35 6e be d7 14 28 3e
       -0.101509966 0.09719564 -0.23262642 0.164142
000030 6d 32 49 bd ba ec bd 3d b3 95 3e bd e1 d9 49 bd
       -0.049120355 0.09273668 -0.046529483 -0.04928005
000040 91 cf 08 3d 84 89 e5 3b c0 45 ed 3d 79 e0 d3 3d
       0.033401076 0.0070049185 0.115855694 0.10345549
000050 9c 4d 47 3e 9e 87 bf 3b a0 98 b6 3d 9a 0f 7a 3d
       0.194632 0.0058450243 0.0891583 0.061050035
000060 02 7f 5d 3c a1 30 38 3d 0e 20 2c bc 2f b3 f9 bd
       0.013519051 0.04496825 -0.010505689 -0.1219238
000070 a7 b9 bb 3c 44 0f e7 3d a6 60 91 bd c9 83 e4 3d
       0.022915674 0.112822086 -0.07098512 0.111579485
000080 9d 9a 9b be 32 74 a2 bd 47 06 18 3e d9 37 f3 bd
       -0.30391398 -0.07932319 0.14846145 -0.118758865
000090 7f c1 d2 3c d1 23 e4 3d d2 25 2c bd 4d 1e 0f 3d
       0.025727032 0.11139644 -0.042028256 0.034941006
0000a0 e6 c6 e3 3d d8 47 37 bd 48 1c 2c 3e 0a 1c 1d 3e
       0.11121921 -0.04474625 0.16807663 0.15342727
0000b0 84 7d 9a 3d c3 f9 1e 3d 12 76 20 bd 7e aa a2 be
       0.075434715 0.03881241 -0.0391751 -0.317707
0000c0 58 18 db 3c 21 fb 47 bd a3 5e 87 bb db 53 1e bd
       0.026745006 -0.04882348 -0.0041311546 -0.03865419
0000d0 78 c0 75 bd 5c e6 66 bd 65 67 e4 bd f0 88 c3 bb
       -0.059998006 -0.05637203 -0.111525334 -0.005967252
0000e0 9c 7d bc bd 42 0b 18 3e 07 2d 29 bd cf 39 50 3d
       -0.092036456 0.14848045 -0.041302707 0.05083638
0000f0 73 d1 0b bb 7f 26 ce 3c fc 28 43 3b b9 36 df bd
       -0.0021334558 0.02516484 0.0029779067 -0.108991094
000100 d9 a2 ca 3d 54 fc 99 3e 38 4e b1 3d ea 0b 77 3d
       0.09894342 0.30075324 0.08657497 0.060314097
000110 cf b8 9e bd c9 f2 cb bc 48 16 27 3e c3 b2 93 bd
       -0.07750093 -0.024896042 0.16317093 -0.072118305
000120 c3 91 8b bc 7b 1c 67 3d 64 d1 5e ba 35 b0 53 be
       -0.017037278 0.056423645 -0.00084998296 -0.20672686
000130 68 75 da 3d ed 00 16 be ba 07 a3 bd f9 fb bc 3b
       0.10666925 -0.1464879 -0.07960458 0.005767342
000140 2b b3 1f be 93 57 a0 be fb 15 49 bd da 64 c4 3d
       -0.15595691 -0.31316814 -0.049093228 0.095895484
000150 c0 4c d9 3d d4 ee 4b bd 17 fe 00 be 1d cb e3 3a
       0.10610342 -0.04978831 -0.12596928 0.0017379258
000160 2a dd 1c 3e 29 7c ac 3c 5c b6 af bd c0 c2 4d be
       0.15318742 0.021055298 -0.08579704 -0.20093822
000170 12 fd ad 3c 45 6d 2a 3d 96 c1 f9 3c 2a 20 30 be
       0.021238837 0.041608114 0.030487817 -0.1719977
000180 56 94 0a be df ac e1 bd f0 f8 ae bd 98 23 c3 be
       -0.13533148 -0.11019301 -0.08543575 -0.38113093
000190 8b 17 27 bd 4b 5f b4 3d fa c3 aa bc 90 a8 9d 3c
       -0.040793937 0.08807238 -0.020845402 0.019245416
0001a0 03 4d db 3d 51 e6 e2 3d 1d 99 b0 3e f7 3d 4a bb
       0.10708048 0.110790856 0.34491816 -0.0030859688
0001b0 6f 39 b9 be 60 c5 a1 bd e4 b3 f7 bc bb 35 e1 bd
       -0.3617663 -0.078989744 -0.030237146 -0.109965764
0001c0 bf 63 4b 3d e9 ac 71 3e 4b 72 50 bd c5 e3 01 3c
       0.049655672 0.23601116 -0.05089025 0.00792784
0001d0 0c 18 58 bd fa 45 04 3e 75 a9 24 bd 49 0a 3c 3d
       -0.052757308 0.12917319 -0.04020067 0.045908246
0001e0 fb db 93 3d b8 da 31 bd 80 7f 41 be 4e 67 f6 3d
       0.07219692 -0.043421477 -0.18896294 0.120314226
0001f0 8d e3 76 3d fa 40 d3 bd d4 a2 fa bc 3e 7d f8 3d
       0.060275603 -0.10315128 -0.03059522 0.12133263
000200 de 3a 8a 3d 63 f2 9d 3d 87 94 c1 bd f2 fc 90 3e
       0.06749509 0.07712247 -0.094521575 0.28317982
000210 09 07 b8 bd 48 2b 48 be c4 aa aa bd 76 ef 1a 3d
       -0.08985717 -0.1954776 -0.08333352 0.037826024
000220 e3 ee c3 bc f4 ab b5 bb a8 93 4b bd 9f 42 09 3b
       -0.023917621 -0.00554418 -0.049701363 0.002094425
000230 f2 51 0c bd a7 0b ae bc b8 e2 e5 bc 25 21 c9 3d
       -0.034257837 -0.02124579 -0.02806221 0.09820775
000240 5b 50 80 3c 90 14 9e 3d d3 fa 0f 3e 0d bf de 3c
       0.015663316 0.07718766 0.14060526 0.02719071
000250 ff 69 8f bd 63 60 f1 bb a6 a9 1e be 4a 4c f4 bd
       -0.07002639 -0.0073662265 -0.15494403 -0.119286135
000260 2f 62 a1 3d 75 24 6a be a1 32 32 3e f5 c1 ff bd
       0.07880055 -0.2286547 0.17402126 -0.12488166
000270 d4 ce aa bd a3 9e 27 bd bb ef b2 bc 9b 44 8a bd
       -0.083402306 -0.040922772 -0.021842828 -0.06751367
000280 df 1c 20 bd 1a d1 a5 bd 85 10 eb 3d 15 31 fe bc
       -0.039090034 -0.080965236 0.1147776 -0.031029264
000290 23 6b a3 bd 8e 52 b0 be b0 3d d2 3d d0 b3 20 3e
       -0.07979419 -0.34437984 0.10265672 0.15693593
0002a0 7e d2 5e 3d 8e 84 8e bd aa ad ca 3d c1 04 6b bc
       0.05439996 -0.069588766 0.09896405 -0.014344395
0002b0 b9 8e 09 3d 8b f5 0d 3d 1b 83 0d bd 59 a3 97 be
       0.033583377 0.034657996 -0.03454886 -0.29616812
0002c0 8b 12 57 bd 91 7d c4 bd b4 df b1 3d ca 9f 66 be
       -0.05250792 -0.095942624 0.08685246 -0.22521892
0002d0 3a 97 20 3e 44 1d fd bd f5 56 e7 bd c5 5a 59 bd
       0.15682688 -0.123590976 -0.112958826 -0.05306508
0002e0 f1 80 35 bd 94 ba 0d 3e 25 c3 54 3d 24 08 76 3e
       -0.04431242 0.13840705 0.051943917 0.24026543
0002f0 b2 2d e9 3c 94 15 c6 3d d2 86 74 bd 09 c4 e3 3c
       0.028464172 0.096720845 -0.059698887 0.027803438
000300 f4 17 ba 3d a8 88 65 3b 9b 37 0e 3e 82 e8 1a 3e
       0.090866 0.003502408 0.138884 0.15127757
000310 2a e1 f0 bd fe 54 aa 3c 19 d8 47 bd d7 ac 0c 3d
       -0.11761697 0.02079248 -0.04879007 0.03434452
000320 3a 48 15 3c 69 ec 34 3e 26 54 22 be fe 92 90 bc
       0.009111458 0.17668308 -0.15852413 -0.017648216
000330 90 b4 69 be c5 ab ad 3c 3b f4 a8 bd 26 bd a0 bd
       -0.22822785 0.02120007 -0.08249708 -0.07848577
000340 79 88 d4 3d ae 99 46 bd 7a c1 89 be 93 3b 46 bc
       0.103775926 -0.048486404 -0.26905423 -0.012099165
000350 61 54 7a 3c 58 cb 0b be 3c 0e 28 3b a0 57 bb bd
       0.015278907 -0.13651788 0.002564325 -0.091475725
000360 c0 4e 2a 3e 7f f5 22 3e 1c 27 1f bd e8 9e 7a be
       0.16631603 0.15913962 -0.038855657 -0.2447468
000370 a9 b8 a2 b8 4f 66 01 be 3f 8c 9f bd 81 7b 19 bd
       -7.7591576e-05 -0.12636684 -0.07790422 -0.037471298
000380 27 cb 59 be 99 1a fe bc 15 c1 b9 3d 0c ae 9b 3d
       -0.21268903 -0.031018542 0.090700306 0.07601556
000390 37 3a 49 3d 99 4d 12 ba 50 fc 05 be 78 bd bd 3d
       0.049127784 -0.0005581021 -0.13084531 0.09264654
0003a0 f2 e8 17 3d 5c 62 1f be df ed 1d be 5f 48 31 3d
       0.03708739 -0.15564865 -0.15422772 0.04328191
0003b0 9b b1 b3 3d e5 37 a1 3e 7b 67 79 3e 8d 98 6a bd
       0.0877411 0.31487957 0.24355881 -0.05727439
0003c0 0f 7e a9 3d 39 88 c4 3d 9a 45 72 bd e4 bd b4 bd
       0.08275997 0.09596295 -0.05914841 -0.08825281
0003d0 0b e4 56 3e b7 a8 61 be 10 7d cd 3d fb f9 cc 3c
       0.20985429 -0.22037016 0.100336194 0.025021544
0003e0 f1 f4 90 3c 84 5a 68 3c 11 91 30 3c 69 fe d9 3d
       0.017694922 0.014181737 0.010776774 0.10644228
0003f0 2d d9 fc bb 63 f9 42 be 29 bf 78 3c a4 96 19 3e
       -0.007716319 -0.19040446 0.015182295 0.14998871
