outputs/E1_penalty_fixedlambda_sweep/penalty_seed1_EB0.10_LB0.05_lamE5.0_lamL0.5/best_tail.pt (torch, 981771 bytes, 68 tensors)

actor_backbone.0.weight f4 [128, 22]
0	0x3dd66347	0.104681544
1	0xbda63512	-0.08115591
2	0x3d1e1102	0.03859044
3	0x3e0e2fe4	0.13885456
4	0x3d66731e	0.056262128
5	0xbd36734d	-0.044543553
6	0xbe093736	-0.13399968
7	0xbc0558aa	-0.008138815
8	0xbd904787	-0.07044893
9	0x3b850cc2	0.0040603587
10	0xbcdbe73d	-0.026843661
11	0x3dd1cd3d	0.10244224
12	0xbaacad5e	-0.0013174226
13	0x3dbceeca	0.09225233
14	0x3d4d5d58	0.050137848
15	0xbc1a1afd	-0.009405849
16	0x3cea2b1a	0.028585006
17	0xbc953b84	-0.018216856
18	0xbe3430ac	-0.17596692
19	0xbd8e6792	-0.06953348
20	0x3ed56348	0.41677308
21	0x3c5f1dc4	0.0136179365
22	0xbd1b8351	-0.03796703
23	0xbd0d54a9	-0.034504566
24	0x3d983e62	0.074337736
25	0x3b076fa3	0.0020665906
26	0xbc3c1688	-0.011479981
27	0x3cf11318	0.02942805
28	0xbe303b0f	-0.17210029
29	0x3db58c75	0.08864681
30	0xbd58f0df	-0.052964088
31	0x3e264207	0.16236125
32	0x3da427a3	0.080153726
33	0xbc47f005	-0.012203221
34	0xbdf61565	-0.120157994
35	0xbe492c30	-0.19645762
36	0xbe436f38	-0.19085395
37	0x3d35d2ef	0.044390615
38	0xbe8de0bb	-0.27710518
39	0x3d314dad	0.043286968
40	0x3e75c097	0.23999248
41	0xbca226c9	-0.019793885
42	0x3dbb4684	0.09144309
43	0x3e322c96	0.1739982
44	0x3caa984a	0.02082457
45	0x3da804db	0.08204051
46	0x3d80cc92	0.06289019
47	0xbc61bb80	-0.013777614
48	0xbe011dba	-0.12608996
49	0xbeaf093b	-0.3418673
50	0x3d86d62b	0.06583818
51	0x3e20da4e	0.15708277
52	0xbe8d037d	-0.27541724
53	0x3cb87c14	0.022520103
54	0x3e350230	0.17676616
55	0xbd6f6c71	-0.058453027
56	0xbe229ff6	-0.15881333
57	0xba9810dd	-0.0011601705
58	0xbe751a5a	-0.23935834
59	0xbd661766	-0.05617466
60	0x3e0c2f99	0.13690032
61	0xbe9cfde9	-0.30662468
62	0x3e29ee22	0.16594747
63	0xbdea96c2	-0.11454536
64	0xbdf7d6e4	-0.12101534
65	0x3e6c8129	0.23096146
66	0x3cae4a1b	0.02127557
67	0xbd9edfa0	-0.07757497
68	0xbd319b21	-0.043360833
69	0xbd758b96	-0.059947573
70	0xbcf860fb	-0.030319681
71	0x3cf584f6	0.029970627
72	0xbd492c5b	-0.049114566
73	0x3d4707f0	0.048591554
74	0x3d0fac20	0.03507626
75	0xbd5c38cf	-0.053765114
76	0xbbd6beb2	-0.0065534944
77	0x3dc06f45	0.09396223
78	0xbe29d78e	-0.16586134
79	0xbddee891	-0.10884202
80	0x3dae6168	0.085146725
81	0x3d5fbe5d	0.054624904
82	0xbe2b6255	-0.1673673
83	0x3c84bdee	0.016203847
84	0xbe90af6e	-0.28258842
85	0x3de4b802	0.11167909
86	0x3d80e877	0.06294339
87	0xbc2893a4	-0.0102891065
88	0xbe251af6	-0.16123566
89	0x3e57910b	0.21051423
90	0xbd7b5845	-0.061363477
91	0x3e02ac95	0.12761147
92	0x3d9f7c2a	0.07787354
93	0x3ca43a2f	0.020047275
94	0x3cb10a22	0.021611277
95	0x3e7c2fc6	0.24627599
96	0x3b3cf132	0.0028830287
97	0xbe70e962	-0.23526528
98	0x3cbab83c	0.022792928
99	0x3e871f97	0.2639129
100	0xbd389e19	-0.04507265
101	0x3db7301c	0.08944723
102	0x3da15fe8	0.07879621
103	0x3dc073dc	0.093970984
104	0xbe2e17a7	-0.1700121
105	0x3d134406	0.035953544
106	0x3ec682fc	0.38771808
107	0xbd7b2fd4	-0.06132491
108	0xbc0870bd	-0.00832766
109	0x3e0ae8d0	0.13565373
110	0xbdb62cd6	-0.088952705
111	0xbd141ae2	-0.03615845
112	0xbe35aa86	-0.17740831
113	0xbe77f46b	-0.24214332
114	0xbcf7c49b	-0.030245116
115	0x3d873e52	0.066036835
116	0xbd30a54c	-0.04312639
117	0xbe585677	-0.21126734
118	0x3d577a40	0.05260682
119	0xbdc64357	-0.09680813
120	0x3e90950f	0.28238723
121	0x3de56203	0.11200335
122	0xbe8b3a5d	-0.27192965
123	0x3c7e662a	0.0155272875
124	0x3e4cbcbd	0.19993873
125	0x3dfa5a64	0.12224272
126	0xbd128791	-0.035773817
127	0x3e8e4359	0.27785757
128	0xbebdacd4	-0.3704592
129	0x3bc41b10	0.0059846714
130	0x3d2b26b9	0.041784976
131	0xbd0ea64f	-0.034826573
132	0x3de174d5	0.11008612
133	0x3e01fd49	0.12694277
134	0x3ca32e3b	0.019919505
135	0x3cd45799	0.025920676
136	0xbd962f05	-0.07333187
137	0x3d0a048f	0.033695754
138	0xbd1723df	-0.036899444
139	0x3e38952b	0.18025653
140	0xbdbf8c9e	-0.093529925
141	0x3d20010b	0.039063495
142	0xbe268a04	-0.16263586
143	0xbe267f16	-0.16259417
144	0x3dba4de4	0.09096888
145	0x3dd48215	0.10376374
146	0x3e710729	0.23537888
147	0x3dbd9aa8	0.09258014
148	0x3c2e8890	0.010652676
149	0x3e2ae44c	0.16688651
150	0xbe8a8bd8	-0.27059817
151	0x3e1e524d	0.15461083
152	0xbe0b8dae	-0.13628265
153	0xbd920de8	-0.07131559
154	0x3bbf0f83	0.0058307066
155	0xbddce022	-0.107849374
156	0x3dff3f40	0.12463236
157	0x3cee8306	0.029115211
158	0x3dca0c55	0.098656334
159	0xbe3a01e2	-0.1816478
160	0x3da6b2ff	0.081396095
161	0x3bb42082	0.0054970393
162	0xbe349b7d	-0.17637439
163	0xbb6ef0b8	-0.0036459398
164	0x3dcff2f5	0.10153762
165	0xbdbf6138	-0.09344715
166	0x3d53c593	0.051702093
167	0xbe35647e	-0.17714116
168	0xbe819c5c	-0.25314605
169	0xbe4e6411	-0.2015536
170	0x3bddb545	0.006765994
171	0xbcac2b6a	-0.021016795
172	0x3e82a6fa	0.25518018
173	0x3dca2cd6	0.09871833
174	0xbc3a041d	-0.01135352
175	0xbc6e0007	-0.014526374
176	0x3982b22f	0.0002492829
177	0x3d5bb52d	0.05363958
178	0xbd5e3cb7	-0.05425712
179	0x3d974436	0.07386057
180	0xbb854dc2	-0.0040681073
181	0x3cf15ad8	0.029462263
182	0x3d8b2eb7	0.067960195
183	0xbce903e8	-0.028444245
184	0x3e11a3c0	0.14222622
185	0xbe376ff6	-0.17913803
186	0xbd8970e3	-0.067109846
187	0x3df0085e	0.11720346
188	0x3dd7af6d	0.10531507
189	0x3bda8e31	0.0066697826
190	0xbd36591d	-0.04451858
191	0xbbc635d1	-0.006048896
192	0x3c8c296f	0.0171096
193	0xbd8e5d43	-0.06951382
194	0xbed8ebd2	-0.42367417
195	0x3dd5953e	0.10428856
196	0xbdc121dc	-0.09430286
197	0x3db49ffd	0.08819578
198	0x3e042bf9	0.12907399
199	0xbcd8d575	-0.026468972
200	0x3e0fcb62	0.14042428
201	0xbb86c5a4	-0.004112916
202	0x3d3bab6e	0.045817785
203	0x3d8d63f5	0.06903831
204	0x3c58e384	0.013237838
205	0x3e7ab775	0.24484046
206	0xbe0e9834	-0.13925248
207	0xbe1b2a6b	-0.151529
208	0x3e0ac204	0.13550574
209	0xbdc11693	-0.09428134
210	0x3dbec8b2	0.09315623
211	0xbabe9a75	-0.0014541881
212	0x3a88fa08	0.0010450492
213	0x3dadb3b5	0.08481542
214	0x3efb56b2	0.4908958
215	0xbd5d4ea4	-0.054030076
216	0xbd1a0a15	-0.03760727
217	0x3e6c1a27	0.23056851
218	0xbdf96ea0	-0.12179303
219	0xbece8fc2	-0.40344054
220	0x3e53bb24	0.20676857
221	0x3e0260a2	0.12732175
222	0xbd76665b	-0.060156208
223	0xbd9544b8	-0.07288498
224	0x3ca6b39d	0.020349318
225	0x3d8d6ba3	0.06905296
226	0x3dc2e32c	0.09515986
227	0x3df6e23c	0.120548695
228	0x3d53f3a1	0.051746015
229	0xbe00e22a	-0.12586275
230	0xbd810e4e	-0.063015565
231	0x3e9bc91d	0.30426875
232	0x3d1d64fc	0.038426384
233	0x3be293fc	0.006914614
234	0xbe1eb968	-0.15500414
235	0xbdae1f14	-0.085020214
236	0xbcc85df6	-0.024458867
237	0x3d37bbeb	0.044856947
238	0xbd7c4edd	-0.061598647
239	0x3dc7354a	0.09726961
240	0x3ecec701	0.40386203
241	0xbda1012b	-0.07861551
242	0x3b4ddddd	0.0031412758
243	0x3d3c9962	0.046044715
244	0x3b0ff08f	0.0021963452
245	0x3e346e1f	0.17620133
246	0x3da0c2d5	0.07849661
247	0xbcb3e66d	-0.021960462
248	0xbd6628d4	-0.05619128
249	0x3d0f18a2	0.0349356
250	0x3e1177fb	0.14205925
251	0xbe0e9510	-0.1392405
252	0x3d8e0510	0.06934559
253	0xbd319064	-0.043350592
254	0xbd0fd625	-0.035116334
255	0xbe7e9b39	-0.248639

actor_backbone.0.bias f4 [128]
0	0xbc79fbfc	-0.015257832
1	0x3dcbb29a	0.09946175
2	0x3e0a897a	0.13529006
3	0xbd46a5f4	-0.04849811
4	0xbd94af87	-0.07260042
5	0xbdd5d78f	-0.10441505
6	0xbd927acf	-0.0715233
7	0x3d576709	0.052588496
8	0x3c5230de	0.012829034
9	0xbd28076e	-0.04102271
10	0x3dbe018e	0.0927764
11	0xbdf49ec8	-0.119443476
12	0x3d7a92ad	0.061175037
13	0xbdbde273	-0.092717074
14	0x3d39399e	0.045220964
15	0x3dbcd8c6	0.09221034
16	0x3d93aa05	0.07210163
17	0x3d2b151d	0.041768182
18	0x3d93ab52	0.07210411
19	0xbbf5cb52	-0.0075010443
20	0x3dd1d089	0.10244853
21	0x3cf424cd	0.029802704
22	0x3dc0d0a7	0.09414797
23	0x3c45ea47	0.012079782
24	0x3d95130e	0.07279025
25	0x3d30474b	0.04303674
26	0x3c4fe942	0.01268989
27	0xbd39f575	-0.0454001
28	0x3c24506d	0.010028941
29	0x3dcef09f	0.101044886
30	0x3dcd9588	0.100382864
31	0xbdce763b	-0.100811444
32	0xbd4fdca0	-0.050747514
33	0xbd502c0b	-0.050823253
34	0x3cd9c7bd	0.0265845
35	0x3a03c166	0.0005026072
36	0x3e1b8657	0.15187965
37	0x3b34db47	0.002759652
38	0x3d0f5410	0.034992278
39	0xbd6fb5fa	-0.058523156
40	0xbd87474e	-0.06605397
41	0x3da95dbf	0.08269834
42	0x3d966ce9	0.07344992
43	0x3d416fbf	0.04722571
44	0xbc67e5ae	-0.014153881
45	0xbd1fc0c0	-0.03900218
46	0x3c439984	0.011938456
47	0xbda5d394	-0.08096996
48	0xbd0c7009	-0.034286533
49	0x3c9f6d5d	0.019461328
50	0xbbd6a543	-0.0065504625
51	0xbd802c63	-0.06258466
52	0x3ca6cfb1	0.020362707
53	0x3de8ab10	0.113607526
54	0x3dbefe5b	0.09325858
55	0xbdb3dd0b	-0.08782395
56	0x3d086383	0.033298027
57	0x3df5a48e	0.11994277
58	0xbd40c63f	-0.047064062
59	0x3dc5fc8e	0.096673116
60	0xbd97f478	-0.074196756
61	0xbe026f64	-0.12737805
62	0x3dc41223	0.09573772
63	0xbd9cff4f	-0.07665884
64	0x3c86801e	0.016418513
65	0x3dbec256	0.093144104
66	0x3acce432	0.0015631972
67	0xbdde40ba	-0.10852189
68	0xbc031c33	-0.008002329
69	0x3db5c6d1	0.08875812
70	0xbc146ba4	-0.009058867
71	0x3d82257d	0.063548066
72	0x3d302342	0.043002374
73	0x3db73f93	0.08947673
74	0xbb1feaa6	-0.0024401336
75	0x3c42ca43	0.011889043
76	0x3cab84a6	0.020937275
77	0xbc2eb9dc	-0.0106644295
78	0xbd393c34	-0.04522343
79	0x3dd3ffba	0.1035151
80	0x3d64269a	0.055700876
81	0xbc21ec05	-0.009882932
82	0x3d4beeb3	0.04978819
83	0xbd9952ee	-0.07486521
84	0x3d061dcf	0.03274327
85	0x3de7e1a9	0.11322338
86	0x3c42325c	0.011852827
87	0x3d48c0b6	0.04901191
88	0x3a0b0fe7	0.0005304799
89	0xbd84b904	-0.064806014
90	0xbe07aa29	-0.13248505
91	0x3d360c67	0.04444542
92	0xbd697726	-0.056998394
93	0xbd6ec3d4	-0.058292225
94	0xbd11832a	-0.03552548
95	0xbdd2d6c5	-0.1029487
96	0x3dabbf2e	0.08386074
97	0x3dbbc50c	0.09168443
98	0xbd338902	-0.043831833
99	0x3e1f132b	0.15534656
100	0xbdab0fa0	-0.083525896
101	0x3d5f4513	0.054509234
102	0x3d60974a	0.05483178
103	0xbd85b8a1	-0.06529356
104	0xbe172a67	-0.14762269
105	0x3cf9e71e	0.030505713
106	0x3e908669	0.28227547
107	0x3c62abd7	0.013834915
108	0xbdf18ac5	-0.11794046
109	0x3dc5bd92	0.09655298
110	0xbd4fe02a	-0.05075089
111	0x3a6f881e	0.00091374095
112	0xbcfe6845	-0.031055579
113	0x3d03b4b7	0.032154765
114	0x3d8cd56b	0.06876644
115	0x3d8ec62e	0.069713935
116	0xbceec1e2	-0.029145185
117	0xbda75fb3	-0.0817255
118	0xbd945634	-0.072430044
119	0x3ddf7124	0.10910252
120	0x3e1251c4	0.14289004
121	0x3d8bcd87	0.068263106
122	0x3a75fcb3	0.00093836634
123	0xbd210d81	-0.03931952
124	0x3b578b95	0.0032889594
125	0xbcaccacd	-0.021092797
126	0xbd2e6d2c	-0.042584583
127	0xbb8bf664	-0.0042713154

actor_backbone.2.weight f4 [128, 128]
0	0x3d2a461f	0.04157078
1	0x3e407c11	0.18797328
2	0x3d9dc62e	0.077038154
3	0xbd8358ea	-0.064134434
4	0x3cdde512	0.027086768
5	0xbd91ec25	-0.07125119
6	0x3e80c1e0	0.25147915
7	0xbcf2862e	-0.029604997
8	0xbcaae9fe	-0.02086353
9	0xbaffb130	-0.0019507762
10	0x3d777a94	0.060419634
11	0x3e55bb93	0.20872335
12	0x3e826a92	0.25471932
13	0x3d80802e	0.06274448
14	0x3d8fc940	0.07020807
15	0x3dd7b07e	0.1053171
16	0xbd96e080	-0.07367039
17	0xbdf7984d	-0.12089596
18	0x3e9c7e91	0.30565313
19	0x3e69e518	0.22841299
20	0x3cabd63d	0.02097618
21	0xbce4b5eb	-0.027918776
22	0xbd4d5ebb	-0.05013917
23	0xbdbb9888	-0.091599524
24	0xbb39caf5	-0.0028349732
25	0xbbeb1648	-0.007174287
26	0xbc8f8023	-0.017517155
27	0x3db421c2	0.08795501
28	0xbe17bc8c	-0.14818019
29	0xbd37a9d2	-0.044839688
30	0x3e5ec270	0.2175386
31	0xbcdacead	-0.026709879
32	0xbd8198c5	-0.063279666
33	0xbc131e8c	-0.008979451
34	0xbd220e2f	-0.039564308
35	0xbcfc87d6	-0.03082649
36	0x3e1a81c7	0.15088569
37	0xbdba8e4e	-0.09109174
38	0xbe93f5bc	-0.28898418
39	0xbdee89d6	-0.11647384
40	0x3dfd6526	0.12372808
41	0x3e11e240	0.14246464
42	0xbce65450	-0.028116375
43	0x3dab4a25	0.08363751
44	0xbe52665b	-0.20546858
45	0x3bf48971	0.0074626734
46	0xbdb814d3	-0.08988347
47	0x3e151f6b	0.14562766
48	0xbc8642f8	-0.016389355
49	0x3e1121ee	0.141731
50	0xbe76da85	-0.24106796
51	0x3e1ee2b1	0.15516163
52	0x3d11def5	0.03561302
53	0xbd80c0db	-0.06286784
54	0xbc86cbd8	-0.016454622
55	0xbe6cf6f5	-0.23141082
56	0x3dbf65d8	0.09345597
57	0x3cff324a	0.03115191
58	0xbd9bb00e	-0.07601939
59	0x3ce8f84f	0.028438715
60	0xbd589565	-0.05287685
61	0xbafa0f5f	-0.0019078067
62	0xbcf26a1e	-0.029591616
63	0x3e120f53	0.14263658
64	0xbbd087a4	-0.006363826
65	0x3d34ec3d	0.044170607
66	0xbe2c9125	-0.16852243
67	0xbcb7424e	-0.022370484
68	0x3e1900bf	0.14941691
69	0x3c917e57	0.017760439
70	0xbb9fcab2	-0.004876458
71	0xbc4ff4b5	-0.01269262
72	0xbeae74e1	-0.34073547
73	0xbe4dce53	-0.20098238
74	0xbd851b95	-0.064994015
75	0x3ceb6733	0.028735733
76	0x3d837bc2	0.06420089
77	0xbc88a8c3	-0.016682034
78	0x3cecc274	0.028901316
79	0xbd99c24a	-0.07507761
80	0xbe12e0d9	-0.14343585
81	0x3cca1387	0.024667514
82	0xbe2ef070	-0.17083907
83	0x3e8b9e53	0.2726923
84	0xbe2b5f7a	-0.1673564
85	0x3cd05cef	0.02543494
86	0x3e0ef4b6	0.13960537
87	0x3e137d4a	0.14403263
88	0xbcc6a4f1	-0.024248572
89	0xbdd05222	-0.101719156
90	0xbeb8461a	-0.35990983
91	0x3ca587fc	0.020206444
92	0xbc75ddff	-0.015006541
93	0x3db9d491	0.09073747
94	0x3e3635ac	0.17793912
95	0xbd0818a4	-0.033226624
96	0xbd483ca5	-0.04888596
97	0xbd9539f3	-0.072864436
98	0xbdf1a727	-0.1179946
99	0x3e6b3651	0.22969939
100	0x3e0a1313	0.13483839
101	0xbda8612c	-0.08221659
102	0x3e6f7618	0.23384893
103	0xbe80e2c6	-0.25173014
104	0x3e81886f	0.25299403
105	0xbe14c990	-0.14530015
106	0x3da2f572	0.07956971
107	0xbe067699	-0.13131179
108	0xbd0e774c	-0.03478174
109	0x3e0ab171	0.13544251
110	0xbe4221f6	-0.18958268
111	0x3debcde2	0.115138784
112	0x3d88227d	0.06647203
113	0xbe004ad0	-0.12528539
114	0x3d9263e6	0.0714796
115	0x3e10d01c	0.14141887
116	0xbdc4a542	-0.09601833
117	0x3e272bec	0.16325349
118	0xbe45ed03	-0.19328694
119	0x3e090e1a	0.13384286
120	0xbe8997eb	-0.26873717
121	0xbde44ae9	-0.111471005
122	0xbe8ae6f7	-0.27129337
123	0x3e3ec964	0.18631512
124	0xbda7fd5e	-0.08202623
125	0x3d75019d	0.05981599
126	0x3d5b3bff	0.053524014
127	0xbd90a8e6	-0.07063465
128	0xbd46ea6b	-0.048563402
129	0x3dd2f870	0.10301292
130	0xbea35e9e	-0.31908125
131	0xbdb42765	-0.087965764
132	0xbd937dde	-0.07201742
133	0x3da93c55	0.082634605
134	0x3e12e55e	0.14345309
135	0xbd7d4b14	-0.06183918
136	0x3db755f2	0.0895194
137	0x3eb45bef	0.3522639
138	0xbd64e7dd	-0.055885185
139	0xbd41e0fa	-0.047333695
140	0xbed86d0a	-0.4227069
141	0x3e8b2a1b	0.2718056
142	0xbbb345f5	-0.005470986
143	0xbe8c4f5b	-0.27404293
144	0x3d59570b	0.053061526
145	0x3ce269b0	0.027638286
146	0x3d75bcb5	0.05999442
147	0x3e8eb81a	0.27874833
148	0xbd99fc1b	-0.075187884
149	0x3d11617b	0.035493355
150	0x3dc47619	0.09592838
151	0xbaae73ce	-0.0013309659
152	0x3e22819f	0.15869759
153	0x3e125b27	0.14292584
154	0xbcb5ca8e	-0.022191312
155	0x3c49d55d	0.012318936
156	0x3d77ecc6	0.06052854
157	0x3c986980	0.018604994
158	0xbd0a3881	-0.033745293
159	0x3da5677d	0.080763794
160	0xba17c9a2	-0.00057902385
161	0xbe2a6051	-0.16638304
162	0x3e247f0f	0.16064094
163	0xbe31b71a	-0.17355004
164	0x3dfcab98	0.123374164
165	0xbd74be83	-0.059752
166	0xbe698b43	-0.2280703
167	0x3e72f2fc	0.23725504
168	0x3e636110	0.22204995
169	0xbc133058	-0.008983694
170	0xbe6f25e9	-0.23354305
171	0x3d93d0e6	0.072175786
172	0x3b4a2f07	0.0030850784
173	0x3e1df4c1	0.15425397
174	0xbd97b5fe	-0.07407759
175	0xbd3955a3	-0.045247685
176	0xbd94a47e	-0.07257937
177	0xbc941dc9	-0.018080609
178	0x3bc47456	0.0059953136
179	0x3caf3e4d	0.021392012
180	0xbd825d6f	-0.06365477
181	0x3d8b0533	0.06788101
182	0xbd4d94ff	-0.050190922
183	0x3e3697a8	0.1783129
184	0xbd6963f4	-0.05698009
185	0xbdef1f09	-0.11675841
186	0x3e23c7aa	0.15994135
187	0xbd5598c6	-0.05214765
188	0x3ce6c1fb	0.028168669
189	0xbde3c9e5	-0.11122493
190	0xbe6e2e0d	-0.23259754
191	0x3da34368	0.07971841
192	0x3db93828	0.09043914
193	0x3abaca73	0.0014251008
194	0xbd9dd6fe	-0.07707022
195	0x3d887af7	0.06664079
196	0x3e1008fe	0.1406593
197	0xbe902ae1	-0.28157714
198	0xbd3ede22	-0.04659856
199	0xbddf3d76	-0.109003946
200	0xbdae73ed	-0.08518205
201	0xbd38f6ac	-0.04515712
202	0xbc541f95	-0.012946983
203	0x3da45800	0.08024597
204	0xbda72e75	-0.08163158
205	0x3d9e2752	0.077223435
206	0x3e88a86f	0.26691005
207	0xbda04ab6	-0.0782675
208	0x3d5dfab2	0.05419416
209	0xbb99475f	-0.0046776976
210	0xbd3d2690	-0.046179354
211	0x3dc38a0f	0.09547817
212	0x3d9dd48f	0.07706558
213	0xbbd51d01	-0.0065037017
214	0xbe1ca534	-0.15297395
215	0x3cb9a118	0.022659823
216	0xbd1d5238	-0.038408488
217	0xbd1e0d21	-0.03858674
218	0x3dbf090e	0.09327899
219	0xbd33e3c6	-0.043918394
220	0xbe5272ab	-0.20551555
221	0xbc968531	-0.018374057
222	0xbe0e5dc1	-0.13902952
223	0xbdbb20b0	-0.09137094
224	0x3e2aaf19	0.16668357
225	0xbd244dc1	-0.040113214
226	0xbe3bd7ab	-0.1834399
227	0xbd73d694	-0.05953081
228	0x3c80c95f	0.015721021
229	0x3d71ee3f	0.0590651
230	0xbdc8a3a4	-0.09796837
231	0xbd0cb888	-0.03435567
232	0x3e116065	0.14196928
233	0xbdef959e	-0.11698459
234	0x3dbb57a6	0.09147577
235	0xbe304fb4	-0.17217904
236	0xbe1507ef	-0.14553808
237	0xbdff144e	-0.12455045
238	0xbd68d8f5	-0.05684753
239	0xbd62b2fc	-0.055346474
240	0x3e390928	0.18069899
241	0xbe3b93db	-0.18318121
242	0x3c7ecb3d	0.0155513855
243	0xbea7aca0	-0.3274889
244	0xbd3936d1	-0.045218293
245	0xbd02e4ee	-0.031956606
246	0x3be3305f	0.0069332565
247	0xbded67d0	-0.11592066
248	0x3e062b9d	0.13102575
249	0xbe453b04	-0.19260794
250	0xbdc17369	-0.09445841
251	0x3d6e5b3a	0.05819247
252	0xbe89618a	-0.2683223
253	0x3e185606	0.14876565
254	0x3db5699b	0.08858033
255	0xbe58518e	-0.2112486

actor_backbone.2.bias f4 [128]
0	0x3c896ded	0.01677605
1	0xbd5ba173	-0.053620767
2	0x3d6fac71	0.058514062
3	0x3bfe0f02	0.007753254
4	0x3aa2649e	0.0012389605
5	0xbd97a595	-0.07404629
6	0xbd8b7b49	-0.06810624
7	0x3d77f04d	0.060531903
8	0xbde433b3	-0.11142673
9	0x3cab1cb5	0.020887712
10	0x3cab99c6	0.020947348
11	0x3c3675e7	0.011136509
12	0x3cd0b2e5	0.025475929
13	0x3be2670e	0.0069092577
14	0x3cdee6cd	0.027209664
15	0xbdc4b6ff	-0.09605216
16	0x3dbec002	0.09313966
17	0x3ca9ef78	0.02074407
18	0x3d516356	0.051120125
19	0x3d1affc8	0.03784159
20	0xbc6405d0	-0.013917401
21	0xbd875553	-0.06608071
22	0xbba5abcb	-0.0050558797
23	0xbd35306b	-0.044235628
24	0x3ce44f62	0.027869884
25	0xbd330965	-0.04371013
26	0xbd176422	-0.03696073
27	0xbca19a05	-0.019726763
28	0xbc102e52	-0.008800106
29	0x3d184d3b	0.037183028
30	0xbdfea77c	-0.12434289
31	0x3cdefe79	0.027220951
32	0xbcd9efe5	-0.026603648
33	0xbdca3d7e	-0.0987501
34	0x3cd5322e	0.026024904
35	0x3bb9aa55	0.005666057
36	0x3cb243b3	0.021760797
37	0xbcb8cbca	-0.022558112
38	0xbca4e2d3	-0.02012769
39	0xbdb099d2	-0.08623089
40	0x3d899d16	0.06719415
41	0x3b420e6b	0.0029610645
42	0x3c9cd685	0.01914526
43	0xbbd3282f	-0.0064439992
44	0x3d43c716	0.047797285
45	0xbd4e17e8	-0.050315768
46	0x3cedacb0	0.029013008
47	0xbd605284	-0.054766193
48	0x3ca044c3	0.019564038
49	0xbc95ab8e	-0.01827028
50	0xbc9e1e0f	-0.019301442
51	0x3ba1852e	0.0049292063
52	0x3ddac657	0.106823616
53	0x3cddcf8e	0.027076509
54	0x3d6e1f1a	0.05813513
55	0xbd94bd3e	-0.072626576
56	0x3d298851	0.041389767
57	0x3db42630	0.08796346
58	0xbd9eb4f0	-0.07749355
59	0x3cc56713	0.024097001
60	0x3e0e9e07	0.1392747
61	0xbca81fbf	-0.02052295
62	0xbb49b914	-0.0030780481
63	0xbd8d0d43	-0.06887295
64	0xbd9fde63	-0.07806089
65	0x3c440430	0.011963889
66	0xbca9e85a	-0.020740677
67	0xbd3cdad8	-0.046107143
68	0xbd02a17d	-0.03189229
69	0xbba23d2f	-0.0049511413
70	0x3cfb7c89	0.030699031
71	0x3bff3c2c	0.0077891555
72	0x3afacda0	0.0019134767
73	0xbd2adf4d	-0.041716862
74	0x3daa7a1f	0.08324074
75	0xbc2b2397	-0.010445497
76	0x3b6e746a	0.0036385306
77	0x3d1ea6b7	0.03873321
78	0x3ce0b5bd	0.02743041
79	0x3cc0e6f9	0.023547636
80	0x3d839edb	0.06426784
81	0x3d942981	0.07234479
82	0xb8cf6cc4	-9.890788e-05
83	0xbc499abf	-0.012304961
84	0x3ca58de6	0.020209264
85	0xbd20cc1f	-0.039257165
86	0x3d52f097	0.051498976
87	0x3d1afa84	0.037836567
88	0x3d277774	0.040885404
89	0x3b809bb0	0.0039248094
90	0xbc4396e0	-0.011937827
91	0x3cb5ad0b	0.02217724
92	0x3c79c6ca	0.015245149
93	0x3dadf6ff	0.084943764
94	0xbd07f6ab	-0.033194225
95	0xbd87bd2d	-0.06627879
96	0x3d15edfb	0.03660391
97	0x3bdcd456	0.0067391796
98	0xbbf074fb	-0.007338164
99	0xbbafe0c6	-0.0053673713
100	0xbcf96c6e	-0.030447211
101	0x3dddf168	0.1083706
102	0xbcec675a	-0.028857876
103	0x3c38681b	0.011255289
104	0xbc778de4	-0.015109513
105	0xbd47da71	-0.048792306
106	0xbc80d38f	-0.015725879
107	0x3ba72a08	0.005101446
108	0x3d667ad9	0.0562695
109	0xbd9a4871	-0.07533348
110	0x3cf5c94d	0.030003214
111	0xbd2b65f7	-0.041845288
112	0x3cc24eb9	0.023719179
113	0xbd5f8db3	-0.054578494
114	0x3dddcbdf	0.10829901
115	0x3d5776fa	0.0526037
116	0xbd6b2358	-0.057406753
117	0xbc9b0031	-0.01892099
118	0xbdbc97c0	-0.092086315
119	0x3dc774e7	0.09739094
120	0x3da3551e	0.07975219
121	0xbdad3c85	-0.08458809
122	0x3c97c617	0.018527074
123	0xbc756232	-0.014977025
124	0xbdce156c	-0.1006268
125	0xbcabf393	-0.020990169
126	0x3d58ffa2	0.052978165
127	0xbd636a08	-0.05552104

reward_backbone.0.weight f4 [128, 22]
0	0x3e36bf5f	0.1784644
1	0x3e839da6	0.25706214
2	0x3dda7496	0.10666768
3	0x3b6e18e4	0.0036330754
4	0xbc462960	-0.0120948255
5	0x3dc5f20a	0.09665306
6	0x3d964fce	0.0733944
7	0xbc4b5ccf	-0.012412264
8	0x3e2080ba	0.15674105
9	0xbda08fe8	-0.07839948
10	0xbdc5196b	-0.09623989
11	0x3d94d64a	0.07267435
12	0x3d5f08b2	0.054451652
13	0xbd3f1029	-0.04664627
14	0xbcce70c3	-0.025200253
15	0xbe128b40	-0.14310932
16	0xbdc50219	-0.09619541
17	0xbc762c24	-0.015025172
18	0xbd25b101	-0.040452007
19	0xbe3665ca	-0.17812267
20	0x3e019a78	0.12656581
21	0x3d0b543c	0.03401588
22	0x3e6d812f	0.23193811
23	0x3edad4d7	0.4274051
24	0x3e9e649d	0.30936137
25	0x3e5caf93	0.21551351
26	0xbe1d41bb	-0.15357105
27	0x3dd20357	0.10254543
28	0x3ca6a5e8	0.020342782
29	0xbd8b8fb6	-0.0681452
30	0xbd901403	-0.07035067
31	0xbd1cd491	-0.038288657
32	0x3dc75333	0.09732666
33	0x3e1a8950	0.15091443
34	0x3dcb7270	0.099339366
35	0xbd37d10d	-0.0448771
36	0x3df86fef	0.12130725
37	0xbc93f884	-0.018062837
38	0x3dd12935	0.10212938
39	0xbf0727af	-0.5279493
40	0x3e86219a	0.2619751
41	0xbdbc00f8	-0.09179872
42	0x3e3a033d	0.18165298
43	0xbdcb17a1	-0.09916616
44	0xbe4dedfe	-0.20110318
45	0xbeb0860d	-0.34477273
46	0x3e9d05a8	0.30668378
47	0x3ec1e125	0.37867084
48	0x3cf8d0b1	0.03037295
49	0x3e06de38	0.13170707
50	0xbe250507	-0.16115199
51	0xbda66fe2	-0.08126809
52	0x3e1e6082	0.15466502
53	0xbe420b48	-0.18949616
54	0x3e55f2f2	0.20893458
55	0x3d840240	0.06445742
56	0x3d5e2de5	0.054242987
57	0xbdd60d76	-0.10451786
58	0x3ea82bc1	0.32845882
59	0x3e58ce68	0.21172488
60	0xbe4543ba	-0.19264117
61	0xbd55c8fb	-0.052193623
62	0xbef5dd9f	-0.48020646
63	0xbe644d08	-0.2229501
64	0x3eb7d111	0.35901693
65	0xbe01dbb7	-0.12681471
66	0xbe208df8	-0.15679157
67	0xbe3a1fc3	-0.18176179
68	0x3ca34833	0.019931888
69	0x3ecce209	0.400162
70	0x3c70f3b4	0.014706541
71	0x3e02f8bc	0.12790197
72	0xbbb31294	-0.005464861
73	0x3cd220be	0.025650378
74	0x3cc23a89	0.023709552
75	0x3e6e89a3	0.23294692
76	0x3d7b0b15	0.061289866
77	0x3cea4a22	0.028599802
78	0xbbc2be01	-0.0059430604
79	0xbc000471	-0.007813559
80	0xbe331298	-0.17487562
81	0x3e7e892d	0.24857016
82	0x3e5c1cc5	0.2149535
83	0xbe27b50b	-0.16377656
84	0x3e7a184e	0.24423334
85	0x3e937976	0.28803605
86	0xbe9722ce	-0.2951874
87	0x3ddea509	0.10871322
88	0xbcd4311d	-0.025902325
89	0x3d8dd5e0	0.06925559
90	0x3e096868	0.13418734
91	0x3cb2127c	0.02173733
92	0xbd94363f	-0.07236909
93	0x3b528977	0.0032125392
94	0xbdf7bbcd	-0.12096367
95	0x3c9c5060	0.019081295
96	0xbe303df7	-0.17211138
97	0x3ea10271	0.31447175
98	0x3e2a9b33	0.16660766
99	0xbd6449d1	-0.05573446
100	0xbd6bf7de	-0.05760943
101	0x3d5b5584	0.05354835
102	0x3c394980	0.011309028
103	0x3e3a0fea	0.18170133
104	0xbe130023	-0.14355521
105	0x3dd5602c	0.10418734
106	0xbe223429	-0.1584021
107	0xbe5214a7	-0.2051569
108	0xbdbf66ad	-0.09345756
109	0xbd39cb25	-0.04535975
110	0x3e8fc8ff	0.28083035
111	0xbd2e5d03	-0.04256917
112	0xbee22b0c	-0.44173467
113	0x3d7f6d2d	0.062359978
114	0xbe3d0609	-0.18459333
115	0x3dab05fb	0.0835075
116	0x3b7faaee	0.0039011794
117	0x3d1e4347	0.03863838
118	0x3e2e8b03	0.17045216
119	0xbe17a77b	-0.14809982
120	0xbec3064e	-0.38090748
121	0xbe5e39e3	-0.2170177
122	0x3de63d6e	0.112421855
123	0x3d42e731	0.047583763
124	0xbe44a1ed	-0.19202395
125	0xbdde0755	-0.10841242
126	0x3d776de2	0.060407527
127	0x3ec4087a	0.38287717
128	0x3e06702b	0.13128726
129	0x3c30f2ed	0.0108001055
130	0xbe74bbd5	-0.23899777
131	0xbe53555e	-0.20638034
132	0x3da2c66f	0.079480045
133	0xbf0fc2b7	-0.56156486
134	0xbebbea5d	-0.36702242
135	0x3eefa392	0.46804482
136	0x3d46f3d5	0.04857238
137	0xbde3e0e1	-0.111268766
138	0x3e2b593c	0.16733259
139	0x3ce2831f	0.027650414
140	0x3cc73e88	0.02432181
141	0xbca1bb6e	-0.019742694
142	0xbbb08566	-0.005386996
143	0xbb9b90d2	-0.0047474885
144	0x3e9f3550	0.31095362
145	0x3d28bd77	0.041196313
146	0x3e1026da	0.1407732
147	0x3cd29797	0.02570705
148	0x3d5d2bba	0.05399678
149	0xbe1d1cd3	-0.15343027
150	0x3e972b0a	0.29525024
151	0x3e7486b6	0.23879513
152	0xbeb0c302	-0.3452378
153	0x3e9e8ee4	0.30968392
154	0xbea3a654	-0.31962836
155	0xbe948502	-0.29007727
156	0x3ec79de8	0.3898766
157	0x3d3a4e5f	0.045484897
158	0xbd927226	-0.07150678
159	0x3e0c770e	0.13717291
160	0x3d01be62	0.031675704
161	0x3c805642	0.01566613
162	0x3a1208b0	0.00055707525
163	0x3d968f53	0.07351556
164	0xbe54c78a	-0.20779243
165	0xbeb935c2	-0.36173826
166	0x3cb299b5	0.021801809
167	0xbe21072a	-0.15725389
168	0xbe5fe56f	-0.21864866
169	0xbe8f8ef8	-0.28038764
170	0x3debcd65	0.11513785
171	0xbd636ae9	-0.05552188
172	0x3df3c5b8	0.11902946
173	0xbdaabb53	-0.083365105
174	0x3d091f1e	0.03347694
175	0xbe9a1354	-0.3009287
176	0xbe29c5ab	-0.1657931
177	0x3e53c9f9	0.20682515
178	0x3e53bdbc	0.20677847
179	0xbd3d9dba	-0.046292998
180	0x3e4591b7	0.19293867
181	0x3dd334c7	0.10312801
182	0x3ba7d458	0.005121749
183	0x3d7a5306	0.061114334
184	0xbd6c764a	-0.057729997
185	0x3c26ebaa	0.010188023
186	0x3e983994	0.2973143
187	0x3e12f1e3	0.14350085
188	0x3e80ef18	0.25182414
189	0xbe3f6516	-0.18690905
190	0x3d7e9a7a	0.06215904
191	0xbc054e75	-0.008136381
192	0x3c056914	0.008142728
193	0xbe4316b9	-0.19051637
194	0x3e475ff8	0.19470203
195	0x3d622cfb	0.055218678
196	0x3ea44bf5	0.320892
197	0x3e552453	0.20814638
198	0x3ee8b960	0.4545393
199	0x3c61ef72	0.013789998
200	0xbec7bf6c	-0.3901323
201	0x3ea21645	0.31657615
202	0x3dab19bf	0.0835452
203	0x3d359848	0.04433468
204	0xbe36b0a5	-0.17840822
205	0x3db69ba0	0.08916402
206	0xbbd1caa7	-0.006402332
207	0xbda24f99	-0.07925338
208	0xbe9449b8	-0.28962493
209	0xbd084250	-0.033266366
210	0xbcc42a77	-0.02394603
211	0x3de7f3a2	0.11325766
212	0xbd17adff	-0.03703117
213	0xbe5d44bf	-0.21608256
214	0xbd9698d5	-0.07353369
215	0x3def047f	0.116707794
216	0x3eab6f01	0.33483127
217	0xbde6c550	-0.11268103
218	0xbeaf14d5	-0.3419558
219	0xbe71457c	-0.23561662
220	0x3d3edfe9	0.046600256
221	0x3ef08f51	0.46984342
222	0x3dff495f	0.12465166
223	0xbd8efee2	-0.06982209
224	0xbe6da00a	-0.23205581
225	0x3dc6b6d8	0.097028434
226	0x3d8ab559	0.067728706
227	0x3db10454	0.08643404
228	0x3e01767d	0.12642856
229	0xbe4e4fd8	-0.20147645
230	0x3d38ed23	0.045148026
231	0x3d08833e	0.033328287
232	0xbe70afff	-0.23504637
233	0xbd78d97f	-0.060754295
234	0xbe3859be	-0.18002984
235	0xbe20d551	-0.15706374
236	0x3dd194e2	0.10233475
237	0x3d5a174e	0.05324488
238	0xbc981387	-0.018563999
239	0xbd9e63c7	-0.07733875
240	0x3e05516c	0.13019341
241	0xbd2a0be5	-0.04151525
242	0xbd9d38eb	-0.07676872
243	0xbdf0d0fe	-0.11758612
244	0x3d96e662	0.07368161
245	0xbed95186	-0.4244501
246	0x3d9a6836	0.07539408
247	0x3c2b1e5d	0.010444251
248	0x3ce3973e	0.027782079
249	0x3d82eff9	0.063934274
250	0x3c18b467	0.009320355
251	0x3e561c88	0.20909321
252	0xbe006efe	-0.1254234
253	0xbdfbbaa3	-0.122914575
254	0xbe54dc97	-0.20787273
255	0x3e6e5b18	0.23276937

reward_backbone.0.bias f4 [128]
0	0xbea8e8db	-0.32990155
1	0x3ebc1b70	0.36739683
2	0x3ec0caf7	0.3765485
3	0x3e886dce	0.26646274
4	0xbea736c6	-0.32658976
5	0xbe62ebe1	-0.22160293
6	0x3ec1fd20	0.37888432
7	0x3e9be4b6	0.3044793
8	0x3e69c414	0.22828704
9	0xbea1ee41	-0.31627086
10	0xbeba64c0	-0.3640499
11	0x3ece4040	0.40283394
12	0x3e411eab	0.18859355
13	0x3ec8fcd9	0.39255407
14	0x3eb40967	0.35163423
15	0x3eeb21a9	0.45924118
16	0xbebc0a82	-0.36726767
17	0xbed19af4	-0.40938532
18	0xbe909d79	-0.28245142
19	0x3eb9a0b4	0.3625542
20	0x3ebe2812	0.37139946
21	0x3e0e98c8	0.13925469
22	0xbea82d68	-0.32847142
23	0xbecaeccb	-0.39633784
24	0x3ec790e2	0.38977724
25	0x3ee1bd5c	0.44089782
26	0xbedf2381	-0.43581775
27	0xbe6054a7	-0.21907292
28	0x3efa7a7f	0.48921582
29	0x3e86caec	0.26326692
30	0x3e36827a	0.1782321
31	0x3ec6d664	0.38835442
32	0xbea290f0	-0.31751204
33	0x3ec1e297	0.37868187
34	0x3eaedfa3	0.34154996
35	0x3ecf02de	0.40431875
36	0xbeae6c5c	-0.34067047
37	0xbe921131	-0.2852874
38	0xbeb7469a	-0.35796052
39	0x3e86c26c	0.26320207
40	0x3eb575ab	0.35441336
41	0x3ec35a33	0.38154754
42	0xbe5443de	-0.20729014
43	0x3ec7fe94	0.39061415
44	0xbef6ab76	-0.4817769
45	0xbeb6068f	-0.3555188
46	0xbed67a3f	-0.4189014
47	0x3e86f05f	0.26355264
48	0xbedc1c44	-0.42990315
49	0x3ebe9370	0.3722186
50	0xbd2d2887	-0.042274978
51	0xbeaff926	-0.34369773
52	0x3e553bf4	0.20823652
53	0x3e9280aa	0.28613788
54	0x3ee57b88	0.4482081
55	0xbeb1be2f	-0.3471541
56	0x3eb2f940	0.34955788
57	0x3e8aeaf3	0.27132377
58	0xbea38372	-0.31936222
59	0x3dcbb42f	0.09946477
60	0x3ebcce99	0.36876372
61	0x3eb823c3	0.35964784
62	0x3ebe7dc5	0.3720533
63	0x3e8f77a7	0.28020975
64	0xbe96fdc4	-0.29490483
65	0x3e8d484c	0.2759422
66	0xbe88772d	-0.26653424
67	0x3e809828	0.25116086
68	0xbe96dd97	-0.29465935
69	0xbee1e0b5	-0.4411675
70	0xbef18f75	-0.47179762
71	0xbe558154	-0.20850116
72	0x3ead93d7	0.33901855
73	0x3e86b12b	0.26307043
74	0x3e83b8a0	0.25726795
75	0x3e56ceb6	0.20977291
76	0x3eac51bc	0.33656108
77	0xbef929ab	-0.48664603
78	0xbea8d092	-0.32971627
79	0xbbc51b02	-0.0060151825
80	0x3e8db76e	0.27679008
81	0xbed3ca22	-0.41365153
82	0xbeb7481c	-0.35797203
83	0x3e913027	0.2835705
84	0xbec7f38d	-0.39053002
85	0xbea5eac7	-0.32405683
86	0x3ea021eb	0.31275877
87	0xbe7680bf	-0.2407255
88	0xbe5b9854	-0.21444827
89	0xbe51f3d8	-0.20503175
90	0x3e5c200d	0.21496601
91	0x3ebd5292	0.3697706
92	0x3e9df99d	0.30854502
93	0xbe770306	-0.24122247
94	0xbea7d906	-0.32782763
95	0x3e8fe8ec	0.28107393
96	0x3e483cd4	0.19554454
97	0xbeadfd92	-0.3398252
98	0xbeaa69cf	-0.3328385
99	0xbe637ade	-0.22214839
100	0xbe969090	-0.29407167
101	0xbec8f931	-0.39252618
102	0xbe60d83c	-0.21957487
103	0x3e2d2357	0.16908012
104	0x3e9c4a87	0.3052561
105	0xbe80448c	-0.25052297
106	0x3ecc7ff7	0.3994138
107	0xbe97be3a	-0.2963732
108	0xbea762f7	-0.32692692
109	0x3eb063ab	0.3445104
110	0xbeb2c0cb	-0.34912714
111	0x3ebe7899	0.37201384
112	0x3ebb3893	0.365666
113	0x3e9a07bc	0.30084026
114	0x3ed42225	0.414323
115	0xbeb13c13	-0.34616145
116	0x3f00940a	0.5022589
117	0xbe6ce048	-0.23132432
118	0x3e9bc9d6	0.30427426
119	0xbe82744c	-0.25479352
120	0x3eb49080	0.35266495
121	0x3ea135c1	0.31486323
122	0x3e9f321e	0.31092924
123	0x3e938a29	0.28816345
124	0xbdf0a157	-0.11749523
125	0xbe8bbe2e	-0.27293533
126	0xbedb55e2	-0.4283896
127	0x3eca26e2	0.3948279

reward_backbone.2.weight f4 [128, 128]
0	0xbe658f7d	-0.22418018
1	0xbe8a694a	-0.27033454
2	0xbdf93c2b	-0.12169679
3	0x3dcde618	0.100536525
4	0x3db29cd7	0.08721321
5	0x3e09519b	0.13410036
6	0xbdebb750	-0.115095735
7	0x3d722218	0.059114546
8	0xbe5a1779	-0.21298017
9	0x3db090ad	0.08621345
10	0x3dd1f172	0.1025113
11	0xbe8fffa2	-0.2812472
12	0x3b0e7b86	0.0021741106
13	0xbe7950c2	-0.24347213
14	0x3e76daf5	0.24106963
15	0x3cbfa404	0.023393638
16	0xbdba4202	-0.09094621
17	0x3e9f07cc	0.31060636
18	0x3db7141e	0.08939384
19	0x3e3d7101	0.18500139
20	0x3ea6c083	0.3256875
21	0xbded7927	-0.115953736
22	0x3e02747a	0.12739745
23	0xbd98ad7c	-0.074549645
24	0x3e4559ed	0.19272585
25	0xbc47befa	-0.012191528
26	0xbe2aabeb	-0.16667144
27	0x3eb64511	0.35599568
28	0x3ca13878	0.019680247
29	0xbde44ca2	-0.11147429
30	0xbe3c36d9	-0.18380298
31	0x3df851b8	0.121249616
32	0x3c88ab85	0.01668335
33	0xbdf99bf9	-0.121879525
34	0xbbcae2ae	-0.006191573
35	0xbd0b3ade	-0.033991687
36	0x3e9cb45c	0.30606353
37	0x3d039c71	0.032131616
38	0xbde17a30	-0.110096335
39	0xbe41ec11	-0.18937708
40	0xbe8f6da6	-0.28013343
41	0xbd161d87	-0.036649253
42	0x3dee30f9	0.116304345
43	0xbe7449b3	-0.23856239
44	0x3ba82c52	0.0051322365
45	0xbd0a25df	-0.033727523
46	0x3e2775fb	0.163536
47	0xbe9b3a32	-0.30317837
48	0x3dde657a	0.10859199
49	0xbd8f1b1c	-0.069875926
50	0xbe641c81	-0.22276498
51	0x3e3fe0e8	0.18738139
52	0x3dfae6c7	0.122510485
53	0xbd97a156	-0.07403819
54	0xbe2243ff	-0.15846251
55	0x3e887545	0.2665197
56	0x3da6156d	0.081095554
57	0xbe95c217	-0.2924964
58	0x3e672ae0	0.2257495
59	0xbcd5ea01	-0.026112558
60	0xbed4e202	-0.4157868
61	0x3d202104	0.039093986
62	0xbe488ebb	-0.19585697
63	0xbc4a25ba	-0.012338096
64	0x3e877ae4	0.26460946
65	0x3d0e0d3c	0.03468059
66	0x3e8303dd	0.25588885
67	0x3cf26e2a	0.029593546
68	0x3ee249de	0.4419698
69	0xbc6f12a4	-0.014591847
70	0x3e42b92f	0.19015954
71	0x3ea446a4	0.32085145
72	0x3b827272	0.003980928
73	0xbdcdcd73	-0.10048952
74	0xbea2fc1f	-0.31832978
75	0xbdd58714	-0.10426155
76	0x3c01d667	0.007924653
77	0x3e43fb3d	0.19138809
78	0x3d7e080c	0.062019393
79	0xbee08413	-0.43850765
80	0x3d7bc05b	0.06146274
81	0x3e79492c	0.24344319
82	0x3e4af1a5	0.19818743
83	0xbe20cee0	-0.15703917
84	0x3d90da9a	0.07072945
85	0x3eb08bf7	0.34481785
86	0xbe3aa795	-0.1822799
87	0x3e45f8e8	0.19333231
88	0x3e598215	0.21241029
89	0x3ec56c84	0.38559353
90	0xbc047e54	-0.00808676
91	0x3ddb1e3a	0.10699125
92	0x3c87a75f	0.016559301
93	0x3e40edea	0.18840757
94	0x3e3c01a7	0.18360005
95	0x3e46131f	0.19343232
96	0xbe86a5f4	-0.26298487
97	0xbe4e46c4	-0.20144182
98	0x3e16f148	0.14740479
99	0xbcb08dbc	-0.02155196
100	0xbc155442	-0.009114327
101	0xbcfbf842	-0.030758027
102	0x3e1ca2f0	0.1529653
103	0xbeb37536	-0.35050362
104	0xbd9ff729	-0.07810814
105	0x3eacda14	0.3376013
106	0xbd62510c	-0.055253074
107	0x3db5b4bb	0.08872362
108	0x3d06390d	0.03276925
109	0xbe8be234	-0.27321017
110	0xba8be722	-0.0010673741
111	0xbc3058fd	-0.010763404
112	0xbc18a51a	-0.009316707
113	0xbe48bf0b	-0.19604127
114	0xbe868640	-0.262743
115	0x3eb60c9f	0.35556504
116	0xbe5d7df6	-0.21630082
117	0x3e03c4a0	0.12867975
118	0xbe917b93	-0.28414592
119	0xbd3f2da3	-0.046674382
120	0xbda4700c	-0.08029184
121	0xbea78a41	-0.32722667
122	0x3d8015af	0.06254136
123	0xbe524076	-0.20532402
124	0x3dd11449	0.10208947
125	0xbc9e3031	-0.019310089
126	0xbceb7f1e	-0.028747138
127	0xbe43406c	-0.19067544
128	0x3e682f9e	0.22674415
129	0xbd7a401b	-0.061096292
130	0xbe8bbecf	-0.27294013
131	0xbe47210b	-0.19446199
132	0xbd80cd38	-0.06289142
133	0x3e0bcec1	0.13653089
134	0xbf37af11	-0.71751505
135	0xbe6a30d3	-0.22870187
136	0xbe2bfaea	-0.16794935
137	0x3ea362d3	0.31911334
138	0x3e2ae257	0.16687904
139	0xbe9baafd	-0.3040389
140	0x3d656723	0.056006562
141	0xbe2b2bb4	-0.1671589
142	0xbeac5329	-0.33657196
143	0xbf323a36	-0.6962007
144	0xbd6770e7	-0.056504156
145	0x3d578d56	0.052625023
146	0x3d362bc1	0.04447532
147	0xbea1a589	-0.31571606
148	0xbebbc7cf	-0.3667588
149	0xbea4cb48	-0.3218634
150	0x3ee04c2d	0.43808118
151	0x3f389097	0.72095627
152	0xbe96bfa0	-0.29443073
153	0xbeaa7f81	-0.33300403
154	0x3f0fd61d	0.56186086
155	0x3e3164e7	0.17323647
156	0xbe2a3464	-0.16621548
157	0xbf3ab844	-0.7293742
158	0xbd7139b3	-0.058892917
159	0xbda8f017	-0.082489185
160	0x3e82d073	0.2554966
161	0xbe4cb779	-0.19991864
162	0xbf4e2b4e	-0.8053483
163	0xbe9153ec	-0.2838434
164	0xbd387faa	-0.045043625
165	0x3eaa1eef	0.33226725
166	0x3e24d4bb	0.16096775
167	0xbd3f5f53	-0.046721768
168	0xbe29d882	-0.16586497
169	0xbe3bb71a	-0.18331566
170	0x3c8ba741	0.017047526
171	0xbe27b109	-0.16376127
172	0x3e9231da	0.2855366
173	0x3f13dc78	0.57758284
174	0x3d92d390	0.071692586
175	0x3df2487c	0.118302315
176	0x3e42b48b	0.19014184
177	0xbf086567	-0.5327973
178	0x3e0b6009	0.13610853
179	0x3da393c4	0.079871684
180	0xbf0d85c0	-0.5528221
181	0xbe51c532	-0.2048538
182	0xbec39ca2	-0.3820544
183	0x3ed8e8ec	0.42365205
184	0xbe4460ba	-0.19177523
185	0xbd4aebe9	-0.049541388
186	0x3edfdcdd	0.43723193
187	0xbd8a6871	-0.06758202
188	0xbd0f4cda	-0.0349854
189	0x3ca53958	0.020168945
190	0xbf0a6f18	-0.54075766
191	0xbe95be77	-0.29246876
192	0x3d83975a	0.064253524
193	0xbda477a2	-0.08030631
194	0xbce0b57d	-0.02743029
195	0xbd9e5f49	-0.07733018
196	0xbde7f4b8	-0.11325973
197	0x3da7c63a	0.081921056
198	0x3ec41297	0.38295433
199	0x3e9cacfe	0.30600733
200	0x3c98254c	0.018572472
201	0xbf20e544	-0.6284983
202	0xbe83d40b	-0.25747713
203	0xbe9b20c6	-0.30298442
204	0xbe888ef1	-0.26671556
205	0x3ebe1adc	0.37129867
206	0xbd0f54b1	-0.034992877
207	0x3e32d6b7	0.1746472
208	0xbe6039ea	-0.21897092
209	0x3e8da71f	0.27666566
210	0x3e7cc170	0.24683166
211	0xbe256fa3	-0.16155867
212	0x3e983418	0.29727244
213	0x3d8fd263	0.0702255
214	0xbeac249c	-0.3362168
215	0xbd0bc089	-0.034119163
216	0x3f0873b2	0.5330154
217	0x3e6fdf05	0.23424919
218	0xbe810107	-0.25196096
219	0xbf1a786a	-0.6033999
220	0xbedb9395	-0.42886034
221	0xbccbc29d	-0.024873072
222	0xbdcd97a8	-0.10038692
223	0xbf119d4d	-0.56880647
224	0xbe12ff25	-0.14355142
225	0x3d9754e4	0.073892385
226	0x3e042743	0.12905602
227	0x3edb5bc5	0.42843452
228	0x3f0d1504	0.5511019
229	0x3ecf56a2	0.40495783
230	0x3e98584a	0.2975486
231	0xbd2d1067	-0.04225197
232	0xbe951739	-0.2911928
233	0x3db3d7a4	0.087813646
234	0xbe33f529	-0.1757399
235	0x3c7a0b13	0.015261429
236	0x3d680f5f	0.056655284
237	0xbf37550b	-0.7161414
238	0x3ea01813	0.31268367
239	0xbedaa02a	-0.4270032
240	0xbedc8d4d	-0.43076554
241	0xbe4e68c1	-0.20157148
242	0xbe89a328	-0.2688229
243	0x3d5cb76d	0.053885866
244	0xbed01361	-0.40639785
245	0x3d98983e	0.07450913
246	0xbebbe72f	-0.36699817
247	0x3e9621d7	0.29322693
248	0xbf07c875	-0.5304025
249	0xbe92cafa	-0.28670484
250	0x3d0b506c	0.034012243
251	0xbd306064	-0.043060675
252	0x3e1fbafa	0.1559867
253	0x3eefcd3f	0.46836278
254	0x3eb6bfd8	0.3569324
255	0xbd24074f	-0.040046033

reward_backbone.2.bias f4 [128]
0	0xbe5b37ff	-0.2140808
1	0xbe85ae4c	-0.2610954
2	0x3e8a0f47	0.2696478
3	0xbeac0357	-0.33596298
4	0xbe7bbf18	-0.24584615
5	0xbe9771d3	-0.29579028
6	0xbe40d89f	-0.18832634
7	0xbe898dff	-0.26866147
8	0x3e9991a6	0.29993933
9	0xbe19539a	-0.14973298
10	0x3e5224d8	0.20521867
11	0xbdfdeee3	-0.1239908
12	0x3dd5bd85	0.104365386
13	0x3e241ea8	0.1602732
14	0x3e33d13a	0.17560282
15	0x3ce430bc	0.02785527
16	0xbdca4cd8	-0.09877938
17	0xbe7dbd5d	-0.24779268
18	0x3ed24f6f	0.41076228
19	0x3e84f6c2	0.2596951
20	0xbe941d4c	-0.28928602
21	0xbead45dc	-0.3384236
22	0xbeb79938	-0.35859084
23	0x3ea0d395	0.31411424
24	0xbe9c1791	-0.3048673
25	0x3e8f58c4	0.2799741
26	0xbe7ae415	-0.24501069
27	0x3e9802c7	0.2968962
28	0x3e5c19ce	0.21494219
29	0xbe8717eb	-0.26385435
30	0x3e97b163	0.29627523
31	0x3ea3ea18	0.32014537
32	0x3e9dbe2f	0.3080916
33	0xbe732942	-0.23746207
34	0x3ea7a264	0.32741082
35	0x3ea17e51	0.31541684
36	0xbe74a597	-0.23891293
37	0xbe8cbed2	-0.27489334
38	0xbdf4da0c	-0.11955652
39	0x3e45f0c5	0.19330128
40	0x3e89472b	0.2681211
41	0x3e98f9f9	0.29878214
42	0x3e835f21	0.25658515
43	0x3e9b202e	0.3029799
44	0x3e7518c7	0.23935233
45	0x3e9ab34c	0.30214918
46	0x3e74586d	0.23861857
47	0x3eb27b9f	0.3485994
48	0xbeb33d09	-0.35007504
49	0x3e8750c7	0.26428816
50	0x3db049c4	0.0860782
51	0x3e827694	0.25481093
52	0x3eb3142d	0.3497633
53	0xbe17d1c0	-0.14826107
54	0x3e1b41cf	0.15161823
55	0x3ec9e95a	0.39435846
56	0x3e9a780d	0.30169716
57	0x3da0094a	0.07814272
58	0xbe61da75	-0.22055991
59	0xbe8a3136	-0.2699067
60	0x3cfe3662	0.031031791
61	0x3e198d10	0.14995217
62	0xbe9d7439	-0.30752733
63	0xbe361615	-0.17781861
64	0x3e859393	0.26089153
65	0x3ec3d235	0.38246313
66	0x3e31137e	0.17292592
67	0x3d043cfd	0.032284725
68	0xbea9a1fd	-0.331314
69	0xbe81b03b	-0.25329766
70	0x3e89f08a	0.2694133
71	0x3d4a8cf5	0.049450833
72	0xbe3b084e	-0.18264887
73	0x3ebaf1f0	0.3651271
74	0x3e690689	0.22756399
75	0xbe8e9ad9	-0.27852514
76	0xbe99b382	-0.30019766
77	0x3e2f7349	0.17133822
78	0xbe8244c6	-0.25443095
79	0xbe90129a	-0.28139192
80	0xbe35e5c7	-0.17763434
81	0x3d015d67	0.031583216
82	0x3ea0329d	0.31288615
83	0x3da053cc	0.07828483
84	0x3e7f062b	0.24904697
85	0x3da4f31b	0.08054181
86	0xbead76c6	-0.3387968
87	0x3e947170	0.28992796
88	0xbebafc97	-0.36520836
89	0xbe9116cb	-0.28337702
90	0x3e7de907	0.24795924
91	0xbe53d372	-0.20686129
92	0x3eaeeeb4	0.3416649
93	0xbb1a06b7	-0.0023502538
94	0x3e40181c	0.18759197
95	0xbea6c75c	-0.32573974
96	0x3e8815ec	0.26579225
97	0x3d1dfeb5	0.038572986
98	0xbe86dc0b	-0.26339754
99	0x3e3c5911	0.18393351
100	0x3e993b4e	0.29928058
101	0xbe9a3b62	-0.3012343
102	0xbce8205d	-0.028335745
103	0xbea67596	-0.32511586
104	0x3e97ab7d	0.29623023
105	0x3e944878	0.2896154
106	0xbe86bae7	-0.2631447
107	0x3e910f11	0.28331807
108	0x3e89d04b	0.26916727
109	0xbe53dd31	-0.20689847
110	0xbeb24394	-0.34817183
111	0x3e6042ab	0.21900432
112	0xbea0dee9	-0.31420067
113	0xbe9bf63c	-0.304613
114	0xbc2db8d7	-0.010603151
115	0xbebb06fe	-0.36528772
116	0x3e8e0816	0.27740544
117	0x3e52517e	0.205389
118	0x3e891cfe	0.26779932
119	0xbeb7c5d5	-0.3589312
120	0x3e8aefb9	0.2713602
121	0xbd7446dc	-0.05963789
122	0x3eba3ca7	0.363744
123	0x3e836bfe	0.2566833
124	0xbe1335e3	-0.14376025
125	0xbe8a9fae	-0.2707495
126	0x3e43dcb5	0.19127162
127	0xbe8c8c7b	-0.27450928

cost_backbone.0.weight f4 [128, 22]
0	0xbe02b92c	-0.1276595
1	0x3d11ded0	0.03561288
2	0xbd0df716	-0.034659468
3	0xbda0f341	-0.07858897
4	0xbd7c4bfb	-0.061595898
5	0xbc7c5cd0	-0.015402988
6	0x3d512fb9	0.051070902
7	0x3db3ddb0	0.08782518
8	0xbe1ef827	-0.1552435
9	0x3e93ccd4	0.2886721
10	0xbcb415a5	-0.021982977
11	0xbdcdd046	-0.10049491
12	0xbea9aff9	-0.3314207
13	0xbd2c4ddc	-0.04206644
14	0x3e03637a	0.12830916
15	0xbdb09429	-0.08622009
16	0xbd944014	-0.072387844
17	0xbe66d414	-0.22541839
18	0xbe119bcc	-0.14219588
19	0xbdbbe7ba	-0.09175058
20	0xbc9562f7	-0.018235667
21	0xbe615660	-0.22005606
22	0xbe1871f0	-0.14887214
23	0xbea89671	-0.32927278
24	0x3d09b172	0.03361649
25	0xbc9b87eb	-0.01898571
26	0x3d96322c	0.07333788
27	0xbda10556	-0.07862346
28	0xbea120df	-0.3147039
29	0xbdac1280	-0.08401966
30	0x3e47c5f9	0.19509114
31	0xbd093c9a	-0.03350506
32	0xbe6a80cc	-0.22900695
33	0xbd996c8c	-0.07491407
34	0xbea856d4	-0.32878745
35	0x3dd55d49	0.10418183
36	0x3da30c86	0.07961373
37	0x3d6d84ea	0.057988085
38	0x3e02c279	0.12769498
39	0xbd2131a9	-0.039354
40	0x3da976fd	0.08274648
41	0x3b5da42f	0.0033819785
42	0x3d688b31	0.05677337
43	0xbceb23aa	-0.02870353
44	0xbdc53b58	-0.096304595
45	0xbe1547d5	-0.14578183
46	0xbdb572fa	-0.08859821
47	0x3cbb4958	0.022862121
48	0xbdefcb6c	-0.117087215
49	0x3d582270	0.052767217
50	0x3c8b8aef	0.017034022
51	0x3e33a8f3	0.17544918
52	0x3db78579	0.08961005
53	0x3bfcdd6e	0.007716826
54	0xbc92d377	-0.0179231
55	0x3e43185a	0.19052258
56	0x3e412492	0.18861607
57	0x3d474979	0.048654053
58	0xbdd0be8e	-0.101925954
59	0xbd4cd32d	-0.05000608
60	0x3e191a57	0.14951454
61	0xbe1f25aa	-0.15541711
62	0xbf024a8b	-0.50894994
63	0x3dc2f0f5	0.09518615
64	0x3e4a296b	0.19742362
65	0x3e3bf650	0.1835568
66	0x3d6196a5	0.055075306
67	0xbec80f77	-0.390743
68	0xbccb5cdc	-0.024824552
69	0x3e1dbdf7	0.15404497
70	0xbe139c36	-0.14415058
71	0xbe10a974	-0.14127141
72	0x3dd9b1ef	0.10629641
73	0xbea2fbc1	-0.31832698
74	0xbe6182ea	-0.22022596
75	0x3c2baf44	0.010478798
76	0xba3384d3	-0.00068481005
77	0x3d0c4835	0.03424855
78	0xbd113172	-0.035447545
79	0xbdc4f671	-0.096173175
80	0xbe896190	-0.26832247
81	0xbe46dd14	-0.19420272
82	0x3e256112	0.1615031
83	0xbe6ca5a5	-0.23110063
84	0x3ddc06fe	0.10743521
85	0x3e17c2da	0.14820424
86	0x3f368247	0.7129254
87	0x3de4e25b	0.111759864
88	0xbdbd4a7c	-0.092427224
89	0x3deb2604	0.1148186
90	0x3e371f64	0.17883068
91	0xbd9d9782	-0.076949134
92	0xbd74b8e7	-0.05974665
93	0xbc5b9664	-0.013402555
94	0xbe729daf	-0.23692964
95	0x3e47dbfc	0.19517511
96	0xbd6a5788	-0.057212383
97	0xbed14139	-0.40870073
98	0x3e0d3a29	0.13791718
99	0x3e0ec6d6	0.13943037
100	0xbd026dd7	-0.031843033
101	0xbce783af	-0.028261034
102	0x3e793bb5	0.24339183
103	0xbe73d8cc	-0.2381317
104	0xbc33c527	-0.010972298
105	0x3d2b299e	0.041787736
106	0xbe0e5cf8	-0.13902652
107	0xbe33c184	-0.17554289
108	0x3e1a2f4d	0.15057106
109	0xbe826bd6	-0.25472897
110	0xbe2671f1	-0.16254403
111	0xbe08f499	-0.13374557
112	0xbd95145d	-0.072792746
113	0xbde9b23d	-0.114109494
114	0x3d3aef98	0.04563865
115	0xbe555a04	-0.2083512
116	0x3e0b31bd	0.13593192
117	0xbe29ceeb	-0.16582839
118	0x3d93a485	0.07209114
119	0xbd97fbb5	-0.07421056
120	0x3de1aaf5	0.110189356
121	0x3d99dc12	0.07512678
122	0x3dcb522b	0.09927782
123	0xbda74416	-0.08167283
124	0xbe32a33d	-0.17445083
125	0x3d773662	0.060354598
126	0x3dbfea16	0.0937082
127	0xbcf5f6f8	-0.03002499
128	0xbe61c5ff	-0.22048186
129	0x3e99651a	0.29959947
130	0x3ef7c35a	0.4839123
131	0xbe160171	-0.14648987
132	0x3e3a481f	0.18191575
133	0x3d6f1519	0.05836973
134	0xbb1932b1	-0.0023376162
135	0xbcaa53ea	-0.020791966
136	0x3c81f02d	0.015861595
137	0x3e1f1d63	0.15538554
138	0x3dc10361	0.094244726
139	0xbe8b9e1b	-0.27269062
140	0x3d1e6efb	0.038680058
141	0x3e0ce015	0.13757356
142	0xbd2fbd71	-0.042905275
143	0xbd678b37	-0.05652925
144	0x3ea66a20	0.32502842
145	0xbd0ef178	-0.03489825
146	0xbe52cb74	-0.20585424
147	0x3e0229f3	0.12711315
148	0x3e0b3d64	0.13597637
149	0x3edfff73	0.4374958
150	0xbdd9d900	-0.106370926
151	0xbd62d0a1	-0.055374745
152	0x3e422985	0.18961151
153	0x3e886bf0	0.2664485
154	0xbd8f43d6	-0.069953606
155	0x3d32f094	0.043686464
156	0xbdb26b2e	-0.08711849
157	0xbdd914ce	-0.10599671
158	0xbe40321f	-0.1876912
159	0xbdf6cb26	-0.12050466
160	0x3dd89e9d	0.10577128
161	0xbeb53abc	-0.35396373
162	0xbca7484b	-0.020420214
163	0xba99ccf1	-0.0011734051
164	0x3e53d6bc	0.20687383
165	0x3d22ff8b	0.039794486
166	0x3eac43db	0.3364552
167	0xbd81b457	-0.06333225
168	0xbd2ad766	-0.041709326
169	0x3dfee36a	0.124457195
170	0xbe16ecb2	-0.1473873
171	0x3ccd477e	0.025058504
172	0x3e2d243e	0.16908357
173	0xbd88000f	-0.06640636
174	0x3e53e297	0.20691906
175	0x3cbc90b7	0.023018224
176	0xbe86ada8	-0.26304364
177	0xbe656733	-0.22402649
178	0xbe3643b7	-0.17799269
179	0xbd532134	-0.051545337
180	0xbcdc3d5a	-0.026884723
181	0xbd86074e	-0.06544362
182	0xbda387c2	-0.07984878
183	0xbcbfd337	-0.023416145
184	0x3e929ddd	0.28636065
185	0xbd58a075	-0.0528874
186	0xbe29ddd7	-0.16588531
187	0xbed9f982	-0.42573172
188	0xbea9ad65	-0.33140102
189	0xbd27b223	-0.04094137
190	0xbe1ea183	-0.154913
191	0xbdb0789e	-0.08616756
192	0x3e5e8841	0.21731664
193	0x3dcd58f3	0.10026731
194	0xbe2fa65b	-0.17153303
195	0x3b64631e	0.0034849118
196	0xbe9d12b3	-0.3067833
197	0x3eab5959	0.33466604
198	0x3e9bc14e	0.30420917
199	0x3edc189b	0.42987522
200	0x3a2d0460	0.0006600078
201	0xbd9eeedc	-0.077604026
202	0x3b186c6e	0.0023257989
203	0x3d235b44	0.03988196
204	0x3d94c7eb	0.07264694
205	0x3e584914	0.21121627
206	0x3d2136ea	0.03935901
207	0xbdd22cc9	-0.10262448
208	0x3ef9ff99	0.48827818
209	0x3e2c7711	0.16842295
210	0x3e930ca5	0.28720585
211	0xbdf944b9	-0.12171311
212	0x3de1b844	0.11021474
213	0xbd4d460e	-0.050115637
214	0x3e235c2e	0.15953133
215	0x3e887af2	0.266563
216	0xbc45aa3b	-0.012064512
217	0x3e696389	0.22791876
218	0x3d590dcc	0.052991673
219	0x3d8ea1bc	0.06964442
220	0xbdfc3fc1	-0.123168476
221	0xbdc850a9	-0.0978101
222	0xbd18ee37	-0.037336554
223	0xbd8f6c1f	-0.07003044
224	0xbe0658f1	-0.13119866
225	0x3d4f85c9	0.050664697
226	0xbe362a98	-0.17789686
227	0x3e1600ca	0.14648739
228	0xbdabf7f6	-0.08396904
229	0xbdd2a91b	-0.102861606
230	0x3d8bcff5	0.06826774
231	0xbea004a8	-0.31253552
232	0x3e01041c	0.12599224
233	0x3df8a174	0.1214017
234	0xbce57072	-0.02800772
235	0xbd930b89	-0.071799345
236	0xbbfd4098	-0.0077286474
237	0xbc8e9d1b	-0.017408898
238	0xbe90fd08	-0.28318048
239	0xbe0aede7	-0.13567315
240	0xbf232740	-0.63731766
241	0xbe5cd193	-0.21564321
242	0xbe21e6de	-0.15810725
243	0x3e3268f5	0.1742285
244	0xbc0d6d27	-0.008631981
245	0xbb82a559	-0.003986996
246	0x3d90fc07	0.070793204
247	0x3d692f03	0.0569296
248	0xbe99697c	-0.2996329
249	0x3e549dec	0.20763367
250	0xbdaaceaf	-0.08340203
251	0xbca7d224	-0.020485945
252	0xbd7acde0	-0.061231494
253	0xbdc49e49	-0.09600503
254	0xbe9f378d	-0.3109707
255	0x3e6f50b3	0.23370628
