outputs/E1_penalty_fixedlambda_sweep/penalty_fixed_seed0_lE2.0_lL0.5/best_fsr.pt (torch, 981537 bytes, 68 tensors)

actor_backbone.0.weight f4 [128, 22]
0	0xbcfa6070	-0.030563563
1	0x3d88051e	0.06641601
2	0x3e83184a	0.2560447
3	0x3db4dbb1	0.08830965
4	0xbdf7d168	-0.12100488
5	0xbd104e79	-0.035231087
6	0xbd9cf091	-0.07663072
7	0x3c45d1d7	0.0120739555
8	0xbdf1d8c3	-0.11808922
9	0x3dcac793	0.09901347
10	0xbd479af2	-0.04873175
11	0xbe2747f9	-0.16336049
12	0x3db4c6a4	0.0882695
13	0x3d8b1c7a	0.06792541
14	0xbe1ad8c4	-0.15121752
15	0x3ddf9a06	0.109180495
16	0xbd3ee90f	-0.04660898
17	0xbda859e5	-0.08220271
18	0x3e3062b1	0.17225148
19	0x3cab4be6	0.020910215
20	0x3e812a10	0.25227404
21	0xbe134ffb	-0.14385979
22	0xbc1c7f45	-0.009551828
23	0x3e08e764	0.13369519
24	0xbe5269f0	-0.20548224
25	0xbdd155f0	-0.102214694
26	0xbe042b66	-0.1290718
27	0x3d237dca	0.039914884
28	0x3d565f8b	0.05233721
29	0xbdbd897b	-0.09254738
30	0x3e77f359	0.24213924
31	0x3d8241b8	0.06360191
32	0x3e6b93ce	0.23005602
33	0xbc13d570	-0.009023055
34	0xbe45db9e	-0.19322059
35	0x3b369d86	0.0027864887
36	0x3d89756c	0.067118496
37	0x3df6f970	0.12059295
38	0x3cf3d1cf	0.02976313
39	0xbab5c920	-0.0013869144
40	0xbd39cc83	-0.045361053
41	0xbe10aef6	-0.14129242
42	0x3d00d275	0.031450707
43	0x3e23cc78	0.15995967
44	0xbdf20649	-0.11817605
45	0xbd9cf90b	-0.07664689
46	0xbdc89745	-0.097944774
47	0x3cc78e25	0.024359772
48	0xbdb30f0f	-0.087431066
49	0xbcf6cd5d	-0.030127222
50	0xbca9b329	-0.020715313
51	0x3d8ed91b	0.06975003
52	0x3d5e7084	0.054306522
53	0x3d204690	0.039129794
54	0xbdbc0d3e	-0.09182213
55	0x3db8210f	0.089906804
56	0x3dd75e0e	0.105159864
57	0x3d1249a3	0.035714757
58	0x3e30a6ef	0.1725118
59	0xbd0f7dfd	-0.03503226
60	0xbe805282	-0.25062948
61	0x3d8032d6	0.06259696
62	0xbe258fda	-0.16168156
63	0xbcb6fdb8	-0.02233778
64	0x3ecaf25f	0.3963804
65	0xbde15663	-0.11002805
66	0xbe1064a1	-0.14100887
67	0x3ea3eb76	0.3201558
68	0xbc4ff0ed	-0.0126917185
69	0xbdf8846e	-0.12134634
70	0xbcbe242a	-0.023210604
71	0xbda5e9fe	-0.08101271
72	0xbcb1021f	-0.021607457
73	0x3dba4b1a	0.09096356
74	0xbdf63dbf	-0.12023496
75	0x3df3ff65	0.11913947
76	0xbcfaada3	-0.030600375
77	0xbe1c7989	-0.15280737
78	0x3c08939f	0.008335977
79	0x3e5b774d	0.21432228
80	0xbbc3f0b3	-0.0059796213
81	0xbd95cca2	-0.07314421
82	0x3dc3a3fb	0.09552761
83	0xbcaeac33	-0.021322345
84	0x3dc766a6	0.097363755
85	0x3e1572d1	0.1459458
86	0xbdd1b063	-0.10238721
87	0x3d96397d	0.07335184
88	0xbed57f23	-0.4169856
89	0x3d679d4f	0.056546506
90	0x3ea42055	0.32055917
91	0xbe30146a	-0.17195287
92	0x3dd6c567	0.1048687
93	0xbc767622	-0.0150428135
94	0xbe103df6	-0.14086136
95	0x3dd30a2e	0.10304676
96	0x3b758f18	0.0037469324
97	0x3dece672	0.115673915
98	0xbdcfd19b	-0.10147401
99	0xbc717a2d	-0.014738602
100	0xbd93e5bb	-0.07221552
101	0x3d409d15	0.047024805
102	0x3e163f8b	0.14672677
103	0xbd44c6b4	-0.04804106
104	0x3d203cdb	0.039120536
105	0x3d4477a2	0.047965653
106	0x3cebf5f1	0.028803797
107	0xbdf7294f	-0.12068426
108	0xbd1ad4e9	-0.037800703
109	0xbe14f5ca	-0.14546886
110	0xbc8350c9	-0.016029732
111	0xbe8bf045	-0.2733175
112	0x3dfa1024	0.1221011
113	0x3dd8bf89	0.105834074
114	0x3da2c49c	0.079476565
115	0xbbebd3a5	-0.007196861
116	0xbdfa1be3	-0.1221235
117	0xbd9c0130	-0.07617414
118	0xbd9960a1	-0.074891336
119	0xbd87b630	-0.066265464
120	0x3e188345	0.14893825
121	0xbe046853	-0.12930422
122	0xbd6cf92c	-0.057854816
123	0x3e1fe3a0	0.15614176
124	0xbe6cbd22	-0.23119023
125	0xbd5eaeac	-0.0543658
126	0xbe2521ac	-0.16126126
127	0xbdce6d59	-0.1007945
128	0xbeef37de	-0.4672231
129	0x3da46ede	0.08028959
130	0x3daad2a8	0.08340961
131	0x3dc16770	0.09443557
132	0xbe26e2af	-0.1629741
133	0xbe48fb95	-0.19627221
134	0xbd89e9bc	-0.067340344
135	0xbc8f5e13	-0.017500913
136	0xbe25245a	-0.16127148
137	0xbe42cc20	-0.1902318
138	0x3db567e9	0.0885771
139	0xbde40a98	-0.11134833
140	0x3da247ae	0.07923828
141	0xbd4178df	-0.047234412
142	0xbdedea75	-0.11616985
143	0x3e3f2b23	0.18668799
144	0xbbe6ffb9	-0.0070495275
145	0xbe488174	-0.19580632
146	0xbd340baa	-0.043956436
147	0x3e3fe86e	0.18741009
148	0x3e51dd40	0.20494556
149	0xbc0440b8	-0.008072071
150	0xbe07200b	-0.13195817
151	0xbc4a97b5	-0.012365271
152	0x3e8a9f58	0.27074695
153	0xbe8e6798	-0.2781341
154	0x3e8756f2	0.26433522
155	0xbea1b0e3	-0.31580266
156	0xbc8a7052	-0.016899262
157	0x3e174d1d	0.1477551
158	0xbc4557f1	-0.012044893
159	0xbd5a919a	-0.053361513
160	0xbdbf6923	-0.09346225
161	0xbde0b01b	-0.109710895
162	0xbd10a415	-0.03531273
163	0x3d4a9be2	0.049465068
164	0xbe3e526f	-0.18586133
165	0xbe595684	-0.2122441
166	0x3d743e70	0.059629858
167	0xbdaae231	-0.08343924
168	0x3e56bb63	0.2096992
169	0xbc232a15	-0.009958764
170	0xbd40049a	-0.04687939
171	0x3dfb9aea	0.12285407
172	0xbd002eee	-0.031294756
173	0x3e25e047	0.16198836
174	0x3e2cc748	0.16872895
175	0x3d2c8496	0.04211863
176	0x3f1c056a	0.6094576
177	0xbd855d6c	-0.065119594
178	0x3ce5d06f	0.02805349
179	0xbd77dc0f	-0.0605126
180	0xbe28b360	-0.16474676
181	0x3dfc96d0	0.12333453
182	0xbe2f5b8d	-0.17124768
183	0x3deb7c38	0.11498302
184	0x3c365b01	0.011130095
185	0xbdb7dd04	-0.08977702
186	0x3d913527	0.07090216
187	0x3cc00c62	0.023443405
188	0xbcb8f2e5	-0.022576759
189	0xbd06ad15	-0.032879908
190	0xbd50da44	-0.050989404
191	0xbd43a8ab	-0.047768276
192	0xbd83f9af	-0.06444108
193	0x3d1044c4	0.03522183
194	0x3d0886a8	0.033331543
195	0x3db6ed8e	0.08932029
196	0x3e036930	0.12833095
197	0x3eb71f1d	0.35765925
198	0xbe7b7ccf	-0.2455933
199	0xbe32b611	-0.17452265
200	0x3e2d2e2b	0.16912143
201	0x3ddfd134	0.10928574
202	0x3da5f827	0.08103972
203	0xbd49e209	-0.04928783
204	0x3ba72e37	0.005101945
205	0x3c6d926f	0.0145002445
206	0x3d3c0b46	0.04590919
207	0xbe9965b7	-0.29960415
208	0x3ccbef70	0.024894446
209	0x3ddf3719	0.10899181
210	0xbd173fa7	-0.036925938
211	0x3c5e9202	0.013584616
212	0xbe458270	-0.19288039
213	0xbd173ce2	-0.036923297
214	0xbd373c73	-0.044735383
215	0xbd02019a	-0.03173981
216	0xbe56d93f	-0.2098131
217	0x3d742d4b	0.059613507
218	0x3e72bd22	0.23704961
219	0xbe068b15	-0.13138993
220	0x3ed38455	0.413119
221	0xbe44a2c8	-0.19202721
222	0xbdfcb200	-0.12338638
223	0x3d9e66b7	0.07734435
224	0xbab1ea6d	-0.0013573893
225	0xbe049521	-0.12947513
226	0xbd2b383a	-0.04180167
227	0x3dd11c0a	0.10210426
228	0xbdbf41dc	-0.093387336
229	0x3d0e88fa	0.0347986
230	0x3d9d8794	0.07691875
231	0xbdab72b7	-0.083714895
232	0xbbba0fa4	-0.005678134
233	0xbddd52fd	-0.108068444
234	0xbbea580c	-0.0071516093
235	0xbcf73966	-0.030178737
236	0xbcf3548f	-0.029703407
237	0xbdc0142e	-0.09378849
238	0x3e2c6158	0.16834009
239	0xbcfdb509	-0.030970113
240	0x3dc81f52	0.09771599
241	0x3e15b6ee	0.14620563
242	0x3d195a67	0.03743973
243	0x3ea3c1e0	0.31983852
244	0xbd5ff22f	-0.054674324
245	0xbda537c6	-0.080672786
246	0xbe1d308c	-0.1535055
247	0x3d8fa84b	0.07014521
248	0xbdb60c44	-0.08889058
249	0xbe0c0767	-0.13674699
250	0xbd0cb745	-0.034354467
251	0xbd2ee8fc	-0.04270266
252	0x3d990bc4	0.07472947
253	0xbc84cd0b	-0.016211053
254	0x3b71f866	0.0036921739
255	0xbc997123	-0.018730706

actor_backbone.0.bias f4 [128]
0	0xbda91f1c	-0.08257887
1	0xbed284d0	-0.41116953
2	0xbe76de9d	-0.24108358
3	0xbe558d9c	-0.20854801
4	0x3ea966b3	0.33086166
5	0xbe3d4a12	-0.18485287
6	0x3d45c1aa	0.048280396
7	0x3db9c220	0.090702295
8	0xbeaeaddc	-0.3411702
9	0xbe7a510f	-0.24444984
10	0xbe9c488f	-0.30524108
11	0xbed7d49e	-0.42154402
12	0x3e55dfa3	0.20886092
13	0x3d9f84f4	0.07789031
14	0xbd94489c	-0.07240412
15	0xbd819033	-0.06326332
16	0x3dae0f0d	0.084989645
17	0x3ecfa837	0.40558025
18	0xbd67d275	-0.05659719
19	0x3ea942c7	0.3305876
20	0xbe82f12b	-0.25574622
21	0x3eae4f9e	0.34045118
22	0x3dff25bc	0.12458369
23	0xbe2ac6db	-0.1667742
24	0x3ebcf566	0.36905974
25	0x3ec0035a	0.37502557
26	0x3e4092cd	0.18806
27	0xbeac0fce	-0.33605808
28	0xbe851177	-0.25989887
29	0x3eb3b55e	0.3509931
30	0xbeabacab	-0.33530173
31	0x3eb95397	0.36196586
32	0xbea81bb5	-0.3283364
33	0xbe2eace7	-0.17058145
34	0xbe5fb226	-0.21845302
35	0xbd78bcc3	-0.060726892
36	0xbdf77e59	-0.12084646
37	0x3db06237	0.08612483
38	0x3e7c0d02	0.24614337
39	0xbea0cebc	-0.31407726
40	0x3e98e82f	0.29864642
41	0x3e2a9583	0.16658597
42	0x3e08d860	0.1336379
43	0xbe4f7ecb	-0.20263211
44	0x3e20508a	0.15655723
45	0x3ccb29e0	0.024800241
46	0xbe129d5d	-0.14317842
47	0xbd3dffa4	-0.046386376
48	0x3d62b090	0.055344164
49	0xbe8ac6eb	-0.27104887
50	0x3e6d4867	0.2317215
51	0x3d1655cc	0.036702916
52	0x3ecd6f77	0.40124103
53	0x3ea8891d	0.3291711
54	0x3e0202da	0.126964
55	0xbd98f20d	-0.074680425
56	0x3ec823fe	0.3908996
57	0xbe8ab687	-0.27092382
58	0x3eda387e	0.42621225
59	0xbd0923d5	-0.033481438
60	0x3de75fbe	0.11297558
61	0xbeb2e1f1	-0.34938005
62	0xbd2461cc	-0.04013233
63	0x3d613684	0.05498363
64	0xbc8ac36c	-0.016938888
65	0xbd0c411d	-0.034241784
66	0xbe2d7f9a	-0.16943207
67	0x3cdf29c9	0.027241604
68	0xbe433479	-0.19062985
69	0xbe4a7423	-0.19770865
70	0x3e47470d	0.19460697
71	0xbc359450	-0.011082724
72	0xbc7fb905	-0.015608077
73	0xbe494feb	-0.19659393
74	0x3e767b12	0.24070385
75	0x3ecd92f1	0.4015117
76	0x3dc28637	0.09498256
77	0x3eb91ef9	0.36156443
78	0x3d00fd79	0.03149173
79	0x3ec97462	0.39346606
80	0xbe880e42	-0.26573378
81	0xbe975d41	-0.29563335
82	0x3ea723bf	0.3264446
83	0xbeb742c9	-0.3579314
84	0x3d84100b	0.064483725
85	0xbe9eec31	-0.31039575
86	0xbd9d9d02	-0.076959625
87	0x3e36066f	0.17775892
88	0x3e953b62	0.29146868
89	0x3ed447f5	0.4146115
90	0xbea2fdc3	-0.3183423
91	0xbdf35e77	-0.11883252
92	0x3e185854	0.14877445
93	0xbd6c36dd	-0.05766951
94	0xbec1e4b0	-0.37869787
95	0x3e2fd4ad	0.17170973
96	0x3dee0956	0.116228744
97	0x3e2ddb0a	0.16978088
98	0x3e5b10e2	0.21393159
99	0xbdf67a09	-0.12034995
100	0xbe883d31	-0.26609185
101	0xbe600657	-0.21877418
102	0xbe8cc4db	-0.2749394
103	0x3d072a55	0.032999355
104	0xbe47add6	-0.19499907
105	0x3e185b4f	0.14878581
106	0xbe82164d	-0.2540764
107	0x3eb0e717	0.34551308
108	0xbe7ba796	-0.24575648
109	0xbd832cf2	-0.06405057
110	0x3ecfe532	0.4060455
111	0x3e1e6c79	0.15471067
112	0x3ed57a27	0.41694757
113	0x3e546749	0.20742525
114	0x3e4ba4ba	0.19887057
115	0x3ebd1f9a	0.36938173
116	0x3e9dc122	0.3081141
117	0xbe4b3d96	-0.19847712
118	0xbe749fdb	-0.23889105
119	0x3dfb188c	0.12260541
120	0x3d34400f	0.044006404
121	0x3e65e388	0.22450078
122	0x3dff98aa	0.1248029
123	0x3ecba414	0.3977362
124	0x3e113454	0.14180118
125	0x3d3e2b02	0.046427734
126	0xbe02d19e	-0.12775275
127	0xbd61fc4d	-0.055172253

actor_backbone.2.weight f4 [128, 128]
0	0xbe0d90fb	-0.13824837
1	0x3bb90f89	0.005647604
2	0xbe104b84	-0.14091307
3	0x3dd69846	0.104782626
4	0xbd5828c0	-0.052773237
5	0x3cf3a2a5	0.02974064
6	0x3d9daf8e	0.076995
7	0xbe88e21d	-0.2673501
8	0x3ce53fd9	0.027984546
9	0x37732360	1.4492165e-05
10	0xbe57a433	-0.21058731
11	0xbda6f0f0	-0.08151424
12	0x3da45ab2	0.08025111
13	0x3d922eb7	0.071378164
14	0x3d370e54	0.0446914
15	0xbe81f23e	-0.2538013
16	0x3da29a45	0.07939581
17	0x3e3ff3a7	0.1874529
18	0x3cc92b48	0.02455677
19	0x3deb6c84	0.11495307
20	0x3ddddda8	0.10833293
21	0x3e9767ca	0.29571372
22	0x3dace243	0.084415935
23	0xbe2ca693	-0.16860418
24	0x3cff971f	0.03119999
25	0x3c6b4734	0.014360238
26	0x3e776a3e	0.24161622
27	0x3d9468c7	0.07246547
28	0xbea2be84	-0.31785977
29	0x3e903bae	0.28170532
30	0xbd3df253	-0.046373677
31	0xbd05752e	-0.032582454
32	0xbc8dc9bb	-0.017308107
33	0x3e26affa	0.16278067
34	0xbd25f32d	-0.040515114
35	0xbe6ed730	-0.23324275
36	0x3de2622f	0.11053883
37	0x3d9bacd5	0.076013245
38	0x3e441d3e	0.1915178
39	0xbe55a67f	-0.20864294
40	0x3e3bc48a	0.18336692
41	0x3e3a56c2	0.18197158
42	0x3e09748f	0.1342337
43	0xbe138324	-0.14405495
44	0xbc123794	-0.008924384
45	0xbe7ed4f3	-0.24885921
46	0xbdb7ba8a	-0.089711264
47	0xbd99c061	-0.075073965
48	0xbdd554f0	-0.10416591
49	0x3e4c4bd5	0.19950803
50	0x3e14d646	0.14534864
51	0x3dffb7d7	0.124862365
52	0x3dd39aa4	0.1033223
53	0xbe2a1193	-0.16608267
54	0xbdff6100	-0.12469673
55	0xbea449a1	-0.32087424
56	0xbe00772c	-0.1254546
57	0xbdc55b19	-0.09636516
58	0x3da7f71f	0.082014315
59	0xbb8fd681	-0.0043895845
60	0x3dbe08e5	0.0927904
61	0x3c52bd9c	0.012862589
62	0xbce3a518	-0.027788684
63	0x3d39d867	0.045372393
64	0xbe86e52c	-0.2634672
65	0x3c2aae57	0.010417542
66	0x3c4e9ca0	0.0126105845
67	0x3dbd2f8e	0.09237586
68	0xbe0b7a0f	-0.1362078
69	0xbe2754da	-0.16340962
70	0x3de0e5ee	0.109813556
71	0x3d5922dd	0.053011764
72	0x3ddb4980	0.107073784
73	0x3e219e84	0.15783125
74	0x3e49d729	0.19710983
75	0x3e937747	0.2880194
76	0xbe0d35c5	-0.13790043
77	0xbd14d1b9	-0.03633282
78	0xbd044426	-0.032291554
79	0x3cfb7f8d	0.03070047
80	0x3b618754	0.0034412937
81	0xbd0ce25f	-0.03439557
82	0xbe0a40fa	-0.13501349
83	0xbd03d945	-0.032189626
84	0x3d2223b2	0.039584823
85	0x3dee4ac8	0.11635357
86	0x3e2074a4	0.15669495
87	0xbe03b458	-0.12861764
88	0x3da75246	0.08169989
89	0x3e99707e	0.29968637
90	0x3e1fd2b4	0.1560772
91	0x3d88f66b	0.066876255
92	0x3e9764d5	0.29569116
93	0xbeaab359	-0.33339956
94	0x3c8224c3	0.01588667
95	0x3e448ac2	0.19193557
96	0xbebb800a	-0.36621124
97	0xbd9586c8	-0.07301098
98	0xbdb58e0c	-0.08864984
99	0xbe4801e3	-0.1953197
100	0xbe2c36bb	-0.16817753
101	0x3e12d6a1	0.14339687
102	0xbe05e761	-0.13076545
103	0xbe706587	-0.2347623
104	0xbd2beba7	-0.041972782
105	0x3dafef5d	0.08590577
106	0x3d7336fc	0.05937861
107	0xbe77d212	-0.24201229
108	0x3d51d2b3	0.05122633
109	0xbe1a832b	-0.15089099
110	0x3e0dde9d	0.13854451
111	0x3d55de1a	0.052213766
112	0x3e259244	0.16169077
113	0x3e084c2d	0.13310309
114	0x3e2d5ff8	0.1693114
115	0x3cd7728b	0.026299736
116	0x3e6d2771	0.23159577
117	0xbe379754	-0.17928821
118	0x3c9900a7	0.018677069
119	0x3d95c99d	0.07313845
120	0xbd53f24d	-0.051744748
121	0x3d9efe82	0.07763387
122	0x3e0d6d78	0.1381129
123	0x3e2165ff	0.15761565
124	0xbdf1f8b1	-0.11815012
125	0x3d47aedf	0.048750754
126	0x3e90e109	0.28296688
127	0x3e48c36d	0.19605799
128	0x3de652b3	0.112462424
129	0x3b9402fc	0.0045169573
130	0x3e16e41a	0.14735451
131	0xbe48b882	-0.19601634
132	0x3dbf792e	0.09349285
133	0x3e2d39e3	0.16916613
134	0x3d3fa5a0	0.04678881
135	0xbd88110e	-0.06643878
136	0x3e2114b5	0.15730555
137	0x3e192bc8	0.14958107
138	0x3b4e1934	0.0031448128
139	0x3e054a20	0.13016558
140	0x3ec3d9b4	0.38252032
141	0xbd47282c	-0.048622295
142	0xbccbe965	-0.024891565
143	0xbe844234	-0.2583176
144	0xbdd8e11b	-0.105898105
145	0x3d2c8279	0.042116616
146	0xbe40b4d3	-0.18818979
147	0x3d7f1e01	0.062284473
148	0x3d41481c	0.04718791
149	0x3bf7ceaa	0.007562478
150	0x3cbcdba1	0.023053946
151	0xbe3ce8dd	-0.18448205
152	0xbe159d0f	-0.14610694
153	0xbe1e7b41	-0.15476705
154	0xbda01759	-0.07816953
155	0x3df5ec7e	0.12007998
156	0xbeb40527	-0.3516018
157	0x3e1dcfaa	0.15411249
158	0xbe1cd663	-0.15316157
159	0x3d336602	0.043798454
160	0x3dd32cb0	0.10311258
161	0xbd445b5f	-0.0479387
162	0x3c9f5f51	0.01945463
163	0x3cc9e584	0.024645574
164	0xbcf41cca	-0.029798884
165	0xbda48d0c	-0.08034715
166	0xbd4869b0	-0.048928916
167	0xbe1fa4bd	-0.15590186
168	0xbd93142b	-0.07181581
169	0x3e710650	0.23537564
170	0x3d8b09ee	0.06789003
171	0xbd360103	-0.04443456
172	0xbe745d63	-0.23863749
173	0xba8be167	-0.0010672034
174	0x3d7e0929	0.062020455
175	0x3d49e7f2	0.049293466
176	0xbcc2c703	-0.023776537
177	0x3dc9bcf3	0.09850492
178	0x3e434bde	0.1907191
179	0xbe43a698	-0.19106519
180	0x3d1101b4	0.035402015
181	0xbcf27d76	-0.02960084
182	0xbafc399e	-0.0019243245
183	0x3e53e34a	0.20692173
184	0x3dedea85	0.11616997
185	0xbde220cd	-0.110414125
186	0xbcb58f3c	-0.022163026
187	0xbe555089	-0.20831503
188	0x3de8668a	0.11347683
189	0x3e1bbec0	0.15209484
190	0xbe09ef2c	-0.13470143
191	0xbddfc248	-0.10925728
192	0xbe286662	-0.16445306
193	0xbe279a7b	-0.16367523
194	0xbe1751b3	-0.1477726
195	0x3d158302	0.036501892
196	0xbdedf328	-0.11618644
197	0xbe09e4f5	-0.13466246
198	0xbe5d224a	-0.21595111
199	0xbd717d10	-0.05895716
200	0xbe16dd99	-0.1473297
201	0x3e27d246	0.16388807
202	0xbddcca31	-0.107807525
203	0x3e3b1d59	0.18272914
204	0xbdc356dc	-0.095380515
205	0xbe603156	-0.2189382
206	0x3e162e73	0.14666156
207	0x3da589be	0.08082913
208	0x3e6661dd	0.2249827
209	0xbdc2e95c	-0.09517166
210	0xbd758f96	-0.059951387
211	0xbe12f09e	-0.143496
212	0xbcb41792	-0.021983895
213	0xbe2c7860	-0.16842794
214	0x3c9a00d7	0.018799229
215	0x3e4c64aa	0.19960275
216	0x3c35c70e	0.011094822
217	0xbd5f8217	-0.054567423
218	0xbd9d4dfe	-0.076808915
219	0xbe1a68c5	-0.15079029
220	0xbd822a27	-0.06355696
221	0xbe28422b	-0.16431491
222	0xbd071e5a	-0.03298793
223	0xbeab5c5b	-0.334689
224	0xbe1b6bf5	-0.15177901
225	0xbe9d31dd	-0.30702105
226	0x3e4658e0	0.1936984
227	0x3c210d85	0.009829883
228	0x3cadd521	0.021219792
229	0xbe5d961b	-0.21639292
230	0x3eb11cc2	0.34592253
231	0x3cc6e793	0.024280345
232	0xbd557a05	-0.05211832
233	0xbe304cdf	-0.17216824
234	0xbddf66e7	-0.10908299
235	0xbd5c9643	-0.05385424
236	0xbd887922	-0.06663729
237	0xbe813f45	-0.25243583
238	0x3e2efffc	0.17089838
239	0xbce780c9	-0.028259652
240	0x3cacf610	0.021113425
241	0x3ce0357d	0.027369255
242	0x3d83c2c0	0.0643363
243	0x3d9b32a8	0.07578021
244	0x3e48e199	0.19617309
245	0x3db702f3	0.089361094
246	0xbe722bdd	-0.23649545
247	0xbdc299b3	-0.09501972
248	0x3d8a4f1e	0.06753372
249	0x3dbe806a	0.09301837
250	0x3eaa07ad	0.3320898
251	0xbe059d9c	-0.13048404
252	0x3e046b52	0.12931564
253	0x3e6c5276	0.23078331
254	0x3c3fb230	0.011700198
255	0x3940eab0	0.00018397975

actor_backbone.2.bias f4 [128]
0	0x3e70df90	0.23522782
1	0x3ae2d776	0.0017306644
2	0x3e3996e4	0.18123966
3	0x3e736586	0.23769197
4	0x3e1c06c4	0.15236956
5	0xbe4aba87	-0.19797717
6	0x3e073d18	0.13206899
7	0x3ec70edb	0.3887852
8	0xbd33d6cf	-0.04390603
9	0xbe80ee48	-0.25181794
10	0x3eaad594	0.33366072
11	0x3e85e6a8	0.2615254
12	0xbdb7ee2b	-0.08980974
13	0x3e0e92a9	0.13923134
14	0xbdbca37e	-0.09210871
15	0xbdedee26	-0.11617689
16	0x3eab374c	0.33440626
17	0x3ea3faef	0.32027385
18	0xbe8744f3	-0.26419792
19	0x3e9302c2	0.28713042
20	0x3e200418	0.15626562
21	0x3b758340	0.0037462264
22	0x3eaada1f	0.33369538
23	0x3dd99c88	0.10625559
24	0x3eb138a7	0.34613535
25	0x3e4ab0d8	0.19794023
26	0xbd40693e	-0.046975367
27	0x3d094a8b	0.033518355
28	0x3e325509	0.17415251
29	0x3ddd6e97	0.10812109
30	0xbe994e4d	-0.2994255
31	0x3dc7ccd5	0.097558655
32	0xbdec464a	-0.11536844
33	0x3e4f0803	0.202179
34	0x3e1d497b	0.15360062
35	0x3e8a062a	0.26957828
36	0x3dc2c9d8	0.09511155
37	0xbeadaab6	-0.33919305
38	0xbe327bea	-0.17430082
39	0xbe3e9871	-0.1861284
40	0x3e938ee3	0.2881995
41	0x3ddc3657	0.10752552
42	0xbdcef0f4	-0.10104552
43	0xbc8847a6	-0.016635727
44	0xbd9d7321	-0.07687975
45	0xbe5b4259	-0.21412028
46	0x3dcd7ea7	0.10033923
47	0x3e5b7aaa	0.21433511
48	0x3e3dd730	0.18539119
49	0x3e78e1af	0.24304841
50	0x3bc65117	0.006052147
51	0x3ebb3723	0.36565503
52	0x3e8d1d37	0.27561352
53	0x3e618059	0.22021617
54	0x3eafddc9	0.34348896
55	0x3e9c16e2	0.30486208
56	0x3e92fcad	0.287084
57	0x3e57287c	0.21011537
58	0x3df0e610	0.11762631
59	0xbe163409	-0.14668287
60	0x3ead212a	0.33814365
61	0x3dda5cb6	0.106622145
62	0x3ca841da	0.020539213
63	0xbeaf7127	-0.34266016
64	0x3e03c09b	0.12866442
65	0x3e1dbcab	0.15404002
66	0xbde0bd76	-0.10973637
67	0xbda86154	-0.08221689
68	0xbe21b2dc	-0.15790886
69	0x3e5820aa	0.2110621
70	0xbc9580a0	-0.01824981
71	0x3db68126	0.08911352
72	0xbe934744	-0.2876531
73	0xbeb5da2d	-0.35518017
74	0xbe48d4f4	-0.19612485
75	0xbea10412	-0.31448418
76	0xbe81d379	-0.25356653
77	0xbec6752c	-0.3876127
78	0x3dbd0e5f	0.09231257
79	0x3db56582	0.08857252
80	0xbe7f183f	-0.24911593
81	0xbeb5321c	-0.35389793
82	0xbe876ef8	-0.2645185
83	0xbeb3ac1b	-0.35092244
84	0xbdcca538	-0.099924505
85	0xbe541920	-0.2071271
86	0xbe802a6f	-0.25032374
87	0xbe4c9ff8	-0.19982898
88	0x3e94dcb8	0.29074645
89	0xbe8779f4	-0.2646023
90	0xbd3d0c69	-0.046154413
91	0x3e4c3456	0.1994184
92	0x3e3ec741	0.18630697
93	0xbe0d5abf	-0.13804148
94	0x3e70b377	0.2350596
95	0xbd67671c	-0.056494817
96	0xbe79203f	-0.24328707
97	0x3def6018	0.1168825
98	0x3ea470e8	0.3211739
99	0x3e06c18d	0.13159771
100	0xbeaf8e81	-0.3428841
101	0xbea934cd	-0.33048096
102	0x3e2d27ea	0.16909757
103	0xbe3fc699	-0.18728103
104	0xbe9c2d1f	-0.30503175
105	0xbe5a35c8	-0.21309578
106	0xbeac923e	-0.33705324
107	0xbdbc602f	-0.09198033
108	0xbe4a6bcf	-0.19767688
109	0x3e95d51f	0.2926416
110	0x3e995fd9	0.29955938
111	0x3eafeb8f	0.34359404
112	0xbd8d6de4	-0.069057256
113	0x3e5f3724	0.21798378
114	0x3e81516a	0.25257427
115	0x3db848e4	0.08998278
116	0x3de42d59	0.11141462
117	0xbe167902	-0.14694598
118	0xbea6fa49	-0.32612827
119	0xbe707803	-0.23483281
120	0x3e97218e	0.29517788
121	0xbe7c451c	-0.24635738
122	0xbe94edae	-0.29087585
123	0xbe8fd4e5	-0.28092113
124	0x3eb52a6b	0.35383925
125	0xbe79254d	-0.24330635
126	0xbeb30774	-0.34966624
127	0xbe9164da	-0.28397256

reward_backbone.0.weight f4 [128, 22]
0	0x3ddef22e	0.10886036
1	0xbd9a9b8f	-0.07549202
2	0x3e0dc70e	0.13845465
3	0x3eb61145	0.3556005
4	0x3d41e88c	0.047340915
5	0xbe78b9a7	-0.24289571
6	0xbcfddbbb	-0.030988565
7	0x3d0001f7	0.031251874
8	0x3dcab239	0.098972745
9	0xbe2f94ad	-0.17146559
10	0xbda4bd75	-0.080439486
11	0xbd3a5094	-0.045487
12	0x3df45ce9	0.11931784
13	0x3d5121ac	0.051057503
14	0xbd92d7d3	-0.071700715
15	0x3df0597e	0.11735819
16	0xbbf28ba6	-0.0074019013
17	0xbba8261f	-0.0051314975
18	0xbd6e189c	-0.058128938
19	0xbd1e7c51	-0.038692776
20	0x3e168f13	0.14703016
21	0x3de10183	0.109866165
22	0x3e56d793	0.20980673
23	0xbcd60030	-0.026123136
24	0x3d3438fd	0.04399966
25	0x3d0b750c	0.03404717
26	0x3d63881d	0.05554973
27	0x3dec5634	0.115398794
28	0xbd25919c	-0.040422067
29	0xbd2232f8	-0.03959939
30	0x3de1a4a1	0.110177286
31	0xbddb3299	-0.1070301
32	0xbbbc2898	-0.005742144
33	0xbe5c0b5a	-0.21488705
34	0x3e57649b	0.21034472
35	0xbd5f3e94	-0.05450304
36	0xbd42f7c0	-0.047599554
37	0xbd8cf57e	-0.068827614
38	0x3c2633a6	0.01014415
39	0x3df0737c	0.11740777
40	0x3a75d23e	0.0009377337
41	0xbe31fa67	-0.17380677
42	0xbdcebf9e	-0.10095142
43	0x3d974fac	0.07388243
44	0xbd1cd1cc	-0.038286015
45	0xbe60fdae	-0.21971771
46	0xbdf5a97b	-0.119952165
47	0xbe8dff7a	-0.27733976
48	0x3b9d553a	0.0048014196
49	0xbe0669ae	-0.13126251
50	0xbdb40022	-0.08789088
51	0x3d4af844	0.04955317
52	0xbe410fba	-0.18853655
53	0xbc364ad0	-0.011126235
54	0xbc781c57	-0.0151434755
55	0xbcccee9f	-0.025016127
56	0x3e5fa2b7	0.21839415
57	0xbd9e1983	-0.0771971
58	0xbd1b3b92	-0.037898608
59	0x3e29574e	0.1653721
60	0x3ce41731	0.02784309
61	0xbd73bb3c	-0.059504732
62	0xbe68554e	-0.22688791
63	0xbddde7de	-0.10835241
64	0x3cc9e1d3	0.024643814
65	0xbe6494a5	-0.22322328
66	0x3d472b85	0.048625488
67	0x3e4563cb	0.19276349
68	0x3e5053f5	0.20344527
69	0xbdc8b1e7	-0.09799557
70	0x3c87de72	0.016585562
71	0x3e0afee3	0.13573794
72	0xbcfd44cb	-0.030916592
73	0x3bd42f8d	0.006475395
74	0xbd816203	-0.063175224
75	0x3d8453c0	0.064612865
76	0xbbafe53b	-0.0053679026
77	0xbe29d876	-0.1658648
78	0x3cd6ddb7	0.026228769
79	0xbd123df4	-0.035703614
80	0x3d21512b	0.03938405
81	0x3cf1388e	0.029445913
82	0xbc06aec3	-0.008220377
83	0xbc073e32	-0.008254575
84	0xbd3a7b80	-0.045527935
85	0xbe75e099	-0.24011458
86	0x3d523936	0.05132409
87	0xbd0e2f99	-0.03471336
88	0x3ded0926	0.115740106
89	0x3dca6d8e	0.09884177
90	0xbe3aedfe	-0.1825485
91	0x3ce0fa40	0.027463078
92	0xbd8a04f5	-0.06739227
93	0xbd033e05	-0.03204157
94	0x3d5e1f21	0.054228906
95	0x3d9529d2	0.07283367
96	0xbe4d1d9b	-0.20030825
97	0xbdc507b0	-0.09620607
98	0xbe353979	-0.17697705
99	0xbe04e39d	-0.12977453
100	0xbcf6b910	-0.030117542
101	0x3cda1c7e	0.026624914
102	0x3d8caeb3	0.06869259
103	0xbc4200e8	-0.011841036
104	0x3e23e74b	0.160062
105	0xbddb0265	-0.10693816
106	0x3d7dbd2b	0.061947983
107	0xbe25f255	-0.16205724
108	0x3e9ccd96	0.306256
109	0xbdb6c075	-0.08923427
110	0x3d83c625	0.064342774
111	0xbeb163a8	-0.34646344
112	0x3d0c5818	0.0342637
113	0x3ea8bd5d	0.32956973
114	0xbd83c898	-0.064347446
115	0xbd8a5777	-0.06754964
116	0x3e07ff57	0.13280998
117	0x3d31dac1	0.04342151
118	0x3d33e46a	0.043919004
119	0xbcebe665	-0.028796384
120	0x3da6b27f	0.08139514
121	0xbd2aeed7	-0.04173168
122	0xbd9032f9	-0.07040972
123	0x3e0024de	0.12514064
124	0x3df2b5a6	0.11851053
125	0x3c26ed55	0.01018842
126	0xbbbc2ec1	-0.005742878
127	0xbca3c17f	-0.019989727
128	0xbb084e78	-0.0020798724
129	0x3e104873	0.14090137
130	0x3e2961f1	0.16541268
131	0xbc82e3d2	-0.015977774
132	0xbd645d07	-0.05575278
133	0x3e2d4ed7	0.16924606
134	0x3e7c2a5e	0.24625537
135	0xbdcb537a	-0.09928031
136	0xbc04a910	-0.008096948
137	0xbe0963f1	-0.13417031
138	0xbdd02319	-0.10162944
139	0xbe4ede32	-0.20201948
140	0x3dc74e4c	0.09731731
141	0x3e1ed5b9	0.15511216
142	0xbcc6e965	-0.024281213
143	0xbdc08ec0	-0.094022274
144	0xbdb9b714	-0.090681225
145	0xbdd1a8bb	-0.10237261
146	0x3ce89ae0	0.028394163
147	0x3c1499f5	0.009069909
148	0xbd0fd152	-0.035111733
149	0xbd14b254	-0.03630288
150	0xbd2b73ac	-0.04185836
151	0x3e13c54b	0.1443073
152	0x3da7eb5c	0.08199188
153	0xbdea6b4e	-0.11446248
154	0xbc2b21f5	-0.010445108
155	0x3e9cd72b	0.3063291
156	0xbd88cf8c	-0.066802114
157	0xbd6882e8	-0.056765467
158	0x3d095a2f	0.03353327
159	0x3dcf881c	0.10133383
160	0xbdba9d9e	-0.09112094
161	0x3e329c28	0.17442381
162	0x3de217c8	0.11039692
163	0xbdf8d8cf	-0.12150728
164	0xbc3f66e0	-0.011682242
165	0xbd914de2	-0.07094933
166	0x3e3d9ccb	0.18516843
167	0x3d5fc456	0.0546306
168	0xbdecff0c	-0.11572084
169	0xbd99ba88	-0.07506281
170	0x3c082088	0.008308537
171	0xbd0bf64a	-0.034170426
172	0xbcc33f9e	-0.023834046
173	0xbda56fd8	-0.08077973
174	0xbd135390	-0.035968363
175	0xbe38f37f	-0.18061636
176	0xbdd1b64d	-0.10239849
177	0xbdd721b4	-0.10504475
178	0xbe339495	-0.17537148
179	0xbe120839	-0.14260949
180	0x3dbd8b6e	0.0925511
181	0xbd8a5e56	-0.067562744
182	0x3d4e82f5	0.05041786
183	0x3c517289	0.012783655
184	0x3d563053	0.05229218
185	0xbdffb3a6	-0.12485437
186	0xbb067668	-0.0020517353
187	0xbd2b6104	-0.04184057
188	0x3e17a86c	0.14810342
189	0xbe1258bb	-0.1429166
190	0xbe47ac38	-0.1949929
191	0xbdbdc65c	-0.0926635
192	0xbb0ae2b2	-0.002119225
193	0x3d1e91a3	0.03871311
194	0x3e470404	0.19435126
195	0xbc02f423	-0.007992777
196	0xbdfa34b5	-0.12217084
197	0x3e0dfb92	0.13865498
198	0x3cac82f9	0.021058546
199	0xbe809f6e	-0.25121635
200	0xbe6b28ac	-0.22964734
201	0x3e833812	0.25628716
202	0x3dfc2b0c	0.12312898
203	0xbe069dbc	-0.13146108
204	0xbd513a14	-0.05108078
205	0xbdc8d1bc	-0.09805629
206	0x3b48f094	0.0030660974
207	0xbdc44a23	-0.09584453
208	0x3d648a5c	0.055796012
209	0xbd2e7075	-0.042587716
210	0xbd141d4b	-0.03616075
211	0x3cbb6ae1	0.022878112
212	0x3caa353e	0.020777341
213	0xbbd57804	-0.006514551
214	0x3d6bd89f	0.057579633
215	0x3d888fde	0.066680655
216	0xbe790fa2	-0.2432237
217	0xbe0450f6	-0.12921509
218	0xbd4ccd21	-0.050000314
219	0x3dac5987	0.084155135
220	0xbb6049e2	-0.0034223725
221	0x3c7ba1af	0.015358373
222	0xbd1ea4f4	-0.03873153
223	0x3dbab627	0.09116774
224	0x3e47cfe9	0.19512905
225	0xbdd3a018	-0.1033327
226	0xbdacaed2	-0.08431782
227	0x3cc2e9c0	0.023793101
228	0xbcc2b4e7	-0.023767902
229	0xbd591117	-0.052994814
230	0xbd8322fa	-0.064031556
231	0x3c935447	0.017984523
232	0xbe0413d9	-0.12898196
233	0x3d943a45	0.072376765
234	0x3da7ef58	0.08199948
235	0xbcd3d6dc	-0.025859289
236	0x3d9f9928	0.07792884
237	0xbb4141b1	-0.0029488618
238	0x3e58a475	0.21156485
239	0x3e631edd	0.22179742
240	0xbed9659e	-0.4246034
241	0xbc9a6128	-0.018845156
242	0x3e1dc038	0.15405357
243	0x3df299f8	0.118457735
244	0xbe471f54	-0.19445544
245	0xbdb36e83	-0.08761313
246	0x3c59ab20	0.013285428
247	0x3d932eca	0.07186659
248	0x3d42d75e	0.04756867
249	0xbd014610	-0.031560957
250	0xbd11e93b	-0.035622817
251	0xbd04d612	-0.032430716
252	0x3da1dd25	0.07903508
253	0x3c94f9ef	0.018185584
254	0x3d3cb500	0.046071053
255	0x3dc8b8da	0.09800883

reward_backbone.0.bias f4 [128]
0	0x3d6d131d	0.057879556
1	0x3e03604f	0.12829708
2	0x3c91af04	0.01778365
3	0x3d43ac29	0.047771607
4	0xbdc1e71e	-0.0946791
5	0x3ce3ba53	0.027798807
6	0x3dc53b17	0.09630411
7	0x3ddb51f4	0.10708991
8	0xbe96dab0	-0.2946372
9	0xbc9bfdc1	-0.019041898
10	0x3b75bc81	0.003749639
11	0x3d8441e2	0.06457879
12	0xbe5cf76d	-0.2157876
13	0xbd153b95	-0.036433775
14	0xbd0dc182	-0.03460837
15	0x3cf2474e	0.029575016
16	0xbe9b1431	-0.30288842
17	0x3e5e5ec6	0.2171584
18	0xbd1ba074	-0.037994817
19	0xbd37b2ed	-0.04484837
20	0xbd7d5c4e	-0.061855607
21	0x3e974a6f	0.29548976
22	0x3e0d1d18	0.1378063
23	0xbe1fbf3e	-0.15600297
24	0xbe9e83d9	-0.30959967
25	0xbd9e6e83	-0.07735922
26	0x3d6baee0	0.05753982
27	0xbe6573ec	-0.22407502
28	0x3e8fbe8b	0.2807506
29	0xbe97e392	-0.2966581
30	0xbd98897d	-0.07448099
31	0xbee6c9eb	-0.45075926
32	0x3e388ba4	0.18022019
33	0x3cd442d7	0.025910778
34	0x3e120d2b	0.14262836
35	0x3ea34e8d	0.31895867
36	0x3d209b89	0.03921083
37	0x3d8c76d7	0.068586044
38	0xbdcf3d8d	-0.10119162
39	0xbc022c9c	-0.007945206
40	0xbde3e2d3	-0.11127248
41	0x3dcf049d	0.10108302
42	0xbccbc4dd	-0.024874145
43	0xbe4fbd7a	-0.20287123
44	0xbd9d698a	-0.076861456
45	0x3caeb023	0.021324223
46	0x3cc5ce13	0.024146115
47	0x3e330208	0.17481244
48	0x3ef24b18	0.47322917
49	0xbd39c6ee	-0.04535573
50	0x3d278b65	0.04090442
51	0xbec0c354	-0.37649024
52	0xbd3d3965	-0.046197314
53	0xbebb00a0	-0.36523914
54	0x3e0d1c21	0.13780262
55	0x3c7f4f0d	0.015582812
56	0xbeb79782	-0.3585778
57	0xbd8c235c	-0.06842682
58	0xbcfd45b2	-0.030917022
59	0xbe0340e8	-0.12817729
60	0xbdf120fb	-0.11773869
61	0x3e8e24df	0.27762505
62	0xbe6e9bfd	-0.23301692
63	0x3cac362b	0.021021923
64	0xbe2bd971	-0.16782166
65	0x3e03b503	0.12862019
66	0xbca317a6	-0.019908737
67	0x3d8b8c8b	0.06813916
68	0x3e1b7889	0.151827
69	0xbe1550a8	-0.14581549
70	0x3bfe9b65	0.0077699893
71	0xbdf4dc28	-0.11956054
72	0xbdaa1eac	-0.083066314
73	0x3e3ff4d3	0.18745737
74	0x3ebb4989	0.3657954
75	0x3d1d32b0	0.038378417
76	0x3d0e4b5d	0.03473984
77	0xbdf75d4d	-0.120783426
78	0x3c27513d	0.01021224
79	0x3e5c843f	0.21534823
80	0xbdc766d7	-0.09736412
81	0xbc912952	-0.017719898
82	0x3e8784ad	0.2646841
83	0x3e845a52	0.2585016
84	0xbd9affbd	-0.075683095
85	0x3e2070d8	0.15668046
86	0xbe6652b7	-0.2249249
87	0x3d5f2e08	0.05448726
88	0xbdce126d	-0.10062108
89	0xbd6fc0e4	-0.058533564
90	0x3ca0b090	0.019615442
91	0xbdb5f056	-0.08883731
92	0xbd682c18	-0.056682676
93	0xbebe52cc	-0.37172544
94	0xbdb38ae9	-0.087667294
95	0x3d193468	0.037403494
96	0x3e14260d	0.1446764
97	0x3e90276f	0.28155085
98	0xbd640e2b	-0.055677574
99	0x3b8225ae	0.003971777
100	0xbd6c317e	-0.057664387
101	0xbed840e5	-0.4223701
102	0x3d9d610d	0.076845266
103	0x3da86aa4	0.08223465
104	0x3e1798c9	0.14804377
105	0x3cdbc7ca	0.026828665
106	0x3d3d93e9	0.046283636
107	0xbe9b9ce2	-0.3039313
108	0x3d42a11d	0.04751693
109	0xbe085fdd	-0.13317819
110	0xbbd4109c	-0.0064717066
111	0xbdecd85f	-0.11564707
112	0xbe5152eb	-0.20441787
113	0xbe30036d	-0.17188807
114	0x3b59aa0c	0.0033212928
115	0x3e09706e	0.13421795
116	0xbcaa69f5	-0.020802477
117	0x3e59b8e6	0.2126194
118	0x3d94c4b3	0.0726408
119	0x3d1d1e2c	0.038358852
120	0x3dabc6f1	0.083875544
121	0xbe444489	-0.19166769
122	0xbe2babf0	-0.16764808
123	0xbd927a5f	-0.07152247
124	0x3ceb14f5	0.028696517
125	0xbe64b2e6	-0.2233387
126	0xbd45841d	-0.048221696
127	0x3dc1f883	0.09471228

reward_backbone.2.weight f4 [128, 128]
0	0xbda60ec4	-0.08108285
1	0x3d5a2350	0.053256333
2	0x3db29e1c	0.08721563
3	0xbd4fde7b	-0.050749283
4	0xbde1382b	-0.10997041
5	0xbca14dd4	-0.019690432
6	0xbd866818	-0.06562823
7	0x3e1fe567	0.15614854
8	0x3dc5d7dc	0.096603125
9	0xbdddcb59	-0.10829801
10	0xbbac4abc	-0.0052579325
11	0xbd7177c4	-0.058952108
12	0xbd632155	-0.05545171
13	0xbe13c15a	-0.14429227
14	0xbb971d9d	-0.0046116845
15	0x3ca8887e	0.020572897
16	0xbe238d71	-0.15971924
17	0x3eab3053	0.33435306
18	0xbc68414d	-0.014175725
19	0x3cc0dbda	0.023542333
20	0xbd404469	-0.04694024
21	0xbd6f2dce	-0.058393292
22	0x3e5b0836	0.21389851
23	0xbe653f27	-0.22387372
24	0x3dc1fd54	0.09472147
25	0xbde545ff	-0.11194991
26	0xbd7d59a8	-0.06185308
27	0x3dc36110	0.095399976
28	0xbd05e723	-0.032691132
29	0xbdfe4a7f	-0.12416553
30	0x3df1a2cb	0.117986284
31	0xbe241dd0	-0.16026998
32	0x3d9a9b19	0.07549114
33	0x3e06fbdd	0.13182016
34	0x3d7cb97b	0.061700325
35	0xbd77a2c7	-0.06045797
36	0x3d01fcc9	0.031735215
37	0x3e5d650b	0.21620576
38	0xbdc0f9eb	-0.09422668
39	0x3dbb4afa	0.0914516
40	0xbe6850cb	-0.2268707
41	0x3d875653	0.06608262
42	0x3e4de322	0.20106176
43	0xbe3e4470	-0.18580794
44	0xbdee8b58	-0.116476715
45	0xbd9090a2	-0.070588365
46	0xbe717645	-0.23580272
47	0xbe29734a	-0.16547886
48	0x3e2617ed	0.16220064
49	0xbe09e388	-0.13465703
50	0x3d917541	0.071024425
51	0xbe2eb07b	-0.1705951
52	0xbde401fe	-0.111331925
53	0xbe74f088	-0.2391988
54	0x3d829e99	0.06377906
55	0x3e02c375	0.12769873
56	0xbe5a762b	-0.2133414
57	0xbe5b3e53	-0.21410494
58	0xbc28277e	-0.010263322
59	0xbd277022	-0.040878423
60	0xbc3682c4	-0.011139575
61	0x3d60164d	0.054708768
62	0xbe81f79e	-0.2538423
63	0x3e423c57	0.1896833
64	0x3b691213	0.0035563752
65	0xbdb81ae8	-0.08989507
66	0xbd92b631	-0.071636565
67	0xbe9e96f5	-0.30974546
68	0x3dbda9f5	0.09260932
69	0xbdca49b5	-0.0987734
70	0xbe1b854f	-0.15187572
71	0x3da15336	0.07877199
72	0x3e6b5778	0.22982585
73	0x3df1f02e	0.11813389
74	0x3ecb7297	0.39735863
75	0xbe1b8c3c	-0.15190214
76	0xbd07f635	-0.033193786
77	0xbe82e115	-0.2556235
78	0xbc99bd2a	-0.018766958
79	0xbcaec189	-0.02133252
80	0x3e00c7db	0.12576239
81	0x3c2bf314	0.010494966
82	0x3eb852d2	0.36000687
83	0x3dd0b9c9	0.10191686
84	0xbe1cd15b	-0.15314238
85	0xbddd89e3	-0.108173154
86	0xbe920c4c	-0.28525007
87	0xbb215db8	-0.002462251
88	0x3e8831bb	0.2660044
89	0x3e06ecf6	0.13176331
90	0xbdae737a	-0.08518119
91	0xbcceb3ee	-0.025232282
92	0xbd763e97	-0.060118284
93	0xbe56cfff	-0.20977782
94	0x3e4c0202	0.19922641
95	0x3d0ecffd	0.03486632
96	0x3deb7d03	0.114984535
97	0xbd7d007b	-0.061768036
98	0x3d9ccf02	0.07656671
99	0x3d6135e2	0.054983027
100	0x3dac9a00	0.08427811
101	0xbe983adc	-0.29732406
102	0x3d444d40	0.047925234
103	0x3dcab528	0.09897834
104	0x3b64e797	0.0034928077
105	0xbe089ba8	-0.13340628
106	0xbd036b71	-0.032084886
107	0xbe5645c7	-0.20925055
108	0xbd75c626	-0.060003422
109	0xbd56bb21	-0.052424554
110	0x3e10438d	0.14088269
111	0xbd776117	-0.060395326
112	0x3d1c1d88	0.0381141
113	0xbdc767ce	-0.09736596
114	0x3ca7608a	0.020431776
115	0x3ddb30f4	0.107026964
116	0xbd3230d2	-0.04350359
117	0xbb6c30b9	-0.0036039783
118	0xbce37bf3	-0.027769065
119	0x3e327099	0.17425765
120	0xbe0b3ec8	-0.13598168
121	0x3e249b7b	0.16074936
122	0x3ca7d2ea	0.020486314
123	0x3cc3e964	0.023915
124	0x3cf58999	0.029972838
125	0x3e40c727	0.1882597
126	0xbda3e227	-0.080021195
127	0xbe8c523f	-0.274065
128	0xbd8c904e	-0.068634614
129	0xbdd05779	-0.10172934
130	0x3e195192	0.14972523
131	0xbdbf9ff3	-0.0935668
132	0x3c42c258	0.0118871555
133	0xbd13a64d	-0.03604727
134	0xbddef299	-0.108861156
135	0x3dfb1d40	0.12261438
136	0x3e582a61	0.21109916
137	0xb9fadfc0	-0.00047850423
138	0xbdf43f24	-0.119261056
139	0x3dc5f936	0.09666674
140	0x3e596e74	0.21233541
141	0x3d462cc5	0.04838254
142	0xbe2639bd	-0.16232963
143	0x3de7094c	0.1128107
144	0x39cef20a	0.00039471715
145	0x3db84cc9	0.089990206
146	0x3e33063a	0.17482844
147	0x3e26bac9	0.1628219
148	0xbdabfd80	-0.08397961
149	0x3e0540cb	0.13012998
150	0xbd42b1a9	-0.04753271
151	0x3e0f8f6e	0.14019558
152	0xbe125d41	-0.14293386
153	0x3c268684	0.010163907
154	0xbe8b4ed3	-0.27208576
155	0x3d7570e0	0.0599221
156	0xbe536464	-0.20643765
157	0x3dfebdc5	0.124385394
158	0x3d109bb4	0.03530474
159	0x3e60d475	0.21956046
160	0xbe554b92	-0.20829609
161	0x3dd08440	0.10181475
162	0xbe08979d	-0.13339086
163	0x3dbabb36	0.09117739
164	0x3db971f8	0.09054941
165	0xbe170402	-0.14747623
166	0x3e32d1b9	0.17462815
167	0x3ebab5dc	0.36466873
168	0x3dbb5f63	0.09149053
169	0xbe0854d2	-0.13313606
170	0xbe241c44	-0.16026407
171	0xbc159ff6	-0.009132376
172	0x3e043e6d	0.12914439
173	0x3d7e00fc	0.062012658
174	0x3d1fc357	0.03900465
175	0x3d85056a	0.06495173
176	0x3e7054e7	0.23469888
177	0xbe0c077c	-0.1367473
178	0x3c8e4c8a	0.017370481
179	0x3b1e3251	0.0024138878
180	0x3d9e99d0	0.07744181
181	0xbdd37ac2	-0.103261486
182	0xbe11483f	-0.14187716
183	0x3bfd6a75	0.007733638
184	0x3dfabccf	0.12243044
185	0xbd0ce435	-0.034397323
186	0xbddfe904	-0.10933116
187	0x3de79faa	0.113097504
188	0x3e619a13	0.22031431
189	0xbd33321c	-0.04374896
190	0x3d98f5ec	0.07468781
191	0x3e60ae1e	0.2194142
192	0xbdff4e01	-0.1246605
193	0xbd37ccff	-0.044873234
194	0x3e5b6783	0.21426205
195	0x3e1f7c96	0.1557487
196	0x3e0b5e77	0.13610254
197	0x3d81f6ba	0.063458875
198	0xbd815c2f	-0.06316411
199	0x3c689066	0.0141945835
200	0xbe0beba8	-0.13664114
201	0xbd83f79f	-0.06443714
202	0xbd1b3266	-0.03788986
203	0xbdc57ad4	-0.09642568
204	0x3bf5b5d8	0.007498484
205	0x3d5acf31	0.05342025
206	0x3dcd4c23	0.100242876
207	0x3c382878	0.011240117
208	0x3d0be925	0.03415789
209	0x3d424d03	0.047436725
210	0xbe296eb6	-0.16546139
211	0x3e03c25a	0.12867108
212	0x3e3ed0dd	0.18634363
213	0x3ce97a01	0.028500559
214	0x3d80aa54	0.062824875
215	0xbe354e85	-0.17705734
216	0x3cf2daf1	0.029645415
217	0xbcdefb97	-0.027219577
218	0xbe2ece70	-0.17070937
219	0x3d38d638	0.04512617
220	0x3d363189	0.044480834
221	0x3e753101	0.23944475
222	0x3bb253e8	0.0054421313
223	0x3db10e47	0.08645301
224	0xbcae928f	-0.021310119
225	0xbd835401	-0.06412507
226	0x3e193615	0.14962037
227	0xbd3874d0	-0.045033276
228	0xbe47fd8b	-0.19530313
229	0x3dea465f	0.114392035
230	0xbaab25c3	-0.0013057519
231	0x3bab6d45	0.005231532
232	0xbcf421c6	-0.02980126
233	0xbd49b548	-0.04924515
234	0xbe2f0127	-0.17090283
235	0x3e05e37f	0.13075064
236	0xbd35f1a2	-0.044419892
237	0x3e810946	0.25202388
238	0xbe0e3c51	-0.13890196
239	0x3e74e2dc	0.23914665
240	0x3dd75265	0.105137624
241	0x3e4847a6	0.19558582
242	0x3cd4721e	0.025933322
243	0xbe098aa6	-0.13431796
244	0xbdb2cba1	-0.087302454
245	0x3d64c738	0.055854052
246	0x3eb7c4a6	0.35892218
247	0x3e4afa31	0.19822003
248	0xbd28d610	-0.04121977
249	0x3dc6fa05	0.09715656
250	0x3d39ea71	0.045389596
251	0x3d729b1d	0.05922996
252	0xbd8100b0	-0.06298959
253	0x3d95b60a	0.07310112
254	0xbca120e3	-0.019669002
255	0x3dc896d0	0.0979439

reward_backbone.2.bias f4 [128]
0	0x3e48620a	0.19568649
1	0xbe115662	-0.14193109
2	0xbdfc45c0	-0.12317991
3	0xbe77af79	-0.24188031
4	0x3b90a9b6	0.0044147624
5	0x3dd742dc	0.10510799
6	0xbd3b61c5	-0.045747537
7	0xbe017efc	-0.12646097
8	0x3e0b25d1	0.13588645
9	0xbd774674	-0.060369924
10	0x3dea5217	0.11441439
11	0x3d9f35d5	0.077739395
12	0xbe03116e	-0.12799618
13	0xbe399f39	-0.18127145
14	0xbd441124	-0.04786791
15	0xbd811d02	-0.06304361
16	0x3e0021db	0.12512915
17	0xbdbaf0f0	-0.091279864
18	0xbd45e08e	-0.048309855
19	0x3dc2c7aa	0.09510739
20	0xbdadf60b	-0.084941946
21	0x3e25696a	0.16153494
22	0xbd84174c	-0.06449756
23	0xbd70cb10	-0.058787405
24	0xbe14cd7b	-0.1453151
25	0x3d9fbb8c	0.077994436
26	0x3e02caaa	0.12772623
27	0x3e3a823a	0.1821374
28	0xbdf4e87a	-0.11958404
29	0xbd5525de	-0.052038066
30	0xbd74deeb	-0.059782904
31	0x3d99ef12	0.07516302
32	0x3c75dbc2	0.015006008
33	0x3e2a1f5a	0.16613522
34	0xbe73c231	-0.23804547
35	0x3db19f4b	0.08672961
36	0xbde8fffb	-0.113769494
37	0x3db5fdab	0.08886274
38	0x3de32971	0.11091889
39	0x3d80ff82	0.06298734
40	0x3d8ddd67	0.06926995
41	0xbda4eedf	-0.080533735
42	0xbd0ad715	-0.033896524
43	0x3d806fdb	0.06271335
44	0xbe4a3af9	-0.19749059
45	0xbde59198	-0.112094104
46	0xbda35551	-0.07975257
47	0x3d86d2d5	0.06583182
48	0xbcad6004	-0.021163948
49	0x3cd1fc87	0.02563311
50	0xbddcd59b	-0.107829295
51	0xbcd508f9	-0.026005255
52	0x3dba946d	0.09110341
53	0x3dac6a0b	0.084186636
54	0xbcb04b65	-0.021520326
55	0xbd5be231	-0.05368251
56	0x3ca8f9b5	0.020626882
57	0x3d0d0b50	0.034434617
58	0xbdcd1538	-0.10013813
59	0x3d0bbf90	0.034118235
60	0xbdcd0467	-0.10010605
61	0xbc1eb0c5	-0.0096857
62	0xbda76830	-0.08174169
63	0xbd809c30	-0.062797904
64	0xbdf1b3b3	-0.11801853
65	0x3dbfb49a	0.09360619
66	0x3db4fce2	0.08837296
67	0xbe10c16c	-0.14136285
68	0xbd2088d3	-0.039192986
69	0x3e06efb7	0.13177381
70	0xbdb07680	-0.08616352
71	0x3da1998d	0.078906156
72	0x3dbd399c	0.09239504
73	0x3dae868f	0.08521759
74	0xbd0df117	-0.03465375
75	0x3dd15d53	0.10222878
76	0x3e8e41c2	0.27784544
77	0x3ced3a8e	0.028958585
78	0xbd7f8bd8	-0.062389225
79	0x3d13a4b2	0.036045738
80	0x3e217839	0.15768518
81	0xbe31edb8	-0.17375839
82	0x3dc83bb5	0.09777013
83	0xbd4a858b	-0.049443763
84	0xbe85a061	-0.26098922
85	0x3e894b9a	0.26815492
86	0x3e045fe1	0.129272
87	0x3b8fad82	0.0043846974
88	0x3e0b7a3d	0.13620849
89	0xbddf76e9	-0.10911352
90	0x3d187042	0.037216432
91	0xbd59ad3c	-0.053143725
92	0xbde0a5e3	-0.109691404
93	0x3dab3efc	0.08361623
94	0xbc859c1a	-0.016309787
95	0xbddd08d6	-0.10792701
96	0x3e0b0a07	0.13578044
97	0xbdd6eaf5	-0.10494033
98	0xbe058300	-0.13038254
99	0xbcfdcb0c	-0.03098061
100	0x3d2ce7c7	0.042213228
101	0xbd7dad7a	-0.06193302
102	0x3de82d9e	0.11336826
103	0xbe2b13f5	-0.16706832
104	0xbdd9fb34	-0.10643616
105	0xbde39fc9	-0.11114461
106	0xbd2d08cb	-0.042244714
107	0x3d8f4dd9	0.0699727
108	0xbcdaacdd	-0.026693756
109	0x3e4f15a3	0.20223098
110	0xbd8821fc	-0.06647107
111	0xbd97a7c7	-0.07405048
112	0x3bba04d3	0.0056768446
113	0x3dc06cbc	0.093957394
114	0x3e7a213a	0.24426737
115	0xbbaca136	-0.0052682413
116	0xbe162c97	-0.14665447
117	0x3d49ce2f	0.049268898
118	0xbdfa7fbd	-0.122313954
119	0xbdde56b8	-0.10856384
120	0x3ceef942	0.02917159
121	0xbdc757d3	-0.09733548
122	0x3e6562df	0.22400998
123	0xbd9548b6	-0.07289259
124	0xbdaad481	-0.08341313
125	0xbd8d06a6	-0.06886034
126	0x3d4b827e	0.049684994
127	0x3e3ddcf2	0.18541315

cost_backbone.0.weight f4 [128, 22]
0	0x3e1029dd	0.1407847
1	0x3e036506	0.12831506
2	0xbd0e9f49	-0.034819875
3	0x3e835f3a	0.2565859
4	0x3dfc6024	0.12323025
5	0x3d77e97b	0.0605254
6	0x3e2201d8	0.15821016
7	0xbdd1c4ab	-0.102425896
8	0xbdd4755b	-0.10373946
9	0x3e1afa9e	0.15134665
10	0xbe492148	-0.19641602
11	0x3e2d4a10	0.16922784
12	0xbd967d0b	-0.07348069
13	0x3dd29090	0.10281479
14	0xbcf03b13	-0.029325044
15	0xbd64f800	-0.055900574
16	0x3ce2c284	0.027680643
17	0x3c3766c6	0.011193937
18	0x3e0c1353	0.13679247
19	0x3dc92ea3	0.098233484
20	0x3e48e7bf	0.19619654
21	0xbcead56d	-0.028666222
22	0x3ddbe60a	0.10737236
23	0x3da23e89	0.07922084
24	0xbbeb3949	-0.00717846
25	0x3d2e4b96	0.042552553
26	0x3c5c8420	0.013459235
27	0xbdf87cc0	-0.12133169
28	0x3c7339ae	0.014845295
29	0x3e087fa8	0.13329947
30	0xbd810ab8	-0.063008726
31	0x3e30797c	0.17233843
32	0xbeace278	-0.33766532
33	0xbd5510cb	-0.05201797
34	0x3e1b33a0	0.15156412
35	0xbda398fd	-0.079881646
36	0x3d172734	0.03690262
37	0x3dcd6a67	0.1003006
38	0xbce7db85	-0.028302917
39	0x3d1aaf12	0.037764616
40	0x3e4868ca	0.19571224
41	0xbd0bd92a	-0.03414265
42	0x3e42e27e	0.19031712
43	0x3e235dc1	0.15953733
44	0x3d7cde10	0.061735213
45	0x3dbb67da	0.091506675
46	0xbd806113	-0.062685154
47	0xbea88339	-0.32912615
48	0x3a199f7f	0.00058602536
49	0xbd937263	-0.07199552
50	0xbc8d3fcd	-0.017242337
51	0xbcbf1f16	-0.023330253
52	0xbd74c176	-0.05975481
53	0xbe22b4f0	-0.15889335
54	0xbda69f6c	-0.08135876
55	0xbcc3dfa3	-0.02391035
56	0xbe1b6705	-0.15176018
57	0x3deb2887	0.11482339
58	0xbd3c2821	-0.045936707
59	0x3d66e9ab	0.056375187
60	0xbceaf044	-0.02867902
61	0x3b125652	0.0022329283
62	0xbbf275be	-0.00739929
63	0xbde19f8d	-0.1101676
64	0x3e25aa84	0.16178328
65	0x3e9634f6	0.2933728
66	0x3c8d3131	0.01723537
67	0x3da2f57c	0.07956979
68	0xbdc24f0e	-0.09487735
69	0xbdb382e6	-0.08765201
70	0x3e297d40	0.16551685
71	0xbcfbc563	-0.03073377
72	0xbb20fb71	-0.0024563933
73	0x3d253f63	0.040343653
74	0x3cfe89df	0.031071601
75	0xbe535440	-0.20637608
76	0x3d8c44f6	0.06849091
77	0xbe1b8310	-0.15186715
78	0xbd3a523f	-0.045488592
79	0x3d182440	0.037143946
80	0xbdf6180a	-0.12016304
81	0xbe982e12	-0.2972265
82	0xbd24bcd1	-0.04021913
83	0x3dd9139d	0.10599444
84	0x3e0bca9f	0.13651513
85	0xbd8ac4c9	-0.06775815
86	0xbd876957	-0.06611889
87	0x3ccdc5c3	0.025118714
88	0x3db23d07	0.08703046
89	0x3cf4f4f8	0.029901966
90	0xbc333882	-0.0109387655
91	0xbe8d94dd	-0.27652636
92	0x3cf56e35	0.029959777
93	0x3d9a2801	0.075271614
94	0x3cbe315c	0.023216896
95	0xbe139335	-0.14411624
96	0xbdc5dfd3	-0.09661832
97	0x3c4bb9ce	0.012434436
98	0xbd2c3f5d	-0.042052615
99	0xbec577ae	-0.3856787
100	0xbc79e288	-0.015251763
101	0x3cd81b85	0.02638031
102	0x3ba9a6e2	0.0051773647
103	0x3c328935	0.0108969705
104	0x3d8bcc7e	0.06826113
105	0x3c4438fc	0.011976477
106	0x3eb40c9e	0.35165876
107	0x3c5319ed	0.012884599
108	0xbeaeb9e0	-0.34126186
109	0xbdda6259	-0.106632896
110	0x3cf6ebee	0.030141797
111	0xbd38cc65	-0.0451168
112	0xb89dc5e9	-7.523207e-05
113	0x3e704344	0.2346316
114	0xbd8eb953	-0.069689415
115	0x3cac2323	0.021012848
116	0xbc32a8fb	-0.010904546
117	0x3dd8b33e	0.10581063
118	0x3c8358c9	0.016033547
119	0x3da97ed1	0.082761414
120	0x3d232d11	0.0398379
121	0xbd8db447	-0.06919151
122	0xbe5fbc23	-0.21849112
123	0x3e024881	0.1272297
124	0x3d84a626	0.06477003
125	0xbd4d1d30	-0.050076663
126	0xbd15dbed	-0.03658669
127	0x3d9b8113	0.07592978
128	0x3db3b562	0.087748304
129	0x3d6f0f7a	0.05836437
130	0xbe3a860a	-0.18215194
131	0x3e2f338f	0.17109512
132	0xbd908292	-0.07056154
133	0xbe439084	-0.19098097
134	0xbdaede73	-0.085385226
135	0x3d03ab0c	0.032145545
136	0xbb0663cb	-0.0020506259
137	0xbcba6b6a	-0.022756297
138	0xbd9d0c28	-0.07668334
139	0x3c77401a	0.015090967
140	0xbcb105f4	-0.021609284
141	0xbd4f9613	-0.05068023
142	0xbc2dbd1e	-0.010604171
143	0x3e224af7	0.1584891
144	0x3cf49e1d	0.02986055
145	0x3dd2c678	0.10291761
146	0x3df49578	0.119425714
147	0xba89d27c	-0.0010515
148	0xbd8397af	-0.06425416
149	0x3b6805e3	0.00354039
150	0xbe10e555	-0.14149983
151	0xbdee58eb	-0.116380535
152	0x3dffced6	0.12490623
153	0xbe632d7c	-0.2218532
154	0x3e41bcf6	0.18919739
155	0xbd93f27a	-0.07223983
156	0xbde8735f	-0.1135013
157	0xbc4fb836	-0.012678197
158	0xbcf766e9	-0.030200439
159	0xbd8aacfa	-0.06771274
160	0xbd6f4afb	-0.058421116
161	0xbde129c6	-0.10994296
162	0x3dda81c9	0.10669286
163	0xbdc433a4	-0.09580162
164	0xbda894fd	-0.08231542
165	0xbebdd7cf	-0.3707871
166	0x3de441d5	0.11145369
167	0x3df4e5be	0.11957882
168	0x3d080c4e	0.03321486
169	0xbd169895	-0.036766607
170	0x3d8eebe6	0.06978588
171	0xbc94f9ce	-0.018185522
172	0xbbd224fa	-0.0064130994
173	0x3c9fbdf2	0.019499753
174	0xbc3ecd60	-0.011645645
175	0xbe9b0a0b	-0.302811
176	0xbdd7d542	-0.105387226
177	0xbdb4c773	-0.088271044
178	0x3d7de94f	0.06199008
179	0xbe3a5cff	-0.18199538
180	0x3e14a2fe	0.14515302
181	0xbdc81819	-0.09770221
182	0xbde1a264	-0.11017302
183	0xbd8fe5c8	-0.07026249
184	0xbd50534d	-0.05086069
185	0x3def5796	0.116866276
186	0x3d9638f8	0.07335085
187	0x3e8f1a29	0.27949646
188	0x3d21d8ca	0.039513387
189	0x3d96e176	0.07367222
190	0xbda6b276	-0.081395075
191	0x3ceaadcf	0.028647332
192	0x3dc77f24	0.09741047
193	0xbbfe848e	-0.0077672666
194	0x3ddeb3f9	0.10874171
195	0x3e0e8cd8	0.13920915
196	0xbe426761	-0.18984748
197	0x3cd28594	0.02569846
198	0xbd239569	-0.03993741
199	0x3c886782	0.016650919
200	0xbc663991	-0.014051811
201	0x3e3f6912	0.18692425
202	0xbe198558	-0.14992273
203	0xbcc72198	-0.024308011
204	0xbe46aceb	-0.194019
205	0x3c42cbf5	0.011889447
206	0xbd869e35	-0.06573144
207	0xbd9f9d7b	-0.07793709
208	0x3dded0d7	0.10879677
209	0xbd881fd0	-0.06646693
210	0xbe3b4b2b	-0.18290393
211	0xbcdd3e96	-0.027007382
212	0x3c349a98	0.011023186
213	0xbdd919a7	-0.10600596
214	0x3c825b72	0.015912745
215	0xbd18b4b5	-0.03728171
216	0x3e6b984d	0.23007317
217	0x3e37ddc5	0.17955692
218	0xbc877e94	-0.01653985
219	0xbe4bead9	-0.19913806
220	0x3cad262b	0.021136364
221	0xbe0af994	-0.13571769
222	0xbd91945a	-0.07108374
223	0x3ca708c1	0.020389916
224	0xbe2492e6	-0.16071662
225	0xbc3261df	-0.010887592
226	0x3ddd86ba	0.10816713
227	0x3da4a03c	0.08038375
228	0x3c83cf6f	0.016090123
229	0xbdef0006	-0.11669926
230	0xbe0d17af	-0.13778566
231	0x3dd7ee60	0.10543513
232	0x3dd82f95	0.105559506
233	0xbdee1d7b	-0.11626717
234	0xbe198c39	-0.14994897
235	0x3d53e801	0.051734928
236	0x3db2cf25	0.08730916
237	0x3e7b16a3	0.24520354
238	0x3e5d477f	0.21609305
239	0xbd8c078a	-0.068373755
240	0xbb60cc4a	-0.0034301453
241	0x3db8d6f3	0.09025373
242	0xbd005f4d	-0.031340886
243	0xbdb62911	-0.088945515
244	0x3e56d5af	0.20979951
245	0xbe38d261	-0.18049003
246	0x3dc4c58a	0.0960799
247	0x3b7a34ea	0.0038178512
248	0x3c41cabd	0.011828122
249	0x3d0af708	0.033926994
250	0x3d1eaf27	0.038741257
251	0x3d928b80	0.07155514
252	0x3ca1450f	0.01968625
253	0xbe328e03	-0.17436986
254	0x3caed174	0.02134011
255	0x3e0d7777	0.13815103
