outputs/E2_costcritic_ablation/E2_costcritic_ablation/E2_shared_seed2/best_tail.pt (torch, 978500 bytes, 68 tensors)

actor_backbone.0.weight f4 [128, 22]
000000 3e ff 17 be 06 21 c6 bd b1 ea 13 3e 9f db d7 3d
       -0.14843461 -0.096742675 0.14444996 0.10539936
000010 86 e4 17 bd 74 87 38 be 8b f8 da 3c 26 a0 85 3c
       -0.03708317 -0.18020421 0.026729843 0.016311716
000020 c7 e0 e1 3c 5e aa aa 3d 16 f8 85 bc 3f 5d 98 bd
       0.027573003 0.08333276 -0.016353648 -0.0743966
000030 9e 4c 7c 3d fb ac cb 3d 97 b3 a3 bc cb 42 f0 3d
       0.061596505 0.09945103 -0.019983096 0.1173149
000040 af 53 a0 bc 9c f4 1b be d9 44 50 3e ee 96 14 3d
       -0.019571153 -0.1523003 0.20338763 0.03627675
000050 e4 09 3e be 84 40 01 bd 28 87 d4 be c6 66 81 3d
       -0.1855846 -0.031555668 -0.41509366 0.063184306
000060 bd 1c 13 bd b4 6c f0 3c 01 d2 4f 3d 09 11 fc 3b
       -0.03591608 0.029348709 0.050737385 0.0076924604
000070 41 1b 37 be 4a 4d 5c 3e be a5 4c be 5a 60 96 3d
       -0.1788149 0.21513858 -0.199851 0.07342596
000080 21 96 cb bd 87 ee a6 bd aa cf 95 3d 4e fe 9e bd
       -0.09940744 -0.08150964 0.073149994 -0.077633485
000090 b0 d9 44 bd 21 3d f3 3d 44 92 7c b7 d4 ba d4 bd
       -0.048059165 0.11876894 -1.5054426e-05 -0.10387197
0000a0 b3 a5 cb bc 3d 23 ba bc 78 21 5c 3d d4 68 35 3d
       -0.024859285 -0.022721881 0.053742856 0.044289425
0000b0 37 3b 16 3e 75 b2 53 be db 48 4a bc 83 c6 1c 3e
       0.14671026 -0.20673545 -0.012346472 0.15310101
0000c0 07 82 02 3e c7 07 cf 3d c7 fa 84 bd ba 5e 93 bd
       0.12744914 0.10108905 -0.064931445 -0.07195802
0000d0 c0 74 bf 3d 2f 3a 4f be 13 d4 92 bd f3 8a 1c be
       0.0934844 -0.20237039 -0.07169356 -0.1528738
0000e0 53 39 83 3d d6 6b c5 bb d8 13 9f bd 9b 56 27 3e
       0.06407418 -0.006024818 -0.07767457 0.16341631
0000f0 1a 85 2a be 85 87 71 be 8e 03 d6 bd e2 58 a2 3d
       -0.16652337 -0.23586853 -0.10449897 0.07927109
000100 aa 55 67 3d b3 04 c3 3d 87 d1 af 3d 1c 3d 63 3e
       0.05647818 0.09522381 0.08584886 0.2219128
000110 d8 0e 32 3d e7 c8 b7 bd 20 39 67 3c b3 14 e8 bd
       0.043471187 -0.08973866 0.014112741 -0.11332073
000120 d9 6a 24 bd a4 75 32 bd 64 81 eb bd 69 41 9d 3c
       -0.04014096 -0.043569222 -0.11499289 0.019196229
000130 6c e1 aa 3d 94 1d 33 be de 5f 66 bd 3f 21 9b bd
       0.08343777 -0.17491752 -0.05624377 -0.075747006
000140 87 82 ae 3c 4f 17 1c be d6 43 31 3e ba f2 1e 3d
       0.021302475 -0.15243267 0.17311034 0.0388057
000150 0c 93 cc 3d 93 0b 28 be eb 5a c4 3d ec 5d 24 be
       0.099889845 -0.16410665 0.09587654 -0.16051453
000160 47 7c 88 be 0f 2c 01 3e bf 94 62 bd 9e e9 20 bd
       -0.26657316 0.12614463 -0.055317637 -0.039285295
000170 85 b6 c6 bd f4 95 39 be 5b 4c 69 ba cb 6a 15 bc
       -0.097027816 -0.18123609 -0.00088996225 -0.0091197
000180 eb 9c 34 bd 46 28 13 3e 29 9b 8d 3d 5f 29 04 3e
       -0.04409496 0.14370832 0.0691436 0.12906407
000190 8c 0e f4 3d 45 0e 65 be 3a 34 29 3d 46 57 2b bd
       0.11916837 -0.22368725 0.041309573 -0.041831277
0001a0 0c fb a4 bd cb 2a 8f 3d 63 19 6c be 74 98 2d be
       -0.08055696 0.06990584 -0.2305656 -0.16952688
0001b0 ec df cc bd 6b b7 6a bd 70 9c 38 3d f0 62 59 be
       -0.10003647 -0.057303827 0.045071065 -0.21229148
0001c0 cd 88 17 3e 20 42 e6 3d 9f 84 37 3d 88 da 95 3d
       0.14798279 0.11243081 0.04480421 0.07317072
0001d0 e5 a3 7d be 03 00 21 bd c6 7f f3 3d 6b fc 0d 3d
       -0.24769552 -0.03930665 0.11889605 0.034664553
0001e0 96 5c 4d be b0 2a 35 3e 3c f6 85 3e d5 20 8e be
       -0.2005485 0.17692065 0.26164424 -0.27759424
0001f0 5a c7 a1 bd 19 bf 2f 3e 9a 15 09 3d 65 67 8a 3d
       -0.078993514 0.17162742 0.033467866 0.06758002
000200 ce b3 cb 3d 34 ca da bd ae 44 41 bd 8f 6a 11 be
       0.099464044 -0.106830984 -0.04718464 -0.14200805
000210 ef da 24 be 01 74 80 3e f9 da 92 3e 00 3e 1c bd
       -0.16099142 0.25088504 0.28682688 -0.038145065
000220 46 a1 eb bc c6 70 38 3e 60 2f 85 bd 9f 8d bb bc
       -0.028763425 0.1801177 -0.06503177 -0.022894679
000230 0b 68 24 be fd 96 94 bd f5 94 e8 bd d6 4c 09 bb
       -0.16055314 -0.07255361 -0.11356536 -0.0020950339
000240 f5 88 f2 3d 2e ee 56 3d 1e 49 c8 3d 28 7d 73 3b
       0.11842529 0.05247324 0.09779571 0.0037153456
000250 6f b2 11 3c 76 c2 fd 3c 2b c8 ac bc 79 df 3b 3e
       0.00889264 0.030976515 -0.021091541 0.18346967
000260 7c b6 47 3e a6 71 23 3e 0a 77 3f be 7a 14 95 bd
       0.19503206 0.15961322 -0.18697754 -0.07279296
000270 d8 c4 62 3d 89 95 2b 3d 09 bc 14 3e aa 87 44 3e
       0.055363506 0.041890655 0.14524855 0.19192377
000280 57 8b fd bd b5 5d 39 bd e3 5a 04 3c 85 59 bf 3d
       -0.123800926 -0.04525538 0.00807831 0.09343246
000290 fb 74 e4 bd f7 13 2a be 1f 7a 0c bc b5 c2 cb 3c
       -0.11155125 -0.16609178 -0.008574038 0.024873117
0002a0 85 cd 11 be 41 3a 50 3d 22 9e 25 be a7 b1 21 3e
       -0.14238556 0.050836805 -0.16173604 0.15790425
0002b0 ea af 92 bc 3e 72 23 3e 0c dd 96 be 0c 7f 27 bd
       -0.017906148 0.15961549 -0.2946552 -0.040892646
0002c0 52 86 a0 3d 67 a2 51 3e c4 b6 3d 3e 93 9a 96 be
       0.078381196 0.20472108 0.18526751 -0.29414806
0002d0 d2 f3 aa bd 14 3b 8f bd 3f bd cf 3d b0 c7 dd bc
       -0.08347286 -0.0699369 0.10143518 -0.027072757
0002e0 d1 ed 10 bd 47 91 5d bd 9c 84 d5 bc eb 0c 2a bd
       -0.03538305 -0.054093625 -0.02606421 -0.041516226
0002f0 e2 a7 72 3e 1a c3 8e bd e4 78 ea bd 74 76 a0 bc
       0.23696855 -0.069708064 -0.11448839 -0.019587733
000300 f5 3f 23 bd 2a b2 5f 3d 0b 85 b9 bd 3f 80 b1 3c
       -0.039855916 0.05461327 -0.09058579 0.021667598
000310 e2 d0 3e 3d 0d 92 55 bd c6 ed 38 3e 3e e5 6d bd
       0.046585925 -0.052141238 0.18059453 -0.05807995
000320 e1 50 11 bd 9a 3c db 3d 4f 2d 82 bd b6 fc 1a bd
       -0.035477523 0.10704918 -0.06356298 -0.03783866
000330 60 bc 87 bc 24 8a f2 3d 96 63 65 bd 63 07 5c be
       -0.016569316 0.118427545 -0.056003176 -0.21487193
000340 ba a1 7b 3e 65 12 b7 3d a7 0b 5d bd 3d fd 52 bd
       0.24573413 0.08939055 -0.05396619 -0.051511038
000350 d5 f9 e9 bd 9e af ef 3d ec f2 83 3c ad e0 c4 bc
       -0.11424605 0.11703418 0.016107045 -0.024032915
000360 0c bd 09 be aa 20 02 3d d5 5c 85 3d 6d de 84 3d
       -0.13451022 0.031769432 0.06511847 0.06487737
000370 ee d7 a4 bc bb 2d b6 bd 06 d3 f0 3d 13 d5 9b bd
       -0.020122495 -0.08895441 0.117589995 -0.07609
000380 1f f7 c7 bd 97 ce 91 3e d8 91 8b 3d 5c e4 66 3d
       -0.097639315 0.28477928 0.06814927 0.056370124
000390 f7 1f b7 bd 79 a0 f8 3d a0 11 98 bd f3 ea 5c bd
       -0.08941644 0.12139983 -0.07425237 -0.053935003
0003a0 8c 5c 0b 3e 35 18 9e bd f8 74 ad 3d 9b 4f 3b 3d
       0.13609523 -0.07719461 0.08469576 0.045730215
0003b0 a5 ed 2e 3d ba 55 13 be ee 94 08 3e 62 f9 83 3d
       0.042707104 -0.14388171 0.13338062 0.0644405
0003c0 6e 7b 08 be c4 67 0e be 67 e8 a1 3e e0 a8 80 be
       -0.13328335 -0.13906771 0.3162262 -0.2512884
0003d0 5f 74 96 bd b4 2d 64 3d c2 4c 49 bd 6b 39 0f be
       -0.07346415 0.05570765 -0.049145468 -0.13986747
0003e0 a8 6d 1f be 51 96 4d 3d 66 11 a1 bd af f1 7f bb
       -0.15569174 0.05019218 -0.078646466 -0.0039053967
0003f0 2b 2a ae 3e d6 a0 4e 3d d8 45 d9 3d 97 19 d0 ba
       0.34016547 0.050446354 0.10609025 -0.0015876767

actor_backbone.0.bias f4 [128]
000000 be f5 42 be ce a7 7d 3e 00 58 65 3e 55 81 a9 be
       -0.19039056 0.24771044 0.2239685 -0.33106485
000010 d7 7f 75 3e b6 a4 94 3e ac 84 00 3e 16 01 07 be
       0.23974548 0.29031914 0.1255061 -0.13184008
000020 f1 86 99 be 0e 53 1f be 5c 60 aa 3e 31 44 24 3e
       -0.29985765 -0.15559027 0.3327664 0.16041638
000030 b4 c7 a5 3e ac 60 35 be 5a 67 b2 3e 3a 4e 77 be
       0.32378924 -0.17712659 0.34844476 -0.24150935
000040 a5 92 41 be 86 13 a3 be 60 5e f8 3d 56 b1 b5 3e
       -0.18903597 -0.31850833 0.121273756 0.3548686
000050 51 9a 8a 3e 58 62 1d 3e ef df c1 3d 24 93 b3 3e
       0.2707086 0.15369546 0.0946654 0.35073197
000060 61 a0 29 be bd 40 33 be 7c 15 ab be d7 46 50 3e
       -0.16565086 -0.17505164 -0.3341483 0.20339523
000070 fc a1 90 3e ec a3 76 3e 95 1c 5f 3e 4e ab 8a 3e
       0.28248584 0.24085969 0.21788247 0.2708382
000080 13 e4 9b 3e 26 eb c6 be 77 7f 14 be b8 b1 4e 3e
       0.30447444 -0.3885128 -0.14501749 0.20184982
000090 9e e7 9a 3d b3 b3 a9 3e 88 d2 8e 3e 2d 18 e0 be
       0.07563709 0.33144912 0.27894998 -0.43768445
0000a0 70 49 71 3e de d1 9b be 75 86 1b be 7e 53 8b 3e
       0.2356317 -0.30433553 -0.1518801 0.27212137
0000b0 dd 97 6d 3e a6 40 bb bc f9 3f a6 3e 21 4c 60 3e
       0.23202462 -0.022857975 0.32470682 0.21904041
0000c0 85 13 23 be d6 c2 3f 3e 97 f5 54 be c2 d9 75 3e
       -0.15925415 0.18726668 -0.2079681 0.2400885
0000d0 6c 3f 14 be bc 7c 64 3e 28 9d aa 3e f4 df b6 be
       -0.14477319 0.22313207 0.33323026 -0.35717738
0000e0 24 4d 23 be 61 12 99 bd 0a 5d 60 3d cb b2 bb be
       -0.15947396 -0.074742086 0.05477623 -0.36659846
0000f0 41 f7 5f 3e 1d 0e 48 be dc f6 20 be be 7f b8 be
       0.21871664 -0.19536634 -0.1571917 -0.3603496
000100 b9 ab b6 be 46 29 4e 3e d7 8e d4 3d 56 56 69 3e
       -0.3567789 0.20132932 0.10378807 0.22786841
000110 77 d7 85 3e 46 50 6a 3e d4 4d a7 3e 7b 9a 86 3e
       0.2614095 0.22882184 0.32676566 0.26289734
000120 eb ca 88 be 70 86 8a bc ab 28 50 be d9 82 8e be
       -0.26717314 -0.016909808 -0.20328014 -0.27834204
000130 69 71 92 3e ad cb 9f 3e f3 4b a8 3e 60 1d b6 3e
       0.2860215 0.3121008 0.32870445 0.35569286
000140 ce 91 37 3e 65 3c 9c 3e 47 92 f7 bd a7 99 ae 3e
       0.17926714 0.30514827 -0.12088447 0.34101602
000150 a7 47 a4 3e f4 20 87 be a8 b9 af be dd a3 82 be
       0.32085916 -0.2639233 -0.34321332 -0.25515643
000160 bc e9 ae 3e f3 c1 15 be c0 de 8a be dc f7 76 be
       0.341627 -0.14624767 -0.2712307 -0.24117988
000170 b1 20 87 be 9c 50 2b be 4c d7 2a 3e 9a 62 a5 3e
       -0.2639213 -0.16729969 0.16683692 0.3230179
000180 91 ed 0f be 6f 15 a9 be 93 30 ac be df b3 aa be
       -0.14055468 -0.33024165 -0.3363081 -0.33340356
000190 76 ec 87 3e 36 23 4e 3e 57 d4 08 3e 9d 30 83 3e
       0.26547593 0.2013062 0.13362251 0.25623026
0001a0 3f a2 9f be 5b 96 63 3e d0 81 3b be 9f b7 c2 3e
       -0.3117847 0.22225325 -0.18311238 0.38030717
0001b0 ac 47 fb bd 0b dc a7 3e 00 b3 5d 3e a2 16 7c 3e
       -0.1226953 0.32785067 0.21650314 0.24618009
0001c0 f7 1a ad be 89 0c d7 bd 30 2d b4 3d c0 b9 ad 3e
       -0.33809635 -0.10500438 0.08797681 0.33930779
0001d0 4a 3c 40 3e 8f e4 13 3e 50 87 5a be 07 72 75 be
       0.18772998 0.14442657 -0.2134068 -0.23969279
0001e0 5e 6c 7c be 22 fb 87 be 24 11 5c 3e e3 51 6f be
       -0.24650714 -0.26558787 0.21490914 -0.23371081
0001f0 2b b5 1b be d0 8c 97 3e cb ea 74 3e 5f c0 59 3e
       -0.15205829 0.2959962 0.23917691 0.2126479

actor_backbone.2.weight f4 [128, 128]
000000 e8 67 1e 3e 76 8d 85 bc 52 d5 36 3d d7 f9 5b 3e
       0.15469325 -0.016302805 0.04463703 0.21482025
000010 a8 b1 67 bd 45 06 20 be a9 60 94 3e 2a 2b ff 3d
       -0.05656591 -0.15627392 0.28979996 0.12459405
000020 54 34 4e 3e c3 99 07 bd 47 35 8b be 10 ac 01 be
       0.20137149 -0.033105623 -0.27189085 -0.12663293
000030 b0 85 4d be b1 c8 2f 3e 55 ff d8 bb 27 a7 1e 3e
       -0.20070529 0.17166401 -0.006622235 0.15493451
000040 24 6f 14 3e 3c ab 3f bd df 3c 10 3e eb 05 85 be
       0.14495522 -0.04679416 0.1408572 -0.25981078
000050 85 19 a3 be e7 78 22 3e 83 cb 9f be 5a 40 02 bd
       -0.31855407 0.15866433 -0.31209955 -0.03179965
000060 cf c4 8b bd 29 47 4a 3e 2f fb a4 3e 6e 19 58 be
       -0.06824648 0.19753708 0.32222888 -0.2110345
000070 ab f5 02 3d 0d f9 31 3e b6 95 70 bd 94 c7 a9 bd
       0.03197257 0.17380162 -0.058736525 -0.0829002
000080 09 35 d6 bb 01 43 18 3e 6e 24 1f 3e 4e 0b 06 3e
       -0.006537084 0.1486931 0.1554124 0.1309025
000090 fb f5 4a bd fe 1f 2e be 08 d3 0d be 34 8f c5 3e
       -0.04955099 -0.17004392 -0.13850033 0.38585818
0000a0 2b 4f aa be 26 31 e8 3b a9 1b 0c 3d 86 49 40 3d
       -0.33263525 0.007085937 0.034206066 0.046945117
0000b0 c6 44 a2 3d 48 79 01 3d 27 e9 da bd f2 cb 90 3c
       0.07923274 0.031609803 -0.106890015 0.017675374
0000c0 d8 bb 1a 3e ac 1a c8 3c 4a ba 46 3d 9c ec 1e 3e
       0.15110719 0.02442678 0.048517503 0.15519947
0000d0 23 8a 2e 3e a9 d5 06 be f5 35 61 bd 13 6e 0e 3d
       0.17044882 -0.13167442 -0.054983098 0.034772944
0000e0 6f 57 1b 3e 05 74 24 3c 64 12 7a bd f5 c1 cc 3e
       0.15170072 0.010037427 -0.061052695 0.39991727
0000f0 a7 5d 90 be 37 f6 50 3d 98 6d 36 3d 2a 94 a6 3d
       -0.2819645 0.05101606 0.04453811 0.08133729
000100 9f 4a 58 bc cb 6b 1d 3d f9 7b 57 3d 49 d7 3d be
       -0.013201385 0.038432878 0.052608464 -0.18539156
000110 e9 90 ce be b4 4d 1b 3e c1 f2 e1 bd 5e f4 90 be
       -0.40344933 0.1516636 -0.1103263 -0.28311437
000120 f6 39 82 bd 63 0c 07 3e 36 e9 b5 3d 5d 84 c0 3c
       -0.063587114 0.13188319 0.08882372 0.023500616
000130 9f a8 8f be 64 e2 c3 bd 12 13 07 3e 1b 74 b4 bc
       -0.28058335 -0.09564665 0.13190868 -0.02202802
000140 79 bb 7e be 04 26 70 be 6f 33 8e bd e6 dd df 3d
       -0.24876203 -0.23452002 -0.06943404 0.10930996
000150 ac e8 5d 3d 80 07 fc bc 84 f7 70 3e b8 e4 55 be
       0.05417697 -0.030765295 0.2353192 -0.2088803
000160 26 15 92 3d a6 50 70 3d f5 6b 06 be 8e 76 ac bb
       0.0713294 0.058670662 -0.1312712 -0.0052631563
000170 82 06 d4 bc 4d 8e 4d 3e 8e dc cf bd a3 c1 8d bd
       -0.02588201 0.20073815 -0.10149489 -0.06921699
000180 75 ef 26 3d dd cc 54 3e 63 5d 45 bd 5f 5c 37 3e
       0.040755708 0.20781274 -0.048184764 0.1790633
000190 e1 75 ac 3d 57 72 a9 bd 39 bb 44 be 27 98 c2 3d
       0.08420921 -0.08273762 -0.19212045 0.09501677
0001a0 0a 4a 11 3d 20 08 6b be 1e b9 6a be 28 d3 23 be
       0.035471 -0.22952318 -0.22922179 -0.15998518
0001b0 df 05 14 3e 46 ec aa 3d 1e d7 26 bd 7b 90 df bc
       0.14455365 0.08345847 -0.040732495 -0.027290573
0001c0 b1 6b 06 3e ea b8 42 3e ed 27 83 bd 1b b7 81 be
       0.13127019 0.19015852 -0.064040996 -0.2533501
0001d0 2c 09 09 be 51 49 ec bd 67 f9 a7 3e f1 cf 41 3d
       -0.13382405 -0.115374215 0.32807466 0.04731745
0001e0 ea 66 b3 3e f8 41 90 3e e3 62 96 3d 35 3f c9 3c
       0.35039455 0.2817533 0.0734308 0.024566272
0001f0 40 0a c7 3c 33 f6 0d be 90 b2 cc bd 2f 17 c1 3e
       0.02429688 -0.13863449 -0.099949956 0.37713
000200 1e 7b 98 be ec 11 84 3e 9c 2c f7 bc b7 6a 86 3d
       -0.2978143 0.25794923 -0.030172639 0.06563323
000210 b9 53 19 bd e7 e8 f0 3c cb 4a fe bd 45 ce a0 bd
       -0.03743336 0.029407931 -0.124166094 -0.07851843
000220 19 64 4a bd a7 f1 8d bd 7b 35 7d 3e 4d 1e 27 3e
       -0.049411867 -0.06930857 0.24727432 0.16320153
000230 a4 0d ca 3d d0 5e 1b be 57 2c 0a 3d 19 e1 46 3e
       0.09865883 -0.15172887 0.033733692 0.19421805
000240 81 94 5c 3b c4 be a5 bd 17 61 ab 3d 0a d9 09 3d
       0.003365785 -0.08093026 0.08368128 0.03365425
000250 5d 9d 07 3d d3 ff 58 be e8 4e 4b 3e e5 75 f9 3c
       0.033109058 -0.21191339 0.19854319 0.030451724
000260 ed 29 31 be 96 10 01 be b1 24 c2 3d 14 15 95 3e
       -0.1730115 -0.12603983 0.094796546 0.29117644
000270 29 6c bf bd 02 c8 e9 bd bc 02 32 3b d6 c6 42 3e
       -0.09346802 -0.114151016 0.0027162274 0.19021162
000280 47 14 3f 3c 6f 5c 4c 3e 1f f7 5d be b9 ef b9 bc
       0.011662549 0.19957136 -0.216763 -0.022697316
000290 a8 81 19 be 98 47 b5 3c 8f 55 31 3e 1f e4 22 be
       -0.14990866 0.022128865 0.17317794 -0.15907334
0002a0 eb 06 f6 3c 8a 7e 47 bd f1 84 88 bc 1c 0b c6 3d
       0.030032596 -0.04870466 -0.016664954 0.09670088
0002b0 fb 0d 22 3e 03 10 cf 3b 53 0a ee 3c 4d b4 e4 3d
       0.15825646 0.0063190474 0.029057657 0.11167202
0002c0 1d 58 31 be ad 49 0c 3d 2e 02 d1 3c 9a 06 0c be
       -0.17318769 0.03424995 0.025513735 -0.13674393
0002d0 f7 50 1d be c3 81 07 be 14 68 f2 3d da bf 9d be
       -0.15362917 -0.13233094 0.118362576 -0.30810434
0002e0 45 d0 df bd a9 fb d9 3d 0d 5c f5 3b 41 2c 4d bc
       -0.10928396 0.106437035 0.00748778 -0.012522758
0002f0 81 60 2a 3d 76 15 10 3e a5 2c 49 be 8c 7f 44 bd
       0.04159594 0.14070687 -0.19645937 -0.0479732
000300 5c 08 ba bd 7a 51 93 3b fe 89 c3 bd dc 8d 9b 3d
       -0.09083626 0.0044957967 -0.09547804 0.07595417
000310 28 46 22 bd b7 24 dd 3c bb 20 ec 3d 07 07 3a bc
       -0.039617687 0.026995046 0.1152968 -0.0113542145
000320 e2 a0 ff 3c e3 83 cb 3d 91 99 63 bd ef 56 7c 3c
       0.031204645 0.09937265 -0.055566374 0.015401586
000330 7b 24 b8 3d e1 cc 0d bd 56 ea 56 3e d1 48 3c 3e
       0.08991333 -0.034619216 0.2098783 0.18387152
000340 c1 42 41 3e 32 15 48 3e 76 61 cf bd 62 23 6b 3d
       0.18873121 0.19539335 -0.10126011 0.05740679
000350 bb 27 a4 3e d9 fc 03 3c 45 c6 05 bd f2 3f 3a be
       0.32061562 0.008055889 -0.032659788 -0.18188456
000360 0e 39 25 3e 05 a1 35 be 18 43 86 3d 50 31 0b 3c
       0.16135046 -0.17737205 0.06555766 0.008495644
000370 67 6c 64 3e 3b 0b 33 3d 71 3b c2 3d 46 b8 bd 3c
       0.22306977 0.043711882 0.09483994 0.023159157
000380 4a e3 3a 3d 76 5b 99 bd ef fa 9d be b3 b6 de bb
       0.045626916 -0.07488148 -0.3085551 -0.006796682
000390 09 88 a6 3d ea d0 9f 3d 7b b8 0f be e7 a8 31 3e
       0.081314154 0.07803519 -0.14035217 0.17349587
0003a0 1a 9e 06 be 1e 02 8e 3e b1 50 fb bd f8 fa 4e be
       -0.13146248 0.2773599 -0.1227125 -0.20212924
0003b0 b0 d5 98 be 2c 74 43 3e d2 74 24 3e d5 55 2d 3e
       -0.2985053 0.19087285 0.16060188 0.16927274
0003c0 e8 87 7c bd 8b 90 d3 bc 7b 26 40 bd 8e e1 d2 3d
       -0.061653048 -0.02582576 -0.046911698 0.102969274
0003d0 7c aa 0b be 50 5e b2 3d fe 28 53 3d 52 33 09 be
       -0.13639253 0.08709395 0.051552765 -0.13398483
0003e0 5f 80 4c 3e 1d c3 19 bd 93 39 47 3e 25 0c 1d be
       0.19970845 -0.03753959 0.19455557 -0.15336664
0003f0 fd a4 46 3c 65 5b 94 3c 53 64 ff bd c1 7d 1c 3d
       0.012124297 0.018109987 -0.12470307 0.038205866

actor_backbone.2.bias f4 [128]
000000 cc 5e 82 be 8a 46 6d 3e 65 e2 42 3c 3d 7b 8e 3e
       -0.2546295 0.2317144 0.011894797 0.27828398
000010 be 59 3e 3e f5 35 ae bc dc 10 10 3e 61 3f 76 be
       0.18588921 -0.021265963 0.14068931 -0.24047615
000020 d1 71 95 bc bc e0 4f 3d c3 d5 8c be ba f6 7a 3e
       -0.018242748 0.050751433 -0.27506837 0.24508181
000030 27 fe 1b be d1 d3 7a be 7f 42 83 be 60 ff 6f be
       -0.1523367 -0.24494864 -0.2563667 -0.23437262
000040 50 3d 49 3e 1b a9 80 3e 9b ab e2 bd 82 d4 bd 3d
       0.19652295 0.25129017 -0.110678874 0.09269048
000050 7f 5f 8a 3e ec db 14 be 10 a5 27 3e 1f 2e 8a be
       0.27025983 -0.14537019 0.1637156 -0.26988313
000060 d2 32 83 be 7c 6b 78 be 7e e6 90 bd 0e 05 6a be
       -0.2562471 -0.24259752 -0.07075213 -0.2285349
000070 98 7f 73 be cb 08 63 3e 48 2e d0 bd 21 5c 32 be
       -0.23779142 0.22171323 -0.101650774 -0.17417957
000080 b8 18 6b be 8b 43 7c 3e 9c 1b a8 bd 73 5c 6f be
       -0.22958648 0.2463514 -0.08208391 -0.2337511
000090 29 76 bb 3c 63 7f 5f 3e 43 af 8c be 53 c1 82 be
       0.022883492 0.21825938 -0.27477464 -0.2553812
0000a0 6f 38 75 be af 92 1f 3e c7 c1 79 be 33 52 82 be
       -0.23947309 0.15583299 -0.24390326 -0.25453338
0000b0 a6 1b 76 be 3f 71 4f be 42 f5 80 be a4 e4 28 be
       -0.24033985 -0.20258044 -0.25187117 -0.1649347
0000c0 6f 50 87 3e d4 5e 1d 3e f6 e1 6b 3e b7 53 02 be
       0.26428553 0.15368205 0.23035416 -0.12727247
0000d0 f4 d0 7d 3e 54 30 7b 3e df 0b 7d 3e d9 46 85 be
       0.2478674 0.24530154 0.2471156 -0.26030615
0000e0 a4 7b 72 be 37 f8 77 3e 1e 95 c5 3d 9d a5 60 3e
       -0.23679978 0.2421578 0.096475825 0.21938176
0000f0 3a 5d 43 3e 11 74 71 be 97 5c 2e 3e 53 1a 68 be
       0.19078532 -0.23579432 0.17027508 -0.22666292
000100 ea 7c 57 3e 49 8d 8e be a6 8a 6e 3e 92 d2 88 be
       0.21043745 -0.27842167 0.23295078 -0.26723152
000110 4b 6e 8a 3e 6b 6e 20 3e 00 7d 5a 3e cd f3 19 3e
       0.27037272 0.15667121 0.21336746 0.15034409
000120 17 c3 2e be ed bf 63 be f2 10 82 be d1 89 57 3e
       -0.17066608 -0.22241183 -0.25403553 0.21048667
000130 f9 9f 5d be 4c 52 8a 3e 09 cd 19 be 33 96 07 3e
       -0.21643056 0.27015913 -0.15019621 0.1324089
000140 cd 8c 59 be 41 b8 8e be a4 f4 05 be 69 98 77 be
       -0.21245117 -0.2787495 -0.13081604 -0.24179234
000150 a4 6b fa bd ef a8 69 bd aa 5d 22 be 3b 0f 05 3e
       -0.12227562 -0.057045873 -0.15856043 0.12994091
000160 76 e2 7a 3e c2 af 03 3e d3 05 74 3e 2c f0 b8 3c
       0.2450045 0.12860015 0.23830347 0.02257546
000170 22 f8 7e be ff 1c 36 be da c9 8c 3e f7 d9 81 3e
       -0.24899343 -0.17784499 0.2749775 0.25361606
000180 7b 8f 66 3e c5 46 79 be 23 47 6a be 42 75 33 be
       0.22515671 -0.24343403 -0.22878699 -0.17525199
000190 51 e1 80 be 4d b6 87 be 08 b7 1d 3e 24 42 6b be
       -0.25171903 -0.26506272 0.15401852 -0.2297445
0001a0 77 e4 5a 3e 7d 60 6f be 93 fc 73 3e 7e 57 81 be
       0.21376215 -0.23376651 0.23826818 -0.25262064
0001b0 37 71 73 3e 40 20 11 3e 68 13 4e be a8 74 90 be
       0.23773657 0.14172459 -0.2012459 -0.28214002
0001c0 a3 e9 74 3e b8 3e 34 be e0 e0 86 3e 4e 39 16 3e
       0.2391725 -0.1760205 0.2634344 0.14670298
0001d0 35 77 78 be 33 d0 7e 3e fa 73 84 3e 69 2c 64 3e
       -0.24264224 0.24884109 0.25869733 0.22282566
0001e0 1e e4 7b be 0a 06 75 3e 28 bf 93 3e 11 ba 7b 3e
       -0.24598739 0.23928085 0.28856778 0.24582697
0001f0 2b a0 83 3e d9 fe 07 3e d1 69 7e be 40 ef 60 be
       0.25708136 0.1328081 -0.24845053 -0.21966267

reward_backbone.0.weight f4 [128, 22]
000000 c5 3b 20 3e 4d ed 19 3e 86 d4 8f bd a6 23 c0 bd
       0.156478 0.1503193 -0.070229575 -0.093817994
000010 ae 4a 04 3c 8c 7e d1 3d b1 34 97 bd 98 9c 99 bd
       0.008074446 0.10229215 -0.07383097 -0.07500571
000020 59 ba 95 3d f2 bf 00 be 7c 84 bc 3c f6 91 51 bd
       0.073109336 -0.12573221 0.023012392 -0.05116459
000030 a0 e1 f3 3d 33 d6 d5 3d 24 72 01 be 43 60 d2 3c
       0.11908269 0.10441246 -0.12641197 0.025680667
000040 77 bd e4 3c bb 37 6c 3d 9b 02 07 be 8c 15 11 3c
       0.027922375 0.057670336 -0.13184588 0.008855235
000050 75 23 52 3e f7 9e d6 3d 60 95 c7 3d 8a 9a a4 bd
       0.20521338 0.10479539 0.09745288 -0.080372885
000060 34 df e8 3d 20 f7 d2 3c 7a 83 0e be 32 57 22 bd
       0.113706976 0.025752604 -0.13917342 -0.039633937
000070 e7 64 20 be 43 64 b6 3d 2d 4e 3f 3e ce a6 3d 3e
       -0.15663491 0.08905842 0.18682165 0.18520662
000080 cd 26 21 3e 99 11 b6 3d 7f fa 94 39 b1 19 89 be
       0.15737458 0.08890075 0.00028415394 -0.26777413
000090 2f 08 32 3d cb 76 59 3e aa 84 0b 3d 9c 49 83 bd
       0.043464836 0.21236722 0.034062065 -0.06410524
0000a0 91 60 ca 3b 32 71 b8 3d d7 a7 9e 3d dd 38 01 be
       0.0061760624 0.09005965 0.07746857 -0.12619348
0000b0 cf 04 c7 bc 6a 38 75 3d c3 eb 39 bd b8 d3 5c bc
       -0.024294285 0.059868254 -0.045390856 -0.013478212
0000c0 ff 02 36 3e d3 77 76 3e 62 27 43 3e 3c ea 46 be
       0.1777458 0.24069147 0.19057992 -0.19425291
0000d0 69 b4 0b bd 8f 6b e3 bd fe ca 7c 3d 59 37 56 bc
       -0.0341076 -0.111044995 0.061717026 -0.013074719
0000e0 bf a4 8e 3d e0 b8 ba 3c 2f 86 20 3e 2b 72 44 3e
       0.069650166 0.022793233 0.15676187 0.19184177
0000f0 a6 65 13 be a4 26 d8 bd b1 6f 86 bd 5a 3e c7 3d
       -0.14394245 -0.10554245 -0.06564272 0.097286895
000100 53 3e 84 3d 2c cf de bd 7d dc 12 be b2 27 76 b9
       0.064572 -0.10879359 -0.14341922 -0.00023475176
000110 53 40 04 be 73 52 7a bc f6 08 2f bd 2e e6 87 3e
       -0.12915163 -0.0152784465 -0.042733155 0.265428
000120 ef 42 f3 3d ea 6a 06 be a9 1a 8e bc b0 43 81 bc
       0.11878001 -0.13126722 -0.017346697 -0.015779346
000130 c5 a1 e6 3c 4f 17 a1 bd 08 6a 6e bd 46 0f 0b 3e
       0.02815331 -0.07865774 -0.058206588 0.13580045
000140 ad 23 eb 3c f9 3a b0 bc d1 89 35 3d b2 71 20 3e
       0.028703535 -0.021512495 0.044320885 0.15668371
000150 28 ec 3b 3d e7 2d 92 3c f5 3c 7b bd 92 1d 05 3e
       0.045879513 0.017844154 -0.06133743 0.12999561
000160 87 07 18 3e ce 4a d8 bd 59 00 78 bb f3 97 46 3c
       0.14846621 -0.10561143 -0.0037842004 0.012121188
000170 17 a7 d5 bc 9d 0a 8d bd fa 2b b7 3d 22 0f 66 be
       -0.026080651 -0.0688679 0.08943935 -0.2246671
000180 5b ad 09 3e 9b e9 4b 3c 06 21 5b 3d de ce 32 3d
       0.13445036 0.012445833 0.05349829 0.043654315
000190 12 da 29 bd f4 dd bb 3d 88 e5 a3 ba 3d e5 60 3c
       -0.041467734 0.091731936 -0.0012504319 0.01372653
0001a0 af 10 9c 3c cb a9 9e bc 4c 33 00 3b aa df 0d be
       0.019050924 -0.019368073 0.0019561825 -0.13854852
0001b0 c9 f8 e2 3d ae 00 31 3c ce 9b 1d bd fe fd 2a be
       0.11082608 0.010803385 -0.038478665 -0.16698453
0001c0 44 8a 30 3e f8 74 d5 bc f4 7b e0 bd 31 b1 c2 3d
       0.17240244 -0.026056752 -0.10961142 0.09506453
0001d0 3c 7b 6d 3e fc 10 39 3e ea d1 25 bd b2 04 da bc
       0.23191541 0.18072885 -0.040483393 -0.026613567
0001e0 90 9c 0f 3d 94 13 10 be 44 a6 bd bd d5 05 67 3d
       0.03506142 -0.14069968 -0.09260228 0.056402046
0001f0 dc b4 8c bd df 97 36 be a3 58 ed bd fd b9 a2 bb
       -0.06870434 -0.17831372 -0.11589172 -0.004966019
000200 88 a4 0c 39 57 49 93 bd 58 1f 72 3d c8 2b 21 be
       0.00013412733 -0.07191723 0.059111923 -0.15739357
000210 34 cc b7 bd 40 ce ba bc 23 1d b1 3d 4f 83 fc 3d
       -0.089744955 -0.022803426 0.086481355 0.123297326
000220 0c 2c 0c bd 96 67 81 bb 70 d0 cd 3c 62 13 0f bd
       -0.034221694 -0.003949116 0.025123805 -0.034930594
000230 5e 6d b1 bd b8 0c ea bb 40 95 00 3e fb 9b be 3d
       -0.08663438 -0.0071426295 0.12556934 0.09307095
000240 e4 f2 91 3d 8c 5b 83 3b 40 7f 37 3e 55 ac 52 be
       0.07126406 0.004008716 0.17919636 -0.20573552
000250 3f f6 9a bd 73 4a 3a 3d d5 d2 ef bb 99 30 78 3c
       -0.07566499 0.045481157 -0.0073188343 0.015148305
000260 6f 98 0e 3e 80 2d 51 bd fc 74 02 be 91 16 00 3d
       0.13925336 -0.051068783 -0.12739938 0.03127152
000270 8a b6 c8 3d 10 81 49 3e f7 d1 53 bd c7 9c 5e be
       0.098004416 0.1967814 -0.05171391 -0.21739493
000280 a6 8a 67 3c 85 56 63 bd 54 bd 0c bd 16 b5 ed 3b
       0.014132177 -0.055502433 -0.034360245 0.007254253
000290 08 db 9d bd 49 59 f1 3d ff 2c a8 bd 41 1b bf bc
       -0.077077925 0.11784608 -0.08211707 -0.023328425
0002a0 cc 59 e2 bd c3 41 21 3d 46 c3 54 3d 22 f0 97 3d
       -0.11052284 0.039369356 0.05194404 0.074188486
0002b0 33 46 84 3e c9 b3 16 be 3b ef aa bd c3 25 35 bd
       0.25834808 -0.1471702 -0.08346411 -0.044225466
0002c0 40 8e e4 3d 96 45 b9 bd 0b ed a6 bd 4d 9e 20 be
       0.111599445 -0.090464756 -0.08150681 -0.15685387
0002d0 86 9e 1e 3d 57 ba 34 bd 69 09 b0 bc 53 31 7a bd
       0.0387254 -0.04412302 -0.021488862 -0.061082195
0002e0 92 d8 f3 3d d6 70 1c bc 4f f2 5e bd 11 a6 33 3d
       0.11906542 -0.009548387 -0.054430302 0.043859545
0002f0 5a e1 cb 3c f7 14 c3 3d 6d bb 86 be 72 cd dc 3d
       0.02488773 0.09525483 -0.2631487 0.10781373
000300 1c d6 cf 3c c7 32 1d be 47 a4 6a bd 6e ef 2f bd
       0.02537065 -0.15351401 -0.057285573 -0.042952947
000310 38 28 8c bd 3f 4d c2 bd 38 a5 c4 3b e9 1f ac bd
       -0.068436086 -0.0948739 0.006001141 -0.08404524
000320 b1 cd 95 bd ea 47 63 be 54 f5 86 bd 69 17 24 bd
       -0.07314623 -0.22195402 -0.065897614 -0.04006139
000330 0c 39 20 be 33 a0 95 3d ba f8 72 bd 9c 4c 37 3e
       -0.15646762 0.07305946 -0.059319235 0.17900318
000340 4d fe 70 3e c3 9e 30 3e 26 53 92 3b f8 fa 99 3e
       0.23534508 0.17248063 0.0044654785 0.30074286
000350 49 75 47 bc bb c9 7d 3d ac dd d4 3d 98 15 2a 3c
       -0.012173959 0.061959963 0.10393843 0.010381125
000360 1e 15 5f bd 10 df 9f bd c7 7b 7f bc 9d c7 b0 bd
       -0.0544635 -0.07806218 -0.015593476 -0.08631823
000370 9e f0 f9 bd df 18 1d be 82 3c 1f 3e ec 3d 16 3d
       -0.12204097 -0.15341519 0.15550426 0.036680147
000380 c5 0d cb 3b 89 f7 4d bc f6 5e 02 be ee 3e 0f be
       0.00619671 -0.012571224 -0.12731537 -0.1398885
000390 dd 22 1d bd 47 2a 7a bd ca 80 da bc f6 5b cf bc
       -0.038363326 -0.061075475 -0.02667274 -0.025312405
0003a0 7b af 7e bc 89 4d 3f be 68 85 2d be 3e 89 17 3c
       -0.0155447675 -0.18681921 -0.16945422 0.00924903
0003b0 09 d8 cd 3d 1d 11 a8 3b 2d 1c 11 3d 92 45 d9 3c
       0.10050971 0.005128993 0.03542726 0.026522432
0003c0 ef 7e 26 be 1c 19 83 3c b1 8b 04 be d3 25 7a bc
       -0.16259359 0.016003184 -0.12943913 -0.015267807
0003d0 93 8c 0d 3e d3 2a d3 3d bb 5c 75 bd 7c 9e ee bd
       0.13823156 0.103109024 -0.059902888 -0.11651322
0003e0 ca 48 b3 bd 6c a1 45 3d 17 51 dc 3d 3a c3 d5 3d
       -0.08754118 0.048249647 0.10757654 0.10437627
0003f0 4c a7 a5 bd 7e d9 e5 bd 8a 9f 3e 3c f5 27 2b 3d
       -0.0808855 -0.11223124 0.011634717 0.041786153

reward_backbone.0.bias f4 [128]
000000 3d 55 60 3c 47 bd 67 bd ec 91 8a bd 3b d5 82 be
       0.013692197 -0.056576993 -0.06766114 -0.25553307
000010 19 25 8d 3e b3 47 2b bd c6 29 df bc 7b 7d 41 3b
       0.27567366 -0.041816425 -0.027241599 0.0029524255
000020 56 cd 21 be 72 c4 f7 3b 7f dc 65 bd 64 13 25 be
       -0.15800986 0.00756126 -0.056118485 -0.16120678
000030 f4 98 81 3c 18 13 25 bd 67 11 f0 3d 83 88 84 3e
       0.015820004 -0.040301412 0.11722069 0.258854
000040 6f 53 b4 3c bc dd 2b 3d 50 a7 c0 3c d5 2b 27 bd
       0.02201244 0.04195951 0.02351728 -0.040813286
000050 24 77 49 bd 0e a4 e4 bc 5a 79 9a 3b a4 a8 b7 bd
       -0.049185887 -0.027910259 0.0047141733 -0.089677125
000060 1c 04 d9 38 47 cc 95 3c 3b 1b 40 3d b3 10 20 3d
       0.00010348132 0.018285884 0.04690097 0.039078426
000070 85 52 01 bb 30 20 53 3e 6f fb a7 bc 9f 36 56 be
       -0.0019733023 0.20617747 -0.020505635 -0.20919274
000080 d3 29 cd 3c 73 ef 7b bd f7 52 2f 3e 99 eb a1 3d
       0.025044357 -0.061507653 0.17121492 0.07906265
000090 59 6a 62 3e b6 7d 47 3d 8d d3 04 bd a9 a7 6b 3d
       0.22110881 0.04870387 -0.032428313 0.05753294
0000a0 8a 56 67 3d 96 65 3d bc e7 5d 1f be 69 01 63 bc
       0.056479014 -0.0115598645 -0.15563165 -0.013855317
0000b0 43 99 37 bd db a1 5c bb ec 23 45 bd 63 2a 43 be
       -0.044823896 -0.003366581 -0.04812996 -0.19059138
0000c0 8f f2 cb bd d1 08 8c 3c 2c 18 b1 bd c2 06 dd bd
       -0.09958374 0.017094048 -0.086471885 -0.107923046
0000d0 fd 68 21 3c f9 9d 01 3e c5 c2 29 bd 1e 9d f2 bd
       0.009851691 0.12657918 -0.041445512 -0.11846374
0000e0 64 67 42 ba 14 fd 60 3e c6 16 49 bd bb c0 4f 3d
       -0.0007415919 0.21971542 -0.049093984 0.05072091
0000f0 a1 1a 8b 3d 8e e1 aa 3c b9 8f 8a 3c 91 a8 7a 3e
       0.067921884 0.020859506 0.016914235 0.24478365
000100 e1 f4 1b 3b 28 ff 45 3d 14 02 e0 bc 9f bc 1b 3d
       0.0023797082 0.04833904 -0.02734474 0.03802168
000110 64 de 73 bc f8 b8 96 bd ff 7a fc 3b e7 34 54 be
       -0.014884565 -0.07359499 0.007705092 -0.20723306
000120 b9 0e 84 3d 9a d8 26 3d 66 49 63 be 3e f3 08 3e
       0.064481206 0.04073391 -0.22195968 0.1337404
000130 4a be 7c bd 93 6e 8d bd 3a 32 15 be 93 b7 63 3d
       -0.06170491 -0.06905856 -0.14569941 0.055594992
000140 f0 e2 8a 3d 17 28 5e 3d 63 9a 38 bc 92 27 5c bd
       0.06781566 0.05423745 -0.011267277 -0.053748675
000150 bf 52 18 bc 09 59 95 bd 6a ce af 3c d1 fa 29 3c
       -0.009297072 -0.07292373 0.02146073 0.010374741
000160 37 3d 00 3d df 07 6c be ed 04 87 bc d4 1e 52 bd
       0.03130838 -0.23049878 -0.016481841 -0.05129893
000170 79 80 80 be 29 22 03 3e f0 0b 6c 3d cc e7 f7 3c
       -0.25098017 0.12806 0.057628572 0.030261897
000180 c4 1c 1f bd 57 96 70 3e 18 65 88 3e a8 f4 ca 3d
       -0.038845792 0.2349485 0.26639628 0.09909946
000190 2c 96 b7 bc ff fb 57 3d 18 f2 90 be d8 68 5f bb
       -0.022410475 0.052730557 -0.28309703 -0.0034089591
0001a0 61 f3 01 3e 1a bb dd 3b 04 24 ad 3a ea 60 fc bb
       0.12690498 0.006766689 0.0013209586 -0.0077019827
0001b0 f9 6a 03 be 0f 7d 81 3d 35 07 e9 3c b2 b1 77 bd
       -0.12833776 0.06322681 0.02844582 -0.060472198
0001c0 eb 1b 59 3d bc f4 2b be 26 d9 ed bd cc eb 15 3d
       0.05300514 -0.16792578 -0.116136834 0.036601827
0001d0 60 8b 1f 3d 50 2f 27 bd 05 a7 b5 bd 17 3a 32 3d
       0.038951278 -0.040816605 -0.08869747 0.04351243
0001e0 20 63 61 3d 7f 1b 33 be a6 03 4e 3e ef 3e 04 3e
       0.055026174 -0.17490958 0.2011858 0.12914632
0001f0 35 a0 46 bd bb 21 44 3e ec 74 cf bd 77 09 3e 3d
       -0.04849263 0.19153492 -0.10129723 0.046395745

reward_backbone.2.weight f4 [128, 128]
000000 e7 31 71 3d 70 da 71 3d d8 46 1b 3d 5d c2 0d 3e
       0.05888548 0.05904621 0.03790936 0.13843675
000010 fb 69 e9 3b 18 51 30 be 77 28 50 3b af 19 fe 3c
       0.0071232296 -0.17218435 0.00317624 0.031018106
000020 21 6d f1 bd c5 94 a5 3a 95 4e 03 3e b7 f9 c2 3d
       -0.11788393 0.0012632838 0.12822945 0.095202856
000030 84 5e 3c 3d f1 19 20 3e bc c6 94 3c f4 c7 06 be
       0.045988575 0.15634896 0.01816117 -0.13162214
000040 72 ec 1b be 76 c9 50 3e 52 01 d4 3d 20 8a ff 3d
       -0.15226915 0.20389351 0.10351814 0.12477517
000050 00 ce f8 3d e8 58 8c 3d dc f7 2f be 54 2a 3c 3e
       0.121486664 0.06852895 -0.17184395 0.18375522
000060 75 d9 42 bd f2 36 05 3e a7 42 1e 3e 2b 54 03 be
       -0.047570664 0.13009241 0.15455113 -0.12825076
000070 fc 75 64 bd 1b 1a f0 bd 67 c5 c4 bd 5a f8 d5 bb
       -0.05577658 -0.11723729 -0.09607964 -0.00652985
000080 5f b7 fd bd 91 b2 3b be 22 4f e5 bd f7 db f9 bb
       -0.12388491 -0.18329836 -0.11196734 -0.007625099
000090 33 d5 a2 bd e1 29 8d bd a0 a5 24 3d de ba 67 bd
       -0.07950821 -0.068927534 0.040197015 -0.056574695
0000a0 fd 69 cd bc 29 78 62 3d 38 19 fd bd cf 3a 01 3e
       -0.025074953 0.055290375 -0.12358326 0.1262009
0000b0 da 21 fd bd d7 78 c7 3d 88 8d a4 3c 9c 32 a8 39
       -0.12359972 0.09739845 0.020087019 0.00032081164
0000c0 22 27 74 3d dc f7 00 bd fd b5 e5 3c 35 bd f0 3d
       0.059607632 -0.031486377 0.02804088 0.117548384
0000d0 84 84 25 bd de 91 cb 3d 3e e4 1f bd 71 cd 9e 3d
       -0.04040958 0.09939931 -0.039036028 0.077540286
0000e0 52 f3 59 bd 12 97 3b 3d d6 27 b9 3a 97 6d 8d 3d
       -0.053210564 0.04579837 0.0014126252 0.06905668
0000f0 10 90 fc 3c 7a f1 3f bd d2 2f 9d 3d d9 55 90 bd
       0.030830413 -0.04686115 0.076751366 -0.07047624
000100 25 b1 d9 3d c2 8e a4 3e a7 35 61 bd 96 8b b3 bd
       0.10629491 0.32140166 -0.054982807 -0.08766858
000110 b0 50 58 be da 60 af be ce 02 33 3e 18 13 24 be
       -0.2112453 -0.3425358 0.17481539 -0.16022909
000120 3e 92 06 be 26 7f 4f 3e 93 6e 8c be b5 34 5e 3e
       -0.13141724 0.20263347 -0.2742811 0.21699794
000130 cf f8 c8 3d eb 46 4a 3e cb 6c c9 bc 64 17 33 3e
       0.098130815 0.19753616 -0.02458801 0.17489392
000140 85 51 c4 3d 87 75 99 ba 98 43 1b be 09 30 ba bd
       0.09585861 -0.0011708 -0.15162504 -0.09091193
000150 07 ac 06 3e 20 4a 76 be b4 b3 34 bd 6a bc 59 be
       0.1315156 -0.24051714 -0.04411669 -0.2126328
000160 54 20 2e 3d b9 2a ef bd 49 ac 81 bd a8 27 b0 3c
       0.0425113 -0.116780706 -0.06331689 0.021503285
000170 61 04 b4 3e 32 38 f6 3d de 60 29 be 98 a8 82 bd
       0.3515959 0.12022437 -0.16540858 -0.06379813
000180 ff a9 97 3e f9 0b 15 3e 3d 7c c6 bc 8e 6c 89 3d
       0.29621884 0.14555348 -0.024229163 0.06710158
000190 9c 1c c0 bc ef 27 40 3d cd a5 68 be 9e 27 e2 bc
       -0.023451142 0.046913084 -0.22719498 -0.027606782
0001a0 d5 a6 79 bd db 94 ed bd b1 1f 44 3d 57 41 4f 3e
       -0.06095012 -0.116006576 0.047881786 0.20239769
0001b0 04 4b 9a bd 1a 60 0a 3e 47 62 4a 3e a8 b1 40 bb
       -0.07533839 0.13513222 0.19764052 -0.0029402766
0001c0 3d ff 82 be f6 59 00 3e 3c 9a 71 3e f1 97 50 3d
       -0.25585356 0.12534317 0.23593992 0.050926153
0001d0 07 1e 3d 3d de 30 c5 bd ed 9b b6 3d 18 2e 02 3e
       0.046171214 -0.09628461 0.08916459 0.12712896
0001e0 94 c5 3a bd 98 f9 14 bd ec a0 1d 3e bb a3 e8 bc
       -0.04559858 -0.036370844 0.15393418 -0.028398385
0001f0 b9 32 12 3e 53 9f 3a bd e5 f5 09 3e 79 2d 9c bd
       0.14277162 -0.0455621 0.13472708 -0.07625861
000200 ce ad 84 3d b8 de 45 bd 23 37 bf bd 9c e8 c1 3d
       0.06478463 -0.048308104 -0.09336688 0.09468195
000210 29 e8 df bd cd 38 7c bd bf f0 eb bd eb b9 8d 3e
       -0.10932953 -0.061577607 -0.11520528 0.27680907
000220 45 92 3e 3d 46 39 3c be ea 79 00 3e f8 4f b4 3d
       0.046526212 -0.18381223 0.12546507 0.08804315
000230 e4 e0 12 3e f8 ca 19 3e c7 a6 25 3d a7 33 af be
       0.14343601 0.15018833 0.040442254 -0.34219095
000240 d1 b4 36 3e 87 47 af bc 43 8e 54 bd 99 2a 2d 3e
       0.17842413 -0.021396412 -0.051893484 0.16910781
000250 af a1 fb 3d 8b 43 af bd 99 20 27 3e ec e7 93 bd
       0.12286698 -0.08557805 0.16321029 -0.0722197
000260 05 4a ce bd 66 c6 fb bd 95 c7 92 3d 87 54 9f 3d
       -0.10072712 -0.12293701 0.071669735 0.07779794
000270 ae d7 1f 3e d2 8e 4b be 8f aa 88 bc 7a 28 50 3e
       0.15609619 -0.198787 -0.016682891 0.2032794
000280 3d 59 b1 3d 03 0b 9a bd 2b 94 fd bc 75 c8 7b bb
       0.08659599 -0.075216316 -0.030954441 -0.0038419042
000290 05 82 34 bd a0 1d 23 bc 26 f0 a8 bd e6 49 b1 be
       -0.04406931 -0.009955794 -0.0824893 -0.34626693
0002a0 db cc d1 3d df 5f f8 3c 66 cf 69 3d 0a 2c 90 3d
       0.10244151 0.030319152 0.057082556 0.0703965
0002b0 56 00 14 3e b7 8f c8 bd 6c 62 ef 3d 58 12 08 3e
       0.14453253 -0.097930364 0.11688694 0.13288248
0002c0 22 b0 96 3e cf 19 2d bd f0 51 f8 bc 03 40 86 3d
       0.29431254 -0.04226094 -0.030312508 0.06555178
0002d0 00 ad e2 bd 6a e6 69 3b f7 2f 98 3d 8e 7f b6 3d
       -0.110681534 0.0035690316 0.074310236 0.08911048
0002e0 ed 66 a0 bc 2c 6f 56 bc 63 9f cf bd 17 bd 70 bd
       -0.019580329 -0.013088029 -0.101378225 -0.05877408
0002f0 49 21 f3 bc b0 d0 15 3e 40 56 19 3e ed 1f 46 be
       -0.029678958 0.14630389 0.14974308 -0.19348116
000300 10 8c df bc bb 8c 0e be 88 e9 56 3d 33 dd 0c 3d
       -0.027288467 -0.13920872 0.052468807 0.03439064
000310 28 76 a8 3c 9f f4 67 3d 3d 31 ac bd 7c bf cd 3d
       0.020564154 0.056629773 -0.08407829 0.10046288
000320 33 0c 35 bb 5a 5d 30 3d f9 8b 8c 3d 09 64 c4 be
       -0.002762568 0.043057777 0.06862635 -0.3835757
000330 74 52 11 3e ff 61 ef 3d ab b7 8b bd 92 e8 91 be
       0.1419161 0.11688613 -0.06822141 -0.2849775
000340 9b 71 f0 bc 49 52 88 bd a5 10 81 3e c5 b8 e8 ba
       -0.029351046 -0.0665632 0.2520801 -0.0017755261
000350 1b c5 f5 bd c5 ac 4a bd 50 28 92 3d b7 c6 09 3e
       -0.120004855 -0.049481172 0.07136595 0.1345471
000360 86 73 5b 3d 93 f4 c2 bd 2b 5c b0 3e 35 fb aa 3d
       0.05357697 -0.09519305 0.3444532 0.08348695
000370 eb 4b a9 3c 03 eb a6 3d 47 6b 8a bd 8d 5f 8d 3d
       0.020666083 0.08150294 -0.06758743 0.069029905
000380 57 db 72 3d c2 62 48 be 5d 1c 21 be 9c 2d 15 3e
       0.05929121 -0.19568923 -0.15733476 0.1456818
000390 4d 7a 01 3e 63 f8 2e bd f2 e6 1e bd 91 97 5f 3e
       0.1264431 -0.04271735 -0.038794465 0.21835162
0003a0 6d 83 0f 3e 3d 90 2e 3e b2 d2 f3 bd 4e 05 16 3e
       0.14014979 0.1704721 -0.11905421 0.14650461
0003b0 5b a7 10 bd 93 d9 d0 3d e2 aa a0 3d bc d0 a2 be
       -0.035315853 0.10197749 0.07845093 -0.31799877
0003c0 ef 19 17 be 85 0a 24 3e 0a 6f 12 3e af 5d 93 bd
       -0.14755987 0.16019638 0.1430017 -0.07195603
0003d0 e1 60 a7 bd 9b ed 1c 3e 98 b7 95 bd 0f 1c e5 bd
       -0.08172775 0.15325014 -0.07310408 -0.111869924
0003e0 1d d2 69 bd a4 2f dc bc 21 0c 3a bc a7 99 0c be
       -0.057085145 -0.026878186 -0.011355431 -0.13730489
0003f0 ee 92 35 3d 40 c1 4a be 81 c2 c1 3d f9 2f 63 bb
       0.044329576 -0.19800282 0.09460927 -0.0034666045

reward_backbone.2.bias f4 [128]
000000 5f d3 30 3d ac c8 cb bd a3 1e 20 3e 07 7f ce 3d
       0.04317033 -0.099503845 0.15636687 0.10082822
000010 ca 58 76 be ad 75 6f 3e 0f fc 04 3d c2 45 30 3c
       -0.24057308 0.23384733 0.032466944 0.010758819
000020 ef ed 95 bb 70 d1 64 bd 49 ab 88 bd d2 b3 de bd
       -0.004575483 -0.055863798 -0.06673295 -0.10874142
000030 a3 4a ac bd 87 6b c4 bd 97 b5 0f 3d 65 6b 74 bd
       -0.08412673 -0.09590822 0.035085287 -0.059672732
000040 db 50 06 be 97 83 9d 3d d3 ca 36 bd f5 0c c1 3d
       -0.13116781 0.076911144 -0.044627022 0.094262995
000050 12 44 90 bd 41 2e 60 bd ed 1c 2c 3e 05 44 ce bc
       -0.070442334 -0.05473161 0.1680791 -0.025178919
000060 cd e1 81 3d 40 ea 83 bc 00 d7 c0 bb 65 35 9a bd
       0.06341896 -0.01610291 -0.005885005 -0.075297154
000070 6d bf 8d 3d ac 12 ac 3d 07 bd d6 3d 9c 76 06 bd
       0.06921277 0.08401999 0.10485273 -0.03282796
000080 9c b3 91 bd c8 22 d2 3c b0 7a ac bd 40 f7 a2 bd
       -0.07114336 0.02565135 -0.08421838 -0.079573154
000090 b0 67 16 bd 2c c3 35 3c ae d0 b7 3d b9 9f e5 3d
       -0.036719978 0.011093896 0.08975349 0.11212105
0000a0 c9 54 7b 3d 7d 0e 8a 3d 08 23 a5 3d 2e 1b 49 be
       0.061360154 0.06741045 0.08063322 -0.19639274
0000b0 26 8a 4c bd 1e ff 9b 3d 4c 45 15 3d f1 c9 43 bd
       -0.049936436 0.07617019 0.03644304 -0.04780001
0000c0 b7 7a c4 bd ae 04 97 bc 5a e6 ad 3d 61 f8 85 3d
       -0.095937185 -0.018434849 0.08491202 0.06541515
0000d0 d9 82 26 bd 81 84 bf bd be ef 97 bd a9 86 aa 3d
       -0.04065213 -0.09351445 -0.07418774 0.08326466
0000e0 da 75 a7 bd 42 ca f2 3d fe 93 2c bd 97 7e 1f bb
       -0.08176775 0.11854984 -0.042133324 -0.0024336928
0000f0 3b 77 7c 3d f6 54 8d 3d bd 35 ec bc b5 e2 a7 bd
       0.061637145 0.06900971 -0.028834218 -0.08197538
000100 3a 2a d3 bd b7 c2 b8 bd 0c f5 b3 bd b9 1d 08 3e
       -0.103107885 -0.09021514 -0.08786973 0.13292588
000110 b2 1e c0 bc 32 60 da bd 33 28 bb bc 13 71 98 3d
       -0.023452137 -0.10662879 -0.022846317 0.07443442
000120 6c e0 f8 bd 33 78 95 bd 0f 2c 1f 3d 57 c8 23 bd
       -0.1215218 -0.07298317 0.038860377 -0.03998598
000130 e3 42 20 3d 4c 78 4a 3d e8 17 9b bd 57 f1 a9 bd
       0.03912629 0.04943113 -0.07572919 -0.08297985
000140 e0 a5 a0 3d 58 6e 91 3d a0 63 20 bd ad 80 a9 bd
       0.07844138 0.071011245 -0.03915751 -0.08276496
000150 93 4d 61 bd 16 10 cf 3c c9 f9 f2 bd 9b c4 86 bd
       -0.05500562 0.025276225 -0.11864049 -0.06580468
000160 b2 85 d0 bc 31 81 25 3d e9 86 0d bd 3b bc a2 3d
       -0.025454376 0.04040641 -0.03455249 0.07946058
000170 b5 a8 90 3c 44 c5 2a 3d 2e b7 e7 bc 3e ce 29 bd
       0.01765857 0.041692033 -0.02828559 -0.041456454
000180 13 d6 bc bd 1a a4 73 bd de 29 26 bd a1 1d cb 3d
       -0.09220519 -0.05948267 -0.04056727 0.09917761
000190 d9 c5 66 3c 8e 36 2d 3d d7 ca d2 3d c1 75 aa 3d
       0.0140852565 0.042288356 0.10292595 0.08323241
0001a0 a5 11 60 bd a1 71 c1 3d 82 e4 15 3d 35 1d 05 3d
       -0.054704327 0.09445501 0.036594875 0.032498557
0001b0 1d 9d d5 bd de a8 42 3d 75 d9 aa 3d 91 e1 7b bd
       -0.104303576 0.047524326 0.08342258 -0.061494414
0001c0 87 cf a4 bd 02 d5 10 3c eb e5 03 3e 59 1a c8 3d
       -0.08047395 0.0088398475 0.12880675 0.097706504
0001d0 52 05 41 bd f2 34 ba bd bc aa 6e bd 55 96 84 bd
       -0.047124214 -0.0909213 -0.058268294 -0.06473986
0001e0 9c eb 45 3d fb 08 68 bd 89 18 a9 bd 07 89 a1 bc
       0.048320398 -0.05664919 -0.08256633 -0.01971866
0001f0 00 91 cf 3d 37 f3 85 bd 11 d7 43 be b3 a1 36 3d
       0.101350784 -0.0654053 -0.1912501 0.044587802

cost_backbone.0.weight f4 [128, 22]
000000 d8 7d 1e be a1 cf 0d 3e 12 4c f6 3d 81 7d b0 bc
       -0.15477693 0.13848735 0.12026228 -0.02154422
000010 47 8b 4e bd 03 b4 a5 3c 5e 35 9c bd be de 28 be
       -0.050425794 0.020227438 -0.076273665 -0.1649122
000020 7a ec f1 3d 54 c5 a8 3d a3 e9 ec 3d 37 ea 2e 3e
       0.118126824 0.08240762 0.11568 0.17081533
000030 5a d5 0c be b3 b0 83 3d 30 b7 3d bd ea 9b 5a 3e
       -0.13753262 0.06430187 -0.04631728 0.21348539
000040 fb cb 1e 3d df 82 05 be df 9c ab 3d 7e 70 8b 3d
       0.03876875 -0.13038205 0.0837953 0.068085656
000050 00 4a 4a be f3 c9 d3 b9 0a e5 40 3d b7 f8 26 be
       -0.19754791 -0.0004039552 0.04709343 -0.16305815
000060 36 07 9f bd 9b 2b e9 3d 78 56 68 3d 73 d9 c9 3d
       -0.07765047 0.1138527 0.056723088 0.09855928
000070 8a 0f 90 3c 0d 83 ac bc 37 cf 39 be 0c b7 a3 be
       0.017585535 -0.021058584 -0.18145452 -0.3197559
000080 a0 95 cf bd e7 63 10 be 29 d2 53 bd 08 2c a9 3c
       -0.101359606 -0.1410061 -0.051714096 0.020650879
000090 4d 2f 83 bd d7 10 82 bc 72 ce b5 bd 4a 07 42 bd
       -0.06405506 -0.01587717 -0.08877267 -0.047370233
0000a0 d8 37 bb bd 45 85 9b 3c 42 9d 50 3e d9 be 92 be
       -0.09141511 0.018984446 0.20372489 -0.2866123
0000b0 b9 84 fa bd 8e 56 47 be c4 5e ef 3b 1e 8f de bd
       -0.12232346 -0.19466612 0.007304998 -0.10867141
0000c0 25 ef 03 be 60 50 e5 bd 3b 65 36 bc 55 c8 9e bd
       -0.12884195 -0.11196971 -0.011132534 -0.07753054
0000d0 8b c3 3e be b0 df 40 3e 22 2f 16 3c f6 c1 68 3e
       -0.18629281 0.1883533 0.009166511 0.2273024
0000e0 0a 70 2c 3e 5c 3e 65 bc 8e 6f 6c bd e4 de d6 3d
       0.16839615 -0.013991918 -0.057723574 0.10491732
0000f0 90 b3 05 bd 08 77 b9 3d dc ac 26 bd 11 a8 d6 3d
       -0.032641947 0.090559065 -0.040692195 0.10481275
000100 67 53 2a 3e 46 9c 00 bd f8 6b b7 3d 90 97 60 3c
       0.16633378 -0.031399034 0.0895614 0.01370801
000110 38 02 d2 3d fe dc 70 3c 7a 38 9b 3d 61 9a 90 3d
       0.102543294 0.014701126 0.075791314 0.070606954
000120 f9 43 fe ba 7f bc 9f 3d a3 30 ac 3d cc 99 65 3e
       -0.001939892 0.07799625 0.08407714 0.2242195
000130 e5 c2 23 bc 79 2e bc 3d 21 1d 8b 3d dc 55 b5 bb
       -0.009995197 0.091885515 0.06792665 -0.005533917
000140 33 89 95 3d ba 5c 2c 3d f9 4b b4 3d bb 5f cc 3d
       0.07301559 0.04208062 0.08803553 0.09979197
000150 75 ac d6 bc 3a ae a2 3d c5 ec 51 3b 05 c6 eb bc
       -0.02620528 0.07943387 0.0032031995 -0.028780947
000160 7f 01 0b 3e 09 9e cc 3d cb f3 1e be 66 cd 76 bd
       0.1357479 0.0999108 -0.15522687 -0.060254477
000170 26 47 99 3d 32 c7 b9 3d 98 1c 93 3d 32 d5 90 3c
       0.074842736 0.090711966 0.07183188 0.017679784
000180 57 4c 67 3c ba 17 dc bb 41 6f 62 be 42 cd c1 3d
       0.014117322 -0.0067166956 -0.22112752 0.09462978
000190 4a 42 8a bd a5 35 54 3e ba 67 31 bd 3b 54 f2 3c
       -0.06750925 0.20723589 -0.043311812 0.02958118
0001a0 5c f6 14 3d a4 a9 c7 bc 71 28 2b 3b 67 4e 00 3e
       0.03636776 -0.024372883 0.0026116634 0.12529908
0001b0 3d b9 11 be 08 ce 81 bd 22 06 93 be 37 cd b4 bd
       -0.14230819 -0.063381255 -0.28715616 -0.08828204
0001c0 89 41 28 3d 84 af e0 3c 56 97 06 3d 8e 1d 47 3c
       0.041078124 0.027427442 0.03285917 0.0121530425
0001d0 a8 55 d5 3d d2 0d a3 bc 72 8a 41 3d 8d 6a f5 bd
       0.10416728 -0.019904051 0.047251172 -0.119832136
0001e0 7e de 55 be 55 80 be bd 85 81 1d bc 78 8c 8c bd
       -0.20885655 -0.09301821 -0.009613399 -0.0686273
0001f0 48 61 10 3e cb 98 a4 3d fb 4f 8f 3d 5c 1f 80 3d
       0.1409961 0.080369554 0.06997677 0.06255981
000200 4d 87 04 bd 0b c1 31 bd d5 9d 3a be c5 ef 13 3d
       -0.032355595 -0.04339699 -0.1822427 0.036117334
000210 18 88 8d 3a 9f f6 93 bd 29 c4 b4 3d 07 b0 09 3d
       0.0010798005 -0.072247736 0.08826477 0.03361514
000220 2a 8f 96 bd 4a 2b bd bd e2 b1 70 3d 75 d8 71 3d
       -0.07351525 -0.09236772 0.058763392 0.05904432
000230 e4 b3 91 bc 76 3c 22 3e 9a e0 a2 bb 30 ba 10 3e
       -0.017785974 0.15843377 -0.0049706222 0.14133525
000240 c8 f7 65 3e d2 90 44 3c ec df 7e 3d 26 a1 61 3e
       0.22457802 0.0119974185 0.062225267 0.2203413
000250 c8 79 53 3d fc c2 bb 3d 2e 3c 20 3c eb 32 e7 3d
       0.05162981 0.0916805 0.009779973 0.11289009
000260 98 d6 b9 3e 0d 19 17 3e f2 b5 23 3e 82 63 de bd
       0.36296535 0.1475565 0.15987375 -0.10858823
000270 1b 96 b4 bd 59 8c ae 3d 70 dc a4 bd 9a 17 79 bd
       -0.08817693 0.08522863 -0.080498576 -0.060813524
000280 45 75 89 3d 0c 5d af 3d ee 50 43 be dc e7 09 3e
       0.067118205 0.08562669 -0.19073841 0.13467354
000290 fd 53 67 3c 6d ac 80 bd 1f b6 bf bc 09 d6 bd 3d
       0.014119145 -0.062828876 -0.023402272 0.092693396
0002a0 60 61 92 3d 5a 21 07 be 0a be 06 3d 10 7f c9 3c
       0.07147479 -0.13196316 0.03289608 0.024596721
0002b0 ad 22 5b bd 48 a0 ef 3d b1 cc af be 05 2b 60 3b
       -0.053499866 0.11700493 -0.34335855 0.003420533
0002c0 e8 38 e7 bc 70 4c 76 bd 65 a2 de 3d 06 36 fa bd
       -0.028225377 -0.06013149 0.10870818 -0.122173354
0002d0 ce f8 3b 3d 8d 5d f8 bd 3a 72 99 3d 92 36 00 bc
       0.045891576 -0.121272184 0.0749249 -0.007825511
0002e0 99 b9 0b 3d 35 5f 6a 3c 27 ca 04 3e 16 b1 48 bd
       0.034112547 0.014304926 0.1296774 -0.048997007
0002f0 62 5b 94 bc 30 23 e7 3c 08 d9 eb 3d ef b9 e0 bc
       -0.018109981 0.02821502 0.11516005 -0.02743241
000300 65 30 6b bd ef 69 46 3e 3c e9 81 be e6 ff e0 bd
       -0.0574192 0.19376348 -0.25373256 -0.10986309
000310 50 6d c9 bc dc 50 81 3d 08 ea 10 3e 5e e0 b9 3d
       -0.024588257 0.06314251 0.14151776 0.09075998
000320 f7 36 4e 3d 2b 23 fc 3d 8f 88 9c 3d ba ee 92 3d
       0.050345387 0.12311395 0.07643234 0.0717444
000330 74 28 3d be 75 87 e9 bc 5b ff 91 bd da 56 e8 bd
       -0.18472463 -0.028506974 -0.07128783 -0.113446906
000340 c1 4d a4 3c de 2d 61 3e 66 10 4d be 7a d9 82 3d
       0.020056607 0.21990153 -0.20025787 0.063891366
000350 b5 8a 1d 3d b3 eb aa bd 9f 32 bd bb b3 0c 06 be
       0.03846236 -0.08345737 -0.005773857 -0.13090782
000360 c8 99 3c be 1a 21 5c bd c6 d4 41 bd 95 aa 93 bd
       -0.18418038 -0.053742506 -0.047322057 -0.0721027
000370 78 7f 1f 3e 94 f6 28 3e d5 4c 9a bd 36 a2 2d bd
       0.15575969 0.16500312 -0.07534186 -0.042391025
000380 07 d2 59 3e b1 83 d9 bd ce 84 3f be 5d 7b 4b be
       0.21271525 -0.10620821 -0.18703005 -0.19871278
000390 38 a3 f8 3d 1d 4b 08 3e e8 da 05 3e 33 95 25 3e
       0.121405065 0.13309903 0.13071787 0.16170196
0003a0 0f b3 de 3d 2b 5b 16 be 2f c6 19 be 74 f8 b9 bd
       0.108739965 -0.14683215 -0.15017007 -0.09080592
0003b0 9e 34 23 be 30 2e 6b 3e 2e 3b c3 bd d9 af 89 bd
       -0.1593804 0.22966838 -0.09532772 -0.067229934
0003c0 94 aa 32 be 4c 0c 5c bd 4f 26 d6 3d d0 b8 39 3d
       -0.17447883 -0.053722665 0.104565255 0.045342267
0003d0 4f e5 fb 3d 3f 1f 7f bd 46 0a 95 bd 2a 7e b6 bd
       0.122995965 -0.062285658 -0.0727735 -0.08910783
0003e0 68 d4 3f 3e 7f 6b b9 bd 61 45 da bd f4 2e 6c bd
       0.1873337 -0.090537064 -0.10657764 -0.057661965
0003f0 46 6a ac 3d 96 eb 7c bd 55 32 33 3d a9 01 11 3e
       0.084187075 -0.06174811 0.043749172 0.1416079
