outputs/final_pivot_margin_vs_risk_20260119_fixed/Scheme1_Margin_L0.50_seed0_fixed_precond/best_feasible.pt (torch, 981811 bytes, 68 tensors)

actor_backbone.0.weight f4 [128, 22]
000000 9d 28 70 bd 30 f9 24 3d 5c 43 93 3e f0 54 c5 3c
       -0.05863248 0.040276706 0.2876233 0.024088353
000010 df cf f2 bd da a5 3c bd d8 39 67 bd 5d 15 33 3d
       -0.118560545 -0.046056606 -0.05645165 0.043721545
000020 3f 78 0d be 0f f2 6a 3e 0b 5f 8c bd d5 2f b6 be
       -0.13815401 0.229439 -0.068540655 -0.35583368
000030 9a 21 c9 3b cb 65 02 3e 4d 0a ef bd 2c 87 be 3d
       0.006138039 0.12734143 -0.116718866 0.09303126
000040 e0 79 b5 3c b9 b7 5a bd 28 39 0f 3e 79 65 86 3d
       0.022152841 -0.053397868 0.13986647 0.06562323
000050 91 aa 55 3e 57 31 41 be 5f b9 c2 ba 72 35 77 3e
       0.20865847 -0.18866478 -0.001485627 0.24141482
000060 84 fa 38 be 7f eb e1 bd 20 ed d9 bd b2 38 3d bc
       -0.18064314 -0.110312454 -0.10640931 -0.011549162
000070 f4 36 57 3d 5a d7 8a bd e6 09 7d 3e da ad c0 3c
       0.05254264 -0.06779356 0.24710807 0.023520399
000080 5f f6 55 3e 03 0b 88 3b 3d 36 43 be 9a 12 93 3c
       0.20894764 0.0041517033 -0.19063659 0.017953206
000090 36 20 57 3d c5 0b 20 3e a7 bd 59 bd a3 56 2c 3c
       0.052520953 0.1562949 -0.053159382 0.010518703
0000a0 ae ec 2b 3d 89 5b 22 be b0 9b 6e 3d 83 17 f8 3d
       0.041973762 -0.1585523 0.058253944 0.121138595
0000b0 00 3a 1b be 43 f8 2d 3e 5e cc da bd 43 2f b4 3d
       -0.15158844 0.16989236 -0.10683511 0.08798077
0000c0 af 84 10 be 3c c0 24 bd b8 f2 c0 bd 95 8a db 3c
       -0.14113115 -0.04022239 -0.09421295 0.02679948
0000d0 a4 cd ea 3d a8 d7 3d bd c7 01 fa bd d1 bc 5a 3d
       0.11465004 -0.046348244 -0.1220737 0.053402726
0000e0 05 0c b8 3d 41 d0 5a bc e8 68 35 3e a6 2e 56 bd
       0.089866675 -0.013355316 0.177158 -0.05229058
0000f0 b6 c4 7e be c0 ee 00 bc c8 44 88 bb fb c5 95 bc
       -0.24879727 -0.007869422 -0.00415859 -0.018282881
000100 b0 68 a4 3e 37 d6 ea bd c8 ee 8a bd 2c a1 84 3e
       0.3211112 -0.114666395 -0.06783825 0.25904214
000110 e9 73 9b bc 5b e2 12 be c6 bb e1 bc 8c e4 d8 bd
       -0.018976169 -0.1434416 -0.027555358 -0.10590467
000120 7c 44 4a 3c 0d 79 d0 3d 22 e1 22 be 34 c5 00 3e
       0.0123454295 0.101793386 -0.15906194 0.12575227
000130 9d c2 64 bd 3e b7 83 be d2 08 85 ba d1 fa 63 3e
       -0.05584966 -0.2572574 -0.0010149723 0.22263648
000140 62 83 03 3b fd 3d 3f bd fc eb 8c 3d 1f 27 dc bc
       0.0020067324 -0.046689976 0.06880948 -0.026874123
000150 50 9e 20 3d 2e ea 34 3e 54 d5 aa bc ab b9 81 3d
       0.03921348 0.17667457 -0.020853676 0.063342415
000160 96 fa d7 be 80 a0 99 3d 5d 20 a0 3e 4b 67 e8 bd
       -0.4218337 0.07501316 0.3127469 -0.113478266
000170 8b 4a ed 3d 1b b2 67 3c 2e ae 62 be 94 6b cf 3d
       0.115864836 0.014141585 -0.22136757 0.10127941
000180 09 38 73 3a f5 1e 54 3d 72 97 8d bd 35 09 05 bd
       0.0009278064 0.051787335 -0.069136515 -0.032479484
000190 33 3d f4 bd 56 d7 b1 3d c7 af 00 3e 1d 06 91 bd
       -0.11925735 0.0868365 0.12567054 -0.07081244
0001a0 f7 17 8d 3d 46 f0 ed 3a 14 00 24 bd a6 b5 05 be
       0.068893366 0.0018153272 -0.040039137 -0.13057575
0001b0 7a b6 f5 3b fe 06 ae bd 81 f3 10 be 65 45 78 be
       0.0074985595 -0.084974274 -0.1415539 -0.24245222
0001c0 22 65 d8 3d 84 20 d5 3d f2 9a 8f 3d 5c 2e 34 3d
       0.105661646 0.104065925 0.07011975 0.043989524
0001d0 ee c4 83 bd 1e fd 0a be a0 97 d3 bd e9 05 a2 bd
       -0.06434046 -0.13573119 -0.103316545 -0.079112835
0001e0 7b 7a 53 3e 10 c0 03 be 35 a0 f2 3b c3 aa 31 3e
       0.20652191 -0.12866235 0.007404352 0.17350297
0001f0 c6 73 2c be 90 2b 12 bd 64 22 2b be 70 91 0a be
       -0.16841039 -0.035686076 -0.16712338 -0.13532043
000200 87 75 81 be 18 b0 d5 3c 66 55 be bd 92 30 0a 3e
       -0.2528498 0.026084945 -0.09293632 0.1349509
000210 93 2c 20 be 7c 2f 16 bd cd b4 6a bd a0 f9 5e bd
       -0.15642004 -0.03666638 -0.05730133 -0.05443728
000220 99 f2 32 be bf f5 4c be 5a 3f a8 3d 55 07 37 bd
       -0.17475356 -0.2001562 0.08215208 -0.044684727
000230 6a 95 5c 3d b4 ce 81 bc 49 d0 33 be c2 86 9d 3c
       0.05385343 -0.015845634 -0.17559923 0.019229297
000240 d4 82 7b bd e6 e8 0d be 59 8a 0c bd ba f2 33 3e
       -0.061404064 -0.13858375 -0.034311626 0.17573062
000250 7c 8e 82 3e 3a a9 dc bd d5 e5 11 3c a5 dc a5 bc
       0.25499332 -0.10774465 0.008904894 -0.020246813
000260 cc 6e 03 3e af 87 3b be 5c 26 23 3d f7 84 a4 be
       0.12835234 -0.18313478 0.039831504 -0.32132694
000270 9c ff 09 3d d5 90 b2 3d 55 db a4 3c 41 76 fb 3c
       0.033691034 0.08719031 0.020124117 0.030696036
000280 f9 07 a4 bd f7 62 be bd 3e 40 5f ba 7d b6 23 3e
       -0.08009333 -0.0929622 -0.0008516348 0.15987583
000290 08 71 1b be a1 88 a5 be 77 f6 34 3d 1a 24 90 bb
       -0.15179837 -0.32330802 0.04418036 -0.004398835
0002a0 c5 24 55 3e a1 3a ec bb 88 ac ed bb 2a 5a 00 3e
       0.20814808 -0.0072091375 -0.0072532333 0.12534395
0002b0 48 75 93 3d 9b 59 65 3e 4b 66 66 3d 4d dd 3b 3d
       0.07200104 0.22397463 0.056249898 0.045865346
0002c0 d9 0b d6 3e 76 4a 63 3d c6 39 ae bd 72 23 e5 bd
       0.41805914 0.055490933 -0.08507113 -0.11188401
0002d0 35 fe 50 be 85 24 d3 3c 0f 26 6c be 95 d8 3a 3e
       -0.20409472 0.02577425 -0.23061393 0.18246682
0002e0 72 3b 9b 3d bc 6e a1 bd c2 8d f1 3d 3a 7b b6 3d
       0.07579698 -0.07882449 0.11794616 0.08910222
0002f0 c4 8a 4e bc 20 ef b4 bd d5 b0 0f be f3 e0 b6 bd
       -0.0126063265 -0.08834672 -0.140323 -0.089296244
000300 d1 26 fd bd 3d 13 e8 3d e6 4e 8b 3d 0e 73 aa 3d
       -0.12360919 0.113317944 0.06802158 0.08322726
000310 30 ad 47 3e 18 d8 93 3e 6e 4a a2 be a9 03 33 be
       0.1949966 0.28875804 -0.3169741 -0.17481865
000320 24 d5 20 3e 99 be e1 3d 20 b9 f3 3d 5d bc 53 bd
       0.15706307 0.11022682 0.11900544 -0.05169331
000330 7b bb 1e 3d a1 7b 97 bc 53 98 f8 3b d6 cd 98 be
       0.038753014 -0.018491568 0.007586518 -0.2984454
000340 ed 1e 90 3d 86 7c 09 3e 1c d2 a7 bb be 22 15 3d
       0.070371486 0.13426408 -0.0051214825 0.036410086
000350 5d 59 0e be 97 2b 2e 3c 65 db 32 bd a7 d7 1f bd
       -0.13901277 0.01063051 -0.043666262 -0.03902402
000360 69 0a 96 bc 4c 44 5c 3d 76 7c 04 3e f7 11 64 bd
       -0.01831551 0.05377607 0.12938103 -0.055681195
000370 e9 5d 7b 3d 7a 93 ff be e9 38 88 bc 13 7a c3 3d
       0.061368857 -0.49917203 -0.0166287 0.09544768
000380 13 6d 31 bd 12 88 84 be b0 1e 3b 3b 97 36 f4 3d
       -0.043316912 -0.25885063 0.0028552227 0.11924475
000390 bc 93 41 be 0f 9a a8 3d f7 88 fe 3d ec 2a 22 bd
       -0.18904012 0.08232509 0.12428468 -0.039591715
0003a0 f2 70 6e 39 28 59 bd bd a7 6c 20 be 6c 76 15 bd
       0.00022739524 -0.09245521 -0.15666448 -0.03648989
0003b0 60 0c f1 3c 3b 74 91 bd 3e 28 58 3e 73 b1 c0 bc
       0.029424846 -0.07102247 0.21109101 -0.023522114
0003c0 d2 8a 94 3d 95 f3 9f 3d 18 bc f6 3d 3e 60 8e 3e
       0.072530404 0.078101315 0.12047595 0.27807802
0003d0 3a e8 44 bd 24 09 0a be c8 76 15 be 8a 8c 1d 3c
       -0.04807303 -0.1348005 -0.14596093 0.009616027
0003e0 86 06 72 bd 05 f9 03 be 43 6a 65 bd c8 72 8a bd
       -0.059088252 -0.12887962 -0.056009542 -0.06760174
0003f0 15 99 23 3d 64 82 72 bd 28 d9 73 bc 02 87 2e bd
       0.039940912 -0.05920638 -0.014883317 -0.042609222

actor_backbone.0.bias f4 [128]
000000 7c c9 d9 3c f4 7c a3 be 8f 29 4f be fb 4a 37 be
       0.026585333 -0.3193127 -0.20230697 -0.17899697
000010 40 4f 95 3e 8d d7 7a be db a1 27 be 03 be 5e 3e
       0.29162025 -0.24496289 -0.16370337 0.21752171
000020 7b a9 52 3e 51 20 48 be 33 6e 8f 3e 6b 3c be be
       0.20572464 -0.19543578 0.28013763 -0.3715547
000030 4e db 9f 3e a2 b9 2e be eb 64 82 be 25 2a ff bd
       0.31222004 -0.17063001 -0.2546762 -0.1245921
000040 82 a2 62 be 21 a1 9b 3e 0b b2 5a 3e f0 ae c2 3e
       -0.22132304 0.3039637 0.2135698 0.38024092
000050 84 e3 be bc 89 83 95 3e 12 81 8b 3d a1 76 77 3d
       -0.023301847 0.29201916 0.068117276 0.060415868
000060 1d da 99 3e e8 07 26 3e 32 95 c4 bc d9 15 85 be
       0.3004922 0.16213953 -0.023996923 -0.2599323
000070 fd c3 23 be de bf 90 3e 1b 12 63 be f4 c6 49 3e
       -0.15992732 0.28271383 -0.22174875 0.19704801
000080 eb 4e 08 be 49 de bb be 40 f0 a6 be 5e 25 0d be
       -0.13311355 -0.36693028 -0.3260517 -0.13783786
000090 5c 1f 8c be d7 d5 99 be 7d 3d 4b 3e b1 84 f2 3d
       -0.27367675 -0.3004596 0.19847675 0.11841715
0000a0 b4 c7 7e 3e 98 a5 9c bd 9b dc 39 3e 45 64 53 3e
       0.24880868 -0.07648772 0.1815056 0.20643719
0000b0 32 67 7d be 1f 56 80 3e 4b 90 91 3e d5 93 97 3e
       -0.24746397 0.25065705 0.284304 0.29604974
0000c0 80 dc 2b 3e 26 80 bd be af 03 ac be a0 1b 8e bd
       0.16783333 -0.37011832 -0.3359656 -0.06938863
0000d0 83 64 a5 3e b9 ed 8e 3e 8b 3e 92 be 68 4c 85 bd
       0.32303247 0.27915743 -0.28563341 -0.06508714
0000e0 4f 7a 10 3e 64 48 1e be 78 cf 8a 3e 80 9d 26 3c
       0.14109157 -0.15457302 0.2711141 0.010169387
0000f0 43 6b a6 3d 59 20 7c be c2 dc b5 bd b9 0f 32 be
       0.08125927 -0.24621715 -0.08879997 -0.1738881
000100 64 61 a2 bd eb ee 5e be 2c 3e 77 3e fb 92 51 3e
       -0.07928732 -0.21770827 0.2414481 0.20466225
000110 89 4d 84 be 2f 7e a4 be 6b 43 00 3e 98 28 13 3e
       -0.25840405 -0.3212752 0.12525718 0.14370954
000120 6f 9a 16 3e 2c ae 74 be b5 1a 94 3e c4 0f a2 3e
       0.14707349 -0.23894566 0.28926626 0.31652653
000130 0e aa 9c 3e a2 5e a7 3e 78 e1 a6 be f6 f1 8c 3e
       0.3059849 0.32689387 -0.32593894 0.27528352
000140 aa bf 9e be 6e ef 8e be d4 74 5b 3e e8 64 26 3e
       -0.31005603 -0.27917045 0.21431285 0.1624943
000150 0c 7f 6c 3e b9 6e 12 be bd 93 17 be 17 47 08 3e
       0.2309534 -0.1430005 -0.14802451 0.13308369
000160 34 a0 40 be 9f 42 7b 3e b0 67 a5 be 46 f6 97 be
       -0.18811113 0.24537133 -0.3230567 -0.2968008
000170 95 2d 8a 3e 23 08 dc bd a2 45 70 3e 05 25 7f 3e
       0.269879 -0.107437395 0.23464063 0.24916466
000180 cd 9e 0d be 94 12 90 3e 25 1b 83 3e fa b5 10 be
       -0.13830109 0.28139174 0.25606647 -0.14131919
000190 a4 67 8a be 10 ec f3 3d 50 99 52 be d6 94 56 3e
       -0.27032197 0.1191026 -0.20566297 0.20955214
0001a0 c1 ee 74 be ac 97 4e 3e 12 88 91 be f0 81 60 3e
       -0.23919202 0.20175046 -0.28424126 0.21924567
0001b0 c5 12 91 be 9a 17 00 be 58 38 ad 3e 88 6c 67 be
       -0.28334633 -0.12509003 0.3383205 -0.22599995
0001c0 5f 86 a6 3e c1 6f 9a 3e d0 7a 82 3e 3e 97 b4 3e
       0.32524392 0.30163386 0.25484324 0.3527164
0001d0 df f4 54 be c9 fd aa 3d a9 92 36 be c0 05 20 3e
       -0.20796536 0.08349187 -0.17829384 0.15627193
0001e0 1a 2c 8f bd ab ff 30 be b9 8c 9f be e0 4e 9a 3e
       -0.069908336 -0.1728503 -0.3116205 0.30138302
0001f0 5b d7 5a 3e f0 6e cf 3d a2 b1 36 bd 64 ec 48 3e
       0.21371214 0.101285815 -0.044602998 0.19621426

actor_backbone.2.weight f4 [128, 128]
000000 fe 85 2f be dd 1c 94 3b 54 af 19 be 36 ae 33 3d
       -0.17140958 0.0045200423 -0.15008289 0.043867312
000010 b8 bf 16 be 4c 9f 35 3d 59 86 e6 3d 0b 86 b8 be
       -0.14721572 0.04434137 0.112560935 -0.36039767
000020 90 f3 ca 3d 47 7f 57 3d ef 3a 7c be ad 58 61 3c
       0.09909737 0.052611616 -0.24631856 0.013754052
000030 7a 62 7b bb 4c a7 ba bc a7 ab a9 bb e5 93 80 be
       -0.0038358257 -0.022784851 -0.0051779333 -0.25112835
000040 41 5b 7b 3d 81 5d 09 3d 81 dc 3a 3d ab 8c a0 3d
       0.061366323 0.033536438 0.045620445 0.0783933
000050 b9 7d f5 3d 1f 33 7e 3e c2 de a1 3b bb 8b 10 be
       0.1198687 0.24824189 0.004939885 -0.14115803
000060 6a 66 0c be 12 98 5e 3c 85 ec 84 3e 7b 71 af 3d
       -0.13710943 0.013586061 0.259617 0.085665666
000070 f5 83 61 be 0d cd 25 3e 75 44 42 bd 88 c0 21 bb
       -0.22022994 0.16191502 -0.047428567 -0.0024681408
000080 3f 45 3a 3e 4e 6b ce 3d 94 10 6d bc a7 49 e0 bd
       0.18190478 0.100790605 -0.014469285 -0.10951548
000090 7c d2 0f 3e 48 9f 01 3e cf 7d 3d 3e ba 3a 4e be
       0.14045137 0.12658417 0.18505023 -0.2013959
0000a0 85 46 17 3e 1c 3b 4c 3e b3 d2 09 3e 7c f8 bf bd
       0.14772995 0.19944423 0.13459282 -0.093735665
0000b0 e3 35 b4 3d 78 6f 3b bd f6 8a e0 bc d6 48 ea bd
       0.087993406 -0.0457606 -0.027410012 -0.114396736
0000c0 dc fb 11 be 29 96 02 3e 69 ac 62 3d a2 5f d3 3d
       -0.14256233 0.12752594 0.055340204 0.10320975
0000d0 73 f1 ee 3d 1d ab 57 be 3f 5f d3 bd 03 e3 6e be
       0.116671465 -0.21061368 -0.10320901 -0.23328786
0000e0 6d 53 67 be 10 2b ea bd 67 b9 d2 3c 1c 47 78 3d
       -0.22590418 -0.11433995 0.025723172 0.06061469
0000f0 b2 f5 e2 3c 4d 94 11 3d 4f 72 3d bd 8c c9 48 3d
       0.027705047 0.03554182 -0.04625159 0.049020335
000100 3d 2d 6b be 10 d9 cb 3d b6 ce 25 bd 62 55 1e 3e
       -0.22966476 0.09953511 -0.040480338 0.15462258
000110 80 19 83 bc ef bd 9a bd 4e e3 8e 3c 79 99 bf 3d
       -0.01600337 -0.07555758 0.017442372 0.093554445
000120 d4 be 8c 3d 7a b3 38 3e 3c 41 3d 3e dd 94 26 3e
       0.06872335 0.18037215 0.18481916 0.16267724
000130 b6 0b b8 bd a3 4e f5 bd b1 2d a1 bd 95 a8 d3 bb
       -0.08986609 -0.119778894 -0.07870043 -0.0064593055
000140 ba f5 ee bc c2 25 13 bd 18 e3 0c be 1f 38 3d 3c
       -0.029169906 -0.03592468 -0.13758504 0.011549025
000150 35 93 19 3d e0 9c a0 bc 89 cd a7 3e 48 dd f7 bc
       0.037493903 -0.019606054 0.32773998 -0.030256882
000160 47 3c 1a 3e cf a9 88 3e 9c a5 45 3e e0 6b 2a 3e
       0.15062056 0.26692054 0.19301456 0.16642714
000170 c5 2a 58 3e c5 8a 77 be 85 ad ce 3a fc e6 db 3d
       0.21110065 -0.2417403 0.0015768266 0.10737416
000180 ea f5 e3 be e4 1d 0f be 9c 75 22 be 0a b4 64 be
       -0.44523555 -0.13976246 -0.15865177 -0.22334304
000190 58 7a 20 be f3 c3 82 3e cc 8b 84 bd 38 79 33 be
       -0.1567167 0.25540122 -0.06471977 -0.1752671
0001a0 26 fa dc bd bc 35 da 3d 05 f0 bc 3d 7b cb b8 be
       -0.107898995 0.1065478 0.092254676 -0.36092743
0001b0 00 33 ab bc d8 40 07 be 7e 9d de 3d c2 93 45 bd
       -0.020898342 -0.1320833 0.10869883 -0.048236616
0001c0 49 ae f3 3d 1a 4c 9b 3d 13 af 8a 3d 92 a0 1b bd
       0.11898477 0.075828746 0.06771674 -0.03799493
0001d0 86 03 02 3e 4a b5 15 be 3c f8 39 3e e1 fe 66 3d
       0.12696657 -0.14619938 0.181611 0.056395415
0001e0 65 b7 89 bc dd b2 e2 bc 4e 75 c0 3d bb b0 cd bc
       -0.016811082 -0.02767318 0.09397374 -0.025108686
0001f0 67 9b 60 be 8e 60 95 3d 8e 3f b1 3e ff 6e 4e 3e
       -0.21934281 0.07293807 0.346188 0.20159529
000200 e8 a7 73 3c 44 b7 6e 3d f0 fb 0d 3e f2 20 4d be
       0.014871575 0.058280244 0.13865638 -0.20032099
000210 32 fc 0c 3d 97 85 ed 3d f6 5a 87 3b d8 0b fe bd
       0.0344202 0.11597746 0.0041307164 -0.12404603
000220 b7 e3 19 3e fd 4e f6 3d 4c b5 33 3d 06 0b 2b 3e
       0.15028273 0.120267846 0.04387407 0.16703424
000230 e7 ea 80 3e 13 6f 54 bd 84 17 10 bd f4 8d 72 be
       0.25179216 -0.05186374 -0.035178676 -0.23686963
000240 8f 9e eb bd 0c 8d cc 3d f9 59 58 be 84 f9 37 3d
       -0.11504852 0.0998784 -0.21128072 0.04491569
000250 c8 77 50 3d 73 48 1d 3d 02 94 b6 bc 4e be 93 be
       0.050895482 0.03839917 -0.022287372 -0.28856128
000260 68 1c 61 be 5c 43 31 be 60 03 99 bd b9 18 59 3d
       -0.21983492 -0.17310852 -0.07471347 0.053002093
000270 0e 04 dc be 37 34 dd 3d 42 36 3e be 2d ce c2 3d
       -0.42971843 0.10800975 -0.18575385 0.09511981
000280 b9 72 1d 3e ac 21 09 be 06 5a 32 bc ff 57 85 3d
       0.15375794 -0.13391751 -0.010885721 0.065109245
000290 36 aa f2 3c 32 6e fa 3c d3 bf 7d bd 90 d4 6e be
       0.029622179 0.030570123 -0.061950516 -0.23323274
0002a0 21 9e 06 bd 29 04 57 3e 3c 99 36 bc 97 82 78 bd
       -0.032865647 0.2099768 -0.011144932 -0.060671415
0002b0 fc fa 04 be 86 3c 2e 3d 31 a8 4d 3e 24 00 c7 bc
       -0.12986368 0.04253819 0.20083691 -0.02429206
0002c0 f7 56 fb 3c 7a 82 c6 3d 82 52 25 3e 4a f1 ad bd
       0.030681117 0.09692855 0.16144755 -0.08493288
0002d0 9a 2f 63 3d 10 d6 1e bd a7 a8 16 3d 0e b4 16 3e
       0.05546532 -0.038778365 0.036781933 0.14717123
0002e0 fd 27 cc 3c 3f 6c ad bd 5f d5 43 ba a1 dc 47 be
       0.024921412 -0.08467912 -0.00074704544 -0.19517757
0002f0 a5 56 24 3c 89 a8 34 3e fe e4 cf bc b2 20 0b be
       0.010030423 0.17642416 -0.025377747 -0.13586691
000300 5b 1e 14 be 6e 55 a1 bd a9 62 2a be f0 39 15 bd
       -0.14464705 -0.078776225 -0.16639198 -0.036432207
000310 88 05 09 bd 34 91 83 bd 7a 93 75 be f9 19 f0 bd
       -0.03345254 -0.0642418 -0.23982039 -0.11723704
000320 0a fc 3f be bd 26 3f 3e a5 44 91 bd 54 6f 1b 3e
       -0.18748489 0.18667121 -0.07093171 0.15179187
000330 8e 53 bc bd a5 4e 8b be 9b 41 f9 3d cd 02 b9 3d
       -0.09195624 -0.2720844 0.121707164 0.09033737
000340 96 12 6c 3e 93 5b 60 bd 1b fe 2f be 3c a4 10 be
       0.23053965 -0.054774832 -0.17186777 -0.1412515
000350 d6 a5 6d 3d 56 ce 2b be 22 83 77 3d d0 45 91 3d
       0.05801948 -0.1677793 0.060427792 0.07093394
000360 12 72 c3 3d a9 8f 7e bd 7b aa 1b 3c 09 15 18 bd
       0.095432416 -0.062148724 0.009501095 -0.037129436
000370 8f e4 9c bd 9f d7 b1 bd af 67 28 3c 27 be a8 be
       -0.076607816 -0.086837046 0.010278626 -0.32957575
000380 a1 63 53 be 66 64 b2 be 2a 85 29 3e 4e 61 81 3d
       -0.20643474 -0.34842223 0.16554704 0.063173875
000390 e2 6b 41 3d 6d e6 bb bd ac 92 bf 3e c8 a7 50 bc
       0.047222026 -0.091748096 0.3741659 -0.012735315
0003a0 0a 71 60 bd bb f4 e7 bd 4e d2 6a bd a4 8f 12 be
       -0.054795302 -0.113259755 -0.05732947 -0.14312607
0003b0 dd 29 e4 bd 25 58 13 be 17 af c5 3d 9d 81 81 bd
       -0.11140797 -0.14389093 0.09652536 -0.0632355
0003c0 98 27 f3 3a 1c 5d c4 3b 3f 7d e7 bc 66 5d 7d 3d
       0.0018551229 0.005992545 -0.028257964 0.06185665
0003d0 21 0e 3d 3e ed d1 79 3d 48 78 88 be e9 e1 fc bd
       0.18462421 0.060991216 -0.26654267 -0.123477764
0003e0 09 16 c1 3d 46 85 cf 3d 18 e4 98 3e 68 75 24 be
       0.09428031 0.10132842 0.29861522 -0.16060412
0003f0 c2 65 3a 3d 17 fa 6d 3e 30 e3 80 bd 28 e7 9c 3d
       0.0455072 0.23239933 -0.062933326 0.07661277

actor_backbone.2.bias f4 [128]
000000 fa ae 79 3d 29 46 e5 bb e6 11 3d 3c 1e ed 6d be
       0.060957886 -0.006996889 0.011539912 -0.23234984
000010 88 a2 78 be 41 b7 6b 3e ee ec 94 3d f8 8e 2d bd
       -0.24280751 0.23019125 0.07271753 -0.042372674
000020 18 26 12 be 77 34 13 be 35 9b 92 3e d4 70 44 3e
       -0.14272344 -0.14375482 0.2863404 0.19183666
000030 85 f5 82 3e ae 42 9a bd 0f 02 40 3d 6a eb 23 be
       0.25577942 -0.075322494 0.046876963 -0.16007772
000040 56 fc 88 3e 69 c0 83 3e 60 6b f1 bd 09 8a 53 3e
       0.26755017 0.25732735 -0.11788058 0.20658125
000050 6a 88 99 3d ca 8c a7 3d f0 04 02 bd 9f 8d 8e be
       0.07496722 0.0818115 -0.03174299 -0.27842423
000060 17 3f 80 be 3d 34 63 3e 0f 63 dc bd bf 51 d3 bd
       -0.25048134 0.22187896 -0.107610814 -0.10318326
000070 46 ea 8a be 62 a4 72 3e c0 6c 87 3e d7 08 d6 3d
       -0.2713186 0.2369552 0.26450157 0.10450905
000080 44 81 52 be 9d 6a 88 be 37 17 0d 3e cd 71 6e 3e
       -0.20557123 -0.2664384 0.13778387 0.23285599
000090 21 75 5a 3e f9 56 94 be 3a cb 36 3e 8c fa 8d be
       0.21333744 -0.28972605 0.17850962 -0.27730215
0000a0 07 0f b0 bd 04 89 cc 3d 20 7a 54 3e f2 74 9f be
       -0.08596616 0.09987071 0.20749712 -0.3114391
0000b0 1d ce 79 3e 2d ad f9 bd db 3a 65 be ab b7 58 3e
       0.24395032 -0.12191234 -0.22385733 0.21163814
0000c0 b9 77 7a 3e 88 26 86 3e cb d2 b8 3d e5 06 7d 3e
       0.24459733 0.26201272 0.090245806 0.24709661
0000d0 34 6b a8 3d 3f c1 88 3e 52 57 77 3e ee 8e 93 3e
       0.082235724 0.26709935 0.24154404 0.28819984
0000e0 8b 10 1d 3e c2 1b 3a 3e 5e 42 5d 3d a7 71 6e 3d
       0.15338342 0.18174651 0.05401837 0.058213856
0000f0 3f fc 8b 3e 1d 75 f1 bd 78 b2 53 3e 7c ae 1f be
       0.27340886 -0.11789916 0.20673549 -0.15593904
000100 02 8a a6 3d 09 4b 8f be 65 b5 91 be e9 a8 3e 3e
       0.08131792 -0.27986935 -0.28458706 0.18619122
000110 62 12 b0 3c df 64 80 3e 07 f0 6e 3e 1c bf 81 3e
       0.02149314 0.2507696 0.2333375 0.25341117
000120 aa 76 8a 3e a2 ae 51 be 7e 35 db 3d ed 84 3e be
       0.27043658 -0.20476773 0.10703562 -0.18605395
000130 5c ea 86 be 0f 7c 6e be df f8 9d bd 2e 39 5b be
       -0.26350677 -0.23289512 -0.07713484 -0.21408531
000140 da 9e 57 3e fb 2e 16 be 62 39 96 be 36 91 83 be
       0.21056691 -0.14666359 -0.29340655 -0.25696725
000150 27 ee 52 3e 32 0f 7c be a9 d3 e9 bd bc 11 90 be
       0.2059866 -0.24615172 -0.11417324 -0.2813853
000160 11 fa 17 be ed 3a 17 be de 9c 8b 3e a0 37 4a 3e
       -0.14841487 -0.14768572 0.27268118 0.19747782
000170 24 43 d9 bd 29 6d 2c 3e 9a 28 48 3e ed 5e 0d 3e
       -0.10608509 0.16838516 0.19546738 0.13805743
000180 6e f7 12 be 7d 34 98 be 88 51 91 be 0d 08 74 3e
       -0.143522 -0.29727545 -0.28382516 0.23831196
000190 8a 44 68 be ac 33 82 be 21 1d 64 3e 41 dc 35 be
       -0.22682396 -0.25430048 0.22276737 -0.17759801
0001a0 cf 6a 82 be da ea 83 bd c8 1c 88 be 25 15 8f 3e
       -0.25472113 -0.06441279 -0.26584458 0.2794582
0001b0 74 8c 68 be 12 68 87 3e 71 52 6d 3e dc c2 f6 3d
       -0.22709829 0.26446587 0.2317598 0.12048885
0001c0 c5 6c 7d 3d 0e c6 70 3e 6e fd 8b 3e f9 b2 12 be
       0.06187131 0.23513052 0.2734179 -0.14326085
0001d0 49 8f 8a be fa 45 23 be 0e 54 85 3e 17 4d 94 be
       -0.27062443 -0.15944663 0.2604069 -0.28965065
0001e0 90 24 79 3e 0a 95 81 be ad ff 8b be 1f 98 91 be
       0.24330354 -0.2530902 -0.27343503 -0.28436372
0001f0 a0 bc 81 3e c6 33 9f bd d6 3f 82 3d 74 32 8c 3e
       0.25339222 -0.07773547 0.06359832 0.27382243

reward_backbone.0.weight f4 [128, 22]
000000 c7 7a ef 3d f9 f9 96 bb cf 09 f3 3d 61 22 ad 3e
       0.1169334 -0.004607436 0.11867105 0.33815292
000010 ae 50 e3 3c 60 a3 86 be c2 9e bc bd 5a e3 0b 3d
       0.027748432 -0.2629652 -0.09209968 0.034152366
000020 dc 17 f4 3d 2f ff 2d be 2f 49 a5 bd 7e 9d db 3b
       0.11918613 -0.16991876 -0.08070599 0.006702124
000030 67 59 4b 3d 6d 0f 2a 3b af e2 b3 bd 43 87 29 3d
       0.049645808 0.0025949136 -0.08783471 0.04138876
000040 9e 2e 03 3d cc 5e 21 3c f7 58 12 bc 42 11 43 bd
       0.03202688 0.0098492615 -0.008932344 -0.04762388
000050 97 66 fa 3d 05 f6 fd 3d e2 65 d8 3d db 84 af 3b
       0.12226599 0.1240044 0.105663076 0.005356414
000060 ef c1 37 3d 65 cb 3e 3d ec fb 7d 3d b9 36 bf 3d
       0.044862684 0.04658069 0.06200783 0.093366094
000070 de 43 8a bd 38 63 15 bd cd 05 ea 3d ff 05 c3 bd
       -0.06751226 -0.036471575 0.11426888 -0.09522628
000080 61 cd 2c 3c 65 78 74 be 90 b1 72 3e 6f 7e 36 bd
       0.010547013 -0.23874052 0.23700547 -0.04455417
000090 f1 30 40 bd b7 e1 89 bd 59 c9 3a 3d eb 5d 16 3e
       -0.046921674 -0.06732505 0.045602176 0.14684264
0000a0 af b4 c3 bc b9 3e 28 be 5d d6 e8 bc 34 ad 30 3e
       -0.023889868 -0.16430177 -0.028422529 0.17253572
0000b0 6f 15 46 3a dd 01 28 be 6b 0f a7 bd d1 28 2b be
       0.00075562944 -0.16406961 -0.081572376 -0.16714789
0000c0 5d 5a 74 bc 88 67 de bd 2b c2 d4 bd ce 25 9d 3c
       -0.014914122 -0.10859591 -0.10388597 0.019183066
0000d0 2e 45 10 be af 77 11 bd e3 1b d7 bc 35 52 75 3c
       -0.1408889 -0.03551453 -0.026258415 0.014973213
0000e0 a7 ec 80 3e ed 8a f9 bd b2 a3 81 bc 4d 17 62 3e
       0.2518055 -0.12184701 -0.015825126 0.22079201
0000f0 64 a5 26 bd 38 38 8a bd 7b b5 19 be ce 6b 1f be
       -0.040685073 -0.06749004 -0.15010636 -0.15568468
000100 9d ca 77 bd fb 5c 90 be f5 f7 4d 3e 61 c3 2a 3e
       -0.06049596 -0.28195938 0.2011412 0.16676094
000110 91 62 08 3e 41 2f 06 be c1 00 cb bc 4c 41 92 3d
       0.1331885 -0.13103963 -0.024780633 0.07141361
000120 f2 b6 44 bc fb b8 b7 bc 43 6e 1a bd ab 87 03 3e
       -0.012006508 -0.022427073 -0.03770281 0.12844722
000130 c7 e0 e0 3c a7 83 30 be e3 d5 ed 3c fe 0f 8b bd
       0.027450932 -0.17237721 0.029032653 -0.0679016
000140 86 14 16 3b 17 6b 05 bb bf 25 d1 3c a2 2b 63 39
       0.0022900417 -0.002035802 0.025530694 0.00021664661
000150 eb 07 60 bd 43 bb 43 be 1c 93 a5 3d f8 c8 91 3c
       -0.05469505 -0.19114403 0.080846995 0.017796025
000160 6a 60 3b 3e 48 76 9c 3b 57 c5 31 be 3f 31 0f 3e
       0.18298498 0.0047748424 -0.17360435 0.1398363
000170 d8 e8 d2 bd d2 ec 6f bd 88 b1 79 3c d4 83 c5 3c
       -0.10298318 -0.05857546 0.015240081 0.024110712
000180 23 22 e0 be e9 59 12 be ac 18 03 be 0c f5 fe bd
       -0.43776044 -0.1429211 -0.1280238 -0.12449083
000190 5d a8 99 ba 3c 56 c1 3d e5 7f 9f 3d 06 b2 02 bd
       -0.001172315 0.09440276 0.07788066 -0.031908058
0001a0 0f fe 4d 3e 3e ef 20 be af aa 53 3d 37 e6 0b be
       0.20116447 -0.15716264 0.05167645 -0.13662039
0001b0 ce 38 2a 3e c1 c8 7d bd 39 98 96 3d 99 0b 89 be
       0.16623232 -0.061959032 0.07353253 -0.2676666
0001c0 38 32 1c 3d 56 8a 8f 3e 35 5a fe bc bf 3a 88 bd
       0.03813383 0.2803523 -0.031048873 -0.0665183
0001d0 bc ae cd 3d 8e 70 1a 3d 32 c0 67 bb 1f 7b e4 bd
       0.100430936 0.037704997 -0.003536236 -0.11156296
0001e0 62 5b 02 3e 0f 0b 6c bc 07 3f ef bd 11 5f 55 3e
       0.12730172 -0.014406933 -0.116819434 0.20837046
0001f0 22 89 6a 3d fc 6e 12 bc 45 fd 55 3d 90 ab e0 3c
       0.057259686 -0.008937594 0.05224349 0.027425557
000200 86 62 c9 bb 74 44 29 3e ec 0e dc 3d ad b1 c8 bc
       -0.006145778 0.16530019 0.107450336 -0.024498785
000210 9a c3 2f 3d f3 3d 84 3d 48 9e e0 3d cd 83 80 bd
       0.04291115 0.064571284 0.1096769 -0.06275139
000220 22 61 a8 bd 49 11 85 be a5 9e 29 be 9b 0a 27 be
       -0.082216516 -0.2598975 -0.16564424 -0.1631264
000230 c7 5e b0 3d 44 a2 60 3e 80 3b 92 bd a8 ee a3 bd
       0.08611827 0.219369 -0.07140255 -0.080045044
000240 8d 64 a2 bd 46 4d 1c be d2 e6 11 3d 35 5e ed bc
       -0.07929335 -0.15263852 0.035620518 -0.028975585
000250 55 bb 6d bd c7 4b 8e 3c 79 96 b0 bd 6e a0 c3 3d
       -0.058039982 0.017370118 -0.086224504 0.09552084
000260 89 84 0b 3c fb de d0 bd dc 47 a4 bd 86 16 5b 3e
       0.008515486 -0.1019878 -0.080215186 0.21395311
000270 97 af 9b bd 42 7d 1d bd d2 52 c6 3d 21 3c e0 3d
       -0.076018505 -0.038449533 0.096837655 0.10948969
000280 d9 86 a5 bd 71 68 4f 3e 00 94 b5 3d bc 6d 16 be
       -0.08082361 0.20254685 0.088661194 -0.14690298
000290 1c c4 0f 3c 5b cb dc bd 81 69 31 3e 51 53 96 3d
       0.008774783 -0.107809745 0.17325403 0.0734011
0002a0 80 9a 0b bd 3d 6b 91 bd 24 c3 58 3d 5c 3c 0b bd
       -0.03408289 -0.07100532 0.052920476 -0.03399311
0002b0 d6 b1 9e bc e8 1c 0c bd 1c 8c a6 bd 0f cd 16 be
       -0.019371908 -0.034207255 -0.081321925 -0.14726661
0002c0 55 2d 3d bc 8b 80 02 bc 7d d2 d9 bd e9 12 08 be
       -0.0115464525 -0.007965217 -0.106358506 -0.13288464
0002d0 d2 d3 a5 3d 70 66 4c bd 50 e9 6c 3d 08 fa 91 bd
       0.08097042 -0.04990238 0.05783969 -0.07127768
0002e0 b0 92 54 3d 55 3f ce bd 1b 78 05 bd 3e 37 e3 bb
       0.051897705 -0.100706734 -0.032585245 -0.0069340756
0002f0 19 5c 36 3e cb e5 fa bd e8 b9 4c be c0 03 43 bd
       0.1780857 -0.12250861 -0.19992793 -0.047611
000300 f9 49 08 bd d7 bd 1a 3d eb f9 3c 3e ab 00 ae bc
       -0.03327367 0.0377787 0.18454711 -0.021240553
000310 65 fa 01 bd fc ed 19 3e 5c ca 54 bc 1c 3f 80 be
       -0.031732935 0.1503219 -0.012987699 -0.2504815
000320 94 9d 93 be 1f 8c 44 3e 6e 00 38 3e fc 92 2b be
       -0.2883116 0.19194077 0.17968914 -0.16755289
000330 28 ea a0 bd fb 3b e6 bd 9a 50 0b bd fc b2 f0 bd
       -0.07857162 -0.11241909 -0.034012415 -0.117528886
000340 e6 33 e7 3d 0a d8 78 bd f8 35 80 bc f2 bc a9 3d
       0.11289196 -0.060752906 -0.015650734 0.082879916
000350 32 03 74 bc 51 0e c3 3c 51 da bf 3d 10 cc a5 3d
       -0.01489334 0.023810538 0.093678124 0.080955625
000360 80 f6 52 be ec d2 c6 bd 5b 48 2d bd af 8d 89 3d
       -0.20601845 -0.09708199 -0.04230533 0.06716477
000370 ba e3 44 be 0f dc 70 3d 16 c9 a3 3d 8e f8 04 3e
       -0.19227496 0.058803614 0.079973385 0.12985441
000380 fb 78 4f 3e c5 66 26 bd 4c f2 5a bd fb 26 27 bd
       0.20260994 -0.040625352 -0.05345373 -0.04080866
000390 9d df 52 bd 38 79 dc 3b a7 ac 97 3b c0 bd c8 3d
       -0.051482785 0.0067283176 0.004628736 0.09801817
0003a0 bc c6 8b bd fe 82 14 3e 95 aa 04 3e 28 25 17 bd
       -0.06825015 0.14503095 0.12955697 -0.03690067
0003b0 2e ac 6b 3d 6c 90 8a bd fd 5b 8e 3d 8b 1c 13 3e
       0.05753725 -0.067658275 0.06951139 0.14366357
0003c0 5c 78 68 be bb 70 38 3b 51 4c 58 3e 09 4c cb 3d
       -0.22702163 0.0028143364 0.21122862 0.09926612
0003d0 df b3 08 be 9a ae 06 bd 81 24 e2 3c 4d 84 74 3d
       -0.13349865 -0.032881357 0.027605297 0.059696484
0003e0 1f 30 61 3d 6c be 0e bd 7e 05 fd bb fb 59 00 bd
       0.054977532 -0.03484957 -0.007721602 -0.031335812
0003f0 5d 67 97 3d 1f ae f2 3c fd 38 25 3d c4 67 a5 3d
       0.07392762 0.029624043 0.04033755 0.08076432

reward_backbone.0.bias f4 [128]
000000 85 1d 47 3e 0d 4b 4e 3e e1 8d 19 be c8 d3 1e bc
       0.19444855 0.20145817 -0.14995529 -0.009694047
000010 a4 3f 82 bd 81 29 0e be 57 ea 2d 3e 55 ad 4c 3e
       -0.06359795 -0.1388302 0.16983925 0.19987996
000020 a9 10 b3 be 07 0b 95 bd b1 96 6f be 43 57 01 bc
       -0.34973648 -0.07277494 -0.23397328 -0.00789434
000030 5e c5 86 bd 6a 07 01 be 35 cb 02 be f6 46 cb 3c
       -0.065806136 -0.12600484 -0.1277283 0.02481411
000040 7e 1f 75 be ce 2f 9b 3e 40 60 c6 bd 56 3c e1 3d
       -0.23937795 0.3030991 -0.09686327 0.10997836
000050 fa ef 09 be 61 dc a6 3e b3 9c 59 3e 99 75 b5 bd
       -0.1347045 0.3259001 0.21251182 -0.088603206
000060 ac 03 a4 3d a7 0c a5 be 2c 18 42 3e 5b 6c ae be
       0.08008513 -0.32236215 0.18954533 -0.34067044
000070 94 03 68 3e 66 34 ad bd 7a 08 12 bd a8 5b bb be
       0.22657615 -0.0845726 -0.035652615 -0.36593366
000080 e6 5d 6a 3e 56 1b a7 3d 70 f9 f2 3d 45 62 80 3e
       0.22887382 0.08159511 0.11863983 0.25074974
000090 25 e0 4e 3d ff 73 d8 3d b0 3d 95 be 26 97 00 3b
       0.05050673 0.105689995 -0.29148626 0.0019621341
0000a0 75 90 8e be 3d d7 4e bd 2e 03 a0 3e 31 5f 67 be
       -0.27844587 -0.050498236 0.31252426 -0.22594906
0000b0 30 c5 d9 bb 44 13 0e 3e b9 55 8d 3e cd 4f 6c be
       -0.006645821 0.13874537 0.27604464 -0.23077317
0000c0 7e 31 20 3e 1b 0c 28 3d ba fc 45 3e 67 c4 a2 be
       0.1564388 0.04102717 0.19334689 -0.31790468
0000d0 4a 58 87 bd 1d 11 94 be bd cb 6c be aa b3 c0 be
       -0.06608637 -0.28919306 -0.23124595 -0.37637073
0000e0 f8 11 cc be d8 7b ba 3e d5 55 1a 3e 02 7c 43 be
       -0.3985746 0.3642261 0.15071805 -0.19090274
0000f0 db c7 54 be 54 6d 40 3e e7 17 d8 bd c9 1b 7d 3c
       -0.20779364 0.18791705 -0.10551434 0.015448519
000100 2a ac 8f 3e 4d 44 92 3e a2 20 06 3e e1 d1 6d 3e
       0.28061038 0.28567734 0.13098386 0.23224594
000110 29 22 6b 3e 02 6a 27 be 7d 67 a8 bd 80 9d 98 bd
       0.2296225 -0.16349033 -0.08222864 -0.07451916
000120 48 91 19 3e a9 5e 2d 3e a7 b1 aa 3e dd d5 5c 3e
       0.14996827 0.16930641 0.33338663 0.21565957
000130 97 ec ee bd d2 3e 78 be bd 8b 17 3e 7a ca 6c 3e
       -0.1166622 -0.24242714 0.147994 0.23124114
000140 6e 63 e2 3d 1d 82 c6 3b bf c3 3a 3e 40 f0 cf bd
       0.11054121 0.006057991 0.18238734 -0.10153246
000150 c9 e2 d9 bd cb 91 89 3e 4c 41 2c be 19 22 a7 3e
       -0.10638959 0.26869044 -0.16821784 0.32643202
000160 ab 55 6d 3e 90 c9 0b 3e 06 77 8f bd bd 74 20 be
       0.23177211 0.13651109 -0.07005124 -0.15669532
000170 c1 82 5b be 4f 55 8b be ee 7a 0f be 5c ca 08 3e
       -0.21436597 -0.27213523 -0.14011738 0.13358444
000180 d7 f9 65 3e 32 61 65 be 7a 51 2c be 76 9f 90 3d
       0.22458588 -0.22400358 -0.16827956 0.07061665
000190 b9 36 6b be e1 80 9e be 77 9b 2c 3d b5 d2 4c bc
       -0.22970094 -0.30957702 0.04214045 -0.012501408
0001a0 39 33 62 3e a9 0b c5 bd 74 66 0c be a4 f6 a7 be
       0.22089852 -0.096213646 -0.13710958 -0.3280536
0001b0 96 55 13 3e 8f 91 91 be b2 5a 1d 3d 8c dc 32 be
       0.14388117 -0.28431365 0.038416572 -0.17466944
0001c0 cc 70 55 3e b0 b9 97 be b7 7a a1 3d ab 5b 48 3e
       0.2084381 -0.29633856 0.07884734 0.19566219
0001d0 58 25 13 be 01 64 69 bd 52 99 04 be 39 0a 6a bd
       -0.14369714 -0.056980137 -0.12949112 -0.057138655
0001e0 86 70 05 3e 65 f6 54 be 0f c7 de 3d e9 e0 b9 bd
       0.13031206 -0.20797117 0.10877811 -0.09076101
0001f0 8a cb b3 bd 81 a0 8c 3e 2a 37 19 be 6c 23 55 bd
       -0.08779056 0.27466205 -0.1496245 -0.052035734

reward_backbone.2.weight f4 [128, 128]
000000 2a 70 6f 3d 12 d2 d3 3d 2d 30 7a bd 48 f0 ca bd
       0.058456577 0.10342802 -0.0610811 -0.09909111
000010 14 b8 01 be d9 fa 62 bc 46 e2 46 3d 91 27 34 3e
       -0.12667876 -0.013853752 0.048555635 0.17593218
000020 39 37 ad bc e2 4f bd bc bc 96 99 bd 1c 5f 37 be
       -0.021144496 -0.02310938 -0.074994534 -0.17907375
000030 ed 4b 3d 3d 97 75 54 be 99 52 3c bd 3a 8b d5 3d
       0.046214987 -0.20747982 -0.04597721 0.10426946
000040 c7 d7 5a be 1f 32 04 3f d0 4c 7c 3c 6d 52 ea 3d
       -0.21371375 0.5163898 0.015399173 0.11441503
000050 fb 00 91 bd 1f 40 75 3b 8c cd c5 3e cd 82 e9 bd
       -0.07080265 0.0037422252 0.38633382 -0.114019014
000060 53 8e 66 3e 42 9b 5d be 4e 96 ca bd 62 0e ba 3c
       0.2251523 -0.21641257 -0.098919496 0.022711936
000070 37 c4 27 3e ea 5f 19 be f2 c8 98 3d 46 34 2b be
       0.16383444 -0.14977995 0.07460202 -0.1671916
000080 24 44 e5 3d f2 a9 e6 3c 6c 4a 0b 3e 6f 15 a6 3d
       0.111946374 0.028157208 0.13602608 0.08109557
000090 f7 56 01 3e a2 e9 2a 3e 8a c6 41 be a0 df 3d 3d
       0.1263083 0.16690686 -0.18923393 0.046355844
0000a0 1c 67 b8 be 63 fb a1 3d 52 ef bc 3e 43 84 49 be
       -0.36016166 0.07909276 0.36901337 -0.1967936
0000b0 87 15 8a bd 63 b0 05 3a 01 78 6f bd 50 24 72 be
       -0.06742387 0.0005099831 -0.058464054 -0.23646665
0000c0 15 08 4d 3e 8a 6d b5 bc 2c 7f f2 3d 79 d3 73 be
       0.20022614 -0.022146959 0.11840662 -0.23811139
0000d0 8b 76 ec 3b 49 8b 9c be 0a eb 28 be fd 00 14 bd
       0.00721628 -0.30575016 -0.1649591 -0.036133755
0000e0 e8 af 8d be 24 f5 f5 bd e8 d5 19 3d 49 13 6f bc
       -0.27673268 -0.120096475 0.037557513 -0.014592
0000f0 99 40 0a be 61 14 b1 3d 06 77 6a be 29 b9 15 3e
       -0.13501205 0.08646465 -0.22896966 0.14621414
000100 ee 0d 34 3e 8b ee 84 3d e4 7f 87 bd aa 18 36 be
       0.17583439 0.06490811 -0.0661619 -0.17782846
000110 32 c1 d4 3d 7b 69 35 be d9 4b e0 bd f8 65 a3 bb
       0.103884116 -0.17716019 -0.10951967 -0.004986521
000120 fc c3 92 3e 83 31 1b 3e 7c 50 00 3f d5 71 84 bb
       0.2866515 0.15155606 0.5012281 -0.00404189
000130 ad fd d2 bd 91 b9 b2 be e0 5f e3 bb 36 b2 05 3e
       -0.10302291 -0.349072 -0.0069389194 0.13056263
000140 08 6b 35 3e 80 fc d6 bc 6c ba 8b 3e 7b c3 2b 3c
       0.1771661 -0.026243448 0.27290666 0.010483618
000150 77 f0 9d bd 6f 11 70 3b 4d 70 90 be 9e 8b 2b 3e
       -0.07711881 0.0036631485 -0.2821068 0.16752478
000160 e0 5d c9 3e 47 d3 62 3e 96 6d 27 bd f4 e7 db 3c
       0.39329433 0.22150908 -0.040875994 0.026844002
000170 72 aa c8 bc c9 f1 4a be 82 9b 89 3d e3 6f a5 3d
       -0.024495337 -0.19818796 0.06719114 0.08077981
000180 f2 b6 e5 3d 9d 19 3d be 73 5d e7 bb 69 0b 48 3d
       0.11216535 -0.18466802 -0.0070607006 0.048839007
000190 95 3b c3 bd 46 a1 b9 be 42 0a 0f bd 4e 63 eb 3d
       -0.09532849 -0.36255854 -0.034921892 0.1149355
0001a0 0f 7e a3 3c 12 9d c2 bd 86 68 ff bd d8 c9 ca be
       0.01995757 -0.09502615 -0.12471108 -0.3960712
0001b0 1f 35 1e 3c 16 31 45 be cd a3 bb 3d ca 3f 19 be
       0.00965622 -0.19257006 0.09162102 -0.1496574
0001c0 5d c1 1b 3e 8b 96 60 be cf 10 f0 bc 1a d2 83 3e
       0.15210481 -0.21932428 -0.02930489 0.25746232
0001d0 dd 70 10 be 64 f8 e8 bc 72 84 49 be 97 54 21 3e
       -0.14105554 -0.028438754 -0.1967943 0.15754925
0001e0 a8 52 2c be 8d dc 6d 3d 4b 10 07 3d a5 78 cd bc
       -0.16828406 0.05807166 0.032974523 -0.025081942
0001f0 0f ea b0 3a 71 d4 e4 3e ef 74 25 be 64 50 7b be
       0.0013497489 0.4469333 -0.16157888 -0.24542385
000200 e1 1b 08 be b1 d6 59 be a7 4f 7b 3e c4 19 a1 bd
       -0.13291885 -0.21273305 0.24542104 -0.078662425
000210 75 a7 2f 3d 35 10 d5 3d 63 69 20 be 6e 84 f4 3c
       0.04288431 0.10403482 -0.15665202 0.029848304
000220 c5 c4 84 3e a7 fe 20 bd 07 37 4b 3d 6a 90 01 3e
       0.25931373 -0.039305355 0.049613025 0.12652746
000230 b4 ea ec 3d 09 71 46 3c 59 82 31 be 64 95 b5 3d
       0.115682036 0.012111911 -0.1733488 0.088663846
000240 f7 c5 32 3e 40 24 5b bd 30 c4 db 3d a2 6f 96 3d
       0.1745833 -0.053501368 0.10730779 0.07345511
000250 62 ec f3 bc 40 f0 f2 3c 6f 95 52 be df 3b e3 3d
       -0.029775802 0.029655576 -0.20564817 0.11095404
000260 3e 62 79 be 86 90 01 3e 13 33 a0 be 2e 7a e4 3d
       -0.24353883 0.12652788 -0.31288967 0.111561164
000270 6e 16 c0 be 16 16 49 3e 6d 1a cb 3d 41 df 97 3e
       -0.37517112 0.19637331 0.0991715 0.29662517
000280 a6 69 91 be 72 26 03 3e d5 dd 6e be 2f c1 00 bd
       -0.28400916 0.12807634 -0.2332681 -0.031434234
000290 e0 e5 93 bc 28 e6 ad bd 23 af 9d 3e 48 8e cd 3e
       -0.018053949 -0.084911644 0.3079768 0.40147614
0002a0 30 3c 69 3e 0e 0c 02 be 91 73 af be aa 5b 3a bc
       0.22776866 -0.12699911 -0.34267858 -0.0113743935
0002b0 e3 2d 09 3d de 05 41 bc 54 c5 14 be 1c 0d 69 3e
       0.033491027 -0.011781184 -0.145284 0.22758907
0002c0 77 c2 2a 3e 92 ee 42 be c3 97 56 bd f2 d0 fa 3d
       0.16675745 -0.1903632 -0.052390825 0.122468844
0002d0 23 21 2d 3d 1b 33 70 3d 47 69 02 3e ad 4f 07 3e
       0.04226793 0.058642488 0.12735473 0.13213988
0002e0 a2 5f 4f 3e 73 fc 17 be d9 4a 2d be da 04 12 3e
       0.20251325 -0.14842395 -0.16923083 0.14259663
0002f0 52 03 87 3e d4 3f cd bd 05 d9 a3 3d f5 34 74 3e
       0.2636972 -0.1002194 0.080003776 0.23848327
000300 c9 b4 a1 be d2 e2 40 be 6b ac f7 3d bd 00 9b 3d
       -0.3158324 -0.18836525 0.12093433 0.075685
000310 81 51 9e 3d 3a cf bd 3d fc 6a d9 bd 95 59 8b 3d
       0.077303894 0.09268041 -0.10616109 0.06804196
000320 35 84 62 be 7d 6b 9c bd 21 da 4c be 4f 00 01 be
       -0.22120745 -0.07637689 -0.20005085 -0.12597774
000330 e9 7a c7 3c 40 5d 65 3e c2 72 36 3d 2c 8c c7 bd
       0.0243506 0.22398853 0.044543035 -0.097435325
000340 9e 6f 2a bd 00 52 02 3e 23 1e 44 be f0 a0 2a 3e
       -0.041610353 0.12726593 -0.19152121 0.16662955
000350 61 b3 10 3e ad 79 e8 bd 44 0e 7b 3d 45 a8 ad be
       0.14130928 -0.11351333 0.0612929 -0.33917442
000360 fd b5 57 bd 6a fd a6 bd 72 67 3e be 1b 74 7e 3d
       -0.052663792 -0.08153804 -0.18594149 0.062122446
000370 b2 a9 5c 3d a5 9e 8c 3e cb d0 8d 3d c2 73 13 3d
       0.05387277 0.27464786 0.0692459 0.035999067
000380 6d 36 5c bd 3b 30 89 3d da a2 35 3e f7 50 8e bd
       -0.053762842 0.06698652 0.17737904 -0.069490366
000390 b8 98 72 bd 4a 42 35 3e 4a 8a 06 3d 03 16 98 bd
       -0.059227675 0.17701069 0.032846726 -0.074260734
0003a0 0e 16 76 3b 39 d8 b4 bd 7c 4e b3 bd f2 06 ad 3e
       0.0037549767 -0.08830304 -0.08755204 0.3379436
0003b0 61 d5 85 bd 57 e2 db 3e c4 b8 72 bd 97 52 80 3e
       -0.065348394 0.4294612 -0.059258237 0.2506301
0003c0 5e d1 81 bd 10 29 83 3e 8d 6c 75 3d 45 de 8f be
       -0.06338762 0.25617266 0.059917975 -0.28099266
0003d0 b1 67 b5 bd b9 aa 28 3d f5 24 d3 3e f1 f0 2e 3e
       -0.08857668 0.04117844 0.41239133 0.170841
0003e0 4e f6 b0 bd 8b 63 30 3e 17 69 c6 3c e6 9e 19 3d
       -0.08640729 0.17225473 0.024220033 0.037505053
0003f0 bb 76 9c 3c 55 a0 b9 bd ed c1 29 3d be 62 51 3d
       0.019099584 -0.09063784 0.041444708 0.05111956

reward_backbone.2.bias f4 [128]
000000 e4 35 83 3e d0 0f 86 be 5c b9 a9 bd 00 c6 28 3d
       0.25627053 -0.2618394 -0.082873076 0.041204453
000010 38 4d 28 3c 96 2f ac 3c 0b 6e 4f bd ed 56 f2 bd
       0.010272317 0.021018784 -0.050642055 -0.11832986
000020 5a 86 42 3e fb 5c f8 bd ee c7 4d 3e 67 3b 7d 3e
       0.18996564 -0.121271096 0.20095798 0.24729691
000030 f1 44 a4 bd 10 16 7d 3e 0a a0 56 be 68 4c ee bd
       -0.08020962 0.24715447 -0.20959488 -0.11635667
000040 2c 63 e2 3d a9 8e 67 be d7 a2 31 be 9b 52 63 3e
       0.11054072 -0.22613014 -0.17347275 0.2219948
000050 6c 9d a8 bd 6a 9c 09 3e 91 94 0b bd c7 f0 0f be
       -0.08233151 0.13438573 -0.03407723 -0.14056693
000060 e2 6e 41 be 95 c7 25 3e 9d 28 b2 3d 5c fa 56 3e
       -0.18889955 0.16189416 0.086991526 0.20993942
000070 38 45 21 be 78 8a 78 bd f1 d0 48 be 30 a6 26 3e
       -0.15749061 -0.06067893 -0.19610955 0.16274333
000080 2d 50 0a 3c b6 6b 98 be 15 8f 87 be 47 2e 21 3e
       0.008441967 -0.29769677 -0.2647635 0.1574031
000090 2f 0b 8b bd 59 53 ff 3d 6c 46 03 3e 7d 94 3d 3c
       -0.067892425 0.12467069 0.12819833 0.011571047
0000a0 e9 47 a7 bd 5b e5 59 be 67 d2 59 be fc b7 77 3e
       -0.08168013 -0.21278898 -0.21271668 0.24191278
0000b0 56 a2 24 3d 43 35 1e be 40 25 9a bd aa cc 4f 3d
       0.040193878 -0.15450005 -0.07526636 0.050732292
0000c0 5c 92 8d be e7 3b 9b 3d 7c 17 53 be 19 5b d6 3d
       -0.27650726 0.07579785 -0.20614427 0.10466594
0000d0 d0 a5 cb 3b 03 35 c9 3d f9 98 ef bd 65 4f ef bc
       0.0062148347 0.09824564 -0.11699099 -0.029212663
0000e0 23 ad 94 3d 1e 0f 81 bb ad 5a 62 be f4 d4 5e 3e
       0.07259586 -0.0039385697 -0.22104903 0.21760923
0000f0 e8 6d 16 be 7f 29 77 3e f0 ce a4 3d 4f e3 00 be
       -0.14690363 0.24136923 0.08047283 -0.12586711
000100 c3 20 58 be bd f1 fb 3d 03 59 b0 3c 43 45 d0 bd
       -0.21106248 0.12301967 0.02152682 -0.101694606
000110 9b ad ec bc b9 e1 3d 3e 76 7d 36 be 73 ca d9 3c
       -0.028891375 0.18543138 -0.17821297 0.026585793
000120 98 3f 46 3e b6 3d c2 3d e6 48 0e 3c 74 d6 af 3d
       0.19360197 0.09484427 0.0086843725 0.085858256
000130 e5 9f 55 3e 51 0a 9d bc 2e ac 60 be 1b 18 98 3d
       0.20861776 -0.019169958 -0.21940681 0.07426473
000140 e1 da 4d 3e 5c 75 6b be 9e ea f2 3d 87 50 2a be
       0.20103027 -0.22993988 0.11861156 -0.16632281
000150 9c 80 57 be 3b 21 92 be 94 26 70 3e b4 e6 45 3e
       -0.21045154 -0.28540978 0.23452216 0.19326288
000160 02 8e bd 3d 75 cb 08 bd 0c c3 9c bb 05 a9 f8 bd
       0.092556015 -0.033397157 -0.0047839936 -0.12141613
000170 54 39 0c bd f2 3b 18 3e 4d 64 64 bd 72 74 36 be
       -0.03423436 0.14866617 -0.055759717 -0.17817858
000180 2c 3f 70 3d f5 6e 4d be 3c 71 cf bd b6 f1 db bc
       0.058653995 -0.20061858 -0.101290196 -0.026848655
000190 52 57 ca bd e0 2f 87 bd 66 8c 2a 3e 99 11 6f be
       -0.09879936 -0.06600928 0.1665512 -0.23346557
0001a0 cf 4b 25 be c8 c2 02 be 5c bd 32 be 62 0e 03 3e
       -0.161422 -0.12769616 -0.17455047 0.12798455
0001b0 ef 0e a2 bd b0 34 87 3e af 9f 5f be 32 27 78 bc
       -0.079130046 0.26407385 -0.21838258 -0.015146064
0001c0 d6 82 91 bd 70 c4 4e 3d 01 cc 78 3e e7 dd b8 bd
       -0.07105033 0.050480306 0.24296571 -0.090266995
0001d0 e4 ac 53 be 71 c0 2b 3e 43 ef 05 be b7 eb e6 bd
       -0.20671421 0.1677263 -0.13079552 -0.11275428
0001e0 21 47 67 3c 5d 01 f9 bd 6b a4 2b 3e 71 54 53 bd
       0.01411608 -0.12158463 0.16761939 -0.0515942
0001f0 f4 50 cd bd 09 c3 83 3d 4f 17 9c 3e 29 a5 63 3d
       -0.10025206 0.064336844 0.30486533 0.05557743

cost_backbone.0.weight f4 [128, 22]
000000 7e e2 72 3e 75 7d 43 3d 52 9e 80 bd 7f 81 b3 3e
       0.23719212 0.047727067 -0.06280197 0.35059735
000010 6d 36 27 3e 25 a6 92 3d c4 4c 83 3e 8c 10 3c bd
       0.16329356 0.07160596 0.25644505 -0.045914218
000020 45 22 7b bd 3a b3 b5 3e 69 86 89 be 27 62 8b 3d
       -0.06131198 0.35488302 -0.2686036 0.068058304
000030 c3 ad 09 bd 98 90 0e 3d d5 4d a1 bd 19 ff 37 bd
       -0.033612978 0.034805864 -0.078761734 -0.044921014
000040 94 4c 8b 3b 58 b6 88 bc d2 4f e4 3d 93 4e b0 3d
       0.004251072 -0.01668851 0.11148037 0.08608737
000050 2e c9 e9 3d b1 93 bc 3d 5a 96 03 3e 93 bf 41 3e
       0.11415325 0.092078574 0.12850323 0.18920736
000060 26 42 15 bc 18 ca 27 bc 0c fb 56 bc bc 5c c6 bd
       -0.009110009 -0.010241054 -0.013121378 -0.096856564
000070 0e 67 a1 3c b6 06 81 3e ec 13 6c 3d f7 11 58 3e
       0.01970246 0.25200433 0.057636186 0.21100603
000080 57 49 69 be 08 02 d0 3c 5f 1f 7b 3e 2c 1c ec bd
       -0.22781883 0.025391594 0.24523686 -0.11528811
000090 6e 9c b5 3c de 00 d0 3d 3d f9 b0 3b e0 f9 bf 3c
       0.022169318 0.101564154 0.0054008053 0.02343458
0000a0 57 73 ca 3c 7f 74 94 bd 1b 3c 08 3e 2a 73 95 3d
       0.024713201 -0.07248782 0.13304178 0.072973564
0000b0 8a 4b c4 3e 18 12 21 3c 85 d1 fd bc ef 19 b1 be
       0.38338882 0.009830974 -0.030983696 -0.34590098
0000c0 b8 40 fd 3c 17 c0 77 bc 62 b1 c6 3d 22 2b 93 bd
       0.03091465 -0.015121481 0.09701802 -0.07185961
0000d0 1b 09 6e bd 36 54 8b 3d 3e ac 29 be b7 39 7e be
       -0.058114152 0.06803171 -0.16569611 -0.24826704
0000e0 89 2f 46 3c 8a 31 ed 3d 8e 64 88 bc 61 e8 7a 3d
       0.012096294 0.115817145 -0.01664951 0.06125677
0000f0 09 f0 4c 3d da 72 8f 3c 36 e3 2c 3d f4 c2 54 bd
       0.050033603 0.01751082 0.042208873 -0.051943734
000100 97 4c e6 3c 50 72 7c 3e 46 cd b6 bc 94 ce a2 bd
       0.028112693 0.24652982 -0.022314679 -0.07949558
000110 5c 3a ec bd 33 7f 06 3e 4d ab 93 3e 93 57 f2 bd
       -0.11534569 0.1313446 0.2884163 -0.1183311
000120 c8 e8 34 bd d1 bb a9 3d 3d 1e fe bc ff e3 af be
       -0.04416731 0.08287776 -0.031020278 -0.34353635
000130 8f 46 28 3e e9 6f 8c bd 75 b5 05 be 14 1c 13 3e
       0.16433166 -0.06857283 -0.13057502 0.1436618
000140 a3 b7 a7 bd dd 26 7f be 49 32 7e 3d 06 b4 fe 3d
       -0.08189323 -0.24917169 0.062059674 0.124366805
000150 2d 38 66 3d 87 63 83 3d 01 f5 0a bd 11 7e 98 3d
       0.056205917 0.06415468 -0.03392506 0.0744592
000160 c1 b0 76 3e 4e 46 ad bd 84 62 6d be 3c e3 6a be
       0.24090864 -0.08460675 -0.23182112 -0.22938246
000170 c6 b9 92 3d 73 3e 9d bd a6 8d e3 3d e0 af 39 bd
       0.0716434 -0.07677927 0.11111002 -0.045333743
000180 85 ab 0a be df f0 25 3e ef 85 34 be 1d 37 36 bf
       -0.13541992 0.16205166 -0.17629217 -0.71177846
000190 24 4f 15 be 08 bd 88 3c 86 75 bb bc 55 3f fd 3b
       -0.14580971 0.0166917 -0.022883188 0.007728497
0001a0 9c 6c 4c 3d 6a 06 8f 3d 9e f9 44 3e b3 4d 28 3c
       0.049908265 0.06983645 0.19235846 0.010272431
0001b0 e3 7b 01 be 6b cc 0d 3c 64 1c 23 bd 26 59 47 be
       -0.12644915 0.008654694 -0.039821997 -0.19467601
0001c0 cd c1 46 3e f9 45 0b 3e 74 11 bb bd ac 7e 13 3c
       0.19409867 0.13600911 -0.09134188 0.009002369
0001d0 b4 aa ab bc 99 ec bb 3d dd ba 96 3c 46 54 39 3e
       -0.020955421 0.09175987 0.01839965 0.18098554
0001e0 41 fe 2e be 80 38 e5 bd cd 80 e4 bd 4e 1b c4 3d
       -0.17089178 -0.11192417 -0.11157379 0.095755205
0001f0 a5 5a fd 3c 0b e8 d3 bd d7 db 85 bd 85 39 93 3d
       0.030927012 -0.10346993 -0.06536072 0.07188705
000200 60 e1 1b 3e ce 0e bb 3d 19 87 dd bd 6c 7d 11 3e
       0.15222692 0.09133683 -0.108167835 0.14208001
000210 e9 dc f5 bd 0c 6a 7b be 4b e6 d3 3b 16 dd df 3d
       -0.12005026 -0.24552172 0.006466662 0.10930841
000220 61 20 10 bd 26 da a5 bc 0b 71 00 be 6c 52 7e bc
       -0.03518713 -0.020245623 -0.12543122 -0.015522581
000230 08 fa 9a bc eb b9 3a be c9 e1 7b bc 12 f2 9e bc
       -0.018918052 -0.18234985 -0.015373656 -0.019402537
000240 09 74 8e bd fb e2 05 3e 83 3e ec 3d 37 7e 1b 3d
       -0.06955726 0.13074867 0.11535361 0.037962165
000250 dc d2 7c bd f5 7b e9 bc 60 32 3d be 47 bb 13 be
       -0.06172453 -0.02850149 -0.18476248 -0.1442691
000260 a4 ba cb 3c 73 f9 7f be 28 78 89 3e 6f 7d 6e bd
       0.02486927 -0.24997501 0.26849484 -0.05822509
000270 d6 05 1c bd b4 10 46 be d2 08 e8 bc 21 85 97 bd
       -0.038091503 -0.19342309 -0.028324518 -0.07398439
000280 fd b1 be bc 53 78 38 bd a9 a4 06 3e 50 f0 88 3e
       -0.02327823 -0.045036625 0.1314875 0.26745844
000290 84 5c eb bc 2f fc d8 be 87 2b 4d 3e d2 1b 06 3e
       -0.028730638 -0.423799 0.20036136 0.1309655
0002a0 22 b8 5f 3d 6e 6f 4f bd 78 82 de 3d b3 9c 27 3b
       0.054618962 -0.050643377 0.10864729 0.0025575578
0002b0 11 04 58 3d 9f f6 ac 3d d1 eb 1b bd 72 cc 49 be
       0.052738253 0.08445477 -0.03806669 -0.19706896
0002c0 78 ca 23 be b6 db 5a be 09 7d 0d 3e 38 9c 97 be
       -0.15995204 -0.21372876 0.13817228 -0.29611373
0002d0 13 b7 15 3e 44 5a d8 bd 92 4b 0f bd 5b 6f 87 bd
       0.14620619 -0.10564092 -0.03498418 -0.06613036
0002e0 c0 5e 96 bd 12 c9 12 3e 05 70 02 3d d3 c8 a4 3e
       -0.07342291 0.14334515 0.03184511 0.32184467
0002f0 c7 c7 ce 3d d8 b2 5d 3d 01 ee 53 bd 79 f4 e5 3c
       0.10096698 0.054125637 -0.05174065 0.028070675
000300 30 54 56 3c 3a f2 28 bd 84 ec 20 3e 17 1e ce 3d
       0.013081595 -0.04124663 0.15715224 0.10064333
000310 63 d7 f5 bd 0b 82 1c be 46 cf ad 3b e1 fa 4a be
       -0.120039724 -0.15283982 0.00530425 -0.19822265
000320 98 5f 03 3d cb e0 ad 3e e8 c9 b3 bc b0 71 86 3d
       0.032073587 0.33960566 -0.021946862 0.06564653
000330 e0 d8 60 be bd 91 c8 3c 57 a2 8f bd 48 86 f1 bd
       -0.21957731 0.024483556 -0.07013386 -0.1179319
000340 fc a5 76 3d ad 51 11 bd 71 b4 b9 be da 26 1b 3d
       0.06021689 -0.035478283 -0.36270478 0.03787885
000350 b8 78 58 3c 19 ae e4 bd 1a 86 ff bc 37 05 9b bd
       0.013212375 -0.11166019 -0.031191874 -0.07569354
000360 7c d8 d6 3b b7 2e 24 3e 71 02 bc 3c 13 2d 4b be
       0.0065565687 0.16033445 0.022950383 -0.19841413
000370 72 b8 d4 bb 9c 91 19 be 9d 94 be bd 75 da 6e bd
       -0.006491714 -0.14996952 -0.093056895 -0.058313806
000380 60 47 69 be 18 8e 28 bd 88 8e cf 3d 93 82 04 3d
       -0.22781134 -0.041151136 0.101346076 0.032351088
000390 44 be ca 3c 66 37 10 be 50 0d 50 be d8 b1 67 39
       0.024748929 -0.14083633 -0.20317578 0.00022096129
0003a0 f3 a3 15 ba 73 42 fa bd 6e 8c cd bd 24 84 47 3d
       -0.0005708329 -0.122197054 -0.100365505 0.048710003
0003b0 ef ac 53 3c d1 4d 8b 3e 1b 66 4b 3e 72 48 52 bd
       0.012919649 0.27207807 0.19863169 -0.05133862
0003c0 81 15 1f bd a8 58 23 3d a7 d8 09 bd 6f bc 5d be
       -0.038838867 0.03987947 -0.03365388 -0.21653913
0003d0 b0 be 87 3e 48 76 8d be 51 dc 8f 3d e6 94 03 bd
       0.2651267 -0.27629304 0.07024444 -0.032124422
0003e0 8d c2 06 3b 36 01 5e 3d af 71 26 3d 9f e2 7c 3e
       0.0020562739 0.054200374 0.04063576 0.24695824
0003f0 92 ab 98 bd 06 29 bd be 34 dd bb bd a0 78 d6 3d
       -0.074545994 -0.3694536 -0.091730505 0.10472226
