outputs/E1_penalty_fixedlambda_sweep/penalty_seed1_EB0.10_LB0.05_lamE5.0_lamL5.0/best_tail.pt (torch, 981771 bytes, 68 tensors)

actor_backbone.0.weight f4 [128, 22]
000000 43 65 e1 3d 9a 81 93 bd 1f 58 21 3d e2 ee 17 3e
       0.11005642 -0.07202454 0.03939068 0.1483722
000010 99 f3 5c 3d 86 68 65 bd b6 59 d6 bd 26 88 6c bd
       0.05394325 -0.056007884 -0.1046633 -0.05774703
000020 ff 82 94 bd fa bd fb 3c 89 ce ad bc 02 ab 41 3e
       -0.07251548 0.030730236 -0.021216648 0.1891289
000030 f6 50 21 3d aa 23 c9 3d c5 51 9d 3c 8f c6 83 3c
       0.03938385 0.098212555 0.01920403 0.016085891
000040 b6 07 7b 3b 13 67 00 3c 1d bb a6 bd 5c b3 7a bd
       0.0038304157 0.007837075 -0.08141158 -0.061206207
000050 37 f3 cf 3e 5b 20 f6 3c dd f0 3c bd 6c e3 04 bd
       0.40615246 0.030044725 -0.046128143 -0.03244345
000060 42 b6 74 3d 51 2f 02 bd 8e 83 01 bc f1 72 86 bc
       0.059744127 -0.031783406 -0.0079049 -0.01641223
000070 90 13 61 be e3 c1 5c 3d ec b3 d0 bc 33 9e 60 3e
       -0.21980119 0.053895842 -0.025476418 0.21935348
000080 85 9c af 3d 34 4d 01 3b d6 ca c7 bd 13 f7 59 be
       0.085747756 0.0019729855 -0.09755485 -0.21285658
000090 c5 e6 6a be f2 17 10 3d 6f f1 72 be 17 9e 0f 3d
       -0.22939594 0.035179086 -0.23724912 0.035062876
0000a0 c2 d0 79 3e 0f ad 3e 3c 94 d6 7d 3d 1b 8d 0f 3e
       0.24396041 0.01163794 0.061972216 0.14018671
0000b0 ae 38 28 3b a1 47 a5 3d f3 2f 8d 3d 56 3b 43 3c
       0.002566855 0.08070303 0.06893911 0.011916002
0000c0 57 20 18 be ac 76 f0 be 8c 06 79 3d 17 fa fb 3d
       -0.14856087 -0.4696554 0.06079726 0.1230356
0000d0 04 28 79 be 54 20 73 3d e6 36 04 3e 2e 78 22 bd
       -0.24331671 0.059357002 0.12911567 -0.039665394
0000e0 e3 5c ee bd 27 95 d5 3b 32 da 9f be 52 c8 1c bd
       -0.116388105 0.0065180245 -0.31221157 -0.038276978
0000f0 a9 98 26 3e 2f a8 9a be 45 9a cc 3d e0 a7 75 bd
       0.16269173 -0.3020644 0.09990362 -0.05997455
000100 d5 0e d9 bd 11 f4 80 3e af 50 e7 3c d8 21 8b bd
       -0.10598532 0.25186208 0.028236715 -0.067935646
000110 e0 b1 1c bd 6c 78 7b bd f5 36 cc bc 92 ef 23 3d
       -0.038255572 -0.06139414 -0.02492855 0.040023394
000120 a2 40 6e bd 40 d7 f0 3d 53 94 cb 3c 7a 1f 13 be
       -0.058167107 0.11759806 0.024851 -0.14367476
000130 34 5f 99 3c 9c c7 f5 3d 1f 85 34 be 3d aa e5 bd
       0.018722154 0.12000963 -0.17628907 -0.11214111
000140 00 62 6f 3d 73 fd 57 3d 68 ef 02 be a7 92 28 3d
       0.05844307 0.052731942 -0.12786639 0.041155484
000150 1f 94 82 be 2f d2 b1 3d ab 38 7c 3d a9 2f c7 3b
       -0.25503632 0.086826675 0.06157748 0.0060786796
000160 4f ba 03 be 40 ff c6 3d 83 1a 16 bd 7b cd 39 3e
       -0.1286404 0.09716654 -0.036646377 0.18144791
000170 82 14 75 3d ce 12 b6 bd 8d 5a 1d b9 72 73 83 3e
       0.05983401 -0.088903055 -0.0001500642 0.25674015
000180 8e 72 87 bd 29 66 93 be 41 b2 b9 bb a4 bf b4 3e
       -0.066136464 -0.2878888 -0.0056670015 0.3530246
000190 32 2f aa bd b9 7b f2 3d 31 46 06 3d d9 1a 8e 3d
       -0.08309783 0.118400045 0.032781783 0.069387145
0001a0 9a 5d bf 3c 6c ae 52 bc fb f6 50 3e f0 ab c0 bd
       0.023360062 -0.012858968 0.20406716 -0.094077945
0001b0 e5 dc 31 3e 94 41 c9 3d d0 56 31 bd 53 f5 bd 3c
       0.17369421 0.09826961 -0.04329568 0.023188269
0001c0 cc 41 00 be 86 de 68 be 51 3f 9e bd ce f3 2d bc
       -0.125251 -0.22741136 -0.077269204 -0.01061721
0001d0 0e 2f fe bd da f3 46 be de 24 ea 3a c9 27 4b be
       -0.12411319 -0.1942896 0.001786377 -0.19839396
0001e0 57 52 98 3e ca b6 ad 3d d7 ab a3 be 67 0e 57 bc
       0.2975032 0.0848213 -0.3196704 -0.013125992
0001f0 a6 4a d4 3d b7 0f d3 3d 1c 79 3a 3d 61 91 4b 3e
       0.103658006 0.10305732 0.045525655 0.19879676
000200 5e 7d c0 be e6 14 28 3d 73 34 9f 3d e1 06 30 bd
       -0.37595648 0.041035555 0.07773676 -0.04297531
000210 2c aa a9 3d 9c bb 04 3e 12 66 56 bd 71 95 46 bb
       0.08284411 0.12962192 -0.052343436 -0.0030301476
000220 cf 2c 94 bd 0b a0 3b 3d 7b 5a 2a bd 54 4a 2b 3e
       -0.07235109 0.045806926 -0.041590195 0.16727573
000230 9e 6b 20 be c3 c1 69 3d 1c fc 45 be a5 c6 8c be
       -0.15666053 0.05706955 -0.19334453 -0.27495304
000240 c5 dc 43 3d 59 9e ca 3d ae 12 74 3e af ce ce 3d
       0.047817964 0.09893484 0.2383525 0.100980155
000250 67 a2 fc bc 66 56 37 3e 46 39 13 be 37 b3 1a 3e
       -0.030839158 0.17904052 -0.14377317 0.15107428
000260 1c fd 5c be 82 65 a0 bc 27 39 54 3c ec 16 cc bd
       -0.21580929 -0.019579653 0.012953079 -0.099653095
000270 32 99 ac 3d 69 0d f3 3c 22 97 f3 3d 6c 68 90 be
       0.08427657 0.02966948 0.11894061 -0.28204668
000280 b1 f0 a6 3d 78 30 48 bd 0f 16 13 be dc 43 9b 3d
       0.08151377 -0.04887435 -0.14363883 0.075813025
000290 ea 7b 93 3d e3 1a 8e bd 9a 8e 8f 3d c3 d8 20 be
       0.07201369 -0.06938722 0.07009621 -0.15707688
0002a0 00 c9 a5 be ac b6 3c be bc a2 1a bd aa 7e aa bc
       -0.32379913 -0.18429059 -0.03775285 -0.020812351
0002b0 18 0b 50 3e 64 1f e7 3d 85 d1 08 bd b7 a8 90 3b
       0.20316732 0.11285284 -0.03340294 0.0044146436
0002c0 85 18 f9 3c cc 65 0a 3e 2c bc 18 bd 1f 64 99 3d
       0.0304072 0.13515395 -0.03728883 0.074898
0002d0 bf a9 09 bd ec cd 00 3d 37 5a 66 3d 2e 2d 14 bd
       -0.033609148 0.031446382 0.05623838 -0.0361759
0002e0 f6 f7 8b 3d 68 eb 7a be e7 3f 50 bd 55 89 0a 3e
       0.06834404 -0.24503863 -0.050842192 0.1352895
0002f0 82 db c0 3d a8 00 94 bc d4 6a 16 bc 8d 3b d6 3a
       0.09416868 -0.01806672 -0.009180743 0.0016344652
000300 25 87 05 bd f0 0e bf bd c1 0e bc be 0d 41 d2 3d
       -0.032599587 -0.09329021 -0.36730006 0.10266314
000310 dd f5 03 bd fc f2 48 3d a1 68 0d 3e 8b d5 c3 3c
       -0.032216895 0.049059853 0.13809444 0.023905536
000320 20 4b de 3d 0d 48 b1 3d e8 f6 16 3d 4e d6 be 3d
       0.10854173 0.08656321 0.036856562 0.09318219
000330 4a 28 32 3d 0b 66 92 3e c4 18 de bd 01 b2 19 be
       0.043495454 0.28593478 -0.108445674 -0.1500931
000340 3c 05 27 3e 88 4a 6d bc 23 ad a9 3d 3f f9 71 3c
       0.1631059 -0.014483102 0.08284976 0.014768898
000350 7e af f1 ba a2 56 bd 3d 3a fc f3 3e 5f eb d0 bd
       -0.0018439142 0.092450395 0.4765337 -0.102011435
000360 10 90 80 bc 5d 20 67 3e 3c ff 91 bd d3 91 a3 be
       -0.015693694 0.2257094 -0.0712876 -0.31947193
000370 24 b8 5c 3e 92 b7 58 3e f3 e2 ef bc 25 eb a3 bd
       0.21554619 0.21163777 -0.029283023 -0.08003835
000380 4b da 57 3c 20 46 2f 3d a6 62 c5 3d 7c ca 0c 3e
       0.013174604 0.042791486 0.09637956 0.13749117
000390 11 d3 a6 3d 25 30 29 be cd 1e 75 bd 8c 14 ba 3e
       0.081457265 -0.16522272 -0.059843827 0.363438
0003a0 e8 ce 57 3d ff ca 93 bc 9c e1 ec bd ed 17 92 bd
       0.052687556 -0.018041132 -0.11566469 -0.0713347
0003b0 c3 bc 84 3c ec e7 dc 3d 40 71 cf bd 21 3d 97 3d
       0.01620329 0.10786423 -0.101290226 0.07384706
0003c0 74 17 b5 3e 8d 94 9b bd 6f e9 28 3c a1 e1 92 3d
       0.35369456 -0.07596693 0.010309561 0.071719415
0003d0 93 0a 9b 3d 02 77 20 3e 03 6d 44 3d 46 2e 40 bd
       0.07570376 0.15670398 0.047955524 -0.04691913
0003e0 08 a4 a8 bd 3f 02 cf 3d 4a 65 01 3e 0b 01 3e be
       -0.082344115 0.1010785 0.12636295 -0.18555085
0003f0 14 ba 9a 3d 8b d6 f1 bd 6c 2c 59 bd b0 67 84 be
       0.07555023 -0.11808499 -0.05302088 -0.25860357

actor_backbone.0.bias f4 [128]
000000 36 b9 95 bc 09 9e e2 bc 0f 2d cb bc cd 66 18 bd
       -0.018276792 -0.027663248 -0.024801759 -0.037207413
000010 70 96 27 bd 81 36 0d bd 3d b4 e0 bc 50 16 96 bd
       -0.040914953 -0.034475807 -0.027429694 -0.073284745
000020 c4 9d f2 3d 00 20 b0 3d 92 05 1f 3d 2f b3 1e 3d
       0.11846498 0.085998535 0.03882367 0.0387451
000030 da f1 e6 bc 23 e4 f7 3c 2b 3a cc bc 1a 18 c4 bc
       -0.028191496 0.030260151 -0.02493008 -0.023937274
000040 80 ac df bc 31 01 84 3c 1a 1c ac 3d 03 d3 e4 bc
       -0.027303934 0.01611385 0.084037974 -0.02793265
000050 cf e6 e1 bc b7 e4 b0 3c cf c7 e2 3d bd 49 33 bc
       -0.027575878 0.021593435 0.11073267 -0.010942874
000060 71 4f d6 bc 60 8f 58 bd 23 f1 86 3d 2b c6 e8 3c
       -0.026160927 -0.052871108 0.06588962 0.028414806
000070 a9 0b a3 3c 01 cc 31 3e 40 3f 36 3d 36 43 7c b8
       0.019903021 0.17362978 0.044493914 -6.0144077e-05
000080 20 dd 76 bc a1 51 46 3b c9 ed e2 bc 7c 80 42 bd
       -0.015067369 0.0030261057 -0.027701275 -0.047485813
000090 52 a6 ff 3c e4 6b 11 3d 06 b0 16 3d dc 77 ae bd
       0.031207237 0.035503283 0.036788963 -0.08518955
0000a0 66 a7 e2 3c 87 be 54 3d 46 be be bc e3 fa 0b 3d
       0.027667712 0.051939514 -0.023284089 0.03417481
0000b0 41 0c 39 3d f0 69 b8 bd 9c 92 7c bc c4 bf 94 bd
       0.0451777 -0.09004581 -0.015415814 -0.07263139
0000c0 5d fa 91 3d 4a a5 92 3d af 37 43 3d c6 0c 86 bc
       0.07127831 0.07160433 0.047660526 -0.016363513
0000d0 29 15 4f bc 66 51 14 bd 07 38 d7 3c 84 7c 93 bd
       -0.012639322 -0.03621044 0.026271833 -0.07201484
0000e0 34 10 92 3b dd b0 77 bd cb fd 48 be a9 46 39 bb
       0.004457498 -0.060471404 -0.19628064 -0.0028270877
0000f0 dc 5f 4e bc 79 ca 89 bc 11 2c f2 3a 37 d5 ba bd
       -0.012596097 -0.01682018 0.0018476268 -0.09122699
000100 6e 73 aa 3c cb 7f 40 3d 45 aa 0d 3c 34 c9 10 3d
       0.020806994 0.046996873 0.008646552 0.035348132
000110 0f 6d 3c 3c 30 89 1b 3e 33 4b 25 3d 1f 0d f8 ba
       0.011500611 0.15189052 0.04035492 -0.0018924809
000120 ae 29 56 3c 86 fd b4 bc 59 40 83 3d 8c 14 07 bd
       0.013071461 -0.022093546 0.06408758 -0.03297858
000130 c1 05 83 bd 49 15 83 bd 27 4c 91 bd 42 7a 86 3d
       -0.06397582 -0.06400544 -0.07094603 0.065662876
000140 37 88 9e 3d 83 ea 7b bb c4 1b d4 3d 8d 1b a2 bd
       0.07740825 -0.003843934 0.103568584 -0.07915411
000150 e9 9d 97 3d 55 72 0a 3e 1e 10 e1 ba 00 25 06 bd
       0.07403166 0.13520177 -0.0017170941 -0.03275013
000160 10 ee b7 bd 99 66 83 3d 2b df 1c 3c d1 3a 36 bd
       -0.08980954 0.06416053 0.009574692 -0.044489685
000170 e4 2a f2 3c d9 13 0c 3d 73 b9 a8 3c 80 02 b3 bd
       0.029561467 0.034198616 0.020596242 -0.08740711
000180 6e e3 33 3d 14 d3 3a bc 93 0c a3 3b b3 39 dc 3c
       0.043918066 -0.011402864 0.004975864 0.026882982
000190 7f 73 12 ba 43 92 b5 3b f3 12 b1 3d 57 c6 d9 bb
       -0.0005586668 0.0055411174 0.086461924 -0.0066459584
0001a0 45 2d 01 bd bf 2e 57 bd d1 b3 05 3e c3 3e 77 3c
       -0.031537313 -0.052534815 0.13056876 0.015090647
0001b0 06 a1 40 be df dc c8 3d 6f 92 df bc 83 c2 2f bd
       -0.18811426 0.09807753 -0.027291505 -0.04291011
0001c0 db d7 c3 3d 4d e6 db 3c 03 42 60 3c 35 ee 83 3d
       0.095626555 0.026843214 0.013687613 0.06441919
0001d0 3b 0a 35 bd 74 aa f5 bc e3 92 79 bd cf 2b 62 bc
       -0.04419921 -0.029988505 -0.060931098 -0.01380439
0001e0 3f 4b ce 3d 0d ff 3b bd 01 21 17 3d fa ff e5 bd
       0.10072946 -0.045897532 0.03689671 -0.11230464
0001f0 24 82 f9 3d 05 be c1 bc 34 2d 79 bb 80 c7 c2 3c
       0.121830255 -0.023650179 -0.0038021328 0.02377677

actor_backbone.2.weight f4 [128, 128]
000000 06 6c 0c 3e 25 0b 85 3e 36 a5 be 3d 50 64 21 be
       0.13713083 0.25985065 0.09308855 -0.15760922
000010 eb 8f ee 3c dc 13 14 be 98 e4 43 3e e2 42 71 3c
       0.02912136 -0.14460701 0.1913017 0.014725419
000020 dc 48 09 be 6f 64 5c bd cb 47 96 3d 03 89 07 3e
       -0.134067 -0.05380672 0.07337912 0.1323586
000030 7c 14 8a 3e be b0 12 3c ee c9 71 3d bb 3d 09 3e
       0.26968753 0.008953271 0.059030466 0.13402455
000040 b3 b9 cd bc ec 92 dd bd 7f ac 75 3e 57 db 63 3e
       -0.025112962 -0.10819039 0.23991583 0.2225164
000050 cc 4e 76 3d 89 36 a8 bd 2c 40 e7 bd c1 3c 2b be
       0.06013374 -0.08213527 -0.11291537 -0.16722395
000060 95 22 9c bc 77 bb f1 bc 8e 0e f5 bc a3 be ca 3d
       -0.019059459 -0.029508336 -0.029914167 0.09899642
000070 a1 99 99 bd 05 10 fa bd 06 a3 5e 3e 15 b8 cc bd
       -0.075000055 -0.12210087 0.21741876 -0.09996048
000080 a5 c7 3c be 13 97 ec bd 66 ed eb bd 90 1d b2 ba
       -0.18435533 -0.115522526 -0.115198895 -0.0013589133
000090 27 de b2 3d 7e ad 3e bc 11 68 77 be b0 d6 0f be
       0.087337784 -0.011638043 -0.24160792 -0.1404674
0000a0 da bb a0 3c 1b d3 df 3d 05 12 c1 bd 16 76 75 bd
       0.019620825 0.10928937 -0.09427265 -0.05992707
0000b0 b7 54 8a be be b5 e5 3d 7f a1 b1 bd 4d 8d 77 3d
       -0.27017757 0.11216305 -0.08673381 0.06043749
0000c0 6b 2c 83 bd a1 53 ed 3d f3 4d 94 be 01 02 28 3d
       -0.064049564 0.115882166 -0.2896572 0.041017536
0000d0 f3 61 39 bb 8d 16 58 bd fe 5a ab 3d ef d1 69 be
       -0.0028287142 -0.05275588 0.08366965 -0.2283399
0000e0 7c 45 13 3e 23 6c ad 3d d3 50 82 bd 61 c9 d3 3d
       0.14381975 0.08467891 -0.06363072 0.10341144
0000f0 ad 84 0c bd de 80 81 3d 28 07 14 3d 33 08 47 3e
       -0.034306217 0.063234076 0.036139637 0.19436722
000100 b3 4c be bc 42 fe 97 3d 5e 72 17 be 16 91 36 3c
       -0.023229932 0.07421543 -0.14789721 0.01114299
000110 0d 11 50 3e 51 d0 cc bc 8f 26 a8 3a ad 9a 0f 3d
       0.20319004 -0.025001677 0.0012828874 0.03505962
000120 d5 8f dc be 6d b4 3d be 98 a8 69 bd b5 c0 11 3d
       -0.43078485 -0.18525858 -0.05704555 0.03558417
000130 3b 86 23 3e 12 0e 88 bd f8 e4 eb bc d6 53 b1 bd
       0.15969174 -0.06643309 -0.028795704 -0.086585686
000140 ec 12 90 be 81 ab c2 3d 66 e5 2c be d2 0d 9e 3e
       -0.28139436 0.09505368 -0.16884384 0.3086992
000150 18 99 2e be ce 2b 20 3d 2b bb 89 3e b5 89 32 3e
       -0.17050588 0.039104275 0.2690061 0.17435344
000160 87 45 05 3c 56 02 db bd be d4 c4 be d5 8a 05 3e
       0.008134252 -0.10693805 -0.3844356 0.13041241
000170 01 9e 58 bd 82 ea 70 3d 9c f0 43 3e e3 8d 5f bd
       -0.05288506 0.058817394 0.19134754 -0.054578673
000180 3e f3 8f 3c 21 0d 83 bd ea 2c ba 3b e6 18 7e 3e
       0.017572042 -0.063989885 0.0056816237 0.24814186
000190 29 0c 91 3d 22 df b1 bd f9 16 22 3e d6 4c 88 be
       0.070823975 -0.08685137 0.15829076 -0.2662112
0001a0 ae 77 6a 3e c4 c6 bf bd 44 52 39 3d 0a ad f6 bd
       0.22897217 -0.093640834 0.04524447 -0.12044723
0001b0 49 20 fd bc aa f9 15 3e 48 09 7d be a3 b1 ef 3d
       -0.030899184 0.1464602 -0.24710572 0.117038034
0001c0 02 89 bc 3c f0 f6 45 bc ee 6e dd 3d 8b 54 8d 3e
       0.02301455 -0.0120828 0.10812174 0.27603564
0001d0 df bc 16 be 30 d1 bf 3d 1e bf 06 be 5c 7c 23 3e
       -0.14720486 0.09366071 -0.13158843 0.15965408
0001e0 71 75 78 be c1 8d 7e bd 2e 06 73 be e9 f6 61 3e
       -0.2426355 -0.062146906 -0.23732826 0.22066845
0001f0 c8 1e cd bd 91 ce 25 3d 9b c2 fd 3d 67 d0 f7 3b
       -0.10015637 0.0404802 0.12390634 0.0075626853
000200 f2 bc 62 bd 23 a5 27 3e 9f 50 ae be 0a 00 33 be
       -0.055355974 0.16371588 -0.34045884 -0.17480484
000210 94 da 43 bd d4 b6 7b 3d 62 aa 03 3e 5d 49 ae bd
       -0.047815874 0.061453655 0.12857965 -0.08510087
000220 ea a4 f6 bc 9e 37 80 3e dd 00 bc bd 16 fa a4 bd
       -0.030107934 0.25042433 -0.09179852 -0.080555126
000230 99 ff 97 be b1 92 59 3e 1b a0 0c 3c d5 3a 6b be
       -0.29687193 0.21247365 0.008583094 -0.22971661
000240 5e f4 ab 3d 79 3e 97 3d 39 d9 79 3d 27 ac 68 3e
       0.08396219 0.073849626 0.060998175 0.22721921
000250 d4 fb 15 3b fb b3 87 bd 05 d4 b5 3d 1a 47 8b 3c
       0.0022885697 -0.066261254 0.0887833 0.017001677
000260 e7 1a 8b 3e 51 84 9d bc e5 04 94 3c a3 ed 6d 3b
       0.27168962 -0.019228132 0.01806874 0.0036304973
000270 92 2f fb 3b f4 fa 07 3d 13 6a a7 bd 0e 1c 9f 3d
       0.007665583 0.033198312 -0.08174529 0.07769023
000280 fa 9f 00 bd 67 ff 3b be 47 ad d8 3d d5 0e 6a be
       -0.031402566 -0.18359147 0.10579925 -0.2285722
000290 51 83 06 3e 58 a2 3b bd 73 bb 87 be 6d 53 11 3e
       0.1313603 -0.04580912 -0.265102 0.1419198
0002a0 5c 8d bb 3d 74 95 cb bd 77 67 aa be e8 f9 30 3d
       0.091578215 -0.09940615 -0.33282062 0.04320708
0002b0 25 dc bd bd 26 98 38 3e de 7e 32 be ca 2c 0e bb
       -0.09270505 0.1802679 -0.17431208 -0.0021694177
0002c0 7a ed 8b bc e7 4e 28 3d 3c d4 21 3d f2 d0 dc bd
       -0.017081011 0.041090872 0.039509043 -0.10782041
0002d0 57 5a f9 bb 7e f2 93 3d 28 34 e7 3c 73 54 a2 3d
       -0.0076096463 0.07223986 0.028223112 0.07926264
0002e0 c3 76 cf 3b ed 69 c9 bd dd 9a d2 3d 23 59 a1 bd
       0.006331296 -0.09834657 0.10283444 -0.078783296
0002f0 67 38 cf bc d8 de 74 bd 8a 4e ea bd 40 d6 34 3e
       -0.02529545 -0.059782833 -0.114407614 0.17659855
000300 2a f0 ba 3d 85 c3 89 3d 53 09 64 bd 21 77 35 ba
       0.09127839 0.067267455 -0.055672955 -0.00069223536
000310 80 7c 40 3e 61 e0 99 be da 89 eb 3c 3b b4 c5 3b
       0.18797493 -0.30054 0.028752256 0.006033448
000320 5b e2 6e bd e7 5b 83 bd a0 d1 32 3c e9 bf 41 3e
       -0.05832134 -0.06414013 0.010914236 0.18920864
000330 97 01 7a bd 79 e5 0d bc e9 7c b4 3e 12 07 8c bd
       -0.061036672 -0.008660668 0.3525155 -0.06837286
000340 68 f3 91 bd a6 cc 7a 3d 18 b5 e8 bd 61 63 d6 3d
       -0.07126504 0.061230324 -0.11362666 0.10468174
000350 d6 6d b2 3d 4e 12 39 3d f3 23 0b be 9c f5 c9 3d
       0.08712356 0.045183472 -0.13587932 0.098612994
000360 9d 67 72 bb ed 09 08 3d 74 bf 3d 3e cb 98 5d 3d
       -0.0036988028 0.03321259 0.18530065 0.054100793
000370 7d 2f 83 be 4e 47 9d 3d c7 3e 52 be 9c e9 73 bd
       -0.25622168 0.07679616 -0.2053176 -0.05954896
000380 d4 3c 77 3e ff e0 b9 3b b6 18 7a bd a3 08 99 bb
       0.24144298 0.0056725736 -0.061058722 -0.004670219
000390 fa 75 cd bd 3c 98 bb 3d 0b 58 05 be 4c fc e0 bd
       -0.10032268 0.09159896 -0.13021867 -0.10985622
0003a0 3c 61 69 3e 82 e0 fc bd ee a0 3e 3e aa 3c 46 be
       0.22790998 -0.12347509 0.18616077 -0.19359079
0003b0 01 53 23 bd c3 81 12 be 21 0e be bd 1e df d8 bd
       -0.03987408 -0.14307313 -0.092800386 -0.10589431
0003c0 a2 b7 2d 3e b4 77 4e be 43 86 df 3d 1b 46 7f be
       0.16964582 -0.2016285 0.1091428 -0.24929087
0003d0 f5 ac 31 bd 9f 4a a9 bd d4 86 35 3d 9a 21 03 be
       -0.043377835 -0.08266186 0.044318035 -0.12805787
0003e0 e7 98 4b 3e 84 e1 80 be cf 50 0b be 6a c2 da 3c
       0.19882546 -0.25172055 -0.13605045 0.026704032
0003f0 c0 f3 94 be 43 ed 8b 3d 20 8d e1 3d 01 33 26 be
       -0.29092216 0.068323635 0.110132456 -0.16230394

actor_backbone.2.bias f4 [128]
000000 97 ad 04 bd fa 1b 06 bd 34 d1 ac bd 30 06 5e 3d
       -0.03239211 -0.032741524 -0.0843834 0.05420512
000010 3f 05 7a 3c 16 6a cd 3d a4 e1 63 3c 81 42 ac 3c
       0.01526004 0.1003 0.013908777 0.021027805
000020 1c fc cb bd 07 80 aa 3c 9f f0 21 3d a6 0f bb 3c
       -0.099601954 0.020813001 0.039536115 0.02283461
000030 ec 14 f0 3c ce 27 aa 3b 4b 16 b4 3d 62 f4 5b bb
       0.029306851 0.0051927334 0.087933145 -0.0033562412
000040 af f7 90 3d ee e1 07 bd 36 3c 45 3d 86 f0 67 bd
       0.07078492 -0.033174448 0.048153125 -0.056625865
000050 37 71 db bc a7 01 24 bd 6d c9 4c 3d b6 94 85 bd
       -0.026787383 -0.04004064 0.049996782 -0.06522505
000060 c7 dd 61 3c 61 eb 2b bd bc e7 86 3d 2c 99 2e bd
       0.013785786 -0.04197252 0.065871686 -0.042626545
000070 c8 64 2a 3c 3c 68 31 bd e2 4a c4 bc 1a cb 91 bd
       0.010400005 -0.043312296 -0.023961488 -0.07118817
000080 a6 60 15 bd 35 78 a9 3c ca 7b 8a bc 84 4c de bb
       -0.036469124 0.020687202 -0.01690473 -0.0067840237
000090 17 d9 72 3d 01 f0 a7 bc 7a fe 26 3d 83 76 8c ba
       0.059289064 -0.020500185 0.04077003 -0.0010716472
0000a0 d9 dc e6 3c 40 ab f2 bc f6 ad 7f 3c 93 29 1e 3d
       0.02818148 -0.029622674 0.01560544 0.038613867
0000b0 7e b7 e8 bb 1e ac 64 bb 24 a2 24 bd e6 07 8d 3d
       -0.007101952 -0.003489263 -0.04019369 0.06886272
0000c0 67 0e 20 3c c8 96 33 3d 44 ea 29 bd 06 d6 0f 3c
       0.009769059 0.043844968 -0.04148318 0.0087790545
0000d0 67 0e 31 bc be 7d 50 bc 0c 18 01 bd fe e0 47 3d
       -0.010806656 -0.012725292 -0.031517074 0.048798554
0000e0 9a fb 12 3d bb f0 58 3d 3c 75 22 bd 4f 8c 15 3c
       0.035884477 0.052963953 -0.039662585 0.00912769
0000f0 76 e4 eb bc 11 bc 0d 3d b9 e1 0a 3d b7 ba a6 3c
       -0.028795462 0.034603182 0.033906672 0.020352704
000100 22 77 63 bd 29 de 4c bd fa aa ec 3c 97 e1 d6 bc
       -0.055533536 -0.050016556 0.028890122 -0.026230616
000110 6d 82 38 3d 27 4a 29 bd ea 5d a2 3b a0 bd bb bc
       0.04504626 -0.041330483 0.004955043 -0.022917569
000120 48 3c ee bc b5 64 02 bd 32 ff 4c 3c 5a e8 10 bd
       -0.029081479 -0.031834323 0.012512015 -0.035377838
000130 af 74 8d bb 2a 10 45 bd a0 15 dd bd 00 4c 4a bd
       -0.0043168883 -0.04811112 -0.1079514 -0.049388885
000140 4c c0 39 bc d3 02 22 bd ba f0 d5 3c 07 4b bb 3c
       -0.011337351 -0.039553475 0.026115764 0.022862924
000150 9f e2 01 3c 55 9d 8b bc 39 d1 6c bd dc 8f 68 bd
       0.007927566 -0.017042795 -0.057816718 -0.05677782
000160 ef 6b 69 bd 00 c6 de bc a3 ee 4d 3d b2 fa 8f 3d
       -0.0569877 -0.027194023 0.05027641 0.07030238
000170 d6 d9 b1 bd 3d f2 86 bd 41 66 06 bd cb c5 41 bd
       -0.08684127 -0.06589172 -0.03281236 -0.04730777
000180 2c 06 28 3d 29 3f c8 3d 85 60 1e 3d 02 69 2c 3d
       0.04102151 0.09777672 0.038666267 0.04209233
000190 1a 00 d9 3c bb f7 09 3d 28 8b e6 3c 8d 6b 07 3d
       0.026489306 0.03368352 0.028142527 0.033061553
0001a0 82 5c 5a 3c 75 5b 61 3d 64 bc a0 3c 74 3b d8 bc
       0.01332772 0.05501886 0.019621082 -0.026395537
0001b0 7a 30 44 3d f3 23 13 3d 49 8f 18 3b 67 90 51 3d
       0.047897793 0.035922956 0.0023278764 0.051163103
0001c0 2b 51 68 bd 22 e5 b0 bb d6 11 5b bc 79 0c 22 bc
       -0.056718033 -0.0053984085 -0.013370952 -0.009890669
0001d0 96 7e 77 bd 93 d8 31 3c 34 85 12 3d 97 21 4e 3d
       -0.060423456 0.010854858 0.035771564 0.050325003
0001e0 71 40 9a bb 4f c5 80 b9 56 0d f0 3b a5 41 39 bd
       -0.004707389 -0.0002456107 0.0073258085 -0.04522862
0001f0 61 a6 44 bd e2 12 67 3d 59 6b ee bc f4 28 85 3c
       -0.048010234 0.056414492 -0.029103922 0.01625488

reward_backbone.0.weight f4 [128, 22]
000000 84 40 46 3e 76 79 9b 3e 98 4d ba bd 3c 80 69 bd
       0.19360548 0.30366105 -0.09096831 -0.05700706
000010 fb 2e 35 3c 65 63 57 3d a8 52 3e 3d c7 8b 9a 3d
       0.011058564 0.052585024 0.046465546 0.07546192
000020 af 8c 3a 3e bd 8f 28 bd 05 02 80 bd 03 e6 07 3e
       0.18217729 -0.041152705 -0.06250385 0.13271336
000030 52 f2 9d 3d d3 b2 60 bd 83 40 b7 3d a0 5f 9b bd
       0.077122346 -0.05485804 0.089478515 -0.075865984
000040 f2 be 88 3c c3 0c 69 3d 86 63 0d bd 4d df 1f be
       0.016692612 0.056896936 -0.03451874 -0.15612526
000050 04 a4 c8 3d 2f b1 a8 3d 20 05 89 3d 8e a1 47 3e
       0.097969085 0.0823692 0.06690431 0.19495222
000060 bd 63 a1 3e 1a fb 4d 3e e2 81 fd bd 46 5c 0d 3e
       0.31521407 0.20115319 -0.12378289 0.13804731
000070 f8 7f 11 3d 63 8c 85 bd 1b c8 20 3d bc c7 cd 3c
       0.03552243 -0.06520917 0.039253335 0.025119655
000080 c0 f5 f4 3d cf 1d 7e 3e 7e 6a 8d 3d ac 14 74 bb
       0.119609356 0.24816059 0.069050774 -0.0037243767
000090 d6 b9 48 3c 97 88 20 bd bc a5 2b 3e 2f c3 14 bf
       0.012251338 -0.039192762 0.16762441 -0.58110327
0000a0 34 63 94 3d 4d 85 52 bd 47 9d 44 3e 97 b4 ce bd
       0.07245484 -0.051396657 0.19200622 -0.100930385
0000b0 71 1a 3c 3b 5b a1 b6 be d9 82 5a 3e 8b e7 09 3e
       0.0028702284 -0.3566998 0.21338977 0.13467233
0000c0 66 02 5b bc b0 a1 b4 3d 6c 03 e7 bb 4a df 02 bd
       -0.013367271 0.08819902 -0.0070499685 -0.031951226
0000d0 17 0f 13 3e 6a b8 21 be 80 66 b2 3d be 7b 8a 3d
       0.14361225 -0.15793005 0.087109566 0.06761883
0000e0 78 02 88 bd f3 30 b5 3d a2 9b fa 3d 10 2e 1e 3e
       -0.06641096 0.08847227 0.12236716 0.15447259
0000f0 7a 4c bf 3d 86 2e cd bb e5 9c 0b bf 3f a2 01 bd
       0.093407586 -0.0062616495 -0.5453628 -0.03164887
000100 48 ad a5 3e 18 64 c1 bd 78 1c 5c be 9f 85 c4 bd
       0.32358766 -0.094429195 -0.21495235 -0.09595799
000110 b7 75 40 3d 50 98 5c 3e 89 db 90 3d c6 66 51 3e
       0.04698726 0.21542478 0.07073123 0.20449361
000120 36 2b 60 bd c7 d9 be 3c 4f e5 0a 3d 64 be 48 3e
       -0.05472871 0.023297204 0.033910092 0.19603878
000130 17 60 b2 3d 16 03 8e bb 9e 30 8b 3d 54 83 6b bc
       0.08709734 -0.004333864 0.06796382 -0.014374573
000140 64 7e e7 bd 0f ed 0b 3e d7 bf 03 3e 2b d7 9f bd
       -0.11303404 0.1366465 0.1286615 -0.07804712
000150 4a 87 d5 3d 3c 88 85 3e f7 72 30 be 45 5f 23 3e
       0.10426195 0.260805 -0.17231356 0.15954311
000160 1b 31 64 bd 9c 78 9e 3d b2 8c 4e 3e 2f 00 0e 3e
       -0.055710893 0.07737848 0.20170859 0.13867258
000170 5d 7a 26 be e9 3a f2 3c 22 e2 e9 bd ae af 6b 3d
       -0.16257615 0.029569106 -0.114200845 0.057540588
000180 02 9e 35 be fe 01 b7 3e 32 aa 2f 3e a6 c2 9c bd
       -0.17736056 0.35743707 0.17154768 -0.07654314
000190 6d 76 90 bd 35 11 65 bc 56 b2 75 3d 78 f8 e6 3d
       -0.07053838 -0.013981153 0.059984528 0.112778604
0001a0 d5 bc 95 be 91 65 eb 3d d6 46 61 bc 37 c9 33 be
       -0.2924563 0.11493982 -0.013749799 -0.17557226
0001b0 a3 45 1a bc db b7 f8 3d 9c 2d b3 3d ae c1 3c 3d
       -0.009416017 0.12144443 0.08748934 0.046083145
0001c0 20 df d4 be f3 cf 55 bd 15 d6 2b be b8 1c a1 3d
       -0.4157648 -0.05220027 -0.16780885 0.07866806
0001d0 9d 93 ee bd 8c 2b cc 3d 2a 28 8e 3e 0d 0b 42 be
       -0.11649249 0.099692434 0.27765018 -0.18949528
0001e0 e7 41 88 be 53 1a ca bd e5 e7 e4 3d e9 fb b4 3c
       -0.2661278 -0.09868302 0.11177043 0.022092776
0001f0 0f ff 96 be 84 c6 30 3c 39 cf 9b bd 7a 07 41 3e
       -0.2949147 0.010789517 -0.07607884 0.18850508
000200 67 70 82 bb d2 d0 5b 3d 58 a8 08 be 0d a0 e2 bd
       -0.0039806846 0.053665943 -0.13345468 -0.110656835
000210 af 1e d8 bd ea 30 8d be 33 ef 88 be f0 23 81 3e
       -0.105527274 -0.2757638 -0.26744995 0.2522273
000220 15 87 a0 3d 75 00 a8 bd 15 db 26 3e b4 3d a5 3d
       0.07838265 -0.08203212 0.1629451 0.080684096
000230 5b a2 9a 3d 88 e7 30 bd ce 91 26 bd 5b de a4 bd
       0.07550498 -0.043189555 -0.040666394 -0.080502234
000240 95 96 8d 3e 73 43 bd 3c df 66 a6 3d f0 aa 81 3d
       0.27653947 0.023103451 0.0812509 0.06331432
000250 e4 8c 97 bd 98 7f d5 bd 62 cf df 3d 45 70 1e 3e
       -0.0739992 -0.10424727 0.10928227 0.15472515
000260 5c 0a 77 be fb 36 05 3e b4 49 93 be 44 31 3e be
       -0.24125046 0.13009255 -0.2876717 -0.18573481
000270 b5 c9 ce 3e 51 fc 71 3e 97 9b bc bd b6 1c 2f 3e
       0.40388265 0.23631407 -0.09209364 0.17100796
000280 24 f3 8b bc 76 4e 9c bd f1 c2 c9 38 53 af 60 bc
       -0.017083712 -0.07632153 9.6207375e-05 -0.013713676
000290 97 1e 23 be d8 a3 78 be a0 e2 ce bd 2a 3a 13 be
       -0.15929638 -0.24281251 -0.10101819 -0.14377657
0002a0 25 92 16 be 77 d1 69 be 4d 30 e5 bc 62 f2 9b bd
       -0.14704187 -0.22833811 -0.027977133 -0.0761459
0002b0 e4 5a 29 3d ee bb 12 bd 1f 9d 82 3d b6 3c 91 be
       0.041346446 -0.035823755 0.06377625 -0.2836663
0002c0 4b c5 05 be 31 a3 a0 3d ed 79 f2 3d f8 6f 2d bd
       -0.13063543 0.07843626 0.11839662 -0.04234311
0002d0 e7 d4 7e 3e dc 07 73 3d be d8 9c bd 9f 37 25 3d
       0.24885903 0.059333667 -0.07658528 0.040336248
0002e0 8c a4 09 be fb 5c 53 bc c8 13 78 3e 6c 48 98 3d
       -0.13441676 -0.012900586 0.24226296 0.074356884
0002f0 24 b1 43 3e b8 15 51 be ad f9 2f 3d e6 5f 93 bd
       0.19110543 -0.20418441 0.04296272 -0.071960256
000300 72 e0 04 bd e2 8d e3 bd 5a 36 04 3e c4 05 95 3d
       -0.03244061 -0.111110464 0.12911358 0.0727649
000310 ac d4 12 3e d1 aa 36 3d 5e 1e 01 3e bb 60 c0 3d
       0.1433894 0.044596497 0.1260924 0.0939345
000320 b6 8f 12 be 62 ad 3d 3e c1 18 93 3d 3b bb ab bc
       -0.14312634 0.18523172 0.07182456 -0.020963302
000330 28 74 3f be b9 cf 03 3e ef a1 05 bd 7e cc 1d 3d
       -0.18696654 0.12872209 -0.032625135 0.038525097
000340 c7 28 9f be 39 6e 98 bc 41 b0 01 3d 93 b7 ce 3d
       -0.31085798 -0.018607246 0.03166223 0.10093608
000350 eb 02 6f 3c 8a 5d 30 be 09 6d da 3b 39 b8 cf 3d
       0.014588098 -0.17223182 0.00666583 0.101425596
000360 27 5a 8f 3e 35 91 06 be 9f 96 56 be 80 8f e5 bd
       0.27998468 -0.1314133 -0.20955895 -0.11209011
000370 80 1f 3f 3b 20 79 95 3e a8 a9 b9 3c f1 98 f8 3c
       0.0029163063 0.29193974 0.022663906 0.030346366
000380 3f 72 90 be 47 df 6e bb f6 7e 7d 3d 68 a6 9d 3c
       -0.28212163 -0.0036449002 0.061888658 0.019244388
000390 9b 4f 76 3d 8f 2b 6a be 2b a4 54 3b fd 3e 44 bd
       0.06013451 -0.22868179 0.0032446485 -0.047911633
0003a0 b1 58 89 be 3a ba 98 bc 56 9e fa bd 9f c6 dc bd
       -0.2682548 -0.018643487 -0.122372314 -0.107800715
0003b0 b7 2c 19 3e 72 c3 13 3d 25 24 82 3b 97 41 e4 3c
       0.14958464 0.036075063 0.003971594 0.027863307
0003c0 0f d0 27 3d fd 10 0d bd d6 79 19 be 6c a8 c9 bd
       0.040969905 -0.03444003 -0.14987883 -0.09846577
0003d0 d3 3a c3 3d 97 aa a6 bd a7 0d 01 3e 67 3b 78 bd
       0.09532704 -0.08138006 0.12602864 -0.060603525
0003e0 52 4c 8c bd 16 06 c7 3d 27 13 bb 3c f2 ef 37 3e
       -0.068504944 0.09717958 0.022836281 0.17962626
0003f0 8d e4 19 bd 99 ef 8d bd f6 29 a6 bd ba d8 66 3d
       -0.03757148 -0.06930465 -0.08113472 0.05635903

reward_backbone.0.bias f4 [128]
000000 71 5c a7 be 84 28 c1 3e 81 f1 5b 3e 48 1d c4 3e
       -0.32687715 0.37726223 0.21478845 0.3830359
000010 93 21 b0 be 79 bb 0b be b4 e5 bf 3e f5 12 98 3e
       -0.34400615 -0.13645734 0.37479937 0.29701963
000020 23 e4 d8 3e 6f 6a d9 be bc 7a b1 be af 87 eb 3e
       0.42361555 -0.42464015 -0.3466395 0.46001956
000030 53 b5 94 3e 97 4b c0 3e 43 3d 9c 3e 63 48 c0 3e
       0.2904459 0.3755767 0.3051549 0.37555227
000040 77 fd 99 be 99 2d e1 be b5 da 8f be 78 1a e7 3e
       -0.3007619 -0.439801 -0.28096548 0.45137382
000050 27 71 c5 3e af 19 b4 3e 7c e0 ef be e1 e3 b5 be
       0.3856289 0.35175845 -0.46850955 -0.3552542
000060 a0 73 b4 3e be 6d f1 3d 90 a9 26 be 08 d6 93 be
       0.35244465 0.1178851 -0.1627562 -0.2887423
000070 db b1 d8 3e 30 75 a7 3e 10 e6 d4 3d ea de d0 3e
       0.42323193 0.32706594 0.103954434 0.4079507
000080 5b 0f be be 28 8d b3 3e 57 21 aa 3e 42 e5 05 3f
       -0.3712109 0.3506863 0.3322856 0.52302945
000090 ec b0 6c be ec 4e ff be 4f 25 b0 be 40 bc 3f 3e
       -0.23114365 -0.498649 -0.34403464 0.18724155
0000a0 5c 9c a9 3e a5 d9 be 3e 6c b5 a7 be 8c 31 71 3e
       0.33127105 0.37275425 -0.327556 0.23554057
0000b0 55 49 a8 be d3 df 93 be 1c 65 e5 be 09 26 6d 3e
       -0.32868448 -0.28881702 -0.44803703 0.2315904
0000c0 0c 7e a2 be 23 a3 b1 3e ac 02 b0 3e a7 ed db bd
       -0.3173679 0.34694776 0.34377038 -0.10738688
0000d0 53 65 b8 3e 53 50 84 3e 71 90 c8 3e ba d2 d1 be
       0.36014804 0.25842533 0.391727 -0.40981084
0000e0 a6 fa 6f 3e b1 03 b5 3e 91 32 67 be 1a 23 77 be
       0.23435459 0.3535438 -0.22577883 -0.24134484
0000f0 41 fa bb 3e 18 02 07 3f 76 0c 8c 3e c8 f1 c2 3e
       0.36714366 0.5273757 0.27353257 0.3807509
000100 06 1e c5 be 9c de 77 3e 33 e8 e4 bd 09 bf 89 3e
       -0.3849947 0.24206012 -0.11177101 0.2690356
000110 5f c3 9d be 35 3c ac be 45 4f c8 be 47 0a bf be
       -0.3081312 -0.33639684 -0.39122978 -0.37312528
000120 bf 14 a9 3e fd fc 9f 3e 4e a6 cb 3e 25 8b 33 3e
       0.3302364 0.31247702 0.39775318 0.17533548
000130 51 97 a6 3e 38 b3 ee be ce e6 b6 be ad 4b f1 3e
       0.3253732 -0.46621108 -0.35722965 0.4712805
000140 65 71 d9 3e f2 52 40 be 0c 12 ba be cf 76 fb 3e
       0.42469326 -0.18781641 -0.36341894 0.4911408
000150 2b d1 d4 be 50 be c6 be 31 27 be 3e 2a 44 ee be
       -0.41565832 -0.38817072 0.37139276 -0.4653638
000160 08 c6 a6 be c4 81 9c be 65 8e 63 3e 26 19 9f 3e
       -0.3257296 -0.30567753 0.22222288 0.31073874
000170 4e 7a 83 3e 89 5d 90 be 5a a2 85 be e3 97 89 3e
       0.2567925 -0.28196362 -0.26100427 0.26873693
000180 f5 b3 ba 3e 59 d8 b6 be f2 7d 93 be a0 ab 8e be
       0.3646542 -0.35711935 -0.28807026 -0.27865314
000190 68 40 c3 be 94 ff c5 bd 8d 96 8e be 0c 6a 23 3e
       -0.38135076 -0.09667888 -0.27849236 0.15958422
0001a0 9b fa a2 3e 75 28 cd be 5a 9a 9f 3e 5c 62 8d be
       0.31831822 -0.4006993 0.31172448 -0.27614105
0001b0 2d 0c 8e be 0a 8e a0 3e c7 f0 a4 be ce 6f e5 3e
       -0.27743664 0.31358367 -0.3221495 0.44811863
0001c0 f4 76 c5 3e 13 07 99 3e 28 9c 9b 3e 85 a0 a3 be
       0.38567317 0.2988821 0.30392575 -0.31958404
0001d0 20 47 b3 3e 3b 6c 61 bb a5 6e d3 3e df da aa be
       0.35015202 -0.0034396786 0.41295353 -0.3337011
0001e0 8a d4 54 3d 8c fe cd 3e 06 b9 dc 3e a2 dd be 3e
       0.051960506 0.40233266 0.43109912 0.37278467
0001f0 aa df 7b be ac 27 90 be c8 9a bd be 6a cc bd 3e
       -0.2459704 -0.28155267 -0.3703215 0.37070018

reward_backbone.2.weight f4 [128, 128]
000000 c4 8f 51 bd 2c 98 04 be c4 a6 50 bc d6 07 31 be
       -0.051162496 -0.12948674 -0.0127350725 -0.17288145
000010 fc e2 89 3e 87 40 70 bd 36 5e 45 be b9 02 7d bd
       0.26930988 -0.058655288 -0.1927422 -0.061770175
000020 95 51 ad bd 63 b5 37 3e 99 da 6a 3d 82 1d 8f be
       -0.08462826 0.17940287 0.057337377 -0.279522
000030 56 0e 77 3c 28 9c 65 be f7 47 ca bd 25 00 db bd
       0.015079102 -0.2242285 -0.098770075 -0.10693387
000040 51 94 61 3e f9 14 21 3e d8 9a c9 3e 86 8d 35 3d
       0.22029234 0.15730657 0.3937595 0.04432442
000050 7e 5a 0f 3e 25 93 3a bd 37 a1 42 3e 1f 57 3f bd
       0.13999364 -0.045550484 0.19006811 -0.046713945
000060 ca f7 86 bd 36 6d b1 3d 80 3b 5c bc f1 0b 0c 3e
       -0.06590231 0.086634085 -0.01344192 0.1367643
000070 7c 99 b6 bd b4 50 ac be cf 97 04 be 58 bb c6 bd
       -0.089159936 -0.33655322 -0.12948535 -0.09703702
000080 0b 9d df 3d 32 21 35 be 8e 34 46 be 53 35 c9 bd
       0.109186254 -0.17688444 -0.19355986 -0.09824624
000090 6a e3 76 3e 4e 07 8a 3e 16 79 c3 3d 7f 10 ad be
       0.24110189 0.26958698 0.0954458 -0.33801648
0000a0 1a 78 19 be a7 6b 0d be 9f 0f 25 3d c8 33 8f be
       -0.14987221 -0.13810597 0.0402981 -0.27969193
0000b0 fb 43 4d bc a0 91 00 3e a4 59 ac 3e c9 22 3b be
       -0.012528415 0.12555552 0.3366214 -0.18274988
0000c0 97 fa 06 bd a9 0c 74 be 55 96 20 be b7 b4 f2 3d
       -0.032953825 -0.23832954 -0.15682347 0.11850875
0000d0 51 b3 41 be 1e 53 44 be 0e e4 25 be 42 3d c7 3e
       -0.1891606 -0.19172332 -0.16200277 0.38913924
0000e0 17 47 26 3d b7 c4 51 be a9 ab 97 3e 01 5e eb 3d
       0.04059514 -0.20485197 0.29623154 0.11492539
0000f0 9d fe e7 be e3 26 6b be 85 67 8b be 78 b3 26 be
       -0.45311442 -0.22964053 -0.27227417 -0.162794
000100 09 71 0c 3e cf fc b8 3b 9e cf 80 3d 9e a9 29 3d
       0.13714994 0.0056453715 0.062896 0.041421525
000110 fb 25 96 3e 04 68 13 3e cd 82 b8 3e f5 1a 26 3e
       0.29325852 0.14395148 0.36037293 0.16221221
000120 46 99 5d 3e be f4 59 be d0 4a 4d be 1d 35 b2 bd
       0.216405 -0.21284768 -0.2004807 -0.08701537
000130 71 91 25 bd 02 8b 89 3e 6b 5a 01 3d e8 b4 a5 be
       -0.040421907 0.26863867 0.03158037 -0.32364583
000140 9c 1c 45 3d 1f 9d 89 3d 4a 44 0b 3e 56 7f 33 be
       0.048122987 0.067194216 0.13600269 -0.17529044
000150 5f 11 34 3e 0e e3 6d 3e 60 12 f3 bd 60 84 81 3e
       0.17584752 0.23231146 -0.11868739 0.25296307
000160 26 dd c4 3e 3b 4f 9f 3e fd 41 6a be 1a f7 02 be
       0.38449973 0.31115136 -0.22876735 -0.12789574
000170 8d 12 2c 3d 84 d7 88 3d 18 13 a8 3e 21 64 a9 3d
       0.04200988 0.06681731 0.32827067 0.08271051
000180 a6 a1 12 be 2c 56 86 bd 7f 76 20 3e 42 69 29 3e
       -0.14319476 -0.06559405 0.15670203 0.16544059
000190 aa d6 34 3d 62 a0 27 bd 7f c0 86 3e 32 fe 2e be
       0.044150032 -0.040924437 0.26318738 -0.17089155
0001a0 60 9d 44 3d 32 eb 45 3e fa 7b 21 bc ae 5d dd 3d
       0.048001647 0.19328001 -0.0098562185 0.108088836
0001b0 e1 a3 e5 3c ff ac a5 be ac 86 ad 3d dd 8d cb bd
       0.028032245 -0.32358548 0.08472952 -0.09939168
0001c0 ef 10 94 bd 3a 86 1c bd 98 f3 48 be 25 2e d0 3e
       -0.07229792 -0.038213946 -0.19624174 0.40660205
0001d0 04 6b 4e be f0 e1 64 3d 06 1f 02 bf 97 be b6 3d
       -0.2015801 0.055879533 -0.5082859 0.08923071
0001e0 14 a3 11 be 2a 04 b4 be c0 9c f4 3d fe d3 64 be
       -0.14222366 -0.35159427 0.1194396 -0.22346494
0001f0 4e af b2 bb f0 5c b7 bc 74 dc e1 3d 72 27 46 be
       -0.005453027 -0.022383183 0.11028376 -0.19350985
000200 0f 6d c6 bd a1 a4 64 bd 0d 74 2c be d2 13 7a bd
       -0.0968877 -0.055821065 -0.16841145 -0.06105406
000210 ac 53 62 bd d4 a6 88 3d d0 bb 85 be 85 8a a2 bc
       -0.055255577 0.06672445 -0.26119852 -0.019841442
000220 48 7f f2 bd a4 7b 4f 3e 49 fa cb 3d f3 a6 59 be
       -0.11840683 0.20262009 0.099598475 -0.21255092
000230 3f 34 bf bd 81 de 3e bd 27 9f 3a be 42 08 f7 be
       -0.09336137 -0.046598915 -0.18224774 -0.48248488
000240 24 22 e3 bd 78 c6 42 3e aa 37 56 3b e9 63 07 be
       -0.11090496 0.19021022 0.0032686987 -0.13221706
000250 2b 3c 1d be 6e 5b 19 be 0d 14 87 3e 80 88 bc 3e
       -0.15354984 -0.14976284 0.26382485 0.3682289
000260 65 10 db bd 73 1d cb bd 4f 95 5e 3e a3 1a b0 3c
       -0.106964864 -0.09917726 0.21736644 0.021497076
000270 02 89 46 be 83 7b b0 be 0b f7 6e 3b b1 48 88 bd
       -0.19388202 -0.34469232 0.0036463167 -0.0665449
000280 fe d8 ee 3c b5 d6 d8 bd e9 88 2e be 62 93 61 be
       0.029156204 -0.10587827 -0.17044415 -0.22028878
000290 79 3f 4a be 7c f5 5b 3e 58 96 e0 3c fd ab 77 be
       -0.19750775 0.21480364 0.02741544 -0.24186702
0002a0 28 56 5c 3c d7 b5 0b be 43 74 a7 3d 02 36 a4 be
       0.013448276 -0.13643585 0.08176472 -0.32072455
0002b0 d7 20 3e 3e 1e 52 b7 3e c1 42 c3 bd 92 3a 93 3e
       0.18567215 0.35804838 -0.09534217 0.28755623
0002c0 1e 3d e9 3c d2 74 51 be bd 78 5f 3d f6 bb 21 bc
       0.028471526 -0.2045472 0.054558504 -0.009871474
0002d0 90 11 ef be 3d 81 4b 3d 21 de 43 be 48 c6 a8 3e
       -0.46693087 0.049683798 -0.19127704 0.32963777
0002e0 44 07 5c 3d 2d 13 a1 bd 7d e8 ac 3e a7 5a 32 3e
       0.053717867 -0.078649856 0.33771124 0.17417394
0002f0 a4 85 00 3d b2 a6 70 3d 15 0a 8a be bf d6 18 be
       0.03137745 0.058752723 -0.26960817 -0.14925669
000300 d5 ad 97 bd 58 37 72 3b 38 71 df 3d 91 98 61 be
       -0.07406203 0.0036959257 0.10910267 -0.22030856
000310 7e 3c 2f be b4 4b 98 3d 18 09 bf 3e 67 cd 29 3d
       -0.1711292 0.07436314 0.37311625 0.041455653
000320 ed ee 9a 3d 5a 03 d7 be cf 07 3a be 7c 28 2b 3e
       0.07565103 -0.41994745 -0.18167041 0.16714662
000330 c4 f9 80 be 7c 19 92 3e 95 bc 82 be 6c fb 29 3d
       -0.25190556 0.28535068 -0.25534502 0.04149954
000340 48 06 de bd ef ab 1e 3e f7 84 00 3c 0c d3 4e be
       -0.10841042 0.15495275 0.007844201 -0.20197695
000350 23 9f f1 3d fa ea f2 3c 3d 38 b3 bd 92 79 e0 bd
       0.11797931 0.029653061 -0.08750961 -0.10960688
000360 b2 a2 de 3e da 9e 71 3e f0 a1 6a be 5d a2 81 be
       0.43483502 0.23595753 -0.22913337 -0.25319186
000370 f7 cc 9f be b7 f0 51 3d 61 66 a7 bd 44 b9 a8 be
       -0.31211063 0.051254954 -0.08173824 -0.32953846
000380 46 2e 8d 3d c2 98 df bc 3b d3 de 3d 7e 1d c3 3d
       0.068935916 -0.02729452 0.10880133 0.095271096
000390 73 99 a0 3e 50 61 4d 3e 5d 92 76 3d e6 44 0b be
       0.31367072 0.20056653 0.060198177 -0.13600501
0003a0 af 6c b9 be ad 80 e3 3d e4 35 0d bd ad 90 9c be
       -0.36215732 0.11108527 -0.034475222 -0.3057913
0003b0 4e 1e 6c be 90 6e ea be 25 74 4a 3e ce 6c b6 be
       -0.23058435 -0.45787477 0.19770868 -0.35629886
0003c0 b0 5e 85 be 71 99 80 be d4 a6 74 be c2 3a 47 3d
       -0.26048803 -0.25117067 -0.23891765 0.04864002
0003d0 5e 64 b9 be 7f ba 6f 3d 9b be 87 be 7c 26 7c 3e
       -0.36209387 0.058527466 -0.26512608 0.24624056
0003e0 59 c0 62 be b5 41 44 be 8c 33 99 3d 20 1a 63 be
       -0.22143687 -0.1916569 0.07480535 -0.22177935
0003f0 42 bf 09 3e 13 c6 9d 3d 7b 2c 9d 3e 41 e0 2a 3e
       0.13451865 0.07703795 0.30697998 0.16687109

reward_backbone.2.bias f4 [128]
000000 11 b1 a0 be 8c d8 9e be ff 5d af 3d e9 7e 65 be
       -0.3138509 -0.31024587 0.0856285 -0.22411694
000010 db a1 9d be 1a e0 7e be 45 43 67 be f1 67 b8 be
       -0.30787548 -0.24890175 -0.22584255 -0.360168
000020 fa 94 b6 3e 73 a7 c5 be d4 e5 a6 3e f4 e9 3d bd
       0.35660535 -0.38604316 0.3259722 -0.046365693
000030 13 bc a7 3e 4a 92 85 3e 49 a9 c8 3e 81 c5 3c be
       0.32760677 0.26088172 0.39191654 -0.18434717
000040 99 21 a7 3c 8e cc 95 be d1 80 9c 3e c8 49 a7 3e
       0.020401763 -0.29257625 0.3056703 0.32673478
000050 15 06 a0 be e7 ea a9 be 8f 89 b0 be 6e 8d ba 3e
       -0.3125464 -0.3318703 -0.3447995 0.36436027
000060 83 ad af be c3 27 a8 3e cf c7 9b be b9 80 e7 3d
       -0.34312066 0.32842836 -0.3042588 0.11303849
000070 f7 48 c7 3e ff 96 d4 be 27 39 51 3e 02 c8 77 3e
       0.38922855 -0.4152145 0.20431958 0.2419739
000080 0e 75 b8 3e ec 90 ba be 70 9b ae 3e 33 40 9e 3e
       0.36026806 -0.36438692 0.34102964 0.30908355
000090 bd c2 be be 9b e9 5b be d7 56 a6 be 86 af 94 3e
       -0.3725795 -0.21475832 -0.3248813 0.29040164
0000a0 dc 59 be 3e c1 c5 a5 3e 53 36 94 3e de 4d b1 3e
       0.37177932 0.32377437 0.28947696 0.3462972
0000b0 67 f3 a6 3e 7b 38 90 3e ab 89 9b 3e f0 11 7e 3d
       0.32607576 0.2816809 0.3037847 0.062028825
0000c0 c2 bb 11 be 8b 9f 90 3e 1c 46 bc 3e 6e cd 8d 3e
       -0.1423178 0.28246722 0.3677224 0.27695793
0000d0 13 dc c0 3e 4e b5 8c be 7e 6c ba 3d fa 41 a1 3e
       0.37667903 -0.27482074 0.091027245 0.3149565
0000e0 b2 ea 9d 3e 50 de c7 3e ae 2a 2b be 25 55 91 bd
       0.3084312 0.39036798 -0.167155 -0.07096318
0000f0 94 c4 95 3e d1 b7 32 3e d6 3c c5 be 1d d8 85 be
       0.2925154 0.17452933 -0.38522977 -0.26141444
000100 40 fb 5c 3e 1d 1c 77 3e 99 99 af 3e 1f 88 88 3e
       0.2158022 0.24131818 0.34296873 0.26666352
000110 85 86 b2 be e0 14 9c be f2 62 96 3e 6a c3 90 3e
       -0.34868255 -0.30484676 0.29372364 0.2827409
000120 da 39 8e be 8d d0 a5 3d 68 ae 81 3e 88 d3 87 be
       -0.27778512 0.080964185 0.25328374 -0.26528573
000130 a0 2b c8 be 79 3f ce 3e 06 49 aa be 49 be ae be
       -0.39095783 0.402828 -0.33258837 -0.3412955
000140 1d d8 83 be 3a b9 62 3e 29 eb ab 3e 96 91 e2 3e
       -0.2575082 0.22140971 0.3357785 0.44251698
000150 87 d3 95 3e 07 06 87 3e a3 71 ad be 82 cd ad 3e
       0.29262945 0.26371786 -0.3387576 0.33945853
000160 16 77 0c be f0 90 ba be 05 ad 8b 3e c8 b9 08 be
       -0.13717303 -0.36438704 0.2728044 -0.1335212
000170 f8 15 b0 3e bc f6 98 be 22 9d 98 3e 56 fd c9 be
       0.3439176 -0.29875743 0.29807383 -0.39451092
000180 69 d6 78 3e 84 3c a7 3e 29 a3 99 be 0d a5 44 3e
       0.24300541 0.32663357 -0.30007294 0.19203587
000190 cb a0 c4 3e bc cd 88 be d8 a9 25 3e a1 06 aa be
       0.38403925 -0.26719463 0.16178071 -0.33208182
0001a0 2f e0 97 3e cd 42 a5 3e b2 ce 8d be f5 c9 7a 3e
       0.29663226 0.32277527 -0.27696759 0.24491103
0001b0 3d b0 77 3e 4b 39 8d be 4f da 3d be f9 65 d3 3e
       0.24188323 -0.27582774 -0.1854031 0.41288736
0001c0 0b 39 54 be d5 f3 06 be 36 f3 9d be 35 14 9d be
       -0.20724885 -0.13178952 -0.30849618 -0.3067948
0001d0 f4 58 97 3e 78 cc a8 3e a4 3c cd 3e 91 ea b0 be
       0.29560053 0.32968497 0.40085328 -0.3455396
0001e0 48 c9 8e 3e 22 fd 8f 3e 34 12 51 3e 5d 31 2b 3e
       0.2788794 0.28122813 0.204171 0.1671805
0001f0 e9 ed a4 be 10 5d a3 be 6f 0c 96 3e 14 ca 83 be
       -0.3221276 -0.3190694 0.2930636 -0.2574011

cost_backbone.0.weight f4 [128, 22]
000000 48 5f 56 b9 bc 95 e2 3d b8 04 b9 bd 72 f6 38 bd
       -0.00020444125 0.11063716 -0.09034103 -0.045156904
000010 dc ad a6 3c 29 9f 38 3c 15 9f 71 3c 07 21 f4 3c
       0.020346574 0.0112684155 0.014747401 0.029800905
000020 a2 06 01 bd e2 4a 5e 3e ec 79 8e bd 46 a5 14 bd
       -0.031500466 0.21708253 -0.069568485 -0.03629043
000030 73 b5 6e be 84 76 0c be 9a 21 6d 3d a5 cf a7 bd
       -0.23311405 -0.13717085 0.057893373 -0.08193902
000040 f9 63 15 bd e7 16 d0 bd 86 51 d7 bc 3f ed a5 bd
       -0.036472294 -0.10160618 -0.02628399 -0.08101892
000050 b6 d4 9e 3d 5b 29 8c bd c9 38 32 bb 3d c8 46 bd
       0.07755415 -0.068438254 -0.002719449 -0.048530806
000060 bc c9 c6 bd 89 61 9c bd f7 a4 52 3c 8c c2 32 bd
       -0.097064465 -0.07635791 0.0128567135 -0.043642566
000070 5c d8 7c be c7 ef fd 3c 10 bc 1e 3e 33 89 0f 3d
       -0.2469191 0.030998124 0.15501428 0.035042953
000080 aa 9e ed bd 17 f6 a3 bd 93 fb 0e bd b9 ad 17 3e
       -0.116025284 -0.08005922 -0.03490789 0.14812364
000090 8b e3 2c bd 73 d8 09 3e c2 71 57 3e 99 72 c5 3d
       -0.04220919 0.13461475 0.21039489 0.096409984
0000a0 fd 39 46 3c dd d1 16 3e fa 81 0e bc ed 11 fe 3d
       0.012098786 0.14728494 -0.008697981 0.12405763
0000b0 24 57 11 be 88 ef 7a bd 55 4f 99 bd 31 11 e3 bc
       -0.14193398 -0.06126359 -0.074858345 -0.027718158
0000c0 e0 53 0e be 1f 97 93 bd 35 b3 1f bd d7 dc 2e 3e
       -0.13899183 -0.072065584 -0.038989265 0.17076431
0000d0 72 d5 58 bc 2f b7 94 bd 82 80 65 3d d9 4e e1 3d
       -0.013234483 -0.07261502 0.056030758 0.11001367
0000e0 4b 2a 1c 3e 4f 09 f9 3d 08 d0 7c bd c2 ed 99 bc
       0.15250508 0.121599786 -0.06172183 -0.01879013
0000f0 6a fd 92 3d ff c8 76 bd 91 ad 62 be 88 80 ab 3d
       0.07177241 -0.06025028 -0.22136523 0.08374125
000100 d3 8d 02 3d 60 e8 7c 3d 38 70 36 3d ec c4 45 be
       0.031873535 0.061745048 0.044540614 -0.19313401
000110 8b 98 be 3c 69 cd 41 3e bb 62 97 bc 53 95 f2 bd
       0.023266098 0.18926014 -0.018479696 -0.118448876
000120 4c 48 18 bd b8 9d 12 be a0 af 08 be 86 e9 23 3d
       -0.037178323 -0.14317977 -0.13348246 0.040017627
000130 50 f0 8e 3c 90 37 a3 3d bb 38 e0 bd 3e 92 0b be
       0.017448574 0.07969582 -0.109483205 -0.13630006
000140 cc b2 77 3c 63 c1 f5 bd 60 6b 45 3c 31 59 57 be
       0.015118312 -0.11999776 0.012049526 -0.21030118
000150 49 55 7c 3c f0 99 d9 3d 87 f5 2f 3e a7 30 d6 3d
       0.015401193 0.106250644 0.17183505 0.104584984
000160 c4 4f 83 3d 7b 86 c0 3c b3 43 1d 3e d0 28 2d be
       0.064116985 0.023501625 0.15357856 -0.169101
000170 80 4b e9 bd ff 14 19 bd 0e 49 15 be 7b 2f 6b 3e
       -0.113913536 -0.03737354 -0.1457865 0.22967331
000180 60 90 2e bd 63 5c 8e be 1b d8 e2 3d 9d ea e0 3d
       -0.042618155 -0.2780486 0.11076375 0.10982249
000190 31 70 93 3d b1 85 5a 3c 25 8c 0a 3e d6 c8 cf bd
       0.07199133 0.013337539 0.13530023 -0.10145728
0001a0 1e 5d 57 3c 8d 16 a1 3c f3 37 ee bd 62 5b 85 bd
       0.013144759 0.019664073 -0.11631765 -0.065115705
0001b0 40 b7 07 3c 54 cd 44 be 3e 99 0b be ac 30 0c be
       0.008283436 -0.19218951 -0.13632676 -0.13690442
0001c0 bb 17 a9 bc c2 ae 86 bd 63 7c 9e 3d 9d ae e1 bd
       -0.020641198 -0.06576301 0.07738569 -0.11019633
0001d0 a6 ab 45 3d 11 2f 79 bd bb 77 d6 bc 2d 8d 8d bd
       0.0482594 -0.0608359 -0.026180139 -0.06911693
0001e0 6b 0a 04 3e 2d 80 ea 3d d3 61 b6 3a ea 76 df bc
       0.12894599 0.11450229 0.0013914652 -0.027278382
0001f0 40 ed b1 bd 2c 05 c1 bb 61 cc 69 3d 2c 4f 87 bd
       -0.0868783 -0.005890509 0.057079677 -0.06606898
000200 10 4e 3a be 2a ba 9f 3e 4e 78 5e 3d b2 db 15 be
       -0.18193841 0.3119672 0.05431395 -0.14634588
000210 9c a3 6c bc 6d e8 ac 3c 9c 29 5c 3d de e6 63 bc
       -0.014443304 0.021106923 0.05375062 -0.0139100235
000220 d9 25 be 3b 94 24 a9 3d 9b bb ef 3d 5d f4 1b be
       0.0058028516 0.0825893 0.11705705 -0.15229936
000230 ec e2 e1 3b 92 09 75 bc cd 10 ab 3c 42 5b 87 3a
       0.0068935063 -0.014955895 0.020882035 0.001032688
000240 b1 3e 7b 3e 51 1d f5 3b 55 ec e6 bd 4b 7a a9 3d
       0.24535634 0.0074803014 -0.112755455 0.08275279
000250 c0 84 8f 3d 49 6c 12 3d df 72 53 bd 6d 0e 1c bd
       0.07007742 0.0357478 -0.05162322 -0.038099695
000260 7e 43 38 3e a3 d6 58 3e 9d 49 b2 bd dc 79 38 bd
       0.17994496 0.21175627 -0.08705447 -0.04503809
000270 cb 1a a8 bd e9 cd 9a bc 7f 44 55 3b 86 5e 16 be
       -0.08208235 -0.018897014 0.0032542048 -0.14684495
000280 b7 67 c7 3c 73 b7 35 be f1 1f 00 3c 2f 10 39 bd
       0.024341447 -0.17745762 0.007820115 -0.04518145
000290 d2 9b 6f 3e 01 3e d4 3d d8 4f 5c 3e f6 e2 32 bd
       0.23399284 0.10363389 0.21514833 -0.043673478
0002a0 9a 23 0e bd 3f a5 34 3d 56 9f ad 3d c6 2f 6e 3c
       -0.03470192 0.044102903 0.084776565 0.014537757
0002b0 dc f4 aa 3c 19 ec ec 3c 50 5f 0f 3e 63 c5 db 3c
       0.020868711 0.028921174 0.14001203 0.02682752
0002c0 b8 03 84 3d 4b 72 93 bd 1b 81 4c be 60 0f f7 b6
       0.06446022 -0.07199534 -0.19971125 -7.3629635e-06
0002d0 6d 28 50 bd 65 9e fe bc 57 07 1d bd d3 a7 73 bd
       -0.050819803 -0.031081388 -0.038337078 -0.05948622
0002e0 c2 49 20 3e 2a 07 4d 3d 5f fb 82 be 34 13 e5 bd
       0.15653136 0.05005566 -0.25582406 -0.11185303
0002f0 f2 71 db bd c5 ed 80 bd 93 25 03 be e5 4d 82 bd
       -0.10715093 -0.06295351 -0.12807302 -0.063625135
000300 6e f5 57 3e 1b 08 45 3e c7 72 04 be cc 99 90 bc
       0.21089718 0.19241373 -0.12934409 -0.017651461
000310 78 e5 0e bd f4 da 81 3e b2 67 45 bc 49 51 46 3e
       -0.034886807 0.2536236 -0.012048649 0.19366945
000320 85 d5 09 3d 12 5d 0c bc 1d 9f a8 3d 48 e1 0c bd
       0.033650894 -0.008567112 0.082334734 -0.034394532
000330 e6 a7 20 3e 4a 24 46 3e 97 4c c9 bd e4 e8 b0 bd
       0.15689048 0.1934978 -0.098290615 -0.0863817
000340 6b 3f 85 3e 19 eb 86 bc 3c 4f 65 3e 21 08 89 bd
       0.26024947 -0.016469525 0.22393507 -0.066910036
000350 c1 e9 90 3d 48 e9 2b bd f0 3e e4 3d b9 50 e6 bb
       0.07075835 -0.04197052 0.11144817 -0.007028666
000360 9d 6b b6 3c f1 97 24 3d 66 ec 3c 3d 78 c0 a7 3c
       0.02226811 0.040183965 0.046123885 0.020477518
000370 fd 4e 03 be a4 e2 f2 3c 05 4f e8 b9 39 6a 85 bd
       -0.128231 0.029649086 -0.00044309362 -0.06514401
000380 91 af 70 3d b3 09 5f 3e 4a 4b fa bd f9 d9 49 3e
       0.058761183 0.21781044 -0.122213915 0.19712056
000390 dd 1a 23 3c 9a a6 0a be 5d 98 12 3d 7f d0 47 be
       0.009955135 -0.13540116 0.035789836 -0.19513129
0003a0 e6 b8 df 3d b5 f9 fd 3d eb 63 f8 3d f3 e6 c7 3c
       0.109239385 0.124011435 0.12128433 0.024402117
0003b0 ed 51 42 3d ff 8e 87 3c 7a bb 84 bd 59 c4 f7 bd
       0.04744141 0.016547678 -0.06481071 -0.12097997
0003c0 0c cd 84 be 72 ef 60 bd f5 67 ad bd ca 15 06 bc
       -0.25937688 -0.054915853 -0.08467094 -0.008183906
0003d0 66 d2 d3 bc 56 69 23 3d 1b ed 20 3d 46 e6 d5 3d
       -0.025857162 0.039895378 0.03928862 0.10444312
0003e0 1a 84 2c be 02 00 24 3e 37 34 66 bd 9a 60 9d 3c
       -0.16847268 0.16015628 -0.05620214 0.019211102
0003f0 d5 25 74 bd 6d c0 35 bd 0f df 29 be 14 76 8d 3e
       -0.059606392 -0.044372965 -0.16588996 0.2762915
