outputs/four_group_ablation_20260121/A_multi_critic_adaptive_seed0/best_feasible.pt (torch, 981875 bytes, 68 tensors)

actor_backbone.0.weight f4 [128, 22]
-0.13830622 -0.010073887 0.3450246 0.027478606 -0.10501896 -0.013463065 -0.062584236 0.030293085
-0.15780501 0.151754 -0.085144155 -0.27352846 -0.076485254 0.10440687 -0.13417397 0.097437486
0.0010208196 -0.08198439 0.082248814 0.07330894 0.22007826 -0.1963183 -0.0051113763 0.28260463
-0.23596153 -0.07456684 -0.10865906 0.024581445 0.058535762 -0.081283726 0.23195525 0.047977258
0.238293 -0.040721398 -0.1167884 0.026232896 0.054841198 0.16213898 -0.004895857 -0.020958157
0.05385878 -0.14350893 0.0550961 0.1652392 -0.52350354 -0.046063945 -0.14010209 0.12796354
-0.13484074 -0.0791979 -0.02859387 -0.023402678 0.00053784566 -0.027137414 -0.04770543 0.09926605
0.10275603 -0.019306365 0.09120216 0.016133929 -0.21448305 0.06979763 0.048601642 0.05636271
0.29690376 -0.03739856 0.00010968586 0.2520113 -0.013914056 -0.12596588 -0.055933308 -0.13525176
-0.022528145 0.09755628 -0.16026512 0.13442771 -0.07085552 -0.30106145 0.00933071 0.23221917
0.02771801 -0.07253269 0.05742624 -0.029185837 0.104726456 0.15640026 -0.0057383226 0.07137557
-0.46117806 0.11105765 0.33763447 -0.19396797 0.13408512 0.04067827 -0.16080756 0.091491826
-0.010159858 0.08057818 -0.13461408 -0.07273488 -0.12936145 0.04843799 0.13601723 -0.031024149
-0.0046140356 0.004491107 -0.038881253 -0.11870509 0.023121754 -0.06993837 -0.10497804 -0.12608367
0.16209538 0.099487476 0.03485566 -0.06784614 -0.15557371 -0.13850014 -0.100921325 -0.07567045
0.14375283 -0.24282977 -0.16261855 0.051706836 -0.25677595 -0.037093043 -0.22294037 -0.15202042
-0.3109371 0.076220654 -0.03248758 0.09817781 -0.36015537 0.13031046 -0.05365548 -0.15925916
-0.17989281 -0.20947665 0.07094982 -0.093778774 0.08585293 -0.008003043 -0.14097445 0.09075409
-0.04904697 -0.18651941 0.06448995 0.1218816 0.24018154 -0.07723239 -0.03545578 0.06814437
0.048220273 -0.16559239 0.15842418 -0.47708878 0.02800107 0.15925948 0.010989547 -0.01593537
-0.08084864 -0.11977398 -0.0034920368 0.06958146 -0.16612254 -0.15684894 -0.009258315 -0.039517887
0.17304523 -0.021126278 -0.02038852 0.1137151 0.058129396 0.22023338 0.060674053 0.06714291
0.43681115 -0.08322343 -0.032603223 0.016302856 -0.22893405 0.016285077 -0.2584606 0.17076488
0.027440261 -0.061886296 0.14415649 0.062975705 -0.023799924 -0.108924404 -0.16440675 -0.037767082
-0.038189456 0.13741691 0.043026872 0.06348684 0.0879244 0.25298262 -0.3165511 0.041140437
0.15020742 0.14849249 0.07283646 -0.030909289 0.07665086 -0.019881947 0.13873614 -0.24970429
-0.015476658 0.053595297 -0.08919975 -0.04346311 -0.14222264 -0.011501512 -0.081706844 -0.04231097
-0.04029078 0.06998722 0.1280548 -0.071009874 0.16148165 -0.40038547 -0.0738639 0.111772835
-0.021618234 -0.24119818 -0.027884264 0.167906 -0.1318067 0.046071105 0.1475534 -0.020100769
-0.077983424 -0.14072044 -0.11965193 -0.06233151 0.05364015 -0.045021027 0.15299256 -0.023737079
0.088040106 0.088390715 0.13678038 0.31087396 -0.049161986 -0.09583553 -0.13868174 0.025076754
-0.0851911 -0.18955414 -0.07854355 -0.09928643 0.072797604 -0.08098779 0.03165093 -0.011389404
00000000: 25a0 0dbe f20c 25bc 10a7 b03e d01a e13c
00000010: 2e14 d7bd 3094 5cbc 2a2c 80bd 3429 f83c
00000020: a397 21be 6765 1b3e 0f60 aebd ec0b 8cbe
00000030: 4da4 9cbd 45d3 d53d e764 09be 4e8d c73d
00000040: 06cd 853a 6fe7 a7bd 1172 a83d ff22 963d
00000050: 325c 613e aa07 49be 557d a7bb 8eb1 903e
00000060: e69f 71be 80b6 98bd a488 debd 075f c93c
00000070: 32c3 6f3d 1578 a6bd ad85 6d3e cd83 443d
00000080: 1503 743e 7bcb 26bd c22e efbd 5fe6 d63c
00000090: 2aa1 603d c307 263e 6d6d a0bb 71b0 abbc
000000a0: 069b 5c3d 01f4 12be 73ac 613d 7734 293e
000000b0: 5404 06bf 8cad 3cbd ec76 0fbe e008 033e
000000c0: b113 0abe 8232 a2bd b13d eabc f9b6 bfbc
000000d0: 36fe 0c3a 484f debc c566 43bd 004c cb3d
000000e0: c171 d23d 6228 9ebc 33c8 ba3d 4d2b 843c
000000f0: 72a1 5bbe 0ff2 8e3d 8412 473d 96dc 663d
00000100: c503 983e 3c2f 19bd 2607 e638 a007 813e
00000110: c8f7 63bc 33fd 00be 531a 65bd 707f 0abe
00000120: f28c b8bc 96cb c73d 8a1c 24be 6ba7 093e
00000130: b31c 91bd ba24 9abe d6df 183c ddca 6d3e
00000140: e110 e33c 058c 94bd c737 6b3d 2317 efbc
00000150: d37a d63d 6427 203e 8a08 bcbb 5b2d 923d
00000160: 881f ecbe 3172 e33d 6dde ac3e 8a9f 46be
00000170: 9c4d 093e 429e 263d bdaa 24be 1160 bb3d
00000180: 8875 26bc 2c06 a53d 46d8 09be 06f6 94bd
00000190: 5477 04be ea66 463d 1a48 0b3e 5b26 febc
000001a0: 5631 97bb 232a 933b f341 1fbd a71b f3bd
000001b0: d569 bd3c d93b 8fbd bafe d6bd 141c 01be
000001c0: 55fc 253e 17c0 cb3d cfc4 0e3d ebf2 8abd
000001d0: b74e 1fbe fbd2 0dbe d7af cebd 1cf9 9abd
000001e0: f133 133e 5ea8 78be 7a85 26be 8cca 533d
000001f0: 2378 83be e0ee 17bd 7b4a 64be 3eab 1bbe
00000200: 2633 9fbe 9319 9c3d b211 05bd 7311 c93d
00000210: 4966 b8be 1b70 053e d9c5 5bbd d514 23be
00000220: d235 38be 0c81 56be 244e 913d 160f c0bd
00000230: a9d3 af3d 321f 03bc 9b5b 10be 48dd b93d
00000240: 7ae5 48bd f2fe 3ebe 4f13 843d 0f9d f93d
00000250: 26f2 753e 042c 9ebd 143a 11bd 478f 8b3d
00000260: 9f82 453d 0d91 29be f339 223e fb44 f4be
00000270: 8062 e53c eb14 233e 800d 343c e58a 82bc
00000280: f993 a5bd 0f4c f5bd a8da 64bb b980 8e3d
00000290: 071c 2abe 029d 20be 30b0 17bc 82dd 21bd
000002a0: c532 313e 0411 adbc d305 a7bc 76e3 e83d
000002b0: 1719 6e3d dc84 613e 5b85 783d 3982 893d
000002c0: b6a5 df3e 0c71 aabd f58a 05bd 918d 853c
000002d0: b06d 6abe 4868 853c f354 84be fddc 2e3e
000002e0: 66ca e03c 7c7c 7dbd c29d 133e 68f9 803d
000002f0: 0ff8 c2bc c213 dfbd 3e5a 28be a8b1 1abd
00000300: 8c6c 1cbd 05b7 0c3e f23c 303d 6305 823d
00000310: b511 b43d f086 813e fc12 a2be e082 283d
00000320: f9cf 193e 6a0e 183e 482b 953d 7a35 fdbc
00000330: 20fb 9c3d 77df a2bc d910 0e3e 7bb2 7fbe
00000340: cf91 7dbc be86 5b3d 5cae b6bd 6006 32bd
00000350: d0a2 11be d670 3cbc eb55 a7bd 454e 2dbd
00000360: f207 25bd 7655 8f3d cc20 033e a06d 91bd
00000370: 725b 253e 53ff ccbe f545 97bd 28e9 e43d
00000380: b918 b1bc a8fc 76be 8a6d e4bc 8def 2b3e
00000390: 56f8 06be 0eb5 3c3d 3d18 173e 5eaa a4bc
000003a0: c6b5 9fbd 0519 10be 120c f5bd 534f 7fbd
000003b0: c6b5 5b3d f867 38bd 15aa 1c3e 4374 c2bc
000003c0: 5f4e b43d 3106 b53d 2810 0c3e df2a 9f3e
000003d0: 145e 49bd 6b45 c4bd 9602 0ebe c46d cd3c
000003e0: ac78 aebd 7b1a 42be 71db a0bd af56 cbbd
000003f0: e916 953d eddc a5bd 68a4 013d 9f9a 3abc

actor_backbone.0.bias f4 [128]
0.19577314 -0.37445986 0.1951094 -0.19246148 0.21377875 -0.20825103 -0.11409465 0.275213
0.14817078 -0.3407387 0.27772462 -0.3962749 0.363259 -0.25285205 -0.27257535 -0.15474758
-0.20787719 0.357317 0.27580485 0.37819967 -0.123989895 0.30241767 0.33421972 0.21375841
0.28949746 -0.25473985 0.01216838 -0.29782277 -0.14609762 0.35781318 -0.21296965 0.22341615
0.27481055 -0.3494602 -0.29004076 -0.056465458 -0.2426968 -0.27966803 0.25334084 0.17122069
0.25912586 -0.16431762 0.23086245 0.29354313 -0.23306601 0.27681604 0.35869047 0.29452258
0.21315582 -0.34588885 -0.34004763 0.0076510897 0.3060325 0.33258474 0.30374673 -0.14376108
0.2636419 -0.14990546 0.26396137 0.20979509 0.057910107 -0.2454375 -0.18993086 -0.17818172
0.09854995 -0.2279449 0.31813547 0.18832576 -0.28696495 -0.32061896 0.027682118 0.11209746
0.3683833 -0.1811707 0.21296488 0.3718433 0.2120091 0.35552406 -0.40923947 0.33786923
-0.10387064 -0.23987484 0.21578474 0.1841832 0.1411811 -0.21878739 -0.14625531 0.14384037
-0.25905716 0.30786937 -0.3593859 -0.36026824 0.33741927 0.07476987 0.2630328 0.2467178
-0.14778215 0.31858644 0.2223144 -0.1252861 -0.23392618 0.1369769 -0.17989425 0.2562403
-0.24245162 0.17004259 -0.31483606 0.25601658 -0.3075741 -0.11702201 0.33897302 -0.17804785
0.3063463 0.36003867 0.32760164 0.37623763 -0.3004741 0.16401781 -0.25736415 0.16731742
0.1376816 -0.22992904 0.14279255 0.340503 0.242299 0.07693453 -0.3228197 0.21731655
00000000: c178 483e 34b9 bfbe c2ca 473e 9f14 45be
00000010: d1e8 5a3e c23f 55be 75aa e9bd b8e8 8c3e
00000020: 15ba 173e 4e75 aebe ec31 8e3e 8be4 cabe
00000030: 15fd b93e d375 81be ff8e 8bbe 2676 1ebe
00000040: c2dd 54be 41f2 b63e 4b36 8d3e 63a3 c13e
00000050: 6aee fdbd 7dd6 9a3e d91e ab3e 7ce3 5a3e
00000060: 0339 943e 436d 82be e35d 473c 3a7c 98be
00000070: 9d9a 15be 4a33 b73e b714 5abe 34c7 643e
00000080: f8b3 8c3e 73ec b2be 3980 94be 5348 67bd
00000090: 8385 78be a630 8fbe e4b5 813e 7a54 2f3e
000000a0: 25ac 843e e142 28be 3567 6c3e 494b 963e
000000b0: dba8 6ebe d5ba 8d3e 47a6 b73e aacb 963e
000000c0: 8545 5a3e 5818 b1be b91a aebe feb5 fa3b
000000d0: 4bb0 9c3e 8c48 aa3e b184 9b3e 1b36 13be
000000e0: 12fc 863e d180 19be f225 873e 86d4 563e
000000f0: 2633 6d3d f853 7bbe 3c7d 42be 4575 36be
00000100: 8ed4 c93d 636a 69be a7e2 a23e 78d8 403e
00000110: 12ed 92be 2b28 a4be 9cc5 e23c 5a93 e53d
00000120: bc9c bc3e d084 39be 7713 5a3e 3f62 be3e
00000130: ea18 593e 4007 b63e d687 d1be 32fd ac3e
00000140: 21ba d4bd c0a1 75be adf6 5c3e 859a 3c3e
00000150: c791 103e cd09 60be f4c3 15be e44a 133e
00000160: 24a3 84be 0ea1 9d3e 6e01 b8be 1475 b8be
00000170: 38c2 ac3e f220 993d 3cac 863e 97a3 7c3e
00000180: 3454 17be c31d a33e 63a6 633e 004b 00be
00000190: 588a 6fbe ac43 0c3e 3336 38be ee31 833e
000001a0: 3d45 78be a51f 2e3e 3132 a1be 9b14 833e
000001b0: 5a7a 9dbe 3ca9 efbd df8d ad3e 2d52 36be
000001c0: 6cd9 9c3e fd56 b83e 67bb a73e 38a2 c03e
000001d0: bed7 99be 49f4 273e 3cc5 83be 4255 2b3e
000001e0: 68fc 0c3e 8572 6bbe 3638 123e 6956 ae3e
000001f0: 3b1d 783e da8f 9d3d a048 a5be 3b88 5e3e

actor_backbone.2.weight f4 [128, 128]
-0.09452441 -0.061439093 -0.11125718 -0.025109991 -0.08962388 0.050583012 0.09053977 -0.26461256
0.030868864 0.05274861 -0.27717385 -0.0673678 0.06278044 -0.055028666 0.005632236 -0.27884194
0.008234774 0.03912463 0.059572425 0.074410416 0.12800735 0.2763367 0.06349878 -0.12908877
-0.06967871 -0.01802421 0.19102693 0.046669926 -0.24815351 0.22084811 -0.14219789 -0.05369812
0.16825795 0.0764282 -0.08165082 -0.17704615 0.133979 0.09807381 0.2282547 -0.23237216
0.20738056 0.22364213 0.11629893 -0.018732488 0.037044004 -0.045937303 -0.11756955 -0.0860278
-0.1433731 0.08231836 0.043724623 0.086221784 0.09754104 -0.1163761 -0.05666729 -0.15732995
-0.17890449 -0.10993569 0.07745212 0.07682438 0.09239888 0.025082722 -0.047749497 0.11908885
-0.21751541 0.047243953 -0.024636554 0.200191 -0.054137893 -0.124108076 0.02541521 0.13322608
0.08244227 0.18685608 0.152241 0.2197571 -0.14539239 -0.063457094 -0.144882 -0.037103456
-0.0366574 -0.13228552 -0.11186091 0.042499 0.020896029 -0.080355674 0.2721792 -0.029902402
0.12737729 0.28233543 0.09128729 0.13926864 0.24080405 -0.3306798 -0.036834557 0.2054833
-0.42219388 -0.03299642 -0.15981781 -0.25023413 -0.1846408 0.22548328 -0.13138717 -0.10526438
-0.11948504 0.066744685 -0.048673537 -0.31177235 -0.0402866 -0.20690688 0.203137 -0.09969337
0.20022358 0.13290596 0.1545383 0.028355256 0.042666797 -0.12792484 0.14160031 0.14403753
0.013158505 -0.08435397 0.09577621 0.03833075 -0.093912356 0.07302142 0.3204847 0.23153773
-0.012953697 0.11327828 0.19901922 -0.12259552 0.045509472 -0.040611908 -0.033554018 -0.13081911
0.21125402 -0.027833998 0.010790392 0.19310288 0.2787617 -0.04095156 -0.08394809 -0.22866139
-0.0074086743 0.09873282 -0.26686564 0.065605015 0.03981905 -0.08115738 -0.055268437 -0.28808329
-0.1366694 -0.15252337 -0.06084635 0.108249485 -0.37421423 0.21807499 -0.21757282 0.16770582
0.05749414 -0.024511283 0.012935389 -0.022411734 0.057438962 -0.047782086 -0.051492345 -0.22700475
-0.101188466 0.054523308 -0.02598464 -0.077470675 -0.18244986 -0.019386569 0.19983174 -0.07631389
0.08572967 0.13800049 0.21136095 0.0043673143 0.061497714 0.01676698 -0.024725087 -0.033553667
0.026474968 -0.14778501 -0.09790196 -0.3260236 0.03339177 0.049468536 -0.11555691 -0.22863641
-0.23006907 -0.051187083 -0.062157467 -0.061748594 -0.12087842 -0.01751549 -0.08260421 -0.06171454
-0.2207984 0.20105106 -0.01609075 0.13769223 -9.633524e-05 -0.27824435 0.066582836 0.06203372
0.2539547 -0.065921284 -0.24346404 -0.093461715 0.1572052 -0.17322429 0.009000815 0.009613477
0.048020244 -0.07030646 0.038564846 0.0038957566 -0.050970517 -0.13735634 0.00858736 -0.19654304
-0.21253641 -0.28262016 0.15542226 -0.047745954 0.100216694 -0.03195152 0.23581396 0.007603746
-0.07283942 -0.09278373 -0.14077304 -0.16941448 -0.1104943 -0.21369533 0.0703198 -0.06130949
-0.031145869 0.014500475 -0.013294241 0.00075645326 0.20153429 0.17711748 -0.34532836 -0.07312394
0.05662349 0.1711841 0.31723917 -0.10441978 0.0069687213 0.22587626 0.0061207456 0.106626965
00000000: 0496 c1bd 8fa7 7bbd ceda e3bd 78b3 cdbc
00000010: ba8c b7bd 2230 4f3d ea6c b93d 4c7b 87be
00000020: b3e0 fc3c ed0e 583d bbe9 8dbe 21f8 89bd
00000030: 0893 803d bd65 61bd 9f8e b83b 5fc4 8ebe
00000040: 25eb 063c 2641 203d 3702 743d 7d64 983d
00000050: 5c14 033e 017c 8d3e a60b 823d d92f 04be
00000060: b6b3 8ebd 82a7 93bc 909c 433e f728 3f3d
00000070: f41b 7ebe 0226 623e 539c 11be 8ff2 5bbd
00000080: d04b 2c3e 6386 9c3d 8c38 a7bd 964b 35be
00000090: ca31 093e ecda c83d 9abb 693e f8f2 6dbe
000000a0: 925b 543e 7102 653e 222e ee3d e074 99bc
000000b0: 74bb 173d c128 3cbd 4ec8 f0bd 582f b0bd
000000c0: 66d0 12be 8796 a83d 9718 333d 0c95 b03d
000000d0: 99c3 c73d 9856 eebd f61b 68bd 1a1b 21be
000000e0: bd32 37be f725 e1bd 389f 9e3d 1a56 9d3d
000000f0: a03b bd3d 487a cd3c fa94 43bd dbe4 f33d
00000100: 5cbc 5ebe e082 413d 99d2 c9bc dffe 4c3e
00000110: b2bf 5dbd 602c febd 8f33 d03c 6b6c 083e
00000120: 7ed7 a83d 3357 3f3e 11e5 1b3e 0108 613e
00000130: bee1 14be cbf5 81bd f25b 14be cbf9 17bd
00000140: 1226 16bd db75 07be 5517 e5bd 6e13 2e3d
00000150: 262e ab3c 8491 a4bd 125b 8b3e e2f5 f4bc
00000160: 316f 023e 458e 903e d5f4 ba3d 709c 0e3e
00000170: 5695 763e dd4e a9be d5df 16bd 376a 523e
00000180: cc29 d8be 4127 07bd 48a7 23be b01e 80be
00000190: 7a12 3dbe 17e5 663e 5c8a 06be da94 d7bd
000001a0: 93b4 f4bd 70b1 883d e75d 47bd a0a0 9fbe
000001b0: 9003 25bd 66df 53be 2503 503e 0a2c ccbd
000001c0: 6907 4d3e 8018 083e 4a3f 1e3e 4849 e83c
000001d0: 61c3 2e3d bbfe 02be acff 103e 937e 133e
000001e0: c596 573c c6c1 acbd 5126 c43d b400 1d3d
000001f0: 1f55 c0bd 418c 953d 9216 a43e 3a18 6d3e
00000200: be3b 54bc 71fe e73d b2cb 4b3e 5c13 fbbd
00000210: 2468 3a3d ac58 26bd f06f 09bd 72f5 05be
00000220: f952 583e 2004 e4bc 2fca 303c c3bc 453e
00000230: dbb9 8e3e d3bc 27bd faec abbd 3626 6abe
00000240: 77c4 f2bb 6f34 ca3d 9da2 88be ec5b 863d
00000250: 4d19 233d d735 a6bd 2861 62bd a77f 93be
00000260: 10f3 0bbe 162f 1cbe 063a 79bd e8b1 dd3d
00000270: 0299 bfbe 0d4f 5f3e 69cb 5ebe 13bb 2b3e
00000280: fa7e 6b3d e3cb c8bc f4ee 533c d098 b7bc
00000290: 1e45 6b3d 26b7 43bd a3e9 52bd ef73 68be
000002a0: e63b cfbd d553 5f3d bddd d4bc f2a8 9ebd
000002b0: 23d4 3abe 95d0 9ebc b1a0 4c3e 754a 9cbd
000002c0: 0a93 af3d 0050 0d3e 016f 583e b01b 8f3b
000002d0: 07e5 7b3d e85a 893c 448c cabc 926f 09bd
000002e0: 08e2 d83c f454 17be d380 c8bd 91ec a6be
000002f0: cfc5 083d 859f 4a3d 1aa9 ecbd aa1f 6abe
00000300: 3a97 6bbe 8ca9 51bd d498 7ebd 18ec 7cbd
00000310: 1b8f f7bd a57c 8fbc 652c a9bd 63c8 7cbd
00000320: fa18 62be 54e0 4d3e c0d0 83bc 31ff 0c3e
00000330: 9707 cab8 0b76 8ebe 955c 883d 1217 7e3d
00000340: 5a06 823e bd01 87bd a34e 79be db68 bfbd
00000350: 66fa 203e b561 31be 2878 133c d881 1d3c
00000360: e0b0 443d d5fc 8fbd 2cf6 1d3d f34f 7f3b
00000370: 76c6 50bd 24a7 0cbe 00b2 0c3c 9442 49be
00000380: 25a3 59be 97b3 90be 0327 1f3e 4391 43bd
00000390: 693e cd3d 99df 02bd 3779 713e d828 f93b
000003a0: d52c 95bd 6505 bebd cf26 10be fd7a 2dbe
000003b0: d64a e2bd f3d2 5abe d403 903d a91f 7bbd
000003c0: 9f25 ffbc 6693 6d3c 17d0 59bc b84c 463a
000003d0: 015f 4e3e 495e 353e e1ce b0be 01c2 95bd
000003e0: 08ee 673d e24a 2f3e 2c6d a23e 0ada d5bd
000003f0: df59 e43b 1b4c 673e 8990 c83b 3d5f da3d

actor_backbone.2.bias f4 [128]
0.07659918 0.063506804 0.034815293 -0.062309943 -0.26323023 0.24414614 -0.070622675 -0.100757614
-0.10954441 -0.22693339 0.28740788 0.2668319 0.2542258 -0.22338094 0.14631377 -0.19961986
0.27166814 0.28168073 -0.19387391 0.25963894 0.20053363 -0.014281059 -0.1549422 -0.27067754
-0.25298643 0.24211667 -0.16097495 -0.15172267 -0.2768229 0.25383356 0.27139524 -0.07580177
-0.19818398 -0.272116 0.19497491 0.23183572 0.1107857 -0.22720209 0.3164866 -0.27122208
-0.13633578 0.12550893 0.22853544 -0.28877452 0.15121755 -0.055921618 -0.23025317 0.24264334
0.254449 0.2859096 -0.13258572 0.28464657 -0.10225747 0.21074654 0.2015549 0.283358
0.12790008 0.19214389 -0.07442239 0.107343055 0.24780461 -0.23673464 0.33947587 -0.17368388
-0.09911871 -0.15804787 -0.27399725 0.26321375 0.19475801 0.18006869 0.214379 0.19277163
0.26685438 -0.22702798 -0.020795468 -0.17587902 -0.29145485 -0.26494765 0.11859288 -0.13843831
0.1320067 -0.175805 -0.26555046 -0.23617141 0.2625673 -0.23663673 -0.13769385 -0.2816168
-0.037001885 0.17986481 0.22972432 0.26994163 -0.014531325 0.20494029 0.19407535 0.22087388
-0.09723379 -0.25769138 -0.2597257 0.21950161 -0.28741315 -0.26243284 0.29865542 -0.23713839
-0.270265 -0.11900121 -0.29857337 0.2673148 -0.22860827 0.24274428 0.2113613 0.17225485
0.19928329 0.120577835 0.27685702 -0.12784426 -0.22154893 -0.17124659 0.24887034 -0.23574184
0.2500088 -0.30439633 -0.27715713 -0.30632472 0.26866648 0.022400223 0.1925667 0.2438395
00000000: 08e0 9c3d db0f 823d 7b9a 0e3d b638 7fbd
00000010: 1dc6 86be 7201 7a3e 9fa2 90bd 025a cebd
00000020: d258 e0bd 3a61 68be 2027 933e 319e 883e
00000030: e229 823e f9bd 64be 47d3 153e 2669 4cbe
00000040: 1618 8b3e 7538 903e e286 46be 65ef 843e
00000050: b058 4d3e 1afb 69bc 2ba9 1ebe 3f96 8abe
00000060: 7087 81be 6fed 773e 9ed6 24be 305d 1bbe
00000070: bbbb 8dbe 79f6 813e 51f4 8a3e f53d 9bbd
00000080: bef0 4abe ca52 8bbe 81a7 473e 5866 6d3e
00000090: 9de3 e23d aaa7 68be 880a a23e 9fdd 8abe
000000a0: 9b9b 0bbe 6a85 003e 3205 6a3e 41da 93be
000000b0: c6d8 1a3e 110e 65bd 7dc7 6bbe 7f77 783e
000000c0: 2447 823e be62 923e 8dc4 07be 32bd 913e
000000d0: 5d6c d1bd f1cd 573e 6864 4e3e 4d14 913e
000000e0: 3df8 023e 5ec1 443e c46a 98bd add6 db3d
000000f0: 7ec0 7d3e 916a 72be c8cf ad3e 30da 31be
00000100: c0fe cabd 4dd7 21be 5e49 8cbe f4c3 863e
00000110: a56e 473e ed63 383e 2b86 5b3e ed65 453e
00000120: 23a1 883e 067a 68be 425b aabc a119 34be
00000130: 9239 95be 38a7 87be d3e0 f23d c6c2 0dbe
00000140: c42c 073e 3a06 34be 3bf6 87be ebd6 71be
00000150: 396f 863e e650 72be 9eff 0cbe 1430 90be
00000160: 4a8f 17bd 7b2e 383e da3c 6b3e ca35 8a3e
00000170: cb14 6ebc dedb 513e b0bb 463e c32c 623e
00000180: 8222 c7bd 20f0 83be c4fa 84be 08c5 603e
00000190: d127 93be 995d 86be 5de9 983e 68d4 72be
000001a0: 2d60 8abe e8b6 f3bd 9cde 98be 7cdd 883e
000001b0: 4918 6abe f591 783e 196f 583e 9363 303e
000001c0: eb10 4c3e 83f1 f63d 34c0 8d3e 9be9 02be
000001d0: b9dd 62be 445b 2fbe ded7 7e3e 4f66 71be
000001e0: 2701 803e d6d9 9bbe 8ae7 8dbe 98d6 9cbe
000001f0: a78e 893e ac80 b73c 3430 453e 10b1 793e

reward_backbone.0.weight f4 [128, 22]
0.2176176 -0.071134254 0.11643966 0.34737194 -0.003379274 -0.30409583 -0.0826553 0.005132224
0.13801207 -0.1328176 -0.08687393 0.0030874633 0.050236125 -0.00057730573 -0.08407687 -0.015863212
0.062311318 0.009109075 0.0024375217 -0.018553503 0.09778151 0.10860845 0.14245655 -0.009738587
0.042123895 0.04646178 0.053707242 0.062680945 -0.11233936 -0.026835263 0.09730806 -0.11164739
0.019387199 -0.22342078 0.2040762 -0.028214436 -0.055837475 -0.10841332 0.045537096 0.11542012
-0.02297342 -0.11690898 -0.036081176 0.13561894 -0.00895651 -0.21390617 -0.106349654 -0.13272224
-0.028775303 -0.09401614 -0.092223994 0.033141002 -0.11964311 -0.04350425 -0.035747156 0.004827757
0.22558795 -0.13563494 -0.006725494 0.18754797 -0.0041224817 -0.06805865 -0.163621 -0.13846456
-0.05341083 -0.25355396 0.21829925 0.14057314 0.15894079 -0.1007974 -0.026963964 0.074114695
-0.057156965 -0.007992754 -0.047442276 0.11159418 0.036515787 -0.14468834 0.04547893 -0.05484634
-0.0030070613 -0.012747534 0.013897266 0.0117593575 -0.045327283 -0.21118477 0.06159902 0.0018143926
0.18694215 0.15050355 -0.11091202 0.07716103 0.005006266 -0.026059171 0.10845338 0.04963972
-0.44448557 -0.15142313 -0.07700593 -0.09634969 0.029984666 0.020749422 0.056618024 0.051352963
0.12589078 -0.15112135 0.06965441 -0.14680056 0.1089492 -0.020673936 0.08583822 -0.30746803
0.039255977 0.24484558 -0.03297026 -0.074585855 0.087501265 0.031974357 0.020941436 -0.07626475
0.10191571 -0.019245833 -0.095029786 0.23836866 0.04669587 -0.012189292 0.07211868 0.0026571916
0.008545319 0.16534483 0.11959027 -0.0465652 0.042623233 0.08254891 0.11019498 -0.015156876
-0.059908386 -0.23255594 -0.12809499 -0.1595404 0.091354415 0.24994798 -0.064637 -0.081943244
-0.04592692 -0.14223127 0.07310243 0.023411583 -0.034523867 -0.0015555857 -0.06508793 0.06055387
0.030159637 -0.063999444 -0.03547907 0.2545126 -0.06349157 -0.0042089485 0.08331528 0.08366783
-0.086133994 0.18026881 0.0633391 -0.1616149 0.0137627665 -0.085060626 0.1434257 0.041850697
-0.032391764 -0.06598019 0.040478874 -0.060142525 -0.022399742 -0.020911634 -0.08562207 -0.15373288
0.0069005135 0.03858616 -0.14989622 -0.13732639 0.06470178 -0.049167294 -0.0025377935 -0.048428044
0.0322852 -0.114474714 -0.07763647 -0.054471433 0.14585808 -0.11811172 -0.17773272 -0.02362012
0.013616472 0.07462876 0.15026909 0.014708749 -0.046306882 0.13674946 -0.0802295 -0.27377006
-0.28276324 0.14914925 0.18540508 -0.17300205 -0.04812498 -0.095567465 -0.034855302 -0.08900952
0.11806912 -0.054524582 -0.025588755 0.063731976 -0.0023074541 0.014464323 0.16198345 0.044358287
-0.19061473 -0.09370127 -0.01486237 0.06071159 -0.16664281 0.062283378 0.10878165 0.11522606
0.21863261 -0.055827875 -0.050183553 -0.007753621 -0.05434028 -0.005590949 0.006710831 0.022555163
-0.0787052 0.14419352 0.097895354 -0.038484875 0.054197222 -0.041820098 0.10169554 0.12686828
-0.17381008 0.006325118 0.23921329 0.098532155 -0.11404335 -0.0431837 0.041034814 0.057491355
0.04612069 0.0045228177 -0.0231688 -0.01266574 0.063525416 0.008052173 0.0113142645 0.07969396
00000000: 26d7 5e3e d6ae 91bd eb77 ee3d bcda b13e
00000010: cf76 5dbb 73b2 9bbe 2f47 a9bd 372c a83b
00000020: 0953 0d3e 5601 08be f6ea b1bd 0a57 4a3b
00000030: 65c4 4d3d 5556 17ba 7e30 acbd 91f3 81bc
00000040: 273a 7f3d 3b3e 153c d4be 1f3b 84fd 97bc
00000050: ac41 c83d 1b6e de3d 21e0 113e 988e 1fbc
00000060: 1b8a 2c3d b54e 3e3d 20fc 5b3d de5e 803d
00000070: 2e12 e6bd a0d5 dbbc 7349 c73d 63a7 e4bd
00000080: e7d1 9e3c 6bc8 64be 5af9 503e f621 e7bc
00000090: d6b5 64bd cd07 debd 1b85 3a3d 6261 ec3d
000000a0: c132 bcbc fa6d efbd dbc9 13bd b1df 0a3e
000000b0: 53be 12bc 380a 5bbe d9cd d9bd 57e8 07be
000000c0: 2fba ebbc 898b c0bd efdf bcbd dcbe 073d
000000d0: 7207 f5bd 8331 32bd 9c6b 12bd 2932 9e3b
000000e0: 8700 673e e3e3 0abe 8861 dcbb 930c 403e
000000f0: e215 87bb 5562 8bbd 438c 27be a7c9 0dbe
00000100: 51c5 5abd d3d1 81be d789 5f3e 68f2 0f3e
00000110: 60c1 223e de6e cebd 88e3 dcbc 72c9 973d
00000120: 6c1d 6abd 0af4 02bc d552 42bd 7d8b e43d
00000130: 9491 153d 2e29 14be 1d48 3a3d 8ea6 60bd
00000140: 1e12 45bb 08db 50bc 5cb1 633c 52aa 403c
00000150: 1aa9 39bd d240 58be 414f 7c3d ead0 ed3a
00000160: c36d 3f3e 9a1d 1a3e d725 e3bd 9a06 9e3d
00000170: 9a0b a43b 0b7a d5bc ce1c de3d 0553 4b3d
00000180: 9d93 e3be aa0e 1bbe 49b5 9dbd fc52 c5bd
00000190: 67a2 f53c b1fa a93c 4de8 673d 7c57 523d
000001a0: 83e9 003e 8ebf 1abe f9a6 8e3d e352 16be
000001b0: c220 df3d 635c a9bc f3cb af3d 736c 9dbe
000001c0: e0ca 203d cdb8 7a3e d30b 07bd 78c0 98bd
000001d0: dd33 b33d 8bf7 023d 608d ab3c b130 9cbd
000001e0: 2fb9 d03d 70a9 9dbc fa9e c2bd ea16 743e
000001f0: 2b44 3f3d 99b5 47bc f5b2 933d 4724 2e3b
00000200: aa01 0c3c 2850 293e beeb f43d 27bb 3ebd
00000210: b395 2e3d 670f a93d e8ad e13d 8c54 78bc
00000220: 7f62 75bd 2523 6ebe 552b 03be 8f5e 23be
00000230: 0618 bb3d 5df2 7f3e 6760 84bd dcd1 a7bd
00000240: de1d 3cbd 13a5 11be bab6 953d a6c9 bf3c
00000250: e668 0dbd cbe4 cbba d24c 85bd 5607 783d
00000260: 5811 f73c 2412 83bd 8052 11bd 7a4f 823e
00000270: de07 82bd 38eb 89bb 34a1 aa3d 0a5a ab3d
00000280: 0567 b0bd 6398 383e eeb7 813d 607e 25be
00000290: 3a7d 613c 4434 aebd 30de 123e a36b 2b3d
000002a0: 3aad 04bd 9f20 87bd 2dcd 253d 0258 76bd
000002b0: aa7f b7bc e04e abbc a05a afbd 276c 1dbe
000002c0: b41d e23b 850c 1e3d 657e 19be 4a9f 0cbe
000002d0: 5e82 843d a563 49bd 1c51 26bb 7c5c 46bd
000002e0: 7c3d 043d b871 eabd dfff 9ebd 701d 5fbd
000002f0: d25b 153e 8fe4 f1bd 91ff 35be fb7e c1bc
00000300: 9f17 5f3c f7d6 983d 24e0 193e f7fc 703c
00000310: 49ac 3dbd 0d08 0c3e 5d4f a4bd 972b 8cbe
00000320: 58c6 90be 95ba 183e d4da 3d3e 7327 31be
00000330: b31e 45bd e0b8 c3bd 6fc4 0ebd a04a b6bd
00000340: 39ce f13d 2b55 5fbd 829f d1bc e985 823d
00000350: a838 17bb c5fb 6c3c fdde 253e 09b1 353d
00000360: 8230 43be 74e6 bfbd 4c81 73bc b7ac 783d
00000370: 6aa4 2abe db1c 7f3d eac8 de3d a4fb eb3d
00000380: 3ae1 5f3e c5ab 64bd 458d 4dbd 1612 febb
00000390: ea93 5ebd 4834 b7bb 88e6 db3b 9bc5 b83c
000003a0: 3130 a1bd 77a7 133e 5c7d c83d 51a2 1dbd
000003b0: e8fd 5d3d 8d4b 2bbd c045 d03d c2e9 013e
000003c0: 45fb 31be ef42 cf3b 54f4 743e 3acb c93d
000003d0: 8f8f e9bd 64e1 30bd 1f14 283d 0e7c 6b3d
000003e0: 0ce9 3c3d 2534 943b 7fcc bdbc f783 4fbc
000003f0: 9d19 823d 43ed 033c 775f 393c 9636 a33d

reward_backbone.0.bias f4 [128]
0.216514 0.21395607 -0.16502869 0.041263003 -0.19866337 -0.17596218 0.20881441 0.1874254
-0.39429227 -0.024721045 -0.29697475 0.0734382 -0.0776767 -0.19621986 -0.27759203 -0.12610847
-0.29246482 0.34139594 -0.19227548 0.30203903 -0.18193834 0.31017128 0.27070037 -0.19518825
0.10966378 -0.11032129 0.2460971 -0.28027278 0.2770672 -0.085027225 0.04776245 -0.10086536
0.21593934 0.17635298 0.14804754 0.32403725 0.05438393 0.16030331 -0.31970733 0.0023897588
-0.29700577 -0.102649 0.45639423 -0.30632102 -0.18537883 0.16702358 0.32483634 -0.25043103
0.15010719 0.07160627 0.21665171 -0.35828376 -0.109977156 -0.31959927 -0.28737193 -0.42819163
-0.43893668 0.34699753 0.2453157 -0.21479705 -0.24469344 0.20490061 -0.179941 0.02446038
0.31128198 0.3129632 0.09334777 0.20034815 0.3034485 0.10789746 -0.15758587 -0.04459075
0.172119 0.25164708 0.3605938 0.26073587 -0.13153873 -0.24418446 0.0885115 0.33343807
0.17528981 0.059228055 0.25699103 0.1532933 -0.13228102 0.32441923 -0.23722288 0.37433657
0.37512797 0.1658542 0.24873027 -0.32030058 -0.11358562 -0.23875883 -0.24199314 0.13693869
0.2277278 -0.29123476 -0.2145866 0.12470922 -0.37171417 -0.38910922 0.14505343 -0.10453426
0.26658228 -0.10495195 0.16517636 -0.37177044 0.22492613 -0.32087335 0.068518445 -0.21380623
0.24259554 -0.20447993 0.11935821 0.2499266 -0.12645333 0.3425371 -0.10768509 -0.11423758
0.19107091 0.13490123 0.13393156 -0.14132796 -0.16451894 -0.24423125 -0.22026463 -0.17155272
00000000: d9b5 5d3e 4d17 5b3e 48fd 28be 6503 293d
00000010: 696e 4bbe 6e2f 34be 72d3 553e 72ec 3f3e
00000020: ade0 c9be ca83 cabc 130d 98be c466 963d
00000030: f614 9fbd dced 48be 8b20 8ebe 9422 01be
00000040: f3bd 95be 73cb ae3e dde3 44be dca4 9a3e
00000050: 0b4e 3abe c5ce 9e3e 3d99 8a3e 6edf 47be
00000060: 6797 e03d 21f0 e1bd e100 7c3e ea7f 8fbe
00000070: c1db 8d3e c122 aebd 8fa2 433d 7f92 cebd
00000080: 341f 5d3e e095 343e c699 173e 36e8 a53e
00000090: afc1 5e3d 8d26 243e aeb0 a3be 809d 1c3b
000000a0: 2411 98be a439 d2bd 81ac e93e 1cd6 9cbe
000000b0: f3d3 3dbe 3b08 2b3e f350 a63e 7f38 80be
000000c0: b3b5 193e 4fa6 923d f2d9 5d3e f870 b7be
000000d0: b43b e1bd 84a2 a3be 6a22 93be ef3b dbbe
000000e0: 4fbc e0be a9a9 b13e 0a34 7b3e c2f3 5bbe
000000f0: eb90 7abe 77d1 513e 7442 38be 2361 c83c
00000100: 5a60 9f3e b63c a03e 1e2d bf3d 1128 4d3e
00000110: 9a5d 9b3e 58f9 dc3d 315e 21be caa4 36bd
00000120: f73f 303e e3d7 803e c09f b83e 2c7f 853e
00000130: 17b2 06be 7e0b 7abe 8445 b53d 65b8 aa3e
00000140: 2c7f 333e 1e99 723d 5494 833e ebf8 1c3e
00000150: ad74 07be 471a a63e 8eea 72be 0ba9 bf3e
00000160: c610 c03e afd5 293e 26b3 7e3e 70fe a3be
00000170: 949f e8bd 327d 74be 0dcd 77be a839 0c3e
00000180: 7a31 693e b91c 95be 97bc 5bbe 8c67 ff3d
00000190: 5251 bebe 5339 c7be e388 143e 0f16 d6bd
000001a0: 797d 883e 0cf1 d6bd fe23 293e b258 bebe
000001b0: 0953 663e 8349 a4be 6653 8c3d 05f0 5abe
000001c0: f76a 783e 3063 51be 1472 f43d c2ec 7f3e
000001d0: fb7c 01be 0661 af3e 008a dcbd 64f5 e9bd
000001e0: 18a8 433e 8c23 0a3e 5b25 093e 47b8 10be
000001f0: a777 28be c217 7abe 0d8d 61be 84ab 2fbe

reward_backbone.2.weight f4 [128, 128]
0.12652023 0.17804761 -0.053297512 -0.123159155 -0.13123414 -0.023442572 0.04154091 0.174778
-0.045495134 0.047803067 -0.056339495 -0.16266625 0.1013355 -0.1794422 -0.104948066 0.06874331
-0.33402416 0.56741905 -0.05038134 0.23123667 -0.084186256 0.065444686 0.41594735 -0.27980128
0.18117553 -0.121963255 -0.06773436 0.024870621 0.26300338 -0.17272502 0.11872092 -0.07928691
0.14466183 0.06108299 0.11036622 0.11519528 0.17575048 0.1957135 -0.25519714 0.007438441
-0.35952055 0.12588395 0.43676096 -0.22098114 -0.20519735 -0.0018713753 -0.029402765 -0.20917243
0.21076643 -0.0016505196 0.13849086 -0.2489436 -0.009091245 -0.3423745 -0.17476058 -0.10410859
-0.2706895 -0.04675 0.098595366 -0.016796524 -0.21197024 0.08331999 -0.282781 0.12273233
0.22937356 0.099116564 -0.06383691 -0.1501875 0.23710248 -0.12085704 -0.17144002 0.028894736
0.26020053 0.164608 0.58129054 0.049459852 -0.11078476 -0.3370534 -0.034790196 0.15650037
0.21256618 -0.020177463 0.3430032 0.115967855 -0.12437005 0.007557301 -0.37397718 0.21339515
0.4610565 0.25663784 0.13467771 -0.010207299 -0.09560805 -0.21755789 0.012426574 0.083631255
0.13242473 -0.19751361 -0.04944632 0.04959516 -0.19854029 -0.37729087 0.01799758 0.07469537
0.044449452 -0.09170325 0.05771187 -0.45904198 0.073675804 -0.16686872 0.078797266 -0.18788268
0.18761444 -0.23070204 -0.045911886 0.32351947 -0.14745061 0.21763737 -0.16509277 0.14626575
-0.06954227 0.10995534 0.034792576 -0.050668962 -0.04206337 0.11779678 -0.15962099 -0.29828063
-0.20232871 -0.20897453 0.18395227 -0.058828447 0.023555875 0.05701606 -0.122919105 0.037745938
0.29673094 -0.12244722 0.058460027 0.073944464 0.07140634 0.01909411 -0.11412768 0.11139286
0.26960897 -0.05907939 0.15545507 -0.029906975 -0.007124433 0.0068624797 -0.2403139 0.25393483
-0.17358395 0.050125897 -0.292515 0.1220566 -0.43791914 0.21560177 0.1129719 0.18856557
-0.31248426 0.12607102 -0.25937757 -0.03796262 -0.069582015 -0.11702679 0.3480679 0.4580839
0.22700502 -0.15053445 -0.43561438 -0.019865701 0.12946416 -0.027586974 -0.12802355 0.13880989
0.19946761 -0.16782424 -0.031284407 0.08911958 0.027339123 0.07199487 0.13372023 0.16103263
0.18415275 -0.18174991 -0.17395985 0.16168372 0.3016996 -0.08952715 0.12615685 0.25547203
-0.29440627 -0.18441978 0.17371085 0.064775415 -0.052518293 0.039444987 -0.064832546 0.07111446
-0.18812102 -0.08046413 -0.29484025 -0.10965787 0.0035789805 0.1975533 0.07028149 -0.1025543
-0.10223241 0.10359527 -0.26849577 0.023808805 0.17701602 -0.14307359 0.13363276 -0.31707704
-0.058518447 -0.08617667 -0.31509462 0.082399905 0.088775314 0.24714343 0.069489986 0.02338148
-0.07032117 0.051428802 0.17159565 -0.06670177 -0.0049213977 0.18859443 -0.0028832348 -0.045645513
-0.041763403 -0.050605997 -0.2935083 0.36070716 -0.10546744 0.38986152 -0.047291726 0.2330299
-0.08845668 0.26716655 0.079125516 -0.30246007 -0.12105144 -0.123803385 0.38329518 0.10859868
-0.17104344 0.15590923 0.07130837 0.00061302213 0.026709959 0.21505052 -0.014588743 0.10909479
00000000: 858e 013e 1d52 363e 7e4e 5abd de3a fcbd
00000010: 3e62 06be a30a c0bc cd26 2a3d 01f9 323e
00000020: 1b59 3abd 26cd 433d 3ec4 66bd fb91 26be
00000030: fd88 cf3d b2bf 37be 03ef d6bd 4bc9 8c3d
00000040: 3705 abbe 6042 113f aa5c 4ebd 4ec9 6c3e
00000050: d869 acbd dd07 863d 0df7 d43e 1d42 8fbe
00000060: 1486 393e dfc7 f9bd 50b8 8abd 79bd cb3c
00000070: 61a8 863e d4de 30be f423 f33d 2d61 a2bd
00000080: 3b22 143e 2832 7a3d af07 e23d 81eb eb3d
00000090: eff7 333e 1f69 483e 33a9 82be 2abe f33b
000000a0: 1413 b8be b9e7 003e 229f df3e e148 62be
000000b0: 411f 52be ef48 f5ba 11de f0bc 4c31 56be
000000c0: 28d3 573e 3f56 d8ba 8cd0 0d3e 12eb 7ebe
000000d0: 72f3 14bc b64b afbe 70f4 32be e236 d5bd
000000e0: d097 8abe ee7c 3fbd 5eec c93d dd98 89bc
000000f0: ba0e 59be aca3 aa3d acc8 90be 165b fb3d
00000100: e7e0 6a3e a0fd ca3d edbc 82bd c1ca 19be
00000110: feca 723e e583 f7bd f98d 2fbe a7b4 ec3c
00000120: 0139 853e 008f 283e 75cf 143f 6a96 4a3d
00000130: 1fe3 e2bd 4392 acbe 2a80 0ebd a241 203e
00000140: f3aa 593e 354b a5bc 1e9e af3e 8e80 ed3d
00000150: bab5 febd 3ca3 f73b f079 bfbe 4284 5a3e
00000160: 990f ec3e 0966 833e f4e8 093e 843c 27bc
00000170: 27ce c3bd 7fc7 5ebe d498 4b3c dd46 ab3d
00000180: 599a 073e 0241 4abe 3988 4abd 4b24 4b3d
00000190: 254e 4bbe 452c c1be a96f 933c e3f9 983d
000001a0: a110 363d eace bbbd 4863 6c3d 8d07 ebbe
000001b0: 57e3 963d a2df 2abe 7660 a13d 5164 40be
000001c0: 001e 403e 283d 6cbe 1a0e 3cbd 58a4 a53e
000001d0: 4bfd 16be 55dc 5e3e 140e 29be b0c6 153e
000001e0: 2d6c 8ebd 4430 e13d a982 0e3d 428a 4fbd
000001f0: a44a 2cbd 703f f13d af73 23be 3db8 98be
00000200: 422f 4fbe 6bfd 55be fc5d 3c3e 19f6 70bd
00000210: 40f8 c03c ac89 693d 03bd fbbd 7c9b 1a3d
00000220: 1eed 973e 9cc5 fabd c873 6f3d 3270 973d
00000230: 7d3d 923d 406b 9c3c c6bb e9bd f121 e43d
00000240: 300a 8a3e 3bfd 71bd 9d2f 1f3e 79ff f4bc
00000250: 1374 e9bb a7de e03b d914 76be bf03 823e
00000260: febf 31be d050 4d3d 87c4 95be d0f8 f93d
00000270: f036 e0be b6c6 5c3e d05d e73d 5517 413e
00000280: f0fd 9fbe c318 013e 23cd 84be b17e 1bbd
00000290: 0481 8ebd beab efbd f535 b23e f989 ea3e
000002a0: 0174 683e b425 1abe d908 dfbe 65bd a2bc
000002b0: 4192 043e 14fe e1bc 9b18 03be 2e24 0e3e
000002c0: 3d41 4c3e 1eda 2bbe 1424 00bd 5484 b63d
000002d0: 4cf6 df3c 0c72 933d f5ed 083e bde5 243e
000002e0: 8a92 3c3e a61c 3abe 8822 32be 6b90 253e
000002f0: 5f78 9a3e 035a b7bd 432f 013e 3bcd 823e
00000300: 6bbc 96be 8ad8 3cbe 42e1 313e f9a8 843d
00000310: 6c1d 57bd 1191 213d edc6 84bd 75a4 913d
00000320: cca2 40be 61ca a4bd 4df5 96be 4e94 e0bd
00000330: 548d 6a3b 6a4b 4a3e beef 8f3d fd07 d2bd
00000340: 3a5f d1bd c229 d43d 4778 89be af0a c33c
00000350: b043 353e e281 12be 07d7 083e ec57 a2be
00000360: 0ab1 6fbd 657d b0bd 1554 a1be 48c1 a83d
00000370: d5cf b53d 2b13 7d3e c450 8e3d 848a bf3c
00000380: 8c04 90bd 02a7 523d c5b6 2f3e f09a 88bd
00000390: ad43 a1bb e61e 413e a7f4 3cbb caf6 3abd
000003a0: 1a10 2bbd 3c48 4fbd b846 96be 9cae b83e
000003b0: 50ff d7bd ee9b c73e f8b4 41bd 649f 6e3e
000003c0: c728 b5bd 0eca 883e 8f0c a23d 0cdc 9abe
000003d0: d1e9 f7bd a18c fdbd 443f c43e fc68 de3d
000003e0: 0326 2fbe aba6 1f3e 1f0a 923d 38b3 203a
000003f0: d8ce da3c 3436 5c3e a005 6fbc 176d df3d

reward_backbone.2.bias f4 [128]
0.31834596 -0.30365726 -0.11896978 0.3180458 0.033926707 0.10965825 -0.02861976 -0.092147976
0.2659514 -0.17368367 0.15605299 0.26014942 -0.08140685 0.2796141 -0.11843366 -0.18548317
0.20127343 -0.23436852 -0.12658933 0.2811645 -0.0842802 0.13793172 -0.040361196 -0.19454959
-0.2311471 0.21111949 0.07705581 0.1449311 -0.18856065 -0.062028736 -0.12458554 0.20556234
-0.019837778 -0.31662583 -0.30713362 0.21091951 -0.065856755 0.1530622 -0.31149408 0.04126747
-0.13156386 -0.17891715 -0.19381744 0.24801515 0.0789339 -0.26471224 -0.11440939 0.07861759
-0.3577241 0.16189459 -0.27979165 0.27049148 0.041843146 0.042685494 -0.22636268 -0.092478454
0.14616716 0.043840423 -0.068794146 0.29981232 -0.10223775 0.2556062 0.09503078 -0.15195817
-0.3080366 0.064733796 0.105840355 -0.21870168 0.037189793 0.23468708 -0.18641114 0.08811546
0.28242686 0.001504612 0.011335063 0.14647466 0.23984279 -0.0651444 -0.26551414 0.24595124
0.24490185 -0.23960508 0.25947893 -0.21447292 -0.21870902 -0.2710609 0.2651914 0.14608733
0.066394575 -0.0582301 0.012034355 -0.26385504 -0.06922059 0.16423564 -0.07883615 -0.04682415
0.042724777 -0.22862248 -0.08629692 -0.009968083 -0.09396614 -0.081287846 0.21828885 -0.3176778
-0.19019866 -0.29002652 -0.20841542 0.10530077 -0.08466691 0.300235 -0.24026942 0.029042667
-0.04202177 0.07023809 0.26806998 -0.07019997 -0.2775997 0.22343676 -0.21050814 -0.16729836
0.028951043 -0.1596866 0.24579832 -0.13398528 -0.11626599 0.14451233 0.30753702 0.10083481
00000000: 3efe a23e f778 9bbe 6ea6 f3bd e6d6 a23e
00000010: bbf6 0a3d 8194 e03d fd73 eabc 14b8 bcbd
00000020: c82a 883e 22da 31be 5bcc 1f3e 4e32 853e
00000030: a2b8 a6bd 9429 8f3e 598d f2bd 4def 3dbe
00000040: 9f1a 4e3e 4dfe 6fbe a2a0 01be cbf4 8f3e
00000050: 199b acbd f93d 0d3e c851 25bd 0238 47be
00000060: d3b1 6cbe b52f 583e 70cf 9d3d d168 143e
00000070: 0b16 41be d811 7ebd b426 ffbd ef7e 523e
00000080: d682 a2bc c81c a2be 9e40 9dbe 49fb 573e
00000090: e8df 86bd 56bc 1c3e 277c 9fbe 1408 293d
000000a0: adb8 06be 0f36 37be 1478 46be aff7 7d3e
000000b0: 19a8 a13d 5d88 87be 784f eabd 4202 a13d
000000c0: 9d27 b7be b2c7 253e da40 8fbe dc7d 8a3e
000000d0: b863 2b3d fcd6 2e3d 9ecb 67be 5865 bdbd
000000e0: d8ac 153e 0492 333d f2e3 8cbd 0081 993e
000000f0: 0762 d1bd d1de 823e 7f9f c23d ec9a 1bbe
00000100: f9b6 9dbe 2793 843d d4c2 d83d 55f3 5fbe
00000110: 5354 183d cf51 703e 90e2 3ebe e175 b43d
00000120: 419a 903e 6736 c53a b3b6 393c 74fd 153e
00000130: 5999 753e 6d6a 85bd 78f1 87be a4da 7b3e
00000140: 8dc7 7a3e 095b 75be 6cda 843e ca9e 5bbe
00000150: 42f5 5fbe 7fc8 8abe 2bc7 873e eb97 153e
00000160: e1f9 873d af82 6ebd be2b 453c 0218 87be
00000170: 86c3 8dbd 632d 283e d974 a1bd aeca 3fbd
00000180: 2d00 2f3d 031c 6abe 71bc b0bd 2c51 23bc
00000190: 5271 c0bd 3e7a a6bd 1d87 5f3e aaa6 a2be
000001a0: 70c3 42be 5b7e 94be da6a 55be eea7 d73d
000001b0: d865 adbd 67b8 993e 3009 76be e3ea ed3c
000001c0: 051f 2cbd fdd8 8f3d 7840 893e 00c5 8fbd
000001d0: 8c21 8ebe 9bcc 643e 728f 57be 4350 2bbe
000001e0: bd2a ed3c e284 23be 8eb2 7b3e 7033 09be
000001f0: dd1c eebd 0afb 133e 7e75 9d3e 7b82 ce3d

cost_backbone.0.weight f4 [128, 22]
0.22256154 0.11558071 -0.1154717 0.39812684 0.21194065 0.1128477 0.30586585 -0.061449803
-0.097364604 0.33456036 -0.21685702 -0.030627511 -0.003342334 0.024342595 -0.059315037 -0.03177398
-0.00020802837 -0.019325394 0.09086879 0.06569224 0.11141779 0.033441 0.13634837 0.02654295
0.04397994 0.10215784 -0.037954602 -0.11245288 -0.015468611 0.2297361 0.07728569 0.22711293
-0.20513818 -0.021103699 0.23392072 -0.07176816 -0.027041577 0.052947465 0.02090376 0.021383436
0.039031196 0.016408533 0.17864758 0.037532434 0.32662165 0.008106214 0.006345606 -0.32972842
0.0050278064 -0.124495625 0.04684864 -0.04842556 -0.123407766 0.10071671 -0.12235886 -0.15389383
-0.009968297 0.14952955 -0.034138795 0.0054219957 0.05814393 0.034721736 0.031982575 -0.060726054
-0.013168808 0.19828509 0.04343525 -0.11422721 -0.053331297 0.09435316 0.27454233 -0.07487145
-0.097819395 0.09958383 0.02171797 -0.5345819 0.13441128 0.043457508 -0.19485143 0.07631782
-0.05563563 -0.23348615 0.028379409 0.053507283 -0.009882878 0.071485735 -0.05477684 0.025252558
0.4574871 -0.16839965 -0.26176375 -0.19511922 0.09243755 -0.10471989 0.083052784 0.0019565213
-0.19915731 0.22668865 -0.037426703 -0.76611143 -0.029176513 0.033944316 -0.025063898 -0.058438
0.034234777 0.053571384 0.12383008 0.004365162 -0.10110063 0.025313577 -0.19125637 -0.19447453
0.18430518 0.13504292 -0.08257597 -0.036588687 -0.028276626 0.11093745 -0.04329342 0.21980229
-0.09799331 0.0027879402 -0.18738449 0.10019798 0.02219616 -0.064533785 -0.09102354 0.06012111
0.1825445 0.061360374 -0.037753705 0.14483964 -0.18310744 -0.23171817 0.015833817 0.0617776
-0.08524065 -0.0021008158 0.00508607 -0.06442573 0.02772248 -0.15998282 -0.07560874 0.1234406
-0.06933156 0.08035172 0.11766306 0.04438507 -0.07547913 0.034412134 -0.13294095 -0.13245763
0.0141761815 -0.19483536 0.19705655 -0.20882465 -0.018728102 -0.1920702 -0.06805524 -0.041197393
-0.022841193 -0.030292377 0.08528781 0.13634007 0.00013213462 -0.36070484 0.14893168 0.13590263
0.08436359 -0.03796161 0.14633858 -0.02840198 0.044479135 0.043511063 -0.08077126 -0.26660514
-0.077739924 -0.32271138 0.18462302 -0.21656352 0.1347187 -0.06886656 -0.03210363 -0.046262067
-0.091703944 0.21689227 0.03078555 0.12720582 0.1558639 0.008642668 -0.093888864 0.0044705165
0.005674299 0.014409427 0.14010365 0.12644404 -0.13688782 -0.088002905 -0.14849035 -0.13740207
0.018267652 0.326152 -0.010776803 0.013232784 -0.2948291 0.021915497 -0.053802647 0.04081612
0.07773587 0.03611906 -0.3731671 -0.030190982 0.025686888 -0.031104947 -0.04863849 -0.05739902
-0.032387383 0.15169288 0.00592606 -0.10652483 -0.037481096 -0.28887597 -0.27162105 -0.047638696
-0.23180893 -0.15036507 0.0042321156 0.15532422 0.12405557 -0.04536344 -0.19507061 0.021829119
-0.05641149 -0.13683768 -0.0861494 0.036296174 0.053080287 0.17589891 0.1398324 0.013656602
-0.025214352 0.041705012 -0.058728997 -0.30780154 0.2947803 -0.30608264 0.021505112 -0.055559456
0.008498443 0.07918114 -0.005897274 0.2781866 -0.13893601 -0.47121254 -0.19998628 0.062444266
00000000: 2ce7 633e 94b5 ec3d 6d7c ecbd 48d7 cb3e
00000010: f806 593e b21c e73d 739a 9c3e cab2 7bbd
00000020: 1867 c7bd 7f4b ab3e c40f 5ebe 8ce6 fabc
00000030: 0f0b 5bbb 1f6a c73c 53f4 72bd 6f25 02bd
00000040: 3122 5ab9 4a50 9ebc 6b19 ba3d a789 863d
00000050: 032f e43d 6ef9 083d e89e 0b3e 9a70 d93c
00000060: 4f24 343d 2138 d13d 4976 1bbd b24d e6bd
00000070: 0f70 7dbc f13f 6b3e f647 9e3d 4b90 683e
00000080: be0f 52be aae1 acbc ea88 6f3e 2ffb 92bd
00000090: 4c86 ddbc 71df 583d 5d3e ab3c 512c af3c
000000a0: 2ddf 1f3d 306b 863c 64ef 363e 9cbb 193d
000000b0: f43a a73e edcf 043c cdee cf3b 2ad2 a8be
000000c0: 4cc0 a43b 90f7 febd 5ce4 3f3d e159 46bd
000000d0: 36bd fcbd 9044 ce3d 4897 fabd 5896 1dbe
000000e0: 1152 23bc 461e 193e 1fd5 0bbd ffaa b13b
000000f0: 5428 6e3d 6138 0e3d 2900 033d e2bb 78bd
00000100: fcc1 57bc 3f0b 4b3e 29e9 313d f5ef e9bd
00000110: eb71 5abd 3b3c c13d d090 8c3e 3456 99bd
00000120: 8955 c8bd 9bf2 cb3d e2e9 b13c 5cda 08bf
00000130: 1ca3 093e 8000 323d 2287 47be 844c 9c3d
00000140: 30e2 63bd fe16 6fbe ef7b e83c 742a 5b3d
00000150: cbeb 21bc 1d67 923d ae5d 60bd 74de ce3c
00000160: c03b ea3e f570 2cbe e605 86be 55cd 47be
00000170: e64f bd3d 6277 d6bd 9417 aa3d fb38 003b
00000180: e5ef 4bbe 1221 683e be4c 19bd e11f 44bf
00000190: 9503 efbc 3209 0b3d ce52 cdbc af5c 6fbd
000001a0: c439 0c3d ab6d 5b3d a09a fd3d a209 8f3b
000001b0: d90d cfbd 6b5e cf3c b6d8 43be 5524 47be
000001c0: 7fba 3c3e b148 0a3e 971d a9bd 05de 15bd
000001d0: 62a4 e7bc 2c33 e33d 7154 31bd da13 613e
000001e0: b7b0 c8bd e0b5 363b b8e1 3fbe 9934 cd3d
000001f0: b9d4 b53c 4a2a 84bd 8d6a babd 8e41 763d
00000200: f2ec 3a3e 0455 7b3d a1a3 1abd d850 143e
00000210: 8480 3bbe 8747 6dbe ecb5 813c 820a 7d3d
00000220: a692 aebd d7ad 09bb 0ca9 a63b a3f1 83bd
00000230: 411a e33c 89d2 23be c1d8 9abd 6dce fc3d
00000240: b4fd 8dbd 718f a43d 55f9 f03d 1fcd 353d
00000250: cd94 9abd bdf3 0c3d ac21 08be f9a2 07be
00000260: 3743 683c ec82 47be 31c9 493e 21d6 55be
00000270: ad6b 99bc 0dae 44be 8c60 8bbd 99be 28bd
00000280: 741d bbbc b827 f8bc 60ab ae3d bb9c 0b3e
00000290: 9e8d 0a39 4eae b8be 8c81 183e 0f2a 0b3e
000002a0: d1c6 ac3d a27d 1bbd c8d9 153e 45ab e8bc
000002b0: c12f 363d a838 323d 676b a5bd 7880 88be
000002c0: 1c36 9fbd 6d3a a5be d10d 3d3e d4c2 5dbe
000002d0: b3f3 093e e909 8dbd 197f 03bd 4b7d 3dbd
000002e0: 47cf bbbd 0219 5e3e fa31 fc3c 3e42 023e
000002f0: c99a 1f3e fa99 0d3c ce48 c0bd 697d 923b
00000300: 78ef b93b 8415 6c3c 5577 0f3e 8c7a 013e
00000310: 522c 0cbe de3a b4bd db0d 18be 21b3 0cbe
00000320: 0ba6 953c 65fd a63e 3091 30bc 52ce 583c
00000330: d7f3 96be 2188 b33c 2a60 5cbd ce2e 273d
00000340: fc33 9f3d 94f1 133d c20f bfbe 1453 f7bc
00000350: 4f6d d23c cdcf febc 2739 47bd 3c1b 6bbd
00000360: a2a8 04bd 6155 1b3e 652f c23b b129 dabd
00000370: c785 19bd 8de7 93be ea11 8bbe cb20 43bd
00000380: 525f 6dbe 4df9 19be 8fad 8a3b 500d 1f3e
00000390: d910 fe3d 04cf 39bd 97c0 47be fbd2 b23c
000003a0: bc0f 67bd 2d1f 0cbe 196f b0bd 4cab 143d
000003b0: b76a 593d d81e 343e 3a30 0f3e f1bf 5f3c
000003c0: 548e cebc e0d2 2a3d d18d 70bd 2a98 9dbe
000003d0: 72ed 963e ddb6 9cbe 7d2b b03c 5092 63bd
000003e0: 0e3d 0b3c b929 a23d eb3d c1bb 796e 8e3e
000003f0: 3e45 0ebe c542 f1be 34c9 4cbe 8fc5 7f3d

cost_backbone.0.bias f4 [128]
0.111152545 -0.34684032 -0.093495145 -0.14069918 -0.15024723 0.045924634 0.27765054 0.091010585
-0.0116876885 0.20830558 -0.50159323 -0.18159527 -0.117837355 -0.16874164 0.33595374 0.4031862
0.29994145 0.08181644 -0.2369045 0.26946366 -0.1527194 0.13384318 -0.15611187 0.31888404
-0.072821125 0.36456737 0.054668467 -0.06473632 -0.15171607 0.4564583 0.22063512 -0.35976994
0.07127178 -0.20063697 -0.24093837 -0.26107532 0.14618187 0.29952955 -0.26196283 -0.16114411
-0.12890065 0.021622535 -0.2607413 0.39607015 -0.74711144 0.116328724 -0.065559074 0.40983275
-0.07298659 0.2713109 0.15376621 -0.1539968 0.14782873 -0.23799708 -0.0019506587 -0.16739614
-0.16587083 -0.5440417 0.06333333 0.07835013 0.028755993 0.14769788 -0.42568797 0.35323018
-0.22336528 0.1747831 -0.19612734 -0.17646748 0.2019316 -0.1485018 -0.3224624 -0.26345217
0.4033296 -0.39311042 -0.20738922 0.30167115 -0.06501839 0.3234054 0.045957018 0.3867198
0.22849086 -0.24297962 0.24164306 0.36488974 -0.063066624 0.01876397 0.083650716 0.03949945
-0.20843801 0.074409194 0.02132886 0.30213574 0.15281624 -0.08994346 -0.016320774 -0.16416451
0.45942557 -0.3712723 -0.28510913 -0.19963215 0.07860275 0.1361476 -0.37979952 -0.37717652
-0.036745567 -0.30896562 -0.18980394 0.07688006 0.32093236 -0.2369938 -0.048123896 -0.3815333
0.087237306 -0.2527442 -0.04737957 -0.19785057 -0.05255979 -0.14086816 0.24725294 -0.3156795
0.059643757 -0.021683408 0.15707077 0.38404742 0.21257597 -0.26059192 0.5037343 0.22428896
00000000: f2a3 e33d 0e95 b1be 627a bfbd 7213 10be
00000010: 69da 19be 781b 3c3d 3628 8e3e c263 ba3d
00000020: b87d 3fbc 0f4e 553e 6a68 00bf 1cf4 39be
00000030: b654 f1bd 9cca 2cbe 2102 ac3e 6c6e ce3e
00000040: ed91 993e 618f a73d 1897 72be 24f7 893e
00000050: 7962 1cbe 300e 093e cadb 1fbe c544 a33e
00000060: 3e23 95bd 93a8 ba3e 0bec 5f3d 7a94 84bd
00000070: 755b 1bbe e7b4 e93e 2cee 613e c433 b8be
00000080: f0f6 913d c773 4dbe 8cb8 76be aaab 85be
00000090: b3b0 153e f05b 993e fe1f 86be f602 25be
000000a0: 88fe 03be be21 b13c e27f 85be b5c9 ca3e
000000b0: b242 3fbf c13d ee3d d643 86bd 99d5 d13e
000000c0: fe79 95bd 43e9 8a3e e474 1d3e 56b1 1dbe
000000d0: 6a60 173e 82b5 73be 3fad ffba e569 2bbe
000000e0: 0bda 29be 5146 0bbf e8b4 813d 0876 a03d
000000f0: b091 eb3c 1d3e 173e c6f3 d9be 96da b43e
00000100: deb9 64be 57fa 323e 9bd5 48be e4b3 34be
00000110: 28c7 4e3e db10 18be cb19 a5be 34e3 86be
00000120: 3881 ce3e c545 c9be d75d 54be a474 9a3e
00000130: 5d28 85bd 6595 a53e 6d3d 3c3d 2300 c63e
00000140: 82f9 693e a6cf 78be 4771 773e d4d2 ba3e
00000150: 1329 81bd e6b6 993c 1151 ab3d 2dca 213d
00000160: c670 55be d963 983d ddb9 ae3c 89b1 9a3e
00000170: dc7b 1c3e 4734 b8bd 25b3 85bc be1a 28be
00000180: d439 eb3e 6717 bebe d3f9 91be 5f6c 4cbe
00000190: 7bfa a03d 476a 0b3e 1575 c2be 481d c1be
000001a0: 8582 16bd be30 9ebe f75b 42be 4b73 9d3d
000001b0: 3f51 a43e 81ae 72be 901d 45bd 5558 c3be
000001c0: 79a9 b23d b067 81be 1411 42bd 5799 4abe
000001d0: ef48 57bd be3f 10be e02f 7d3e bea0 a1be
000001e0: 034d 743d 67a1 b1bc 29d7 203e dda1 c43e
000001f0: 84ad 593e 4e6c 85be bbf4 003f 01ac 653e
