outputs/sat2_dual_anti_osc_suite_20260116/NONC2C_V0_dual_hysteresis_E1.35_L0.900_seed0/best_feasible.pt (torch, 735415 bytes, 51 tensors)

actor_backbone.0.weight f4 [128, 22]
00000000: acd4 54be 0b22 c53b 0434 e03e a0ae ba3d
00000010: 47cd 1cbe 8289 96bd 454d efbd 9d2f 6d3d
00000020: 4e78 04be db9a 9f3d 1e33 b6bd d46f 84be
00000030: 67d1 0fbd 07fd bb3d 2245 19be 97db 943d
00000040: f2fc eabb 609d a2bd b640 d33d cd79 d03c
00000050: a91c 613e 5727 64be e820 e93d 3128 813d
00000060: a485 cabe c9c0 e3bd 1c5d e3bd 194b 333d
00000070: 85b2 da3d 3ef5 f9bd 85e4 5b3e e9a2 d63d
00000080: 59c9 613e 6c04 9a3b 6f60 37be e3c0 e73c
00000090: 48a2 503b 0c6e 363e 4257 2e3a 1094 023d
000000a0: 42d3 873d 69d3 16be 53af 8a3d 734f 0c3e
000000b0: b51c 9dbe 7382 95be 7a51 cfbd 17cb 613e
000000c0: b49a dabd e01a 8bbc 34f5 14bd 0f12 58ba
000000d0: 619f 183d fb05 17bc e3aa d9bd 001e 083d
000000e0: 4e5b a63d 033b 183d d940 203e bdc8 03bd
000000f0: 75e9 64be 884c 043d cfb1 a4bc 09ee cb3c
00000100: 6c48 a23e 16f8 a4bd d29a 3fbd 0416 b33e
00000110: 970d 51bd 44c2 74be 3e5a e3bc 3717 dfbd
00000120: 523b eb3c e7aa b93d 9173 3cbe 2b50 f43d
00000130: b41c debd ffea 7fbe 2eb8 4dbd 9694 613e
00000140: 94b7 4bbb a004 16bd 84a9 7e3d 2207 7f3c
00000150: 628e 903d 65e9 e23d 0769 dabc 840b b83c
00000160: b328 c3be 107f 0c3e efbc e33e 7570 37be
00000170: ac65 043e 70e0 bebc 8eca 5bbe f499 f13d
00000180: 802d 67bb dffc c83d c374 11be 9048 cebd
00000190: 423f edbd c211 4e3d ff15 423e b933 74bd
000001a0: f60a 343d 7058 403c 4b6e 44bd 3278 08be
000001b0: 9f66 0bbb 766f afbd 65f3 92be 560a 13be
000001c0: 8af5 883e 7f1e 14bb 9f8b af3d c361 953c
000001d0: ecd8 ddbd 79b8 0bbd d4f2 07bd 2348 2e3d
000001e0: b5c5 1b3e 3c4b 5cbe 1cb1 48bd bb75 293e
000001f0: 1790 68be e07f 66bd d6f8 26be b56d ecbd
00000200: be60 9abe b084 3f3d 8c2a 51bd b883 133e
00000210: 7d24 93be 0324 563e d788 e6bc 9d19 14be
00000220: b8b5 27be c3a3 6cbe 71b3 d1ba a8dc 6ebd
00000230: a221 a13d d77a 24be 81d3 a1bd 8edc 5f3e
00000240: aad8 5a3c f54c 1fbe 29c7 c3bb 8174 2f3e
00000250: e21f 913e 7834 43bd 2a60 74bd 569d 933c
00000260: b6df 033e 8e6b 25be aba4 333d 2c90 b7be
00000270: dc04 033e c024 833e 9295 a7bc ca6c 27bd
00000280: 34d7 e0bd 1b8f e3bd 93ae 29bd 5f32 cc3c
00000290: 6f05 33be e7c3 7dbe efd5 423d f5da 63bd
000002a0: 9a7e 7f3e dc6b 03bd 2371 0dbd 80f4 0e3e
000002b0: ef74 7a3b b79f 4e3e d9dc b03d ca57 493d
000002c0: cb4c f33e b650 7f3d 3066 50bc 7e06 71be
000002d0: f797 54be b07d 3a3d bf98 28be f3fe a33d
000002e0: 8bee 3bbc 2fb8 79bd 9e76 843d 7c41 82bc
000002f0: 5d54 a2bc e28f 40bd b414 cbbd 2fa4 19bd
00000300: 3ec4 01be 79bb 8b3d 5578 4d3d 975a c53d
00000310: a6f5 073e 96b2 a23e 3edb eabe 3a39 16be
00000320: 357c ba3e 67f1 aa3d 429a d63d 5d8b 16bc
00000330: defe 183d 2f28 263d b0de cc3d 4270 3dbe
00000340: 331a 533d ea30 f63c 7125 93bc 250f 073d
00000350: e1ef 29be 2ba7 a43b 3592 abbc 2324 33bd
00000360: 8b44 f8bc bee1 a93d 6f73 1a3e 8e48 a6bc
00000370: 2ae4 a53e ac61 8cbe 6faf 2ebe 9ee5 f43d
00000380: e03f 87bc 4007 6ebe 12e5 27bc c02f 193e
00000390: 50a0 ebbd 500a 173d 5c5a fb3d 69d7 2bbd
000003a0: 7bc8 d9bb ed78 b9bd bba7 96bd 32a0 a3bc
000003b0: a32e d7bc 172b cabd 0184 5c3e 8807 babc
000003c0: 92be 153e 5c66 153e 4605 153d fbaf 9e3e
000003d0: 4f96 aebd cd00 83be d08f 22be 5519 813d
000003e0: 892f 72bd 081f 88be 72da fdbd f8be 2dbd
000003f0: f19c a93d 9972 4b3c ed39 b73c 6f96 6fbc
-0.20784253 0.006016021 0.43789685 0.09115338 -0.15312682 -0.07350446 -0.1168466 0.057906736
-0.12936518 0.07793208 -0.088964686 -0.25866568 -0.03511181 0.091791205 -0.14967778 0.07268446
-0.0071712667 -0.07940173 0.10315077 0.025448704 0.21983589 -0.22280632 0.113832295 0.06306494
-0.39555085 -0.11120755 -0.111017436 0.04377279 0.10678581 -0.12204979 0.21473892 0.104802914
0.22049464 0.004700234 -0.1790788 0.028290218 0.0031835008 0.17815417 0.00066505757 0.031879485
0.06632091 -0.14729084 0.06771722 0.13702182 -0.30685964 -0.29201087 -0.10122962 0.22050129
-0.106740385 -0.016980588 -0.036366656 -0.0008242437 0.03726137 -0.009217734 -0.10628297 0.033231735
0.08122884 0.037165653 0.15649737 -0.03217386 -0.22354682 0.03229955 -0.020104317 0.024893777
0.31695879 -0.08055131 -0.046778508 0.34977734 -0.05103835 -0.23902231 -0.027752992 -0.108931
0.02871481 0.090658 -0.1840346 0.11929353 -0.108453184 -0.24991988 -0.050224476 0.22029337
-0.0031084763 -0.036625504 0.06217338 0.015565665 0.07058407 0.11079673 -0.026661409 0.022466429
-0.3811699 0.13720345 0.44480082 -0.17913993 0.1292941 -0.02330038 -0.21463987 0.11796942
-0.0035274923 0.09813856 -0.14204697 -0.10072434 -0.11584331 0.050309904 0.18953703 -0.05961964
0.043955766 0.011739835 -0.047956746 -0.13327101 -0.0021270884 -0.08566181 -0.2870132 -0.14359412
0.2674983 -0.0022601185 0.085715525 0.018235093 -0.1083239 -0.034111474 -0.033190563 0.042549264
0.15212138 -0.21513075 -0.04899703 0.16548817 -0.22711216 -0.056274295 -0.16305861 -0.115443625
-0.30151933 0.0467574 -0.051065966 0.14405715 -0.28738776 0.20912175 -0.028141422 -0.14462896
-0.16377914 -0.23109345 -0.0015998912 -0.058315903 0.07867743 -0.16062485 -0.07901669 0.21861479
0.013357321 -0.155567 -0.0059746695 0.17134286 0.28344637 -0.04765746 -0.05966202 0.01801936
0.12878308 -0.1615431 0.04385821 -0.35852182 0.12794822 0.25613976 -0.020457063 -0.040875234
-0.10978547 -0.111112796 -0.041426253 0.024926363 -0.17482542 -0.24781762 0.047567304 -0.055628736
0.24950638 -0.032085285 -0.034531724 0.13960457 0.003821667 0.20178114 0.08635873 0.049155988
0.47519526 0.06233283 -0.012719676 -0.23537633 -0.20761095 0.04553002 -0.16464518 0.08007612
-0.011470447 -0.060966667 0.06467937 -0.015900366 -0.019815618 -0.047012217 -0.09916058 -0.037510093
-0.12672517 0.06822867 0.050163586 0.09636419 0.13277301 0.31776875 -0.45870394 -0.14670268
0.36422887 0.08346825 0.10478641 -0.0091885 0.037352435 0.040565666 0.10003412 -0.18499854
0.051538657 0.03005262 -0.01796219 0.032973427 -0.16595413 0.005024811 -0.02094374 -0.043735635
-0.030306121 0.0829501 0.15083097 -0.020298269 0.32400638 -0.27418268 -0.1705911 0.119578585
-0.01650995 -0.23244953 -0.010247486 0.14959621 -0.115051866 0.03687507 0.12273094 -0.041953478
-0.0066462136 -0.09056268 -0.07356211 -0.019973848 -0.026267355 -0.098715 0.2153473 -0.02270867
0.14623478 0.14589828 0.036381982 0.30993637 -0.08524763 -0.25586548 -0.15875173 0.0630366
-0.059127364 -0.26586175 -0.12395181 -0.04241845 0.08281887 0.012417459 0.022366488 -0.0146232685

actor_backbone.0.bias f4 [128]
00000000: ff60 10bd 6d7c 903c 98d9 c7ba f085 343c
00000010: 9f4f 6abc 147a 913c 38b8 263d d257 aebc
00000020: ea19 d6bc 36ff d53c 8fc2 c43b bbe1 b13c
00000030: 7137 a13c b810 b63c 9460 39bc 1ad7 ccbc
00000040: bdd0 8e3c 36d7 d93b bbf2 c23c 0e2b a53c
00000050: e17e 0c3c 9c4b 13bc aaea 1cbd d334 64bc
00000060: 279a 51bc 6ae7 893c c3d6 a8bb 7ef1 f93c
00000070: 8786 86bb 81ef b6bc e538 893c 0759 0bbd
00000080: 0d83 2b3b a9af 623c 3982 8bbb f117 10bc
00000090: c03d 1c3d 44cf 9dbc 6f80 8dbc eb4d 7a3b
000000a0: c8a0 c8bc 8e14 183d 715b a43c 3581 96bb
000000b0: d64b bf3c eb5d 05bc dfaa 953b 56dc 173c
000000c0: 91b7 833c 712f 053b ee73 8c3c 91ec 5f3b
000000d0: 775e 90bc ec3b a8bc 01b4 163d 0678 8c3c
000000e0: b954 e4bc 2515 f73b 6d30 d3bc 3699 86bc
000000f0: 8dda 3a3c b1e9 0d3d a962 dfbb 43df 60bb
00000100: c809 04bc 14b5 06bc 7d60 89bc adc3 c03c
00000110: 21e6 c73c 6e50 7c3c d546 b63b fe2e 443d
00000120: c85d 2c3d 63d5 bfbc 1d34 873c 66b2 16bc
00000130: d3f3 d93b be2b b43b 4608 0b3c 7535 af3b
00000140: a0d0 323d e4cb 993c 7cdb 37bc c7c1 e8ba
00000150: 9bf1 1ebd e74a c43c b7cc 77bc fb92 e4bb
00000160: 91e4 50bc 99e3 d4bc 45a9 963c 3175 bfbc
00000170: 6ad5 5abc bb45 9dbc 4dce ae3c 9559 01bd
00000180: a367 063d e441 46bb a486 45bb 7aa4 033a
00000190: 90bc 0bbc a2d5 af3c 9486 663d e097 51bc
000001a0: 27c6 b13c 24a7 3dbc fc15 163d 715d 27bc
000001b0: 199f ecbb 3adb d6bc 661b 0ebd eccf c93c
000001c0: c91f a8bc 81da 853c 22a0 18bc fd69 cfbc
000001d0: a807 ce3b 8311 e13c dd20 073c f289 e13b
000001e0: c7c4 a9bc 7d57 4b3c 2534 0f3d 2902 a7bc
000001f0: 1029 32bc fa38 e4bb 01c1 003b f8af b43c
-0.035248753 0.017637456 -0.0015247343 0.011018261 -0.01430121 0.017758407 0.04070303 -0.02128211
-0.026135404 0.02612267 0.0060046385 0.021714082 0.019679757 0.022224769 -0.01131453 -0.025004912
0.017433519 0.0066479696 0.023797384 0.020162132 0.008575172 -0.008990195 -0.03830973 -0.01392861
-0.0127931 0.01683398 -0.0051525547 0.03051066 -0.0041053924 -0.022331001 0.016750762 -0.03402045
0.0026170642 0.013835826 -0.004257467 -0.008794771 0.038144827 -0.019263871 -0.017273156 0.0038193415
-0.024490729 0.037128977 0.020063134 -0.0045930394 0.023351591 -0.008140068 0.0045674886 0.009268841
0.016078742 0.0020322467 0.017145123 0.0034168104 -0.01762317 -0.020536385 0.03679276 0.017147075
-0.02787243 0.0075403624 -0.025779927 -0.016430479 0.011404646 0.034646694 -0.006817181 -0.0034312762
-0.008058973 -0.008221883 -0.016769642 0.023530805 0.024401726 0.015400035 0.005562643 0.047896378
0.042081624 -0.02341718 0.016504342 -0.009197807 0.0066513806 0.0054983785 0.008485859 0.0053469487
0.04365599 0.01877398 -0.011221763 -0.0017757945 -0.03880463 0.023961497 -0.015124491 -0.0069755292
-0.012749807 -0.025987433 0.01839126 -0.02337131 -0.013356546 -0.01919829 0.021338606 -0.031579573
0.03281368 -0.0030251676 -0.0030140067 0.00050217623 -0.0085288435 0.021464173 0.056280687 -0.0127925575
0.021700932 -0.011575494 0.03664206 -0.010215149 -0.0072211144 -0.026227582 -0.034694098 0.024635278
-0.020522969 0.016339542 -0.009315522 -0.025319094 0.006287534 0.02747417 0.008247581 0.0068828994
-0.020723714 0.012410996 0.03496184 -0.020386772 -0.010874048 -0.0069648 0.001964629 0.022056565

actor_backbone.2.weight f4 [128, 128]
00000000: a392 e6bc efd3 3bbd a02d 853c 48c6 5bbd
00000010: 5c0e 5cbe 820a f23d 747e 0b3e 1b3b b2bd
00000020: 5758 69bd 6bcf ab3d faf6 b7bd d516 26be
00000030: ee78 cc3d 0277 21bd 590e 1a3d faa1 85be
00000040: 4f48 5abe b67d 3f3e d471 213e 695c 7d3d
00000050: 32ec dd3e 74f3 b73e e2e7 1d3e c92a 71be
00000060: 568f 6b3c 8bf9 84be c14b b13d b27e 4fbc
00000070: dfb6 74be d45f dd3c 7d86 22be 365d 95be
00000080: f26a e53e 2362 9dbc 3627 5ebe 599f 1c3d
00000090: ddb9 903e bd0c 673e affa c93d 6bca afbe
000000a0: 95d4 8a3e c0bf 993e 9c40 16bd ad14 21be
000000b0: f812 1fbd 12aa 98be f5df 05be df17 58be
000000c0: 53aa 1dbe 9acd 143e 28d7 97bd 215a ed3d
000000d0: e1da 1a3e 0808 0bbd 9d18 0b3d 80e8 37be
000000e0: 9b8f 9fbc 4920 383e b5d5 bd3d 2b7f 773e
000000f0: df68 d43c bd0f 2e3e 5b13 ac3d db6d 7d3e
00000100: a247 7fbe 7cb9 6abd 97ae 6b3a 31bf ba3a
00000110: f7f7 e43d 025b a5be ccc8 93bd 8366 6b3d
00000120: 5dfa dc3d d7f1 773e 421e f6bb 6cf1 cc3e
00000130: e2ac b0be 44a8 243d b250 55bd e8d6 e9bb
00000140: 2354 133c 7ac9 44be 679e a6be 253c 5dbd
00000150: b56f d83c 7621 fa3d 6349 0d3e 91b2 a8be
00000160: 3dee dc3d daf6 213e d7da 223e 1d03 1b3e
00000170: 871d d23e 792c 7abe e798 3a3d 19af 4a3e
00000180: 44bf e5be 62ee 33ba 942f f5bd eb9d 86bc
00000190: de85 cdbd 4979 823e e837 4cbd 810b d5be
000001a0: ee5f 32be f2c3 d33a 0c1f 793e cd38 b4be
000001b0: 9624 c53d 16d1 223d 0db7 693e 74c2 13be
000001c0: f05f 893e 8a92 2d3e 1f67 8c3e 0366 90bc
000001d0: 1c6a fdbd 4194 c5be dec0 9e3d 959a 6d3d
000001e0: dd8a 5dbd 5706 87bc 8c3e 4e3e 584a 8e3d
000001f0: 159b 80bd 89c1 8b3d e834 333e 3d5a 643d
00000200: 5ed6 663e c648 243d e53e 7b3c 8d3a f63d
00000210: d5bc 563e 51ca b43d 3cb1 63bd b69e 1dbd
00000220: 2ea5 263e 3682 e2bc 54a9 703e a4cf 2cbd
00000230: f6c2 8d3e 372d 18be 021b 34be fc91 a03d
00000240: 708c b63b c0fe d43d 7735 f0bd f954 a93c
00000250: ecb1 3a3e ffb8 f83d 93c1 47bd bd13 1cbd
00000260: af16 9d3d a516 68be 34e0 bebe ca40 5f3e
00000270: ed68 aabe 5bb8 143e 78ee 433d 2fb5 aa3d
00000280: 79dd 4e3e 6e5e 10bd 2d37 af3d 3441 023e
00000290: 8b36 873a 2ae5 e73b 107c c8be 5a4a 8d3d
000002a0: 2ccc 1fbe 9900 163d 10cc 913c af36 3dbe
000002b0: b325 7cbe bf17 23bd 11d9 bd3e 64d7 403e
000002c0: 6ad2 0b3e 0ee4 0c3e f244 0b3e a2bd debb
000002d0: 078a 783e 0241 c7bd 237a abbd 5122 04bc
000002e0: 637b e33d a61a 493d 6db2 d43c 1157 073d
000002f0: d4be ccba 464b 363e 47ef 98bd 0707 a6bd
00000300: 828e c03d a525 883c 1e37 5b3d fd46 e0bd
00000310: c159 4dbe b5c8 0bbf 5d0f 31be 5979 bebe
00000320: 4790 a1bd 149e 7a3d bdb0 7a3c 96b7 a83e
00000330: e9ce f8bd 4894 d7bd f8a8 ad3e e11f b13e
00000340: d4d3 33bd ec3c 603d 6f49 8ebd e457 93be
00000350: c99f 923e 6e56 313e 3c26 01be 1d96 d8bd
00000360: 6293 143e f730 413d c950 8ebd 18cf e0bd
00000370: ac7e e93d 5821 9c3b 0f79 fe3d 1877 07be
00000380: 1133 babd 4244 4bbe 1b87 8d3e 18a9 ab3d
00000390: 868e c03b b0c1 58be 547a a53e 05d7 1d3d
000003a0: b05d ac3d 75f8 febd dd0d 04be 54f0 93bd
000003b0: 6acf 0d3e 6e85 8d3d 9e36 ea3d 9082 203e
000003c0: 5fd5 b03c 7a0e 703e 8d66 69bc 3163 703d
000003d0: d86d a03d 2b37 213e cbb6 f8be 1f40 8abe
000003e0: 4f0f a23c 1063 b63e cdaf 2c3e 3dad 0abe
000003f0: 110a b33d 3e5f f3bd 1f90 25be e286 873e
-0.028146094 -0.045856413 0.016257107 -0.053655893 -0.21489853 0.118184105 0.13622457 -0.0870268
-0.056969013 0.08389171 -0.08982654 -0.16219647 0.09984003 -0.039420135 0.03761134 -0.2610014
-0.21316646 0.18700299 0.15766078 0.061855707 0.43344265 0.35927927 0.15420488 -0.23551477
0.014377436 -0.25971636 0.08657027 -0.012664484 -0.23897885 0.027023233 -0.15871616 -0.29172677
0.44808155 -0.019211834 -0.21694645 0.038237903 0.28266802 0.22563453 0.09862267 -0.3433412
0.27115312 0.30029106 -0.03668271 -0.15730543 -0.03883645 -0.29817253 -0.13073714 -0.21102856
-0.15397005 0.14531556 -0.07414085 0.11589456 0.15122558 -0.033943206 0.03395902 -0.17959785
-0.019477656 0.17981066 0.09269277 0.24169604 0.025928913 0.16998191 0.08402129 0.24748938
-0.2492967 -0.057305798 0.00089905545 0.0014247653 0.11180108 -0.32295996 -0.07216033 0.05747081
0.107899405 0.24213348 -0.007510931 0.4002794 -0.345069 0.040199533 -0.05207891 -0.0071362145
0.008992228 -0.19217482 -0.32542726 -0.054012436 0.026420454 0.122134134 0.13797526 -0.32948735
0.10787628 0.15816823 0.15903793 0.15137906 0.41038153 -0.24431027 0.045555975 0.19793357
-0.44872487 -0.000686383 -0.119719654 -0.016432723 -0.10035299 0.25483158 -0.049858004 -0.4161034
-0.17419407 0.0016156419 0.2432825 -0.35199586 0.09626119 0.03975018 0.22823735 -0.14429647
0.26831007 0.16950431 0.27422425 -0.017626768 -0.123737544 -0.3858967 0.0775163 0.05800875
-0.05408751 -0.016482515 0.20141047 0.06947774 -0.062795796 0.06824023 0.17500651 0.05575012
0.22542712 0.040108465 0.015334819 0.120228864 0.20970471 0.08827651 -0.055588946 -0.038481437
0.16273949 -0.02764998 0.23502094 -0.04219021 0.27687806 -0.14860998 -0.17588428 0.07840344
0.0055709407 0.10400152 -0.117289476 0.020670401 0.18231934 0.1214466 -0.04876859 -0.03810476
0.07670342 -0.22664888 -0.37280428 0.21802059 -0.33283177 0.14523451 0.047834843 0.08335339
0.20201673 -0.035246305 0.08555446 0.12720186 0.0010315938 0.007076879 -0.39157152 0.06898947
-0.15605229 0.036621664 0.0177975 -0.18477891 -0.24623756 -0.039817568 0.3707967 0.18832165
0.13654485 0.13758871 0.1360052 -0.0067975083 0.24271403 -0.09729196 -0.08372905 -0.008064822
0.111075185 0.04909768 0.025963986 0.033042017 -0.0015620836 0.17802152 -0.074675135 -0.08106809
0.09402181 0.016619513 0.05351936 -0.1095104 -0.2005377 -0.5460313 -0.17291017 -0.37201956
-0.07888847 0.06118591 0.015300927 0.32952565 -0.1214884 -0.10526329 0.33917975 0.34594634
-0.043903187 0.0547456 -0.069476 -0.28777993 0.2863753 0.17318127 -0.12612242 -0.10575507
0.14509347 0.047165837 -0.06949002 -0.10977 0.11401114 0.004764717 0.12425434 -0.13229024
-0.090917714 -0.19850257 0.2764214 0.083818614 0.005876365 -0.21167636 0.3231989 0.038535137
0.08416307 -0.12449733 -0.12895913 -0.07223573 0.13848653 0.06910215 0.11436199 0.15674806
0.021586118 0.23443022 -0.014245641 0.058688346 0.07833451 0.15743701 -0.4857696 -0.27002046
0.01978269 0.35622454 0.16863938 -0.13542648 0.087421544 -0.118834004 -0.16168259 0.26470095

actor_backbone.2.bias f4 [128]
00000000: 5e03 47bd c655 943d 796d fbbb 3a7e 9fbd
00000010: f188 87bc 4528 3c3c a505 0ebc 50b0 a43c
00000020: 23d4 30bd cab8 183d cb93 44bd 2e4a 8e3d
00000030: 95c1 e33b d784 c9bc 67bd e5bc 3fbc 903a
00000040: e9f9 273c 2c0b 553c eb31 b0bd 316f aebd
00000050: 54b4 553a 130f 0cbe 8520 e13c 0801 6c3c
00000060: 2c71 aa3c c498 e0ba dca5 053c c770 debd
00000070: ef69 fe3b 2312 863a 950c df3b c585 633c
00000080: e9c2 0fbc 75a5 8b3c 5bed 18bd 679b f53b
00000090: fc99 d13b d87a 9338 4fe7 493b a8d1 2a3c
000000a0: 1be6 b7bc 8c71 ce3a 8917 4a3c 3955 ddbc
000000b0: ca5f 80bb 6142 75bb 764b 9a3d a1c9 10bd
000000c0: 6573 d1bc 90db 60bc c330 cab7 2d1f e1bc
000000d0: c8e6 4fbb 1d58 e1bc 2bd6 80bd f761 fcbc
000000e0: afb4 fc3b eeff 01bd 42ee 85bb dd05 ecbc
000000f0: 40cb 97bd 4156 f43b 375c 85bc 2be3 0bbc
00000100: 0b2e 833d 5eba a8bd b311 df3c c916 2bbd
00000110: dfad 653c 824f 223d f970 98bc 8a44 de39
00000120: 53bd b83b 4d87 663c 46f2 e33c df77 6b3c
00000130: 397a 933a b4d1 30bc 54d2 693c 5586 353c
00000140: fdf6 9f3d 377c 5c3d 6a8a e9bb 5ec5 433d
00000150: 8595 103c 0ca1 493d 928b e0bd 9d6d 343c
00000160: df46 f9bb b149 1cbd 8fae ca3c 4603 10bd
00000170: d66a 9dbc c388 343d 4238 53bc 6ec9 69bb
00000180: 9178 4b3d 2eeb 393d 316a e6bb 61d1 3ebc
00000190: 8852 5d3d f5f4 b13c b615 a43c f0cb c73b
000001a0: 16bf 5d3c 7b6a 803c 0e9d 803c e39f 013d
000001b0: e97d 233d a871 c63c 27c8 693b db04 113a
000001c0: b016 4b3c 58d5 7f3c 4403 13bd c7cb 573b
000001d0: 448b 0d3d 882f 463c e2ae 0d3c e2f9 373d
000001e0: 52ef 16bc 9783 92bb 64e4 d6bd 17d8 963c
000001f0: df8b 95bc 195b e7bc 9761 943a 43d7 d4bb
-0.048587196 0.072429225 -0.0076729623 -0.07787748 -0.016544791 0.01148421 -0.008668338 0.020103604
-0.04317106 0.037285604 -0.04799251 0.069477424 0.006950567 -0.024599476 -0.028044416 0.001104243
0.010252454 0.013003152 -0.08603271 -0.08517302 0.0008152176 -0.13677625 0.027481327 0.014404543
0.020805918 -0.0017135371 0.00815722 -0.10861354 0.007764093 0.0010228794 0.00680692 0.013886874
-0.008774498 0.01704667 -0.037335735 0.007495332 0.00639653 7.032388e-05 0.0030808037 0.0104259625
-0.02244859 0.0015750392 0.012334713 -0.027018176 -0.003917669 -0.0037423598 0.07533924 -0.03534854
-0.02556772 -0.013724223 -2.4102983e-05 -0.027480686 -0.003172325 -0.027507836 -0.06290849 -0.030808432
0.007711969 -0.031738214 -0.0040872404 -0.02881139 -0.07411814 0.0074565713 -0.016279323 -0.008538048
0.064052664 -0.08238672 0.02723012 -0.041769776 0.014018505 0.039626606 -0.018608557 0.00042394205
0.0056378036 0.014070344 0.027825486 0.014371841 0.0011251635 -0.010792185 0.014271338 0.0110793905
0.07810781 0.053829398 -0.007127096 0.047795646 0.008824711 0.049225852 -0.10964121 0.011012462
-0.0076073254 -0.038156215 0.02474144 -0.03515937 -0.019215982 0.04407574 -0.012891831 -0.003567304
0.049675528 0.0453903 -0.007031702 -0.0116465995 0.054033786 0.02172325 0.020029884 0.0060973093
0.013534328 0.015675774 0.01569989 0.03164662 0.039915 0.024224117 0.0035672279 0.00055320346
0.012395546 0.01561483 -0.035891786 0.0032927857 0.034556642 0.012096293 0.008647652 0.04491604
-0.009212332 -0.004471253 -0.10492781 0.018413587 -0.018255172 -0.028241681 0.0011320588 -0.0064953878

reward_backbone.0.weight f4 [128, 22]
00000000: f306 6cbd c766 febe ff5a ca3e 463e 623f
00000010: f9c9 103e 8a02 73be a9b0 b83b 15da db3d
00000020: e010 2b3e 1491 42be a6f6 9d3c 5d52 4c3d
00000030: f46a ac3d 9bea 783e 2c37 1fbd 3c9b d83c
00000040: 341b 4d3e d409 7d3d 02fb 84bd ab71 0f3e
00000050: e2d9 293e e168 103c 1410 70be e035 333c
00000060: 7ef3 bd3e 16b3 053d 1166 6c3d 917b fe3d
00000070: f394 23bd 9b72 8cbd 77ed df3d 09c7 b2bd
00000080: cc0e 3dbd aad5 abbe f6ee 463e 42b1 7fbd
00000090: 2553 a0bd aa2f bfbd 17bf 433d d7c4 403e
000000a0: c478 07bc 4fce 4cbe 25b5 3dbd aacd 0e3e
000000b0: aecd b8bd a502 d5bd d4a4 acbe 30ed e2be
000000c0: ba19 babd 31cd 70be 76da 8abe 4acf 6abd
000000d0: 60b9 b2be d997 35be b54d 42be 607c 4fbe
000000e0: cbbd 7f3d 43b0 9fbe d9ae 6abe 0ea3 bb3d
000000f0: bd0a 72be d08d 83be 7172 80be b747 b3be
00000100: 00ce 5cbe b593 b2be 00f6 cfbe a489 723d
00000110: 1dd7 073f b016 9abd 39fc 9b3d 30ad 153e
00000120: a301 b2bb 73e4 b33d 580f d6bd e3d3 0a3e
00000130: 7004 a93d c3f1 10be c821 523c 1acc 6c3d
00000140: df21 223d 0b48 0a3d edfe eb3d f8c9 a1bc
00000150: db6b fabc ff4a 28be 178c 5e3d 6dc5 e939
00000160: 58de e53e 3c05 27bd 1139 11bf ef35 073e
00000170: 3c82 a43c 39e6 85bc 8341 c73d 85bf 033e
00000180: 1a3f 9bbe 8030 d6bd 6fc6 d2bd 9da0 e2bd
00000190: 2f9c 333d 18c4 c33d fe37 c63d 1eb4 9fbc
000001a0: 053b 373e e5f2 56be 9336 853d 66a1 13be
000001b0: 9ac2 313e 0085 38bd 12ea 0ebe 3f41 09bf
000001c0: d96d 4a3e 0a89 4f3f 348b fe3d 53fa b6bd
000001d0: e77f a03d 9c15 3c3e dc1f 473b a4ca dbbd
000001e0: 8cea 033e c460 adbd 40d4 fbbd 9da5 5f3e
000001f0: d280 273d 74cc 05bc 0ae6 083e f6f5 1ebd
00000200: e7a7 7abc df9d 3c3e 8b2f 0d3e 1f9d adbc
00000210: ba85 37bb 243e 0d3f 4597 353e 0a0f 17bf
00000220: 7886 0abd 6fe9 12be 4d8b 00be 8cbc 46be
00000230: 8dd8 f43d df62 753e ce54 89bc 9dbd 6abb
00000240: 29fc 84bd d802 47bd 180f c93d 4ffa 263d
00000250: 8055 89bb cac8 2ebd 9c56 38bd 9a53 093e
00000260: a1da 33bd e0ae ccbd 796c 893e 0cb6 353e
00000270: 9d5a d3be f4ca a8bd cdb4 fc3d a7b8 283e
00000280: 97ce 7ebd 3a8a 8b3e 84fc 663e 4778 1abe
00000290: 36be a63d 3c51 92bd bb2f 643e e4ff e13d
000002a0: 02e3 ecbc 3c17 2ebd 9753 603d 6115 a8bd
000002b0: 51b9 59bc e5c6 70ba dff7 b4bd 1617 2dbe
000002c0: dc41 bcbe 5f96 fc3d 7e94 223e c86f babe
000002d0: 5d80 103e ca6d 01be ee41 a23d bc74 223d
000002e0: 3898 16bd efe3 b9bd 0554 e83d dcc6 c7ba
000002f0: a212 353e e69c 203d 469c 95bd bed8 373d
00000300: 70a9 393e 0768 fa3d f272 6d3e deef 163e
00000310: 6041 f2bb 27e0 593e 88f8 023f be76 58be
00000320: 0054 30bf 8b82 6f3e 5910 dc3d 6b26 71be
00000330: 2b52 64bd 79ed 50be b615 29bd 6fc8 07bd
00000340: 3c80 133c 8811 ccbd 4f97 153d 065b 913c
00000350: dd1e 433d c178 783d 4966 453d d9f6 313e
00000360: b1b8 04be cd9c 2cbe 76ec 9bbd 6734 213d
00000370: c5ea 02bf 3792 5dbc 26f6 c33e 1d0f 5a3e
00000380: d049 7a3e fbe5 06be 8613 e1bd 180c 203d
00000390: 2dca 62bc 9954 193d ba2e a23b 97a5 3e3d
000003a0: 93ff bfbd 8e42 e63d 1594 d83d 9558 8bbc
000003b0: 98b5 c13d 3b8b b4bc 981f 0b3e 3bc6 1e3e
000003c0: c72f 95be 6ca1 eebc c334 f53d f62c af3e
000003d0: 9b79 3a3d f499 5bbe b1cd 803d 58f5 223d
000003e0: ee87 613d 5b3b b43c 458a abbd 0a7b 69bd
000003f0: 0c06 603e 9a48 923d 153c 8e3d 28d4 123e
-0.057623815 -0.49687788 0.3952255 0.8837627 0.14139546 -0.23731437 0.005636294 0.10734955
0.16705656 -0.19000655 0.01928265 0.049883235 0.08418837 0.24308245 -0.038870975 0.026441209
0.20029908 0.06177695 -0.064931884 0.14008205 0.16587022 0.008814068 -0.23443633 0.010938138
0.37099832 0.032641493 0.057714526 0.12425912 -0.03993697 -0.06857797 0.10933965 -0.08729369
-0.04615669 -0.3356145 0.19427094 -0.062424906 -0.078283586 -0.09335263 0.04778966 0.18825088
-0.008268539 -0.20000575 -0.04631533 0.13945642 -0.09023605 -0.10400895 -0.33719504 -0.44321585
-0.09086938 -0.23515774 -0.27119797 -0.057326593 -0.34907055 -0.17733707 -0.18974955 -0.20262289
0.06243686 -0.31189165 -0.22918262 0.091619596 -0.23636909 -0.25694132 -0.25087312 -0.35015652
-0.21562958 -0.34878317 -0.4061737 0.059213296 0.5306261 -0.075238585 0.07616467 0.14616847
-0.005432324 0.087838076 -0.10452145 0.13557391 0.082527995 -0.14154725 0.012825437 0.057811834
0.039583083 0.03376011 0.115232326 -0.019749627 -0.030569008 -0.16434859 0.05433282 0.00044588317
0.44896197 -0.040776476 -0.567277 0.13204168 0.020081632 -0.01634513 0.09729292 0.12866028
-0.3032158 -0.104584694 -0.102917545 -0.11065791 0.04385012 0.09558886 0.096786484 -0.019495066
0.17893608 -0.20991094 0.0650455 -0.14417037 0.17359391 -0.045048714 -0.13956478 -0.5361518
0.19768466 0.8106848 0.12428895 -0.08934464 0.078368954 0.18367618 0.003038398 -0.1073201
0.12882441 -0.08465722 -0.12296343 0.2184052 0.040894337 -0.008166421 0.13369003 -0.038808785
-0.01529882 0.18419598 0.13787667 -0.021193085 -0.0028003291 0.55172944 0.17733486 -0.5900732
-0.033819646 -0.1434686 -0.12553139 -0.19407862 0.11955366 0.23963498 -0.01676407 -0.0035818585
-0.06493408 -0.048586696 0.09817332 0.040766057 -0.0041911006 -0.042671956 -0.045004472 0.13410798
-0.043909673 -0.09994292 0.2684057 0.17745227 -0.4128007 -0.08241835 0.123391725 0.1647669
-0.06220874 0.27253896 0.22557265 -0.15084945 0.081417486 -0.071444005 0.22283833 0.110351354
-0.02891684 -0.042502627 0.054767217 -0.08207203 -0.013288812 -0.0009184911 -0.0883634 -0.16903338
-0.36768997 0.123333685 0.15876958 -0.36413407 0.14111467 -0.12639537 0.07922731 0.039662108
-0.03676626 -0.09076678 0.113441505 -0.001524176 0.17682889 0.03921213 -0.073051974 0.044884436
0.18131042 0.12226873 0.2318838 0.1473994 -0.007393047 0.21276914 0.5116048 -0.21139047
-0.68878174 0.23389642 0.107453056 -0.23549812 -0.055742424 -0.20403089 -0.04128047 -0.033150133
0.009002741 -0.09964281 0.036521252 0.017743599 0.047636855 0.060662035 0.04819325 0.17379321
-0.12961079 -0.1685669 -0.07613461 0.039356615 -0.5113948 -0.01352363 0.38273734 0.21294828
0.2444222 -0.13173668 -0.10990052 0.039074033 -0.013842148 0.037434194 0.004949418 0.046544638
-0.09374919 0.11243163 0.105751194 -0.017010013 0.094584644 -0.022039047 0.13586271 0.15505306
-0.29138014 -0.029129706 0.11972954 0.3421399 0.04552613 -0.21445447 0.062892325 0.03978476
0.055061273 0.02200096 -0.08375982 -0.057002105 0.21877307 0.07142754 0.069450535 0.14338744

reward_backbone.0.bias f4 [128]
00000000: 4d55 c83e 7b0d 833d b377 ccbe c667 10be
00000010: e1be 63be 468a 1f3e 3f2f ab3b aaa0 27be
00000020: 6dfa ddbd fc99 cb3d a04c 323e 3338 a93e
00000030: f816 763d d152 173f c3e2 353e 4646 3fbe
00000040: 1ccc bbbd 3f6c 0ebf 916b c1be 7ad2 dfbe
00000050: 0c45 773e 47a8 bdbd 9d24 dabd 7e06 a6bd
00000060: eeb2 8abe 1a01 143e fef0 fbbd d69d 2f3e
00000070: e328 96bd c887 b8be f1c8 e23d 72bc 4f3e
00000080: 0fc0 8b3e 4e7c 63be 1730 1d3e 30fd a1bd
00000090: de08 523d 1791 9dbd 2251 b33e 5e05 7e3d
000000a0: 2042 043f b0b0 dd3e fe3c 223e 3923 81bd
000000b0: d32c 01bf 5a82 b1be ef98 813d f437 813d
000000c0: ab3c 3c3e b3ca 633e 7f74 43bd be54 0dbf
000000d0: 6a78 cebd f25d 3f3c 9f88 2c3d 9770 a1be
000000e0: 4a24 23be 12b1 24be 8b33 08bf 7ebc e03d
000000f0: e0d3 9ebe c3a2 553d 36c0 47be 3126 47be
00000100: 4ff0 c6bd 6567 673d a331 f53d da30 f5bd
00000110: f979 123f 5206 29be a7e0 7fbd 553c 06bf
00000120: aba3 5cbe d417 673d 8251 4ebe c621 9f3d
00000130: e198 4ebe f3f3 393d e2da d93e 405c 293e
00000140: d7c0 5dbd c2db 3ebe 23d5 8ebe 5207 f8bc
00000150: 9dfb 053e 9b58 1bbe abcf a0bd 9567 bebd
00000160: 7414 a8bd 9799 2e3e 675a abbe dea1 493e
00000170: 8389 9b3d 6e7c 643e 79c6 883d 3508 84be
00000180: d897 b1bd 1809 b93e 3158 953e 063d da3c
00000190: 0edd c13e e523 59bd da5f 10bc 9356 a73d
000001a0: f778 c4bc 0336 e1bc 99a9 113e c432 4dbd
000001b0: bf46 f83e 580f b53d 87a8 a7be 295d 8dbe
000001c0: edb5 0cbe 3a55 94bd 2189 493d 61bd 433d
000001d0: 1b86 0a3f 8249 eebe cb02 f0be 66dd 273b
000001e0: 334b 823e 1be7 5ebd 647a eebe f44e 5bbd
000001f0: 2285 cc3d 00ee 243d e4f0 cb3d a3e0 6a3e
0.3912758 0.063990556 -0.39935073 -0.14102086 -0.22240783 0.15580091 0.005224138 -0.16369882
-0.108387806 0.099414796 0.17412043 0.3305069 0.0600805 0.5911074 0.17762284 -0.18679151
-0.0916979 -0.5563392 -0.3777738 -0.43715268 0.24147433 -0.09260612 -0.10651515 -0.08106707
-0.27089638 0.14453545 -0.12301825 0.17150053 -0.07332017 -0.36041093 0.11073483 0.2028673
0.27294967 -0.22215387 0.15350376 -0.0790962 0.051277988 -0.07693689 0.35022837 0.062016837
0.516634 0.43298864 0.15843579 -0.06305546 -0.5045902 -0.34669763 0.06327998 0.063095
0.18382518 0.22245292 -0.04771852 -0.5520743 -0.10081561 0.011680113 0.04212248 -0.31531212
-0.15931812 -0.16083172 -0.5320365 0.10973452 -0.31021023 0.052157175 -0.19506916 -0.19448163
-0.09713804 0.05649509 0.11972358 -0.11972208 0.57217366 -0.16506317 -0.062470105 -0.5243581
-0.2154681 0.05641921 -0.2014828 0.07770114 -0.20175506 0.045398664 0.42549807 0.16539097
-0.054138985 -0.18638518 -0.27896985 -0.030276928 0.13084264 -0.15170519 -0.078521095 -0.092971005
-0.08207026 0.17050777 -0.3346741 0.19690654 0.07594588 0.22313091 0.06678481 -0.2578751
-0.0867154 0.3613975 0.29168847 0.026640426 0.37863964 -0.053012747 -0.008811915 0.081708096
-0.023983462 -0.027491575 0.14224853 -0.050097242 0.48491475 0.08840817 -0.32745764 -0.27610138
-0.13741274 -0.07242818 0.049203042 0.047788028 0.5411088 -0.46540457 -0.4687713 0.0025614141
0.25447997 -0.054419618 -0.46577752 -0.053542092 0.099863306 0.040266037 0.099580556 0.22937255

reward_backbone.2.weight f4 [128, 128]
00000000: 8302 183d 3966 67be b2c2 c8b9 f81b 06bf
00000010: 101b bcbc 7a74 c3ba f11d be3d afe4 5c3e
00000020: 3f03 743d 3ed0 b03e 4a6f b0bd 7342 6b3c
00000030: 5fc1 7ebe 470e 443d 1d5f 8e3d f1c8 bfbd
00000040: e441 733e 1e25 3d3e 7ac1 3cbe 7e4d d9bd
00000050: 3154 3cbd 07e6 da3d ef22 e23e 1a4a 0ebf
00000060: 7984 5a3e ae6d 61bd 5bc7 c43d 9b9b bf3e
00000070: cca6 bc3d 70ea 0bbe 3ea6 c03d cf01 fabb
00000080: d515 62bd eb1e f63d 1b9b 273e ec24 fabe
00000090: 0c26 23bd 7913 9f3e 285b 473d da2c c13a
000000a0: ca7c 82bd 7868 8f3e 4786 9c3e 7b18 d8bd
000000b0: d9ad 47be c996 45be bee0 07bf e507 3ebe
000000c0: 873c 083c dcbb 05be ec90 66be 22c2 bdbd
000000d0: de9e f3be 2e61 dbbc 59b6 5abe 9686 d03d
000000e0: 3194 ff3d e801 1ebe ac6d 82be 36a3 f6bd
000000f0: 96bb d13c 9ec6 be3e a11f d7be f689 9a3e
00000100: d91a d33d 7182 6d3e f70e a5bd a8b0 08bf
00000110: f1c1 213e ff09 0a3e 4755 15bf 3d8f 15be
00000120: 3f4d 703e f069 1bbe 5d91 9e3e 90af cdbe
00000130: baa0 3dbc 7838 00bf 1a75 f03d 3594 3abe
00000140: f824 c73e 2c15 4c3e 9e63 623e 7a04 c03d
00000150: acca 8cbd fecd 0bbe 37a3 babe 5106 213e
00000160: 7b8e 3f3e 71f8 db3d 397d 3dbe bf6a 6cbd
00000170: 9265 87be cfac e5bc fdfe 51bd dfb6 d8bd
00000180: f28d e73d 30b4 7a3d 3998 233f fc72 8cbe
00000190: e34c 383e 0d7e 273e 1a89 153e 882d 693e
000001a0: b68a 51be 4e52 f8be 7470 bc3e 7e0e 113e
000001b0: 5429 8b3d 8821 97be c2f1 e83d a869 c1bd
000001c0: 8217 573e 1efd b3bd 6d19 b2be ef99 82be
000001d0: eb85 3a3e f814 18be 965f 53be 2bfe cc3d
000001e0: 6169 68be 2187 e73e 2e4e 0ebe 6ddd 553c
000001f0: 3cb0 49be aee4 073e e194 e43e 3c31 b4be
00000200: 8639 39be 8b95 dabd ba0a 5d3e 4e4e 8fbc
00000210: 4405 333e ad53 11bc 0dfa 17bd 5549 943e
00000220: 3656 d83d 6f31 0ebe 9267 84be 6121 77bd
00000230: 8303 f33d 4a68 58be 7d50 9abe c89e 813e
00000240: 01e4 b0bd 9bfb e53e e915 9b3e 8a18 a73e
00000250: e6cd 85be 1f55 743e 2b65 c7bc 80fa ef3d
00000260: df05 a6bd 2121 f1bd 26d1 4ebe adc0 9b3c
00000270: 9eba 84bd 474e 523e b1d0 8ebc fa0a 6e3d
00000280: a61d d0be 54c2 853e 68ef 52be 3b01 f83d
00000290: 4795 a03d 352e 26bd da58 94bc 0a59 893e
000002a0: 0a9e c7bd 6444 9abe 1000 68be 0774 12be
000002b0: 9280 803e 2041 443e a119 0dbb bd38 c63c
000002c0: e734 4d3e 3c01 90be 1f3e 573d 7b09 0fbd
000002d0: cdb6 c93d 4f55 3abe 230b b4bd e7e3 f23d
000002e0: b552 243e 81e9 7e3d 94af fb3d 544d 0c3d
000002f0: e672 a53e bfab 2f3c 67f4 323d 2b68 b33e
00000300: 0107 06be 5fbb 453c 4f80 d53d b646 d03d
00000310: 48db 7abd 0d82 223e 02c3 d6bd 1a76 f73d
00000320: 9555 31bd 02d6 2bbc be0d 353e d92c 22be
00000330: 970e 5b3d 3566 343d a394 0dbe 7505 6bbd
00000340: 47ff f03b 0554 543e cf01 46bc 8662 603e
00000350: c673 a83d 8d63 023e 9386 2bbd 72c0 6fbd
00000360: 8910 283d 9814 b1bd 05cf 3fbb e4a0 70bc
00000370: 6343 babc fb72 4bbd 3914 a73c fd2c 903e
00000380: 65ea a83d c79e 95be 74b9 57bc a6ca 253c
00000390: 12c7 c3be 6f97 0a3b 1708 a13d 6c18 69ba
000003a0: 6134 6f3d a210 a1bd 35e6 7fbe 9dc4 c23d
000003b0: 0003 38be 16a8 623e 6c00 fb3d 359f b13e
000003c0: 122d 083e 3143 093e 2313 d13d b6e3 d6bd
000003d0: 95e2 a2be 2df4 6f3e 08fe f63e ff23 633e
000003e0: b3ef 18be fbb1 df3d 72c4 943e daae cbba
000003f0: b8aa a9bd dee5 243d cc2d bcbd 8e1e 65bd
0.03711177 -0.22597589 -0.00038292032 -0.52386427 -0.022962123 -0.0014912032 0.092830546 0.21571611
0.05957341 0.34533876 -0.08614977 0.014359104 -0.24878453 0.04786518 0.06951735 -0.093644984
0.23755604 0.1847119 -0.1843318 -0.106104836 -0.04597873 0.106884055 0.44167277 -0.5558182
0.21339597 -0.05503624 0.096083365 0.37423405 0.092115015 -0.1366365 0.09406708 -0.00762961
-0.055196602 0.12017616 0.16367762 -0.48856294 -0.039831206 0.31069544 0.048670918 0.0014738098
-0.06371458 0.2800939 0.30571195 -0.10551544 -0.19499911 -0.19295801 -0.53077304 -0.18557699
0.008315212 -0.13059944 -0.22516221 -0.092655435 -0.47582144 -0.026779737 -0.21358623 0.1018192
0.12479437 -0.15430415 -0.25474298 -0.12042849 0.025602143 0.37260908 -0.42016318 0.3018338
0.10307855 0.2319429 -0.08059495 -0.53394556 0.15796639 0.13480376 -0.5833325 -0.14605422
0.23466967 -0.1517713 0.30970278 -0.40173006 -0.011573965 -0.50086164 0.11741085 -0.18220599
0.38895392 0.19929951 0.22108313 0.09375854 -0.06874594 -0.13652799 -0.36452648 0.15725066
0.18706696 0.10740746 -0.185048 -0.05771899 -0.2644468 -0.028036503 -0.051268566 -0.10581755
0.11306371 0.061206996 0.6390415 -0.27431476 0.1799808 0.16356678 0.14603081 0.22771275
-0.2046307 -0.48500293 0.36804545 0.14165685 0.06794992 -0.2951777 0.11374237 -0.094439805
0.21005061 -0.08788513 -0.34785023 -0.25508067 0.18215148 -0.14851749 -0.20641932 0.10009416
-0.22696449 0.45220283 -0.1389701 0.01305328 -0.19696134 0.13270828 0.44644836 -0.35193813
-0.1808835 -0.10673054 0.21586123 -0.017493393 0.17482477 -0.0088700475 -0.0371037 0.28962198
0.105633184 -0.13886045 -0.25860268 -0.060334567 0.11865904 -0.21133533 -0.30139533 0.25316453
-0.08637238 0.44918522 0.30290154 0.3263591 -0.2613365 0.23860596 -0.024340233 0.11717701
-0.081065886 -0.11773897 -0.20196971 0.019012773 -0.06480907 0.20537673 -0.017433496 0.058115937
-0.4064762 0.26124823 -0.20599139 0.1210961 0.078409724 -0.04057141 -0.018108774 0.26825744
-0.097469404 -0.30130303 -0.22656274 -0.14302073 0.2509809 0.19165468 -0.0021530169 0.024196977
0.20039712 -0.28125942 0.052549478 -0.03492115 0.098493196 -0.18196605 -0.08791187 0.11859875
0.16047175 0.062234405 0.12289348 0.034253433 0.32314223 0.0107221 0.04369011 0.3504041
-0.1308861 0.0120685985 0.104248635 0.10169737 -0.06124428 0.15869923 -0.104864135 0.12083073
-0.043294508 -0.010488035 0.17681023 -0.1583742 0.05348071 0.044042785 -0.13826232 -0.05737825
0.00735465 0.20735176 -0.012085392 0.21912584 0.08225207 0.12733288 -0.041876387 -0.05853314
0.041031394 -0.08646506 -0.002926768 -0.014686797 -0.02273721 -0.0496702 0.020395385 0.28159323
0.08247832 -0.292227 -0.013166774 0.010119116 -0.38237816 0.002114739 0.07862871 -0.0008891884
0.05839956 -0.078645006 -0.24990161 0.09510157 -0.17969894 0.22134432 0.1225594 0.34691778
0.13298443 0.13404538 0.10208728 -0.10492651 -0.31813493 0.2343299 0.48240685 0.221817
-0.14935188 0.10922619 0.29056126 -0.0015539781 -0.08284515 0.04025828 -0.091884226 -0.055937342

reward_backbone.2.bias f4 [128]
00000000: ec4f 363e 6f8a c2bd 6e27 08be 0779 d4bb
00000010: 8721 99bd eaa3 b23d 05df c8bd 2b38 c5bd
00000020: 4040 af3d 474c c9bd aeb3 ad3d c9a2 ae3d
00000030: 02be cfbd f49a e23d 6c47 f7bd f7c7 b7bd
00000040: 2006 cd3d 4489 dabd 245b bcbd be9f c03d
00000050: 179e bdbd 2a22 cc3d 01d3 bbbd 8340 93bd
00000060: d3f7 fcbd 2fb2 ac3d 2fcf ac3d 643f c53d
00000070: 68f4 febd 023e b2bd 273c abbb 9d3d e43d
00000080: a59b a33d 783a fb3d 071a 11be 515f bd3d
00000090: 6092 cbbd 7047 e83c 8d64 0a3e 73c3 973d
000000a0: 4141 a2bd 6dd5 bfbd a7de c7bd da0f 01be
000000b0: 5451 ab3d 8419 e1bd af18 a2bd 31c3 9c3d
000000c0: 0865 c1bd 7120 e33b a044 c5bd b9a0 dc3d
000000d0: db9c bc3d 141e e53d 3333 e63d c281 fcbd
000000e0: 6276 c23d 8504 a03d b2a6 e2bd d80b c63d
000000f0: 82a6 02be 4cd6 f4bd d780 ca3d 8f35 8dbd
00000100: 86eb bfbd f10f a93d 3ce4 aa3d 4716 0e3e
00000110: 954b 9d3d 7dbd d53d 4160 cfbd 599c b93d
00000120: 458d c93d 8d02 d03d 5385 67bc 0fba cc3d
00000130: c309 bf3d 09da d03d d5b8 d0bd 3a08 c03d
00000140: f3ed db3d 070c adbd 1421 a73d c723 21be
00000150: 1ad7 b4bd e022 e03d 00db d33d c0ee 0abe
00000160: c0b0 ae3d 1b4e 21bd f211 dbbd d57c b6bd
00000170: 9660 c0bd b956 8a3d 20e6 e8bb 99a1 c6bd
00000180: ed65 903d 45fd cabd b12b b2bd 54a2 97bd
00000190: 41d3 ba3d 3254 09be 3ae7 a83d 29e5 cabd
000001a0: 324d 1bbe b488 183e 530a aabd 1848 d73d
000001b0: 4c24 98bd 5ce7 c93d ac9b e1bd 8620 b0bd
000001c0: a9e7 95bd 7c42 c03d 8521 5c3d c860 b8bd
000001d0: d24c bebd ded1 17bb a82b fbbd 8c58 c9bd
000001e0: 474f b53d 46a8 afbd 952b d13d da11 9cbd
000001f0: ad2b b3bd 498f b13d 421c 22be 965d 1a3e
0.17803925 -0.0949906 -0.13296291 -0.006484154 -0.07477098 0.087226704 -0.098081626 -0.09629854
0.085571766 -0.09829002 0.08481537 0.085271426 -0.10143663 0.11064711 -0.120741695 -0.08973687
0.10010934 -0.106707126 -0.09197071 0.094054684 -0.09258669 0.09967454 -0.09171105 -0.07190039
-0.12351956 0.08432423 0.08437955 0.096312314 -0.124489605 -0.08703233 -0.0052256766 0.11144564
0.07988671 0.122670114 -0.14170085 0.09246696 -0.09940028 0.028354377 0.1351492 0.07410326
-0.079226024 -0.093668796 -0.097592644 -0.12603703 0.083651215 -0.10991195 -0.07914864 0.07654417
-0.09443098 0.0069313576 -0.0963223 0.10772843 0.09209605 0.111873776 0.11240234 -0.12329437
0.09495236 0.07813362 -0.11066951 0.09670228 -0.1275883 -0.119549364 0.098878555 -0.06894981
-0.093710944 0.08254994 0.083443135 0.13875686 0.07680432 0.10436533 -0.10125781 0.09063024
0.09841398 0.101567365 -0.014130908 0.09996425 0.09328034 0.10197837 -0.10191504 0.09376569
0.107387446 -0.0844956 0.08160606 -0.15736304 -0.0883009 0.10944152 0.10344505 -0.13567638
0.08529806 -0.039381128 -0.10696782 -0.089105286 -0.09393422 0.06754822 -0.007107511 -0.09698791
0.07050691 -0.099115886 -0.0869974 -0.074040085 0.09122325 -0.13411024 0.08247228 -0.0990699
-0.15166166 0.14895898 -0.083027504 0.10511798 -0.07428798 0.098585814 -0.1101602 -0.08599953
-0.07319576 0.09387681 0.053742904 -0.090028346 -0.09291996 -0.0023165862 -0.12264186 -0.09831342
0.088530116 -0.085770175 0.10213391 -0.076205924 -0.08748565 0.086699076 -0.15831092 0.15074763

cost_backbone.0.weight f4 [128, 22]
00000000: e11b 153d 6b74 0c3e 2edd e6bd 9fc2 573f
00000010: 641b 4a3e fca4 6b3d 755e b33c 21e3 a1bd
00000020: b915 17be 42d5 97bd 36e1 8ebe 4ef2 783d
00000030: 7a2a 14be 1a89 7c3d d59f 87bd bfe3 0dbe
00000040: acb4 213d a772 b9bc 2be6 0f3d 57a8 e13b
00000050: 8b7e b33d af82 b1bb 036b c93e 68ab ba3d
00000060: 651b 313e 5a4b 3a3e 7a9e 963d ce1f 1abd
00000070: 8215 663d 771d 893e 9d0a 12bd 9699 da3d
00000080: aa67 8dbe f0bd eebd c4e7 b93d 8438 2fbe
00000090: badb 2fbd e78e 403d 311c b63c 5b08 903c
000000a0: 980e c83d bf38 34bd 9eb1 423e 1e29 183e
000000b0: 01fd 3e3e d409 2abd a178 c23b 0be9 26bf
000000c0: 5261 5dbb 0ae5 03bd 47e2 133d 80a6 38be
000000d0: 1ec6 7dbd 335c 7b3d 1bca 17be 4f20 adbc
000000e0: f93e c6bc 6593 7f3e 5aa8 ed3a 2003 d83d
000000f0: bca7 dc3a 7674 f23c 9c4a 713d f8e2 92bd
00000100: 0764 7d3d 7e5a 5b3e 4140 903e 32de cabe
00000110: 04a9 bcbe 00c6 9abe c558 a43e 752f 46be
00000120: d0af c2be 7355 36bd b682 9bbe e123 3fbf
00000130: 6210 ba3e 8718 013e 55bb e83d 0fd0 c63d
00000140: 3e1d a5bd 0f7a afbe be08 9bbc a688 863d
00000150: 06d7 a6bd efe8 193e ac8a 903d 04fc 333e
00000160: f5e9 21be 48bc fabd 8a26 64be 0565 42bf
00000170: be1c 87bc ed8a 9fbe 2a96 3c3d 7e56 75be
00000180: bcb8 cebe f61c 8abc 2971 193d 5ea1 42be
00000190: 03ef a83d 4625 613e a174 653d c8f1 4f3d
000001a0: 5540 0d3e bee5 123e 2567 273e 8ee1 843d
000001b0: 4411 85bd bd42 163d 3c56 2fbe 3995 53be
000001c0: bfea de3e 7b1c d63e 9116 10bd ce6a 1cbd
000001d0: 221d f9bd 5512 993e 3612 f1bd c02b 5bbe
000001e0: 80e9 1fbd 9dbb 73be 5dbd 9cbe 5378 f43d
000001f0: fdba fcbc 3fba e0bd 5e77 023d 192a fa3d
00000200: 1568 023e 7df3 2f3e d534 94bd 3721 cf3d
00000210: 527a c1be bd66 a2be 6afb 16bf bf30 12be
00000220: 812c 5b3d 7010 91bb aa27 acbd d3db ee3c
00000230: b383 09be 12ce 5cbe eb10 c8bc 479a c63c
00000240: 24ea cb3d 123b 173e fc71 433e 7bbf 843d
00000250: 747e 3cbd bf4a a33c e3d1 dcbd a740 d8bd
00000260: 7731 903d f710 24be 57f7 0f3f be0f f0be
00000270: 9f76 c9be b4db 21be 2969 1fbd 7958 ee3b
00000280: 404d f9bc 5d80 c6bd 3276 fe3d 1a8b 1f3e
00000290: d04b bbbc 5b73 83be 3c05 123e 3975 073e
000002a0: 93bb 473d 1ddd c4bd 9289 a53d 9e26 5e3c
000002b0: de10 9b3c 2fc6 d03d c25a 6abd e147 94be
000002c0: 9734 c83d 2fc8 53be c895 003e 5aa4 cebe
000002d0: 5e69 2d3e 7eac 07be e095 b7bd fa52 9fbc
000002e0: 329f 24bc 3965 773e c3fa df3d 4649 7c3e
000002f0: 0961 293d 1d74 bd3d 3169 adbd 4660 d13b
00000300: fda7 233e 23f6 d7bc 22b5 063e 3241 403e
00000310: 1610 aabd 2c42 92bd 98df a7be fbdc 05bf
00000320: 16aa 69be 624f 143f 888f 4fbe b8fd b5be
00000330: 024e c6be b2f5 2ebc 93ab 36be 4206 b2bc
00000340: 23a0 613d ecc3 2ebe 9e34 31be 04cd 3f3d
00000350: 8071 c9bc fc8d e8bd 9845 5b3c a79e b9bd
00000360: 4a12 e23d cf8e 133e 574c d6bc fe73 00be
00000370: 0760 25be 1568 b6be 8729 8f3c 34b1 85bd
00000380: 5939 c8be 372f 6fbe 058f f23a f481 993d
00000390: 7d19 8c3d 96fd 82bd 7ae4 36be 022c cd3d
000003a0: 449b 2cbb 88dd 4bbe 9133 1dbe 0147 513d
000003b0: 62c8 4b3d 210c ac3e 4f82 503e fa24 5cbd
000003c0: 9014 0a3d ac7c 3bbb eef6 01be def8 febd
000003d0: e4ca 073f 8f26 e4be a480 dd3d d28b 313e
000003e0: acd9 1b3d 44f7 a93c 8739 1f3d 8f27 373d
000003f0: 6c96 9abc b9dd 2abe a465 99bd 33b8 053e
0.03640354 0.13716285 -0.112726554 0.84281343 0.19737011 0.05753039 0.021895627 -0.079046495
-0.1475438 -0.074137226 -0.27906197 0.060777955 -0.14469329 0.061654188 -0.066222824 -0.1385641
0.039478943 -0.022637678 0.035131615 0.0068865228 0.087643705 -0.00541719 0.39339456 0.091147244
0.17295606 0.18192807 0.07354446 -0.037627988 0.056172855 0.26780292 -0.035654653 0.106738254
-0.27618152 -0.116573215 0.09077409 -0.17111403 -0.042934157 0.047011282 0.02223024 0.01758211
0.097684085 -0.04399943 0.19013068 0.14859435 0.18651201 -0.04151328 0.0059347902 -0.65199345
-0.0033779931 -0.03220085 0.036104467 -0.18032265 -0.061956517 0.061367225 -0.14823191 -0.02113357
-0.02419995 0.2495857 0.0018131838 0.10547471 0.0016834657 0.029596549 0.058909044 -0.07172197
0.06186297 0.21421239 0.28174022 -0.39622647 -0.368477 -0.30229187 0.32098976 -0.19354041
-0.3802476 -0.044515084 -0.30373162 -0.7466412 0.36340624 0.12607013 0.11363856 0.09707653
-0.08062218 -0.3427281 -0.018925067 0.06569032 -0.08146481 0.15030263 0.070576996 0.17576605
-0.15811904 -0.12242943 -0.22280326 -0.75935394 -0.016493198 -0.3116068 0.046041645 -0.23958775
-0.40375316 -0.016859513 0.037461434 -0.19006869 0.08248713 0.21986875 0.05601943 0.05076769
0.13794072 0.14345452 0.1634794 0.06488334 -0.06497434 0.03668474 -0.1712274 -0.20662393
0.43538472 0.41818604 -0.03517777 -0.038187794 -0.1216376 0.298968 -0.117710516 -0.21403408
-0.039041042 -0.23802038 -0.30613223 0.119370125 -0.030850882 -0.109730236 0.03185212 0.12215061
0.12735017 0.17182727 -0.072366394 0.10113757 -0.37788635 -0.31719008 -0.5897738 -0.14276408
0.05350924 -0.0044270083 -0.08406003 0.029157555 -0.13429146 -0.21562985 -0.02442213 0.024243487
0.09956768 0.14768627 0.1908645 0.064818345 -0.046019033 0.019933103 -0.1078222 -0.105592065
0.07040685 -0.16022097 0.56236786 -0.4688701 -0.39348313 -0.15806466 -0.038918648 0.0072737304
-0.030432343 -0.09692452 0.12424888 0.15580407 -0.022863299 -0.25673947 0.1425981 0.1322831
0.04876287 -0.096124865 0.0808288 0.013559012 0.018928941 0.101940505 -0.05721546 -0.2896109
0.09775656 -0.20681833 0.12557137 -0.40359765 0.16934726 -0.13249394 -0.08964133 -0.019448746
-0.010047721 0.24159707 0.10936501 0.24637327 0.041352306 0.092506625 -0.08467329 0.0063896505
0.15982051 -0.026362484 0.13155034 0.1877487 -0.083038494 -0.071415275 -0.32787776 -0.52290314
-0.22818789 0.5793363 -0.20269597 -0.35545135 -0.3873139 -0.0106786955 -0.17838888 -0.0217315
0.05508436 -0.17066926 -0.17305228 0.046826378 -0.024590254 -0.11355206 0.013383292 -0.09063464
0.110386446 0.14409946 -0.026159449 -0.12544248 -0.16149913 -0.35626283 0.017475856 -0.065279394
-0.39106253 -0.23357855 0.0018505758 0.0749549 0.06840799 -0.06396024 -0.17860594 0.100181594
-0.0026337663 -0.19908726 -0.15351702 0.051093105 0.049751647 0.33603004 0.20362209 -0.0537462
0.033711016 -0.0028608246 -0.12691852 -0.124498114 0.5304396 -0.44560668 0.10815552 0.17338493
0.038049385 0.020747788 0.03887322 0.04471546 -0.018870555 -0.16686143 -0.074900895 0.13058548

cost_backbone.0.bias f4 [128]
00000000: 63bc 93bd b20e c2bc 4748 953c fd10 d9be
00000010: de1d 1a3e bd3a 34be 58d1 f83d 595a 8f3e
00000020: dff6 623b d2b9 2fbe 6f0e ea3d 33d4 38bd
00000030: 6bcb 4ebe 9485 11bc 67c8 23bd 9649 843e
00000040: 0087 f7bc bc82 88bc 6e9e 82bc 3418 863e
00000050: 2e44 c3be c582 003e 58a5 a8ba bf9b 79bd
00000060: 6104 783e e87c 69bd 59c5 18bd c0a6 21be
00000070: e127 1cbe 58c4 78bd 68a2 423d 3334 1e3e
00000080: 5857 e23d 3c10 fbbd ef48 443c cace 5d3e
00000090: 1c55 393d 2ea5 9dbd bf7f 5a3d ceee 34bd
000000a0: 8bfa 66bd ef39 94be ef45 1f3c f8f2 2abc
000000b0: 3f2d 0d3e 9f5c cbbd 1faf 80be 39d8 f73c
000000c0: af6b abbc bc08 8e3e 355d ff3b 1868 093d
000000d0: 8ee7 2c3e 8ddd e8bc b4ce 1c3e 96b5 15be
000000e0: 6c34 e7bc 2fbe 1b3e 5965 8e3c 9dee 99bc
000000f0: e772 86be 083d 853e 9044 6abd 892a 003d
00000100: 3b9f 1dbe f433 8d3d 53e5 8cbd aa93 023c
00000110: 3d79 df3d 5f33 2c3d c87e c5bd b48a 323d
00000120: 3364 843e ca74 f0bd df5b cfbe 6fe5 e03c
00000130: fdd0 063c 09e2 603d db19 403e 3c7c e93c
00000140: df19 203b 5bc8 babe 0186 8e3d a69b afbc
00000150: 8aa7 69bd 83ca 1ebc 97d1 39bd b390 793e
00000160: b705 49be 3252 613e c12d eb3d a853 c63d
00000170: eb3d 21be 428b a83a d1ae 5c3d 9731 45be
00000180: 9392 7ebe 3537 a9bb 0634 703e 7a1c 9d3e
00000190: c72a 663e 3a3f c5bb 3a9d fabc ce0f 2f3e
000001a0: 1b07 3ebe 799a 3cbd 3e3b 423e bb78 e43b
000001b0: 040b a23d c952 823e 9869 0e3e fe03 803d
000001c0: 72dd 68bc 949f 843c 8388 d6bd 247b 873d
000001d0: 797d 8e3e bc10 91be b424 c63e 117a e1bd
000001e0: c07f 3ebe 3b51 f6bc 5ae4 b13e 4964 c1bc
000001f0: 316b eab9 5b08 1ebd 7d58 503e 6400 88bd
-0.07213666 -0.023688648 0.018222941 -0.42395774 0.15050456 -0.17600532 0.12149304 0.27998617
0.003463201 -0.17160729 0.11428534 -0.045124244 -0.20194785 -0.008881945 -0.03998604 0.25837392
-0.03021574 -0.016663902 -0.015944686 0.2619034 -0.38137954 0.12549885 -0.0012866659 -0.060939547
0.2422042 -0.057003886 -0.03729758 -0.15786266 -0.15249588 -0.060734123 0.047518164 0.154496
0.11051816 -0.12258956 0.011980279 0.21660915 0.045247182 -0.07697521 0.053344484 -0.044173054
-0.05639128 -0.2895045 0.009721263 -0.010433905 0.13786791 -0.099297754 -0.25133607 0.03025447
-0.020925371 0.2774104 0.0077930936 0.033546537 0.16885206 -0.028425956 0.15313226 -0.14620051
-0.028223239 0.15209268 0.01738231 -0.018790537 -0.2625954 0.26023126 -0.057194293 0.031290565
-0.15392773 0.06894675 -0.068796776 0.007969776 0.10911796 0.04204118 -0.09643322 0.04358931
0.25857696 -0.11741026 -0.4049978 0.027453152 0.008228538 0.054903064 0.18759863 0.028501622
0.0024429483 -0.36480984 0.06959153 -0.021436524 -0.057044543 -0.009691837 -0.045365896 0.24371605
-0.19631086 0.22004011 0.11483336 0.09683925 -0.15746276 0.0012858885 0.053877655 -0.19257198
-0.24860601 -0.005164052 0.23457345 0.30685788 0.22477256 -0.0060195 -0.03059255 0.17095873
-0.18557398 -0.046045754 0.18967912 0.0069724 0.07912257 0.25453785 0.13907468 0.062507614
-0.014212953 0.016189374 -0.10475256 0.06615284 0.27830103 -0.2833308 0.38699877 -0.110096104
-0.1860342 -0.03006803 0.3474453 -0.02360739 -0.00044711822 -0.038582187 0.20346256 -0.066406995
