outputs/E1_penalty_fixedlambda_sweep/penalty_seed0_EB0.10_LB0.05_lamE2.0_lamL1.0/best_fsr.pt (torch, 981665 bytes, 68 tensors)

actor_backbone.0.weight f4 [128, 22]
0	0xbe3e07a9	-0.1855761
1	0x3d82907c	0.063752145
2	0x3e9ba484	0.30398953
3	0x3d9afa08	0.07567221
4	0xbde32833	-0.11091652
5	0xbd6d90ca	-0.05799941
6	0xbd5df727	-0.05419078
7	0x3c1fd3a4	0.009755049
8	0xbe06dea9	-0.13170876
9	0x3e0e74aa	0.13911691
10	0xbccd75bd	-0.025080556
11	0xbe5a3c86	-0.2131215
12	0x3cdd57ea	0.02701946
13	0x3dfc7fbd	0.12329052
14	0xbe1414f1	-0.14461114
15	0x3d7f5eee	0.06234639
16	0xbd258feb	-0.040420454
17	0xbd27907a	-0.040909268
18	0x3e72750e	0.23677465
19	0x3d998769	0.074965306
20	0x3e558afa	0.20853797
21	0xbe80f7fd	-0.251892
22	0xbd71fe8e	-0.059080653
23	0x3e2fab8b	0.17155282
24	0xbe4d625f	-0.20057057
25	0xbe0f22e3	-0.13978152
26	0xbe06f59e	-0.13179633
27	0x3d95e048	0.07318169
28	0x3d28ca0a	0.041208304
29	0xbdd3d29f	-0.10342907
30	0x3e5b54d8	0.21419084
31	0x3da6f4cf	0.08152162
32	0x3e7317e0	0.23739576
33	0xbca4c0d1	-0.020111473
34	0xbe4b99f6	-0.1988295
35	0x3b8bcb3d	0.0042661713
36	0x3d864ac2	0.06557228
37	0x3e024265	0.1272064
38	0xbc15382a	-0.009107629
39	0x3c00ea5d	0.007868377
40	0xbce55458	-0.02799432
41	0xbe0b6f4b	-0.13616674
42	0x3c258175	0.010101666
43	0x3e15a279	0.1461276
44	0xbdb379ce	-0.08763467
45	0xbca3c9f7	-0.019993765
46	0xbde121ec	-0.10992798
47	0x3cfa7d56	0.030577343
48	0xbd886e08	-0.06661612
49	0xbca4fb1d	-0.020139271
50	0xbd88c47c	-0.066781014
51	0x3ccf906e	0.025337424
52	0x3d880e07	0.066433005
53	0xbd0e596f	-0.03475326
54	0xbdd086b2	-0.10181941
55	0x3d1b1650	0.037863076
56	0x3d83a1c8	0.06427342
57	0x3d438f90	0.047744334
58	0x3e6aa67a	0.22915068
59	0xbd0a4915	-0.033761103
60	0xbe703ca2	-0.2346063
61	0x3d3a620a	0.045503654
62	0xbdca4759	-0.0987689
63	0xbc08ecc8	-0.008357234
64	0x3ed2f0a8	0.4119923
65	0xbd9d7483	-0.076882385
66	0xbe22c592	-0.1589568
67	0x3e93709f	0.2879686
68	0xbd2be045	-0.041961927
69	0xbdee4b6d	-0.1163548
70	0xbcd19e10	-0.025588065
71	0xbd9c1431	-0.07621039
72	0xbc0f9c32	-0.008765267
73	0x3db10875	0.08644191
74	0xbe303bcb	-0.17210309
75	0x3dcf5a46	0.1012464
76	0xbd0646cb	-0.032782357
77	0xbe30eb16	-0.17277178
78	0xbcc8db90	-0.024518758
79	0x3e573b78	0.2101878
80	0xbcdd3c64	-0.027006336
81	0xbd9e5663	-0.07731321
82	0x3dbe943c	0.09305617
83	0x3bcb2c0b	0.0062003187
84	0x3d9c56bd	0.076337315
85	0x3e2b9bd4	0.16758662
86	0xbdf3c2f1	-0.119024165
87	0x3ce8cb3a	0.028417218
88	0xbecdc772	-0.40191227
89	0x3d981fe9	0.074279614
90	0x3ea1859c	0.31547248
91	0xbe203dbc	-0.1564855
92	0x3db7cab2	0.08974208
93	0xbccf9831	-0.025341125
94	0xbe380574	-0.1797083
95	0x3dc515c6	0.096232936
96	0x3d231a0e	0.03981977
97	0x3e023bab	0.12718074
98	0xbddbed05	-0.10738567
99	0xbc9fc774	-0.019504286
100	0xbda024da	-0.07819529
101	0x3d0c4b8d	0.03425174
102	0x3e190b7e	0.1494579
103	0xbd731bc6	-0.05935266
104	0x3cef79b6	0.029232841
105	0x3d52f917	0.05150708
106	0x3c84a0cc	0.016189955
107	0xbe01a717	-0.12661396
108	0xbd21d456	-0.03950914
109	0xbde2b102	-0.11068918
110	0xbc57d7fa	-0.013174051
111	0xbe864415	-0.26223817
112	0x3df23b4b	0.118277155
113	0x3dcbfc68	0.09960252
114	0x3db7b055	0.089691795
115	0xbc291326	-0.010319507
116	0xbe037d08	-0.12840664
117	0xbdb1e5e1	-0.08686424
118	0xbd8912f4	-0.06693068
119	0xbd847957	-0.06468456
120	0x3e238157	0.15967308
121	0xbdc633a6	-0.0967782
122	0xbcb27438	-0.021783933
123	0x3e1ea8ce	0.15494081
124	0xbe621288	-0.22077382
125	0xbd260b99	-0.040538404
126	0xbe354fee	-0.17706272
127	0xbdcfc76b	-0.10145458
128	0xbed854e2	-0.4225226
129	0x3d843331	0.064550765
130	0x3dc35964	0.09538534
131	0x3deaab3c	0.114584416
132	0xbda85fdb	-0.08221408
133	0xbe1720d4	-0.14758617
134	0xbded762a	-0.11594804
135	0x3d39935f	0.04530656
136	0xbe1d1b7e	-0.15342519
137	0xbe610621	-0.21974994
138	0x3caf406b	0.021393022
139	0xbdcae954	-0.09907785
140	0x3dbe8793	0.093032025
141	0xbd9ae5ce	-0.07563363
142	0xbdfcfaa2	-0.12352492
143	0x3e296a78	0.16544521
144	0xbbbe3a0a	-0.0058052586
145	0xbe56f435	-0.20991595
146	0xbc9c019c	-0.019043736
147	0x3e1f827c	0.1557712
148	0x3e85695b	0.26056942
149	0xbcf8a9d6	-0.030354422
150	0xbdce89cd	-0.10084877
151	0x3bdfe0ea	0.006832232
152	0x3e2ebe53	0.1706479
153	0xbe570788	-0.20998967
154	0x3e73c19b	0.23804323
155	0xbeaccd83	-0.33750543
156	0xbcb0b615	-0.021571198
157	0x3e21886a	0.15774694
158	0xbc405b04	-0.01174045
159	0xbd2378d1	-0.03991014
160	0xbd8129ec	-0.06306824
161	0xbdb87489	-0.09006602
162	0xbb7ff8e0	-0.0039058253
163	0x3d931d39	0.07183308
164	0xbe491dbd	-0.1964025
165	0xbe664de0	-0.22490644
166	0x3d6e0808	0.058113128
167	0xbd95062d	-0.072765686
168	0x3e4517e3	0.19247393
169	0xbbfba62e	-0.0076797223
170	0xbd832f27	-0.06405478
171	0x3e024cbe	0.12724587
172	0x3c5fec84	0.01366723
173	0x3e2a683b	0.16641323
174	0x3e18b7d4	0.14913875
175	0x3d22afe9	0.039718542
176	0x3f1ca930	0.6119566
177	0xbd7eb8de	-0.06218802
178	0x3d9dc74e	0.0770403
179	0xbd6a3e34	-0.057188228
180	0xbe19f5cb	-0.15035169
181	0x3e0461e5	0.12927969
182	0xbe260dad	-0.16216154
183	0x3e01f79e	0.12692115
184	0xbc41f62c	-0.011838477
185	0xbdb3ea68	-0.08784944
186	0x3d630143	0.055421125
187	0xbc2e41af	-0.010635777
188	0xbd5123a1	-0.05105937
189	0xbc1fc8a4	-0.009752426
190	0xbd293e38	-0.041319102
191	0xbcb01571	-0.021494599
192	0xbd0355c5	-0.032064218
193	0x3d8d6d94	0.06905666
194	0x3d0d5e30	0.034513652
195	0x3d5fe761	0.05466402
196	0x3db1709b	0.08664056
197	0x3e9e379d	0.30901805
198	0xbe70de3d	-0.23522277
199	0xbe6153a7	-0.22004567
200	0x3e2e1d3e	0.17003343
201	0x3de994d4	0.1140534
202	0x3dd46bc9	0.10372121
203	0xbd9e0289	-0.07715327
204	0xbca267ac	-0.019824825
205	0x3c49fd2a	0.012328425
206	0x3d577787	0.052604225
207	0xbe9b2785	-0.30303589
208	0x3db51092	0.08841051
209	0x3e01f132	0.12689665
210	0x3a4e55c3	0.0007871056
211	0x3d41dd8f	0.047330435
212	0xbe2b6ee2	-0.16741517
213	0xbc7336ea	-0.0148446355
214	0xbd051b05	-0.03249647
215	0xbd38f3ae	-0.045154266
216	0xbe088346	-0.13331327
217	0x3d922f9a	0.071379855
218	0x3e810d0e	0.25205272
219	0xbdb48314	-0.08814064
220	0x3eb00ce9	0.3438485
221	0xbe03ad0a	-0.12858978
222	0xbd932b2d	-0.071859695
223	0x3d95f78c	0.073226064
224	0x3bb24926	0.005440849
225	0xbe0d63c1	-0.13807584
226	0xbd43e36c	-0.04782431
227	0x3dcd18a9	0.10014469
228	0xbdea2ca0	-0.11434293
229	0x3caa3b5b	0.020780256
230	0x3e0069a9	0.12540306
231	0xbd541381	-0.051776413
232	0x3c2b231d	0.010445383
233	0xbdd23ce7	-0.102655225
234	0xbbbc95c9	-0.0057551605
235	0xbcb3e23c	-0.021958463
236	0xbbafb87d	-0.005362569
237	0xbdaa5f48	-0.08318955
238	0x3e5cc6c3	0.21560197
239	0xbc50c46a	-0.012742141
240	0x3d66f4f5	0.056385953
241	0x3e0a73c9	0.13520731
242	0xbe2991e1	-0.16559555
243	0x3ec1770a	0.37786132
244	0xbcc24e23	-0.0237189
245	0xbdc4a038	-0.09600872
246	0xbe17569f	-0.14779137
247	0x3dbff9e1	0.093738325
248	0xbdb21a6d	-0.086964466
249	0xbe32c41f	-0.17457627
250	0xbd7397ed	-0.05947106
251	0xbd996c68	-0.0749138
252	0x3dc8e19f	0.09808659
253	0xbc48493b	-0.012224491
254	0xbca91025	-0.020637581
255	0xbcf4d497	-0.029886527

actor_backbone.0.bias f4 [128]
0	0x3d8dd205	0.06924824
1	0xbeb51d94	-0.3537413
2	0xbe6f9635	-0.23397143
3	0xbe030149	-0.12793459
4	0x3e90cb8e	0.282803
5	0xbdfcd4f9	-0.12345309
6	0xbdc30a83	-0.09523489
7	0x3e0236df	0.12716244
8	0xbe9d3e79	-0.30711725
9	0xbe6ae20e	-0.22937796
10	0xbe9fba78	-0.31196952
11	0xbdcdb54b	-0.100443445
12	0x3e51b605	0.20479591
13	0x3cb42add	0.021993095
14	0x3bcd9260	0.006273553
15	0xbd34b290	-0.044115603
16	0x3de7871f	0.11305069
17	0x3eb00566	0.3437912
18	0xbd35dc79	-0.044399712
19	0xbe463c20	-0.19358873
20	0xbe46031a	-0.1933712
21	0x3ea9f886	0.3319742
22	0x3dd7cc2a	0.10536988
23	0xbe10ee6c	-0.1415345
24	0x3e9ce27b	0.3064154
25	0x3ead4ea1	0.33849052
26	0x3e318a31	0.17337872
27	0xbea6a63d	-0.32548705
28	0xbeaaadbf	-0.33335683
29	0x3e8f0a76	0.2793767
30	0xbe88fae2	-0.26753908
31	0x3ea819a6	0.32832068
32	0xbe84e381	-0.25954822
33	0xbda4bb9b	-0.080435954
34	0xbe9a59ef	-0.3014674
35	0x3dc5f2e0	0.09665465
36	0xbd8201b7	-0.06347983
37	0xbdff4053	-0.12463441
38	0x3e77b7d1	0.24191214
39	0xbea7f8aa	-0.32806903
40	0x3e90a1e4	0.28248513
41	0x3dcd14c5	0.10013727
42	0xbdc5154a	-0.09623201
43	0xbe1c146a	-0.15242162
44	0x3e2a830c	0.16651553
45	0x3c9b3af0	0.018949002
46	0xbde1dad2	-0.11028065
47	0xbc92b60f	-0.017909078
48	0x3e2c7672	0.16842058
49	0xbe85dafc	-0.26143634
50	0x3e5801c6	0.21094427
51	0x3dd0e420	0.101997614
52	0x3ea6f15b	0.32606015
53	0x3e956b88	0.29183602
54	0x3e893a4d	0.26802292
55	0xbd4f3594	-0.050588205
56	0x3eb0c525	0.3452541
57	0xbe597f68	-0.21240008
58	0x3eb94cee	0.36191505
59	0x3e0f081c	0.13967937
60	0x3de9beb6	0.11413328
61	0xbe40e185	-0.18836029
62	0x3db23f67	0.08703499
63	0xbd182f07	-0.037154224
64	0xbad5d67e	-0.0016314534
65	0x3d12cad0	0.03583795
66	0x3e1b75b5	0.1518162
67	0x3dab1f7c	0.083556145
68	0xbe9febb2	-0.3123451
69	0xbd855f46	-0.065123126
70	0x3e0b3c86	0.13597307
71	0xbd189c4c	-0.03725843
72	0xbdeac74e	-0.114637956
73	0xbd96c3d9	-0.07361574
74	0x3e43c449	0.19117846
75	0x3ebaf976	0.3651845
76	0x3d0157c4	0.03157784
77	0x3eb5e27a	0.3552435
78	0xbe057eec	-0.13036698
79	0x3eba55ac	0.36393487
80	0xbe89e0e8	-0.26929402
81	0xbe2aed66	-0.16692123
82	0x3e907587	0.28214666
83	0xbea54bd1	-0.32284406
84	0xbcddd299	-0.02707796
85	0xbe924379	-0.28567103
86	0xbd1471d4	-0.036241367
87	0x3e02f7b5	0.12789805
88	0x3e850ae1	0.25984862
89	0x3ead3d2f	0.33835742
90	0xbe846a9f	-0.25862595
91	0xbe206bc4	-0.1566611
92	0xbdf40922	-0.119158044
93	0xbd281662	-0.04103697
94	0xbea14bf9	-0.31503275
95	0x3e35cacc	0.17753142
96	0xbcd77748	-0.026301995
97	0x3e914551	0.28373197
98	0x3e2f09b3	0.17093544
99	0xbe16d472	-0.14729479
100	0xbea260d0	-0.31714487
101	0xbeab0a00	-0.33406067
102	0xbe53d37e	-0.20686147
103	0x3de02958	0.10945386
104	0xbcaf3470	-0.021387309
105	0x3e7e5f56	0.24841055
106	0xbe69ff2d	-0.22851248
107	0x3e9832fd	0.297264
108	0xbe9123f7	-0.28347751
109	0xbd8beb50	-0.06831992
110	0x3ebc91ca	0.36829978
111	0x3e30723c	0.17231077
112	0x3ebdad69	0.37046364
113	0x3e4598d2	0.19296578
114	0x3e46b67d	0.19405551
115	0x3e1b66c5	0.15175922
116	0x3e851d31	0.25998834
117	0xbe8672bb	-0.26259407
118	0xbe3091a1	-0.17243053
119	0x3e14432d	0.1447875
120	0x3dd5dff1	0.10443104
121	0x3e50d8af	0.20395158
122	0xbdcf4c72	-0.10122003
123	0x3eaa0367	0.3320572
124	0x3c974461	0.018465223
125	0xbcf93a5d	-0.030423338
126	0x3dbe2496	0.09284322
127	0xbcb0a4ae	-0.0215629

actor_backbone.2.weight f4 [128, 128]
0	0xbdfa46b2	-0.12220515
1	0xbbf7e08d	-0.0075646103
2	0xbd9a2c0b	-0.07527932
3	0x3dd8b8a6	0.10582094
4	0xbdcc9995	-0.09990231
5	0xbb259cce	-0.0025270465
6	0x3d91a1a3	0.07110908
7	0xbe52e93d	-0.20596786
8	0x3d4be4fd	0.049778927
9	0xbca50d2a	-0.020147879
10	0xbe5b0473	-0.21388416
11	0xbc40ae03	-0.011760238
12	0x3d89fd48	0.06737763
13	0x3ce57e91	0.028014453
14	0xbc23a8eb	-0.009989004
15	0xbe84e98b	-0.2595943
16	0x3d838520	0.06421876
17	0x3e0b2742	0.13589194
18	0x3bbca234	0.005756641
19	0x3d0bb332	0.03410644
20	0x3dd7cca4	0.10537079
21	0x3e98f4ed	0.29874364
22	0x3dd2fa19	0.103016086
23	0xbe05ea35	-0.13077624
24	0xbc05230a	-0.00812603
25	0x3cec7311	0.028863462
26	0x3e71a03b	0.2359628
27	0x3d87996e	0.06621061
28	0xbea579e5	-0.3231956
29	0x3e7e632d	0.2484252
30	0xbdad6dc7	-0.08468204
31	0xbc07187b	-0.008245583
32	0x3db88ca7	0.09011202
33	0x3e3625ae	0.17787811
34	0xbd534ec8	-0.051588804
35	0xbe323419	-0.17402686
36	0x3e215b7c	0.15757555
37	0xbc2b67a9	-0.010461726
38	0x3e2ede54	0.17076999
39	0xbe4177ef	-0.18893407
40	0x3e07e25f	0.13269947
41	0x3e230f58	0.15923822
42	0x3df8e7c0	0.12153578
43	0xbdd9c457	-0.10633152
44	0xbd6129c8	-0.054971486
45	0xbe840114	-0.25782073
46	0xbd9f221b	-0.07770177
47	0xbda72cc8	-0.08162838
48	0xbd7c7a81	-0.061640266
49	0x3e658154	0.22412616
50	0x3e0547b6	0.13015637
51	0x3e00f825	0.1259466
52	0x3dcd1f8c	0.10015783
53	0xbe1e247c	-0.15443605
54	0xbd84cd1c	-0.06484434
55	0xbea301a4	-0.3183719
56	0xbdf17854	-0.11790529
57	0xbdc940e7	-0.09826832
58	0x3d3d7f6e	0.046264105
59	0x3daa2621	0.08308054
60	0x3dba21b4	0.090884596
61	0x3c1eb027	0.009685553
62	0xbd2a114d	-0.041520406
63	0x3d1ad051	0.037796322
64	0xbe8805ec	-0.26567018
65	0x3dc29a67	0.09502106
66	0x3d48fcf2	0.049069352
67	0x3ddd8688	0.108166754
68	0xbe1111dc	-0.14166969
69	0xbde00348	-0.10938126
70	0x3de39218	0.111118495
71	0x3dbb9138	0.09158558
72	0x3dd1050b	0.1020604
73	0x3e37f08e	0.17962858
74	0x3e48b32d	0.195996
75	0x3e7aa80c	0.24478167
76	0xbe1026e4	-0.14077336
77	0xbd4357b2	-0.047691055
78	0xbddd09df	-0.107928984
79	0x3d19d1b6	0.03755351
80	0x3d8182f4	0.063238055
81	0xbd3f5bc4	-0.046718374
82	0xbe23e5b9	-0.16005601
83	0x3bdaf4eb	0.0066820285
84	0x3c2a3310	0.010388151
85	0x3dbb1934	0.091356665
86	0x3e13d6fb	0.14437477
87	0xbdea6410	-0.11444867
88	0x3d6141df	0.05499446
89	0x3e816802	0.25274664
90	0x3e07b5ac	0.13252896
91	0x3d96d8b6	0.07365553
92	0x3e767644	0.24068552
93	0xbea59b66	-0.32345122
94	0x3d80b3e9	0.06284315
95	0x3e3ec562	0.18629983
96	0xbecb3346	-0.39687556
97	0xbd8c540c	-0.06851968
98	0xbdeb875b	-0.115004264
99	0xbe8fdfd4	-0.28100455
100	0xbe34272d	-0.1759307
101	0x3e5836d7	0.2111467
102	0xbde02e99	-0.10946388
103	0xbe5ddb8c	-0.21665782
104	0xbcd23b60	-0.025663078
105	0x3da359ef	0.07976138
106	0x3d362f3f	0.04447865
107	0xbe8ee5d8	-0.27909732
108	0x3d2d82a9	0.042360935
109	0xbe233d6b	-0.15941398
110	0x3dfb4ae3	0.12270143
111	0x3c5da00c	0.013526928
112	0x3e1ea85d	0.15493913
113	0x3d93c85f	0.07215952
114	0x3e23725a	0.1596159
115	0xbc8fb28c	-0.017541192
116	0x3e424e89	0.18975271
117	0xbe172bd6	-0.14762816
118	0x3d85654c	0.065134615
119	0x3d9e12fa	0.07718463
120	0xbd6412fc	-0.055682167
121	0x3cfd5021	0.030921998
122	0x3df36e3a	0.118862584
123	0x3de985a4	0.11402443
124	0xbdc6165c	-0.096722335
125	0x3b1cd9ab	0.002393345
126	0x3e91316e	0.28358024
127	0x3e513a24	0.20432335
128	0x3d5e6715	0.054297525
129	0x3d12845f	0.03577077
130	0x3e3fd4fc	0.18733591
131	0xbe546c52	-0.20744446
132	0x3d4871c4	0.04893662
133	0x3e1c471b	0.152615
134	0x3cdc7b9b	0.026914408
135	0xbcf9db6f	-0.030500142
136	0x3e2f5734	0.17123109
137	0x3e09e347	0.13465606
138	0x3b64420f	0.0034829413
139	0x3de15f12	0.11004461
140	0x3ebbf0c8	0.3670714
141	0xbd446c9b	-0.047955137
142	0xbcf452ba	-0.029824603
143	0xbe794983	-0.24344449
144	0xbe0e885b	-0.13919203
145	0x3d83ffee	0.06445299
146	0xbe7c652c	-0.24647969
147	0x3d944061	0.07238842
148	0x3d5b29b7	0.05350658
149	0x3cfa6188	0.030564085
150	0x3d1e13e4	0.038593188
151	0xbe58b786	-0.21163759
152	0xbe26f589	-0.16304602
153	0xbe45cbf6	-0.19316086
154	0xbda9f64b	-0.0829893
155	0x3e01cb2e	0.12675163
156	0xbeac82d2	-0.33693558
157	0x3e1495fb	0.14510338
158	0xbe47a7c8	-0.19497597
159	0x3d6500fd	0.055909146
160	0x3de0dffc	0.10980222
161	0xbd3ef230	-0.046617687
162	0x3cd183dd	0.025575573
163	0xbbd94e86	-0.006631675
164	0xbcd771bc	-0.02629935
165	0xbd7ac278	-0.061220616
166	0xbd94748c	-0.07248792
167	0xbe3be3f2	-0.18348673
168	0xbd29527d	-0.041338433
169	0x3e6cf2c7	0.23139487
170	0x3d66a6ed	0.056311537
171	0xbc85fbfd	-0.016355509
172	0xbe88b43f	-0.26700017
173	0xbd582d45	-0.052777547
174	0x3dc5c506	0.0965672
175	0x3d489a93	0.04897554
176	0xbce3d1fe	-0.027810093
177	0x3de0a51a	0.109689906
178	0x3e3c7203	0.18402867
179	0xbe33fe77	-0.1757754
180	0x3d334688	0.043768436
181	0xbd2b6549	-0.04184464
182	0xbb2b6e8f	-0.0026158427
183	0x3e336518	0.17519033
184	0x3dcc5157	0.09976452
185	0xbe0fa7ea	-0.14028898
186	0xbce4c5b3	-0.027926302
187	0xbe4fb95b	-0.20285551
188	0x3d9e2fa8	0.077239335
189	0x3defc2e0	0.11707091
190	0xbe0daaff	-0.13834761
191	0xbdf7e093	-0.12103381
192	0xbe20ddfc	-0.1570968
193	0xbe3f0154	-0.1865285
194	0xbe08ab48	-0.13346589
195	0xbb211283	-0.0024577684
196	0xbde7abfd	-0.11312101
197	0xbe0ca3bf	-0.13734339
198	0xbe7b7a31	-0.24558331
199	0xbd5fc214	-0.054628447
200	0xbdc40d9d	-0.09572909
201	0x3e284863	0.16433863
202	0xbdd1c89a	-0.1024334
203	0x3e133367	0.14375077
204	0xbddff06f	-0.10934531
205	0xbe5b6b99	-0.21427764
206	0x3e191229	0.14948334
207	0x3d933303	0.07187464
208	0x3e8804a4	0.2656604
209	0xbe102e1a	-0.14080086
210	0xbda1417b	-0.078738175
211	0xbe095b0d	-0.1341364
212	0x3c956028	0.018234327
213	0xbe261b7f	-0.16221426
214	0xbc4959f3	-0.012289512
215	0x3e037355	0.12836964
216	0xbce83a9e	-0.028348263
217	0xbd189ea7	-0.037260678
218	0xbc6a8997	-0.014315031
219	0xbddecda5	-0.10879067
220	0xbcc2a791	-0.023761543
221	0xbe21c96c	-0.15799493
222	0xbab84c75	-0.0014060872
223	0xbe9e27b0	-0.30889654
224	0xbe2dc677	-0.1697024
225	0xbea56f09	-0.32311276
226	0x3e35c73d	0.17751785
227	0x3ce07813	0.027401006
228	0x3d1abe4f	0.03777915
229	0xbe1de233	-0.1541832
230	0x3e9ee862	0.3103667
231	0x3bd1531c	0.0063880812
232	0xbd879452	-0.06620087
233	0xbe4b8eb0	-0.1987865
234	0xbdd07eaf	-0.10180413
235	0xbdaf6cb7	-0.085656576
236	0xbd559a3f	-0.052149054
237	0xbe7c4d73	-0.2463892
238	0x3e1c490d	0.15262242
239	0xbd9f1e24	-0.07769421
240	0x3d065c03	0.032802593
241	0xbc0d2de8	-0.008616902
242	0x3d672148	0.056428224
243	0x3da8c3ac	0.082404464
244	0x3e30d823	0.1726995
245	0x3d97c0f1	0.074098475
246	0xbe749b85	-0.23887451
247	0xbdb1f1e5	-0.08688716
248	0x3c8bb572	0.017054293
249	0x3dbc4a03	0.09193804
250	0x3ec0aae6	0.37630385
251	0xbddcb44c	-0.107765764
252	0x3dfc4945	0.123186626
253	0x3e74080e	0.23831198
254	0xbcef73b7	-0.029229982
255	0x3b99359c	0.00467558

actor_backbone.2.bias f4 [128]
0	0x3e720fd0	0.23638844
1	0xbacf3204	-0.0015807752
2	0x3de6bc9b	0.112664424
3	0x3dad8d45	0.08474211
4	0x3e770ade	0.24125239
5	0xbe8b43fc	-0.27200305
6	0x3d0733f3	0.033008527
7	0x3ea06058	0.31323504
8	0xbccc62bc	-0.024949424
9	0xbe974d33	-0.29551086
10	0x3e30bfda	0.17260686
11	0x3e89f90e	0.26947826
12	0xbb70c88a	-0.0036740624
13	0x3e803536	0.25040597
14	0xbe716673	-0.23574238
15	0xbe0d184b	-0.13778798
16	0x3e9187cc	0.28423917
17	0x3dbaee6b	0.09127506
18	0xbe60f11a	-0.21966973
19	0x3ea071ab	0.31336722
20	0x3de884fb	0.11353489
21	0x3d899b32	0.06719054
22	0x3e91d5e8	0.2848351
23	0x3e4c2af0	0.19938254
24	0x3e9d75c5	0.30753914
25	0x3e39fe4e	0.18163416
26	0xbdd2f8f2	-0.10301389
27	0x3dd67fe6	0.104736134
28	0x3d052bf1	0.03251261
29	0x3d8e9cf0	0.06963527
30	0xbe9f4111	-0.3110433
31	0x3e6043f6	0.21900925
32	0xbdc02a49	-0.09383065
33	0x3e61b248	0.22040665
34	0x3e1a4cf3	0.15068416
35	0x3e640318	0.22266805
36	0x3de93734	0.11387482
37	0xbe8ea1f9	-0.2785795
38	0xbe5f40cf	-0.21802066
39	0xbe4cdad4	-0.20005351
40	0x3e310bca	0.17289653
41	0xbc92eed6	-0.017936151
42	0x3e6421dc	0.22278541
43	0x3e02f025	0.1278692
44	0xbd44dfda	-0.048065044
45	0xbe433f21	-0.1906705
46	0x3d8fec4b	0.07027491
47	0x3e2595e2	0.16170457
48	0x3e51dd0f	0.20494483
49	0x3e3fd951	0.18735243
50	0x3db43a60	0.08800197
51	0x3e913e97	0.28368065
52	0x3e9160f0	0.2839427
53	0x3e89d880	0.2692299
54	0x3e934cd2	0.28769547
55	0x3e987fbc	0.29784954
56	0x3e85ac1f	0.2610788
57	0x3e358f4e	0.17730448
58	0xbbd342eb	-0.006447186
59	0xbe56cd9c	-0.20976871
60	0x3e9fec26	0.31234854
61	0x3dd5b599	0.10435028
62	0xbd6e2703	-0.058142673
63	0xbe9d1bca	-0.30685264
64	0x3dc824f8	0.09772676
65	0x3ddbab86	0.10726075
66	0xbe0917fb	-0.13388054
67	0x3b2389a4	0.0024953866
68	0xbe16ef1d	-0.14739652
69	0x3e9a9e04	0.3019868
70	0x3db99108	0.09060866
71	0x3d93415f	0.07190203
72	0xbeb11be1	-0.34591582
73	0xbe69b1ad	-0.22821684
74	0xbe464bec	-0.193649
75	0xbe8c7a9b	-0.2743729
76	0x3cb3bb4a	0.021939892
77	0xbe825697	-0.25456688
78	0xbd64eb8e	-0.055888705
79	0xbde5492f	-0.11195599
80	0xbe980067	-0.29687807
81	0xbe8f82e1	-0.2802954
82	0xbe81dc7f	-0.25363538
83	0xbe8d95bb	-0.27653298
84	0xbdb98747	-0.09059005
85	0xbe30c463	-0.17262416
86	0xbe76bec1	-0.24096204
87	0xbdf5dd0a	-0.120050505
88	0x3eb8e601	0.3611298
89	0xbe28fea0	-0.16503382
90	0x3dd620ee	0.104554996
91	0x3e8baeaf	0.2728171
92	0x3ddd21c5	0.10797457
93	0xbd75542a	-0.05989472
94	0x3e4dbd74	0.20091802
95	0x3d606bb7	0.054790225
96	0xbe64eee2	-0.22356752
97	0x3e179855	0.14804204
98	0x3e6938f7	0.22775637
99	0x3e020b0e	0.1269953
100	0xbea29b9a	-0.3175934
101	0xbea23309	-0.31679562
102	0x3dbabbcf	0.09117853
103	0xbe8121a9	-0.25220993
104	0xbe871a95	-0.26387468
105	0xbe5a3323	-0.2130857
106	0xbe8f8ccd	-0.2803711
107	0xbe1c6071	-0.15271164
108	0xbe6bbd32	-0.23021391
109	0x3ea94320	0.33059025
110	0x3e98870f	0.29790542
111	0x3e8381ce	0.2568497
112	0xbb2f981e	-0.002679355
113	0x3a3e7f3f	0.0007266886
114	0x3db265be	0.08710812
115	0x3db54bbc	0.08852336
116	0xbd149322	-0.03627313
117	0xbdc1f072	-0.094696894
118	0xbe9e10d2	-0.30872208
119	0xbe732c20	-0.23747301
120	0x3e9615c8	0.29313493
121	0xbe885e9a	-0.26634675
122	0xbe98e7ed	-0.29864445
123	0xbeab9f3e	-0.3351993
124	0x3eaf39de	0.34223837
125	0xbe666fd5	-0.22503598
126	0xbeadd73f	-0.33953282
127	0xbe8cfc68	-0.2753632

reward_backbone.0.weight f4 [128, 22]
0	0x3e56f629	0.2099234
1	0xbd9e9050	-0.07742369
2	0x3dc59293	0.096470974
3	0x3eac99a0	0.33710957
4	0x3cd70bfc	0.026250832
5	0xbe81f3ea	-0.25381404
6	0xbd499754	-0.049216583
7	0x3c534869	0.012895682
8	0x3ddd3c6d	0.10802541
9	0xbe55848b	-0.20851342
10	0xbd5d2501	-0.053990368
11	0x3d0ac5f9	0.033880208
12	0x3ded6bbd	0.11592815
13	0x3d7e6fb8	0.062118262
14	0xbd9afa8c	-0.07567319
15	0x3e005bfe	0.12535092
16	0x3bed5b94	0.007243583
17	0x3a9d7434	0.0012012781
18	0xbbab2b3c	-0.00522366
19	0xbc9d841a	-0.01922803
20	0x3e1ab5c7	0.15108405
21	0x3e06d02d	0.1316535
22	0x3e705d2c	0.23473042
23	0x3caf8867	0.021427346
24	0x3d47b44f	0.04875594
25	0x3db512a9	0.0884145
26	0x3d81dba6	0.06340723
27	0x3de3ddb8	0.11126274
28	0xbd96d5dd	-0.0736501
29	0xbd3f2c4e	-0.04667311
30	0x3dd7392a	0.1050895
31	0xbe127313	-0.1430171
32	0x3b052ff1	0.0020322765
33	0xbe8720f1	-0.2639232
34	0x3e568e7b	0.2095279
35	0xbd5c171d	-0.05373298
36	0xbd821145	-0.0635095
37	0xbdddf976	-0.108385965
38	0x3cac34e6	0.021021318
39	0x3df27d07	0.11840253
40	0xbcbea046	-0.023269784
41	0xbe250e6d	-0.16118784
42	0xbd1a0de1	-0.037610892
43	0x3dbd1f9a	0.09234543
44	0xbb9e369f	-0.0048282887
45	0xbe7ba0fd	-0.24573131
46	0xbe08cd59	-0.13359584
47	0xbe82f4a1	-0.25577262
48	0x3a5350df	0.0008061062
49	0xbde9b807	-0.114120536
50	0xbdc3f7cd	-0.095687486
51	0x3d0eab6f	0.03483146
52	0xbe467bde	-0.19383189
53	0xbd3cf0eb	-0.046128195
54	0xbcd9006f	-0.026489465
55	0xbd442d5b	-0.047894817
56	0x3e52f6f3	0.20602016
57	0xbdd93ff7	-0.106079035
58	0xbd700950	-0.05860263
59	0x3e2ebff2	0.17065409
60	0xbb060ee2	-0.0020455648
61	0xbd3c812c	-0.046021625
62	0xbe5bef3e	-0.21477982
63	0xbe18ab6a	-0.1490914
64	0xb8aa5198	-8.12143e-05
65	0xbe84a246	-0.25905055
66	0x3ddd423a	0.10803647
67	0x3e3a1386	0.1817151
68	0x3e296ae3	0.1654468
69	0xbdd63b17	-0.10460489
70	0x3ca953b5	0.020669797
71	0x3e076bce	0.13224718
72	0xbc57a386	-0.013161546
73	0x3ca55933	0.020184135
74	0xbd97aec8	-0.07406384
75	0x3db1405a	0.08654852
76	0x3c927c89	0.017881649
77	0xbe15a2ef	-0.14612935
78	0x3cc823ae	0.024431076
79	0xbd2e3c44	-0.042537943
80	0x3d1cb45a	0.038257934
81	0x3d071581	0.032979492
82	0x3b1eb7dd	0.0024218478
83	0xbc495acd	-0.012289715
84	0xbd870185	-0.06592087
85	0xbe6c1bb4	-0.23057443
86	0x3d2c67c0	0.04209113
87	0xbc8de516	-0.01732115
88	0x3d9504ad	0.072762825
89	0x3d43eba0	0.04783213
90	0xbe46dc49	-0.1941997
91	0x3d15f9a7	0.03661504
92	0xbd75db7d	-0.060023773
93	0xbd34ace3	-0.04411019
94	0x3dc100ee	0.094240054
95	0x3d8e0b53	0.06935754
96	0xbe95de29	-0.29271057
97	0xbdb834dd	-0.08994458
98	0xbe21c470	-0.15797591
99	0xbe0166ff	-0.12636946
100	0x3c9329dd	0.017964298
101	0x3d4792a9	0.04872385
102	0x3dc3cc78	0.09560484
103	0x3d0de5fe	0.034643166
104	0x3e38d455	0.18049748
105	0xbe540236	-0.20703968
106	0x3e0bb42d	0.1364295
107	0xbe2e3f51	-0.17016341
108	0x3e64413e	0.22290513
109	0xbd8167ef	-0.06318652
110	0x3be995d6	0.0071284575
111	0xbe900108	-0.28125787
112	0x3d87fb2a	0.066397026
113	0x3ea90b5c	0.3301648
114	0xbd8c304a	-0.06845148
115	0xbd8156cd	-0.06315384
116	0x3e17a2e1	0.14808227
117	0x3d5c6ff5	0.053817708
118	0x3d381034	0.044937328
119	0xbd4953d4	-0.04915221
120	0x3d908fec	0.07058701
121	0xbd596703	-0.053076755
122	0xbdb59a57	-0.088673286
123	0x3e346dfd	0.17620082
124	0x3dbb1b32	0.091360465
125	0x3d13469a	0.035956003
126	0x3c7f5ba1	0.015585811
127	0xbc4dc7e8	-0.012559868
128	0x3cdb3786	0.026759874
129	0x3e31e182	0.1737118
130	0x3e099fa7	0.13439809
131	0x3b730b87	0.0037085728
132	0x3d385a2d	0.045007873
133	0x3e15d389	0.14631476
134	0x3e122efc	0.14275736
135	0xbdba7c6e	-0.09105764
136	0xbd13bfc0	-0.03607154
137	0xbe29680f	-0.16543601
138	0xbdc5e103	-0.09662058
139	0xbe292a8b	-0.16520135
140	0x3de57787	0.11204439
141	0x3e5114c4	0.20418078
142	0xbc152b55	-0.009104569
143	0xbd54a9ec	-0.051919863
144	0xbdae2957	-0.08503979
145	0xbe1524f4	-0.14564878
146	0x3cd73952	0.02627245
147	0x3c85718f	0.0162895
148	0xbd8c1f57	-0.06841915
149	0xbc29d7b8	-0.010366373
150	0xbdbde6b8	-0.09272522
151	0x3e1c3d6a	0.15257803
152	0x3d894cb5	0.06704084
153	0xbdf06bff	-0.117393486
154	0xbd806cc0	-0.062707424
155	0x3e85b7b3	0.26116714
156	0xbd507069	-0.050888453
157	0x3b8a64fa	0.004223463
158	0x3d3d9e53	0.046293568
159	0x3dd29a24	0.10283306
160	0xbdc7d7f1	-0.097579844
161	0x3e4a9cbe	0.19786355
162	0x3e1afd24	0.15135628
163	0xbe182017	-0.14855991
164	0x3a28bc08	0.000643671
165	0xbdcbc1e5	-0.09949092
166	0x3e46f3b4	0.19428903
167	0x3d01ec8d	0.031719733
168	0xbda84aad	-0.08217368
169	0xbd961b44	-0.07329419
170	0xbbc42b8f	-0.005986638
171	0xbd773a33	-0.060358237
172	0xbce3e98e	-0.027821328
173	0xbd8ea058	-0.06964177
174	0xbd779f29	-0.06045452
175	0xbe46a46c	-0.1939866
176	0xbe0b1b73	-0.1358469
177	0xbd59b697	-0.053152647
178	0xbe1f369a	-0.15548173
179	0xbe47acab	-0.19499461
180	0x3da22384	0.0791693
181	0xbd8720ef	-0.065980785
182	0x3d6d62fe	0.057955734
183	0xbd08787f	-0.03331804
184	0x3d5f6d52	0.054547615
185	0xbdee5df7	-0.11639016
186	0xbd55cc56	-0.052196823
187	0xbd76e438	-0.06027624
188	0x3e0ff7d9	0.1405939
189	0xbe2f1cb7	-0.17100798
190	0xbe6cd19b	-0.23126833
191	0xbda8505f	-0.082184546
192	0xbcbe3329	-0.023217754
193	0x3da7b16e	0.08188139
194	0x3e30bd1b	0.17259638
195	0xbc65761b	-0.014005209
196	0xbd98761a	-0.07444401
197	0x3e04777f	0.12936209
198	0xb9acec4c	-0.0003298245
199	0xbe6900c9	-0.22754206
200	0xbe6fc158	-0.23413599
201	0x3e5eeec9	0.21770777
202	0x3e0fd527	0.14046155
203	0xbe188b86	-0.14896974
204	0xbd762264	-0.06009139
205	0xbe022721	-0.12710239
206	0xbc621300	-0.013798475
207	0xbdd577e6	-0.104232594
208	0x3d81eb4f	0.0634371
209	0xbd8a97a5	-0.06767205
210	0xbd6c1dc7	-0.057645585
211	0x3c9aee31	0.018912407
212	0x3d26e3d0	0.040744603
213	0xbd0d8e8b	-0.034559768
214	0x3d954e7e	0.07290362
215	0x3de7ee31	0.11324728
216	0xbe8409a6	-0.2578861
217	0xbe0aa322	-0.13538793
218	0xbd9b28cb	-0.0757614
219	0x3da804b3	0.08204021
220	0xbe312dc9	-0.17302622
221	0x3d77c440	0.060489893
222	0xbd48da6f	-0.04903644
223	0x3dfe2926	0.12410192
224	0x3e4d1dac	0.2003085
225	0xbddc4238	-0.10754818
226	0xbdbc294d	-0.09187565
227	0x3bd6dcd2	0.0065570856
228	0xbd22beaf	-0.03973263
229	0x3bc37465	0.005964803
230	0xbcff0d70	-0.031134337
231	0xbbc4772e	-0.0059956526
232	0xbe092bb1	-0.13395573
233	0x3dcdc354	0.100470215
234	0x3dfffd34	0.124994665
235	0x3c3d0044	0.011535708
236	0x3d94c8d1	0.07264865
237	0xbc8a392c	-0.016872965
238	0x3e11ae2e	0.142266
239	0x3e3b86d1	0.18313147
240	0xbeba60a5	-0.3640186
241	0xbd76643e	-0.060154192
242	0x3e2b9293	0.16755132
243	0x3dd9b742	0.10630657
244	0xbe36aafa	-0.1783866
245	0xbd648563	-0.05579127
246	0x3bf12d3d	0.007360129
247	0x3d8980cf	0.067140214
248	0x3d67381d	0.05645
249	0xbd05dae8	-0.03267947
250	0xbcff764d	-0.03118434
251	0xbd266259	-0.040621135
252	0x3ddf573a	0.10905309
253	0x3d2b1c9d	0.041775335
254	0x3d526bf9	0.051372502
255	0x3dc72f48	0.09725815

reward_backbone.0.bias f4 [128]
0	0x3d8272be	0.063695416
1	0x3c228a7e	0.009920714
2	0x3ca6ebf0	0.020376176
3	0xbc426e21	-0.011867077
4	0xbd9119c0	-0.070849895
5	0xbd33cd50	-0.043896973
6	0x3d81f5f5	0.06345741
7	0x3da25f4c	0.07928333
8	0xbe743a05	-0.23850258
9	0x3bbf4ced	0.0058380277
10	0x3e0a62cb	0.13514249
11	0x3c87967a	0.016551245
12	0xbe22abad	-0.15885802
13	0xbbbdccd2	-0.0057922387
14	0xbd918a97	-0.07106512
15	0xbc9b24de	-0.018938478
16	0xbeaebc24	-0.34127915
17	0x3e026d57	0.12737022
18	0xbd289adf	-0.04116332
19	0xbc9b0347	-0.018922461
20	0xbdbf8a84	-0.09352592
21	0x3e8a4f36	0.27013558
22	0x3e26ced2	0.16289833
23	0x3d444a7a	0.04792259
24	0xbe432a6b	-0.1905915
25	0xbdb3ee79	-0.087857194
26	0x3d671359	0.056414936
27	0xbe783299	-0.24238051
28	0x3e3d9dd9	0.18517245
29	0xbe0f9a0c	-0.14023608
30	0x3cea8676	0.02862857
31	0xbed058d7	-0.4069278
32	0x3dfb395f	0.12266802
33	0xbd76d606	-0.060262702
34	0xbdb5c1ca	-0.08874853
35	0x3e3e450a	0.18581024
36	0x3ce18eaa	0.027533848
37	0x3d5bba56	0.0536445
38	0xbb8dc1ea	-0.004326095
39	0xbcdef550	-0.027216583
40	0xbe096e9e	-0.13421103
41	0x3d201416	0.039081655
42	0x3d539d12	0.051663466
43	0xbe136fd9	-0.14398135
44	0xbc54675b	-0.012964095
45	0x3c4b9f50	0.01242812
46	0x3e35b813	0.17746
47	0xbe107185	-0.14105804
48	0x3ebb0405	0.36526504
49	0xbc95784e	-0.018245842
50	0x3cee3669	0.02907868
51	0xbeb46139	-0.35230425
52	0xbd47187a	-0.048607327
53	0xbeb4f810	-0.35345507
54	0x3d55692c	0.052102253
55	0xbe8b1d1c	-0.27170646
56	0xbe3b6292	-0.1829932
57	0xbca12209	-0.01966955
58	0xbb349029	-0.0027551746
59	0xbda12d84	-0.078700095
60	0xbda33201	-0.07968522
61	0x3e5bcc73	0.2146471
62	0xbe0ab54b	-0.1354572
63	0xbb7e39c8	-0.0038791765
64	0xbd93366d	-0.07188115
65	0x3e29451f	0.16530274
66	0xbc2805d4	-0.010255296
67	0x3dac8c6e	0.08425222
68	0x3e087321	0.13325168
69	0xbe1e62c4	-0.15467364
70	0xba9234c7	-0.0011154645
71	0xbe134b0d	-0.14384098
72	0xbb254ed7	-0.0025223994
73	0x3de33699	0.11094398
74	0x3e826815	0.25470033
75	0x3d148875	0.036262948
76	0x3c60dabc	0.013724025
77	0xbce8a227	-0.028397633
78	0x3cbdf31c	0.023187213
79	0x3e09409c	0.13403553
80	0xbc50301c	-0.012706783
81	0x3c1f7696	0.009732863
82	0x3e2add2d	0.16685934
83	0x3e80c29a	0.2514847
84	0xbd90ab51	-0.07063926
85	0x3e101ec8	0.14074242
86	0xbe7f0270	-0.24903274
87	0xba2f4880	-0.00066865236
88	0xbd8bce35	-0.0682644
89	0xbc4b8c46	-0.0124235805
90	0x3ca98a38	0.02069579
91	0x3d17da1c	0.03707324
92	0xbd0ffe2b	-0.035154503
93	0xbeaba601	-0.33525088
94	0xbb96b258	-0.004598897
95	0xbd513f5a	-0.051085807
96	0x3da65171	0.081210025
97	0xbe74f0a6	-0.23919925
98	0xbd198a00	-0.037485123
99	0x3cd03255	0.025414625
100	0xbb399989	-0.0028320274
101	0xbe92110d	-0.28528634
102	0x3da368fe	0.0797901
103	0x3d012179	0.031526063
104	0x3db3d289	0.08780391
105	0xbd1f60a4	-0.038910523
106	0xbb020edf	-0.001984529
107	0xbe81b426	-0.25332755
108	0x3dc9da27	0.098560624
109	0xbe049641	-0.12947942
110	0xbd058646	-0.032598756
111	0xbd881618	-0.06644839
112	0xbdd62f25	-0.10458211
113	0xbe013b23	-0.12620215
114	0x3c896e0d	0.01677611
115	0x3db73905	0.089464225
116	0xbd6f8dba	-0.05848477
117	0x3cb94f85	0.022620926
118	0x3d88a42b	0.066719376
119	0x3dfffc3c	0.12499282
120	0x3e0c1bed	0.13682528
121	0xbd09f2b8	-0.03367874
122	0x3a832e57	0.0010008317
123	0xbd6d329b	-0.05790959
124	0x3d8b7a86	0.06810479
125	0xbe34658b	-0.1761686
126	0xbcdec986	-0.027195703
127	0x3d5a70b1	0.053330127

reward_backbone.2.weight f4 [128, 128]
0	0xbd8d100c	-0.06887826
1	0xbc5cf9a9	-0.013487258
2	0x3db0f039	0.08639569
3	0xbd6b87c4	-0.057502523
4	0xbd7caef1	-0.061690275
5	0x3d86840b	0.06568154
6	0xbd9d2225	-0.07672528
7	0x3d84ffee	0.06494127
8	0x3d93ec38	0.072227895
9	0xbd4dfbcc	-0.05028896
10	0x3db8b395	0.090186276
11	0xbe2d4922	-0.16922429
12	0x3c674412	0.01411535
13	0xbe1a3a78	-0.15061367
14	0xbae5e41c	-0.0017539295
15	0x3dc3fd88	0.095698416
16	0xbe4247fb	-0.18972771
17	0x3eb22987	0.34797308
18	0x3d2a30e6	0.04155054
19	0x3ce04c3c	0.027380101
20	0x3bbb53a5	0.0057167583
21	0xbd9e412c	-0.07727274
22	0x3e62682d	0.22110052
23	0xbe247665	-0.16060789
24	0x3d9c9133	0.07644882
25	0xbe42437c	-0.18971056
26	0xbe3e0044	-0.18554789
27	0x3da9a396	0.08283155
28	0x3ce9509a	0.028480817
29	0xbe21e1fb	-0.15808861
30	0x3d90814f	0.07055914
31	0xbe3d95c3	-0.18514161
32	0x3d365e51	0.04452354
33	0x3da695af	0.08134019
34	0x3c5a5b5c	0.013327446
35	0xbd4de45a	-0.0502666
36	0x3d935454	0.07193819
37	0x3e160872	0.14651659
38	0xbd94fadd	-0.07274411
39	0xbc80d4a1	-0.01572639
40	0xbe83b322	-0.25722605
41	0x3e13b9cf	0.14426349
42	0x3e5f6cc5	0.21818836
43	0xbe46deb5	-0.19420893
44	0xba5f272f	-0.0008512614
45	0xbcd16381	-0.025560142
46	0xbe55bec2	-0.2087355
47	0xbe010aad	-0.12601729
48	0x3e0e33e2	0.13886979
49	0xbd86e05b	-0.06585761
50	0x3d7b355b	0.06133018
51	0xbdd0cdfa	-0.10195537
52	0xbcbafd10	-0.022825748
53	0xbe312482	-0.17299083
54	0x3de6d36a	0.11270793
55	0x3e129a5d	0.14316697
56	0xbe0101e5	-0.12598379
57	0xbe7ecf00	-0.24883652
58	0xbd413d38	-0.047177523
59	0xbc85c420	-0.016328871
60	0xbc9bff21	-0.019042553
61	0x3d019344	0.031634584
62	0xbe33759c	-0.17525333
63	0x3dc65fac	0.09686217
64	0x3d652f23	0.055953156
65	0xbdf3b18b	-0.11899098
66	0xbe361986	-0.17783174
67	0xbe9669d9	-0.2937763
68	0x3d3004b3	0.04297323
69	0xbe2c1bd1	-0.16807486
70	0xbe33fa99	-0.17576064
71	0xbb46f7a0	-0.0030359998
72	0x3e27b552	0.16377762
73	0x3e1f377f	0.15548514
74	0x3eb65474	0.35611308
75	0xbe2d1c0c	-0.1690523
76	0x3c6f933d	0.014622507
77	0xbe8b97ed	-0.27264348
78	0xbd22542c	-0.039631054
79	0xbd67fb10	-0.056635916
80	0x3de8c7d5	0.1136624
81	0x3c020ba1	0.007937343
82	0x3e7b777e	0.24557301
83	0x3dfd9da9	0.12383587
84	0xbdad7a56	-0.08470599
85	0xbdb3dcd3	-0.08782353
86	0xbea21cdb	-0.3166264
87	0xbc5cabc0	-0.013468683
88	0x3ea236fe	0.3168258
89	0x3dba6646	0.09101538
90	0xbdb13f80	-0.0865469
91	0x3da1317b	0.07870766
92	0xbc39661d	-0.01131585
93	0xbe42711e	-0.18988463
94	0x3e3a8f1c	0.18218654
95	0x3c4d3ba8	0.01252643
96	0x3d5b58bd	0.053551424
97	0xbe20c15f	-0.15698765
98	0x3dfb1f5f	0.12261843
99	0x3ccc5b92	0.024946008
100	0x3dadf03d	0.084930874
101	0xbe9c3e08	-0.30516076
102	0x3dd2638e	0.10272895
103	0x3e062c54	0.13102847
104	0x3d13776c	0.03600256
105	0xbd632748	-0.055457383
106	0xbd10b82b	-0.035331886
107	0xbe31494e	-0.1731312
108	0xbd95df1a	-0.07317944
109	0xbc2ee642	-0.010675015
110	0x3d8fa679	0.07014174
111	0xbdcc13b2	-0.09964694
112	0xbb18b2a1	-0.002329983
113	0xbe2ce27d	-0.16883273
114	0xbc52fb80	-0.012877345
115	0x3d8d762b	0.069073044
116	0xbd5cb4d8	-0.053883404
117	0x3d06b1ef	0.032884534
118	0xbd357ca2	-0.044308312
119	0x3e61e6b6	0.22060665
120	0xbe0fe095	-0.14050515
121	0x3ddafacf	0.10692369
122	0x3cc3804d	0.02386489
123	0x3d7d0104	0.061768547
124	0x3d3b40b6	0.04571601
125	0x3e7b15ca	0.2452003
126	0xbd7e0db5	-0.06202479
127	0xbe674516	-0.22584948
128	0xbd6aab7c	-0.057292446
129	0xbdd68656	-0.10474841
130	0x3e1352c2	0.14387038
131	0xbdd8c68e	-0.10584746
132	0x3b8ef0fc	0.0043622237
133	0x3c162d3b	0.009166057
134	0xbdd11ca5	-0.10210542
135	0x3de335c4	0.11094239
136	0x3e4411e4	0.1914745
137	0xbc05d84f	-0.008169248
138	0xbdf39e16	-0.11895387
139	0x3dbcd2fa	0.09219928
140	0x3e337c6f	0.17527936
141	0x3cd0ad3c	0.02547323
142	0xbe2c486d	-0.16824503
143	0x3dda1a8f	0.10649597
144	0x3d8174e4	0.06321123
145	0x3e14b83a	0.14523402
146	0x3e3c24df	0.1837344
147	0x3e450612	0.19240597
148	0xbdbd7d84	-0.09252456
149	0x3e13bfd4	0.14428645
150	0xbd9329a6	-0.07185678
151	0x3db54807	0.08851629
152	0xbe19b77c	-0.150114
153	0xbc1adc0e	-0.009451879
154	0xbe83cbb2	-0.25741345
155	0x3d46b606	0.048513435
156	0xbe5b2997	-0.21402584
157	0x3e1a063d	0.15041442
158	0x3cea0301	0.028565885
159	0x3e81cecd	0.2535309
160	0xbe601262	-0.21882012
161	0x3de94818	0.11390704
162	0xbe1fdc7f	-0.15611456
163	0x3dd5d6cb	0.10441359
164	0x3da2bf28	0.079466164
165	0xbe05ddf9	-0.13072957
166	0x3e2d968d	0.16951962
167	0x3ebec593	0.37260112
168	0x3da6853d	0.08130882
169	0xbdfad1a0	-0.12247014
170	0xbe2394fc	-0.15974802
171	0xbd50297b	-0.05082081
172	0x3e09dc42	0.13462928
173	0x3d8ff600	0.07029343
174	0x3cd54904	0.026035793
175	0x3db94b9f	0.09047627
176	0x3e8bce67	0.2730591
177	0xbdfdc012	-0.1239015
178	0x3cc713e7	0.024301482
179	0xbcf2281f	-0.029560147
180	0x3db103a3	0.08643272
181	0xbdcd91b4	-0.10037556
182	0xbdfd1469	-0.123574086
183	0xbbd712a4	-0.0065635014
184	0x3db8a857	0.09016483
185	0xbd2f68e4	-0.04282464
186	0xbe0dec43	-0.13859658
187	0x3dd9c43c	0.10633132
188	0x3e4a66f4	0.19765836
189	0xbba6971c	-0.0050839316
190	0x3c815c92	0.015791211
191	0x3e5bcb19	0.21464194
192	0xbe00bd8e	-0.1257231
193	0xbce519ec	-0.027966462
194	0x3e479e6c	0.19494027
195	0x3dfa7f78	0.12231344
196	0x3df1b61b	0.11802312
197	0x3dde1f6e	0.108458385
198	0xbdb701dd	-0.08935902
199	0x3b686871	0.0035462643
200	0xbe064e1c	-0.13115734
201	0xbd38b0e0	-0.045090556
202	0x3b617287	0.003440054
203	0xbdca9aaa	-0.09892781
204	0xbc4be161	-0.012443871
205	0x3d44dfcd	0.048064996
206	0x3dc782a8	0.097417176
207	0x3d16b383	0.03679229
208	0x3cd24ca6	0.025671314
209	0x3d8b9484	0.068154365
210	0xbe10d027	-0.14141904
211	0x3dfb2e7c	0.122647256
212	0x3e3b32ec	0.18281144
213	0xbbaf4dce	-0.005349851
214	0x3d729440	0.059223413
215	0xbe194952	-0.14969376
216	0x3d8a0e55	0.06741015
217	0xbd4c1b00	-0.049830437
218	0xbe192cb9	-0.14958467
219	0x3d91868a	0.071057394
220	0x3c2cf1a0	0.010555655
221	0x3e6cb9aa	0.231177
222	0xbbe76d56	-0.0070625944
223	0x3da536ab	0.08067068
224	0xbbfd4cf1	-0.0077301194
225	0xbc8f6663	-0.017504876
226	0x3e0b4b9c	0.13603061
227	0xbd357c71	-0.04430813
228	0xbe56dad3	-0.20981912
229	0x3d4ca928	0.049966007
230	0x3d10e624	0.03537573
231	0x3c2e49c0	0.010637701
232	0xbcaf2744	-0.021381028
233	0xbd273ccc	-0.040829465
234	0xbe16ac46	-0.14714155
235	0x3dc75479	0.09732909
236	0xbd68f756	-0.056876503
237	0x3e6ee642	0.23330024
238	0xbdf1b0c3	-0.11801293
239	0x3e649563	0.22322612
240	0x3deae4e4	0.11469439
241	0x3e45b27c	0.19306368
242	0x3d89a610	0.06721127
243	0xbdfff2af	-0.1249746
244	0xbd9da37b	-0.07697197
245	0x3db7a923	0.08967807
246	0x3eae4380	0.34035873
247	0x3e3b06ce	0.18264315
248	0xbd23fe55	-0.04003747
249	0x3d585bcc	0.05282192
250	0x3d49853d	0.04919933
251	0x3d52eeb7	0.051497187
252	0xbd7216aa	-0.059103645
253	0x3d7cdfc8	0.061736852
254	0xbd356d60	-0.04429376
255	0x3de970a7	0.1139844

reward_backbone.2.bias f4 [128]
0	0x3dfe3abc	0.124135464
1	0xbdc37807	-0.09544378
2	0xbdd6292a	-0.1045707
3	0xbe3e41c8	-0.18579781
4	0xbd164a7b	-0.036692124
5	0x3dbdf638	0.09275478
6	0xbc8a9d4b	-0.016920706
7	0xbdeb32ac	-0.11484274
8	0x3de78e7c	0.113064736
9	0xbc2abef8	-0.010421507
10	0x3dc6b673	0.09702768
11	0x3db05471	0.08609856
12	0xbdb58590	-0.08863366
13	0xbe335902	-0.17514423
14	0xbd60128a	-0.05470518
15	0xbcadd439	-0.02121936
16	0x3e0fdc49	0.14048876
17	0xbdf78963	-0.12086751
18	0xbd9299cc	-0.07158241
19	0x3d9f8b5a	0.07790251
20	0xbd98db73	-0.074637316
21	0x3e00cc36	0.125779
22	0xbd7cf4df	-0.061756965
23	0xbd21d861	-0.039512996
24	0xbdeef32a	-0.116674736
25	0x3de1f64f	0.11033308
26	0x3df3ec3a	0.11910291
27	0x3dfeb7e5	0.12437419
28	0xbd8367e0	-0.06416297
29	0xbc8caea4	-0.017173119
30	0xbda1ab2b	-0.07893976
31	0x3db80026	0.08984403
32	0x3c0e7c93	0.008696693
33	0x3d4691c6	0.048478864
34	0xbdea548d	-0.11441908
35	0x3da6d7ba	0.08146615
36	0xbd8df420	-0.06931329
37	0x3dcd2843	0.10017445
38	0x3e03e73c	0.12881178
39	0x3d32ff6f	0.04370063
40	0x3c353db5	0.011062075
41	0xbda305b7	-0.079600744
42	0x3c625644	0.013814513
43	0x3d6f20b7	0.05838081
44	0xbd105e88	-0.035246402
45	0xbdffa9ed	-0.12483583
46	0xbd77f6ae	-0.060537986
47	0x3d376c50	0.04478103
48	0xbd083a65	-0.033258814
49	0x3c13ded9	0.009025299
50	0xbd9bb814	-0.076034695
51	0xbdfd1bc5	-0.12358812
52	0x3d51634d	0.05112009
53	0x3dc6cbbf	0.0970683
54	0xbc9d9a98	-0.019238755
55	0xbd1af6d3	-0.037833046
56	0x3d1f1c2a	0.03884522
57	0x3ce274c3	0.027643567
58	0xbd916c3c	-0.07100722
59	0x3d82d521	0.06388307
60	0xbd9b841d	-0.07593558
61	0x3d2ca467	0.042148974
62	0x3cba42b0	0.022736877
63	0xbd659887	-0.056053665
64	0xbdbfd492	-0.093667164
65	0x3d6c0772	0.057624288
66	0x3d3ea723	0.046546113
67	0xbd95a6ca	-0.07307203
68	0xbdb5add4	-0.08871046
69	0x3de0dee7	0.10980015
70	0xbcb81b79	-0.022474037
71	0x3d947cb1	0.072503455
72	0x3dcf832d	0.10132442
73	0x3daf7be6	0.085685536
74	0xbd06ea2b	-0.032938164
75	0x3d9703d3	0.07373776
76	0x3e7ba47c	0.24574465
77	0x3b99512e	0.004678867
78	0xbdb667e4	-0.08906534
79	0x3d570298	0.052492708
80	0x3e0c8cad	0.13725539
81	0xbd849a05	-0.064746894
82	0x3dbde2b9	0.092717595
83	0xbdc03a62	-0.09386136
84	0xbe518c2b	-0.20463626
85	0xbe746e3c	-0.23870176
86	0x3dccf0d5	0.100068726
87	0x3e0adacb	0.13560025
88	0x3e0d0835	0.13772662
89	0xbd8d4b71	-0.06899155
90	0x3bdfa328	0.0068248697
91	0xbd1b0fee	-0.03785699
92	0xbdcfc5e8	-0.101451695
93	0x3da3cbaf	0.07997834
94	0xbd251982	-0.04030753
95	0xbda9687b	-0.08271881
96	0x3dd3afa5	0.10336236
97	0xbd45e701	-0.048316006
98	0xbcbbe470	-0.022936076
99	0x3bb466f8	0.005505439
100	0x3d1fe099	0.039032552
101	0xbd8e5143	-0.06949093
102	0x3d1aba27	0.037775185
103	0xbe201118	-0.15631521
104	0xbdcedbeb	-0.1010054
105	0xbdcaa2f6	-0.098943636
106	0xbd99f42d	-0.07517276
107	0x3d96d276	0.07364361
108	0xbd309ca4	-0.043118134
109	0x3e637b6d	0.22215052
110	0xbd69f1f6	-0.057115518
111	0xbd14f6a6	-0.036368035
112	0xbd4e7e86	-0.05041363
113	0x3d9f537e	0.07779597
114	0x3e6642bf	0.22486399
115	0xbda3dc6c	-0.080010265
116	0xbe00f800	-0.12594604
117	0x3c99f6a9	0.018794375
118	0xbdc0b5bb	-0.09409662
119	0xbdedf14a	-0.11618288
120	0x3cd77e2c	0.02630528
121	0xbd865e94	-0.06561008
122	0x3e1d3126	0.1535078
123	0xbe0b1504	-0.13582236
124	0xbd8625bb	-0.06550165
125	0x3d392796	0.045203768
126	0x3e52ebf3	0.2059782
127	0x3e2a9551	0.16658522

cost_backbone.0.weight f4 [128, 22]
0	0x3e1036e4	0.14083439
1	0x3e041c70	0.12901473
2	0xbd97d713	-0.07414069
3	0x3e86adb5	0.26304403
4	0x3df2b91a	0.118517116
5	0x3d6c2d68	0.05766049
6	0x3deff77c	0.11717126
7	0xbdb88570	-0.09009826
8	0xbdb220d1	-0.086976655
9	0x3e0993c2	0.13435271
10	0xbe707da2	-0.23485425
11	0x3e31d9a1	0.17368175
12	0xbd203d71	-0.039121095
13	0x3dc16fb1	0.094451316
14	0xbcc845e4	-0.024447389
15	0xbd9df532	-0.07712783
16	0x3cb643b1	0.022249075
17	0x3cb17e22	0.02166659
18	0x3e0ba6c6	0.13637838
19	0x3d98fd10	0.07470143
20	0x3e2d62d3	0.1693223
21	0x3d3128b0	0.043251693
22	0x3e050ed6	0.1299394
23	0x3db5eeb9	0.08883423
24	0x3c92b841	0.017910125
25	0x3d2b6855	0.041847546
26	0xbc935b3a	-0.017987836
27	0xbde600c0	-0.11230612
28	0x3c918a8c	0.01776626
29	0x3e02ac3c	0.12761015
30	0xbd8fece6	-0.07027607
31	0x3e22c375	0.15894873
32	0xbe90b4b1	-0.28262857
33	0xbcde5b14	-0.027143039
34	0x3e120af3	0.1426199
35	0xbdd0d517	-0.10196894
36	0x3d286009	0.04110721
37	0x3dcb9501	0.099405296
38	0xbd08c73b	-0.033393126
39	0x3d2824eb	0.041050833
40	0x3e01f8ae	0.1269252
41	0xbd3b5588	-0.045735866
42	0x3e1c9027	0.15289365
43	0x3e292424	0.16517693
44	0x3d2eaf4a	0.042647637
45	0x3bf43d0c	0.0074535664
46	0xbcef5af9	-0.029218184
47	0xbe9e413b	-0.30909142
48	0xbca667bf	-0.020313142
49	0xbd2b98f6	-0.04189392
50	0x3c65dd16	0.014029762
51	0xbc8712d3	-0.016488468
52	0xbd4f0143	-0.050538313
53	0xbdcd4a6f	-0.10023963
54	0xbdf34986	-0.11879258
55	0xbcef5a4e	-0.029217865
56	0xbe098010	-0.13427758
57	0x3e18a422	0.14906362
58	0xbd480843	-0.048836004
59	0x3ccf87b4	0.025333263
60	0x3c3a81b8	0.011383466
61	0x3c2aebc6	0.010432189
62	0x3d4623ae	0.04837387
63	0xbdf2b9e0	-0.11851859
64	0x3deccfcb	0.11563071
65	0x3e7bbd43	0.24583916
66	0x3d5c428a	0.053774394
67	0x3d9b4336	0.07581179
68	0xbdb11647	-0.08646827
69	0xbd5a6c84	-0.053326145
70	0x3e1675cf	0.14693378
71	0xbd8748e3	-0.06605699
72	0xbd4c753c	-0.04991649
73	0x3cf3452c	0.02969607
74	0xbbeb0570	-0.007172279
75	0xbe79d1f9	-0.24396504
76	0x3e066078	0.13122737
77	0xbdca5e33	-0.09881248
78	0x39b22300	0.00033976883
79	0x3c078503	0.008271459
80	0xbe1b9a8a	-0.1519567
81	0xbea7e570	-0.32792234
82	0xbd7c84d6	-0.06165012
83	0x3daaf46a	0.083473995
84	0x3dfe9767	0.124312215
85	0xbce73454	-0.028223194
86	0xbdbf0071	-0.09326256
87	0x3d1eee04	0.03880121
88	0x3db9d363	0.09073522
89	0x3c829e47	0.015944613
90	0xbc516197	-0.012779615
91	0xbe4f9b6e	-0.20274135
92	0x3cd181d9	0.025574611
93	0x3d193cac	0.037411377
94	0x3ce0a3fe	0.027421948
95	0xbe38f3da	-0.18061772
96	0xbdef6753	-0.116896294
97	0xbce5086e	-0.027958121
98	0xbda4d2c5	-0.080480136
99	0xbecf2f37	-0.4046571
100	0xbcdd40d6	-0.027008455
101	0x3d3059c0	0.043054342
102	0x3c1d0c15	0.0095854
103	0x3c65f743	0.014036003
104	0x3d60578f	0.054771002
105	0x3d7d54b2	0.06184835
106	0x3ec46293	0.38356456
107	0x3c531145	0.012882535
108	0xbe9bfc1a	-0.30465776
109	0xbdf67c99	-0.12035484
110	0xbdb99f93	-0.090636395
111	0xbd206e9e	-0.039167993
112	0x3c4903ce	0.0122689735
113	0x3e578e64	0.21050411
114	0xbdad3208	-0.08456808
115	0xbc8dd7e6	-0.017314862
116	0xbdaea6eb	-0.08527931
117	0x3e27100f	0.1631472
118	0x3ca3dc09	0.020002382
119	0x3d64b8b8	0.055840224
120	0xbabf4555	-0.0014592806
121	0xbd301199	-0.042985532
122	0xbe408450	-0.18800473
123	0x3df75ed2	0.120786324
124	0x3d52c45a	0.051456787
125	0xbdaf0425	-0.085457124
126	0xbd59b290	-0.053148806
127	0x3d93c6f2	0.0721568
128	0x3df2d879	0.11857695
129	0x3dd66ac0	0.1046958
130	0xbe403e6a	-0.18773809
131	0x3e371aaf	0.17881273
132	0xbdc5ecb3	-0.096642874
133	0xbe4b12fb	-0.19831459
134	0xbdcb3298	-0.09921759
135	0x3cc23dd7	0.023711128
136	0xbc8bb3bc	-0.017053477
137	0xbc8fa6a1	-0.01753551
138	0xbd95289e	-0.07283138
139	0x3c3f8a24	0.01169065
140	0xbceb2fe5	-0.028709361
141	0xbda7eab3	-0.08199062
142	0x3c06c946	0.008226698
143	0x3dcebdb2	0.10094775
144	0x3cc64768	0.024203971
145	0x3d9f6d55	0.07784525
146	0x3e0652a8	0.13117468
147	0x3cfc7b65	0.030820558
148	0xbda55fb7	-0.08074897
149	0x3b8543a0	0.0040668994
150	0xbe17fdec	-0.14842957
151	0xbde96c0a	-0.1139756
152	0x3ddbbe4b	0.10729655
153	0xbe6c215d	-0.23059602
154	0x3e11b265	0.14228208
155	0xbdcadfb0	-0.09905946
156	0xbd78c89e	-0.0607382
157	0xbd187516	-0.037221037
158	0xbcd61b77	-0.026136143
159	0xbd8610a2	-0.06546141
160	0xbd740f89	-0.059585128
161	0xbda114ec	-0.07865319
162	0x3df9ea15	0.12202851
163	0xbdc5480a	-0.09632881
164	0xbdaec732	-0.08534087
165	0xbeb08644	-0.34477437
166	0x3da2962a	0.07938798
167	0x3e0b2d9f	0.13591622
168	0x3d712414	0.058872297
169	0xbd7df799	-0.062003706
170	0x3daa81f1	0.083255656
171	0xbcbf17dc	-0.023326807
172	0x3d9413cb	0.07230338
173	0x3c8da42a	0.017290194
174	0xbd29276c	-0.04129736
175	0xbe8a5d11	-0.2702413
176	0xbdf58eb8	-0.11990112
177	0xbdcc117f	-0.099642746
178	0x3dbc02af	0.09180199
179	0xbe68b71d	-0.22726102
180	0x3e17eda0	0.1483674
181	0xbdfa16c3	-0.12211373
182	0xbdbae48a	-0.091256216
183	0xbd382c9f	-0.04496443
184	0xbd5a6455	-0.05331834
185	0x3e16f8aa	0.14743295
186	0x3d5ff52e	0.05467718
187	0x3e72693c	0.23672956
188	0x3c8b199c	0.016979985
189	0x3da4cf39	0.08047337
190	0xbda9c27b	-0.08289047
191	0x3cd8c5d8	0.026461527
192	0x3daee56b	0.08539852
193	0x3b8806de	0.0041512093
194	0x3dc04d02	0.09389688
195	0x3e029d9e	0.12755439
196	0xbe76e903	-0.24112324
197	0xbb051344	-0.0020305673
198	0xbd6e506c	-0.058182165
199	0xbc905df5	-0.017622927
200	0xbd730d9d	-0.059339155
201	0x3e3aab84	0.1822949
202	0xbe1547ea	-0.14578214
203	0xbc5e19f2	-0.0135559905
204	0xbe677d59	-0.2260641
205	0xb95b399e	-0.00020906932
206	0xbd8a4ce7	-0.06752949
207	0xbd93f6af	-0.072247855
208	0x3db0c399	0.08631057
209	0xbd5d9f08	-0.054106742
210	0xbe39ef47	-0.18157683
211	0xbcd7cdba	-0.026343215
212	0xbcca6e2c	-0.024710737
213	0xbe0043e0	-0.12525892
214	0xbc8169c9	-0.015797513
215	0xbd89b919	-0.06724758
216	0x3e45e880	0.19326973
217	0x3e2c6fe1	0.16839553
218	0xbd53401e	-0.05157482
219	0xbe5032c9	-0.20331873
220	0x3c3175b5	0.010831286
221	0xbe210841	-0.15725805
222	0xbda7124d	-0.081577875
223	0xbd91336f	-0.07089888
224	0xbe5bd885	-0.21469314
225	0xbd7f5524	-0.062337056
226	0x3e0e82b5	0.13917048
227	0x3daf2fd1	0.08554042
228	0x3d0b5223	0.03401388
229	0xbd9bf150	-0.07614386
230	0xbdd9929e	-0.10623668
231	0x3d9dd967	0.07707482
232	0x3d78f121	0.060776833
233	0xbe14d2b3	-0.145335
234	0xbe30f604	-0.17281348
235	0x3d69d434	0.05708714
236	0x3dc30e5e	0.09524225
237	0x3e8cbec7	0.27489302
238	0x3e7a761a	0.24459115
239	0xbd60acc6	-0.05485227
240	0x3d985128	0.07437354
241	0x3d83f0ef	0.06442439
242	0xbd12a0d5	-0.035797913
243	0xbdcc7ef9	-0.099851556
244	0x3e683873	0.22677784
245	0xbe4c0cad	-0.1992671
246	0x3dd85d74	0.105647
247	0x3c96adb6	0.018393379
248	0x3caaa3bc	0.020830028
249	0x3c798976	0.015230527
250	0x3cb00d00	0.021490574
251	0x3d8b56a4	0.06803635
252	0x3c6db585	0.01450861
253	0xbe342e06	-0.17595682
254	0xbc14d657	-0.009084306
255	0x3e14fd08	0.14549649
