outputs/E1_penalty_fixedlambda_sweep/penalty_seed0_EB0.10_LB0.05_lamE5.0_lamL5.0/best_tail.pt (torch, 981835 bytes, 68 tensors)

actor_backbone.0.weight f4 [128, 22]
0.024628304 0.02592533 0.24476713 0.062003717 -0.108341604 -0.103571355 -0.0712072 0.03032253
-0.16621211 0.21037252 -0.05783365 -0.1339509 0.041573185 0.07237987 -0.16012464 0.11208907
0.01714337 -0.09764762 0.25207794 0.055144418 0.23459008 -0.18902163 -0.14278921 0.0029977376
-0.23925179 -0.07992082 -0.14353262 -0.020538934 0.042184472 -0.15779823 0.23406607 0.17578164
0.24130455 0.025941817 -0.17157477 0.015785012 -0.09886695 0.14316699 -0.09290176 0.001423352
0.119375445 -0.1464792 0.11777412 0.15414645 -0.2086035 -0.069399506 -0.11352667 0.027682202
-0.09239771 -0.05871163 -0.077826284 -0.06753267 0.044638537 0.027716538 -0.11051777 0.10608921
0.09401564 0.02078743 0.16588125 -0.04888593 -0.39033306 0.03758666 -0.037712973 -0.036488194
0.42644846 -0.0723321 -0.034489878 0.18271583 -0.051370673 -0.0972436 -0.07372921 -0.122930184
0.022553377 0.120303474 -0.1551486 0.16069654 -0.050128926 -0.2625972 -0.03679243 0.20455581
-0.08545721 -0.04413081 0.1523557 -0.0076723183 0.15716118 0.11882934 -0.16715392 0.06562159
-0.22910488 0.027317971 0.21619888 -0.09648201 0.13552393 0.05140112 -0.16048652 0.16345584
0.028217139 0.094753854 -0.12306589 -0.10914443 -0.09799621 0.06650021 0.26535717 -0.0151394345
0.10920311 0.06632533 -0.029428989 -0.12713899 -0.076182835 -0.13367969 -0.09396858 -0.14037815
0.14511761 0.040749975 0.08437443 -0.050963163 -0.14580041 -0.10722924 -0.061159816 -0.19126247
0.0902514 -0.12151521 -0.09372633 0.11413803 -0.2578543 -0.057611544 -0.21318413 -0.11288458
-0.51834184 0.005631903 -0.05413945 0.14713049 -0.14417885 -0.04487002 -0.045351617 -0.057542216
-0.15089412 -0.26023492 0.032236535 -0.11087901 0.06582633 -0.16573587 -0.14679682 0.19090764
-0.025461957 -0.19397569 -0.02870897 0.13687965 0.31080997 -0.04027634 -0.14677078 0.025639342
0.23368797 -0.18020952 0.123739086 -0.121204235 0.08624949 0.11565908 0.039697748 0.12526335
-0.033824675 -0.15684222 0.065052904 0.04560081 -0.16688061 -0.2110063 0.085769005 -0.037767194
0.40091756 0.02569356 -0.17707908 0.2169987 -0.036654722 0.18449804 0.08021925 0.062310893
0.39989433 -0.013187824 0.13345124 -0.08505825 -0.21049725 0.02712908 -0.17930262 0.043631416
0.020876337 0.007894399 0.13141516 0.038597688 -0.026764072 -0.04861289 -0.15469551 -0.06431358
-0.17145239 0.025337275 0.12640259 0.076549515 0.16969305 0.33594868 -0.24837618 -0.12733835
0.14955334 0.01730134 0.07761639 -0.14781517 0.024071908 0.01911964 0.028187532 -0.25514343
0.014450716 0.117887944 0.00039984216 0.012751931 -0.24512771 -0.015340826 -0.033303704 -0.06240053
-0.09629742 0.06300815 0.23433451 -0.022827212 0.11628257 -0.11833844 -0.029589815 -0.025978105
-0.018807871 -0.26318738 -0.02164174 0.087032415 -0.109816775 0.12713513 0.12579139 0.003794719
0.021654598 -0.13585639 -0.16382548 -0.028483123 -0.035424292 -0.09118701 0.30705622 -0.04189568
0.1562966 0.129558 0.026070148 0.10842708 -0.09948281 -0.07658152 -0.15083933 -0.023682045
-0.114777245 -0.19738661 -0.0013028417 -0.08704247 0.070726715 -0.08281689 -0.080727205 -0.045015335
00000000: 4cc1 c93c 5c61 d43c 3ca4 7a3e 9cf7 7d3d
00000010: 34e2 ddbd 381d d4bd 15d5 91bd f466 f83c
00000020: 8233 2abe e56b 573e fae2 6cbd 6d2a 09be
00000030: a548 2a3d e63b 943d b7f7 23be f48e e53d
00000040: 4170 8c3c 7afb c7bd 5c10 813e 1ddf 613d
00000050: 6238 703e e38e 41be 5637 12be b175 443b
00000060: 6cfe 74be 87ad a3bd 37fa 12be 4441 a8bc
00000070: a0c9 2c3d dc95 21be 04af 6f3e 1a00 343e
00000080: 8a18 773e ef83 d43c 4cb1 2fbe 924f 813c
00000090: c17a cabd 5e9a 123e 4743 bebd c58f ba3a
000000a0: 1d7b f43d a5fe 15be 8f33 f13d 91d8 1d3e
000000b0: 289c 55be 5421 8ebd ac80 e8bd c9c5 e23c
000000c0: 033b bdbd 9b7b 70bd 6363 9fbd 924e 8abd
000000d0: e6d6 363d cb0d e33c 2457 e2bd 4d45 d93d
000000e0: 468b c03d 674a aa3c c6dc 293e 9d3c 48bd
000000f0: bcd9 c7be 78f4 193d eb78 1abd a574 15bd
00000100: 7457 da3e da22 94bd 4245 0dbd dc19 3b3e
00000110: 0e6a 52bd a727 c7bd 57ff 96bd d2c2 fbbd
00000120: dcc1 b83c ab61 f63d 46df 1ebe a28d 243e
00000130: fd53 4dbd 2473 86be a9b3 16bd 1477 513e
00000140: 3104 afbd 82c2 34bd 2203 1c3e 1268 fbbb
00000150: dcee 203e cc5c f33d 662a 2bbe 9d64 863d
00000160: 789a 6abe f0c9 df3c 3d63 5d3e 5c98 c5bd
00000170: c9c6 0a3e fb89 523d 9456 24be f860 273e
00000180: a127 e73c 4f0e c23d f809 fcbd 1d87 dfbd
00000190: 3db2 c8bd 4331 883d e5dc 873e 640b 78bc
000001a0: e1a5 df3d 93d5 873d 1015 f1bc b930 02be
000001b0: bf05 9cbd 54e3 08be 9972 c0bd 4abf 0fbe
000001c0: b699 143e 72e9 263d 80cc ac3d c0be 50bd
000001d0: b44c 15be 019b dbbd b782 7abd 4fda 43be
000001e0: bad5 b83d f7dc f8bd 97f3 bfbd 33c1 e93d
000001f0: 7b05 84be 15fa 6bbd f14c 5abe 0830 e7bd
00000200: 0db2 04bf d48b b83b 54c1 5dbd 60a9 163e
00000210: 9fa3 13be a0c9 37bd 9ec2 39bd 63b1 6bbd
00000220: fd83 1abe 833d 85be 750a 043d 8914 e3bd
00000230: f4cf 863d aab6 29be e851 16be 4b7d 433e
00000240: 9895 d0bc 90a1 46be 132f ebbc 2e2a 0c3e
00000250: 7c22 9f3e cef8 24bd 144b 16be 9909 d23c
00000260: e64b 6f3e d888 38be eb6a fd3d ed39 f8bd
00000270: 93a3 b03d abde ec3d 1b9a 223d 0945 003e
00000280: be8b 0abd 3f9b 20be 753a 853d eac7 3a3d
00000290: c0e2 2abe 0912 58be a9a7 af3d c6b1 1abd
000002a0: 1145 cd3e 4d7b d23c 3854 35be e834 5e3e
000002b0: 4323 16bd 0eed 3c3e fd49 a43d b539 7f3d
000002c0: f3be cc3e be11 58bc 71a7 083e 0533 aebd
000002d0: 978c 57be ce3d de3c 1b9b 37be dbb6 323d
000002e0: da04 ab3c 8257 013c b291 063e 9c18 1e3d
000002f0: 5440 dbbc 4f1e 47bd 8068 1ebe d7b6 83bd
00000300: 3791 2fbe 1e90 cf3c ae6f 013e fec5 9c3d
00000310: 04c4 2d3e 7701 ac3e 5356 7ebe fc64 02be
00000320: 8324 193e 8abb 8d3c 58f5 9e3d dc5c 17be
00000330: 7332 c53c cba0 9c3c 8ae9 e63c 29a2 82be
00000340: b2c2 6c3c 3c6f f13d e8a1 d139 7aed 503c
00000350: c202 7bbe 1658 7bbc 7769 08bd b397 7fbd
00000360: 9537 c5bd 6b0a 813d 63f5 6f3e 2200 bbbc
00000370: 8e25 ee3d 6d5b f2bd 5766 f2bc 09d0 d4bc
00000380: f712 9abc 7fc0 86be 054a b1bc 0d3e b23d
00000390: 9ee7 e0bd b62f 023e 75cf 003e d2b0 783b
000003a0: fc64 b13c f01d 0bbe dec1 27be 7055 e9bc
000003b0: 1019 11bd 41c0 babd 7936 9d3e ce9a 2bbd
000003c0: 370c 203e daaa 043e 1091 d53c 040f de3d
000003d0: a5bd cbbd c6d6 9cbd a075 1abe d900 c2bc
000003e0: 5510 ebbd b71f 4abe 1dc4 aaba 5343 b2bd
000003f0: 2bd9 903d e79b a9bd 4e54 a5bd 0062 38bd

actor_backbone.0.bias f4 [128]
0.024426777 0.026946431 -0.043484535 -0.004486081 -0.00027026195 -0.023064677 -0.074177794 0.049803052
0.042193986 -0.07676945 -0.009034695 0.024131399 -0.06242263 -0.052998763 -0.024759354 -0.045427807
-0.01992223 0.01338034 -0.048072185 -0.033546045 -0.030676417 0.0064348425 0.22076268 -0.028320132
-0.06063386 -0.011067072 -0.022126457 -0.00074754725 -0.024284665 0.023496501 -0.14845416 0.043414034
-0.030061726 -0.01311845 -0.053213567 -0.00094404025 -0.026437702 -0.18667217 0.021502573 0.009852297
0.107799776 -0.053034127 0.016920319 0.004276395 0.024662264 0.03808647 0.014287672 -0.031157514
0.06302023 -0.057482954 0.0017397983 -0.05928605 0.12674254 0.028742827 0.0434347 -0.07527182
0.009643673 -0.017246531 0.024121668 0.03130444 0.06584058 -0.086573705 0.032787874 -0.07100197
0.0014330901 0.021913124 0.11900826 0.050063867 -0.034914047 0.07093878 0.07060742 0.003615253
0.0007244889 -0.052013513 0.009041487 -0.21883298 0.03447289 -0.0024815635 -0.13147222 0.0027708667
0.0038554515 -0.0131766 0.029811632 0.017817702 0.04378403 -0.03190063 0.04275412 0.0075522605
-0.019739991 0.014593584 0.016162401 -0.04043034 -0.0016018425 0.042500105 0.013105445 0.041406687
-0.13840282 0.05374097 0.0744731 -0.17410216 0.0637436 -0.011093149 -0.123471856 0.020642817
0.05256979 0.11501362 0.009705175 0.07858571 -0.14226365 -0.004981378 0.011184433 -0.061851256
0.03278799 -0.009858046 -0.014664217 -0.051520173 -0.010038899 0.05058917 -0.0008086298 0.11471592
-0.021909328 -0.009664256 0.018272623 -0.0244829 0.05022718 -0.024309417 -0.10618546 0.034662567
00000000: aa1a c83c c3be dc3c d71c 32bd faff 92bb
00000010: f2b1 8db9 22f2 bcbc 87ea 97bd 49fe 4b3d
00000020: 9ad3 2c3d 4d39 9dbd 4206 14bc 36af c53c
00000030: dfae 7fbd 3b15 59bd 21d4 cabc 8212 3abd
00000040: f233 a3bc 3739 5b3c 57e7 44bd 9467 09bd
00000050: 1c4d fbbc 5fdb d23b 9d0f 623e 9fff e7bc
00000060: 365b 78bd aa52 35bc 8b42 b5bc 0cf7 43ba
00000070: a2f0 c6bc bc7b c03c 5e04 18be ead2 313d
00000080: 0244 f6bc c4ee 56bc 78f6 59bd 7879 77ba
00000090: e193 d8bc fd26 3fbe 2a26 b03c 876b 213c
000000a0: 21c6 dc3d 503a 59bd 7b9c 8a3c 0021 8c3b
000000b0: 8408 ca3c 8f00 1c3d d716 6a3c 0b3e ffbc
000000c0: c010 813d 3f73 6bbd f209 e43a eed5 72bd
000000d0: ccc8 013e 1476 eb3c 96e8 313d 1d28 9abd
000000e0: 7f00 1e3c 9948 8dbc ce9a c53c 1639 003d
000000f0: 6dd7 863d 8e4d b1bd 944c 063d 7b69 91bd
00000100: 86d6 bb3a 2783 b33c 9aba f33d c50f 4d3d
00000110: 0802 0fbd 5a48 913d 9f9a 903d e1ed 6c3b
00000120: a1eb 3d3a 1f0c 55bd bf22 143c c115 60be
00000130: 7233 0d3d baa1 22bb a7a0 06be 6e97 353b
00000140: beab 7c3b abe2 57bc 8637 f43c 6ef6 913c
00000150: e256 333d 3caa 02bd f21e 2f3d f478 f73b
00000160: c3b5 a1bc ee19 6f3c 0367 843c 499a 25bd
00000170: eaf4 d1ba 9714 2e3d 38b8 563c 0f9a 293d
00000180: 78b9 0dbe 7e1f 5c3d 5a85 983d d647 32be
00000190: 018c 823d 0ac0 35bc d0de fcbd 201b a93c
000001a0: 6c53 573d 438c eb3d 7402 1f3c 8bf1 a03d
000001b0: 90ad 11be d43a a3bb e93e 373c be57 7dbd
000001c0: b34c 063d a483 21bc 2f42 70bc d106 53bd
000001d0: 327a 24bc 9736 4f3d 3afa 53ba 2ef0 ea3d
000001e0: 317b b3bc d456 1ebc 78b0 953c 5d90 c8bc
000001f0: 04bb 4d3d 8b24 c7bc c377 d9bd 56fa 0d3d

actor_backbone.2.weight f4 [128, 128]
-0.028075397 -0.09449505 -0.2149736 0.19054414 -0.07409639 0.077260435 0.18302302 -0.32397088
0.028210629 0.056511577 -0.24106117 0.0027913875 0.041139312 0.06320617 -0.06733297 -0.22979012
0.1046927 0.017466677 0.07927997 0.1384732 0.092259705 0.2913614 0.020910293 -0.02903629
-0.052593615 -0.058105845 0.19258346 0.09580608 -0.18814626 0.1824996 0.06507371 -0.038629696
0.083721 0.16845961 0.05108497 -0.07380857 0.11799608 0.14238375 0.17226687 -0.08724885
0.096437626 0.23173746 0.23148793 -0.24709977 0.030500496 -0.14722863 -0.05529335 -0.016014209
-0.18380256 0.18785319 0.181498 0.046549443 0.07518363 -0.21389358 -0.18471256 -0.23872167
-0.1718384 -0.023844669 0.040648628 0.1939507 0.083514385 0.07131171 -0.06749438 0.0969654
-0.20918822 0.050986707 -0.013991638 0.03934815 -0.10036746 -0.1665761 0.05658991 -0.024765633
0.08530867 0.14252351 0.18683465 0.26044264 -0.1374435 -0.08235106 0.06146098 0.15511926
-0.08955835 -0.016244132 -0.10654237 -0.12682827 -0.06934061 0.06056129 0.16766006 -0.054176144
0.17607199 0.27629024 0.17992772 0.09862226 0.22107832 -0.2465065 -0.025065994 0.14523928
-0.3726213 -0.10560568 -0.067315355 -0.17681319 -0.21919867 0.12938115 -0.09066379 -0.17133349
-0.10183857 0.030889936 0.07702316 -0.36586615 0.048792474 -0.116331145 0.115334846 0.07660785
0.09073112 0.1408613 0.16903466 0.020186298 0.21964589 -0.17662498 0.08683862 -0.051672734
0.0037201727 0.10683728 0.053743374 0.07003149 -0.14785072 -0.005239938 0.28818446 0.10578167
0.00081047794 -8.4556465e-05 0.077640384 -0.1351483 0.13224533 0.23286378 0.022613967 -0.109223016
0.14761364 0.10233148 -0.08622301 0.1812475 0.37650344 -0.06183736 -0.049554415 -0.30929607
-0.04722354 0.16082546 -0.15970118 0.040046163 -0.1611664 -0.0034702548 -0.07128854 -0.25070566
-0.12845315 -0.19453174 -0.15099101 0.120532356 -0.35255277 0.22970025 -0.15118375 0.11139338
-0.051840406 -0.0355149 0.02536465 -0.018202338 -0.031044152 0.013076307 -0.0732873 -0.19317293
0.03195131 0.27439848 0.04251516 0.0009011067 -0.1458477 0.068009414 0.12608346 0.10570309
0.041497353 0.018877476 0.3048611 -0.058238897 0.09018985 0.010578732 0.0129900165 0.16234425
0.054451462 -0.21644488 0.0016910548 -0.18883795 0.069185935 0.15683961 -0.16372024 -0.10637781
-0.05171323 -0.20679073 -0.16867425 -0.014592589 -0.13482855 -0.09229091 -0.20704177 -0.17001496
-0.22596644 0.11531636 -0.06311492 0.14888869 -0.09455462 -0.17206807 0.113371216 0.07843783
0.14374293 -0.06771372 -0.018058907 -0.1690215 0.0014277953 -0.18918188 -0.08723784 0.17465663
0.07055389 0.08126788 0.01433554 -0.1574061 -0.054046836 -0.17012748 -0.091138296 -0.34754065
-0.1349929 -0.3093308 0.2583216 0.04785553 0.0892036 -0.19459434 0.37891692 0.112398654
-0.021234358 -0.1645819 -0.1853274 -0.12809542 -0.10281209 -0.22923456 0.16801584 -0.030895507
0.003259721 0.09875661 0.013284539 0.025741594 0.27458766 0.053771928 -0.33194315 -0.1109463
0.10836226 0.16497402 0.24295396 -0.060120586 0.028595032 0.19670002 0.07070446 0.07502427
00000000: 60fe e5bc 9f86 c1bd 0a22 5cbe 011e 433e
00000010: d9bf 97bd b83a 9e3d 636a 3b3e 83df a5be
00000020: fa19 e73c af78 673d bdd8 76be b6ef 363b
00000030: b281 283d 3d72 813d dee5 89bd 1a4e 6bbe
00000040: 2069 d63d 4716 8f3c 895d a23d ebcb 0d3e
00000050: a8f2 bc3d 522d 953e 104c ab3c 83dd edbc
00000060: 676c 57bd 6500 6ebd 9934 453e fa35 c43d
00000070: 6aa9 40be 2de1 3a3e 5e45 853d 2c3a 1ebd
00000080: ea75 ab3d ad80 2c3e 793e 513d f328 97bd
00000090: eea7 f13d 0ccd 113e ba66 303e 86af b2bd
000000a0: 1781 c53d 964c 6d3e 2c0b 6d3e b907 7dbe
000000b0: 2ddc f93c 1ac3 16be 487b 62bd 3b30 83bc
000000c0: bd36 3cbe 965c 403e 9dda 393e a1aa 3e3d
000000d0: e0f9 993d eb06 5bbe 4a25 3dbe 7473 74be
000000e0: 68f6 2fbe e555 c3bc 2d7f 263d 039b 463e
000000f0: 9709 ab3d e00b 923d 7e3a 8abd cc95 c63d
00000100: 7035 56be 70d7 503d 2f3d 65bc 872b 213d
00000110: 748d cdbd ed92 2abe d2ca 673d 4ce1 cabc
00000120: 50b6 ae3d aff1 113e 9551 3f3e bd58 853e
00000130: fdbd 0cbe aca7 a8bd 82be 7b3d 95d7 1e3e
00000140: 5e6a b7bd 6a12 85bc e332 dabd 45df 01be
00000150: 7302 8ebd 1d0f 783d 14af 2b3e cee7 5dbd
00000160: 374c 343e ea75 8d3e f93e 383e 78fa c93d
00000170: 5b62 623e 336c 7cbe 3357 cdbc 9bb9 143e
00000180: 38c8 bebe ca47 d8bd a2dc 89bd 840e 35be
00000190: 9e75 60be 7e7c 043e f0ad b9bd 0c72 2fbe
000001a0: bd90 d0bd e40c fd3c 52be 9d3d cf52 bbbe
000001b0: 9eda 473d 063f eebd ad34 ec3d 94e4 9c3d
000001c0: 3dd1 b93d f23d 103e 6c17 2d3e bc5d a53c
000001d0: daea 603e 2edd 34be 72d8 b13d caa6 53bd
000001e0: 24ce 733b 81cd da3d 0322 5c3d ab6c 8f3d
000001f0: 2e66 17be c9b3 abbb ea8c 933e 0fa4 d83d
00000200: 4176 543a e853 b1b8 ec01 9f3d 5164 0abe
00000210: 526b 073e d873 6e3e ed40 b93c 51b0 dfbd
00000220: 0828 173e 2b93 d13d b195 b0bd f298 393e
00000230: 0fc5 c03e 2c49 7dbd 92f9 4abd 0e5c 9ebe
00000240: 786d 41bd 6eaf 243e b588 23be 7207 243d
00000250: ce08 25be 376d 63bb baff 91bd 7e5c 80be
00000260: 3989 03be 5433 47be 639d 1abe abd9 f63d
00000270: cc81 b4be 8b36 6b3e eacf 1abe 3622 e43d
00000280: 9b56 54bd 1278 11bd 87c9 cf3c 121d 95bc
00000290: 4e50 febc 023e 563c a717 96bd 20cf 45be
000002a0: 60df 023d f57d 8c3e 6024 2e3d 3f38 6c3a
000002b0: 1959 15be 8548 8b3d 061c 013e dd7a d83d
000002c0: 21f9 293d f0a4 9a3c c116 9c3e e98b 6ebd
000002d0: 75b5 b83d 6b52 2d3c 14d4 543c 923d 263e
000002e0: 7f08 5f3d baa3 5dbe 62a6 dd3a bc5e 41be
000002f0: 5bb1 8d3d 909a 203e 47a6 27be 9cdc d9bd
00000300: 40d1 53bd f3c0 53be f1b8 2cbe c115 6fbc
00000310: 7f10 0abe 0403 bdbd c202 54be 6718 2ebe
00000320: bf63 67be fc2a ec3d 6542 81bd 4776 183e
00000330: daa5 c1bd 9d32 30be 2b2f e83d 03a4 a03d
00000340: 5931 133e 7ead 8abd 46f0 93bc f913 2dbe
00000350: dc24 bb3a e5b8 41be c1a9 b2bd 30d9 323e
00000360: 8f7e 903d c66f a63d 9ddf 6a3c 112f 21be
00000370: 3760 5dbd e635 2ebe b7a6 babd d9f0 b1be
00000380: 943b 0abe 9b60 9ebe bb42 843e 2904 443d
00000390: 61b0 b63d bd43 47be 6601 c23e 4431 e63d
000003a0: adf3 adbc 2888 28be 77c6 3dbe 722b 03be
000003b0: 258f d2bd 77bc 6abe 580c 2c3e 9318 fdbc
000003c0: 0ba1 553b e840 ca3d 65a7 593c 09e0 d23c
000003d0: c196 8c3e f43f 5c3d 74f4 a9be d037 e3bd
000003e0: 08ed dd3d f3ee 283e ecc8 783e 0141 76bd
000003f0: 2140 ea3c bb6b 493e 80cd 903d 53a6 993d

actor_backbone.2.bias f4 [128]
0.011540687 -0.0625007 -0.00448379 -0.020394111 0.0136808865 0.0075739147 0.053268224 0.00888324
-0.019177128 -0.03878251 0.08578962 0.083125085 0.06776387 0.10619293 -0.094721295 0.022622067
0.02878244 0.039415814 0.028813148 0.0120494645 -0.051456094 0.03080398 -0.032483026 0.035143428
-0.03784164 0.022852942 0.014711297 0.010513867 -0.045345277 0.0022101388 -0.05261351 0.026458232
0.028127132 -0.022831706 -0.006317969 0.058716 -0.0012920811 -0.024151506 0.06920462 -0.04634798
0.003068413 -0.059129838 0.07904766 0.030053804 -0.0030763152 0.006741166 -0.050788805 -0.034763657
-0.0007279806 -0.018726246 0.011645426 0.04967125 0.021327548 -0.01613331 0.023893867 -0.011407745
0.022415504 0.007980965 -0.035627495 0.015491453 0.0200223 -0.0211472 -0.034825265 -0.022762964
-0.045765363 -0.034773637 -0.03758388 0.068830065 -0.023374619 0.006274262 0.01715358 -0.07997941
0.020550031 -0.045466475 0.03917862 0.04253285 0.037242793 0.030195903 0.10264875 -0.06577163
-0.027943578 -0.031194761 -0.0052498914 0.0059209364 0.12996337 0.00019815651 0.039510097 -0.045511592
0.02855951 0.03459491 0.00435876 0.000110114066 -0.07569678 -0.0068809493 0.038587786 -0.0072384067
0.01341674 -0.03553781 -0.047265388 -0.009266054 0.033878285 0.054334745 0.0044166157 -0.007800629
-0.083764784 -0.017481517 0.004208718 0.07446983 0.012966822 -0.037754793 0.041691698 0.0153201595
0.039009262 -0.07377943 -0.02510435 -0.051307663 -0.02125881 -0.0041686627 0.036365017 -0.0781843
0.0010560447 -0.032756902 -0.010851776 -0.08102372 0.10252337 0.0132991485 -0.010000106 -0.003273305
00000000: 2615 3d3c 5e00 80bd c2ec 92bb 8d11 a7bc
00000010: cc25 603c 9a2e f83b c82f 5a3d 028b 113c
00000020: 5a19 9dbc 69da 1ebd 78b2 af3d 7c3d aa3d
00000030: c9c7 8a3d ae7b d93d 3dfd c1bd ea51 b93c
00000040: 27c9 eb3c 7a72 213d 8d09 ec3c 1e6b 453c
00000050: a0c3 52bd a158 fc3c ec0c 05bd 8ef2 0f3d
00000060: d6ff 1abd 1836 bb3c a707 713c 5b42 2c3c
00000070: f8bb 39bd fad7 103b 4481 57bd efbe d83c
00000080: df6a e63c 8f09 bbbc f706 cfbb 3080 703d
00000090: 0c5b a9ba 61d9 c5bc 27bb 8d3d 61d7 3dbd
000000a0: 6d17 493b 2132 72bd bde3 a13d 6533 f63c
000000b0: 019c 49bb 00e5 dc3b ec07 50bd 5664 0ebd
000000c0: f3d5 3eba c967 99bc 75cc 3e3c 1574 4b3d
000000d0: 1cb7 ae3c 012a 84bc 12bd c33c 8de7 3abc
000000e0: b8a0 b73c 98c2 023c 23ee 11bd ddcf 7d3c
000000f0: ce05 a43c e53c adbc f0a4 0ebd 6579 babc
00000100: 7674 3bbd cd6e 0ebd 8ef1 19bd c7f6 8c3d
00000110: 217c bfbc 5398 cd3b aa85 8c3c 3fcc a3bd
00000120: 8a58 a83c 0e3b 3abd c379 203d ed36 2e3d
00000130: e68b 183d 665d f73c 8239 d23d 47b3 86bd
00000140: eee9 e4bc 288c ffbc 4807 acbb 6a04 c23b
00000150: 1e15 053e 3cc8 4f39 57d5 213d 5d6a 3abd
00000160: a2f5 e93c 64b3 0d3d eed3 8e3b 0aed e638
00000170: ea06 9bbd 9679 e1bb 3a0e 1e3d 2830 edbb
00000180: e3d1 5b3c 1890 11bd 5a99 41bd a6d0 17bc
00000190: f5c3 0a3d 1c8e 5e3d 42b9 903b 6b9c ffbb
000001a0: df8c abbd 6635 8fbc 49e9 893b a383 983d
000001b0: cb72 543c c5a4 1abd eac4 2a3d 6801 7b3c
000001c0: 2dc8 1f3d ab19 97bd a3a7 cdbc fc27 52bd
000001d0: f526 aebc 4799 88bb 7cf3 143d 171f a0bd
000001e0: fb6a 8a3a 1a2c 06bd a6cb 31bc c4ef a5bd
000001f0: c6f7 d13d ace4 593c 7cd7 23bc f284 56bb

reward_backbone.0.weight f4 [128, 22]
0.12720296 -0.09946949 0.09303963 0.45297438 -0.019478817 -0.19350137 0.0876213 -0.051213935
0.13232361 -0.2018765 -0.07954822 0.111689985 0.2313227 0.045227412 -0.1317605 0.22921388
-0.0886452 -0.03637982 -0.06294691 -0.07342955 0.37047708 0.25351012 0.21789673 0.064527616
0.06699355 0.14550675 -0.00044821898 0.09184153 -0.06754693 -0.108694226 0.058590915 -0.13049076
0.010932835 -0.25923115 0.24861935 -0.021757983 -0.1062473 -0.12639555 -0.060029056 0.12876342
-0.05335927 -0.23790699 -0.002496594 0.14020066 0.07039875 -0.14201085 -0.16211334 -0.261621
0.06118948 -0.08051826 -0.050248105 0.1212639 -0.21602018 -0.02059209 0.0027005407 -0.10292589
0.19045272 -0.024805412 -0.10969762 0.21158737 -0.008718215 -0.12188878 -0.26286325 -0.1662758
0.001095607 -0.26209056 0.18834569 0.1357431 0.20086752 -0.040755007 0.01366212 0.1791561
-0.045340497 0.03651536 -0.09057063 0.043329395 0.003560342 -0.15749295 -0.030433694 -0.051028024
-0.011496833 0.072529145 -0.033821877 -0.003261917 -0.14499801 -0.23969927 0.11139311 -0.029301684
0.006114102 0.024126582 -0.20589457 -0.0001352504 -0.019120114 -0.011875759 0.07615392 0.101268165
-0.34272632 -0.10706707 -0.16701797 -0.14727134 0.07058094 0.11147957 0.08968327 0.04133982
0.22371434 -0.38831708 0.047693737 -0.25162593 0.21764565 0.0118440725 0.10977449 -0.28562427
0.08622628 0.3100014 0.098490156 0.030789347 0.23659246 0.018929645 -0.0018822299 -0.016755346
-0.017175555 -0.14993459 -0.122134104 0.21053931 0.21414888 0.15539041 0.1450035 -0.021552822
0.12814641 0.22526817 0.30601558 0.14351901 0.11207563 0.10080931 0.13985099 -0.04114197
-0.013039567 -0.14027764 -0.045490958 -0.13637781 0.13692905 0.2194016 0.010671499 -0.026854016
-0.12342727 -0.119971775 0.024295187 0.0532334 -0.024705324 -0.06470338 -0.21657681 0.17430833
0.007299674 -0.17838012 0.059285942 0.2528633 0.03792101 0.006329131 0.016024457 0.042404767
-0.12611099 0.3020346 0.27979958 -0.12693486 0.05457761 -0.07330267 0.16499004 -0.011267129
-0.1639849 -0.16068116 -0.020124564 -0.09738013 -0.058824327 0.015044903 -0.06154749 -0.21708429
0.03581344 0.009236357 -0.14417979 -0.22291338 0.113167144 -0.04634437 -0.018009521 0.025039319
-0.01913936 -0.13212533 -0.128165 -0.11183803 0.20687723 -0.23356478 -0.28374645 -0.10020972
-0.108874045 0.05465182 0.32877177 -0.070919015 -0.17409645 0.24779744 -0.03280569 -0.12993146
-0.37376368 0.30380845 0.11444927 -0.10093041 -0.099967256 -0.14500262 0.018769473 -0.19310518
0.04546557 -0.075209424 -0.16577981 -0.11068667 0.053341743 -0.092944935 -0.014972853 0.026240328
-0.4475612 -0.3054245 -0.065623894 0.010120465 -0.20014936 -0.14770283 0.03572997 0.19064413
0.31770012 -0.016111983 -0.07016449 0.08601729 -0.04788134 -0.08638313 0.03240976 -0.09959726
-0.24076349 0.16816963 0.3057911 0.023653265 0.16371575 -0.050708845 0.027084494 0.23292586
-0.31122744 -0.16618751 0.20837545 0.09092832 -0.3172388 0.09600237 0.02573794 0.07749825
0.11357286 -0.012476916 -0.078975275 -0.09001152 0.14116326 0.10510583 0.13864052 0.013408518
00000000: 7e41 023e a9b6 cbbd 908b be3d 42ec e73e
00000010: 0a92 9fbc 3925 46be cc72 b33d b4c5 51bd
00000020: d77f 073e b7b8 4ebe 2dea a2bd b8bd e43d
00000030: dcdf 6c3e 6140 393d 39ec 06be 0bb7 6a3e
00000040: 9d8b b5bd 0203 15bd 4fea 80bd 3b62 96bd
00000050: 2caf bd3e 14cc 813e 5220 5f3e 0e27 843d
00000060: ea33 893d b9ff 143e effe eab9 6917 bc3d
00000070: 0b56 8abd 149b debd 07fd 6f3d 5f9f 05be
00000080: a21f 333c f2b9 84be 1296 7e3e cc3d b2bc
00000090: 2f98 d9bd d66d 01be 07e1 75bd 8fda 033e
000000a0: 408f 5abd e49d 73be e69d 23bb c390 0f3e
000000b0: 382d 903d 4b6b 11be 0a01 26be 30f3 85be
000000c0: d2a1 7a3d c2e6 a4bd f5d0 4dbd 3559 f83d
000000d0: 6534 5dbe beb0 a8bc 8efb 303b cfca d2bd
000000e0: 0a06 433e b834 cbbc 25a9 e0bd 5caa 583e
000000f0: d8d6 0ebc d3a0 f9bd 0396 86be 3444 2abe
00000100: 789a 8f3a bc30 86be b1dd 403e 3d00 0b3e
00000110: 37b0 4d3e b9ee 26bd 16d7 5f3c b274 373e
00000120: f5b6 39bd 2191 153d 187d b9bd 2a7a 313d
00000130: a054 693b d545 21be 1550 f9bc c302 51bd
00000140: 365d 3cbc 298a 943d cf88 0abd e3c5 55bb
00000150: 5c7a 14be ba73 75be 1222 e43d 160a f0bc
00000160: ce58 c83b 1ca5 c53c 07d6 52be 01d2 0db9
00000170: c9a1 9cbc 8b92 42bc 96f6 9b3d af65 cf3d
00000180: d379 afbe fb45 dbbd c206 2bbe 4cce 16be
00000190: bd8c 903d 674f e43d ddab b73d f153 293d
000001a0: 5f15 653e 7fd1 c6be 825a 433d 1dd5 80be
000001b0: 80de 5e3e a40d 423c 73d1 e03d 583d 92be
000001c0: 6797 b03d 81b8 9e3e 35b5 c93d f139 fc3c
000001d0: 4b45 723e 5812 9b3c 28b5 f6ba 8242 89bc
000001e0: c0b3 8cbc 7488 19be 7221 fabd 9e97 573e
000001f0: d849 5b3e aa1e 1f3e cc7b 143e 8b8f b0bc
00000200: d038 033e b3ac 663e 13ae 9c3e a6f6 123e
00000210: e887 e53d 1d75 ce3d 1935 0f3e 7b84 28bd
00000220: e8a3 55bc f1a4 0fbe ba54 3abd a0a6 0bbe
00000230: 2137 0c3e d0aa 603e 83d7 2e3c f4fc dbbc
00000240: 70c7 fcbd c3b3 f5bd b306 c73c 440b 5a3d
00000250: d262 cabc 3583 84bd 50c6 5dbe e27d 323e
00000260: 1b32 ef3b 47a9 36be d1d5 723d 4c77 813e
00000270: 1053 1b3d 9964 cf3b b945 833c 9fb0 2d3d
00000280: 3d23 01be 47a4 9a3e e441 8f3e 36fb 01be
00000290: c68c 5f3d b61f 96bd 26f3 283e c499 38bc
000002a0: a8eb 27be 9a89 24be 45dc a4bc 3c6f c7bd
000002b0: c7f1 70bd e67e 763c 3919 7cbd 584b 5ebe
000002c0: 1db1 123d 1754 173c dea3 13be 6843 64be
000002d0: 2dc4 e73d 98d3 3dbd b488 93bc 421f cd3c
000002e0: 26ca 9cbc dd4b 07be b03d 03be 560b e5bd
000002f0: a0d7 533e 9b2b 6fbe 3747 91be c13a cdbd
00000300: 5bf9 debd 96da 5f3d c654 a83e fd3d 91bd
00000310: 5746 32be 9dbe 7d3e 425f 06bd c10c 05be
00000320: f45d bfbe c88c 9b3e 6164 ea3d 9ab4 cebd
00000330: a2bb ccbd 917b 14be 70c2 993c 5dbd 45be
00000340: 1b3a 3a3d 6607 9abd 2fc2 29be b1af e2bd
00000350: df7c 5a3d ea59 bebd b250 75bc f5f5 d63c
00000360: be26 e5be 9a60 9cbe d265 86bd 4fd0 253c
00000370: f4f3 4cbe 693f 17be 9759 123d 3738 433e
00000380: 97a9 a23e 47fd 83bc 66b2 8fbd d529 b03d
00000390: 391f 44bd a3e9 b0bd 19c0 043d a6f9 cbbd
000003a0: b48a 76be a934 2c3e a790 9c3e 7ec4 c13c
000003b0: 1aa5 273e 14b4 4fbd 4de0 dd3c 1e84 6e3e
000003c0: 3459 9fbe 0f2d 2abe 6060 553e a138 ba3d
000003d0: 206d a2be e49c c43d 5fd8 d23c 67b7 9e3d
000003e0: e398 e83d fb6b 4cbc cabd a1bd f657 b8bd
000003f0: 1a8d 103e ba41 d73d c8f7 0d3e 67af 5b3c

reward_backbone.0.bias f4 [128]
-0.26620036 -0.3071589 0.3298764 -0.3429171 0.36004105 0.22956063 -0.31959525 -0.28059205
-0.11439155 0.36612245 -0.22094621 -0.35784855 -0.1911566 0.3818783 0.20573503 0.21562028
0.33143964 -0.28484502 0.3235478 0.39198443 -0.4068069 0.02821697 0.37112457 -0.26751325
-0.27236235 -0.36050493 -0.3091535 -0.30398545 0.43488097 -0.31612286 -0.2908959 0.04882601
-0.2869597 -0.21379513 0.34114888 0.04677564 0.3468807 -0.322236 -0.31535742 -0.29989663
-0.42984334 0.33965865 0.41205814 0.31777743 0.28048062 0.341967 0.3432903 -0.38706365
0.522685 0.39254937 -0.28939924 0.008548649 0.3513466 -0.32523307 -0.3730448 0.36046422
0.012020223 0.32279935 -0.29935288 0.29223177 0.30619138 0.21814644 0.36845705 -0.3076952
0.46081254 -0.3532287 -0.304041 0.33561873 -0.37307966 0.3144787 0.36946708 -0.23467322
-0.3317341 -0.32809424 -0.27008414 -0.38926628 0.30509895 -0.37480325 -0.43087628 -0.32659605
0.2769082 -0.36274785 0.33800563 -0.29288906 0.2847911 0.49137264 0.28410918 -0.33410898
0.3515552 -0.36282012 0.2570702 0.26896477 0.31199214 -0.27528438 -0.27567714 -0.40729272
-0.44556057 -0.25974923 0.35002854 -0.2884539 -0.30317202 -0.033934478 -0.24205668 0.29446405
-0.28793684 0.31599757 0.25703165 -0.029617347 -0.1626988 -0.36336556 -0.3216131 0.2484617
0.3612312 -0.00084321306 -0.3938879 0.29291537 0.31896624 0.30045554 0.35058996 0.3665478
-0.3406534 -0.2929539 -0.3190715 0.3085936 0.19666527 0.28334227 0.39556783 0.28444126
00000000: 6a4b 88be ee43 9dbe 8fe5 a83e d592 afbe
00000010: 4d57 b83e f111 6b3e fda1 a3be c3a9 8fbe
00000020: 1e46 eabd 6774 bb3e b93f 62be ed37 b7be
00000030: 8ebe 43be 8d85 c33e 34ac 523e 90cb 5c3e
00000040: 75b2 a93e 35d7 91be 0fa8 a53e 2fb2 c83e
00000050: fe48 d0be 4627 e73c 0a04 be3e 7ff7 88be
00000060: 1473 8bbe 1a94 b8be 5e49 9ebe fba3 9bbe
00000070: b8a8 de3e dbda a1be 4ff0 94be c8fd 473d
00000080: 62ec 92be 1ced 5abe 11ab ae3e d097 3f3d
00000090: 599a b13e 1efc a4be 8776 a1be 0d8c 99be
000000a0: 6d14 dcbe bde7 ad3e 49f9 d23e b9b3 a23e
000000b0: 289b 8f3e 4c16 af3e bfc3 af3e 352d c6be
000000c0: afce 053f 3bfc c83e 232c 94be a20f 0c3c
000000d0: b4e3 b33e f384 a6be baff bebe c48e b83e
000000e0: 78f0 443c f545 a53e c844 99be 679f 953e
000000f0: 1ec5 9c3e c861 5f3e 67a6 bc3e 3a8a 9dbe
00000100: 9fef eb3e 64da b4be 43ab 9bbe 38d6 ab3e
00000110: 4c04 bfbe 5a03 a13e ca2a bd3e 2d4e 70be
00000120: 0dd9 a9be f8fb a7be 7848 8abe e94d c7be
00000130: ee35 9c3e 36e6 bfbe d19b dcbe 9937 a7be
00000140: e9c6 8d3e 16ba b9be 130f ad3e 8ef5 95be
00000150: 24d0 913e 3295 fb3e c276 913e 5510 abbe
00000160: 0bff b33e 8fc3 b9be b59e 833e c0b5 893e
00000170: 6fbd 9f3e 13f2 8cbe 8e25 8dbe ac88 d0be
00000180: 8420 e4be dafd 84be f136 b33e 3bb0 93be
00000190: 5d39 9bbe e1fe 0abd b5dd 77be fec3 963e
000001a0: 756c 93be 6fca a13e a799 833e 14a0 f2bc
000001b0: 849a 26be 0d0b babe 79aa a4be be6c 7e3e
000001c0: 4cf3 b83e 120b 5dba adab c9be 01f9 953e
000001d0: 8b4f a33e 4fd5 993e 8780 b33e 27ac bb3e
000001e0: 1f6a aebe 0efe 95be 575d a3be fbff 9d3e
000001f0: 9f62 493e 3d12 913e de87 ca3e 49a2 913e

reward_backbone.2.weight f4 [128, 128]
-0.042816065 -0.089700244 0.15849452 0.007541731 -0.20419873 0.04928277 0.08374506 0.19443622
0.020376027 -0.065168604 0.1242244 -0.034008324 0.10596235 -0.47957963 0.11849825 0.20954768
-0.27772236 0.46556586 0.0412187 -0.094426416 0.09639387 -0.075763054 0.24470098 -0.11643797
0.20648725 -0.09578816 -0.14966618 0.15096022 -0.16400728 -0.009460864 0.09554906 -0.06560991
0.07539563 0.14632024 -0.04927668 -0.15428896 0.11870822 0.19896856 0.24003924 -0.10275825
-0.207882 0.09039571 0.10711448 -0.24827114 0.0012353291 -0.1488513 -0.44894275 0.01324292
-0.025754262 -0.21238932 0.16226701 0.05305077 -0.042390477 -0.00022130823 0.275987 0.18707238
-0.1247893 -0.4523938 0.018194336 -0.2335025 -0.012495156 -0.09969467 -0.30623052 0.092731476
-0.13338734 -0.08212184 -0.28414887 -0.41958505 -0.04226158 -0.16696377 -0.289919 -0.067241386
0.32309374 0.16886318 0.5386888 -0.157 -0.08381691 -0.20130005 0.10326806 0.069225706
0.076496124 0.1937827 0.22913139 0.2940986 -0.07882395 -0.18227756 -0.313634 0.02112427
0.11506253 0.23370802 -0.101504795 -0.036509205 -0.0528304 0.08273242 0.33827603 0.019801613
0.11087838 0.13301118 0.010488692 0.043420903 0.105134495 -0.17912221 0.257577 0.0038715214
0.18752019 -0.14420502 -0.023822205 0.012493861 0.019969571 0.10726489 0.087491624 -0.12612991
-0.13205674 -0.15875387 0.20043123 0.12014458 -0.19474411 -0.14462614 -0.13404556 0.2429472
0.039427362 0.12254073 0.018835248 -0.06923573 -0.0766839 0.10959194 -0.26428398 -0.26179582
-0.21417645 -0.18047743 0.3034009 -0.15405549 0.22038577 -0.0023208167 -0.18200436 0.036289155
0.18634339 0.0913543 -0.1850166 -0.18519147 0.028338611 0.17047472 -0.1772083 0.09543834
0.08657562 0.12935512 0.3481372 0.25901857 -0.3209264 0.23459454 0.052750897 -0.05338866
-0.24209347 -0.15924639 -0.38390478 -0.045804277 0.10476781 0.048526816 -0.17354193 0.2649055
-0.35373268 0.12180288 -0.04957259 0.06118457 0.14028604 -0.25056157 0.030697798 0.25307965
-0.07156188 -0.037128557 -0.095745906 0.08861214 0.26923904 0.26170623 0.08478782 -0.104385935
0.31947127 -0.006698023 -0.034385636 -0.12412151 0.21691506 -0.23075056 -0.2509425 0.13144256
0.11787488 0.14936621 -0.25030175 0.1365666 0.27885202 0.15432324 0.13348667 0.03885836
0.09882641 -0.18062374 0.09091368 0.17811854 0.049170952 0.24325953 -0.13975114 -0.0691582
-0.2916799 -0.041925702 -0.065488376 -0.269553 0.0020584501 -0.08120255 -0.036606826 -0.115569845
0.17339514 0.035778835 -0.022201778 0.07960175 0.2587621 0.21572275 0.07014015 -0.17123176
0.25840175 -0.22133973 -0.092182346 0.196527 0.1491503 -0.030518912 -0.11576247 -0.063654594
-0.22842865 -0.29383054 0.20080298 -0.043490957 -0.2705106 -0.08053003 -0.008011651 0.094016984
-0.027239613 0.111392476 -0.103951804 0.08056815 -0.073996656 0.12223468 -0.27380192 0.24453421
0.2699511 0.16856764 -0.0141967805 0.050431166 0.062402915 0.20840777 0.408398 0.3598285
-0.16129658 -0.0022533888 -0.06266406 0.13446543 -0.03223119 0.1527624 0.09367114 0.2865233
00000000: e65f 2fbd c3b4 b7bd 634c 223e a020 f73b
00000010: 7919 51be bbdc 493d 8882 ab3d 4a1a 473e
00000020: a0eb a63c 1e77 85bd 5d69 fe3d 504c 0bbd
00000030: ca02 d93d 768b f5be 36af f23d ab93 563e
00000040: a031 8ebe a65e ee3e f1d4 283d a362 c1bd
00000050: 266a c53d a929 9bbd e592 7a3e 0877 eebd
00000060: 6571 533e 952c c4bd 1742 19be 5195 1a3e
00000070: 86f1 27be bd01 1bbc 3aaf c33d 7d5e 86bd
00000080: 0669 9a3d f9d4 153e 58d6 49bd edfd 1dbe
00000090: 4c1d f33d 6abe 4b3e d9cc 753e eb72 d2bd
000000a0: 05df 54be 6321 b93d d65e db3d ca3a 7ebe
000000b0: c4ea a13a 7a6c 18be d3db e5be d5f8 583c
000000c0: 9afa d2bc 967c 59be 5329 263e c44b 593d
000000d0: a3a1 2dbd fa0e 68b9 2b4e 8d3e e78f 3f3e
000000e0: 8891 ffbd 29a0 e7be 4a0c 953c 481b 6fbe
000000f0: 7cb8 4cbc b82c ccbd 3fca 9cbe 00ea bd3d
00000100: b196 08be 7f2f a8bd f67b 91be dad3 d6be
00000110: 7a1a 2dbd 8df8 2abe 4370 94be dab5 89bd
00000120: 8b6c a53e 78ea 2c3e 82e7 093f 9cc4 20be
00000130: 33a8 abbd 9a21 4ebe 347e d33d 35c6 8d3d
00000140: 00aa 9c3d f96e 463e 6ba1 6a3e 1794 963e
00000150: 736e a1bd f8a6 3abe a394 a0be ce0c ad3c
00000160: e7a5 eb3d 2851 6f3e bfe1 cfbd ad8a 15bd
00000170: b164 58bd 9d6f a93d 8432 ad3e fe36 a23c
00000180: 3414 e33d 1534 083e c3d8 2b3c 1eda 313d
00000190: c150 d73d d06b 37be 22e1 833e 5ab9 7d3b
000001a0: 4b05 403e 7baa 13be c926 c3bc 0db3 4c3c
000001b0: 3a97 a33c b2ad db3d cf2e b33d 3328 01be
000001c0: e239 07be 6090 22be d83d 4d3e 5d0e f63d
000001d0: 006b 47be e018 14be 3d43 09be 27c7 783e
000001e0: 967e 213d a2f6 fa3d 614c 9a3c 76cb 8dbd
000001f0: 730c 9dbd bd71 e03d 3b50 87be 1a0a 86be
00000200: 1251 5bbe 13cf 38be 5d57 9b3e b9c0 1dbe
00000210: cfac 613e d818 18bb 5a5f 3abe f0a3 143d
00000220: cdd0 3e3e f717 bb3d fe74 3dbe d5a2 3dbe
00000230: 6026 e83c ed90 2e3e 1876 35be 2d75 c33d
00000240: 8f4e b13d ab75 043e 0a3f b23e 159e 843e
00000250: 7750 a4be 8d39 703e 5311 583d 11ae 5abd
00000260: 5ae7 77be 7c11 23be 2b8f c4be 449d 3bbd
00000270: 8190 d63d 0ec4 463d fab4 31be b2a1 873e
00000280: 731c b5be ca73 f93d a10c 4bbd ac9c 7a3d
00000290: 25a7 0f3e 9b49 80be f379 fb3c a893 813e
000002a0: 098f 92bd 1d14 18bd 6e16 c4bd 487a b53d
000002b0: b3d9 893e 5cfe 853e 3da5 ad3d 4bc8 d5bd
000002c0: bd91 a33e 177b dbbb f4d7 0cbd 6b33 febd
000002d0: fb1e 5e3e e049 6cbe 897b 80be e198 063e
000002e0: 6368 f13d 75f3 183e 8d27 80be 1dd8 0b3e
000002f0: b1c5 8e3e e906 1e3e bbb0 083e f229 1f3d
00000300: 8065 ca3d 6ef5 38be f430 ba3d b564 363e
00000310: 7b67 493d 0719 793e ec1a 0fbe d0a2 8dbd
00000320: 1157 95be 49ba 2bbd c51e 86bd da02 8abe
00000330: 10e7 063b 864d a6bd 0af1 15bd e2af ecbd
00000340: 7f8e 313e d48c 123d 81e0 b5bc 3e06 a33d
00000350: 777c 843e 6de6 5c3e a4a5 8f3d 6157 2fbe
00000360: 3c4d 843e e2a6 62be 19ca bcbd 603e 493e
00000370: dbba 183e cc02 fabc e014 edbd 575d 82bd
00000380: 33e9 69be f570 96be 4c9f 4d3e 9323 32bd
00000390: 5e80 8abe eeec a4bd 4d43 03bc fa8b c03d
000003a0: 9c25 dfbc bd21 e43d afe4 d4bd ea00 a53d
000003b0: 8f8b 97bd 2d56 fa3d c42f 8cbe 2d67 7a3e
000003c0: 0837 8a3e ff9c 2c3e 9d99 68bc e990 4e3d
000003d0: 339a 7f3d d968 553e 8b19 d13e 713b b83e
000003e0: ee2a 25be 97ad 13bb 0456 80bd 4eb1 093e
000003f0: da04 04bd bf6d 1c3e a8d6 bf3d 2fb3 923e

reward_backbone.2.bias f4 [128]
-0.21344408 0.2865894 0.19797146 0.25625882 0.30327797 -0.12576284 0.12271786 0.35740715
-0.16159809 0.13492438 -0.2979737 -0.06389161 0.3170729 0.28775123 0.31544116 0.20697607
-0.22545856 0.19194336 0.21546115 -0.25973076 0.3098134 -0.25131366 0.13779667 0.27509528
0.19617559 -0.24507125 -0.1749522 -0.07378218 0.20348217 0.016617792 0.2534746 -0.27833775
-0.30324277 -0.3595237 -0.30871123 -0.2919988 0.21604148 -0.249138 -0.26993454 -0.23664136
0.27212217 0.21209675 0.3138588 -0.431335 -0.22195314 0.30681345 0.2897261 -0.23357797
0.2121071 -0.27405766 0.33980805 -0.23316117 -0.3132691 -0.29788995 0.32467094 0.30622822
-0.18812741 -0.195072 0.27460152 -0.24628745 0.26662904 0.3921373 -0.2766853 0.2422963
0.2632145 -0.24079454 -0.2766148 0.27294737 -0.285167 -0.38247794 0.300415 -0.095103696
-0.35260794 -0.25783643 0.28516808 -0.21245287 -0.24855065 -0.25788373 0.1838351 -0.2739344
-0.31955308 0.31062958 -0.27491462 0.22142977 0.1231624 -0.31750405 -0.17992048 0.28676844
-0.24543808 0.2831829 0.26852438 0.040380545 0.29788968 -0.3321962 0.2847976 0.23531552
-0.24338123 0.34295094 -0.20807804 0.28080174 -0.26051387 0.2574507 -0.21300621 0.32427454
0.309971 0.33975697 0.2941081 -0.30678427 0.26574165 -0.15612012 0.29356572 0.25365984
0.27117828 -0.24115221 -0.23239668 0.20758064 0.095778495 -0.35863167 0.28843924 0.3136719
-0.046035986 0.25763088 -0.24505322 0.28288877 0.28187984 -0.26768398 0.33177292 -0.19001557
00000000: 1691 5abe d9bb 923e 08b9 4a3e 5b34 833e
00000010: 4047 9b3e f9c7 00be 8053 fb3d 12fe b63e
00000020: f879 25be 9e29 0a3e 0290 98be 9bd9 82bd
00000030: 6157 a23e 2154 933e 8181 a13e 89f1 533e
00000040: 9cde 66be cd8c 443e d9a1 5c3e 6efb 84be
00000050: dd9f 9e3e 2fac 80be 921a 0d3e 4ad9 8c3e
00000060: 41e2 483e f5f3 7abe ab26 33be 1d1b 97bd
00000070: a15d 503e 0922 883c 6cc7 813e 4982 8ebe
00000080: a342 9bbe 7e13 b8be 660f 9ebe de80 95be
00000090: fa39 5d3e 081e 7fbe dc34 8abe 1d52 72be
000000a0: 9953 8b3e e42f 593e 1ab2 a03e f1d7 dcbe
000000b0: af47 63be a716 9d3e fb56 943e 102f 6fbe
000000c0: 9b32 593e 4951 8cbe 52fb ad3e cdc1 6ebe
000000d0: cf64 a0be 0885 98be 453b a63e f2c9 9c3e
000000e0: 79a4 40be f4c0 47be 9298 8c3e c732 7cbe
000000f0: 9a83 883e 38c6 c83e b2a9 8dbe 851c 783e
00000100: 0dc4 863e d892 76be 74a0 8dbe c2bf 8b3e
00000110: 6901 92be 26d4 c3be ffcf 993e bac5 c2bd
00000120: 0789 b4be 2303 84be 8d01 923e 3f8d 59be
00000130: 1084 7ebe 5609 84be 453f 3c3e 2141 8cbe
00000140: 769c a3be d70a 9f3e 9cc1 8cbe 7cbe 623e
00000150: 923c fc3d e48f a2be 133d 38be 50d3 923e
00000160: 1f54 7bbe 59fd 903e 077c 893e 1266 253d
00000170: ff84 983e 9f15 aabe fed0 913e 8df6 703e
00000180: ee38 79be 4497 af3e 6912 55be 3fc5 8f3e
00000190: 1362 85be 94d0 833e 4d1e 5abe 5007 a63e
000001a0: 85b4 9e3e a0f4 ad3e 5695 963e d412 9dbe
000001b0: 4a0f 883e f4dd 1fbe 3f4e 963e b4df 813e
000001c0: e1d7 8a3e 9bf0 76be 65f9 6dbe 0590 543e
000001d0: 8427 c43d 929e b7be 4fae 933e 9a99 a03e
000001e0: 3b90 3cbd 32e8 833e 3bef 7abe ccd6 903e
000001f0: 8e52 903e e00d 89be 24de a93e 7193 42be

cost_backbone.0.weight f4 [128, 22]
0.0743545 0.10481766 -0.043728713 0.2703925 0.11963208 0.15946616 0.17690754 -0.09953023
-0.035059698 0.13307497 -0.2580798 0.115800776 -0.033591244 0.10534313 -0.012181503 -0.033622414
0.014098686 0.014926583 0.07337203 0.03322879 0.08376803 0.09798993 0.16559273 0.028041031
0.0045816386 0.009320113 -0.04277601 -0.100166604 0.0036537023 0.06071251 -0.03081393 0.13354613
-0.27419415 -0.012756726 0.19661537 -0.084749036 -0.0054380535 0.057029404 0.017308438 -0.0002905585
0.060945135 -0.045530397 0.08752086 0.15565507 0.100832805 -0.06654884 -0.02843809 -0.26635072
-0.020250771 -0.033070937 0.019189132 -0.16653576 -0.07634389 0.051352274 -0.13379921 0.004121627
-0.014782414 0.1608948 0.014513583 0.09199665 -0.03841124 0.041749936 0.023911262 -0.13898605
0.07096089 0.23831904 0.12890248 -0.009037117 -0.00018563791 -0.11248677 0.14993419 -0.17772618
-0.09321066 0.09569292 -0.0732938 -0.32002795 0.12997013 -0.016680265 0.015995882 0.024488661
-0.19920771 -0.43093362 0.02033812 0.10882229 0.020407662 -0.04140294 -0.08720511 0.10370712
0.16644216 -0.03860695 -0.14562757 -0.1974527 0.03876883 0.06972958 0.13977335 -0.19403481
-0.13016374 0.10658677 -0.09313287 -0.2131666 0.060224704 0.094259255 -0.049432877 0.097121745
-0.07411322 0.15711634 0.28794184 -0.08864842 -0.06399033 0.074814506 -0.027840234 -0.082109414
0.08886721 0.14439517 0.0072166612 -0.030229712 0.022382326 0.19863339 -0.001747552 -0.047359623
-0.035734326 -0.07627456 -0.16770333 0.074292496 0.054826915 -0.07505056 -0.042547505 0.27288166
0.003933411 0.1024409 -0.14297199 0.13408823 -0.11313656 -0.21951637 -0.030214334 -0.019966561
-0.057715766 -0.0056202714 -0.06973495 0.05720974 0.0068360353 -0.06319697 -0.053428132 0.0608517
-0.010678244 0.09551202 0.13460091 -0.067520425 -0.029898345 0.041594602 -0.11325299 -0.119802274
0.08832336 -0.2352156 0.11488183 -0.1160693 -0.04635006 -0.020287333 -0.01524958 -0.19812335
-0.1301454 -0.09996703 0.034851104 -0.08648555 -0.020913633 -0.32966292 0.029420692 0.14567645
0.053955033 -0.044830147 0.06490973 0.02678905 -0.009037381 -0.008415466 -0.11108981 -0.31061336
-0.007671297 -0.14060378 0.10510992 -0.16640845 0.13344544 -0.21669026 -0.16308062 0.06054143
0.061028123 0.15157938 0.08506937 0.19990396 -0.02295142 -0.0328625 -0.06600327 0.003541647
0.031338844 -0.055613898 0.081784636 0.13742797 -0.13219523 -0.13471788 -0.076278836 0.012667646
0.03608149 0.22840264 -0.12122375 0.014664773 -0.28186354 0.11627489 -0.029200384 -0.03862368
0.07665765 -0.0027673692 -0.25443068 -0.01442188 -0.021757439 -0.21340118 -0.008736685 -0.107060835
0.035941683 0.13190597 -0.09944678 -0.2574104 -0.026779372 -0.087698124 -0.05434967 -0.07160362
-0.30086407 -0.08248459 0.07799209 0.052134153 0.025875216 0.008537132 -0.14015688 0.095591225
0.06307097 -0.13518694 -0.16716093 0.07367986 0.0681654 0.36830044 0.2173511 -0.06330775
0.1139488 0.038979597 -0.03353749 -0.047192287 0.13243672 -0.1066889 0.117677 0.09678001
0.0509095 -0.016129186 0.054066025 0.094617896 -0.015448909 -0.083792694 0.0008343495 0.14751515
00000000: 2c47 983d a4aa d63d e11c 33bd e370 8a3e
00000010: aa01 f53d 194b 233e 4027 353e 81d6 cbbd
00000020: c29a 0fbd ce44 083e 0923 84be f528 ed3d
00000030: f996 09bd 24be d73d ed94 47bc a8b7 09bd
00000040: 2dfe 663c a08e 743c 1344 963d e91a 083d
00000050: 938e ab3d f2ae c83d 2491 293e 4eb6 e53c
00000060: 9221 963b 63b3 183c e635 2fbd 2624 cdbd
00000070: f472 6f3b aead 783d 7f6d fcbc 51c0 083e
00000080: 2d63 8cbe 9601 51bc 8a55 493e e790 adbd
00000090: b331 b2bb aa97 693d 6dca 8d3c 1a56 98b9
000000a0: 9ba1 793d 157e 3abd 233e b33d 0b64 1f3e
000000b0: 6e81 ce3d c24a 88bd fff6 e8bc 1f5f 88be
000000c0: f2e4 a5bc 6475 07bd 8732 9d3c 5a88 2abe
000000d0: 2f5a 9cbd c356 523d a902 09be b70e 873b
000000e0: f031 72bc 9bc1 243e 61ca 6d3c bd68 bc3d
000000f0: 1b55 1dbd fb01 2b3d 8de1 c33c 5c52 0ebe
00000100: f153 913d e809 743e 03ff 033e 6a10 14bc
00000110: cca7 42b9 775f e6bd 5988 193e dafd 35be
00000120: 3be5 bebd a6fa c33d 0f1b 96bd b4da a3be
00000130: e416 053e 0da5 88bc cc09 833c 729c c83c
00000140: 1bfd 4bbe 55a3 dcbe 219c a63c 39de de3d
00000150: f82d a73c 2196 29bd 9898 b2bd 6664 d43d
00000160: d06f 2a3e 5222 1ebd 651f 15be 0a31 4abe
00000170: 11cc 1e3d 62ce 8e3d bf20 0f3e 10b1 46be
00000180: a549 05be 2a4a da3d 72bc bebd 5848 5abe
00000190: 2eae 763d ff0a c13d 217a 4abd c4e7 c63d
000001a0: acc8 97bd 1be3 203e 1d6d 933e 4e8d b5bd
000001b0: 5d0d 83bd 5938 993d 3411 e4bc fb28 a8bd
000001c0: 0300 b63d 54dc 133e be79 ec3b 4da4 f7bc
000001d0: 245b b73c 8d66 4b3e 1d0e e5ba 2afc 41bd
000001e0: 285e 12bd d635 9cbd 6cba 2bbe aa26 983d
000001f0: 3092 603d 1cb4 99bd 4b46 2ebd 25b7 8b3e
00000200: d8e3 803b 89cc d13d 4067 12be 6d4e 093e
00000210: 24b4 e7bd e6c8 60be 0d84 f7bc ea90 a3bc
00000220: 5e67 6cbd 412a b8bb 33d1 8ebd c354 6a3d
00000230: d200 e03b 6a6d 81bd 75d7 5abd a23f 793d
00000240: cdf3 2ebc ce9b c33d d2d4 093e 2648 8abd
00000250: 60ed f4bc 1a5f 2a3d 2ff1 e7bd e55a f5bd
00000260: e1e2 b43d 5cdc 70be 2a47 eb3d beb5 edbd
00000270: 8fd9 3dbd 9f31 a6bc 60d9 79bc d9e0 4abe
00000280: d644 05be 84bb ccbd 08c0 0e3d 561f b1bd
00000290: 1153 abbc 94c9 a8be aa03 f13c 352c 153e
000002a0: f4ff 5c3d d19f 37bd 64ef 843d b674 db3c
000002b0: 8611 14bc 06e1 09bc 0e83 e3bd b708 9fbe
000002c0: 815f fbbb 70fa 0fbe df43 d73d fa66 2abe
000002d0: eca5 083e 0de4 5dbe 9bfe 26be 4afa 773d
000002e0: a0f8 793d a037 1b3e da38 ae3d a0b3 4c3e
000002f0: 9e04 bcbc d49a 06bd b92c 87bd fa1a 683b
00000300: 295d 003d 66cb 63bd b47e a73d ebb9 0c3e
00000310: 305e 07be 7cf3 09be 1438 9cbd f58b 4f3c
00000320: 2fca 133d 62e2 693e 2844 f8bd 8444 703c
00000330: 6b50 90be 8821 ee3d a535 efbc dd33 1ebd
00000340: b0fe 9c3d c05c 35bb bd44 82be c049 6cbc
00000350: a83c b2bc d785 5abe 5024 0fbc b642 dbbd
00000360: 9637 133d 5c12 073e c1aa cbbd 4ccb 83be
00000370: 6a60 dbbc 139b b3bd c29d 5ebd eba4 92bd
00000380: db0a 9abe aeed a8bd 51ba 9f3d 9f8a 553d
00000390: 43f8 d33c 54df 0b3c 4985 0fbe 55c5 c33d
000003a0: 5a2b 813d 726e 0abe 3c2c 2bbe 77e5 963d
000003b0: 4d9a 8b3d e091 bc3e 4991 5e3e 7ea7 81bd
000003c0: fd5d e93d 12a9 1f3d 9b5e 09bd b34c 41bd
000003d0: 7e9d 073e b67f dabd a400 f13d 9934 c63d
000003e0: 7b86 503d 5b21 84bc 5674 5d3d 07c7 c13d
000003f0: 6c1d 7dbc 819b abbd 3fb8 5a3a 360e 173e

cost_backbone.0.bias f4 [128]
0.02468343 0.105204664 -0.075638525 -0.0097552985 0.014051571 0.02875148 0.08517268 0.006159482
-0.012460809 0.07157936 -0.0072858892 0.023995057 0.052074976 -0.0034237797 0.03950081 0.02147072
-0.06466326 0.056179978 -0.04434988 -0.04605236 0.031642627 0.012457112 0.033076834 -0.028650261
0.031491913 0.08181582 -0.012016521 0.05489269 0.013510667 0.0784281 0.03992408 -0.024986397
-0.03488935 -0.059127588 -0.017847704 0.025446605 0.049407795 -0.00709582 -0.03687545 -0.069653064
0.12201399 -0.087971255 -0.0037403435 0.08300111 0.12865576 0.028488792 -0.012801301 0.03641127
0.025309687 -0.067682125 -0.072439045 -0.008769926 -0.016432427 -0.09556106 0.13702981 -0.14824726
-0.03472956 -0.00058136624 -0.14818987 0.06471174 -0.01555493 0.16981499 0.01008339 0.0065684454
0.09361138 0.07690848 -0.015505699 0.01290321 0.15651478 -0.008961343 -0.018072804 0.17677176
0.083177865 0.007128045 -0.082819045 0.0040975185 0.08467287 -0.014832919 -0.011795075 0.10066107
-0.031612672 -0.05952832 0.09149201 0.087472774 0.022226864 0.04323031 -0.1552297 0.09261654
0.04778766 0.04994183 -0.053309448 0.00516378 0.05182072 -0.080033116 -0.08284722 -0.0538475
0.062610716 -0.12741515 0.047081027 0.08591995 0.055079255 0.039623924 -0.070751175 0.06316515
0.08793 0.019581135 0.0658913 0.067061804 0.07899314 -0.12959607 -0.2175696 0.0338198
-0.021233955 0.050854824 0.036184534 -0.027966412 -0.040275544 -0.12086126 0.1259157 -0.016641779
0.0140444245 0.10369565 0.00950719 0.034228526 -0.023910424 0.06296028 0.03002185 0.05243664
00000000: e834 ca3c 8b75 d73d 5fe8 9abd b0d4 1fbc
00000010: 8f38 663c 3988 eb3c 046f ae3d 7bd5 c93b
00000020: 6c28 4cbc 3398 923d 78be eebb 4891 c43c
00000030: 924c 553d 7e61 60bb 9acb 213d 5de3 af3c
00000040: 2c6e 84bd fa1c 663d 38a8 35bd 66a1 3cbd
00000050: b39b 013d ea18 4c3c 937b 073d f4b3 eabc
00000060: aafd 003d 0d8f a73d f1e0 44bc 28d7 603d
00000070: d85b 5d3c e99e a03d 6f87 233d 46b0 ccbc
00000080: 23e8 0ebd c52f 72bd 5935 92bc 6675 d03c
00000090: d45f 4a3d 0d84 e8bb b60a 17bd 44a6 8ebd
000000a0: 79e2 f93d 462a b4bd 8d20 75bb 7cfc a93d
000000b0: 56be 033e 5461 e93c 8cbc 51bc fc23 153d
000000c0: 4356 cf3c ed9c 8abd ec5a 94bd bcaf 0fbc
000000d0: 4c9d 86bc 84b5 c3bd 8b51 0c3e 21ce 17be
000000e0: 9540 0ebd d466 18ba 16bf 17be 9787 843d
000000f0: 1bda 7ebc fbe3 2d3e ce34 253c 1d3c d73b
00000100: 53b7 bf3d 3182 9d3d 9e0b 7ebc fc67 533c
00000110: 6945 203e 99d2 12bc 6b0d 94bc a803 353e
00000120: 2859 aa3d 6092 e93b 089d a9bd 7a44 863b
00000130: f868 ad3d c605 73bc 2140 41bc 6427 ce3d
00000140: 4a7c 01bd f8d3 73bd 2a60 bb3d ed24 b33d
00000150: 1d15 b63c 4412 313d 89f4 1ebe bead bd3d
00000160: febc 433d ce8f 4c3d 025b 5abd ed34 a93b
00000170: f741 543d 67e8 a3bd ceab a9bd 328f 5cbd
00000180: 0c3a 803d 1e79 02be 09d8 403d ccf6 af3d
00000190: c99a 613d b24c 223d fee5 90bd bb5c 813d
000001a0: a514 b43d 9e68 a03c 05f2 863d b357 893d
000001b0: 28c7 a13d d5b4 04be 91ca 5ebe a186 0a3d
000001c0: d5f2 adbc 264d 503d 3c36 143d d119 e5bc
000001d0: f8f7 24bd 1c86 f7bd 0cf0 003e 5754 88bc
000001e0: 961a 663c 635e d43d 0cc4 1b3c 3633 0c3d
000001f0: cbdf c3bc 52f1 803d 62f0 f53c cdc7 563d
