sweep_L_then_E_20260115_133839/S1_E1p35_L0p190_T200_v2/best_feasible.pt (torch, 809143 bytes, 51 tensors)

actor_backbone.0.weight f4 [128, 38]
0	0x3e60e24a	0.21961322
1	0x3da566a7	0.0807622
2	0xbdea76da	-0.114484504
3	0xbe09987c	-0.13437074
4	0x3c8dabbe	0.017293807
5	0xbdc4e5e0	-0.09614158
6	0xbc9b82f0	-0.018983334
7	0x3d2860da	0.04110799
8	0xbd9a1c19	-0.075248905
9	0x3dfa02b6	0.12207548
10	0x3e21363a	0.15743342
11	0x3de1c298	0.11023444
12	0xbbb955c9	-0.0056559783
13	0x3d51f882	0.051262386
14	0x3ddd6d02	0.10811807
15	0xbca86c9a	-0.020559598
16	0x3e3e23f5	0.18568404
17	0xbe6d471a	-0.23171654
18	0xbd4c6191	-0.049897734
19	0x3d6191e8	0.055070788
20	0xbddbd1a6	-0.10733347
21	0xbd97c189	-0.07409961
22	0xbe4608f6	-0.19339356
23	0xbba557b5	-0.005045856
24	0x3d92b584	0.071635276
25	0xbe63a500	-0.22230911
26	0xbda2e960	-0.07954669
27	0x3e85c219	0.26124647
28	0xbe0b346e	-0.13594219
29	0x3e4c6b88	0.19962895
30	0x3dfbfcde	0.1230409
31	0xbda17d62	-0.07885243
32	0x3cea38c3	0.02859152
33	0xbc85f519	-0.016352223
34	0x3dae3253	0.08505692
35	0x3cc04c15	0.023473779
36	0xbe30768a	-0.17232719
37	0x3ded826d	0.11597142
38	0xbc48509b	-0.012226249
39	0x3d90a91b	0.07063504
40	0x3e2c24f7	0.16810976
41	0xbdcb1826	-0.09916715
42	0x3e1eef21	0.15520908
43	0x3d90b9e2	0.07066704
44	0xbe06c81f	-0.13162278
45	0x3e08faa3	0.1337686
46	0x3db70d9f	0.08938145
47	0xbd039087	-0.032120254
48	0x3cd266d5	0.0256838
49	0xbd8a5255	-0.06753985
50	0x3e8ad69c	0.2711686
51	0x3de09ffb	0.10968014
52	0xbe7921b5	-0.24329264
53	0xbcddf9e4	-0.027096696
54	0x3e377ea7	0.17919408
55	0x3c3482e8	0.011017539
56	0x3d73b984	0.059503093
57	0x3dc564bf	0.096383564
58	0xbd2632bf	-0.04057574
59	0xbe3fb42e	-0.18721077
60	0x3e154d8c	0.14580363
61	0x3da1033f	0.07861947
62	0xbd23ff96	-0.040038668
63	0xbe10cfd8	-0.14141786
64	0xbe60396b	-0.21896903
65	0x3cfeed68	0.031119063
66	0xbd2ae2ca	-0.04172019
67	0xbe9b73ef	-0.30361888
68	0xbe32c2a7	-0.17457066
69	0x3e454890	0.19265962
70	0xbe06b46c	-0.13154763
71	0x3e29a326	0.16566142
72	0xbb0c8423	-0.0021441064
73	0x3eb070d1	0.34461072
74	0xbe42e476	-0.19032463
75	0xbdb77727	-0.089582734
76	0xbe4cecac	-0.20012158
77	0x3e8850cf	0.26624152
78	0x3e15fdfd	0.1464767
79	0xbe528903	-0.20560078
80	0x3e14ba37	0.1452416
81	0xbe36890f	-0.17825721
82	0xbd2378a9	-0.039909992
83	0x3d551459	0.05202136
84	0xbdac23e8	-0.08405286
85	0x3df977f5	0.12181083
86	0x3e39f30b	0.1815912
87	0x3dd12ef4	0.10214034
88	0xbde6afc2	-0.11263992
89	0x3de75fc3	0.11297562
90	0xbd68a812	-0.05680091
91	0x3c0fc0c0	0.0087739825
92	0xbd80eb16	-0.06294839
93	0xb996e61b	-0.0002878167
94	0x3d35834f	0.04431468
95	0x3d84796c	0.06468472
96	0xbe82a292	-0.25514656
97	0xbd4faae6	-0.05070009
98	0xbd1134b4	-0.035450652
99	0x3d831e70	0.0640229
100	0xbde7d554	-0.11319986
101	0x3e5a2156	0.21301779
102	0xbc8d0cb1	-0.017217966
103	0xbd9a0002	-0.07519533
104	0x3c898733	0.0167881
105	0x3e1600ec	0.14648789
106	0x3c83a796	0.016071122
107	0xbe83738d	-0.25674096
108	0x3d1d7760	0.038443923
109	0x3e4629cf	0.19351886
110	0xbdc22f2c	-0.094816536
111	0x3e380bf2	0.17973307
112	0xbbc8e12b	-0.0061303577
113	0xbe800cdc	-0.2500981
114	0x3c998075	0.01873801
115	0x3e009871	0.12558152
116	0xbdd1e442	-0.10248615
117	0xbe88d801	-0.26727298
118	0xbbca92ae	-0.0061820364
119	0xbd083a1a	-0.033258535
120	0x3cca18d0	0.024670035
121	0x3d85b0d5	0.06527869
122	0xbdf58dcb	-0.119899355
123	0x3d67f111	0.056626383
124	0x3d443dee	0.047910623
125	0xbe7a968a	-0.24471489
126	0xbe51e3b9	-0.20497026
127	0x3a8adfcd	0.0010595262
128	0x3d50a1a3	0.0509354
129	0xbcb1e8f1	-0.02171752
130	0xbe14942c	-0.14509648
131	0xbe863a27	-0.26216242
132	0x3d9a578f	0.07536232
133	0xbd94223a	-0.07233091
134	0x3cdcd77f	0.026958225
135	0xbaf79f37	-0.0018892054
136	0x3dd2b892	0.1028911
137	0xbd72d583	-0.059285652
138	0x3dc49d36	0.09600298
139	0x3d9efe63	0.07763364
140	0x3b5b264a	0.003343957
141	0x3e0e4f67	0.13897477
142	0xbe1e2f90	-0.15447831
143	0x3c76f585	0.015073185
144	0xbd4f973c	-0.050681338
145	0x3dda70d8	0.106660545
146	0x3c87707c	0.016533129
147	0x3d79d4ed	0.060994077
148	0x3d262e7a	0.040571667
149	0xbd093d75	-0.033505876
150	0xbe99672e	-0.29961532
151	0x3db45efc	0.08807179
152	0xbe5ad2a1	-0.21369411
153	0x3e2b4dc1	0.1672888
154	0xbebdcffa	-0.37072736
155	0x3c9af0c1	0.018913629
156	0xbd325ace	-0.04354363
157	0xbe06eb41	-0.1317568
158	0xbd885db5	-0.06658498
159	0x3d18bb64	0.037288085
160	0xbdfce688	-0.12348658
161	0xbe326cda	-0.17424336
162	0xbe3ca5cc	-0.18422621
163	0xbd824146	-0.06360106
164	0x3e84f5d7	0.2596881
165	0x3e22258d	0.15834637
166	0xbce8ed55	-0.028433481
167	0x3e1d6e30	0.15374064
168	0xbe505b8e	-0.20347425
169	0x3c7e0b46	0.0155056175
170	0xbd921931	-0.07133711
171	0xbd8726c2	-0.06599189
172	0xbd78d223	-0.060747277
173	0x3d98e149	0.07464845
174	0x3c14b4eb	0.009076337
175	0xbe009675	-0.12557395
176	0xbd3fab13	-0.04679401
177	0xbd43e74d	-0.047828007
178	0x3d816549	0.06318147
179	0xbd241aaa	-0.04006449
180	0xbe1bdf8d	-0.15221997
181	0xbde28220	-0.110599756
182	0xbd16b7ff	-0.036796566
183	0xbe04547e	-0.12922856
184	0xb83d9a76	-4.5204964e-05
185	0x3c602db4	0.0136827715
186	0x3deeaa3e	0.11653565
187	0xbe898d9d	-0.26865855
188	0xbd466b19	-0.04844198
189	0xbe6c7372	-0.23090914
190	0xbdb71d20	-0.08941102
191	0xbaec5834	-0.0018031658
192	0x3e4cf320	0.2001462
193	0x3debf7be	0.115218624
194	0xbdbc6b9a	-0.09200211
195	0x3df84392	0.12122263
196	0xbe0b024e	-0.13575098
197	0xbe8d47b2	-0.27593762
198	0x3d8e88ad	0.069596626
199	0xbe209629	-0.15682282
200	0xbdf121ba	-0.11774011
201	0x3c3e8623	0.01162866
202	0xbe2ba366	-0.1676155
203	0x3dba338d	0.09091864
204	0xbe114802	-0.14187625
205	0xbda98475	-0.08277217
206	0xbd2ed9d2	-0.0426882
207	0xbe9887ec	-0.297912
208	0xbe49561a	-0.19661751
209	0xbeaaa687	-0.33330175
210	0xbe6be650	-0.23037076
211	0xbd4ed6d7	-0.050497856
212	0x3c9231a3	0.017845934
213	0x3c9c8c1e	0.019109782
214	0xbdadf1e1	-0.084934
215	0xbd4e521a	-0.050371267
216	0xbd715f98	-0.058929056
217	0x3e3ee485	0.18641861
218	0xbb8bdb01	-0.0042680507
219	0x3e1978fd	0.1498756
220	0xbcb41828	-0.021984175
221	0xbe698e0b	-0.22808091
222	0xbe388c02	-0.18022159
223	0x3d8af6be	0.067853436
224	0x3def5a9e	0.11687206
225	0x3e940821	0.28912452
226	0xbd894e61	-0.06704403
227	0xbc048884	-0.0080891885
228	0xbc382736	-0.011239817
229	0xbe534e4b	-0.20635335
230	0xbe8ed191	-0.2789426
231	0x3cb6b72c	0.02230414
232	0xbc986c17	-0.018606229
233	0x3e68b517	0.2272533
234	0x3d131756	0.035910927
235	0x3e449ad8	0.19199693
236	0x3cbf4352	0.02334753
237	0x3e866b24	0.26253617
238	0xbe48629f	-0.19568871
239	0x3da5ca4a	0.08095224
240	0xbcca72fb	-0.02471303
241	0x3c718666	0.014741516
242	0xbdecf7f6	-0.11570732
243	0xbe0fab99	-0.14030303
244	0x3dcf03f4	0.10108176
245	0x3dacdb94	0.08440319
246	0x3dad9cb5	0.08477155
247	0xbd565b58	-0.052333206
248	0xbe8042bb	-0.2505091
249	0xbcabfb68	-0.020993903
250	0xbb6db772	-0.0036272672
251	0xbe685b50	-0.22691083
252	0x3d4c19e0	0.049829364
253	0x3e97bc89	0.29636028
254	0x3d784c9b	0.06061993
255	0x3cf0a8b1	0.029377313

actor_backbone.0.bias f4 [128]
0	0x3b9a2d6c	0.0047051217
1	0xbc1d1f5d	-0.009589997
2	0x3bb426e8	0.005497802
3	0x3cf9f9b3	0.030514574
4	0x3cde68bd	0.027149552
5	0x3c543a72	0.012953388
6	0x3c31fd9b	0.010863687
7	0x3bf5c2b5	0.0075000175
8	0x3b30b812	0.0026965183
9	0x3c5901f7	0.013245097
10	0x3c936c45	0.017995963
11	0x3bb3671b	0.0054749376
12	0xbbdab607	-0.0066745314
13	0xbc417901	-0.011808635
14	0x3a467702	0.0007570834
15	0x3c92b242	0.017907266
16	0xbcab6889	-0.02092387
17	0xbc954b31	-0.01822433
18	0xbc5829e5	-0.013193582
19	0xbc112d17	-0.008860848
20	0x3c35bb6a	0.011092046
21	0x3bca5a47	0.0061753127
22	0x3c9636c9	0.01833667
23	0xbc1595ce	-0.0091299545
24	0xbc697cac	-0.0142509155
25	0xbc18c714	-0.009324808
26	0xbaa18702	-0.0012323561
27	0x3b0498e8	0.002023274
28	0x3ca921f9	0.020646082
29	0x3b9a2f55	0.0047053494
30	0xbc7e0673	-0.015504467
31	0xbcb47623	-0.022028988
32	0xbc5b4224	-0.013382468
33	0xbba84474	-0.0051351134
34	0x3bb22145	0.005436095
35	0xbc0a8b4f	-0.008456065
36	0x3b74ba02	0.0037342315
37	0xbbc9d242	-0.006159098
38	0xbca20d96	-0.019781869
39	0xbb9a6ead	-0.0047129006
40	0xbc2657ff	-0.010152816
41	0xbcfb49d9	-0.030674862
42	0x3c154a60	0.009111971
43	0x3cb6b245	0.022301802
44	0x3a6e3840	0.00090873614
45	0x3c0bc613	0.008531111
46	0x3c08cfe0	0.0083503425
47	0xba61c660	-0.0008612629
48	0xbcd4d771	-0.025981637
49	0xbc661341	-0.014042676
50	0x3c353a71	0.011061297
51	0xba6b0212	-0.0008964847
52	0xbb3dd0c2	-0.002896354
53	0x3c3078bb	0.010770972
54	0xba7bdb56	-0.0009607574
55	0x3c50f0f5	0.012752761
56	0xbbfd0727	-0.0077218
57	0xbb01fe52	-0.0019835425
58	0xba1a22bb	-0.0005879809
59	0x3b9d951c	0.004809035
60	0x3b9200a9	0.004455645
61	0xbcb5386f	-0.022121636
62	0x3b20c24d	0.0024529875
63	0x3c6e5e19	0.014548802
64	0xbc945f20	-0.018111765
65	0x3c46d064	0.012134645
66	0x3c2553ea	0.010090807
67	0x3b22bdc7	0.0024832354
68	0xbc2407b7	-0.010011605
69	0x3b60cf61	0.0034303295
70	0xbc4fd8db	-0.01268598
71	0x3c3104bf	0.010804354
72	0x3b8d2c57	0.0043082642
73	0xbb7b762a	-0.0038369992
74	0x39fb1c12	0.00047895365
75	0xbc1e6786	-0.009668237
76	0xbca14b69	-0.019689279
77	0x3cb56cee	0.022146668
78	0x3c8418bf	0.016125081
79	0xbb79eb65	-0.003813469
80	0x3b1ebcc3	0.0024221397
81	0xbb954b42	-0.0045560906
82	0xbb561608	-0.003266694
83	0xbb8c9510	-0.0042902306
84	0x3b245e5e	0.0025080661
85	0x3b2775e8	0.0025552455
86	0x3b7bccad	0.0038421557
87	0x3ca75170	0.020424575
88	0x3caa4b42	0.020787839
89	0xbcd05132	-0.025429342
90	0xbc0dbeab	-0.008651416
91	0xbc050333	-0.008118439
92	0xbb29220f	-0.0025807654
93	0x3c360b76	0.011111131
94	0x3c07a162	0.008278223
95	0x3c8cfe70	0.017211169
96	0x3bf36f2d	0.0074290247
97	0xbc1bf967	-0.009519911
98	0x3b9e4d62	0.004831002
99	0xbb995efd	-0.004680513
100	0x3bc5ab61	0.006032393
101	0x3bfb127e	0.0076621165
102	0x3ae036b2	0.0017106144
103	0x3bae5171	0.005319767
104	0x3afc5958	0.0019252701
105	0xbc1eb119	-0.009685778
106	0x3ceb259e	0.02870446
107	0x3ccb0980	0.024784803
108	0xbbf06913	-0.0073367446
109	0xbbc4f07c	-0.0060101133
110	0xbba3f615	-0.0050037005
111	0xbc692cb8	-0.014231853
112	0x3c118c5d	0.008883563
113	0x3b9cfbe3	0.0047907694
114	0xbc7c5589	-0.015401253
115	0xbb9d44df	-0.00479947
116	0x3c9bfb2d	0.019040668
117	0x3c54255b	0.012948359
118	0xbbbf08ec	-0.005829921
119	0xbbd7f417	-0.006590377
120	0xba1783c4	-0.00057798275
121	0xbc6765de	-0.014123408
122	0x3b7fcddb	0.0039032612
123	0x3c6ee08f	0.014579906
124	0xbba4dc16	-0.005031119
125	0x3ccfaedb	0.025351932
126	0xbbdf1159	-0.006807488
127	0x3c132deb	0.008983116

actor_backbone.2.weight f4 [128, 128]
0	0x3da19707	0.07890134
1	0x3dbfe9ec	0.09370789
2	0xbcded79c	-0.02720242
3	0xbe50c18d	-0.20386334
4	0x3e17f122	0.14838079
5	0xbd8a9ee1	-0.06768585
6	0xbdff7ae6	-0.12474613
7	0xbe12f523	-0.14351325
8	0xbcba8dd4	-0.022772707
9	0x3c8d18bc	0.017223708
10	0xbeb8a2a4	-0.36061585
11	0x3e25e655	0.16201146
12	0xbddea1ac	-0.1087068
13	0xbd282075	-0.04104658
14	0xbdeff5aa	-0.117167786
15	0xbd2cba75	-0.042170007
16	0x3e4fbee2	0.2028766
17	0x3e5a0822	0.21292165
18	0x3de349bc	0.11098048
19	0xbe0ade5b	-0.13561384
20	0x3df58bf8	0.119895875
21	0x3e2f71e7	0.17133294
22	0x3c98af3d	0.018638248
23	0x3df6ff7c	0.120604485
24	0xbdd36677	-0.10322278
25	0xbe4156ba	-0.1888074
26	0x3c9f6efe	0.019462105
27	0xbcd99f53	-0.02656523
28	0x3ce48d5c	0.027899437
29	0xbdfc0766	-0.12306099
30	0xbdedb3a1	-0.11606527
31	0xbbc137ba	-0.0058965357
32	0xbdedda41	-0.11613894
33	0x3da7c0e1	0.081910856
34	0xbdc076ad	-0.093976356
35	0x3d8b336d	0.06796918
36	0xbd0e6dca	-0.03477267
37	0xbdfedab3	-0.12444057
38	0xbcbeb3df	-0.023279129
39	0xbd88eec9	-0.0668617
40	0x3d6015e5	0.05470838
41	0xbd570e9f	-0.052504178
42	0xbe623195	-0.22089227
43	0x3d87b09f	0.06625485
44	0xbe3244bd	-0.17409034
45	0x3e3c9699	0.18416823
46	0xbe47eb40	-0.19523335
47	0xbd5d80b7	-0.05407783
48	0xbdb5f201	-0.08884049
49	0x3cbf0b73	0.02332089
50	0xbe6117e8	-0.21981776
51	0xbe5af441	-0.21382238
52	0xbca7eaa2	-0.020497624
53	0xbe1353b9	-0.14387406
54	0x3d9698f7	0.073533945
55	0xbe878189	-0.26466015
56	0x3e2aedcb	0.16692273
57	0x3a947bc7	0.0011328392
58	0xbde992a2	-0.11404921
59	0x3d806ae7	0.0627039
60	0x3ca2d2cb	0.019875905
61	0x3dae0357	0.08496731
62	0x3dbe3d64	0.09289053
63	0xbde102c8	-0.109868586
64	0x3e20d23c	0.15705198
65	0xbe316f08	-0.17327511
66	0xbbce5af2	-0.0062974626
67	0x3e1fe507	0.15614711
68	0xbd1dae32	-0.038496204
69	0xbb1131fc	-0.0022155037
70	0xbd0531a9	-0.032518063
71	0x3be5af8b	0.0070094517
72	0x3e21d310	0.1580317
73	0xbc6832c3	-0.014172259
74	0x3e2aa431	0.16664197
75	0xbdadb3ed	-0.08481584
76	0xbd648326	-0.055789135
77	0xbd80ad8c	-0.062831014
78	0xbe10eac6	-0.14152059
79	0xbde88634	-0.11353722
80	0xbd613596	-0.054982744
81	0xbe1e2c00	-0.15446472
82	0xbe5c7526	-0.21529064
83	0xbdc89ea0	-0.0979588
84	0xbdfc5901	-0.12321664
85	0x3e1fdd7d	0.15611835
86	0x3e373ad8	0.17893541
87	0xbe04f835	-0.12985308
88	0x3e5784a1	0.21046688
89	0x3e075877	0.1321734
90	0x3d052eca	0.032515325
91	0xbde9983f	-0.11405992
92	0xbdd0cbb7	-0.101951055
93	0x3e3fe162	0.1873832
94	0x3e3767a5	0.17910631
95	0xbe026296	-0.1273292
96	0xbe19eda6	-0.15032062
97	0x3c95ace4	0.018270917
98	0x3e2a1f5b	0.16613524
99	0xbcd264e7	-0.02568288
100	0xbd210e09	-0.039320026
101	0x3d34adc3	0.044111025
102	0xbe34da67	-0.17661439
103	0xbdf846e5	-0.12122897
104	0x3e2001ff	0.15625761
105	0x3d977550	0.073954225
106	0xbd99898e	-0.074969396
107	0xbddac380	-0.1068182
108	0xbd68766d	-0.056753565
109	0x3e660f79	0.2246684
110	0x3e15ba94	0.14621955
111	0xbe0573e5	-0.13032492
112	0x3dd82593	0.10554042
113	0x3d7d893c	0.061898455
114	0x3df41678	0.11918348
115	0xbdb78ea0	-0.089627504
116	0xbe50f9c6	-0.20407781
117	0x3c9bdf66	0.019027423
118	0xbce34f5a	-0.027747799
119	0x3c8cb7a8	0.017177418
120	0xbd530c7f	-0.05152559
121	0x3d2ae188	0.04171899
122	0x3d6542a1	0.055971745
123	0x3d70c42e	0.05878084
124	0x3c06b280	0.008221269
125	0xbe7b5791	-0.24545123
126	0x3c8f73fb	0.017511358
127	0x3cfcd2c6	0.030862223
128	0x3e105cac	0.14097852
129	0xbdc4e4bc	-0.0961394
130	0xbe0354e1	-0.12825347
131	0x3e2cf6c2	0.16891006
132	0x3dedf9bb	0.11619898
133	0xbd1e5dcd	-0.038663674
134	0x3dbc7b0e	0.09203158
135	0xbe372877	-0.1788653
136	0xbe284b9e	-0.16435096
137	0x3d11c14d	0.035584737
138	0x3cab79ed	0.020932162
139	0xbb88ad66	-0.0041710613
140	0x3db1b1cd	0.08676491
141	0x3cd98e3a	0.026557077
142	0x3cb89190	0.022530347
143	0x3dfb43f6	0.12268822
144	0xbd912df8	-0.07088846
145	0x3d99dd95	0.075129665
146	0xbe2ec8e2	-0.17068818
147	0x3cc38506	0.023867141
148	0xbe54bc79	-0.20775022
149	0x3dc285e3	0.09498193
150	0xbd7b990f	-0.061425265
151	0xbe48f54b	-0.19624822
152	0xbd9c288d	-0.07624922
153	0xbddc70d7	-0.1076371
154	0x3de703d2	0.112800255
155	0x3dcf2a57	0.101154976
156	0xbc344364	-0.011002395
157	0x3e76b344	0.24091822
158	0xbea859d3	-0.3288103
159	0x3de32841	0.11091662
160	0xbc7f2fe8	-0.015575387
161	0xbd1690af	-0.036759075
162	0x3d69bce5	0.05706491
163	0x3c2aac52	0.010417061
164	0xbd1b59ec	-0.037927553
165	0xbe88b77e	-0.26702493
166	0xbbade380	-0.005306661
167	0xbd5af07e	-0.053452007
168	0xbda16037	-0.0787968
169	0xbc23d4a8	-0.009999432
170	0x3b9f4753	0.0048607974
171	0xbddabe06	-0.10680775
172	0xbde91159	-0.11380262
173	0xbddd4106	-0.10803418
174	0x3e32896b	0.17435233
175	0x3d8cae53	0.06869187
176	0xbe93c70e	-0.28862804
177	0x3dc905a9	0.09815533
178	0x3e9828d3	0.29718646
179	0x3c8371e4	0.016045518
180	0xbdc9bd68	-0.098505795
181	0xbe52740e	-0.20552084
182	0x3e5ea7e6	0.21743736
183	0x3dd56f93	0.10421672
184	0x3d68e9bf	0.056863543
185	0xbd5c2d0b	-0.053753894
186	0xbe191604	-0.14949805
187	0x3da3ca52	0.07997574
188	0xbe0e943e	-0.13923737
189	0x3e607697	0.21920238
190	0x3d99890a	0.07496841
191	0x3da1287c	0.0786905
192	0xbe1bed06	-0.15227136
193	0x3e0b9fed	0.13635226
194	0x3db76500	0.08954811
195	0x3e2273d4	0.15864497
196	0xbe0c5819	-0.13705482
197	0x3d5a53ac	0.053302452
198	0xbe380704	-0.17971426
199	0xbe0a4403	-0.13502507
200	0xbbca0a7a	-0.0061657997
201	0x3df700f8	0.12060732
202	0xbd365d05	-0.044522304
203	0xbc3b4ef5	-0.011432399
204	0xbdb4da94	-0.08830753
205	0x3d6f6657	0.05844721
206	0xbd0323e2	-0.032016642
207	0x3e1fbe04	0.15599829
208	0x3e162dad	0.14665861
209	0x3d3dec92	0.04636819
210	0x3dc034fc	0.09385106
211	0x3e200303	0.15626149
212	0xba18c476	-0.0005827615
213	0xbe452626	-0.19252834
214	0xbd9627fb	-0.073318444
215	0x3df9d6e6	0.12199192
216	0x3e0bfa83	0.13669781
217	0xbec4a55c	-0.3840741
218	0xbe4cccb8	-0.19999969
219	0xbe5f963e	-0.21834657
220	0x3e5d42c3	0.21607499
221	0xbd9ec5c3	-0.07752564
222	0x3ce8f62e	0.0284377
223	0xbdf4ed48	-0.1195932
224	0xbc44e316	-0.012017032
225	0xbe0c26db	-0.13686697
226	0x3d8ad415	0.06778733
227	0xbd778e9a	-0.06043873
228	0x3bc5ca0f	0.00603605
229	0x3dfb2731	0.122633345
230	0x3dbac5ea	0.0911978
231	0xbeb53574	-0.35392344
232	0xbe2beeb9	-0.16790284
233	0xbe57baa5	-0.21067293
234	0xbd894ee4	-0.067045
235	0x3d96cc53	0.073631905
236	0x3c3e8ae2	0.011629792
237	0x3d5c9b3f	0.05385899
238	0xbb2661b0	-0.0025387816
239	0xbca1fd25	-0.019774029
240	0x3bb8c97f	0.0056392546
241	0xbc83d614	-0.016093291
242	0x3d698645	0.057012815
243	0xbcf6ea02	-0.03014088
244	0xba8927a4	-0.0010464084
245	0xbcb496b7	-0.022044523
246	0xbe18ce68	-0.14922488
247	0xbd8dc668	-0.069226086
248	0x3d7ae70e	0.061255507
249	0x3cf801ff	0.03027439
250	0xbd4794da	-0.04872594
251	0x3ea8f55b	0.3299969
252	0x3dd145b5	0.10218374
253	0xbd823be7	-0.06359082
254	0xbadabe26	-0.0016688749
255	0xbe7c26ff	-0.24624251

actor_backbone.2.bias f4 [128]
0	0xbc899058	-0.016792461
1	0x3c48d49b	0.01225772
2	0x38d59490	0.000101843034
3	0xbbb86749	-0.005627547
4	0x3c6ef47c	0.014584657
5	0xbc69c0c5	-0.014267151
6	0x3c45d261	0.012074084
7	0x3c8f56ff	0.017497538
8	0x3c919f2f	0.0177761
9	0xbb9e5cb9	-0.0048328307
10	0x3c668670	0.014070138
11	0x3c1ab718	0.009443067
12	0x3c46ee85	0.012141828
13	0x3b4ba0cc	0.0031071184
14	0x3bee4a57	0.0072720456
15	0xbbf2c9c2	-0.0074093053
16	0x3c7ec377	0.015549532
17	0xbc787f0f	-0.015167012
18	0xbbe83be9	-0.00708722
19	0x3b1876a5	0.0023264077
20	0x3c0258fb	0.007955785
21	0xbc08528d	-0.008320463
22	0xbc7cf62b	-0.01543955
23	0x3c900e30	0.01758489
24	0x3c6d2e09	0.014476308
25	0xbb89b05f	-0.0042019333
26	0xbc29625c	-0.010338392
27	0x3c5aeb78	0.013361804
28	0x3bb6d165	0.005579161
29	0xbba51dcc	-0.0050389525
30	0xbaec4982	-0.0018027278
31	0xb81cd370	-3.7390215e-05
32	0x3b2bdca0	0.0026224032
33	0x3bca98f5	0.0061827847
34	0x3c4b4b46	0.012408083
35	0xbb804a70	-0.0039151236
36	0xbb60e7fb	-0.0034317959
37	0x3c329aa5	0.010901128
38	0x3c2ba9ed	0.010477525
39	0xbc206b67	-0.009791232
40	0x3c8732c7	0.016503705
41	0xbac23e34	-0.0014819563
42	0xbbb0954e	-0.0053888923
43	0xbc0b411f	-0.008499413
44	0xbba046d2	-0.004891255
45	0xbc477f68	-0.012176372
46	0xbbfea993	-0.0077716797
47	0x3c3008bf	0.010744273
48	0xbcbf719c	-0.023369603
49	0xb98899ab	-0.00026054433
50	0xbbe2d4df	-0.006922349
51	0xbbbc2af6	-0.005742426
52	0x3c86e279	0.016465412
53	0x3b8f9cc4	0.0043827016
54	0xbb3c3b13	-0.0028721734
55	0xbb89496e	-0.0041896617
56	0xbbfb7072	-0.0076733166
57	0xbc439a55	-0.011938651
58	0x3b8c127a	0.0042746635
59	0xbbdd85e8	-0.0067603476
60	0xbc0d82ad	-0.008637113
61	0x3bacb95e	0.005271121
62	0xbcb2e8c3	-0.021839505
63	0x3c7a9c5f	0.015296071
64	0xbc1a703d	-0.009426174
65	0xbc28e9d8	-0.010309659
66	0x3c7722ea	0.015084008
67	0x3c3bef93	0.011470693
68	0x3ca64eff	0.02030134
69	0xbb38988c	-0.0028167097
70	0x3b4e97f0	0.0031523667
71	0x3b440bc1	0.0029914232
72	0x3c6be14c	0.014396977
73	0xbaa888d2	-0.0012858158
74	0x3ca269f6	0.019825917
75	0x3c05e297	0.008171699
76	0x3bd62e59	0.006536287
77	0x3b79e3cf	0.003813017
78	0x3bea15a1	0.0071436916
79	0xbc5ae5fb	-0.013360496
80	0x3b1821c2	0.002321348
81	0xbc29b089	-0.010357031
82	0xbc1d4504	-0.009598974
83	0xbb98e8be	-0.004666417
84	0xbcac4ecb	-0.021033665
85	0x3c1f5857	0.009725652
86	0xbb9b3c57	-0.0047374177
87	0xbb611401	-0.0034344199
88	0xbc8a7e37	-0.016905887
89	0xbbf295db	-0.007403118
90	0xbaf9c49f	-0.001905579
91	0x3c2668e4	0.010156844
92	0x3c2cf3d6	0.010556182
93	0x3c8691af	0.01642689
94	0x3bd0e487	0.006374899
95	0x3b882cc7	0.0041557285
96	0xbd06070e	-0.03272157
97	0xbb7025ba	-0.003664358
98	0x3bb79328	0.005602259
99	0xbc24a9cb	-0.010050247
100	0x3b996b2d	0.004681966
101	0xbc04978b	-0.008092771
102	0xbb86da25	-0.0041153603
103	0x3cd554fe	0.026041504
104	0x3b7d92ab	0.0038692157
105	0xbc4162ef	-0.011803373
106	0x3b30ce69	0.0026978499
107	0x3b59df0a	0.0033244514
108	0x3b60b999	0.0034290312
109	0x3c0c0eba	0.008548433
110	0x3bb0bed4	0.0053938422
111	0xbb0bac2d	-0.0021312342
112	0xbc2feb71	-0.010737286
113	0xbc0271a2	-0.0079616625
114	0xb8dcda36	-0.000105310624
115	0xbbabdd82	-0.0052449116
116	0x3b65cac6	0.003506349
117	0x3c4b4aae	0.012407942
118	0x3b8f3b4e	0.0043710833
119	0x3af9aa0e	0.0019047873
120	0x3b57e097	0.0032940262
121	0x3bd6e36b	0.006557872
122	0x3c6a782f	0.014310881
123	0x39e62469	0.00043896146
124	0xbbbfb1f1	-0.0058500697
125	0x3c09889d	0.008394388
126	0x3c22f47a	0.009945983
127	0xbbb68848	-0.005570445

reward_backbone.0.weight f4 [128, 38]
0	0x3d7d0812	0.061775275
1	0xbd5effeb	-0.05444328
2	0x3dc997b5	0.09843389
3	0x3d18bd13	0.03728969
4	0x3adeae90	0.001698928
5	0x3e2322d8	0.1593126
6	0x3dd127cd	0.102126695
7	0x3c9812db	0.018563678
8	0x3b330734	0.0027317526
9	0x3e1cd73d	0.15316482
10	0xbbcc6854	-0.006238023
11	0xbe832d2d	-0.25620404
12	0x3d8c81ea	0.06860717
13	0xbdc53117	-0.09628504
14	0x3e85943c	0.26089656
15	0x3e7c18ed	0.24618883
16	0x3d88a4eb	0.066720806
17	0xbd567c97	-0.052364912
18	0x3d1b6c47	0.03794506
19	0x3c9b4bfb	0.018957129
20	0x3e7b25f0	0.24526191
21	0x3d28058f	0.041020926
22	0xbb9ba398	-0.0047497265
23	0xbd2b4999	-0.041818235
24	0x3eac972d	0.33709088
25	0x3dc56ed4	0.096402794
26	0x3ce5c06f	0.028045861
27	0xbdcf1b04	-0.10112575
28	0x3c290ae7	0.010317541
29	0x3db27970	0.087145686
30	0x3e4e430e	0.20142767
31	0xbbb2a6e4	-0.005452024
32	0x3c79fcd3	0.015258032
33	0xbd614939	-0.05500147
34	0x3e35df7e	0.17761037
35	0x3dbbbd96	0.0916702
36	0xbc9424c2	-0.018083934
37	0x3c004994	0.007830042
38	0xbe1daf9b	-0.1539902
39	0x3e3538ab	0.17697398
40	0x3dc2d80b	0.09513863
41	0x3d009405	0.031391162
42	0x3e5ad802	0.21371463
43	0x3e697c17	0.22801243
44	0x3bf5b4b7	0.0074983495
45	0x3db957a8	0.09049922
46	0x3e7abd19	0.24486198
47	0xbe28c8b0	-0.16482806
48	0xbd23440c	-0.039859816
49	0x3e0534bf	0.13008402
50	0xbcf2131e	-0.029550131
51	0x3d1fc435	0.039005477
52	0xbe7d4639	-0.24733819
53	0x3e89ccb4	0.2691399
54	0x3e8e5db7	0.27805874
55	0x3dae1902	0.085008636
56	0x3ea219c3	0.3166028
57	0x3e4deada	0.2010912
58	0xbd2f7ab5	-0.042841632
59	0x3d7886ef	0.060675558
60	0xbe44cc9e	-0.1921868
61	0xbd0c6a66	-0.034281157
62	0xbbdfb65f	-0.0068271603
63	0x3dad5648	0.084637225
64	0xbe147e38	-0.14501274
65	0x3e8010cf	0.25012824
66	0x3de09621	0.10966135
67	0x3df4b62b	0.11948808
68	0xbdb401cf	-0.087894075
69	0x3da14853	0.07875123
70	0xbdfe7081	-0.12423802
71	0x3e83fb46	0.25777644
72	0x3ceb9eef	0.028762309
73	0x3e35b7e2	0.17745927
74	0x3e053a5f	0.13010548
75	0x3d587949	0.05285004
76	0x3e8bcebc	0.27306163
77	0xbe4bb0ad	-0.19891615
78	0xbe46247c	-0.19349855
79	0xbb37cae4	-0.0028044516
80	0x3e89a40c	0.2688297
81	0x3d1b2561	0.037877444
82	0xb892797b	-6.98445e-05
83	0xbd52f94b	-0.051507276
84	0xbdfafa62	-0.12254788
85	0x3cda357b	0.02663683
86	0xbd7b7592	-0.06139142
87	0xbc97aecb	-0.018515965
88	0x3cfc7b82	0.030820612
89	0x3d9d70e2	0.07687546
90	0x3e551a66	0.20810851
91	0xbd242e33	-0.04008312
92	0x3d617a5f	0.055048343
93	0xbe619e2b	-0.22032993
94	0x3e83060a	0.25590545
95	0xbe7abd13	-0.24486189
96	0xbb7db82d	-0.0038714514
97	0xbe58daff	-0.2117729
98	0x3d39f8a1	0.045403127
99	0xbc8ed08e	-0.017433431
100	0xbdb0178e	-0.08598243
101	0x3e7e6bf1	0.24845864
102	0xbd1d90da	-0.03846822
103	0x3d79500c	0.060867354
104	0x3e275d5e	0.1634421
105	0xbe55b6f6	-0.20870575
106	0x3d133181	0.035935882
107	0xbcffd30a	-0.031228561
108	0x3c309394	0.010777373
109	0x3cba6f63	0.022758191
110	0x3e189781	0.14901544
111	0x3dd974f5	0.10618011
112	0x3df04043	0.11731007
113	0x3ca9deef	0.020736186
114	0xbe98cbb9	-0.29842928
115	0xbe1bc451	-0.15211608
116	0xbe687426	-0.22700557
117	0xbcc7c9b9	-0.024388181
118	0x3dd787e4	0.10523966
119	0xbe2d47dd	-0.16921945
120	0xbdaf0ef8	-0.08547777
121	0x3c1e6b39	0.009669119
122	0xbb941367	-0.0045189145
123	0x3cad9b9d	0.021192366
124	0xbcff644d	-0.031175757
125	0x3d0c8cda	0.034314014
126	0x3e2addb4	0.16686136
127	0x3dbf8936	0.09352343
128	0x3e5a3133	0.2130783
129	0xbe1eb400	-0.15498352
130	0xbddcb3ad	-0.10776458
131	0xbdc3ee40	-0.09566927
132	0xbe23baf3	-0.15989284
133	0xbdc67b40	-0.09691477
134	0xbe6500f0	-0.22363639
135	0x3d7bf28c	0.061510608
136	0xbde772a2	-0.11301161
137	0x3de5664d	0.11201153
138	0x3da2f9b3	0.079577826
139	0xbe23a90b	-0.15982454
140	0xbe198b4a	-0.14994541
141	0x3d9d1184	0.076693565
142	0xbbd9bb48	-0.00664464
143	0x3de96a42	0.1139722
144	0xbd1482ed	-0.036257673
145	0x3dc24b6d	0.094870426
146	0xbe8403fa	-0.25784284
147	0xbe6cd4c9	-0.23128046
148	0x3cddf86f	0.027096001
149	0xbd8811c6	-0.06644015
150	0x3d8d4451	0.06897796
151	0x3e154287	0.1457616
152	0xbc911206	-0.01770879
153	0xbe76f19b	-0.24115603
154	0xbc30c353	-0.010788756
155	0xbdf08f03	-0.11746027
156	0xbd09db6a	-0.033656515
157	0xbbbb20c2	-0.005710692
158	0x3e054f76	0.13018593
159	0xbe0eebf3	-0.13957195
160	0xbe11871a	-0.14211693
161	0xbc989163	-0.018624013
162	0x3d950a91	0.07277406
163	0x3b6d88a4	0.0036244774
164	0xbdaebc61	-0.08532024
165	0x3dbaf7f2	0.09129323
166	0xbdd20db5	-0.10256521
167	0x3d2e6d00	0.04258442
168	0xbca0f9ef	-0.019650428
169	0xbe614d50	-0.22002149
170	0xbcb7189e	-0.022350606
171	0xbd73ef20	-0.05955422
172	0xbe194e1b	-0.14971201
173	0x3e0a52f5	0.13508208
174	0xbda9b390	-0.08286202
175	0xbe47309f	-0.19452141
176	0x3d97f83b	0.07420393
177	0xbbc0fc38	-0.005889442
178	0x3d6fd940	0.058556795
179	0x3e0b0308	0.13575375
180	0x3ccd8797	0.025089068
181	0x3d4f96dc	0.05068098
182	0xbe21d38f	-0.1580336
183	0xbe3695fa	-0.17830649
184	0xbadc4a0f	-0.0016806739
185	0x3d204e7d	0.039137352
186	0xbe0e1e30	-0.13878703
187	0xbd20ab89	-0.03922609
188	0xbb4d3088	-0.0031309444
189	0xbdf1620e	-0.117862806
190	0x3be1eccd	0.006894684
191	0x3cf07f06	0.029357444
192	0x3c58a069	0.0132218385
193	0x3dd5ab09	0.10433013
194	0x3dc1b91d	0.09459136
195	0x3e9765d5	0.2956988
196	0x3d420e65	0.04737701
197	0xbc708e6d	-0.014682394
198	0xbd96f9bc	-0.07371852
199	0xbe1fb63b	-0.15596859
200	0x3c55579b	0.013021375
201	0x3e15098d	0.14554425
202	0x3d8d336b	0.06894573
203	0xbd837d12	-0.0642034
204	0xba85a844	-0.0010197242
205	0x3da574b1	0.08078898
206	0x3d143d11	0.03619105
207	0x3d78e300	0.06076336
208	0x3d1b7340	0.037951708
209	0x3dbf6976	0.09346287
210	0x3db51a99	0.08842964
211	0x3e8afe85	0.27147308
212	0x3e16c9d2	0.14725426
213	0x3e5324f6	0.20619568
214	0x3e00a6bc	0.12563604
215	0xbd4d2b89	-0.050090346
216	0xbc342074	-0.010994066
217	0xbdbd17f6	-0.09233086
218	0x3d7359b0	0.059411705
219	0xbd967aef	-0.073476665
220	0x3d5a3cc3	0.053280603
221	0x3cc67151	0.024223955
222	0x3d2eac7f	0.042644974
223	0x3e440848	0.19143784
224	0x3df34522	0.118784204
225	0xbe5704f2	-0.2099798
226	0x3d178b23	0.036997925
227	0x3e3ae6e2	0.18252137
228	0x3e9846c8	0.29741502
229	0xbe254dda	-0.1614298
230	0xbde183aa	-0.11011441
231	0xbe1b289f	-0.15152214
232	0x3c926d24	0.017874308
233	0xbe5dc72e	-0.21658012
234	0xbe0d04da	-0.13771382
235	0xbd4ef7c6	-0.050529264
236	0xbd17675a	-0.036963798
237	0xbdbfccac	-0.0936521
238	0x3d631d4f	0.055447873
239	0xbe1b748f	-0.15181182
240	0x3ecd1718	0.40056682
241	0xbe3f0ef1	-0.18658043
242	0xbd2ccf57	-0.042189922
243	0x3b82d0b1	0.003992163
244	0x3db8a0e5	0.09015063
245	0x3dc9bd14	0.09850517
246	0xbdae2c61	-0.08504558
247	0x3e050f74	0.12994176
248	0x3cde4ca3	0.027136153
249	0xbc87a483	-0.016557937
250	0x3df4807e	0.119385704
251	0xbd49ddfc	-0.049283966
252	0xbd7a2ab5	-0.061075885
253	0x3d8c88ae	0.06862007
254	0xbdf4e8d8	-0.11958474
255	0xbccc373e	-0.024928685

reward_backbone.0.bias f4 [128]
0	0x3d23ca69	0.039987955
1	0x3d315ab9	0.04329941
2	0x3d073a3e	0.03301453
3	0xbd48bce7	-0.049008276
4	0x3ac65ae8	0.0015133293
5	0x3d3a82d8	0.04553494
6	0xbd61447d	-0.054996956
7	0xbd2f84a5	-0.04285111
8	0xbd679b51	-0.056544606
9	0xbcd4164b	-0.025889536
10	0x3d17fdc8	0.03710726
11	0x3d2b0e9e	0.041761987
12	0x3d2d1241	0.042253736
13	0xbd364d06	-0.04450705
14	0x3d72cec1	0.059279207
15	0xbd49290e	-0.04911142
16	0xbd448273	-0.04797597
17	0xbae75df2	-0.0017651899
18	0x3caad33e	0.020852681
19	0x3d5961ee	0.05307191
20	0x3d30736f	0.043078836
21	0xbd34984a	-0.044090547
22	0x3d26cc5f	0.040722247
23	0x3d229f55	0.039702732
24	0x3cb3c2a4	0.021943398
25	0xbd31769f	-0.043326017
26	0x3d4496ba	0.047995307
27	0x3c97ffd7	0.018554611
28	0xbd32f4f7	-0.043690648
29	0x3d2c3ade	0.042048328
30	0x3d231285	0.039812583
31	0xbd4f5d7d	-0.050626267
32	0xbd32372e	-0.043509655
33	0x3d23529a	0.039873697
34	0xbd5e8def	-0.054334577
35	0x3d394c77	0.04523894
36	0x3d71378b	0.05889086
37	0xbd43b44d	-0.04777937
38	0xbc9a71bd	-0.018853063
39	0x3d7ddc7c	0.06197785
40	0x3d2ebb09	0.04265884
41	0xbd06e3c6	-0.032932065
42	0xbd0faa2f	-0.03507441
43	0xbd240a44	-0.040048853
44	0x3d68dfad	0.05685394
45	0xbd608ba6	-0.05482068
46	0x3d62fd18	0.05541715
47	0xbd2dfd36	-0.04247781
48	0x3d3212d0	0.043474972
49	0xbd398826	-0.045295857
50	0xbd64f6c2	-0.05589939
51	0xbce75d97	-0.02824287
52	0x3d63700a	0.05552677
53	0x3d6d76e3	0.057974707
54	0x3ab82382	0.0014048668
55	0xbd80d4d2	-0.06290592
56	0x3d28d421	0.041217927
57	0xbb51a37a	-0.0031988309
58	0xbd318d74	-0.04334779
59	0xbd2bb774	-0.041923
60	0xbd24c6cf	-0.04022866
61	0xbcdb3a25	-0.026761124
62	0x3d3a220d	0.04544263
63	0x3d3088b1	0.04309911
64	0x3d566c75	0.052349526
65	0xbd2a565b	-0.04158626
66	0xbd4038f1	-0.046929304
67	0x3c9e944a	0.01935782
68	0xbd3a70d9	-0.045517776
69	0x3d4cb7b4	0.04997988
70	0x3d779609	0.06044582
71	0xbd4adb17	-0.049525347
72	0xbd50770b	-0.05089478
73	0x3d29a676	0.041418515
74	0xbd3d85ee	-0.046270303
75	0xbb59c7da	-0.0033230693
76	0x3c469327	0.012120045
77	0x3d47dcf3	0.048794698
78	0x3d3ffc27	0.04687133
79	0xbd4a164a	-0.049337663
80	0x3d365a6b	0.044519823
81	0x3d3d2850	0.046181023
82	0x3bef49b6	0.007302488
83	0x3d7d5567	0.061849024
84	0xbd47481f	-0.048652764
85	0x3d84b5fb	0.064800225
86	0xbd1980bf	-0.037476297
87	0xbd251ceb	-0.04031078
88	0xbd5a7e47	-0.053343084
89	0x3caae793	0.020862376
90	0xbd506eef	-0.050887045
91	0xbd584152	-0.05279667
92	0xbd5de95b	-0.054177623
93	0xbd42a3a9	-0.04751936
94	0xbcb1b7e2	-0.021694127
95	0xbbcc81a3	-0.00624104
96	0xbd61f73a	-0.055167414
97	0xbd4ead52	-0.05045826
98	0xbd505bb6	-0.050868712
99	0xbd2b058b	-0.041753333
100	0xbd4d5bc3	-0.05013634
101	0xbd7a5dfc	-0.061124787
102	0xbd74701b	-0.059677225
103	0xbd2f7a2a	-0.042841114
104	0xbd6e67bc	-0.058204398
105	0xbd4ccf16	-0.05000218
106	0xbd263b46	-0.04058387
107	0x3d42bc25	0.04754271
108	0xb9230ebb	-0.00015550379
109	0xbd5ac3e1	-0.05340946
110	0x3d4fbc44	0.050716653
111	0xbc434858	-0.011919104
112	0x3c700de1	0.0146517465
113	0xbca1fa4a	-0.019772667
114	0x3d5fe2b1	0.05465955
115	0xbd80e2c8	-0.06293255
116	0x3be74141	0.0070573394
117	0xbd36f224	-0.044664517
118	0xbd1fa090	-0.038971484
119	0x3d431329	0.047625694
120	0xbb9dc17f	-0.0048143263
121	0xbd26279d	-0.040565122
122	0x3d367e2d	0.044553924
123	0xbd6c77bc	-0.057731375
124	0xbd448d78	-0.047986478
125	0x3d631ca6	0.055447243
126	0x3d446f50	0.04795772
127	0x3d28410c	0.04107766

reward_backbone.2.weight f4 [128, 128]
0	0xbdbb9103	-0.09158518
1	0x3d9cb422	0.07651545
2	0xbde013ad	-0.10941253
3	0xbda692ec	-0.08133492
4	0xbd1832cb	-0.037157815
5	0x3da8df8b	0.082457624
6	0xbdc19d8f	-0.0945388
7	0x3eaf9194	0.34290755
8	0x3e04a109	0.12952055
9	0x3dab4861	0.083634146
10	0x3e3ed36a	0.18635336
11	0xbdff8d39	-0.12478108
12	0xbda5ef19	-0.08102245
13	0xbddacc35	-0.10683481
14	0xbe1f7219	-0.15570869
15	0xbcde8162	-0.027161304
16	0x3ded0c32	0.11574592
17	0x3e4d0d94	0.20024711
18	0xbcdf21c5	-0.027237782
19	0xbe1694dc	-0.14705223
20	0xbd80fd7e	-0.0629835
21	0x3e3224da	0.1739687
22	0x3c53f1a0	0.012936026
23	0x3cd95094	0.02652768
24	0xbdb9992f	-0.090624206
25	0x3df3bc2f	0.119011275
26	0xbe1258f0	-0.1429174
27	0xbdd576d4	-0.10423055
28	0xbe6bd569	-0.23030628
29	0x3d443bad	0.047908474
30	0xbd8ab0a1	-0.067719705
31	0xbd8fdf35	-0.07024995
32	0x3d8b1b8e	0.06792365
33	0xbc3d29e7	-0.011545635
34	0x3ea6431a	0.3247307
35	0xbe286165	-0.16443403
36	0xbcc3db4a	-0.023908276
37	0x3d1948fa	0.03742311
38	0xbe545d27	-0.2073866
39	0xbda3ce8d	-0.07998381
40	0xbec5ef67	-0.38659212
41	0xbce28ffe	-0.027656551
42	0x3d079da7	0.033109333
43	0x3c95bb30	0.018277735
44	0xbe1f2fe4	-0.15545613
45	0xbda5a8e0	-0.08088851
46	0xbd120541	-0.03564954
47	0xbe6b4088	-0.22973835
48	0xbe3332df	-0.17499875
49	0x3da2fd67	0.07958489
50	0xbe1996f7	-0.14998995
51	0xbbed3136	-0.0072385324
52	0xbe2670c9	-0.16253962
53	0x3d7b93dc	0.061420307
54	0xbd9c5fd0	-0.07635462
55	0xbd541fd7	-0.051788177
56	0x3d8675ac	0.06565413
57	0x3e139be3	0.14414935
58	0x3e3343b2	0.17506292
59	0xbd827c3d	-0.06371353
60	0xbd955a27	-0.07292586
61	0x3d74d152	0.059769936
62	0xbe51548d	-0.2044241
63	0x3e0edeed	0.13952227
64	0xbde824ba	-0.1133513
65	0x3e74a744	0.23891932
66	0xbdaf269e	-0.085522875
67	0x3d9bd0f5	0.07608215
68	0x3c184e67	0.009296036
69	0x3d11b1f1	0.03557009
70	0xbe91a678	-0.28447318
71	0x3e116914	0.1420024
72	0x3d5b81a3	0.053590428
73	0xbcf84f5c	-0.030311279
74	0xbdcf9d38	-0.10137409
75	0xbc7a4759	-0.0152758
76	0x3d3c26c2	0.0459354
77	0x3dacc4ea	0.08435996
78	0xbb124395	-0.0022318114
79	0x3e7688bb	0.24075596
80	0x3d1c8772	0.03821511
81	0xbe1a0725	-0.15041788
82	0x3e000121	0.1250043
83	0x3e5c3a3a	0.21506587
84	0x3e567d3c	0.2094621
85	0xbe64e457	-0.2235273
86	0x3e30d30c	0.17268008
87	0x3d352dc7	0.04423311
88	0xbcdc69f6	-0.026905995
89	0xbe51e51e	-0.20497558
90	0x3e51a0a9	0.20471443
91	0xbe41059a	-0.18849793
92	0x3e252b60	0.16129827
93	0x3d8c6cf5	0.068567194
94	0x3d661688	0.05617383
95	0xbe8450f7	-0.2584302
96	0x3dc7b060	0.09750438
97	0x3e5a4a13	0.2131732
98	0x3d35c6af	0.044378933
99	0x3e05898c	0.13040751
100	0x3dbff5ee	0.09373079
101	0x3bbbc29f	0.0057299878
102	0x3d8ae79b	0.067824565
103	0x3ca93421	0.02065474
104	0x3d870397	0.065924816
105	0x3e1a3340	0.15058613
106	0xbca0ad1a	-0.019613791
107	0xbdbb4f03	-0.0914593
108	0x3cceb3b1	0.025232168
109	0x3e3ccafa	0.18436804
110	0xbe67f0aa	-0.226504
111	0x3e3283d0	0.17433095
112	0xbdc2ce90	-0.09512055
113	0xbd2e3a5a	-0.042536117
114	0xbd26416a	-0.040589727
115	0xbd024125	-0.031800408
116	0xbd75ee7d	-0.060041893
117	0xbe0abd02	-0.13548663
118	0x3d8b603d	0.06805465
119	0x3c428c70	0.011874303
120	0x3e0b95fb	0.13631432
121	0x3d7859dd	0.060632575
122	0xbabe121a	-0.0014501244
123	0xbcb9283d	-0.022602195
124	0x3ddc24b8	0.10749191
125	0x3e2168a1	0.15762569
126	0xbc62e46f	-0.013848408
127	0x3cb6ffa0	0.022338688
128	0x3e01e74c	0.12685889
129	0x3dc333c4	0.09531358
130	0xbd1d5487	-0.03841069
131	0x3d838482	0.06421758
132	0xbded3cab	-0.11583837
133	0x3acd96f9	0.0015685252
134	0x3e3c09be	0.18363091
135	0xbcae4dfd	-0.021277422
136	0x3cdd5253	0.027016794
137	0xbccf62c6	-0.025315654
138	0xbd1ca937	-0.038247313
139	0x3dadef35	0.08492891
140	0xbe0ca890	-0.13736176
141	0x3dde8e0f	0.10866939
142	0xbde87c0a	-0.113517836
143	0x3e86c240	0.26320076
144	0x3de582af	0.112065665
145	0x3c15976c	0.00913034
146	0xbe4bfe00	-0.19921112
147	0xbe82f44a	-0.25577003
148	0xbe2254f2	-0.15852717
149	0x3e99d8c8	0.30048203
150	0xbec1d64f	-0.37858817
151	0x3d9acb0d	0.0755826
152	0x3e1f8054	0.15576297
153	0x3e2fb8ad	0.17160292
154	0x3d80d1f1	0.06290043
155	0xbe603b14	-0.21897537
156	0x3e015ea5	0.1263376
157	0xbc5c3908	-0.013441332
158	0x3df6592c	0.12028727
159	0x3e2f8547	0.17140685
160	0xbae97919	-0.0017812579
161	0x3e3562aa	0.17713419
162	0xbd8f8e6b	-0.07009586
163	0xbe50b7e4	-0.20382649
164	0xbd7730f0	-0.060349405
165	0x3df5e45d	0.120064475
166	0xbdfdfb93	-0.124014996
167	0xbd9d7f5c	-0.076903075
168	0xbde711dd	-0.11282704
169	0xbc851f1b	-0.016250184
170	0xbdc0b58c	-0.09409627
171	0x3c358a74	0.011080373
172	0xbdfce7c2	-0.12348892
173	0x3d97a44c	0.07404384
174	0xbd40d057	-0.04707369
175	0x3e6bcf16	0.23028216
176	0x3de57890	0.11204636
177	0x3d15056a	0.036382116
178	0x3e08ea6d	0.13370676
179	0xbe49975c	-0.19686645
180	0xbd2ef96f	-0.042718347
181	0xbe2c7ee2	-0.16845277
182	0xbd9c0cbf	-0.076196186
183	0xbe28fbf0	-0.16502357
184	0x3d8b31ed	0.06796632
185	0xbc81e5e4	-0.01585669
186	0x3e501623	0.20320944
187	0xbbbb3cf1	-0.005714052
188	0x3e41952d	0.18904562
189	0xbd7743c2	-0.060367353
190	0xbe8a55c5	-0.27018562
191	0xbd858597	-0.06519621
192	0xbc0fa79d	-0.008767989
193	0x3df07c2b	0.11742433
194	0x3e60a6fa	0.21938697
195	0xbe582e2a	-0.2111136
196	0xbd1dd2e9	-0.038531218
197	0x3de74d27	0.112940125
198	0x3cf2ee5a	0.02965467
199	0x3dbbeea1	0.09176374
200	0x3d59fd80	0.053220272
201	0x3d9c4fba	0.07632394
202	0xbe43d7a3	-0.19125228
203	0x3e028442	0.12745765
204	0xbd81e899	-0.063431926
205	0xbe022c31	-0.1271217
206	0x3d715f6f	0.058928903
207	0x3d855c98	0.065118015
208	0x3c9c2403	0.01906014
209	0xbbaf7176	-0.005354102
210	0x3de08382	0.10962583
211	0xbdaf9433	-0.08573189
212	0xbd6c8cd7	-0.057751503
213	0xbde24700	-0.110486984
214	0xbdfd2b8e	-0.12361823
215	0x3d87ea82	0.06636526
216	0xbcad9920	-0.02119118
217	0x3df35ca3	0.118829034
218	0x3e718cc8	0.2358886
219	0x3e68671e	0.22695586
220	0x3e59efb3	0.21282844
221	0xbdada18f	-0.084780805
222	0xbe40a0d4	-0.18811351
223	0x3dc5baeb	0.096547924
224	0xbcbc0b6d	-0.022954667
225	0xbdebda22	-0.11516215
226	0x3e6a671f	0.228909
227	0x3dfb31d6	0.12265365
228	0x3e959eea	0.29222804
229	0xbe3add13	-0.18248396
230	0x3e4acc61	0.19804527
231	0x3d1ceb5a	0.038310386
232	0xbdb9c29c	-0.09070322
233	0x3d15ea5b	0.036600452
234	0xbe0aef5d	-0.13567872
235	0xbd26df1d	-0.04074012
236	0xbd4cbcc0	-0.049984694
237	0x3dde53c4	0.10855821
238	0xbe29d75f	-0.16586064
239	0x3e11e443	0.14247231
240	0xbe84bea0	-0.25926685
241	0xbd6e1df2	-0.058134027
242	0xbe022d70	-0.12712646
243	0x3c5ae814	0.013360996
244	0x3c95c56d	0.018282617
245	0x3dcdae96	0.10043065
246	0xbc3be11f	-0.011467247
247	0xbc30d7c1	-0.010793627
248	0xbd8cd9a7	-0.068774514
249	0x3d484ba9	0.04890028
250	0xbe9ff202	-0.31239325
251	0xbda34494	-0.079720646
252	0xbd6d7114	-0.057969168
253	0x3d97e991	0.07417596
254	0xbdbd1709	-0.09232909
255	0xbdacc6f8	-0.08436388

reward_backbone.2.bias f4 [128]
0	0xbced4218	-0.02896218
1	0xbcfcf974	-0.030880667
2	0x3d20eb6b	0.039287012
3	0xbcfd3688	-0.030909792
4	0xbcd553be	-0.026040908
5	0xbcfd16a9	-0.030894594
6	0xbd17eec4	-0.03709294
7	0xbcc5cc57	-0.024145288
8	0x3d0a8c94	0.033825472
9	0x3d0ebe28	0.034849316
10	0x3d1f1d84	0.038846508
11	0x3cf0ebdc	0.029409342
12	0x3cf61572	0.030039523
13	0xbcdafa39	-0.026730644
14	0x3d00c9af	0.03144234
15	0x3d1d6a45	0.038431425
16	0xbd0cb5ae	-0.03435295
17	0x3cff80aa	0.031189281
18	0xbcde2605	-0.027117739
19	0xbd1a009b	-0.037598234
20	0xbcf3930f	-0.029733209
21	0x3cecbe7a	0.02889942
22	0xbd217a0f	-0.039423045
23	0xbd0cbc59	-0.03435931
24	0x3cdb108f	0.026741294
25	0xbce83cdd	-0.028349334
26	0x3d0a9eb3	0.033842754
27	0xbcedb509	-0.029016988
28	0xbd387799	-0.045035932
29	0x3d3549d6	0.04425987
30	0xbcdb2de8	-0.026755288
31	0xbd1148ed	-0.035469938
32	0xbcfd1f20	-0.03089863
33	0xbd11c9b9	-0.03559277
34	0x3d46f864	0.048576728
35	0x3ceacf63	0.028663343
36	0xbd136e95	-0.03599413
37	0x3d2fb6ea	0.04289905
38	0xbd070d50	-0.03297168
39	0xbd062382	-0.032748707
40	0x3cfe2a82	0.031026129
41	0x3cb92140	0.022598863
42	0x3cf35385	0.029702911
43	0x3d23fbb0	0.04003495
44	0x3cdc97a4	0.026927777
45	0xbcfee175	-0.031113366
46	0xbd100d25	-0.035168786
47	0x3cc1dfcc	0.023666285
48	0x3d17800e	0.036987357
49	0xbd0ccbbb	-0.03437398
50	0x3d37a65f	0.0448364
51	0x3ceeeebc	0.029166572
52	0xbd0b35c3	-0.033986818
53	0x3d15f113	0.03660686
54	0x3d1cbf26	0.03826823
55	0xbce7fc55	-0.028318563
56	0x3cd420ee	0.025894608
57	0xbd2fc003	-0.042907726
58	0xbd289301	-0.04115582
59	0x3d00476d	0.031318117
60	0xbcf8610e	-0.030319717
61	0x3cf92eba	0.030417789
62	0xbd183187	-0.037156608
63	0xbd263e6e	-0.04058688
64	0xbcd68fa2	-0.026191536
65	0x3cff574f	0.031169562
66	0x3d04603c	0.03231834
67	0x3d15a5d1	0.036535088
68	0xbcfa0767	-0.030521108
69	0x3cddcafd	0.027074331
70	0x3d17830c	0.03699021
71	0x3cf66c69	0.03008099
72	0x3cdb88cc	0.026798628
73	0xbd245d55	-0.04012807
74	0x3d3a5bdd	0.045497764
75	0x3cfd7d8c	0.030943654
76	0xbcff5e1c	-0.031172805
77	0x3d091d17	0.033475008
78	0x3cd05ac0	0.025433898
79	0xbd002782	-0.031287678
80	0x3d0ab76d	0.033866335
81	0xbcca5fc4	-0.024703868
82	0x3d270d96	0.04078444
83	0x3d417d45	0.047238607
84	0xbceb648e	-0.028734472
85	0xbd0e9e25	-0.034818787
86	0xbce2f606	-0.027705204
87	0x3d36aeab	0.04460017
88	0x3ceb2dc4	0.028708346
89	0x3d069edc	0.032866344
90	0x3cfeb90f	0.031094102
91	0xbd118504	-0.035527244
92	0xbcf451ab	-0.029824099
93	0xbcc4ca7f	-0.024022339
94	0x3d3378c4	0.043816343
95	0x3d2c3d2a	0.042050518
96	0x3cdae95a	0.026722599
97	0xbd31f4c2	-0.04344631
98	0xbd43c1d4	-0.04779227
99	0xbd07877b	-0.03308819
100	0x3d0e8b48	0.034800798
101	0x3d3677bc	0.04454778
102	0xbcc12952	-0.023579273
103	0xbc519ed9	-0.01279422
104	0xbd15005c	-0.036377296
105	0xbd02e25d	-0.031954158
106	0xbcecf4c7	-0.028925313
107	0xbccf6ddb	-0.025320938
108	0xbcf00d70	-0.029303282
109	0x3d502ec3	0.050825845
110	0xbce03d1d	-0.027372891
111	0x3ce2f8dc	0.027706556
112	0xbcd4ea72	-0.025990698
113	0x3d20e376	0.039279424
114	0xbd12f32b	-0.035876434
115	0xbcf35dfc	-0.029707901
116	0x3d00fa13	0.03148849
117	0x3d165bb2	0.03670854
118	0x3d0758da	0.03304372
119	0xbcf4b57e	-0.029871698
120	0x3cd06a44	0.025441296
121	0x3d0063e0	0.03134525
122	0x3ce66c58	0.028127834
123	0x3ce0f5f9	0.027461039
124	0xbd02762f	-0.03185099
125	0x3d132f07	0.03593352
126	0xbccb72fb	-0.0248351
127	0x3cce9ca5	0.025221178

cost_backbone.0.weight f4 [128, 38]
0	0xbe22ecf6	-0.15910706
1	0x3d7e5b79	0.062098954
2	0x3d7dc4c4	0.06195523
3	0x3dbed34b	0.09317645
4	0xbe40717b	-0.1879329
5	0xbe09690f	-0.13418983
6	0xbe74808c	-0.23877162
7	0xbd6dbe49	-0.0580428
8	0x3bf26bef	0.0073981206
9	0xbd825973	-0.06364717
10	0xbe90878f	-0.28228423
11	0xbd6a6bd4	-0.05723174
12	0xbe803a92	-0.25044686
13	0xbde8160e	-0.113323316
14	0x3e4d1b4d	0.20029946
15	0xbe61406d	-0.21997233
16	0x3cbb7e59	0.022887396
17	0xbde843ca	-0.11341055
18	0xbe208fa6	-0.15679798
19	0xbe2fecd8	-0.17180192
20	0xbc65d9fd	-0.014029023
21	0xbd346c3e	-0.04404854
22	0x3cf2a2f6	0.029618721
23	0xbd1e1b77	-0.03860041
24	0xbe5d7807	-0.21627818
25	0xbdb19d94	-0.08672634
26	0xbe0aa3b7	-0.13539015
27	0xbde65f53	-0.112486504
28	0xbe4b6cad	-0.19865675
29	0x3d24e5e1	0.040258292
30	0x3e2b2f88	0.1671735
31	0x3da23949	0.079210825
32	0xbda148a8	-0.07875186
33	0xbd6c277d	-0.057654846
34	0x3d3cabac	0.046062157
35	0x3c5a039f	0.013306527
36	0xbe6aa24a	-0.22913471
37	0x3d5c3f7b	0.053771477
38	0xbdc9b48c	-0.0984889
39	0xbe531ba7	-0.20616017
40	0x3dca9702	0.09892084
41	0xbe4230b7	-0.18963896
42	0xbdff0866	-0.12452774
43	0xbe314aa1	-0.17313625
44	0x3e00afa7	0.12567006
45	0xbddf8406	-0.10913853
46	0xbdd1a8a1	-0.102372415
47	0xbe0696b5	-0.13143428
48	0xbdcbf2f4	-0.09958449
49	0x3d61f7f5	0.05516811
50	0xbe6a8083	-0.22900586
51	0x3d50a54a	0.050938882
52	0xbe176af2	-0.1478689
53	0xbdb3b0e1	-0.08773971
54	0x3d0e40ed	0.034729887
55	0x3dfe64f7	0.12421601
56	0x3ce6eff0	0.028190583
57	0x3daf4c72	0.08559503
58	0xbce81e46	-0.028334748
59	0x3d86f631	0.06589926
60	0xbe942fd5	-0.28942743
61	0xbdf03c3c	-0.11730239
62	0xbe29f079	-0.1659564
63	0xbe155958	-0.14584863
64	0x3d95ce1c	0.07314703
65	0xbd88cd17	-0.06679743
66	0x3db40f46	0.08791976
67	0xbde6e628	-0.112743676
68	0xbd87213a	-0.06598134
69	0x3d3e22bf	0.046419855
70	0xbddb86d1	-0.107190736
71	0xbedb0bc6	-0.4278242
72	0xbcc543ee	-0.024080243
73	0x3d848765	0.06471137
74	0xbe25b43c	-0.16182035
75	0xbcb6d10a	-0.022316474
76	0xbea09c6a	-0.31369334
77	0xbd8cc3be	-0.06873272
78	0xbdebe8b9	-0.11518998
79	0xbcfde519	-0.030993031
80	0xbcb47dca	-0.022032637
81	0x3da54823	0.080703996
82	0x3e9d5d27	0.30735132
83	0x3d7f1b9f	0.0622822
84	0xbd425341	-0.04744268
85	0x3d51b775	0.05120035
86	0xbda6b7e8	-0.08140546
87	0xbe081a41	-0.13291265
88	0xbe5b2cb4	-0.21403772
89	0xbe312eb6	-0.17302975
90	0xbe315b05	-0.17319877
91	0xbdf557cc	-0.119796365
92	0x3e4ea4bc	0.20180029
93	0xbe80871d	-0.25103083
94	0xbe389dc0	-0.18028927
95	0x3e6c5051	0.23077513
96	0xbe19e1ef	-0.15027593
97	0xbd51f4cc	-0.051258847
98	0xbb13dfef	-0.0022563895
99	0xbd8c1ea4	-0.06841782
100	0xbdc7a68f	-0.097485654
101	0xbe2d89e3	-0.16947131
102	0xbd683d60	-0.056699157
103	0xbd646ad7	-0.055765953
104	0xbdd4c51a	-0.10389157
105	0x3e1e85ab	0.15480678
106	0x3b8c453e	0.0042807152
107	0x3b53450a	0.0032237195
108	0x3d1d4c86	0.038403057
109	0xbdd3d6a1	-0.103436716
110	0xbdbb41d9	-0.09143419
111	0x3be0432c	0.006843945
112	0xbdf6bff5	-0.12048332
113	0xbe5408dd	-0.20706506
114	0xbd0773a0	-0.033069253
115	0x3dc6a114	0.09698692
116	0x3d176f23	0.036971223
117	0x3c28f978	0.010313384
118	0x3e25bcc8	0.16185296
119	0x3d7e706e	0.06211894
120	0xbe01b86b	-0.12668006
121	0x3e68f143	0.22748284
122	0xbe3a14b3	-0.18171959
123	0x3cd296bd	0.025706643
124	0x3e65b3af	0.22431825
125	0xbd4f834a	-0.050662316
126	0x3e7fd4e4	0.24983555
127	0x3dfd75ad	0.123759605
128	0x3e5073e0	0.20356703
129	0xbdf3cd38	-0.11904377
130	0x3e4e1388	0.20124638
131	0x3d126ba2	0.035747178
132	0x3de8eb64	0.11373022
133	0xbd3013c8	-0.042987615
134	0x3dd1efbf	0.10250806
135	0xbde08485	-0.10962776
136	0x3e46f078	0.19427669
137	0x3c9c17ce	0.01905432
138	0xbe1a3c21	-0.15062
139	0x3c823557	0.015894575
140	0x3d862c37	0.06551402
141	0x3e2c0e5c	0.16802353
142	0xbdb92cf5	-0.09041778
143	0xbc1a9202	-0.009434225
144	0xbc9ffc51	-0.019529494
145	0x3e45e4d7	0.19325577
146	0x3dde3303	0.108495735
147	0x3d7f9a15	0.062402803
148	0xbd84f58c	-0.06492147
149	0x3e91ddb3	0.28489456
150	0xbd08c8f1	-0.033394758
151	0x3db200f9	0.08691592
152	0x3d5f34c2	0.054493673
153	0xbde57c71	-0.11205376
154	0xbd93dc31	-0.072197326
155	0x3e11af86	0.14227113
156	0xbe2b6e9d	-0.16741414
157	0xbdfa9c08	-0.12236792
158	0xbe496257	-0.1966642
159	0x3e0f1a35	0.13974841
160	0xbdd23991	-0.10264886
161	0x3e1b761e	0.15181777
162	0xbd88ab46	-0.06673293
163	0xbe1d8b50	-0.15385175
164	0xbdf2e02e	-0.11859165
165	0xbe2e1afc	-0.17002481
166	0x3d4e2210	0.050325453
167	0xbc7f51bc	-0.015583452
168	0xbea711be	-0.32630724
169	0xbd73c8ea	-0.05951778
170	0xbdd20c3a	-0.10256238
171	0xbab08d79	-0.0013469897
172	0xbd4d5994	-0.050134256
173	0xbe136401	-0.14393617
174	0xbe368bcb	-0.17826764
175	0x3d3dae11	0.04630858
176	0x3d5e8e56	0.05433496
177	0xbe8111e8	-0.25208974
178	0x3dff720a	0.12472923
179	0xbd4ecac6	-0.05048635
180	0x3d88d739	0.066816755
181	0xbe07ea9a	-0.13273087
182	0xbcd6e614	-0.026232757
183	0xbdaef401	-0.08542634
184	0xbd63fb95	-0.05565985
185	0xbe37c553	-0.17946367
186	0xbe9e8f77	-0.3096883
187	0xbe0ae545	-0.13564022
188	0xbd333f8d	-0.04376178
189	0x3c6b0977	0.014345518
190	0x3e373917	0.17892872
191	0xbe70bf3f	-0.23510455
192	0x3c530ddc	0.012881722
193	0xbd60c558	-0.0548757
194	0x3dda0e06	0.10647206
195	0xbb34dc4b	-0.0027597125
196	0x3cf3e5b2	0.029772613
197	0xbdcd7cbe	-0.10033558
198	0x3e80be36	0.2514512
199	0x3ea94f92	0.3306852
200	0xbc9474ba	-0.018122066
201	0xbdbfd43c	-0.09366652
202	0x3e0d6892	0.13809422
203	0x3e407f79	0.18798627
204	0xbe4bd4a8	-0.1990534
205	0xbbef59a0	-0.0073043853
206	0x3d460396	0.048343264
207	0x3e09669e	0.13418052
208	0x3ebd1fb4	0.3693825
209	0xbccbeae6	-0.024892282
210	0xbe542277	-0.20716272
211	0x3e03570c	0.12826174
212	0x3dc82bfd	0.09774015
213	0xbc5f81ae	-0.013641758
214	0xbd04100b	-0.032241862
215	0x3e0f1f19	0.13976707
216	0x3daf20c8	0.085511744
217	0x3df36411	0.118843205
218	0xbe8424c0	-0.25809288
219	0xbd12049d	-0.03564893
220	0x3ea52329	0.32253388
221	0x3e597684	0.21236616
222	0x3e4636c5	0.1935683
223	0x3d57cb7f	0.052684303
224	0x3c34fec7	0.011047072
225	0xbccb60eb	-0.024826488
226	0x3d77269b	0.06033955
227	0x3e14e66b	0.14541022
228	0x3cf78f46	0.030219685
229	0xbd09270b	-0.0334845
230	0xbd91cdc2	-0.07119323
231	0xbdbeb21d	-0.09311316
232	0xbe64c24d	-0.22339745
233	0xb89a0498	-7.344148e-05
234	0x3d8ed3eb	0.06974014
235	0x3c142151	0.009041146
236	0xbc874215	-0.016511003
237	0xbe2e89a4	-0.17044693
238	0xbc8150cb	-0.015785595
239	0x3e2e27e4	0.17007405
240	0xbe32f294	-0.17475349
241	0xbd43b9da	-0.047784664
242	0xbb1962e5	-0.0023404893
243	0xbd9a1e05	-0.07525257
244	0xbcf99b78	-0.030469641
245	0x3e4d098e	0.20023176
246	0xbcd0b636	-0.02547751
247	0xbe066a14	-0.13126403
248	0xbdd1888f	-0.102311246
249	0x3a4fe93d	0.00079311786
250	0xbd99adde	-0.07503866
251	0x3e1b793c	0.15182966
252	0x3c9ccf04	0.019141681
253	0x3ca577e7	0.020198775
254	0xbe700ce2	-0.23442414
255	0xbdbebaaf	-0.09312951
