outputs/ent_sweep_20260124/A_lagrange_ent0.05_seed0_v3/best_fsr.pt (torch, 981601 bytes, 68 tensors)

actor_backbone.0.weight f4 [128, 22]
-0.030129233 0.13353752 0.26176605 0.028261768 -0.09013415 -0.07328879 -0.04013896 0.037428275
-0.15566078 0.20390226 -0.042749904 -0.24851172 0.014631044 0.108923934 -0.14454745 0.1107571
0.011916633 -0.06654851 0.16817485 0.06128703 0.2193655 -0.18454523 0.032446288 0.0377728
-0.2662417 -0.09926798 -0.14369611 0.042109426 0.07218705 -0.10158587 0.23717074 0.10379228
0.21815567 0.006988942 -0.1634433 0.0033060645 0.05655873 0.17080894 -0.046920404 0.010483386
0.039216653 -0.121656984 0.07320051 0.14223693 -0.31689054 -0.14759812 -0.057365797 0.0628
-0.12158506 -0.035486095 -0.015274812 -0.04879367 0.024018278 -0.01004296 -0.08965456 0.025274025
0.114427775 0.06995977 0.1543077 -0.0132180825 -0.20354313 0.031180382 0.0028583517 0.019988153
0.32213038 -0.043188166 -0.00322142 0.21104032 -0.06729104 -0.12714493 -0.025222575 -0.111227274
0.0064013754 0.116033904 -0.19364713 0.11481487 -0.09328352 -0.2710778 -0.032671966 0.2048544
0.034907352 -0.056733083 0.04187093 -0.03194281 0.046092127 0.15048133 -0.040526807 0.04575432
-0.35892797 0.05328276 0.30061397 -0.1495335 0.10356428 -0.05101059 -0.2380745 0.1067913
-0.008220116 0.079710625 -0.08934211 -0.07008368 -0.10509556 0.057052076 0.13079906 -0.09196284
0.072911054 0.022953136 -0.07099731 -0.09920267 0.0076175076 -0.055807427 0.03861316 -0.16761394
0.12820897 0.080362655 0.07778745 -0.005363072 -0.11604337 -0.068835236 -0.023066923 -0.03373328
0.16884565 -0.08532499 -0.011222357 0.14057271 -0.23234817 -0.035384707 -0.21239226 -0.113388866
-0.3260735 0.044666674 -0.03465074 0.14289923 -0.23268148 0.06250886 -0.063385606 -0.11510929
-0.15847385 -0.26043028 0.03680676 -0.12052555 0.041842286 0.00646744 -0.15773712 0.017869463
-0.059262425 -0.20002982 -0.029624265 0.15096517 0.25709102 -0.07137501 0.030344049 0.025732735
0.091966674 -0.1756283 0.024078915 -0.2684304 0.12252633 0.16966948 -0.0045582806 -0.04618626
-0.041382417 -0.117049925 -0.055168744 0.026681343 -0.13748793 -0.20640725 0.058852322 -0.03399991
0.18154322 -0.0061425264 -0.007061325 0.15595691 0.013246953 0.21699521 0.10825821 0.062133312
0.38573092 -0.008718615 0.017760979 -0.086765945 -0.202373 0.044650774 -0.18686418 0.14674532
0.018354548 -0.04553476 0.14638208 0.06590037 -0.019482417 -0.05751651 -0.16097726 -0.067962065
-0.084012605 0.15375969 0.033071753 0.061180685 0.1496243 0.32653385 -0.19903518 -0.17411843
0.15490966 0.093698904 0.09382869 -0.066464044 0.02765757 0.008414662 0.0847593 -0.25351885
0.07946236 0.118940674 0.017713029 0.034263656 -0.18346015 0.030137895 -0.037784174 -0.037392814
-0.03786178 0.06295293 0.16808109 -0.021115614 0.28853208 -0.11709618 -0.0758429 0.03084347
0.029667398 -0.15941492 0.0023046182 0.107104324 -0.11423613 0.0019148566 0.07864112 0.03726436
-0.02570986 -0.16807011 -0.03336776 -0.014274667 -0.084877826 -0.07975103 0.21448258 -0.11801776
0.13066086 0.11682023 0.08269117 0.14874257 -0.11398701 -0.08808575 -0.16240865 0.07017583
-0.099560454 -0.19314878 -0.065894835 -0.06735202 0.04175609 -0.040529486 -0.010482104 -0.049785182
00000000: 95d1 f6bc 0fbe 083e 3306 863e 3985 e73c
00000010: 4198 b8bd 6f18 96bd c068 24bd 644e 193d
00000020: 8a65 1fbe c1cb 503e 861a 2fbd db79 7ebe
00000030: 0cb7 6f3c 8313 df3d 3f04 14be 9ed4 e23d
00000040: fb3d 433c 964a 88bd 0736 2c3e 1c08 7b3d
00000050: 5aa1 603e 6df9 3cbe 66e6 043d a7b7 1a3d
00000060: d550 88be 034d cbbd 1325 13be ef7a 2c3d
00000070: ced6 933d 410c d0bd e3dc 723e 0c91 d43d
00000080: 3364 5f3e 7f03 e53b ae5d 27be 8faa 583b
00000090: 20aa 673d 8ae8 2e3e 9c2f 40bd 82c2 2b3c
000000a0: a4a1 203d 4c27 f9bd 26ea 953d 8fa6 113e
000000b0: 7a3f a2be f623 17be 66f8 6abd 499d 803d
000000c0: 9701 f9bd de59 11bd 3443 7abc dfdb 47bd
000000d0: fbc1 c43c 3a8b 24bc cf9c b7bd 790b cf3c
000000e0: 1c59 ea3d 1147 8f3d d602 1e3e a890 58bc
000000f0: 9c6d 50be 006e ff3c 2f53 3b3b 32be a33c
00000100: 46ee a43e 13e6 30bd 761e 53bb f41a 583e
00000110: e3cf 89bd 4832 02be 939f cebc 20cb e3bd
00000120: a1c2 d13b 2fa3 ed3d 6f4b 46be 0f24 eb3d
00000130: 6e0b bfbd b6ca 8abe 0ad3 05bd 5ac5 513e
00000140: 03fb 0e3d f360 68bd da80 2b3d 77d6 02bd
00000150: 19cb 3c3d c717 1a3e 70ff 25bd e268 3b3d
00000160: 68c5 b7be 063f 5a3d 13ea 993e 4f1f 19be
00000170: 8219 d43d 7bf0 50bd cdc9 73be 66b5 da3d
00000180: aaad 06bc 533f a33d fff8 b6bd 0888 8fbd
00000190: 573c d7bd 70af 693d 30f0 053e 0357 bcbd
000001a0: 6452 953d 3708 bc3c 0a67 91bd c52a cbbd
000001b0: 499c f93b 5496 64bd d528 1e3d fda2 2bbe
000001c0: 3649 033e 2d95 a43d 074f 9f3d b5bc afbb
000001d0: 25a8 edbd 7df9 8cbd d8f6 bcbc e82b 0abd
000001e0: e0e5 2c3e debe aebd fadd 37bc 4bf2 0f3e
000001f0: aeec 6dbe 8eef 10bd 5b7d 59be 6c38 e8bd
00000200: 1bf3 a6be 67f4 363d efed 0dbd 2d54 123e
00000210: 0e44 6ebe a504 803d 50d0 81bd 6bbe ebbd
00000220: f846 22be 1e57 85be afc2 163d 19d6 f6bd
00000230: d162 2b3d d2ec d33b d785 21be fb62 923c
00000240: 28bd 72bd 9ed4 4cbe 96ae f2bc 9d96 1a3e
00000250: 6fa1 833e 102d 92bd 1594 f83c 75cd d23c
00000260: 0659 bc3d e8d7 33be 2541 c53c b66f 89be
00000270: 16ef fa3d d6bd 2d3e a15d 95bb ce2d 3dbd
00000280: 9c80 29bd dfb7 efbd 9ff8 61bd d592 da3c
00000290: a3c9 0cbe 6c5c 53be 220f 713d 7d43 0bbd
000002a0: 77e6 393e 3f47 c9bb b062 e7bb 2bb3 1f3e
000002b0: bf09 593c fe33 5e3e 7bb6 dd3d 807f 7e3d
000002c0: 867e c53e 86d8 0ebc 797f 913c 58b2 b1bd
000002d0: de3a 4fbe bbe3 363d 5359 3fbe 6844 163e
000002e0: 475c 963c a882 3abd 2fe5 153e c6f6 863d
000002f0: 9799 9fbc 6f96 6bbd 39d7 24be b22f 8bbd
00000300: cd0e acbd 2e73 1d3e 3f76 073d 9998 7a3d
00000310: 1d37 193e 722f a73e e1cf 4bbe 1a4c 32be
00000320: a3a0 1e3e 36e5 bf3d 4229 c03d 4d1e 88bd
00000330: 2192 e23c a7dd 093c 4996 ad3d 39cd 81be
00000340: 29bd a23d 2b97 f33d ea1a 913c 0c58 0c3d
00000350: fadc 3bbe bfe3 f63c 94c3 1abd 3529 19bd
00000360: f414 1bbd 77ed 803d 731d 2c3e a7fa acbc
00000370: 7aba 933e 1fd0 efbd 8653 9bbd 72ab fc3c
00000380: 0b09 f33c aa3d 23be 1409 173b 8359 db3d
00000390: a2f4 e9bd edfb fa3a 980e a13d 83a2 183d
000003a0: 7c9d d2bc 921a 2cbe a2ac 08bd 4be0 69bc
000003b0: 6dd4 adbd 8254 a3bd 52a1 5b3e 4cb3 f1bd
000003c0: f6cb 053e 723f ef3d fd59 a93d f94f 183e
000003d0: 0672 e9bd 4d66 b4bd 744e 26be 58b8 8f3d
000003e0: 5ae6 cbbd cbc8 45be dff3 86bd dbef 89bd
000003f0: 6f08 2b3d 3f02 26bd 21bd 2bbc 8ceb 4bbd

actor_backbone.0.bias f4 [128]
-0.020521887 -0.25102165 0.20559089 -0.2009365 0.25985703 -0.21473658 -0.042570308 0.22346707
0.22551651 -0.18826783 -0.07255945 -0.26517797 0.24152477 -0.17453147 -0.22537373 -0.13277905
-0.054719478 0.2252839 -0.035749063 0.2574172 -0.19149497 0.22225748 0.21792005 0.026565686
0.24567004 0.15592039 0.13544732 -0.2393394 -0.15692008 0.24914356 -0.19280244 0.16572602
-0.09583486 -0.2661323 -0.2461212 -0.13396089 -0.21992649 -0.22965772 0.24278986 0.06838299
0.22156091 -0.11296206 0.029456377 0.23450136 -0.16301979 0.23332249 0.08232334 -0.19238836
0.17467983 -0.2696533 -0.18339677 0.13863784 0.25558633 0.23828153 0.13380654 -0.21665668
0.0068668895 -0.17718837 0.2265911 -0.03169631 0.09749065 -0.20171262 -0.22515632 -0.17085934
-0.10076465 -0.16414937 0.16250074 0.1805163 -0.23526219 -0.21958731 0.16801678 0.13754503
0.12376071 0.04504392 0.2248916 0.23852351 0.18278176 0.28120452 -0.22785747 0.22527914
0.13321877 -0.25668165 0.100602485 0.12831843 0.16358496 -0.20859978 0.19815485 0.13187455
-0.21379541 0.23815274 -0.26282114 -0.24660231 -0.07644251 -0.11529492 0.12839042 0.23482387
-0.09178502 0.2630581 0.22898701 -0.1486422 -0.1207759 0.056609947 -0.20050856 0.23793642
-0.24573004 0.18510504 -0.21856381 0.22003001 -0.2827714 -0.13451876 0.25655636 -0.2223502
0.20636407 0.24323377 0.22584547 0.25722098 -0.18986432 0.1525642 -0.12691964 0.19745713
0.18928191 -0.15217261 -0.22815982 0.26746574 0.24742742 0.10650775 -0.09942414 0.17999947
00000000: 841d a8bc e985 80be 6b86 523e 4cc2 4dbe
00000010: fb0b 853e e8e3 5bbe 345e 2ebd 8dd4 643e
00000020: cded 663e 48c9 40be 0d9a 94bd 68c5 87be
00000030: 4552 773e 61b8 32be 5fc8 66be 3bf7 07be
00000040: 8821 60bd d3b0 663e 9c6d 12bd 30cc 833e
00000050: 4217 44be 7797 633e 6f26 5f3e 48a0 d93c
00000060: ed90 7b3e 98a9 1f3e b4b2 0a3e 6315 75be
00000070: a8af 20be 7d1f 7f3e 016e 45be 15b4 293e
00000080: 1145 c4bd 7e42 88be 3207 7cbe 0b2d 09be
00000090: 6934 61be 652b 6bbe e89d 783e 620c 8c3d
000000a0: dde0 623e a758 e7bd 804e f13c 2021 703e
000000b0: a9ee 26be 17ec 6e3e 2499 a83d 7401 45be
000000c0: 45df 323e ff0f 8abe 5dcc 3bbe 14f7 0d3e
000000d0: 36dc 823e 1300 743e 9504 093e 40db 5dbe
000000e0: a503 e13b de70 35be 7f07 683e fdd3 01bd
000000f0: 2ea9 c73d c18d 4ebe 618f 66be c0f5 2ebe
00000100: b25d cebd c616 28be 9866 263e 44d9 383e
00000110: 92e8 70be 7fdb 60be 970c 2c3e 9bd8 0c3e
00000120: 4176 fd3d f97f 383d fc49 663e 823f 743e
00000130: 242b 3b3e 0afa 8f3e 7853 69be 93af 663e
00000140: 806a 083e c76b 83be ad08 ce3d e865 033e
00000150: d182 273e 2e9b 55be 1be9 4a3e 1f0a 073e
00000160: 2fed 5abe 50de 733e 7e90 86be 5185 7cbe
00000170: e48d 9cbd be1f ecbd c778 033e ab75 703e
00000180: c9f9 bbbd 8daf 863e 927b 6a3e a935 18be
00000190: 5b59 f7bd d5df 673d 1e52 4dbe 9ba5 733e
000001a0: a8a0 7bbe 2d8c 3d3e 31cf 5fbe 8c4f 613e
000001b0: 6ac7 90be 49bf 09be 5b5b 833e c5af 63be
000001c0: 1a51 533e 4612 793e 0944 673e 78b2 833e
000001d0: cb6b 42be ca39 1c3e 39f7 01be 3432 4a3e
000001e0: 1ed3 413e 23d3 1bbe baa2 69be 45f1 883e
000001f0: 9d5d 7d3e bc20 da3d e29e cbbd c851 383e

actor_backbone.2.weight f4 [128, 128]
-0.06739844 -0.03199218 -0.10400561 0.052870933 -0.09933068 0.081803694 0.11517127 -0.23206003
0.027381895 0.091258116 -0.23894179 -0.021073194 0.04277575 -0.029927002 0.0022360804 -0.26300952
-0.0059056696 0.062455416 0.0456745 0.06077723 0.16701844 0.27916512 0.08681606 -0.10541221
-0.10108949 -0.04031109 0.2069995 0.05773994 -0.19105177 0.17985123 -0.092223786 -0.115531124
0.20720129 0.09051255 -0.049860314 -0.11487769 0.13743642 0.13524751 0.17550421 -0.23580198
0.16439444 0.22205822 0.14137806 -0.071366414 -0.0041175596 -0.12603272 -0.09254406 -0.101139575
-0.21669406 0.106825314 0.06407957 0.04835626 0.09544716 -0.14402688 -0.087667905 -0.141393
-0.19386256 -0.01290722 0.06740643 0.11848101 0.09275641 0.08683367 -0.007042284 0.16210149
-0.23610382 0.050793227 0.009629309 0.10309264 -0.021461267 -0.15914258 0.015956163 0.06264458
0.11072813 0.20010234 0.11306368 0.2591573 -0.17865591 -0.077471726 -0.06377603 -0.0037350922
-0.020822577 -0.0705652 -0.15724692 -0.026112618 -0.025468444 0.017015783 0.23046014 -0.10117949
0.108032286 0.2254921 0.14288808 0.13382688 0.22822283 -0.2543937 -0.044303287 0.14228551
-0.42221537 -0.11514125 -0.1609326 -0.14622934 -0.18311228 0.20952378 -0.096763924 -0.15375732
-0.08631635 0.016503198 0.085684314 -0.32325435 0.009875335 -0.09612816 0.14305368 -0.0500804
0.16737267 0.12129655 0.1662973 0.05185441 0.06707182 -0.224944 0.16981798 0.0480176
0.018913584 -0.027817223 0.096257806 0.07277759 -0.08936154 0.06549214 0.2916589 0.13058947
0.009511976 0.07822371 0.118980184 -0.1869342 0.071122855 0.074876375 -0.0373111 -0.083340004
0.18316777 0.06523738 0.035013128 0.13401338 0.2802186 -0.05129813 -0.047967885 -0.25866815
-0.075165 0.10233167 -0.27557287 0.03695316 0.096152276 0.0144156385 -0.03486547 -0.25415486
-0.16350552 -0.15800123 -0.048801 0.08538846 -0.38124505 0.15553465 -0.18157518 0.09057515
0.17709796 -0.071338095 -0.0006419234 -0.022353353 -0.0053475676 -0.024673836 -0.08303837 -0.22368114
-0.043610454 0.20962933 0.0026028394 -0.07624513 -0.20355071 0.021646872 0.16013514 -0.006492772
0.00016344344 0.08329427 0.16129372 -0.09158858 0.06477201 -0.0224265 -0.033218745 0.12950927
0.041565526 -0.11388045 0.004578587 -0.25612527 0.098895855 0.122591466 -0.09811124 -0.12616684
-0.18280174 -0.102889106 -0.10630658 -0.040880613 -0.11790835 -0.10754218 -0.15034576 -0.09539573
-0.16008219 0.12303474 -0.033334427 0.19797221 -0.08277511 -0.25875983 0.14002536 0.09467232
0.19535257 -0.07946137 -0.13925953 -0.12839004 0.07781927 -0.13984111 0.0055095674 0.06879914
0.061383247 -0.057619996 -0.00048944674 -0.050660335 -0.028051594 -0.1419319 -0.0045698173 -0.26845798
-0.16665196 -0.3272123 0.14292388 0.07642396 0.02613765 -0.064400844 0.3097076 0.023868686
-0.033815715 -0.1464614 -0.081997 -0.13241912 -0.081856646 -0.1903897 0.12630308 -0.038145553
0.024281388 0.056097858 0.0041661575 0.06740536 0.18497238 0.0402574 -0.26037848 -0.11906485
0.03443196 0.10533048 0.31971455 -0.12899238 0.058575418 0.2239873 -0.0055500213 0.06133991
00000000: 3108 8abd 3b0a 03bd e500 d5bd 318f 583d
00000010: e26d cbbd b288 a73d eade eb3d 25a1 6dbe
00000020: ff4f e03c 89e5 ba3d 28ad 74be b1a1 acbc
00000030: a035 2f3d 7929 f5bc 348b 123b 2fa9 86be
00000040: 5984 c1bb 40d1 7f3d 2f15 3b3d 8bf1 783d
00000050: e206 2b3e bbee 8e3e 9ecc b13d 5be2 d7bd
00000060: 0208 cfbd 3e1d 25bd adf7 533e b780 6c3d
00000070: 13a3 43be ec2a 383e d3df bcbd 959b ecbd
00000080: 932c 543e a55e b93d 543a 4cbd ff44 ebbd
00000090: 22bc 0c3e 537e 0a3e 60b7 333e 1376 71be
000000a0: 0457 283e 3b63 633e 69c5 103e 8e28 92bd
000000b0: 98ec 86bb b90e 01be bd87 bdbd 4422 cfbd
000000c0: 0ce5 5dbe 3bc7 da3d 263c 833d 3711 463d
000000d0: cd79 c33d c87b 13be 3b8b b3bd 54c9 10be
000000e0: e883 46be ce78 53bc 620c 8a3d 2ca6 f23d
000000f0: 13f7 bd3d dad5 b13d f6c2 e6bb effd 253e
00000100: 33c5 71be 8f0c 503d 40c4 1d3c 3c22 d33d
00000110: 8acf afbc 46f6 22be 80b6 823c cd4b 803d
00000120: 6ec5 e23d a1e7 4c3e ee8d e73d 44b0 843e
00000130: 93f1 36be 7fa9 9ebd 029d 82bd 73c8 74bb
00000140: 1c94 aabc 7d84 90bd 5605 21be 21ea d5bc
00000150: 33a3 d0bc af64 8b3c befd 6b3e 3137 cfbd
00000160: 0840 dd3d 67e7 663e 4151 123e ea09 093e
00000170: 3fb3 693e e43f 82be 5d77 35bd 4bb3 113e
00000180: 9d2c d8be 2dcf ebbd 84cb 24be 25bd 15be
00000190: c981 3bbe 678d 563e 2a2c c6bd 8f72 1dbe
000001a0: a0c6 b0bd b731 873c 427b af3d 9881 a5be
000001b0: 28cc 213c d7de c4bd aa7c 123e 1b21 4dbd
000001c0: be63 2b3e 536a f83d d749 2a3e 4a65 543d
000001d0: f35c 893d b857 66be c4e4 2d3e 1aae 443d
000001e0: a9f0 9a3c f2e0 e3bc d022 c53d 6b0c 953d
000001f0: 2f03 b7bd be20 863d 5154 953e 3fb9 053e
00000200: 1ed8 1b3c c133 a03d e2ab f33d ae6b 3fbe
00000210: dca8 913d c958 993d 86d3 18bd 2aae aabd
00000220: 5590 3b3e 2d9b 853d ed69 0f3d ce3a 093e
00000230: d078 8f3e fd1d 52bd f979 44bd 2770 84be
00000240: 1cf0 99bd 4493 d13d e317 8dbe 325c 173d
00000250: 7ceb c43d 922f 6c3c 18cf 0ebd 9620 82be
00000260: fe6d 27be 13cb 21be 8fe3 47bd 25e0 ae3d
00000270: 8d32 c3be 7a44 1f3e d8ee 39be 777f b93d
00000280: 2b59 353e b519 92bd c046 28ba 611e b7bc
00000290: a63a afbb c920 cabc 0510 aabd ab0c 65be
000002a0: e0a0 32bd 12a9 563e 6694 2a3b 6826 9cbd
000002b0: 996f 50be c854 b13c 77fa 233e 52c1 d4bb
000002c0: 0462 2b39 3096 aa3d 2e2a 253e cb92 bbbd
000002d0: 30a7 843d c8b7 b7bc 6110 08bd 149e 043e
000002e0: 9d40 2a3d 273a e9bd f907 963b da22 83be
000002f0: e989 ca3d 3c11 fb3d 8cee c8bd e131 01be
00000300: 6130 3bbe 86b7 d2bd 44b7 d9bd 6e72 27bd
00000310: ef79 f1bd 133f dcbd 3df4 19be d65e c3bd
00000320: 96ec 23be a3f9 fb3d ae89 08bd 3ab9 4a3e
00000330: ff85 a9bd 2b7c 84be cf62 0f3e 90e3 c13d
00000340: 810a 483e a5bc a2bd 0d9a 0ebe ae78 03be
00000350: b65f 9f3d 8232 0fbe 9a89 b43b 90e6 8c3d
00000360: 006d 7b3d f202 6cbd 374e 00ba 3681 4fbd
00000370: 75cc e5bc 9956 11be 68be 95bb 5373 89be
00000380: d0a6 2abe 5f88 a7be a35a 123e 2a84 9c3d
00000390: a01e d63c 97e4 83bd ff91 9e3e 4388 c33c
000003a0: 5982 0abd faf9 15be 0bee a7bd e198 07be
000003b0: 75a4 a7bd 84f5 42be 9855 013e 833e 1cbd
000003c0: c3e9 c63c dec6 653d 4384 883b d20b 8a3d
000003d0: 6669 3d3e f2e4 243d 5450 85be 46d8 f3bd
000003e0: 8708 0d3d 82b7 d73d a0b1 a33e 9416 04be
000003f0: c7ec 6f3d ed5c 653e f4dc b5bb 8f3f 7b3d

actor_backbone.2.bias f4 [128]
0.096614555 0.080558605 0.10665985 -0.13847117 -0.20845668 0.12202 0.10700095 -0.20716931
-0.10098658 -0.22607623 0.24708074 0.24045698 0.18387133 0.00975235 -0.077210926 -0.16430059
0.23294924 0.2107015 -0.089309245 0.2558266 0.027174752 0.10135263 0.1549096 -0.13523977
-0.21231498 0.21415684 -0.06757539 -0.13062002 -0.21823461 0.1915277 0.10357617 0.10675171
-0.16327515 -0.23233597 0.21803607 0.21294919 0.19630316 -0.2216525 0.24723247 -0.25339028
-0.034200586 0.10903404 0.20555505 -0.25391945 0.08337593 -0.13967694 -0.20490147 0.19135593
0.18823262 0.23051867 0.07430311 0.23250286 0.10727907 0.2006241 0.20310768 0.21212636
0.16497171 0.08791609 0.07333018 -0.097879335 0.22507818 -0.06871104 0.14594884 -0.17053905
0.12863865 -0.21030901 -0.23468637 0.19251084 -0.16298777 0.2137492 0.21721502 0.19228415
0.24736814 -0.1799617 0.11348239 -0.20584258 -0.2047202 -0.19377626 -0.067511246 -0.15683345
0.13777545 -0.18849796 -0.22973624 -0.2355665 0.22095296 -0.18872342 -0.11063336 -0.22147411
0.098153874 0.13762692 0.24092004 0.1486912 -0.10362301 0.21165739 0.10336963 0.14954951
-0.13550723 -0.21750271 -0.24202184 0.07582312 -0.2453825 -0.19575895 0.25082672 -0.18982002
-0.22099498 0.024476508 -0.22018975 0.23999001 -0.16319333 0.21947895 0.16361158 0.075398564
0.027953835 0.17395827 0.20616393 -0.0830858 -0.22996227 -0.19197905 0.15451695 -0.17407605
0.21514584 -0.20294526 -0.21049316 -0.2383502 0.18065915 -0.08806465 -0.0457021 0.21954085
00000000: dadd c53d e9fb a43d 7b70 da3d 63cb 0dbe
00000010: ab75 55be 9fe5 f93d 5023 db3d 3124 54be
00000020: 0dd2 cebd 8780 67be bc02 7d3e 5b3a 763e
00000030: c448 3c3e 52c8 1f3c c320 9ebd 6a3e 28be
00000040: 3f8a 6e3e 22c2 573e c4e7 b6bd b4fb 823e
00000050: 969d de3c f891 cf3d 9fa0 1e3e 4b7c 0abe
00000060: 1969 59be ee4b 5b3e f764 8abd 41c1 05be
00000070: e578 5fbe d61f 443e be1f d43d a4a0 da3d
00000080: 9a31 27be 7be9 6dbe d944 5f3e 5a0f 5a3e
00000090: b203 493e dff8 62be 822a 7d3e 5fbc 81be
000000a0: ea15 0cbd 3d4d df3d 067d 523e bb01 82be
000000b0: 00c1 aa3d 7907 0fbe b1d1 51be cff2 433e
000000c0: 0dc0 403e 160d 6c3e 3b2c 983d 3b15 6e3e
000000d0: 21b5 db3d 6770 4d3e 76fb 4f3e a737 593e
000000e0: 58ee 283e 5a0d b43d 222e 963d f674 c8bd
000000f0: e57a 663e 60b8 8cbd 9d73 153e caa1 2ebe
00000100: dab9 033e 3f5b 57be a051 70be 9021 453e
00000110: 44e6 26be 12e1 5a3e 9d6d 5e3e 23e6 443e
00000120: 134e 7d3e e147 38be 7569 e83d 66c8 52be
00000130: 2ca2 51be 496d 46be 5643 8abd f398 20be
00000140: 0215 0d3e 9c05 41be fa3f 6bbe 5838 71be
00000150: 7e41 623e b640 41be be93 e2bd 1cca 62be
00000160: e604 c93d 12ee 0c3e beb3 763e 8242 183e
00000170: 4d38 d4bd b7bc 583e 75b3 d33d 8223 193e
00000180: 68c2 0abe 08b9 5ebe 93d4 77be 2749 9b3d
00000190: 8d45 7bbe 0975 48be 5c6c 803e 2e60 42be
000001a0: 824c 62be f582 c83c 6c79 61be f1bf 753e
000001b0: 271c 27be 17bf 603e cb89 273e 906a 9a3d
000001c0: 71ff e43c 1e22 323e a31c 533e e328 aabd
000001d0: 3b7b 6bbe 2896 44be b139 1e3e fe40 32be
000001e0: 314f 5c3e e2d0 4fbe 858b 57be 1312 74be
000001f0: b6fe 383e 3d5b b4bd 2032 3bbd 51cf 603e

reward_backbone.0.weight f4 [128, 22]
0.10825089 -0.041850325 0.16611682 0.3247963 0.034155015 -0.24505341 -0.019515747 0.007439555
0.12173241 -0.18767238 -0.079577394 0.009469132 0.076759465 0.050006915 -0.067015454 0.08402559
0.047221676 0.011977639 -0.018557273 -0.03642386 0.14426285 0.126932 0.092781805 -0.020418247
0.061880462 0.07861711 0.05114882 0.11148093 -0.06522905 -0.09625455 0.09858603 -0.11791363
-0.045262977 -0.30284318 0.1997918 -0.06924062 -0.061738703 -0.09163769 0.040843364 0.13821638
-0.037499785 -0.19914262 -0.063173875 0.115731135 0.043862056 -0.1367621 -0.07538397 -0.1866872
-0.0056532514 -0.13197 -0.13005304 0.034192473 -0.16138744 -0.007111966 -0.068590745 -0.04278414
0.24980593 -0.104161076 -0.077268936 0.20864178 -0.031047849 -0.088518634 -0.16598901 -0.15537849
-0.05068191 -0.30568644 0.12806205 0.08467761 0.14481656 -0.09966588 0.010930317 0.14163141
0.027053084 0.03177422 -0.065860115 0.15369122 0.0141787045 -0.20525587 -0.02894851 -0.0610658
0.0075443257 0.04684142 0.050520144 -0.006362461 -0.033652507 -0.20590903 0.020459708 -0.01228845
0.06615454 -0.027481977 -0.19462061 0.006315734 -0.017394021 -0.025292758 0.07031061 0.091153555
-0.3472074 -0.14425051 -0.12509756 -0.17643125 -0.008457335 0.1316611 0.15226991 0.033637714
0.19179338 -0.19472244 0.08504666 -0.189724 0.18990958 -0.038695827 0.05460979 -0.24188584
0.060386837 0.2974156 -0.0022616223 -0.067193374 0.131568 0.085659824 0.0057538324 -0.1377295
0.13126957 -0.07295863 -0.14795767 0.22070271 0.07969102 0.0047778706 0.046587173 -0.04250155
-0.007685777 0.1711207 0.16362984 -0.03235682 0.07755438 0.05686494 0.102125674 -0.06636372
-0.07760661 -0.26555088 -0.17283507 -0.1620247 0.11228324 0.2677167 -0.016906956 -0.06545436
-0.08492539 -0.14064467 0.007936282 -0.026556915 -0.029190462 0.004685763 -0.08360176 0.13480811
0.0322592 -0.097764686 -0.13408196 0.1378581 -0.10137198 -0.03134408 0.092503764 0.11341298
-0.12508176 0.19444196 0.12394155 -0.20147263 -0.035368703 -0.15052173 0.12303857 0.056265704
-0.0635017 -0.08176284 0.024874307 -0.046399444 -0.04412667 -0.070675895 -0.103746176 -0.17850126
-0.02502646 0.0423522 -0.102704056 -0.1316716 0.091794536 -0.058746763 0.117175594 -0.07959614
0.02506006 -0.073746994 -0.03593631 -0.030126674 0.22184516 -0.17427386 -0.23940271 -0.02130737
-0.06423792 0.061148558 0.2192623 0.0080297105 -0.02010103 0.19256735 -0.025034761 -0.17308246
-0.2688801 0.21164456 0.20307034 -0.20067766 -0.054632787 -0.110139616 -0.038554177 -0.07049051
0.112843566 -0.089643195 -0.023792135 0.05208984 0.0138294045 0.023999391 0.11245627 0.1693241
-0.21359475 -0.09409399 -0.03347569 0.058041755 -0.19733936 0.109928176 0.024852388 0.1292673
0.23521261 -0.06809469 -0.03264183 -0.024637943 -0.078738324 0.019094571 0.017524315 0.07137078
-0.025195342 0.118905984 0.10898762 0.0020567423 0.050262734 -0.06171911 0.12249177 0.16187087
-0.23839363 0.01754978 0.15942983 0.0626822 -0.1532432 -0.038955517 0.050209016 0.111093715
0.11108572 -0.009567138 0.025610834 0.012329862 0.092036426 0.052633 0.06200207 0.09145704
00000000: a5b2 dd3d 3f6b 2bbd 871a 2a3e b34b a63e
00000010: 21e6 0b3d 48ef 7abe 7ddf 9fbc 83c7 f33b
00000020: d74e f93d 302d 40be 79f9 a2bd 6b24 1b3c
00000030: 1134 9d3d 0dd4 4c3d 663f 89bd 9c15 ac3d
00000040: 846b 413d dc3d 443c 6c05 98bc 2f31 15bd
00000050: a4b9 133e 76fa 013e 6304 be3d 2b44 a7bc
00000060: 5e76 7d3d 0202 a13d 6d81 513d 1d50 e43d
00000070: cf96 85bd 1b21 c5bd 79e7 c93d b47c f1bd
00000080: ac65 39bd 430e 9bbe 3996 4c3e 07ce 8dbd
00000090: b9e1 7cbd 8bac bbbd 5f4b 273d 9888 0d3e
000000a0: 6099 19bd 0bec 4bbe 4e61 81bd 7204 ed3d
000000b0: b3a8 333d 5d0b 0cbe e962 9abd ee2a 3fbe
000000c0: e93e b9bb 2523 07be a02c 05be 680d 0c3d
000000d0: c042 25be 7f0b e9bb 4e79 8cbd 6c3e 2fbd
000000e0: 20cd 7f3e 6752 d5bd 2d3f 9ebd 31a6 553e
000000f0: 0f58 febc 4249 b5bd 06f9 29be 8a1b 1fbe
00000100: d697 4fbd ef82 9cbe b322 033e 746b ad3d
00000110: cb4a 143e a01d ccbd 1315 333c d307 113e
00000120: 6e9e dd3c af25 023d abe1 86bd 3b61 1d3e
00000130: cc4d 683c 982e 52be 6d25 edbc 2220 7abd
00000140: 6436 f73b cadc 3f3d 36ee 4e3d 317c d0bb
00000150: 36d7 09bd d1d9 52be 1e9b a73c 7f55 49bc
00000160: 087c 873d e221 e1bc a04a 47be 37f4 ce3b
00000170: e87d 8ebc c232 cfbc 02ff 8f3d b7ae ba3d
00000180: 2bc5 b1be 68b6 13be 9319 00be 65aa 34be
00000190: a290 0abc 2bd2 063e a5ec 1b3e b3c7 093d
000001a0: 7c65 443e 5265 47be f12c ae3d 0247 42be
000001b0: a877 423e 847f 1ebd 84ae 5f3d ecb0 77be
000001c0: 3058 773d dc46 983e ba37 14bb ae9c 89bd
000001d0: c3b9 063e 6b6e af3d a58a bc3b f608 0dbe
000001e0: 886b 063e 566b 95bd 3782 17be e4ff 613e
000001f0: 0c35 a33d af8f 9c3b 31d2 3e3d 1b16 2ebd
00000200: f8d8 fbbb 443a 2f3e 958e 273e 9688 04bd
00000210: d5d4 9e3d 36eb 683d 4427 d13d b4e9 87bd
00000220: 37f0 9ebd 49f6 87be adfb 30be cee9 25be
00000230: c1f4 e53d 2a12 893e 7580 8abc ef0c 86bd
00000240: 5ded adbd 2805 10be 2e07 023c e38d d9bc
00000250: d620 efbc 078b 993b 6637 abbd 230b 0a3e
00000260: 3922 043d da38 c8bd c84c 09be ac2a 0d3e
00000270: 1d9c cfbd a662 00bd 9d72 bd3d 1145 e83d
00000280: 6f15 00be cb1b 473e 11d5 fd3d d74e 4ebe
00000290: c6de 10bd 5e22 1abe a5fb fb3d de76 663d
000002a0: 2e0d 82bd 4773 a7bd 34c5 cb3c 580d 3ebd
000002b0: 2bbe 34bd 86be 90bd e078 d4bd 09c9 36be
000002c0: 4a04 cdbc 8079 2d3d 8156 d2bd ebd4 06be
000002d0: c6fe bb3d 72a0 70bd c2f9 ef3d 4d03 a3bd
000002e0: c14a cd3c aa08 97bd f431 13bd 37cc f6bc
000002f0: 612b 633e d974 32be fc25 75be cb8c aebc
00000300: 2c8f 83bd e976 7a3d 4c86 603e 0c8f 033c
00000310: eaaa a4bc 6030 453e b315 cdbc 873c 31be
00000320: a7aa 89be 5ab9 583e acf1 4f3e 727e 4dbe
00000330: a1c6 5fbd e190 e1bd fcea 1dbd 545d 90bd
00000340: 871a e73d da96 b7bd b9e7 c2bc 285c 553d
00000350: ba94 623c 5f9a c43c 794f e63d 4c63 2d3e
00000360: 95b8 5abe 5ab4 c0bd ce1d 09bd 31bd 6d3d
00000370: 5413 4abe 0622 e13d 3c97 cb3c a65e 043e
00000380: 93db 703e 3b75 8bbd 71b3 05bd 83d5 c9bc
00000390: 8f41 a1bd 386c 9c3c 278f 8f3c d82a 923d
000003a0: 7666 cebc fb84 f33d e734 df3d 69ca 063b
000003b0: 4ce0 4d3d 2dcd 7cbd f7dc fa3d 7ac1 253e
000003c0: 761d 74be 8ec4 8f3c 9341 233e 865f 803d
000003d0: c9eb 1cbe d28f 1fbd f8a7 4d3d 1a85 e33d
000003e0: e980 e33d 7cbf 1cbc d0cd d13c 3103 4a3c
000003f0: 987d bc3d b395 573d e2f5 7d3d d44d bb3d

reward_backbone.0.bias f4 [128]
0.13932349 0.12285627 -0.1271907 0.079426646 0.017816959 -0.09161886 0.10079233 0.16086681
-0.18494521 -0.061852764 -0.19197461 0.039361328 -0.05575351 -0.084853455 -0.039809056 -0.012836916
-0.18605569 0.22527516 -0.04012427 -0.033186615 -0.14509085 0.22307438 0.17372811 -0.03332759
0.08312945 -0.1318172 0.13528526 -0.1404122 0.16587861 -0.0412973 0.030046951 -0.20662421
0.12046697 0.08458773 0.099204674 0.17454787 -0.049686145 0.11651257 -0.112028755 0.07461733
-0.20326748 -0.037897196 -0.15626934 -0.10416749 -0.034226608 -0.112992145 0.22810149 -0.18803458
0.11724314 -0.0054323417 0.11023234 -0.2221487 -0.08132669 -0.2335501 -0.19138256 -0.20433469
0.0121207675 -0.0663064 0.101391196 -0.10424921 -0.16971254 0.20234548 -0.19108748 0.07056938
0.17601229 0.23247981 0.089450166 0.080310464 0.1243966 0.12347354 -0.09989756 0.04979365
0.09105871 0.10457357 0.23352496 0.12962289 -0.10648293 -0.20430762 0.07742956 0.15651436
0.11715408 0.07376641 0.06673192 -0.16936326 -0.092521876 0.16769859 0.14086929 0.227409
-0.02866045 0.07769211 -0.102670714 -0.10412767 -0.07005586 -0.21825784 0.03184898 0.105666466
0.120551504 -0.17739524 -0.10344519 0.09781581 0.07820767 -0.1980021 0.078606576 -0.09608661
0.10041064 -0.08183572 -0.10927027 -0.2428885 0.13828832 -0.22305524 0.08359377 -0.14312997
0.1934749 -0.018311528 0.035536658 0.17206886 -0.06894341 -0.08142811 -0.10413058 -0.078223065
0.099176936 -0.054355048 0.11119082 -0.095268145 -0.014103274 0.21084058 -0.10984014 -0.09003084
00000000: d1aa 0e3e 119c fb3d 473e 02be 70aa a23d
00000010: dff4 913c aba2 bbbd 366c ce3d 45ba 243e
00000020: 4762 3dbe 5359 7dbd fe94 44be 5839 213d
00000030: cb5d 64bd a6c7 adbd d20e 23bd ee51 52bc
00000040: 6285 3ebe 88ae 663e 5959 24bd b0ee 07bd
00000050: b292 14be 9c6d 643e c8e5 313e 8382 08bd
00000060: c63f aa3d 17fb 06be 3888 0a3e 37c8 0fbe
00000070: 15dc 293e 5c27 29bd 0625 f63c 4c95 53be
00000080: 63b7 f63d 553c ad3d d22b cb3d adbc 323e
00000090: b383 4bbd 249e ee3d 556f e5bd f9d0 983d
000000a0: 5a25 50be 173a 1bbd 1205 20be c455 d5bd
000000b0: 3331 0cbd 6d68 e7bd 7093 693e 238c 40be
000000c0: 2c1d f03d c901 b2bb 7ec1 e13d f37a 63be
000000d0: 9c8e a6bd c227 6fbe caf9 43be 1d3d 51be
000000e0: 2f96 463c a6cb 87bd 30a6 cf3d 9c80 d5bd
000000f0: 20c9 2dbe a733 4f3e 70ac 43be ae86 903d
00000100: 913c 343e 300f 6e3e a631 b73d d079 a43d
00000110: a5c3 fe3d b2df fc3d 1897 ccbd 6df4 4b3d
00000120: fd7c ba3d ab2a d63d 2b21 6f3e ddbb 043e
00000130: b913 dabd 0436 51be 6493 9e3d 4d45 203e
00000140: 7aee ef3d d812 973d bfaa 883d 906d 2dbe
00000150: 1c7c bdbd 2eb9 2b3e 0a40 103e e8dd 683e
00000160: 52c9 eabc 0a1d 9f3d 0645 d2bd e340 d5bd
00000170: 7279 8fbd fc7e 5fbe 1374 023d a967 d83d
00000180: b5e3 f63d 19a7 35be 12db d3bd a853 c83d
00000190: 582b a03d 10c1 4abe 7cfc a03d 0ec9 c4bd
000001a0: 18a4 cd3d 7c99 a7bd 17c9 dfbd c3b7 78be
000001b0: 749b 0d3e 9868 64be 3633 ab3d aa90 12be
000001c0: 491e 463e 0f02 96bc e38e 113d d232 303e
000001d0: 3432 8dbd c8c3 a6bd 6a42 d5bd 6a33 a0bd
000001e0: 471d cb3d 66a3 5ebd 03b8 e33d f21b c3bd
000001f0: 6b11 67bc 98e6 573e def3 e0bd 1762 b8bd

reward_backbone.2.weight f4 [128, 128]
-0.083629414 0.0006750909 0.10588841 -0.060386598 -0.030988134 -0.046622783 -0.013018287 0.149629
0.1032168 -0.047124915 -0.085219264 -0.12800209 0.02956593 -0.19432402 0.027530368 0.081995934
-0.11969605 0.38574094 0.011970454 0.025858434 -0.03762783 -0.06927799 0.2862287 -0.15585698
0.20892087 -0.13636252 -0.13168807 0.082658984 0.060857426 -0.045147385 0.11814348 -0.15571256
0.013486142 0.06334053 0.0785604 -0.022487206 0.09039286 0.20072146 -0.13988656 0.06763702
-0.32989773 0.025847478 0.12420165 -0.13589758 -0.049287412 -0.10949883 -0.1148042 -0.16919754
0.099815816 -0.07943775 0.14560199 -0.0545785 -0.05566702 -0.161291 -0.07195296 0.11039185
-0.04171078 -0.20123343 0.013785037 -0.022679582 -0.007886235 0.110802114 -0.26584068 0.19472508
0.1494788 -0.06546314 -0.07141547 -0.2967145 -0.007848858 -0.012882269 -0.21838075 0.05128678
0.25245258 0.16616528 0.39029953 -0.13834359 -0.03278238 -0.30803722 0.017372383 -0.04487947
0.1913592 0.054662347 0.27784264 -0.008475595 -0.09566949 -0.039149106 -0.17073357 0.019981619
0.31944522 0.14511496 -0.092026435 0.027082302 -0.010468621 -0.08746641 0.19326402 0.0400704
0.093545206 -0.18759815 0.058768902 0.06206112 0.102108166 -0.24030784 0.06149667 0.09764849
0.012339278 -0.090596184 -0.09659677 -0.21250957 0.022312554 -0.11851248 0.10605613 -0.036022674
0.1384675 -0.03341227 -0.035874702 0.14122212 -0.063739635 -0.05165645 -0.13022622 0.1801607
-0.16211781 0.1557748 0.092905395 0.08719581 -0.04015449 0.3899099 -0.13190684 -0.3023288
-0.12310648 -0.21180525 0.17134029 -0.15013118 -0.008690678 0.089968994 -0.15782705 0.058936585
0.17444663 -0.053296737 0.01309741 0.11886658 0.15751731 0.025377734 -0.12936328 0.09235231
0.10398101 0.04346767 0.10208801 0.15541175 -0.06383442 0.06898589 -0.15942085 0.081581034
-0.22571377 0.08457753 -0.26810417 0.08966035 -0.33690396 0.12909025 0.07362741 0.3005595
-0.25625446 0.111775704 -0.21077535 0.013280432 0.029733574 -0.0974857 0.2535785 0.41242376
0.1832687 -0.12207655 -0.06435155 -0.046627417 0.056216326 0.06048341 -0.11234054 0.17320572
0.22820973 -0.17088401 -0.05146955 -0.008021337 0.047749817 -0.034145407 0.030044835 0.07082624
0.05384891 -0.043840654 -0.17894499 0.15103291 0.24386702 -0.046562016 0.06322678 0.23838969
-0.24832866 -0.07381012 0.12702559 0.10311505 0.12851866 0.039286118 -0.095698334 0.007948818
-0.20847243 -0.08199909 -0.09008438 -0.0914088 0.016502092 0.1544875 0.011253989 -0.06315838
-0.04983357 0.079379916 -0.15440919 0.24157898 0.18272638 -0.07572622 -0.07397954 -0.24243006
0.06862857 -0.042996448 -0.1682558 0.097922176 -0.0014896573 0.244776 -0.019213472 0.04014836
-0.0038642092 0.024022527 0.16455874 -0.07672468 -0.25262585 0.07147656 0.025565065 -0.006907459
0.0062757656 -0.07080598 -0.124393374 0.22859058 -0.12493926 0.38010904 -0.08583379 0.23921819
-0.047868144 0.20082918 0.09985236 -0.25042006 -0.061221592 0.077246696 0.41738167 0.18148322
-0.052365232 0.09496987 0.014319694 0.0693922 -0.03986477 -0.052341327 0.025583081 0.07158083
00000000: e645 abbd 95f8 303a 06dc d83d f057 77bd
00000010: d4da fdbc 88f7 3ebd a74a 55bc 5838 193e
00000020: 5463 d33d 0e06 41bd 7087 aebd fb12 03be
00000030: 4034 f23c e0fc 46be 5e87 e13c 7ced a73d
00000040: 3423 f5bd d67f c53e b91f 443c 11d5 d33c
00000050: a41f 1abd 9ee1 8dbd 918c 923e f998 1fbe
00000060: 5aef 553e 9ea2 0bbe 3dd9 06be 1d49 a93d
00000070: a345 793d 77ec 38bd 35f5 f13d 1d73 1fbe
00000080: fbf4 5c3c aeb8 813d 46e4 a03d 1737 b8bc
00000090: e41f b93d ed89 4d3e 6c3e 0fbe 4785 8a3d
000000a0: 5be8 a8be 17be d33c 6f5d fe3d bc28 0bbe
000000b0: 99e1 49bd ec40 e0bd 771e ebbd 1f42 2dbe
000000c0: 3c6c cc3d 42b0 a2bd b018 153e b58d 5fbd
000000d0: 1a03 64bd 7829 25be 135c 93bd 1f15 e23d
000000e0: ecd8 2abd 2310 4ebe a3da 613c 88ca b9bc
000000f0: 4435 01bc 38ec e23d 451c 88be 0366 473e
00000100: f810 193e 8a11 86bd 4642 92bd f7ea 97be
00000110: 7f98 00bc 2710 53bc 349f 5fbe 1612 523d
00000120: 7741 813e 3b27 2a3e 57d5 c73e f1a9 0dbe
00000130: d146 06bd 0eb7 9dbe 8750 8e3c 89d3 37bd
00000140: abf3 433e a0e5 5f3d 6441 8e3e 39dd 0abc
00000150: 5eee c3bd d05a 20bd c8d4 2ebe 7eb0 a33c
00000160: 538e a33e 0499 143e 5b78 bcbd b4db dd3c
00000170: 9484 2bbc 9721 b3bd 01e7 453e dc20 243d
00000180: a194 bf3d bb19 40be a9b7 703d cd33 7e3d
00000190: 161e d13d 4213 76be efe3 7b3d eefb c73d
000001a0: af2a 4a3c 7e8a b9bd 87d4 c5bd 1c9c 59be
000001b0: d1c8 b63c acb6 f2bd f533 d93d 838c 13bd
000001c0: 6dca 0d3e 4edb 08bd 5af1 12bd 889c 103e
000001d0: ed89 82bd b795 53bd 065a 05be 0c7c 383e
000001e0: 3602 26be 6e83 1f3e 2f45 be3d b893 b23d
000001f0: 0979 24bd 45a2 c73e 9612 07be d7ca 9abe
00000200: 401f fcbd 7ae3 58be d473 2f3e fdbb 19be
00000210: 5863 0ebc aa41 b83d 6a9d 21be 7d67 713d
00000220: 23a2 323e ae4d 5abd 8596 563c 5270 f33d
00000230: 384c 213e f7e4 cf3c cf77 04be 3523 bd3d
00000240: fff3 d43d 280b 323d 8513 d13d 4224 1f3e
00000250: 9fbb 82bd 7948 8d3d 383f 23be f513 a73d
00000260: 8321 67be fc36 ad3d f344 89be d89f b73d
00000270: ad7e acbe 3c30 043e f8c9 963d efe2 993e
00000280: c933 83be a9ea e43d 7ed5 57be 2b96 593c
00000290: d393 f33c 95a6 c7bd 0bd5 813e 3529 d33e
000002a0: caaa 3b3e 4503 fabd bfca 83bd 64fc 3ebd
000002b0: 1743 663d 74bd 773d cc12 e6bd d75c 313e
000002c0: d0af 693e 38fc 2ebe bcd1 52bd ed6b 03bc
000002d0: 5095 433d 0edc 0bbd 9620 f63c 590d 913d
000002e0: ad90 5c3d 4292 33bd 5b3d 37be 5fa8 1a3e
000002f0: 47b8 793e d0b7 3ebd 0b7d 813d 6d1c 743e
00000300: de49 7ebe c329 97bd ff12 023e fc2d d33d
00000310: 659a 033e 7bea 203d 7dfd c3bd c23b 023c
00000320: cc79 55be 24ef a7bd 297e b8bd 8934 bbbd
00000330: 652f 873c f931 1e3e a762 383c 2e59 81bd
00000340: 491e 4cbd f091 a23d 711d 1ebe 7b60 773e
00000350: a01c 3b3e 5916 9bbd 9682 97bd 963f 78be
00000360: 238d 8c3d 0b1d 30bd 404b 2cbe 6c8b c83d
00000370: 9b40 c3ba 8fa6 7a3e 9265 9dbc 9b72 243d
00000380: ac3e 7dbb e4ca c43c 1682 283e d421 9dbd
00000390: 2d58 81be 4d62 923d d46d d13c f757 e2bb
000003a0: f0a4 cd3b ba02 91bd f4c1 febd a613 6a3e
000003b0: 28e0 ffbd a79d c23e a0c9 afbd 9df5 743e
000003c0: 6311 44bd 2aa6 4d3e 657f cc3d 0f37 80be
000003d0: 7ec3 7abd 8433 9e3d 0db3 d53e bdd6 393e
000003e0: ed7c 56bd 907f c23d 269d 6a3c 7f1d 8e3d
000003f0: 3e49 23bd dc63 56bd 9c93 d13c f898 923d

reward_backbone.2.bias f4 [128]
0.120620295 -0.1366984 -0.047094934 0.1533517 -0.06149497 0.03906254 -0.057250746 -0.10518695
0.10164722 -0.109534 0.09437035 0.12250681 -0.0837977 0.12736428 -0.12050571 -0.062457576
0.10627868 -0.1280007 -0.08306333 0.09851597 -0.061945472 0.091460995 -0.036808368 -0.047416594
-0.074489996 0.0683321 0.080686875 0.110170916 -0.086520955 -0.08192114 -0.07864551 0.080078326
0.051492028 -0.21896915 -0.14974098 0.113457605 -0.084300615 0.06881262 0.10283333 0.059080884
-0.070406325 -0.10943076 -0.061774455 0.14144485 0.02486977 -0.12169972 -0.056291606 0.059518654
-0.1805641 0.06683194 -0.10322483 0.0769348 0.032071754 0.09302264 -0.10164887 -0.045626733
0.038056903 0.033439856 -0.105262294 0.1240757 -0.0641667 0.14518087 0.03333881 -0.049303744
-0.13369323 0.06913518 0.023667378 -0.12233207 0.06283327 0.09134316 -0.15063396 0.04356014
0.078293204 0.087637514 -0.03132489 0.08105454 0.13631144 0.057174757 -0.111541264 0.04910062
0.093879715 -0.11252531 0.05735071 -0.053021666 -0.10798931 -0.1698033 0.12196506 0.018288607
0.067398824 -0.06990945 -0.03402246 -0.0856014 -0.04653758 0.07489517 -0.058904454 -0.04363833
0.076996215 -0.089070335 -0.09350013 -0.023735482 0.011981374 -0.055809 0.081784025 -0.13232367
-0.083921745 -0.12280332 -0.0728138 0.06496639 -0.08333193 0.15799092 -0.11589294 -0.039897367
-0.03598729 0.054163232 0.12980351 -0.06419293 -0.10813527 0.12033081 -0.09424938 -0.061877064
0.05852995 -0.0851741 0.115381524 -0.05885665 -0.056900278 0.0699241 0.22320923 0.09045024
00000000: c607 f73d aafa 0bbe 9ee6 40bd 3a08 1d3e
00000010: 26e2 7bbd 0b00 203d c27f 6abd 416c d7bd
00000020: 6b2c d03d 5d53 e0bd 3e45 c13d dae4 fa3d
00000030: 219e abbd c86b 023e b3cb f6bd 84d3 7fbd
00000040: a3a8 d93d 9e12 03be 1b1d aabd bec2 c93d
00000050: 89ba 7dbd e74f bb3d 5fc4 16bd e737 42bd
00000060: 368e 98bd b3f1 8b3d 293f a53d 4aa1 e13d
00000070: e631 b1bd 45c6 a7bd e610 a1bd 1b00 a43d
00000080: 4ee9 523d 7339 60be b355 19be 765c e83d
00000090: cda5 acbd a2ed 8c3d 489a d23d ccfe 713d
000000a0: 3131 90bd 3c1d e0bd 3607 7dbd ebd6 103e
000000b0: b0bb cb3c b43d f9bd 0792 66bd d5c9 733d
000000c0: cce5 38be 2fdf 883d 8a67 d3bd fe8f 9d3d
000000d0: ac5d 033d a782 be3d 482d d0bd 19e3 3abd
000000e0: 8ee1 1b3d 3bf8 083d c293 d7bd 671b fe3d
000000f0: d569 83bd 4baa 143e 478e 083d b9f2 49bd
00000100: e1e6 08be bf96 8d3d 17e2 c13c 3c89 fabd
00000110: bbae 803d 1f12 bb3d ca3f 1abe 1e6c 323d
00000120: 3058 a03d 4c7b b33d 874e 00bd ecff a53d
00000130: 3a95 0b3e 1430 6a3d bf6f e4bd bb1d 493d
00000140: 0244 c03d ab73 e6bd 94e8 6a3d 3f2d 59bd
00000150: 8029 ddbd ebe0 2dbe d1c8 f93d fdd1 953c
00000160: 6508 8a3d b02c 8fbd 235b 0bbd c94f afbd
00000170: 319e 3ebd a462 993d cc45 71bd 1bbe 32bd
00000180: 31b0 9d3d 826a b6bd ff7c bfbd ea70 c2bc
00000190: 864d 443c fa97 64bd 627e a73d db7f 07be
000001a0: 2adf abbd 4f80 fbbd 671f 95bd 190d 853d
000001b0: eea9 aabd 5fc8 213e 4759 edbd 6c6b 23bd
000001c0: 6967 13bd 44da 5d3d 36eb 043e 9577 83bd
000001d0: 0676 ddbd 0070 f63d d205 c1bd ce72 7dbd
000001e0: 1abd 6f3d c26f aebd 264d ec3d ac13 71bd
000001f0: 4410 69bd 5e34 8f3d f690 643e fa3d b93d

cost_backbone.0.weight f4 [128, 22]
0.13511018 0.103348754 -0.03991058 0.31638595 0.12723234 0.104115345 0.15450434 -0.17176531
-0.07359271 0.16426441 -0.29165524 0.16568188 0.037976876 0.046936728 -0.05121562 -0.07607318
-0.05353271 0.011492092 0.10593812 0.021746477 0.16468367 0.12101889 0.16659705 0.059430733
-0.007725271 0.0037502188 0.025208145 -0.12457311 0.067806944 0.23704825 0.010791834 0.17236602
-0.21190259 -0.011764864 0.22013319 -0.11391394 0.023142101 0.09050422 0.009302725 0.00096897554
-0.0014394362 0.0054886676 0.17997181 0.12564735 0.13753396 -0.042714704 0.029664343 -0.28915584
0.032905344 -0.077912904 0.030623933 -0.08638844 -0.11108182 -0.015998667 -0.14257053 -0.13024409
-0.11103274 0.21270938 -0.010423989 0.070944704 0.04327087 0.020380504 0.013187604 -0.07408376
0.028784717 0.24834614 0.010633093 0.0032418452 -0.094519876 0.07503111 0.29214802 -0.09189223
-0.043647815 0.072949536 -0.015834201 -0.30918634 0.10444234 -0.06908991 -0.077296734 0.13361117
-0.12189297 -0.30192536 0.045319777 0.17012954 0.045210637 0.009032244 -0.104950815 0.106382005
0.1449563 -0.057053916 -0.2411183 -0.19194464 0.06818704 -0.049072947 0.090040706 -0.0961125
-0.10418505 0.10959966 -0.103295766 -0.41986245 -0.048863348 0.072789825 -0.0011727056 -0.03319294
0.0592833 0.16054311 0.22260551 0.0017576803 -0.18415086 -0.030463744 -0.09819462 -0.14322457
0.09816882 0.12776083 -0.10621916 0.0071135126 0.015648715 0.1296152 -0.016201379 0.1452486
-0.15704335 -0.09164803 -0.09938712 0.13140854 0.04910998 -0.07285543 -0.076860026 0.13198109
0.13481207 0.11767749 -0.056618672 0.1838071 -0.10712687 -0.1558184 -0.049890723 0.053361937
-0.024473485 0.03931373 -0.16022547 0.0050694663 -0.0076256082 -0.2301287 -0.07757637 -0.00029411213
-0.07110889 0.11293267 0.15871778 -0.013926165 -0.08021071 0.025030222 -0.18947902 -0.17408995
0.07550802 -0.27625933 0.19929042 -0.18133676 0.026813792 -0.12574713 -0.01628535 -0.06579897
-0.04846721 -0.060813915 0.12254739 0.122167304 -0.061822355 -0.31142163 0.12114565 0.18663079
0.10940427 -0.09691852 0.15085065 0.023809748 0.020608682 0.08767261 -0.05107436 -0.27353883
-0.009758019 -0.13966249 0.17054047 -0.26630944 0.15731652 -0.1306613 -0.06763289 -0.06345636
-0.052248 0.19686206 0.07341129 0.2683331 0.05564154 0.049636927 -0.07959741 0.03883921
0.031896614 -0.038462084 0.13650042 0.12557456 -0.10242095 -0.09170624 -0.090030804 -0.05169372
-0.026223939 0.25081888 -0.059343684 0.07160827 -0.25372082 0.032754533 -0.03554625 -0.13921282
0.04905541 -0.013908507 -0.3408852 0.069296755 0.0666636 -0.1530241 -0.036506563 -0.068878666
0.04122023 0.1290952 -0.09022219 -0.2781729 -0.065353334 -0.09924676 -0.056034118 -0.09463748
-0.22912034 -0.04810323 0.11382024 0.073341206 0.025540072 -0.047516607 -0.1641701 0.034093037
0.014491871 -0.17499344 -0.11786356 0.10467406 0.08192894 0.45454192 0.15856953 -0.063209414
0.026875686 0.0012572389 -0.084184185 -0.0851889 0.33696613 -0.27959034 0.062155057 0.005244781
0.023309313 0.01688562 -0.0089953225 0.16630062 -0.050706822 -0.266548 -0.09626582 0.14240701
00000000: 535a 0a3e 83a8 d33d 4779 23bd 57fd a13e
00000010: 3249 023e 6d3a d53d 6336 1e3e 3fe3 2fbe
00000020: c6b7 96bd ee34 283e d653 95be 83a8 293e
00000030: a48d 1b3d ba40 403d 78c7 51bd 41cc 9bbd
00000040: 1d45 5bbd 5449 3c3c 16f6 d83d ab25 b23c
00000050: d6a2 283e c0d8 f73d 6b98 2a3e a46d 733d
00000060: 4524 fdbb 3bc6 753b 5081 ce3c 3020 ffbd
00000070: 5ede 8a3d c7bc 723e 3cd0 303c b880 303e
00000080: fefc 58be 6bc1 40bc 986a 613e b64b e9bd
00000090: 8194 bd3c 475a b93d 756a 183c d902 7e3a
000000a0: 77ab bcba 48da b33b 884a 383e b3a9 003e
000000b0: b4d5 0c3e 9df5 2ebd a302 f33c 3c0c 94be
000000c0: c1c7 063d cd90 9fbd 0bdf fa3c 6cec b0bd
000000d0: de7e e3bd a30f 83bc 02fe 11be b55e 05be
000000e0: 2265 e3bd 7dd0 593e 61c9 2abc 754b 913d
000000f0: cc3c 313d 04f5 a63c d210 583c 3ab9 97bd
00000100: edcd eb3c 734e 7e3e 6d36 2e3c 2375 543b
00000110: a393 c1bd e9a9 993d 6d94 953e fe31 bcbd
00000120: 0dc8 32bd 9166 953d bab6 81bc ac4d 9ebe
00000130: dee5 d53d 037f 8dbd c04d 9ebd 5ed1 083e
00000140: 05a3 f9bd f695 9abe 3ba1 393d 7036 2e3e
00000150: ca2e 393d fafb 133c 74f0 d6bd cfde d93d
00000160: 6d6f 143e 5eb1 69bd b7e7 76be 238d 44be
00000170: a6a5 8b3d b700 49bd 4367 b83d a1d6 c4bd
00000180: f95e d5bd c975 e03d bb8c d3bd 36f8 d6be
00000190: ef24 48bd d512 953d 78b5 99ba 52f5 07bd
000001a0: 0cd3 723d 6a65 243e b3f2 633e f761 e63a
000001b0: 0b92 3cbe 1a8f f9bc 431a c9bd 76a9 12be
000001c0: bc0c c93d bcd3 023e 6e89 d9bd 7818 e93b
000001d0: bc31 803c d9b9 043e c1b8 84bc 0dbc 143e
000001e0: f9cf 20be f6b1 bbbd 798b cbbd f68f 063e
000001f0: 8c27 493d 3a35 95bd ca68 9dbd 0d26 073e
00000200: 2d0c 0a3e e500 f13d fbe8 67bd ee37 3c3e
00000210: 5565 dbbd dc8e 1fbe 375a 4cbd 0c92 5a3d
00000220: 9e7c c8bc 6f07 213d 2512 24be c41d a63b
00000230: 3de0 f9bb dca6 6bbe 5ce0 9ebd 1033 9ab9
00000240: 8aa1 91bd 3e49 e73d ea86 223e 922a 64bc
00000250: 8345 a4bd 2e0c cd3c ca06 42be a344 32be
00000260: f3a3 9a3d dd71 8dbe ca12 4c3e 58b0 39be
00000270: 99a8 db3c dbc3 00be db68 85bc 9cc1 86bd
00000280: 8e85 46bd 0318 79bd 20fa fa3d da32 fa3d
00000290: 7039 7dbd a872 9fbe 361b f83d 241c 3f3e
000002a0: 590f e03d 387d c6bd 9878 1a3e a90c c33c
000002b0: 8ad3 a83c b38d b33d 5933 51bd 480d 8cbe
000002c0: 19e0 1fbc af03 0fbe 29a2 2e3e b659 88be
000002d0: 9517 213e 13cc 05be 1d83 8abd 68f5 81bd
000002e0: 0002 56bd 3596 493e a958 963d f562 893e
000002f0: 62e8 633d 1750 4b3d f803 a3bd dd15 1f3d
00000300: 06a6 023d 6b8a 1dbd c4c6 0b3e 9e96 003e
00000310: 13c2 d1bd 7bd0 bbbd 1262 b8bd cbbc 53bd
00000320: 96d3 d6bc 556b 803e 5d12 73bd 5ba7 923d
00000330: b2e7 81be 9e29 063d f298 11bd ce8d 0ebe
00000340: 53ee 483d 82e0 63bc 8188 aebe 75eb 8d3d
00000350: ed86 883d 5ab2 1cbe e887 15bd 4210 8dbd
00000360: 8bd6 283d 8831 043e 69c6 b8bd ae6c 8ebe
00000370: f8d7 85bd e341 cbbd 0884 65bd 4cd1 c1bd
00000380: 869e 6abe e407 45bd 961a e93d ea33 963d
00000390: 6a39 d13c c6a0 42bd 351c 28be 24a5 0b3d
000003a0: 506f 6d3c 7b31 33be 7362 f1bd 5b5f d63d
000003b0: 5cca a73d b8b9 e83e 0d60 223e f073 81bd
000003c0: 662a dc3c f0c9 a43a c268 acbd 8577 aebd
000003d0: d386 ac3e 7726 8fbe 4d96 7e3d 69dc ab3b
000003e0: 2cf3 be3c b653 8a3c 1e61 13bc b64a 2a3e
000003f0: f5b1 4fbd fb78 88be 0427 c5bd 25d3 113e

cost_backbone.0.bias f4 [128]
0.08455787 -0.11146212 -0.1053187 -0.15020268 -0.12172576 0.09935903 0.11893154 0.038592134
0.09979887 0.104045674 -0.11722638 0.027081015 0.078102194 -0.100494705 0.081027195 0.14659536
0.14285903 0.095811 -0.07195171 0.14819176 -0.10510499 0.12078737 -0.095075466 0.11761044
0.115066424 0.11376571 0.07295314 0.08793623 -0.07503169 0.11559996 0.11310347 -0.12376679
-0.12538303 -0.09931557 -0.1235979 -0.1166101 0.09979168 0.1250102 -0.10762522 -0.09973699
-0.11083257 -0.094125755 -0.10529651 0.14154315 -0.09657327 0.10248358 -0.09580104 -0.029585866
-0.0991273 0.1290938 0.10813424 -0.15892106 0.100106224 -0.08818797 0.10906837 -0.10574725
-0.111846656 -0.1400208 -0.15646638 0.116996825 -0.08975901 0.14126086 -0.11437545 0.120862655
-0.11505599 0.11021554 -0.11332029 0.065162815 0.16623357 -0.11310234 -0.11445673 -0.09166268
0.13890009 -0.091529876 -0.12410559 0.13146761 0.09193778 0.10665797 -0.057457644 0.1644006
0.15047964 -0.13161172 0.109655745 0.15470554 0.10154296 -0.18568546 0.043026056 0.111143395
0.0074292845 0.103337415 -0.1109554 0.1100764 0.13749503 -0.11362903 -0.078984484 -0.118851565
0.13365357 -0.014297492 -0.14225051 0.09000024 0.0978965 0.12285023 -0.1522216 -0.07954548
-0.11208032 -0.09440932 0.06799131 0.11248243 0.047783185 -0.105656564 -0.079096414 -0.1198431
0.11454479 -0.11839813 0.0029929073 -0.121045165 -0.09175229 -0.12205119 0.11618426 -0.12499177
0.10007464 0.06446103 0.13239835 0.10544157 0.13052268 -0.10660357 0.13049792 0.05749462
00000000: ad2c ad3d 4146 e4bd 55b1 d7bd bbce 19be
00000010: 5b4b f9bd bf7c cb3d 6192 f33d c912 1e3d
00000020: 5a63 cc3d e615 d53d 6214 f0bd 01d9 dd3c
00000030: 0bf4 9f3d 2bd0 cdbd 96f1 a53d 181d 163e
00000040: a349 123e 8f38 c43d 6b5b 93bd 95bf 173e
00000050: 4941 d7bd 5e5f f73d edb6 c2bd bedd f03d
00000060: f2a7 eb3d fffd e83d 7568 953d e917 b43d
00000070: 37aa 99bd acbf ec3d cba2 e73d 7179 fdbd
00000080: 6964 00be f665 cbbd e520 fdbd 47d1 eebd
00000090: 955f cc3d ad02 003e 9d6a dcbd e842 ccbd
000000a0: 30fc e2bd 01c5 c0bd b2a5 d7bd b0f0 103e
000000b0: 35c8 c5bd e9e2 d13d 5633 c4bd 0f5e f2bc
000000c0: 4103 cbbd 2a31 043e 7c75 dd3d 34bc 22be
000000d0: 7e04 cd3d e59b b4bd 3d5f df3d 0492 d8bd
000000e0: dc0f e5bd 9d61 0fbe b938 20be 089c ef3d
000000f0: 92d3 b7bd b0a6 103e ad3d eabd d786 f73d
00000100: 7aa2 ebbd afb8 e13d 7814 e8bd 1574 853d
00000110: 2239 2a3e 33a2 e7bd 4a68 eabd a5b9 bbbd
00000120: d33b 0e3e 0474 bbbd 122b febd 729f 063e
00000130: e049 bc3d 7e6f da3d b558 6bbd a258 283e
00000140: 5617 1a3e 39c5 06be 3193 e03d 216b 1e3e
00000150: c1f5 cf3d 5424 3ebe 173c 303d 269f e33d
00000160: 5b71 f33b 91a2 d33d 963c e3bd bc6f e13d
00000170: 7fcb 0c3e 56b6 e8bd 9ec2 a1bd 7368 f3bd
00000180: 7bdc 083e 0740 6abc 1eaa 11be 0c52 b83d
00000190: f67d c83d e798 fb3d fbdf 1bbe bee8 a2bd
000001a0: 5e8a e5bd ac59 c1bd 073f 8b3d 305d e63d
000001b0: 4db8 433d 7862 d8bd 4dfd a1bd 4d70 f5bd
000001c0: 7596 ea3d b87a f2bd a724 443b 87e6 f7bd
000001d0: a0e8 bbbd f9f5 f9bd 03f2 ed3d affb ffbd
000001e0: eff3 cc3d 2504 843d 6f93 073e c0f1 d73d
000001f0: bda7 053e f952 dabd 3fa1 053e 7b7f 6b3d
