outputs/ent_sweep_20260124/A_lagrange_ent0.05_seed0_v3/best_tail.pt (torch, 981707 bytes, 68 tensors)

actor_backbone.0.weight f4 [128, 22]
000000 15 cb 10 bd 49 fc de 3d 8b 67 88 3e 3c 46 dc 3c
       -0.035349924 0.10887963 0.26641497 0.02688896
000010 ff 32 90 bd 0d f8 8e bd a8 d7 24 bd 4d 69 45 3d
       -0.07040977 -0.06980906 -0.04024473 0.048196126
000020 ed 0f 1e be 96 07 45 3e 71 59 0d bd 70 91 71 be
       -0.15435763 0.19241175 -0.034509126 -0.23590636
000030 0f 31 07 3c 43 8a e9 3d 9e 90 12 be c6 5f 03 3e
       0.008251443 0.114033245 -0.1431298 0.12829503
000040 6b c9 55 3c 9c d4 7c bd ae f3 22 3e 92 94 59 3d
       0.01304851 -0.061726198 0.15913269 0.053120203
000050 cd fd 6b 3e 48 f3 3d be 81 b8 be 3c e7 fc 1f 3d
       0.23046036 -0.18549836 0.023281338 0.039059546
000060 eb c7 88 be 77 04 c0 bd e7 b5 14 be f8 e8 04 3d
       -0.26715025 -0.093758516 -0.14522515 0.03244874
000070 69 7c a1 3d 6d 14 c9 bd ef 98 73 3e 0f b0 e4 3d
       0.078850575 -0.09818349 0.23788808 0.11166393
000080 5c d4 64 3e 87 52 f6 3b 3c ef 25 be 1d 62 65 bb
       0.22346634 0.0075171622 -0.16204542 -0.0035001107
000090 94 56 4b 3d 58 4e 31 3e 80 54 2d bd 31 28 b1 3c
       0.049643114 0.17315042 -0.042316914 0.02162561
0000a0 e2 7d 55 3d 96 7a 01 be b4 f7 88 3d 7e 8a 0e 3e
       0.052122004 -0.12644419 0.066878706 0.13920018
0000b0 df 09 96 be db bb 1a be 10 4c 6a bd a9 64 84 3d
       -0.29304406 -0.15110724 -0.057201445 0.06464512
0000c0 f4 5b f3 bd 75 7f ba bc c4 ab d5 bb 82 32 43 bd
       -0.11882773 -0.022765854 -0.00652072 -0.04765559
0000d0 80 d1 19 3d 83 e1 30 bc 7b ee e1 bd fa d1 6b 3c
       0.03755331 -0.010795954 -0.11031815 0.014393324
0000e0 03 9f e7 3d 20 b2 8f 3d 37 03 1c 3e ea c4 8e bc
       0.11309626 0.070163965 0.15235601 -0.01742788
0000f0 8a dc 5d be ca 86 b1 3c b8 3d 08 bb 35 20 bc 3c
       -0.2166616 0.021670718 -0.002078874 0.022964576
000100 d5 7a a6 3e b0 6c 35 bd 74 42 3a bc ba 20 40 3e
       0.32515588 -0.044293106 -0.011368383 0.18762484
000110 6d bf 86 bd 65 91 f9 bd f0 a0 b6 3a 1a a7 d2 bd
       -0.0657948 -0.12185935 0.0013933461 -0.10285778
000120 5b d2 49 3c 92 d6 ff 3d a3 a8 41 be f6 2c d6 3d
       0.012318219 0.12492098 -0.18911986 0.10457794
000130 35 bd a0 bd ab 4d 83 be c9 c2 3c bd 75 9b 5f 3e
       -0.078485884 -0.25645193 -0.0460842 0.21836646
000140 3a 3e 0b 3d a9 f1 44 bd 70 b1 35 3d a2 88 87 bc
       0.03399489 -0.048082028 0.04435867 -0.016544644
000150 a8 8a e3 3c 9e f9 0e 3e 31 c4 14 bd 52 14 36 3d
       0.027776077 0.13962409 -0.036319915 0.044452973
000160 f7 51 ac be 7e df c6 3c ea e8 94 3e 83 6a 0f be
       -0.33656284 0.024276491 0.2908395 -0.14005475
000170 ee 43 fd 3d 21 b3 40 bd b0 32 6b be 22 16 f1 3d
       0.12366472 -0.04704583 -0.22968554 0.117717996
000180 b4 85 97 bb 04 78 93 3d 5e 36 c9 bd d1 a4 99 bd
       -0.004624093 0.072006255 -0.09824823 -0.07502139
000190 20 f5 e7 bd dd ac 8f 3d 0f 2c 09 3e 88 62 b9 bd
       -0.11326051 0.07015393 0.13395713 -0.090519965
0001a0 57 f8 87 3d 67 b4 eb 3c ea 52 b1 bd ae 49 d0 bd
       0.06639164 0.028772546 -0.08658393 -0.10170303
0001b0 ac be 39 3c df 0e 4f bd f3 2a 11 3d f4 08 18 be
       0.011336964 -0.05055129 0.03544135 -0.14847165
0001c0 56 0f f4 3d 70 26 92 3d d6 21 89 3d f5 0c 61 bb
       0.119169876 0.071362376 0.06695907 -0.0034339998
0001d0 c7 a9 f7 bd 32 57 9c bd 4d f2 c8 bc 4f 82 f8 bc
       -0.12092929 -0.07633819 -0.0245296 -0.030335573
0001e0 33 bc 2a 3e 6c 1f c6 bd 2d db 06 bc 96 98 09 3e
       0.16673355 -0.09673962 -0.0082309665 0.13437113
0001f0 8d 2c 6e be 6f 1f 3e bd 6f 49 5c be 10 c2 f7 bd
       -0.23259182 -0.046416696 -0.21512388 -0.12097561
000200 66 88 a5 be dd b1 51 3d d5 0a 0d bd 76 1c 12 3e
       -0.32330626 0.051195014 -0.03443416 0.1426867
000210 92 bc 74 be 94 dc 2f 3d 03 c2 5b bd 7f 20 d3 bd
       -0.23900059 0.04293497 -0.05365182 -0.103089325
000220 d4 11 1d be 42 44 89 be f8 7d 05 3d 85 74 fb bd
       -0.15338832 -0.2680989 0.032590836 -0.12278084
000230 f0 f3 21 3d 3b 8e 30 3b 5d 89 18 be 82 c4 e3 3c
       0.039539278 0.0026940245 -0.1489615 0.027803663
000240 83 aa 84 bd d0 bb 54 be d6 a1 14 bd 68 7c 27 3e
       -0.06477835 -0.2077477 -0.03628715 0.16356051
000250 95 db 87 3e 49 49 8d bd 76 7b 9f 3c 6a 88 71 3c
       0.26534715 -0.06898744 0.01946805 0.014741996
000260 c5 58 bb 3d 3f 52 25 be ec 2e fb 3c 0a 33 81 be
       0.09147791 -0.16144656 0.030662023 -0.25234252
000270 64 d3 f5 3d e7 ce 1e 3e c9 fc a9 bc 1e 23 42 bd
       0.1200321 0.15508614 -0.02075042 -0.04739677
000280 e2 53 5e bd 73 7f ec bd 61 56 59 bd 2c 4e c6 3c
       -0.054279216 -0.115477465 -0.053060893 0.024207197
000290 97 d6 11 be f8 2f 56 be 37 70 81 3d 0b c9 15 bd
       -0.14242016 -0.20916736 0.063202314 -0.036568683
0002a0 09 49 39 3e 4c 7d 17 bc 83 da 0e bc df 34 18 3e
       0.18094267 -0.009246182 -0.008719089 0.14863919
0002b0 5c 11 ed 3a 9d 0d 5e 3e d3 a4 ec 3d 70 f4 89 3d
       0.0018086839 0.2168488 0.11554875 0.06736076
0002c0 bb 7a bd 3e e5 7e 5d bc 63 4c 0b 3d e2 b2 96 bd
       0.37007698 -0.013519024 0.034008395 -0.07358338
0002d0 57 b5 7b be 7d 83 5b 3d a7 70 33 be 7a ff d4 3d
       -0.24580894 0.053592194 -0.17523442 0.10400291
0002e0 79 28 a5 3b 2b fb 30 bd 26 bf cb 3d a9 96 15 3d
       0.005040225 -0.043208282 0.09948568 0.036520634
0002f0 b1 e8 b7 bc 89 6d a4 bd 2b d4 37 be 2a 28 8c bd
       -0.022449823 -0.08028705 -0.1795203 -0.06843598
000300 25 57 ac bd 56 03 f4 3d df 19 60 3d b0 68 9e 3d
       -0.08415059 0.11914699 0.054712173 0.07734811
000310 e3 24 27 3e f7 5c a8 3e 62 0a 35 be 33 ee 1b be
       0.16322665 0.32883427 -0.17679742 -0.15227585
000320 01 ac 17 3e 25 cc 9f 3d 5b c6 b0 3d b5 b0 82 bd
       0.14811708 0.07802609 0.08631583 -0.063813604
000330 db 12 b7 3c 4a 8d 1a 3c 71 99 af 3d 5c 18 7d be
       0.022347858 0.0094331 0.085741885 -0.24716324
000340 b2 c5 8a 3d 0e 28 cc 3d 5a dd a3 3c 63 a0 cd 3c
       0.06775989 0.09968577 0.02000301 0.025100892
000350 bb 83 43 be 28 51 5e 3c 4c 84 30 bd 12 cd 4b bd
       -0.1909322 0.013569154 -0.043094918 -0.049756117
000360 47 de 93 bc e0 5d 96 3d 90 84 26 3e 41 34 c7 bc
       -0.018050326 0.07342124 0.16261506 -0.024316909
000370 80 c1 8d 3e 54 66 c6 bd 39 05 93 bd 39 da ad 3c
       0.2768669 -0.09687486 -0.071787305 0.02122222
000380 43 7f 52 3c c6 8a 24 be ef 4e 1f bb 05 ff bf 3d
       0.012847724 -0.16068563 -0.0024308523 0.09374813
000390 3a ee 01 be 26 bb 80 3b 4d de 9c 3d ca cf 93 3c
       -0.12688532 0.00392856 0.07659588 0.018043417
0003a0 9a 84 a8 bc d5 0c 34 be 0c 2c c7 bc b0 6f 7f bc
       -0.020571042 -0.1758302 -0.024312995 -0.015590593
0003b0 9a c3 a4 bd 3e c4 aa bd df 02 76 3e a3 44 da bd
       -0.080451205 -0.083382115 0.24024533 -0.10657623
0003c0 58 60 03 3e 9a df df 3d 25 03 92 3d b9 70 17 3e
       0.12829721 0.109313205 0.07129506 0.14789094
0003d0 95 84 eb bd 1d 64 b6 bd 0e db 22 be ea 98 90 3d
       -0.114998974 -0.08905814 -0.15903875 0.07060416
0003e0 b9 f8 c3 bd e8 78 44 be d0 53 91 bd cf 77 82 bd
       -0.095689245 -0.19186747 -0.07096064 -0.06370508
0003f0 9a 58 64 3d 7f b2 01 bd 54 fd c9 bb d3 44 4c bd
       0.05574856 -0.031664368 -0.0061642323 -0.049870323

actor_backbone.0.bias f4 [128]
000000 86 a6 34 bc 95 6d 77 be 10 04 3a 3e 33 f2 35 be
       -0.01102603 -0.24162896 0.18165612 -0.17768173
000010 41 fa 7e 3e 66 51 5d be 76 66 35 bd 46 fa 61 3e
       0.24900152 -0.21613082 -0.044287167 0.22068128
000020 f4 3e 47 3e 5f 5a 44 be a1 d2 93 bd 4a 1a 7d be
       0.19457608 -0.19175099 -0.07217909 -0.2471706
000030 0d fe 66 3e 01 2e 31 be b7 ed 66 be e2 e6 ee bd
       0.2255785 -0.17302705 -0.22551619 -0.11665131
000040 8d 6f 12 bd 83 d4 53 3e 54 7f a1 bc 74 62 75 3e
       -0.035750914 0.20686536 -0.019714035 0.23963338
000050 4d cf 42 be a6 6d 4a 3e a7 12 53 3e 8f f1 2a 3d
       -0.19024391 0.1976839 0.20612584 0.041734274
000060 a1 43 6e 3e fa c5 0b 3e 43 c3 e6 3d e7 a4 61 be
       0.23267986 0.13649741 0.11267712 -0.22035562
000070 24 13 0d be 71 99 7b 3e 56 d9 2e be 00 8c 3b 3e
       -0.13776833 0.24570252 -0.17075095 0.18315125
000080 d1 75 da bd 95 9b 81 be 0e 90 65 be a0 4d ee bd
       -0.10667003 -0.25314012 -0.22418234 -0.116358995
000090 ac 55 55 be ca 7a 65 be 5c 27 62 3e ab f0 a2 3d
       -0.20833462 -0.22410122 0.22085327 0.0795606
0000a0 12 6a 48 3e 63 d0 f9 bd 43 26 15 3d a4 dd 6b 3e
       0.19571713 -0.1219795 0.036413442 0.23033768
0000b0 60 cd 10 be 6e ae 6c 3e b1 64 b1 3d cf 8b 34 be
       -0.14140844 0.23113415 0.086617835 -0.17631458
0000c0 b5 ab 3c 3e fd 62 7f be b3 6a 36 be 14 e4 14 3e
       0.18424876 -0.24940105 -0.1781414 0.1454013
0000d0 60 5e 6e 3e 31 82 67 3e 9d 47 ef 3d 38 31 5e be
       0.23278189 0.22608258 0.11683581 -0.21698463
0000e0 35 ad db 3c f3 a4 1e be 74 75 4e 3e 51 bc 8c bc
       0.02681599 -0.1549261 0.20161992 -0.01717964
0000f0 a9 81 ab 3d 1f ce 4b be 31 66 65 be 00 aa 2d be
       0.0837434 -0.19902848 -0.22402264 -0.16959381
000100 c2 79 ab bd 77 c9 16 be 90 94 27 3e e5 5d 23 3e
       -0.08372833 -0.1472529 0.16365266 0.15953787
000110 c3 61 68 be 0b dd 42 be 96 f2 1d 3e c7 93 e8 3d
       -0.22693543 -0.19029634 0.1542457 0.11356311
000120 04 b0 cc 3d 6d 73 ac 3c ed 59 5a 3e da 71 54 3e
       0.0999451 0.021051133 0.21323366 0.20746556
000130 b2 a6 3d 3e 75 20 87 3e c8 e6 59 be 4b 28 5c 3e
       0.1852062 0.2639195 -0.21279442 0.21499746
000140 88 68 07 3e 7a 85 6d be 07 06 e3 3d 30 3e f8 3d
       0.1322347 -0.23195449 0.11085134 0.12121236
000150 14 fe 31 3e 14 f6 36 be 9c 55 3c 3e e8 30 d9 3d
       0.1738208 -0.17867309 0.18392032 0.10605031
000160 81 55 4c be 7b cf 6a 3e 71 ac 7e be 74 cb 72 be
       -0.19954492 0.2293071 -0.24870469 -0.23710424
000170 9b 8c 6c bd 8e f3 cc bd c6 40 09 3e e2 95 71 3e
       -0.05775128 -0.10007392 0.13403615 0.23592332
000180 d7 e5 97 bd 6b ab 84 3e c0 1d 5c 3e d8 ea 24 be
       -0.07416885 0.25912032 0.21495724 -0.16105211
000190 e9 8c de bd 34 82 2c 3d 48 ba 49 be 8a 87 79 3e
       -0.1086672 0.04211636 -0.19699967 0.2436811
0001a0 79 78 62 be dd 19 26 3e db f9 62 be ad f8 62 3e
       -0.22116269 0.16220804 -0.22165625 0.22165175
0001b0 68 c2 84 be f0 d2 ed bd ea fb 76 3e 57 4b 48 be
       -0.2592957 -0.11612499 0.24119535 -0.1955999
0001c0 84 bc 3c 3e bc 6f 68 3e 1e f5 50 3e 2b b3 74 3e
       0.18431288 0.22698873 0.20406005 0.23896472
0001d0 cc b7 45 be 19 f4 2d 3e a7 88 0c be 08 02 4c 3e
       -0.19308394 0.16987647 -0.13724004 0.1992265
0001e0 d9 18 3b 3e e9 8c 06 be 52 e7 63 be bf 91 80 3e
       0.18271197 -0.1313969 -0.2225621 0.25111195
0001f0 3e bf 75 3e f7 02 c6 3d b6 40 e9 bd a2 ca 45 3e
       0.23998734 0.09668534 -0.11389296 0.1931558

actor_backbone.2.weight f4 [128, 128]
000000 ca 97 88 bd 3b 9c 95 bc 56 b8 fa bd df ae 82 3d
       -0.066695765 -0.018262973 -0.122421905 0.0638101
000010 fc 91 e4 bd b0 2d 8a 3d 1f 82 01 3e 48 9c 82 be
       -0.11160657 0.067469954 0.12647294 -0.25509858
000020 ee 56 d3 3c 73 0c 97 3d 31 70 6c be 6c c6 6a 3c
       0.025798287 0.073754214 -0.23089673 0.014329534
000030 16 49 79 3c 4d 36 d0 bc be 8c c0 bb ca 05 7f be
       0.015215179 -0.025416518 -0.005876153 -0.24904552
000040 03 6e dd bb b1 fc 52 3d 33 51 66 3d f4 00 89 3d
       -0.006757499 0.051510517 0.05622978 0.06689635
000050 3c 14 2c 3e c4 a2 80 3e 5c b5 88 3d 0a 40 bd bd
       0.16804594 0.2512418 0.066752166 -0.0924073
000060 79 64 02 be a8 cb 4a bd f7 b6 59 3e 61 a8 5b 3d
       -0.1273364 -0.049510628 0.21261202 0.053627376
000070 7e d4 2f be de 4a 27 3e 22 80 bb bd e5 35 bf bd
       -0.17170903 0.16337153 -0.09155299 -0.093364514
000080 aa eb 56 3e 0b cc b4 3d fa 6b 32 bd 91 ed af bd
       0.20988336 0.088279806 -0.043560006 -0.08590234
000090 5c 23 22 3e 03 9c 1a 3e a3 ee 23 3e c5 a5 74 be
       0.15833801 0.15098576 0.16009001 -0.23891361
0000a0 46 c9 1b 3e f5 1a 5d 3e ab fb 24 3e c1 cc a4 bd
       0.15213498 0.21592315 0.16111629 -0.08046866
0000b0 91 8d 78 3c c5 84 f1 bd f0 d4 aa bd 06 93 d6 bd
       0.015170471 -0.11792902 -0.08341396 -0.10477261
0000c0 38 7f 50 be ed aa e9 3d e4 43 ac 3d 9c 61 2a 3d
       -0.2036103 0.11409555 0.084113866 0.041596994
0000d0 3d 19 cc 3d 30 fa 1f be ee 57 b9 bd 25 92 08 be
       0.09965751 -0.15622783 -0.090499744 -0.13337
0000e0 13 64 44 be ca 77 f0 bb dd 00 58 3d 8e a2 17 3e
       -0.191788 -0.0073384987 0.0527352 0.14808103
0000f0 22 e2 bf 3d 30 6b 97 3d b0 a2 0f bc 9d 27 3a 3e
       0.09369303 0.07393491 -0.008766815 0.18179174
000100 ee c4 6c be 9a 0a b5 3d 54 88 28 3c 51 c5 ab 3d
       -0.23121998 0.08839913 0.010286409 0.083872445
000110 4f de c9 38 b1 93 0f be 73 bc 84 3c 7b 64 77 3d
       9.625835e-05 -0.14021184 0.01620314 0.06039856
000120 83 99 ac 3d 65 86 48 3e a8 fe e3 3d 7d b7 6f 3e
       0.084277175 0.19582517 0.11132556 0.23409839
000130 53 f2 23 be f3 a0 bf bd c8 43 85 bd a3 a4 33 bc
       -0.16010408 -0.093568705 -0.06507069 -0.010964545
000140 ee f9 ab bc be cd 88 bd 5e 4b 14 be de 79 f2 bc
       -0.0209932 -0.06679867 -0.14481875 -0.029599126
000150 9d 4d 42 bd 28 8f 33 3c ad 7b 57 3e 4b bb d2 bd
       -0.0474373 0.010959424 0.21043272 -0.102896295
000160 de a5 0c 3e ad 39 4d 3e 3b d3 25 3e bf 59 13 3e
       0.13735148 0.20041533 0.1619386 0.14389704
000170 e0 87 66 3e 13 c5 6c be 09 fa 87 bd a2 54 15 3e
       0.2251277 -0.23122053 -0.06639487 0.14583066
000180 e7 31 d8 be f6 9d fe bd 15 44 25 be 15 4f 25 be
       -0.42225572 -0.124324724 -0.16139252 -0.16143449
000190 9c 87 2a be 4a c3 5f 3e 22 14 ae bd 1e 3f 25 be
       -0.16653293 0.2185184 -0.08499934 -0.16137359
0001a0 5c 63 b8 bd b2 0c 34 3c 2a 1e c9 3d df eb aa be
       -0.09003326 0.010989355 0.098202065 -0.3338308
0001b0 5b 6d f4 3b f6 7a 8a bd 53 35 ee 3d 0b ad 4f bd
       0.0074593253 -0.06761734 0.116312645 -0.050702136
0001c0 74 cb 0b 3e ec 11 da 3d 1f 8c 13 3e 14 96 5b 3d
       0.1365183 0.106479496 0.1440892 0.053609923
0001d0 f0 7c 71 3d 4a 22 6a be dd 51 44 3e 08 3b 48 3d
       0.05895704 -0.22864643 0.19171853 0.04888442
0001e0 1d 95 00 3d 7e 26 9d bc ed 86 ec 3d ba d4 84 3d
       0.031392206 -0.019183394 0.115491726 0.06485887
0001f0 1d f4 c3 bd db cf 23 3d 0d d9 90 3e 1c ed fb 3d
       -0.09568045 0.03999315 0.28290597 0.123010844
000200 6f 4e ab 3c 33 e9 97 3d e7 79 e3 3d 61 c9 39 be
       0.020911423 0.07417526 0.111072354 -0.18143226
000210 73 b7 8d 3d f6 cc 81 3d 66 62 c4 bc 37 00 a9 bd
       0.06919756 0.06337921 -0.023972701 -0.08251994
000220 31 2e 37 3e ef cb 56 3d 2a 63 15 3d 69 a0 21 3e
       0.17888714 0.05244058 0.036471523 0.15783848
000230 4f 56 88 3e fa 7e 5f bd 79 49 82 bd f4 56 83 be
       0.26628348 -0.054564454 -0.0636167 -0.25652277
000240 57 19 ae bd 2c 80 c9 3d e9 9f 80 be 9e e0 4d 3d
       -0.08500927 0.098389 -0.25122002 0.05026304
000250 21 5a be 3d 61 c9 0f bc 4a 49 2a bd 95 27 79 be
       0.092945345 -0.00877604 -0.0415738 -0.24331506
000260 43 da 39 be 67 83 27 be 6b 88 4c bd 76 11 99 3d
       -0.18149666 -0.1635872 -0.049934786 0.074740335
000270 c6 71 bb be b2 b2 1b 3e 16 9b 4a be a8 59 d0 3d
       -0.3661024 0.15204886 -0.19785723 0.101733506
000280 90 74 37 3e f8 16 a0 bd 2c 62 d1 bb ba 57 bc 3b
       0.17915559 -0.07816881 -0.006389877 0.0057477625
000290 5a 4d 9d 3c 8a 1b 6d bc d0 dd a7 bd 4f 52 6c be
       0.019201923 -0.014471898 -0.08196604 -0.23078273
0002a0 23 3d 48 bd 1b e5 51 3e f2 e5 61 3c 35 0e 98 bd
       -0.04888643 0.20497553 0.013787733 -0.07424585
0002b0 27 1b 4c be 3a 48 d4 3c 65 55 2e 3e 56 79 53 bc
       -0.19932233 0.025913347 0.17024763 -0.012907347
0002c0 70 20 81 3c 6d c6 98 3d 0f 66 2c 3e cc 2f c9 bd
       0.015762538 0.07459722 0.16835807 -0.0982357
0002d0 b6 39 8b 3d 79 e2 52 bc e9 68 cb bc 5f d2 0c 3e
       0.06798117 -0.012871378 -0.024830298 0.13752125
0002e0 91 45 3a 3d ba b9 dc bd 71 75 c5 bb 0d 5d 63 be
       0.0454765 -0.10777612 -0.006025963 -0.22203465
0002f0 65 3e df 3d a6 ea ff 3d a9 c6 c4 bd e4 59 c7 bd
       0.10900573 0.124959275 -0.09608204 -0.09733942
000300 eb 39 34 be 3b 80 a4 bd f6 d0 c9 bd 13 a7 59 bd
       -0.17600219 -0.080322705 -0.09854309 -0.05313785
000310 97 b7 bf bd 9a d3 d4 bd 2f c2 18 be bf 26 cc bd
       -0.09361189 -0.10391922 -0.14917825 -0.09968328
000320 c3 4d 39 be a3 68 f9 3d c9 bd 29 bd 7c bd 43 3e
       -0.1809607 0.12178161 -0.04144076 0.19115251
000330 d6 0a 90 bd f8 eb 83 be 6a af fa 3d 4e 49 b4 3d
       -0.07033317 -0.25765967 0.12240489 0.08803044
000340 ca 33 43 3e c9 1b bb bd 86 ad 0a be aa 97 03 be
       0.19062725 -0.09136159 -0.13542756 -0.12850824
000350 40 0d 7b 3d 21 c8 1d be c1 bf 27 bc ef 9d 81 3d
       0.061291933 -0.15408374 -0.010238589 0.063289516
000360 93 15 a6 3d 55 5d 8c bd 0b 6a 92 3b b2 39 36 bd
       0.08109584 -0.06853739 0.0044682077 -0.044488616
000370 ed 9e 0e bd f6 1b fa bd 40 7e 08 bd 03 28 85 be
       -0.034819532 -0.122123644 -0.033323526 -0.2600709
000380 c0 63 2d be f9 d9 a6 be 9c 2c 18 3e b9 e4 87 3d
       -0.16932583 -0.32588175 0.14860767 0.06635422
000390 15 25 07 3d 18 89 63 bd 5c a0 a4 3e ed a6 03 3d
       0.03299435 -0.055550665 0.32153594 0.032141615
0003a0 11 0f 3e bd b0 2a 15 be 8d 09 b1 bd 2f f0 0d be
       -0.046401087 -0.14567065 -0.086444 -0.13861154
0003b0 7d 09 c1 bd 5f bd 26 be 6e 84 f0 3d 6c c5 53 bd
       -0.09425638 -0.16283177 0.11744009 -0.051701948
0003c0 81 ef 9b 3c 21 c4 67 3d a8 0f 3a 3b ca 29 a4 3d
       0.019035103 0.056583527 0.002839068 0.08015783
0003d0 13 14 31 3e 53 bd 2d 3d 67 5d 80 be ae 6c ea bd
       0.17292814 0.04241688 -0.2507126 -0.1144651
0003e0 ab 51 7d 3d a5 a3 da 3d 96 bd a5 3e 8f 01 eb bd
       0.061845463 0.10675744 0.32371205 -0.11474907
0003f0 b1 27 7a 3d c1 1c 56 3e 2e c7 92 bc 02 ba 6c 3d
       0.06107301 0.20909406 -0.017917242 0.05779458

actor_backbone.2.bias f4 [128]
000000 d6 35 9d 3d 8d 5b 93 3d e5 43 b2 3d e3 59 fd bd
       0.07676284 0.07195196 0.08704356 -0.1237066
000010 a6 51 4b be a7 84 09 3e 1e 59 f7 3d 45 95 43 be
       -0.19855365 0.13429509 0.12077545 -0.1909991
000020 72 30 a9 bd 66 12 6b be 37 46 66 3e 97 6e 6d 3e
       -0.08261193 -0.22956237 0.22487722 0.23186718
000030 68 98 30 3e e5 16 4f bc f5 fd 7d bd 99 98 1f be
       0.17245638 -0.012639736 -0.06200977 -0.15585555
000040 54 62 5e 3e 8c 71 44 3e ad b0 ce bd 9b 82 77 3e
       0.21717197 0.1918394 -0.10092292 0.24170916
000050 15 e7 34 3d da 09 bf 3d 88 73 0e 3e 95 cd 15 be
       0.04416569 0.09328051 0.13911259 -0.14629205
000060 7a e8 4a be 2b fc 55 3e 76 02 a9 bd cb de eb bd
       -0.19815245 0.20896976 -0.082524225 -0.11517104
000070 b8 db 4d be 37 0d 3a 3e c5 64 dd 3d 68 ec b7 3d
       -0.20103347 0.18169104 0.10810236 0.08980638
000080 72 89 0e be 40 d5 5b be 7f 6a 5c 3e 27 af 4c 3e
       -0.13919619 -0.21468067 0.21525 0.1998869
000090 12 15 33 3e f7 6c 59 be 7b 07 60 3e b0 2e 6b be
       0.17488506 -0.21232973 0.21877854 -0.22967029
0000a0 93 ec 00 bc 94 43 a9 3d 7a 67 43 3e ff 51 71 be
       -0.007868904 0.08264843 0.19082442 -0.23566435
0000b0 ab 6d 91 3d ab 3e f8 bd cb a1 3a be 95 06 35 3e
       0.07100996 -0.12121328 -0.18225782 0.17678292
0000c0 14 89 3c 3e 47 29 53 3e 97 45 5a 3d 9f d0 5f 3e
       0.18411666 0.20621215 0.053289022 0.21856926
0000d0 62 88 b4 3d b2 66 3b 3e bf e5 38 3e 5a 95 49 3e
       0.088150755 0.18300894 0.18056391 0.1968588
0000e0 e4 71 17 3e 9b 02 cc 3d 61 7f 5a 3d 9b ad bb bd
       0.1478954 0.099614345 0.053344134 -0.09163972
0000f0 2b 1e 5a 3e 77 e7 a1 bd 9c 1e 0e 3e 2a 5a 1d be
       0.2130057 -0.079054765 0.13878864 -0.15366426
000100 27 bb ea 3d cd 5e 4b be 04 c3 67 be 6c e3 42 3e
       0.11461478 -0.19860382 -0.22632986 0.19032067
000110 1d df 16 be 21 8d 52 3e e8 42 51 3e d4 77 36 3e
       -0.14733548 0.20561649 0.20435679 0.17819148
000120 dc 3c 69 3e 72 a7 39 be 54 1c ae 3d 5b 53 43 be
       0.22777122 -0.18130282 0.08501497 -0.19074766
000130 4e 29 3e be e5 b9 38 be 57 57 5b bd a1 77 22 be
       -0.18570444 -0.18039663 -0.05355009 -0.15865947
000140 75 12 e9 3d 07 7e 34 be c3 3f 58 be dc b8 5c be
       0.113804735 -0.176262 -0.21118073 -0.21554893
000150 cc 26 54 3e 72 89 32 be 04 09 f6 bd 21 85 55 be
       0.20717925 -0.17435244 -0.12013438 -0.20851566
000160 b7 3b a2 3d d1 68 fa 3d f0 d9 6f 3e 05 38 26 3e
       0.07921546 0.122270234 0.2342298 0.16232307
000170 ff 3d bf bd 8e e2 58 3e a0 39 ee 3d 22 cb 21 3e
       -0.09337997 0.21180174 0.11632085 0.15800145
000180 60 7b f2 bd e3 54 53 be 7f be 65 be 15 40 a8 3d
       -0.11839938 -0.2063785 -0.2243595 0.08215348
000190 e1 43 6d be 51 74 43 be 92 4f 6a 3e b2 99 48 be
       -0.23170425 -0.1908734 0.22881916 -0.1958988
0001a0 13 e7 50 be 39 64 39 3b 83 b1 57 be a9 c6 61 3e
       -0.20400648 0.0028288497 -0.21063809 0.22048439
0001b0 92 cf 1d be 3b dc 4f 3e 5d bf 2a 3e 1a 9d 94 3d
       -0.15411213 0.20298855 0.16674562 0.07256527
0001c0 d1 1f 11 3d f7 e8 40 3e 0b c7 44 3e 08 e9 77 bd
       0.035430733 0.18838869 0.19216554 -0.06052497
0001d0 59 5a 57 be 38 fe 3e be 94 43 1f 3e 24 2f 30 be
       -0.21030559 -0.18651664 0.15553123 -0.17205483
0001e0 43 c1 4a 3e bd d1 3d be cb e2 52 be df 0a 63 be
       0.19800286 -0.1853704 -0.20594327 -0.22172116
0001f0 4d e3 25 3e 8b c8 a8 bd b2 a0 79 bd e7 fb 4e 3e
       0.1619999 -0.082413755 -0.060944267 0.2021328

reward_backbone.0.weight f4 [128, 22]
000000 84 c2 d8 3d e5 89 1e bd 37 a0 42 3e 46 a1 ad 3e
       0.10583976 -0.038705725 0.1900643 0.33912104
000010 03 1d eb 3c 9f 3e 7b be a0 13 6d bc e6 21 8f 3b
       0.028700357 -0.24535607 -0.014470011 0.0043680547
000020 1b ab fb 3d da 90 39 be ab e0 a1 bd 51 47 6c 3c
       0.12288495 -0.18121663 -0.0790418 0.0144213
000030 aa d8 b3 3d d7 b2 33 3d 66 36 91 bd c3 cb a5 3d
       0.0878156 0.043871727 -0.07090454 0.08095505
000040 08 aa 2d 3d e1 4e 4a 3c 1f c5 b4 bc dc 98 13 bd
       0.042398483 0.012347908 -0.02206665 -0.03603445
000050 14 60 10 3e 05 c0 fa 3d 06 12 b6 3d 0c 46 74 bc
       0.14099151 0.12243656 0.088901564 -0.014909279
000060 f2 5d 9a 3d cf 83 c0 3d d6 43 5f 3d 95 3f f6 3d
       0.0753745 0.094001405 0.054508053 0.12023846
000070 4a 9d 78 bd ec 64 ca bd a8 8d cd 3d 69 c7 f1 bd
       -0.060696878 -0.098825306 0.100367844 -0.118056126
000080 19 83 47 bd b7 3e 9c be 29 2a 49 3e 95 a4 84 bd
       -0.04870901 -0.30516598 0.19644989 -0.06476704
000090 04 78 7a bd cf 43 be bd f3 14 2f 3d 4f 4e 11 3e
       -0.061149612 -0.09290277 0.042744588 0.14190029
0000a0 13 78 22 bd 99 f1 4c be 01 5f 81 bd 4e 7e e7 3d
       -0.039665293 -0.20014037 -0.06316949 0.113033876
0000b0 35 04 28 3d 65 b9 1a be 7c c8 b5 bd 16 03 48 be
       0.041019637 -0.15109785 -0.0887613 -0.19532427
0000c0 0a 7d 81 bb a4 80 02 be 2c e0 0a be 2d b2 18 3d
       -0.0039516734 -0.12744385 -0.13562077 0.037279297
0000d0 7c 1d 22 be 5b 0e 91 bc ea 84 9e bd 32 6e 58 bd
       -0.1583156 -0.01770704 -0.07740195 -0.052839465
0000e0 dc f8 6e 3e b6 ed d1 bd 72 58 aa bd ea 32 52 3e
       0.2333712 -0.10250418 -0.08317651 0.20527235
0000f0 4f fe 15 bd 39 af b5 bd ec 8c 30 be ba 74 24 be
       -0.03661948 -0.08871312 -0.17241257 -0.16060153
000100 d4 55 80 bd 24 27 9f be 3c 90 e2 3d 6d 6c a7 3d
       -0.062663704 -0.3108455 0.11062667 0.081749775
000110 eb 73 18 3e 53 74 b2 bd 88 71 6e 3c 03 d8 18 3e
       0.14887969 -0.08713593 0.014553435 0.14926152
000120 75 46 ee 3c c8 be 0c 3d 99 53 87 bd 5e ea 20 3e
       0.02908633 0.03436163 -0.06607742 0.15714404
000130 f1 33 59 3c 89 6e 52 be 2c 81 d7 bc 1a e1 74 bd
       0.013257013 -0.20549978 -0.026306711 -0.059784986
000140 39 b7 85 3c 31 33 5f 3d 65 54 3f 3d 8f 9f 00 3b
       0.016322719 0.05449218 0.046711344 0.0019626354
000150 f5 a1 ed bc b9 7b 56 be 0f 28 8b 3c e7 c2 9e bc
       -0.029007891 -0.20945634 0.016986875 -0.019380046
000160 8e 9d 97 3d 83 f6 01 bd f4 82 4e be ef e7 11 bc
       0.07403098 -0.031729233 -0.20167142 -0.008905395
000170 78 12 82 bc 29 6a e3 bc f1 25 a4 3d f4 e6 b7 3d
       -0.015877947 -0.027760582 0.08015049 0.08979598
000180 73 16 b2 be 8e bd 16 be 46 f8 04 be d4 07 31 be
       -0.34782752 -0.14720747 -0.12985334 -0.17288142
000190 71 3a c5 bb af 60 01 3e 7c 84 18 3e 5d a4 35 3d
       -0.0060189296 0.12634538 0.14894289 0.044346202
0001a0 e0 dd 48 3e 35 ef 40 be db 82 ad 3d c8 ed 40 be
       0.19615889 -0.1884125 0.08472224 -0.18840706
0001b0 03 db 42 3e d6 e9 3c bd d4 85 50 3d 0f 16 74 be
       0.19028859 -0.04612144 0.05090888 -0.2383654
0001c0 89 5b 85 3d 78 32 9d 3e b9 0b fa ba 35 06 74 bd
       0.065115996 0.30702567 -0.001907698 -0.059576232
0001d0 44 f0 0b 3e 5d 28 b5 3d 2b 31 0e 3c 94 a8 07 be
       0.13665873 0.08845589 0.008678715 -0.13247901
0001e0 b7 c6 0c 3e 70 7e 9d bd bb 44 0d be 03 0f 64 3e
       0.13747679 -0.07690132 -0.1379575 0.22271352
0001f0 07 c7 be 3d d2 27 93 3c f5 4b 3e 3d f8 9c 4e bd
       0.09315305 0.017963324 0.046459157 -0.050442666
000200 c0 25 e4 bb 43 1f 36 3e 32 60 2f 3e b4 c5 f0 bc
       -0.006962508 0.17785363 0.1712654 -0.029391147
000210 24 ce ab 3d 7f 3f 9a 3d 68 86 e2 3d 58 c9 7d bd
       0.083889276 0.07531642 0.11060792 -0.061959594
000220 84 d4 b4 bd a0 a3 90 be 7e 60 38 be 28 18 25 be
       -0.08829597 -0.28249836 -0.18005559 -0.16122496
000230 8c b8 fa 3d e3 1b 8d 3e af 30 a3 bc 8b 9b 83 bd
       0.12242231 0.27560338 -0.019920675 -0.06426152
000240 1e ec a3 bd c4 33 19 be b1 0c 02 ba 14 5d 2a bd
       -0.0800402 -0.14961153 -0.00049609976 -0.041592672
000250 78 e1 ca bc 7a 1e fc 3a 17 07 b7 bd e6 34 0a 3e
       -0.024765715 0.0019235157 -0.08936899 0.13496742
000260 46 a8 1e 3d df c0 bd bd d2 c5 09 be 9e b3 14 3e
       0.038734697 -0.09265303 -0.13454369 0.14521644
000270 5f 50 b1 bd 46 98 00 bd f5 0f c6 3d 85 f0 f8 3d
       -0.08657908 -0.03139522 0.09671012 0.121552505
000280 e7 80 fc bd b6 f7 58 3e 38 4a 17 3e 5b 1d 4c be
       -0.12329274 0.21188244 0.14774406 -0.19933073
000290 72 5d 17 bd cf 80 1a be 5a 63 f4 3d 2f cb 79 3d
       -0.03695435 -0.15088199 0.11933012 0.060984787
0002a0 8d f0 96 bd a0 a6 b0 bd 76 52 b5 3c d2 06 4a bd
       -0.073701 -0.08625531 0.022134047 -0.04932291
0002b0 a9 09 22 bd 4e 01 9a bd 52 3e e6 bd 54 11 3d be
       -0.039559994 -0.0751978 -0.112423554 -0.18463641
0002c0 7a 06 ec bc 13 40 fd 3c 1c 64 fc bd e7 f1 1f be
       -0.028811682 0.030914342 -0.12323782 -0.15619622
0002d0 ed 90 c9 3d c4 9f 7c bd 85 f5 f2 3d aa ef 83 bd
       0.098420955 -0.061675802 0.118632354 -0.06442197
0002e0 41 50 e5 3c 25 8f 82 bd 9c 20 b0 bc 44 e3 b3 bc
       0.02799237 -0.06374959 -0.021499924 -0.021958955
0002f0 5b ed 6b 3e 7b c8 30 be 9a bd 75 be 0a 62 a8 bc
       0.23039763 -0.17263977 -0.23998109 -0.020554561
000300 d5 6c 61 bd fc 83 77 3d 7a 4a 64 3e 56 5f 63 3c
       -0.05503543 0.060428604 0.22294036 0.01387771
000310 73 1d 9d bc ba cd 48 3e 35 be f6 bc 8f c2 2e be
       -0.019179082 0.19609728 -0.030119995 -0.17066406
000320 31 3d 8b be 5e f5 4b 3e 56 07 57 3e 50 4f 4f be
       -0.27195123 0.19917819 0.20998892 -0.20245099
000330 86 1c 64 bd 3a c4 da bd 43 e5 35 bd 4b 8b a7 bd
       -0.055691265 -0.106819585 -0.044408094 -0.08180865
000340 5a 49 d6 3d e7 12 d2 bd f4 57 23 bd 5f ce 60 3d
       0.104632095 -0.102575116 -0.0398788 0.05488431
000350 36 8e 29 3c 6a 89 ae 3c 60 d7 e9 3d 16 a4 2d 3e
       0.010348847 0.021305759 0.11418033 0.16957125
000360 11 fe 57 be 25 00 cd bd 7a b0 2f bd 8f 0b 4f 3d
       -0.21093012 -0.10009793 -0.04289291 0.050548133
000370 d8 fd 45 be d6 1d b8 3d 98 c0 90 3c b6 70 fd 3d
       -0.19335115 0.08990066 0.01766996 0.123750135
000380 58 f1 75 3e ca 71 91 bd e3 35 21 bd 6f 19 51 bc
       0.24017847 -0.07101782 -0.03935803 -0.0127624115
000390 7c cb b0 bd 44 e0 68 3c 67 3e fc 3c 2e 19 92 3d
       -0.086325616 0.014213625 0.030791475 0.07133709
0003a0 0e 2a bc bc 4c 40 f6 3d 9f d0 dc 3d c8 f1 37 3b
       -0.022969272 0.120239824 0.10781979 0.0028067697
0003b0 79 0e 6d 3d a2 bd 83 bd 27 f7 fb 3d 41 03 2e 3e
       0.05787513 -0.06432654 0.12303 0.16993429
0003c0 7e 78 78 be 93 11 87 3c 9e b9 15 3e b6 9b 6d 3d
       -0.24264714 0.016487872 0.14621589 0.058009826
0003d0 7a 83 1e be b3 72 1b bd 94 3f 50 3d 7c 61 ed 3d
       -0.15479842 -0.037951183 0.050841883 0.11590859
0003e0 a8 75 ed 3d b9 43 47 bc 29 2d f9 3c b4 57 7f 3c
       0.11594707 -0.012162142 0.030417042 0.015584875
0003f0 b0 df be 3d d3 c5 68 3d 3e 99 82 3d 9e 7f bd 3d
       0.09320009 0.056829285 0.06376885 0.09252857

reward_backbone.0.bias f4 [128]
000000 f7 94 05 3e 51 64 e2 3d 23 97 fa bd 6f dd 99 3d
       0.13045107 0.1105429 -0.12235858 0.07512938
000010 04 72 ac 3c 5a 77 a8 bd 70 f7 b0 3d 33 5e 1b 3e
       0.02105046 -0.082258895 0.08640945 0.15172653
000020 0a 37 2b be 9c bf 65 bd e5 48 2e be 3e cd 36 3d
       -0.16720214 -0.056090936 -0.17019995 0.044629328
000030 ae 51 80 bd 3e 53 9f bd 4a 21 14 bd 85 61 5f bc
       -0.06265579 -0.07779549 -0.03616456 -0.01363409
000040 f6 45 33 be 56 09 56 3e de 79 fb bc f4 c8 16 bd
       -0.17507157 0.20901999 -0.03069776 -0.036812738
000050 2c 00 0c be 38 4b 57 3e 21 eb 27 3e 71 94 11 bd
       -0.1367194 0.21024787 0.16398288 -0.035541955
000060 57 00 a1 3d dd 55 e7 bd cd d3 0b 3e 31 24 fb bd
       0.07861393 -0.11295674 0.13655014 -0.12262762
000070 f3 62 1a 3e 7c d4 9c bc e9 ce fb 3c fd 8a 40 be
       0.15076809 -0.01914429 0.03073831 -0.1880302
000080 e9 ab e3 3d db 82 ab 3d 12 22 cb 3d 01 f3 20 3e
       0.11116774 0.08374568 0.09918608 0.15717699
000090 d3 4f 5d bd 21 c1 d8 3d ba c6 b5 bd d3 ef a4 3d
       -0.054031204 0.105837114 -0.08875795 0.08053555
0000a0 12 fd 44 be 3c 94 04 bd fe 96 12 be 96 97 af bd
       -0.19237164 -0.03236793 -0.14315411 -0.085738346
0000b0 65 fb 48 bd 88 2a e0 bd e0 46 5a 3e 66 5f 3c be
       -0.049067874 -0.10945612 0.21316099 -0.18395767
0000c0 5c 74 d9 3d ac 46 07 3b fc ff cb 3d 28 f2 54 be
       0.10617897 0.002064149 0.099609345 -0.207955
0000d0 87 c9 b4 bd b3 93 6a be 1d 85 3c be da 71 45 be
       -0.08827501 -0.22907905 -0.18410154 -0.19281712
0000e0 c1 9f 95 3c df a8 9e bd d7 49 b9 3d 94 39 a7 bd
       0.018264653 -0.07747053 0.09047287 -0.08165279
0000f0 19 b9 24 be 8f da 4c 3e 51 2f 3d be 56 e6 a6 3d
       -0.16086234 0.20005248 -0.18475081 0.08149402
000100 7c d6 2e 3e ec 03 63 3e 20 3f aa 3d 78 0d 72 3d
       0.17074007 0.22169465 0.083128214 0.059094876
000110 a6 85 c4 3d 1c 18 e6 3d a5 c3 d0 bd cb a4 54 3d
       0.09595804 0.11235067 -0.10193566 0.05191497
000120 3a d5 9e 3d 6d 6b d0 3d 9c 59 62 3e cd c6 fc 3d
       0.077555135 0.1017674 0.22104496 0.12342606
000130 4e e8 d5 bd 5c 1d 44 be 88 22 89 3d 4c 83 13 3e
       -0.10444699 -0.19151825 0.066960394 0.14405555
000140 bc bb da 3d c6 e5 a7 3d b7 bd 18 3d a8 d7 28 be
       0.10680339 0.08198123 0.0372903 -0.16488516
000150 dd d9 ac bd b8 6b 22 3e 0d 58 f4 3d f7 40 5a 3e
       -0.084399916 0.15861404 0.11930857 0.21313845
000160 2b ec 04 bd bf 72 8e 3d ab c2 d2 bd 45 a3 c0 bd
       -0.03245179 0.0695548 -0.10291036 -0.09406141
000170 0c 83 0a bd 7c c6 53 be 9a 6a fb 3c 29 36 d2 3d
       -0.033816382 -0.20681185 0.03069048 0.102642365
000180 cd 3b c5 3d 7a ae 2e be ae d3 b8 bd 5e 4f bd 3d
       0.09630547 -0.17058745 -0.0902475 0.09243654
000190 15 95 9b 3d 8b 31 2e be fd 15 8d 3d 47 22 cd bd
       0.075967945 -0.17011087 0.068889596 -0.100163035
0001a0 0d 19 c6 3d ba ad a8 bd 5d ac cd bd 21 f2 67 be
       0.09672747 -0.08236261 -0.10042641 -0.22650959
0001b0 70 b3 0f 3e f2 2e 59 be eb 95 b2 3d 72 1e 0b be
       0.14033294 -0.21209314 0.08720001 -0.13585833
0001c0 b0 57 41 3e e8 cd a8 bb 48 49 0f 3d 8e b0 26 3e
       0.18881106 -0.005151499 0.034981996 0.16278288
0001d0 20 c5 7e bd 4a 1e a3 bd 3e 48 cf bd 09 59 a0 bd
       -0.06219971 -0.079647616 -0.10121201 -0.07829482
0001e0 52 83 c4 3d 5e b5 58 bd ba 38 e3 3d a8 b3 bf bd
       0.0959536 -0.05290734 0.11094804 -0.093604386
0001f0 52 de b9 bc dc a0 48 3e 6a 80 d3 bd ed 19 b2 bd
       -0.022689018 0.19592613 -0.103272274 -0.08696351

reward_backbone.2.weight f4 [128, 128]
000000 92 e0 d3 bd 89 25 8d bc 51 a2 cd 3d e1 93 93 bd
       -0.10345568 -0.017229812 0.10040725 -0.0720594
000010 f4 6f bf bc 4b ac 33 bd 3d 2b 01 bd 29 98 26 3e
       -0.023368813 -0.043865483 -0.031535376 0.16268982
000020 c5 46 d9 3d 0e 39 07 bd 2c 87 98 bd e1 99 da bd
       0.10609201 -0.033013396 -0.07447657 -0.10673881
000030 db b9 3c 3d 38 ab 31 be 14 1b 3d 3d ed 3a 9f 3d
       0.046075683 -0.17350471 0.0461684 0.07774911
000040 ba a7 e1 bd c7 32 c4 3e 44 c5 b5 3c 56 53 b2 3c
       -0.110183194 0.3831999 0.02218879 0.021768253
000050 e6 8e be bc 5e af 8e bd d6 e9 99 3e c8 38 1d be
       -0.023261499 -0.069670424 0.30061215 -0.15353692
000060 e6 c3 58 3e 3d fa 0d be 1f 51 10 be ba 84 a0 3d
       0.2116848 -0.1386499 -0.14093445 0.078378156
000070 35 37 5b 3d e1 60 38 bd 59 53 e2 3d 4a 8f 27 be
       0.053519446 -0.045014266 0.110510536 -0.16363254
000080 e0 d1 9f 3b dc b8 84 3d 34 2f a0 3d 85 81 1c bd
       0.004877314 0.06480572 0.07821503 -0.038209457
000090 35 99 db 3d 76 dc 39 3e a2 74 13 be 69 f9 83 3d
       0.10722581 0.18150505 -0.1439996 0.064440556
0000a0 f2 4f aa be 98 b6 cf 3c 57 05 f7 3d 18 7e f3 bd
       -0.33264118 0.025355622 0.12061565 -0.11889285
0000b0 61 2f 80 bd 00 a7 06 be ba 08 06 be cf 47 2e be
       -0.06259037 -0.13149643 -0.13089266 -0.1701958
0000c0 50 f4 a6 3d 1d 21 bc bd 6e 64 0e 3e 13 56 2f bd
       0.08152068 -0.09186003 0.13905498 -0.042806696
0000d0 a2 ed 92 bd b3 c4 0f be ca 74 8c bd eb 62 f9 3d
       -0.07174231 -0.14039879 -0.06858213 0.1217707
0000e0 e6 95 c7 bc e4 eb 54 be dd 6e 23 3c 42 16 46 bb
       -0.02436347 -0.2079311 0.009975162 -0.003022567
0000f0 b3 d2 f3 3b 71 7a 06 3e 70 96 96 be 2c 1e 4d 3e
       0.007440889 0.13132645 -0.2941165 0.20031041
000100 b6 9d 2d 3e 90 22 60 bd 74 ba 95 bd d3 5f 9c be
       0.16954693 -0.05472046 -0.07310954 -0.30541858
000110 1b ca a7 bc 27 99 88 3c 0e a4 69 be 92 ef 42 3d
       -0.020482114 0.016674591 -0.22816488 0.047591753
000120 d5 9a 77 3e 93 b4 19 3e d8 31 c6 3e fe 6f 24 be
       0.24180157 0.1501029 0.38709903 -0.16058347
000130 59 60 85 bc f8 fa a6 be da d0 d4 3c 1a be 62 bd
       -0.016281294 -0.3261335 0.025978494 -0.055357076
000140 bb 3a 54 3e 8f e0 69 3d 52 12 86 3e 5a b0 c5 bc
       0.20725529 0.05709892 0.26185852 -0.024131943
000150 c6 bc ab bd a8 3e 0b bd e4 a6 3b be ba b6 9f 3c
       -0.08385615 -0.0339953 -0.18325382 0.01949631
000160 cf 7d a4 3e 69 f3 13 3e 57 b6 d1 bd fb 08 21 3d
       0.32127234 0.14448322 -0.10239857 0.039315205
000170 cf 62 dd bc 73 5a b2 bd 4a 72 3c 3e ea 8c fa 3c
       -0.027024655 -0.08708658 0.18402973 0.030584771
000180 b8 84 a0 3d 5e f8 3e be 04 d0 a1 3d dd a6 3f 3d
       0.07837814 -0.18649432 0.07901004 0.046789993
000190 b8 5a e3 3d 97 b4 5d be 1b f8 88 3d af c5 cc 3d
       0.111012876 -0.21650921 0.06687947 0.09998643
0001a0 98 cc de 3b 01 7b b9 bd b0 ad a5 bd cc 9f 4d be
       0.006799292 -0.09056664 -0.08089769 -0.20080489
0001b0 92 17 02 3d cf 87 df bd 18 28 bb 3d 71 59 0c bd
       0.03176076 -0.10914575 0.09138507 -0.034264985
0001c0 47 05 13 3e a3 e3 6f bc ee 0a 61 bd d2 58 07 3e
       0.14357482 -0.014641675 -0.054942064 0.13217476
0001d0 ed 33 6c bd 71 f3 7c bd 62 bb 0d be 64 46 4f 3e
       -0.057666708 -0.0617556 -0.13841012 0.20241696
0001e0 30 47 28 be 0e ae 1e 3e 6e 1e b5 3d 2b fc c8 3d
       -0.16433406 0.15496084 0.088436946 0.09813722
0001f0 36 5c 64 bd 0c cc c8 3e bd 92 d5 bd b6 ac 9c be
       -0.055752 0.39218175 -0.10428379 -0.30600518
000200 ad 93 0e be 1f 5d 5b be 33 62 39 3e 0e 24 18 be
       -0.13923521 -0.21422242 0.18103866 -0.14857504
000210 e6 34 45 3b 43 14 ac 3d df ec 22 be d4 ed 8b 3d
       0.0030091344 0.08402302 -0.15910672 0.068324715
000220 6c 02 31 3e 14 94 3a bd 91 80 82 bb 44 a6 04 3e
       0.1728608 -0.045551375 -0.0039826115 0.1295405
000230 a4 45 20 3e cf 27 db 3c b0 42 03 be ba 24 c3 3d
       0.15651566 0.02675238 -0.12818408 0.095284894
000240 64 ca cc 3d 1f 1e 45 3d 50 03 b7 3d 2c 24 24 3e
       0.099995404 0.04812443 0.08936179 0.16029423
000250 f1 93 73 bd 81 50 a3 3d 74 0f 1e be 7c e4 79 3d
       -0.05946726 0.07974339 -0.15435582 0.061008915
000260 67 e6 5e be 86 24 99 3d f1 61 87 be 66 7b b8 3d
       -0.21767579 0.074776694 -0.2644191 0.090079114
000270 e5 8d a8 be e8 2b 07 3e e7 bc 8f 3d 2b 77 97 3e
       -0.32920757 0.13200343 0.07018452 0.29583105
000280 58 53 8e be c9 e4 e2 3d 52 68 59 be a0 14 0b bb
       -0.2779796 0.110787936 -0.21231201 -0.002122201
000290 04 01 2b 3d 5e 25 b9 bd 3a d9 75 3e 32 ae cf 3e
       0.041749015 -0.0904033 0.24008647 0.40562588
0002a0 73 51 2f 3e ec 85 06 be ef 17 a3 bd 26 81 35 bd
       0.17120914 -0.13137025 -0.07963549 -0.04431262
0002b0 43 21 4f 3d ec 1f 8c 3d aa b8 eb bd ee b3 29 3e
       0.05056883 0.06842026 -0.11509831 0.16572544
0002c0 e9 e1 54 3e 43 85 44 be 97 50 63 bd 26 fe 46 bc
       0.20789303 -0.1919146 -0.05549678 -0.012145555
0002d0 86 88 22 3d 6f 22 01 bd a5 4c e9 3c 9e 46 9c 3d
       0.03968098 -0.03152698 0.02847893 0.07630657
0002e0 ec 55 7a 3d fd 50 21 bd 91 c5 37 be 29 1b 0f 3e
       0.061117098 -0.039383877 -0.1794646 0.13975205
0002f0 49 48 84 3e 54 e6 0c bd 00 be 3a 3d 90 1c 76 3e
       0.258364 -0.034399346 0.045591354 0.24034333
000300 87 ac 74 be ec a6 70 bd 84 51 f8 3d ae d4 c9 3d
       -0.23893939 -0.05875294 0.12124923 0.098550186
000310 71 cb 08 3e 7a af 64 3d 02 c9 e1 bd f8 55 b2 3b
       0.13358857 0.05583141 -0.11024667 0.005442377
000320 0a 3e 50 be fd 62 a1 bd 80 18 a0 bd 58 78 bd bd
       -0.20336166 -0.07880209 -0.07817173 -0.092514694
000330 17 50 d6 3c 46 46 0b 3e af b6 43 3c af 77 9a bd
       0.026161237 0.13601026 0.011945411 -0.07542359
000340 59 fd 28 bd 10 70 ab 3d 2f b0 18 be c6 e8 70 3e
       -0.041257236 0.083709836 -0.14910959 0.23526296
000350 61 91 3c 3e 6a 83 83 bd 50 fc 97 bd 4f 70 6c be
       0.18414833 -0.064215496 -0.07421172 -0.23089717
000360 d8 24 71 3d 81 6d 2c bd cf ff 39 be 7b 41 d5 3d
       0.058873028 -0.04209662 -0.1816399 0.1041288
000370 9d 53 af bb 63 df 70 3e 60 c6 3e bc 20 15 21 3d
       -0.0053505437 0.23522715 -0.011643976 0.039326787
000380 e7 8b 80 3b 29 15 89 3c 62 8d 1f 3e 4e 93 98 bd
       0.0039229277 0.016733723 0.15581277 -0.07449971
000390 3a 78 78 be fe c4 8a 3d 8b 8d 31 3d 73 4a 58 ba
       -0.24264613 0.067758545 0.043347877 -0.000825084
0003a0 30 96 69 3c 62 29 a7 bd 3c 1e f6 bd b2 97 6f 3e
       0.014256999 -0.0816219 -0.120174855 0.23397711
0003b0 43 7f f0 bd 35 d9 c0 3e 5a 06 b1 bd ef c9 7d 3e
       -0.11743023 0.37665716 -0.086437896 0.24784063
0003c0 a4 b1 02 bd 8d d0 59 3e 38 a0 d2 3d 83 31 78 be
       -0.031907693 0.21270962 0.102844656 -0.24237637
0003d0 a3 22 56 bd 32 6c 8d 3d a2 ae d5 3e 36 e4 40 3e
       -0.052279126 0.06905402 0.41734797 0.18837056
0003e0 04 2b 82 bd b0 f6 c2 3d 15 35 81 3b b2 8d 95 3d
       -0.06355861 0.09519708 0.0039430954 0.07302417
0003f0 95 b5 6c bd d1 6a 3a bd f1 40 f9 3c 4e 91 5a 3d
       -0.057790358 -0.045512024 0.030426474 0.05336123

reward_backbone.2.bias f4 [128]
000000 86 aa e1 3d 6e 3e f6 bd 91 6d 0d bd 56 53 01 3e
       0.11018853 -0.12023626 -0.03452832 0.12629446
000010 7a 84 82 bd 99 8c 07 3d 2f 8e 61 bd ad 1f bc bd
       -0.06372924 0.03309307 -0.055067237 -0.09185729
000020 15 00 b9 3d 5c a3 c5 bd a1 f4 a4 3d a6 c0 d6 3d
       0.09033219 -0.09650299 0.08054472 0.104859635
000030 ab da 97 bd c3 ed e6 3d 6e 5c d9 bd 5f 19 32 bd
       -0.074147545 0.11275818 -0.10613333 -0.043481227
000040 90 fd be 3d 0d f7 de bd e3 08 9c bd 56 10 b2 3d
       0.09325707 -0.10886965 -0.076188825 0.08694522
000050 1e a3 5e bd e8 e7 b2 3d ec f1 0f bd 01 34 29 bd
       -0.05435478 0.08735639 -0.035142824 -0.04130936
000060 c4 16 8f bd f0 8a 72 3d 83 94 8c 3d bd 9d be 3d
       -0.06986764 0.059214532 0.06864264 0.0930743
000070 7a ca a0 bd ab 1b 9d bd dd 62 98 bd 2e ca 89 3d
       -0.07851119 -0.07671293 -0.07440732 0.06728016
000080 49 27 77 3d e9 d6 48 be 4e 65 10 be aa ad d4 3d
       0.0603402 -0.19613232 -0.14101145 0.10384686
000090 fd 7f a0 bd f6 0e 7d 3d 91 6d c5 3d a7 26 64 3d
       -0.07836912 0.061781846 0.09640039 0.055700924
0000a0 90 37 7e bd 92 f2 c1 bd e0 c8 7a bd 86 a9 fa 3d
       -0.062064707 -0.09470095 -0.061226726 0.12239365
0000b0 bf b6 19 3d 52 e1 db bd 39 53 77 bd f2 15 5d 3d
       0.037527796 -0.10736336 -0.0603821 0.053976007
0000c0 e1 81 2a be 74 13 71 3d f2 68 b2 bd 7c a7 92 3d
       -0.16651107 0.058856443 -0.08711423 0.07160851
0000d0 3b ef 10 3d 6d c7 a8 3d ce b6 bd bd 43 d6 3b bd
       0.035384398 0.082411624 -0.09263383 -0.045858633
0000e0 ef 61 37 3d a8 fc 11 3d 57 ce be bd 13 a1 d8 3d
       0.04477113 0.035641342 -0.093167 0.105775975
0000f0 67 f0 6b bd 56 a1 03 3e ca 35 08 3d 9d 55 3f bd
       -0.057602312 0.12854514 0.033254422 -0.046712507
000100 9d ab fb bd 31 0f 6d 3d fb b8 a2 3c 20 8e f0 bd
       -0.12288592 0.057875816 0.019863596 -0.11745858
000110 83 23 73 3d da 70 bd 3d 49 25 09 be 80 32 5f 3d
       0.05936004 0.0925004 -0.1339313 0.05449152
000120 87 6e a0 3d fc 63 a4 3d 56 97 17 bd f3 d5 9d 3d
       0.078335814 0.08026883 -0.03700956 0.07706823
000130 f2 27 ef 3d 71 23 7b 3d 43 0f c5 bd e9 3e 23 3d
       0.11677541 0.061313096 -0.096220516 0.039854918
000140 57 bd a2 3d 49 d6 cd bd 79 04 5a 3d 82 a6 5b bd
       0.0794627 -0.10050637 0.05322692 -0.05362559
000150 d1 99 c1 bd be 0b 1e be 5e a7 dc 3d 9f 6b 17 bd
       -0.09453166 -0.15434167 0.1077411 -0.03696787
000160 13 35 6d 3d 9d bb 82 bd 86 e2 0c bd 01 e0 9b bd
       0.057911944 -0.06383441 -0.034395717 -0.07611085
000170 6d 04 43 bd d5 8a 61 3d e4 17 62 bd fc b6 46 bd
       -0.047611643 0.05506404 -0.055198565 -0.04851435
000180 17 f0 8b 3d be 0e 99 bd de 75 b9 bd 52 73 f9 bc
       0.06832903 -0.07473515 -0.090556845 -0.030450497
000190 5d 51 08 3d 28 63 50 bd a3 83 93 3d e6 5b f9 bd
       0.03328072 -0.050875813 0.07202842 -0.12175731
0001a0 de 5a 93 bd 8e b9 da bd b7 87 89 bd c3 52 29 3d
       -0.07195066 -0.10679923 -0.06715339 0.041338693
0001b0 86 07 97 bd 80 77 11 3e 5f 00 d0 bd 8b 0b 34 bd
       -0.07374482 0.14205742 -0.10156321 -0.04395632
0001c0 1c bc 4a bd 68 eb 4f 3d e4 4e dc 3d ec be 82 bd
       -0.0494958 0.05076161 0.10757235 -0.06384072
0001d0 33 84 c1 bd 99 1d df 3d 88 7b ab bd d7 c8 59 bd
       -0.09449043 0.10894317 -0.08373171 -0.05317005
0001e0 81 af 6a 3d 58 d2 97 bd df 3f d3 3d 0a fe 67 bd
       0.05729628 -0.07413167 0.10314917 -0.056638755
0001f0 61 e1 60 bd 73 8d 89 3d ef 27 52 3e 9d f7 a9 3d
       -0.054902438 0.067164324 0.20523046 0.082991816

cost_backbone.0.weight f4 [128, 22]
000000 89 17 de 3d 0c 81 cd 3d 44 ae 52 bd 10 b0 9e 3e
       0.10844333 0.10034379 -0.051435724 0.309937
000010 58 73 e9 3d 0c 8f d2 3d 68 a4 07 3e 55 d1 3c be
       0.11398953 0.1028119 0.1324631 -0.18439229
000020 31 23 a5 bd 40 0e 09 3e fa dd 9e be e0 21 23 3e
       -0.08063353 0.13384342 -0.3102873 0.15930891
000030 56 aa c6 3c 34 8f 2d 3d 65 3e 54 bd 9d 6f c0 bd
       0.024251144 0.042372897 -0.051817317 -0.093962885
000040 9a ff 51 bd b9 b2 24 3c 84 77 e0 3d c1 57 4c 3c
       -0.05126915 0.010052376 0.10960296 0.012472094
000050 96 1e 1d 3e f0 1a e9 3d e0 8d 39 3e 1b 59 85 3d
       0.15343699 0.11382091 0.18120527 0.06511136
000060 5c b9 85 bc fa 60 58 3c 66 f2 19 3d d7 6d f3 bd
       -0.016323738 0.013206715 0.037584685 -0.11886185
000070 c6 ed a7 3d 97 0f 7d 3e dc 53 60 3c d4 3e 3a 3e
       0.081996486 0.24712978 0.013691869 0.1818803
000080 91 47 4f be e1 ec 2a bc fe 29 70 3e 41 3d cf bd
       -0.20242144 -0.010432453 0.23453519 -0.10119105
000090 82 c9 70 3c dd b9 cc 3d 98 a7 80 3c 32 f4 27 3b
       0.014696481 0.09996388 0.015704915 0.002562773
0000a0 74 bf fe 3c 00 a7 59 3c c8 39 2c 3e 07 9b 0d 3e
       0.031097151 0.013284445 0.16818917 0.1382867
0000b0 a7 06 21 3e ca 22 3c bd dd 6e 9b 3c 2a ce 98 be
       0.15725194 -0.045931615 0.018973762 -0.2984479
0000c0 4d 0c 87 3c ff 3d 9a bd ba 87 49 3c 44 e0 c7 bd
       0.016485358 -0.07531356 0.012300426 -0.09759572
0000d0 93 e3 ca bd cf 78 42 bd dd 7a 19 be 17 20 e1 bd
       -0.099066876 -0.047478493 -0.14988275 -0.10992449
0000e0 99 2e e2 bd 6c 62 5b 3e 18 dc 98 bc a6 7a 91 3d
       -0.11044044 0.21424264 -0.018659636 0.071034715
0000f0 ef 28 09 3d b0 13 5c 3c b5 77 47 3c 6e fc a9 bd
       0.033486303 0.013432428 0.0121745365 -0.083001
000100 04 c4 27 3d dd e6 75 3e 14 04 d6 3c 10 29 bf 3c
       0.04095842 0.24013849 0.026124991 0.02333501
000110 6d 7d bf bd 59 f9 86 3d b8 fa 93 3e c7 44 c5 bd
       -0.09350095 0.06590528 0.2890222 -0.09632259
000120 2f ac 0b bd e6 9d 94 3d a8 d2 e2 bc 19 d8 99 be
       -0.034099754 0.07256679 -0.02768834 -0.30047682
000130 0c 73 d8 3d 85 0c b6 bd 9f 3a ba bd 8f ae 06 3e
       0.105688184 -0.08889107 -0.09093212 0.13152526
000140 fb 7d fd bd 4d e0 9d be dc bb 44 3d 0e db 36 3e
       -0.123775445 -0.3083519 0.04803072 0.17857
000150 93 5b 65 3d 49 cb e2 3b 25 7d e8 bd 2a af e2 3d
       0.055995535 0.006921206 -0.113519944 0.11068566
000160 af 59 2c 3e 73 6e 2d bd 33 53 67 be 84 b3 35 be
       0.16831087 -0.04234166 -0.22590332 -0.17744261
000170 8f 62 53 3d e1 65 3f bd 5d 58 9c 3d 11 a2 f9 bd
       0.051607665 -0.04672802 0.076340415 -0.12189115
000180 d6 df c9 bd 8a 95 64 3d 13 06 f0 bd 75 fd bc be
       -0.098571464 0.055806674 -0.117199086 -0.36912122
000190 61 2b b9 bc 9f 59 c3 3d 04 75 6b bb 7d 1b a6 bc
       -0.022603692 0.09538578 -0.00359279 -0.02027678
0001a0 ef 8d 77 3d 2e 3a 3d 3e 26 8d 68 3e 5f 90 c0 3b
       0.060438093 0.18479225 0.22710094 0.0058765854
0001b0 66 29 20 be 4d 2b 2f bd e4 c1 ce bd a6 f5 17 be
       -0.15640792 -0.042765904 -0.100955755 -0.14839801
0001c0 9a a5 a7 3d 72 4a 0c 3e 2b 50 df bd bc 9e 24 3b
       0.08185883 0.13700274 -0.10903963 0.0025119027
0001d0 7f 83 ba 3c a0 6d 06 3e 4e dd f4 bc 3a 14 f0 3d
       0.02276778 0.13127756 -0.029890683 0.11722608
0001e0 92 dc 19 be 30 02 ae bd 58 09 ba bd 1e ff 10 3e
       -0.15025547 -0.08496511 -0.090838134 0.1415982
0001f0 46 a0 24 3d 07 e2 90 bd 7e 2f 90 bd f5 ca 09 3e
       0.04019191 -0.07074361 -0.070403084 0.13456328
000200 10 29 03 3e ce 53 e3 3d d1 10 6f bd 8c fa 31 3e
       0.12808633 0.11099969 -0.058365647 0.17380732
000210 ed 91 1a be 6e d2 23 be 64 60 4d bd 71 f0 1e 3d
       -0.15094729 -0.15998241 -0.050140753 0.03880352
000220 ec a1 e5 bc 26 2a e7 3c 9f 4e 3d be ad 03 58 3b
       -0.028031312 0.02821834 -0.18487023 0.0032961175
000230 76 87 c6 bc bb 74 75 be 38 6c b6 bd 4f 65 87 bc
       -0.024234515 -0.2397031 -0.0890736 -0.0165278
000240 82 a0 c6 bd 94 bd e6 3d 74 5f 2f 3e d6 66 d6 bc
       -0.09698583 0.11266628 0.17126256 -0.026172083
000250 2e a2 9b bd ca 9a be 3c 36 57 42 be 1d c0 2e be
       -0.07599293 0.023267169 -0.18978581 -0.17065473
000260 ae 8b 4c 3d 7a b7 8f be 31 3b 50 3e 32 a7 39 be
       0.049937896 -0.2806967 0.2033508 -0.18130186
000270 ad dc aa 3c b0 db ea bd 96 48 41 bc 81 1c 7e bd
       0.02085718 -0.11467683 -0.011797091 -0.062038902
000280 88 90 6a bd 33 2c 7e bd e7 d2 02 3e 8b 2a 9e 3d
       -0.057266742 -0.06205387 0.12775765 0.07722958
000290 27 a8 70 bd d2 2c 8e be 19 71 14 3e 59 97 47 3e
       -0.058754113 -0.2776857 0.14496268 0.19491328
0002a0 6a ab c4 3d 1c 59 ce bd a4 69 21 3e 26 1a 5f 3c
       0.09603007 -0.1007559 0.15762955 0.013617074
0002b0 0f 97 11 3c 45 9b b7 3d 93 32 5d bd ee 44 95 be
       0.008886113 0.08965162 -0.05400331 -0.29154152
0002c0 7d e1 a1 3b ae 98 1c be 01 34 36 3e 19 36 8d be
       0.0049402104 -0.15292618 0.17793275 -0.27580336
0002d0 16 9a 21 3e 4f 1c 03 be e9 af 89 bd 01 ba 81 bd
       0.15781435 -0.12803768 -0.06723005 -0.063343056
0002e0 c0 9a 4b bd d4 12 4c 3e 7f 16 8d 3d f8 c7 87 3e
       -0.049708128 0.19929057 0.068890564 0.26519752
0002f0 07 2a 55 3d 3f 86 44 3d 46 f7 ae bd d7 98 1d 3d
       0.052042034 0.04797959 -0.085432574 0.038475838
000300 ff 54 17 3d d0 2b 2d bd 9c d0 00 3e b7 52 00 3e
       0.036946293 -0.04227811 0.12579578 0.12531553
000310 ce fd c8 bd 60 77 be bd 68 6c 04 be 46 7c 5e bd
       -0.098140344 -0.09300113 -0.12931979 -0.054317735
000320 fd 47 34 bd 1f 54 74 3e 34 68 98 bd e1 e9 88 3d
       -0.044013966 0.23860215 -0.0744175 0.06685234
000330 8b b8 85 be e2 3e da 3c ec 25 33 bd 12 55 0b be
       -0.26117358 0.026641313 -0.043737337 -0.1360667
000340 93 7e 11 3d 1c 03 c8 bc 38 6d b5 be a4 a9 7a 3d
       0.0355211 -0.024415545 -0.3543489 0.06119694
000350 67 a1 a6 3d 6d e5 1b be 12 21 0f bd 83 94 7c bd
       0.08136254 -0.15224238 -0.034943648 -0.06166507
000360 6e 50 b9 3c 9d 7b e2 3d ba 4e b9 bd 60 c0 92 be
       0.02262136 0.110587336 -0.09048219 -0.28662395
000370 5d fb 74 bd 94 b9 e9 bd 65 bf 4b bd 81 9a d0 bd
       -0.05981003 -0.11412349 -0.049743075 -0.10185719
000380 d4 0f 6f be 34 b3 62 bd 5e 69 d6 3d cd 62 9c 3d
       -0.23345882 -0.055346683 0.10469316 0.07636032
000390 d3 5b bf 3c 18 33 6a bd c9 a4 29 be d9 da ee 3c
       0.023359215 -0.057177633 -0.16566767 0.02915709
0003a0 e6 67 1f 3c 7b 95 2e be d9 cb ef bd 6e 27 dc 3d
       0.009729361 -0.1704921 -0.11708803 0.10749708
0003b0 94 20 ac 3d bd 1f f0 3e 3a 62 24 3e 64 52 5b bd
       0.08404651 0.46899214 0.16053095 -0.05354537
0003c0 07 0e 1f 3d 1d f5 f3 3b 10 82 87 bd 95 77 df bd
       0.038831737 0.0074449913 -0.06616604 -0.1091148
0003d0 01 af ad 3e ef 47 98 be df 56 82 3d 7b 2c 82 3c
       0.3392258 -0.2974238 0.063642256 0.01589035
0003e0 6b 79 3c 3c e6 aa 55 3c 7a 3d 77 bb d8 73 e5 3d
       0.011503558 0.013041234 -0.0037725852 0.11203736
0003f0 65 e2 30 bd c6 85 52 be 14 72 91 bd cd c2 14 3e
       -0.043184657 -0.20558843 -0.07101837 0.14527436
