outputs/E2_costcritic_ablation/E2_costcritic_ablation/E2_shared_seed1/best_tail.pt (torch, 978500 bytes, 68 tensors)

actor_backbone.0.weight f4 [128, 22]
-0.01917893 -0.25652432 0.025864463 0.14429139 0.058548298 -0.047042623 -0.08851203 0.014418993
-0.07326683 0.029396314 -0.023150196 0.04591087 -0.013185536 0.106247164 0.063797176 0.06148901
0.05424352 0.011107597 -0.08885445 -0.06683939 0.17115091 -0.005537309 -0.10263315 -0.32431343
0.11251098 0.031900704 0.02059478 -0.0016043289 -0.14893378 0.14190245 -0.0727203 0.1527021
0.08502931 -0.09476473 -0.13252626 -0.12297999 -0.07648237 0.044863492 -0.13245548 0.062567376
0.14426076 0.02929802 0.012891481 0.09194466 -0.025762752 -0.0977903 0.11564826 0.0215504
-0.09400115 -0.23727591 0.15645245 0.045778114 -0.29101557 -0.0015761801 0.13837717 -0.12614636
-0.1719444 0.09927734 -0.026865413 -0.04567469 0.13798769 -0.13990852 0.082207784 -0.072670385
-0.08643459 0.20619409 -0.07784501 -0.3195913 -0.0343309 -0.057209346 -0.029578015 0.0018332122
-0.049027 0.08246851 0.026481135 0.008750592 0.005837973 0.064581275 -0.16781318 -0.04684887
0.029281871 0.09261199 -0.10722624 0.037024297 -0.074396566 0.123686 -0.026343582 -0.050258443
-0.14535935 0.3451197 -0.08646798 0.12111326 0.038080506 0.014375126 -0.044434205 0.19239284
-0.031527217 -0.35728115 0.0014973313 0.26784435 -0.09932226 0.07413407 0.018112062 0.032776505
-0.076040186 0.0076808347 0.199572 -0.06939171 0.011798079 0.09876362 -0.076955296 0.26466876
-0.1438701 -0.18222146 -0.045791022 0.011553043 -0.036623985 -0.20874096 -0.019911457 -0.06591222
0.2500606 0.08202628 -0.24249296 -0.004320508 0.074037686 0.10023258 -0.020769373 0.21578401
-0.17376567 0.020603398 0.05685908 0.0432772 -0.066118985 0.34109402 0.08094998 -0.012520024
-0.07599773 -0.019611668 -0.02142888 0.16988987 -0.13251033 0.12218699 -0.16643754 -0.11560319
0.15545163 0.07798682 0.065955766 0.07821352 -0.040607676 0.18242626 -0.12523405 0.15004382
-0.07499121 -0.02354192 0.18844546 -0.26826906 0.015792336 0.09313086 0.14125943 -0.10161916
0.08053091 -0.011227291 -0.12457464 -0.086789094 0.13268629 -0.06445593 0.028437806 -0.15200269
-0.116562314 -0.19936338 -0.013075162 0.0013838124 0.039715506 0.12250372 0.026957076 -0.038058937
-0.23004016 0.19893344 0.074672066 0.012088327 -0.01125774 0.01109409 0.039995622 -0.02185963
0.054989964 -0.18604927 -0.06084355 0.16143951 0.13217375 0.0003708178 -0.034536604 0.0006170551
-0.047955748 -0.0935635 -0.2614939 0.08164028 -0.00395154 0.08267701 0.36205804 0.026194079
-0.013374543 0.06835782 -0.018970564 0.060508654 -0.05174621 0.088777654 -0.103583954 -0.13321589
0.14401083 -0.03638658 0.14614832 -0.02835334 -0.046919193 0.012299105 0.18087143 -0.1197655
0.04076843 0.23151855 -0.09156957 -0.24157682 0.02518769 0.2693716 -0.062268697 -0.095051154
0.039342087 0.08624096 0.06928111 0.1429595 0.026094103 -0.23963544 -0.047785066 0.25505665
-0.007950763 0.0042221877 -0.08436716 -0.008731358 -0.0068736738 0.053541232 -0.06818387 0.029895555
0.30964705 -0.10968871 -0.009517391 -0.13843724 0.009205331 0.16038223 0.05346859 -0.07854084
-0.03447476 0.0065686847 0.13120614 -0.062448982 0.03088194 -0.08934932 -0.044931684 -0.1843704
00000000: 221d 9dbc 2857 83be b6e1 d33c 1fc1 133e
00000010: 57d0 6f3d c4af 40bd cc45 b5bd a43d 6c3c
00000020: eb0c 96bd 8ad0 f03c 7ba5 bdbc 090d 3c3d
00000030: 2508 58bc 1d98 d93d 18a8 823d e6db 7b3d
00000040: 742e 5e3d a3fc 353c 52f9 b5bd 17e3 88bd
00000050: 2f42 2f3e 5172 b5bb 5431 d2bd 690c a6be
00000060: 286c e63d 50aa 023d 62b6 a83c 5848 d2ba
00000070: 1982 18be e04e 113e 61ee 94bd f05d 1c3e
00000080: d923 ae3d 0314 c2bd f7b4 07be efdc fbbd
00000090: caa2 9cbd c8c2 373d 69a2 07be 5323 803d
000000a0: 18b9 133e 6702 f03c ca36 533c 7b4d bc3d
000000b0: 680c d3bc 4846 c8bd ffd8 ec3d 778a b03c
000000c0: ad83 c0bd 75f8 72be 1235 203e d581 3b3d
000000d0: feff 94be d497 ceba bfb2 0d3e 832c 01be
000000e0: 3112 30be eb51 cb3d db14 dcbc 6215 3bbd
000000f0: a54c 0d3e 2e44 0fbe 8e5c a83d 36d4 94bd
00000100: 9e04 b1bd 8b24 533e 346d 9fbd 79a1 a3be
00000110: 8f9e 0cbd 5954 6abd 984d f2bc 6548 f03a
00000120: 89d0 48bd 40e5 a83d f7ee d83c a55e 0f3c
00000130: 784c bf3b 3043 843d 38d7 2bbe 9ae4 3fbd
00000140: 89e0 ef3c 5bab bd3d 6e99 dbbd caa6 173d
00000150: 3a5d 98bd 164f fd3d 7fce d7bc ccdb 4dbd
00000160: 15d9 14be 88b3 b03e 2016 b1bd 3b0a f83d
00000170: 4efa 1b3d a685 6b3c a400 36bd a102 453e
00000180: af22 01bd 8eed b6be 1a42 c43a e522 893e
00000190: 7869 cbbd 9ad3 973d bf5f 943c a840 063d
000001a0: f5ba 9bbd 83af fb3b 9a5c 4c3e 3e1d 8ebd
000001b0: bb4c 413c 9544 ca3d bd9a 9dbd aa82 873e
000001c0: af52 13be 4398 3abe 5e8f 3bbd f948 3d3c
000001d0: 0803 16bd 31c0 55be 5a1d a3bc fcfc 86bd
000001e0: f107 803e 65fd a73d 1350 78be 0c93 8dbb
000001f0: 12a1 973d bd46 cd3d 8824 aabc 7cf6 5c3e
00000200: a1ef 31be 75c8 a83c 11e5 683d 6f43 313d
00000210: 6469 87bd e0a3 ae3e 1ac9 a53d c920 4dbc
00000220: b3a4 9bbd a6a8 a0bc 9e8b afbc 9cf7 2d3e
00000230: cab0 07be 2c3d fa3d 9a6e 2abe 5ec1 ecbd
00000240: b62e 1f3e 8eb7 9f3d d113 873d 692e a03d
00000250: 3c54 26bd f3cd 3a3e 5b3d 00be 16a5 193e
00000260: fe94 99bd fcda c0bc d9f7 403e 905a 89be
00000270: ee5e 813c 64bb be3d 50a6 103e b51d d0bd
00000280: 64ed a43d acf2 37bc fd20 ffbd 7bbe b1bd
00000290: eade 073e 7801 84bd 67f6 e83c 98a6 1bbe
000002a0: 39b8 eebd ea25 4cbe 3439 56bc 0a61 b53a
000002b0: baac 223d 3be3 fa3d 16d5 dc3c b0e3 1bbd
000002c0: a68f 6bbe 35b5 4b3e abed 983d 1e0e 463c
000002d0: 6272 38bc fcc3 353c 73d2 233d f712 b3bc
000002e0: 283d 613d b383 3ebe 1637 79bd 6650 253e
000002f0: 8e58 073e 536a c239 4176 0dbd dec1 213a
00000300: 3f6d 44bd 389e bfbd 87e2 85be 0533 a73d
00000310: ec7b 81bb 9052 a93d ac5f b93e f794 d63c
00000320: e620 5bbc 2fff 8b3d 2868 9bbc ecd7 773d
00000330: d5f3 53bd 0fd1 b53d d323 d4bd bf69 08be
00000340: 9377 133e 180a 15bd e8a7 153e 4445 e8bc
00000350: 572e 40bd 2f82 493c 5c36 393e 9d47 f5bd
00000360: ccfc 263d 3313 6d3e d488 bbbd ea5f 77be
00000370: 6a56 ce3c 13eb 893e 760d 7fbd 2eaa c2bd
00000380: 2b25 213d 1a9f b03d 41e3 8d3d fa63 123e
00000390: 4dc3 d53c fe62 75be 46ba 43bd c996 823e
000003a0: eb43 02bc 475a 8a3b b1c8 acbd f80d 0fbc
000003b0: 8e3c e1bb 0d4e 5b3d fca3 8bbd 86e7 f43c
000003c0: 0f8a 9e3e 79a4 e0bd d5ee 1bbc 7ec2 0dbe
000003d0: f5d1 163c 3d3b 243e e101 5b3d 05da a0bd
000003e0: 6835 0dbd 1f3e d73b e75a 063e 81ca 7fbd
000003f0: 1ffc fc3c c7fc b6bd 490a 38bd 98cb 3cbe

actor_backbone.0.bias f4 [128]
0.30995798 0.34037986 0.29746112 0.34279102 -0.2623443 -0.39562607 -0.0032928973 -0.103114
0.26323664 -0.36679515 0.26551813 0.2857398 -0.40133286 0.31470767 -0.37920594 -0.23689897
0.29349303 0.34037837 0.29079226 -0.22565037 0.2934151 -0.28915128 0.27142695 -0.0037776532
-0.2813883 -0.059172362 0.25098604 0.28672844 0.39207727 0.37336984 0.2340957 -0.30487663
0.31980708 0.22139037 0.23138408 -0.31207642 0.24864121 0.35979968 0.16607367 -0.21285781
0.32901075 0.2952319 0.37863946 0.16149642 0.12796083 -0.3513562 0.2592445 0.39564058
-0.26897472 -0.43957582 -0.16848318 -0.34067798 0.015481119 -0.32613128 -0.2139323 -0.3648677
0.33856133 0.24989437 0.37016907 -0.40915412 0.38972285 -0.13574898 0.20719732 0.33371994
-0.3239987 -0.3713669 -0.29526573 -0.23719856 -0.07717973 0.13328269 0.2315085 -0.32055622
0.36347023 -0.23453903 0.33111203 -0.32016692 -0.12596324 -0.1875753 -0.2706926 0.25966224
-0.35759106 -0.31579816 0.24613416 0.25488117 -0.07161097 0.20253558 0.36500892 -0.2752335
-0.29410487 0.21661226 -0.39867067 0.31931683 0.3663524 -0.40693432 0.25303087 -0.22784485
0.15010402 -0.12711836 -0.15283088 0.030030053 0.14850055 0.2585373 0.045225397 0.21635999
-0.21699016 0.23295613 0.17615001 0.25758103 -0.18161476 0.21551785 0.21879517 0.25810415
0.2882894 -0.3222237 0.20687594 -0.43389702 -0.28520173 -0.36608624 -0.19793111 -0.3925711
0.36177593 -0.21452972 -0.021812445 0.2154056 0.39775145 -0.07529459 -0.23807198 -0.28663096
00000000: d0b2 9e3e 4546 ae3e d34c 983e 4e82 af3e
00000010: fe51 86be 808f cabe a6cd 57bb 6f2d d3bd
00000020: f4c6 863e 93cc bbbe fef1 873e 7d4c 923e
00000030: 807b cdbe 5d21 a13e 4827 c2be a595 72be
00000040: b844 963e 1346 ae3e b9e2 943e e410 67be
00000050: 813a 963e a30b 94be 79f8 8a3e 8192 77bb
00000060: 2112 90be b85e 72bd 3e81 803e 12ce 923e
00000070: 5abe c83e 552a bf3e c8b6 6f3e ca18 9cbe
00000080: c1bd a33e 28b4 623e f3ef 6c3e 7bc8 9fbe
00000090: cd9b 7e3e aa37 b83e 370f 2a3e 66f7 59be
000000a0: 1974 a83e a328 973e 08dd c13e 515f 253e
000000b0: 2a08 033e f6e4 b3be b2bb 843e 6791 ca3e
000000c0: 0eb7 89be 1510 e1be db86 2cbe 586d aebe
000000d0: 85a4 7d3c aefa a6be 1211 5bbe f0cf babe
000000e0: e957 ad3e 4fe4 7f3e cd86 bd3e a67c d1be
000000f0: c189 c73e c801 0bbe 892b 543e 57dd aa3e
00000100: 28e3 a5be cd23 bebe 122d 97be 2ee4 72be
00000110: 6810 9ebd 427b 083e 9010 6d3e f21f a4be
00000120: c518 ba3e 002b 70be 8487 a93e ebec a3be
00000130: 82fc 00be bd13 40be 3898 8abe 73f2 843e
00000140: 2d16 b7be 4cb0 a1be 980a 7c3e c97f 823e
00000150: c6a8 92bd 7d65 4f3e 73e2 ba3e 68eb 8cbe
00000160: ea94 96be 9bcf 5d3e 901e ccbe 7f7d a33e
00000170: 8b92 bb3e b259 d0be 438d 813e 2950 69be
00000180: deb4 193e 512b 02be b37f 1cbe 9601 f63c
00000190: 8710 183e 005f 843e 443e 393d 798d 5d3e
000001a0: ab32 5ebe 0d8c 6e3e ab60 343e a9e1 833e
000001b0: 38f9 39be b6b0 5c3e d70b 603e 3a26 843e
000001c0: ab9a 933e 81fa a4be 49d7 533e c027 debe
000001d0: f605 92be a86f bbbe 74ae 4abe 14ff c8be
000001e0: b23a b93e aead 5bbe 03b0 b2bc 4993 5c3e
000001f0: 14a6 cb3e 0d34 9abd 24c9 73be 4bc1 92be

actor_backbone.2.weight f4 [128, 128]
0.26676804 0.23635484 0.113814585 0.019838879 -0.09567864 -0.09985689 0.27660373 -0.1285106
0.07886226 -0.124491364 0.23024568 0.17572801 0.27271014 0.063799195 0.019071914 0.025254138
-0.09468123 -0.09165222 0.30178097 0.15696456 -0.013128735 -0.090821184 0.09338666 -0.0074608275
0.009095837 -0.083556294 0.06461995 0.1877235 0.048556574 -0.005581414 0.36423373 -0.13404328
0.039798815 -0.02725865 0.028176961 -0.18530557 0.23024714 0.062017575 -0.117477864 -0.109778225
0.20562352 0.14160606 0.04166864 0.13755977 -0.15656099 -0.04540934 -0.11845666 0.2849967
-0.038052905 -0.013540118 -0.2728968 0.03019534 0.017964082 -0.12641282 -0.1224282 -0.25983655
0.17939746 0.06252073 0.019018635 0.06845357 -0.07135072 -0.09761638 0.037601948 0.17515601
-0.17622149 0.03530161 -0.18805633 -0.15011819 0.12169611 0.11514901 0.07226623 -0.08199196
-0.2347095 -0.21505798 0.025969263 -0.08774993 0.075838014 -0.13343012 -0.08510905 0.042099994
-0.12981687 -0.06245689 -0.05126974 0.22686546 -0.1410896 0.080591165 0.20423643 0.07058847
-0.15781923 -0.026052963 -0.47165644 0.12921914 0.14600696 0.020251306 0.123160474 -0.03628713
-0.05615425 -0.093210086 -0.18963307 0.20484072 0.23883459 0.013529903 0.16696984 -0.18960603
0.1405056 -0.06512622 0.13686192 -0.1343137 -0.10263416 0.21300584 -0.09672873 0.061347805
0.0671064 -0.13433096 0.006905818 0.085669436 -0.16890015 0.008225524 -0.27681968 0.15892361
-0.27193773 -0.117216766 -0.13750681 0.14333735 -0.091281824 -0.05056113 0.00792114 -0.18807034
-0.083339304 0.16674735 -0.33446148 -0.18323378 0.096513264 0.04986945 -0.0018957254 0.10031119
-0.050398223 0.37439042 -0.06535936 -0.1521662 -0.3448518 0.10400071 -0.024446465 -0.13715765
0.08925732 0.052099384 -0.013039389 0.24959134 -0.13321273 0.06934928 0.02276699 -0.07465555
0.17341644 0.23522112 -0.13446121 0.009449236 0.039531518 -0.020748481 -0.047440525 0.10365672
-0.18336043 -0.28310093 0.12737857 0.032825053 0.01949492 -0.10182008 -0.23440592 0.26366153
0.043973655 0.0056930413 -0.41132653 -0.019569188 -0.032347612 0.3727954 -0.05533079 -0.14820985
-0.12315574 0.11520985 0.0016608436 -0.047145657 -0.065490104 0.23289289 0.07807173 0.27358258
-0.055768844 -0.21404868 0.036525287 0.056648117 0.12940702 -0.08162773 -0.2028818 0.067388736
0.1578272 0.055422794 -0.017313298 0.12256828 0.06435072 -0.37634888 -0.15277511 0.08157247
-0.050355133 0.08337175 -0.13828166 0.16444822 -0.026955908 0.07025061 0.26155013 -0.21147136
0.0024376775 0.16197371 -0.12988016 0.144052 0.102395535 -0.014834219 -0.11318482 0.034929108
0.021613063 -0.08000379 0.096077636 -0.0634824 -0.38841128 0.00836522 -0.110130146 -0.123397365
0.13977829 0.01174115 -0.004948889 -0.02488198 -0.06790378 0.008881933 -0.17541862 -0.17291757
0.11488289 -0.051048223 0.017894132 -0.11391104 -0.045276154 -0.21876557 -0.23508678 -0.094776236
0.104790896 -0.014495029 0.044278 -0.26364186 0.110993676 0.01741932 0.13817088 -0.039723206
0.13312268 -0.035159636 -0.05331399 0.047319334 -0.23895599 0.17835934 0.098076455 -0.08009303
00000000: d295 883e 0107 723e 9f17 e93d 2585 a23c
00000010: 2af3 c3bd c581 ccbd 019f 8d3e 4898 03be
00000020: 8982 a13d 54f5 febd 86c5 6b3e 0bf2 333e
00000030: aaa0 8b3e 27a9 823d b43c 9c3c c4e1 ce3c
00000040: 3ce8 c1bd 29b4 bbbd 0983 9a3e 51bb 203e
00000050: e819 57bc 7500 babd 8141 bf3d f579 f4bb
00000060: b506 153c 901f abbd 7757 843d 973a 403e
00000070: 42e3 463d 4be4 b6bb d87c ba3e a442 09be
00000080: 1504 233d 884d dfbc 5fd3 e63c bec0 3dbe
00000090: e8c5 6b3e 2406 7e3d 3c98 f0bd 68d3 e0bd
000000a0: f98e 523e 2e01 113e bcac 2a3d 78dc 0c3e
000000b0: 8651 20be 25ff 39bd 6899 f2bd 16eb 913e
000000c0: 5ddd 1bbd 5fd7 5dbc 21b9 8bbe 385c f73c
000000d0: 6929 933c 5d72 01be a3bb fabd 4c09 85be
000000e0: f8b3 373e de0a 803d f8cc 9b3c 6331 8c3d
000000f0: 5420 92bd 19eb c7bd 8004 1a3d 195c 333e
00000100: 6873 34be 6c98 103d d791 40be 95b8 19be
00000110: cf3b f93d 3fd3 eb3d 5100 943d 67eb a7bd
00000120: b057 70be 2938 5cbe 7ebd d43c 3cb6 b3bd
00000130: f650 9b3d e8a1 08be a74d aebd 0b71 2c3d
00000140: b7ee 04be ccd2 7fbd 3800 52bd 6b4f 683e
00000150: cb79 10be fb0c a53d 5b23 513e b090 903d
00000160: 5d9b 21be 066d d5bc f47c f1be 0652 043e
00000170: d982 153e 11e6 a53c 8f3b fc3d d0a1 14bd
00000180: 0002 66bd eee4 bebd 2c2f 42be c4c1 513e
00000190: 0e91 743e 87ac 5d3c 24fa 2a3e 1528 42be
000001a0: b3e0 0f3e e560 85bd 8825 0c3e 8889 09be
000001b0: dc31 d2bd 341e 5a3e b619 c6bd d647 7b3d
000001c0: 156f 893d 0e8e 09be 334a e23b 7573 af3d
000001d0: 29f4 2cbe 59c4 063c 4fbb 8dbe dfbc 223e
000001e0: 6c3b 8bbe 580f f0bd 96ce 0cbe 07c7 123e
000001f0: f7f1 babd 3019 4fbd abc7 013c 8395 40be
00000200: ccad aabd d1bf 2a3e 893e abbe a3a1 3bbe
00000210: bfa8 c53d e943 4c3d fd79 f8ba f46f cd3d
00000220: 5e6e 4ebd 1ab0 bf3e 21db 85bd 75d1 1bbe
00000230: 6a90 b0be 53fe d43d f443 c8bc 0e73 0cbe
00000240: 8bcc b63d 2a66 553d 29a3 55bc df94 7f3e
00000250: eb68 08be ff06 8e3d d781 ba3c 02e5 98bd
00000260: 1494 313e cedd 703e 33b0 09be f8d0 1a3c
00000270: cdeb 213d b8f8 a9bc ff50 42bd f949 d43d
00000280: d6c2 3bbe 9bf2 90be 876f 023e 9073 063d
00000290: cfb3 9f3c 0c87 d0bd 1b08 70be a5fe 863e
000002a0: b81d 343d b18c ba3b 6499 d2be 904f a0bc
000002b0: ee7e 04bd 0adf be3e 8aa2 62bd 53c4 17be
000002c0: 1439 fcbd 24f3 eb3d aab0 d93a ce1b 41bd
000002d0: ad1f 86bd 797b 6e3e 12e4 9f3d 0413 8c3e
000002e0: df6d 64bd 942f 5bbe 8a9b 153d db07 683d
000002f0: 4683 043e 702c a7bd 3fc0 4fbe 1b03 8a3d
00000300: 749d 213e 0303 633d 9ed4 8dbc 1405 fb3d
00000310: 4fca 833d cdb0 c0be 1471 1cbe 780f a73d
00000320: 2f41 4ebd cfbe aa3d b599 0dbe 1d65 283e
00000330: a3d2 dcbc 8ddf 8f3d e6e9 853e f38b 58be
00000340: 71c1 1f3b 70dc 253e 4eff 04be 5e82 133e
00000350: c0b4 d13d 390b 73bc 71cd e7bd d311 0f3d
00000360: e10d b13c 07d9 a3bd 5ac4 c43d 0f03 82bd
00000370: d8dd c6be 470e 093c ea8b e1bd c2b7 fcbd
00000380: 0a22 0f3e f45d 403c 4a2a a2bb 4bd5 cbbc
00000390: 2311 8bbd 8785 113c f0a0 33be 4e11 31be
000003a0: b847 eb3d f117 51bd b796 923c 314a e9bd
000003b0: 7d73 39bd 1504 60be 97ba 70be 0b1a c2bd
000003c0: 9c9c d63d 8f7c 6dbc d95c 353d 11fc 86be
000003d0: a750 e33d f6b2 8e3c ab7c 0d3e cdb4 22bd
000003e0: 5051 083e 8d03 10bd c55f 5abd ebd1 413d
000003f0: e1b0 74be d5a3 363e 4fdc c83d d107 a4bd

actor_backbone.2.bias f4 [128]
0.27995178 -0.24232793 0.24262044 0.2367221 0.25346285 -0.25411066 0.2681352 0.26151899
-0.2193265 -0.2847613 -0.28685477 -0.27139246 0.28594807 0.2119257 -0.27820945 -0.16475981
0.2356744 -0.15432945 -0.22280432 -0.23173052 -0.24559264 0.12689294 -0.24933074 -0.2297695
0.25691757 -0.21541692 -0.2936404 0.24133117 -0.26245967 -0.26275396 -0.25719127 -0.26049078
0.079777814 -0.25074777 0.2633526 0.26815847 -0.2820025 0.14410855 0.23767261 -0.25139064
-0.21633095 -0.23936959 -0.24137397 0.26668778 0.103022486 0.24301648 0.09469777 -0.08949574
0.2493668 0.12726018 -0.1021759 -0.0012708454 -0.23008843 -0.06028288 0.28254336 0.23503773
0.26967457 -0.11560665 0.03499123 -0.2190626 0.2319011 0.24619357 -0.2578514 0.20124035
-0.23735183 0.25623778 -0.25776783 -0.26552528 0.2719547 -0.27977023 0.17239815 -0.055491824
0.2694763 -0.25326738 -0.25579205 -0.06197767 -0.2340729 0.096734494 -0.17233464 0.2562778
-0.23146065 -0.29048124 0.26977736 0.28669727 -0.24967092 -0.21915695 0.25772113 -0.19287744
0.263608 0.18982396 0.023420379 0.28309968 0.25038844 0.2390246 -0.1711886 0.017903697
0.25945956 0.24281868 -0.24483755 -0.24003123 -0.28983033 -0.21670526 -0.28461075 -0.1840601
0.13607918 0.05257197 -0.24754317 0.2094057 0.1994338 0.19858113 0.15925775 -0.2869469
0.17769407 0.02305742 -0.2581154 0.29793715 -0.24451217 0.1218605 0.22727025 -0.14240481
-0.11142026 0.25225806 0.0505569 -0.25565997 0.26284772 0.21429361 -0.24506634 -0.2853504
00000000: d755 8f3e d024 78be 7e71 783e 4767 723e
00000010: e2c5 813e cb1a 82be 0449 893e d1e5 853e
00000020: 2097 60be 3ccc 91be a1de 92be f4f3 8abe
00000030: c967 923e 0d03 593e 7871 8ebe ccb6 28be
00000040: a154 713e 8a08 1ebe d126 64be c44a 6dbe
00000050: a37c 7bbe 39f0 013e 8f50 7fbe b248 6bbe
00000060: b38a 833e 4196 5cbe 0958 96be 851f 773e
00000070: 1d61 86be b087 86be 93ae 83be 0c5f 85be
00000080: 8d62 a33d 0362 80be 27d6 863e 114c 893e
00000090: a262 90be 3191 133e 7360 733e 46b6 80be
000000a0: dc85 5dbe 4d1d 75be bd2a 77be 4d8b 883e
000000b0: 74fd d23d 50d9 783e e8f0 c13d 8b49 b7bd
000000c0: 035a 7f3e 7e50 023e 9941 d1bd 7f92 a6ba
000000d0: 4d9c 6bbe 2eeb 76bd 86a9 903e bbad 703e
000000e0: c912 8a3e 2ec3 ecbd f752 0f3d f251 60be
000000f0: 7b77 6d3e 2b1a 7c3e 1905 84be f311 4e3e
00000100: 5c0c 73be 9931 833e 25fa 83be eef2 87be
00000110: a53d 8b3e 0b3e 8fbe 2489 303e 654b 63bd
00000120: ccf8 893e 43ac 81be 2df7 82be 4cdc 7dbd
00000130: ceb0 6fbe bc1c c63d 7e78 30be d836 833e
00000140: 0504 6dbe f5b9 94be 4220 8a3e fcc9 923e
00000150: bca9 7fbe ae6a 60be 06f4 833e aa81 45be
00000160: a1f7 863e 3661 423e 18dc bf3c 71f2 903e
00000170: ea32 803e ddc2 743e 104c 2fbe c6aa 923c
00000180: e2d7 843e 76a5 783e b2b6 7abe bfca 75be
00000190: a464 94be fce7 5dbe 80b8 91be 407a 3cbe
000001a0: 5758 0b3e b555 573d f57b 7dbe 736e 563e
000001b0: 6038 4c3e da58 4b3e 7714 233e b4ea 92be
000001c0: 6ff5 353e eae2 bc3c b427 84be 388b 983e
000001d0: 6661 7abe ff91 f93d 88b9 683e 91d2 11be
000001e0: 4e30 e4bd f827 813e c114 4f3d dde5 82be
000001f0: fa93 863e c96f 5b3e acf2 7abe 7319 92be

reward_backbone.0.weight f4 [128, 22]
0.086316176 0.24137767 -0.003746376 -0.0074270163 0.05351741 0.037182633 0.0782862 0.06399562
0.07068923 -0.008695703 -0.02690053 0.07223587 0.065295205 -0.030797858 0.07582872 -0.041842747
0.0023087116 0.03401725 0.02414754 -0.06766237 0.07219176 0.09861709 0.052900948 0.18460338
0.10987549 0.050510056 -0.07922141 0.07955733 0.04692422 -0.054565165 -0.009629982 0.008650643
0.034045383 0.033126537 0.00048557232 0.012504109 0.02569726 -0.06337107 0.029082961 -0.17411563
0.038861815 -0.10476405 0.02278639 -0.10431444 -0.046778087 -0.26490173 0.04131504 -0.059137065
0.027085776 0.09423664 -0.1260517 -0.13644113 0.10430993 -0.31060243 0.12730859 -0.0037674785
-0.04648983 0.11359432 0.051206682 0.06963027 0.06268241 -0.021317383 -0.20307818 0.058651093
0.123443544 -0.04401597 -0.00040910457 0.18670605 0.19595364 -0.014409467 0.02868743 0.090551324
-0.048512183 0.027589483 -0.007158216 0.1043759 0.060555674 -0.061133854 0.0061375336 -0.014023021
-0.11981252 0.09774336 0.087594345 -0.073484816 0.06193505 0.18670997 -0.18420711 0.006247211
-0.1250809 -0.017107517 0.1318629 0.020745834 -0.06486313 0.058935568 -0.12046615 0.040802043
-0.06270962 0.20438994 0.11460942 -0.028181817 -0.108694084 0.08112652 -0.013013587 0.051289994
-0.06989141 0.015472485 -0.09077119 -0.07679424 0.013368711 0.0077890167 0.13758232 0.05644246
-0.31868237 -0.019075371 -0.1713989 0.049993638 -0.04074527 0.047126662 0.1250092 -0.13902837
-0.28675327 -0.06100038 0.16967084 0.12434163 -0.19181322 0.12295668 0.035286468 0.15900736
0.01900549 0.14073876 -0.07263111 0.02048513 -0.15089187 -0.24035065 -0.10170106 0.10617693
0.011455305 -0.07913136 0.062457837 0.03794528 0.055210732 -0.14416596 -0.028718214 -0.021608518
0.15466851 -0.041563425 0.015288447 0.016646402 -0.08315009 -0.0735473 0.027756765 0.14637361
-0.14901859 0.031458613 -0.11610948 -0.14866965 0.10568691 0.1014959 0.03249377 0.1833845
0.059974838 0.0036075907 0.06016737 0.085331954 -0.041166745 -0.18097532 0.023529235 0.008031158
0.025075514 -0.030099785 0.027742492 0.036227368 -0.00590371 -0.03835009 0.0063284137 -0.098614156
-0.021851266 0.064811684 -0.049219515 -0.05686429 0.18870193 0.043925513 -0.01224585 0.021609453
-0.1486935 0.0002664258 0.21921824 0.00038029288 0.1022596 -0.1612739 0.096713856 -0.02638073
-0.08830821 -0.058699843 0.08361391 0.032238692 0.10324753 0.025199937 0.07744098 -0.007861273
-0.07768326 0.11614908 0.038678966 -0.050650973 -0.14397396 0.16089885 -0.0044009425 0.035458606
-0.23787059 0.06689094 0.07262594 0.14083958 -0.07943052 -0.18474911 -0.03140806 0.06276009
0.17488691 -0.1081166 -0.1709567 -0.054737493 0.002328826 0.25360066 -0.062260095 0.07520609
-0.19787969 0.051300913 0.10446737 0.05682358 0.054737825 -0.1476519 -0.02694433 -0.041017223
-0.1969078 -0.029848168 -0.051816363 -0.062264632 0.1679299 0.07534547 0.0674472 -0.067216575
0.05341851 0.04651051 -0.1333067 -0.09906693 0.060640655 -0.053731754 0.073472045 -0.079938084
-0.05290767 0.11592455 0.04255167 0.14592652 -0.101276256 -0.061769947 -0.038280096 0.019962136
00000000: 89c6 b03d b52b 773e c285 75bb 545e f3bb
00000010: 1235 5b3d d14c 183d 8454 a03d 2310 833d
00000020: 84c5 903d 6c78 0ebc 805e dcbc 66f0 933d
00000030: 7eb9 853d ca4b fcbc 174c 9b3d 4d63 2bbd
00000040: c14d 173b ac55 0b3d 10d1 c53c 9292 8abd
00000050: 46d9 933d c2f7 c93d aaae 583d ab08 3d3e
00000060: 6706 e13d a2e3 4e3d d63e a2bd f4ee a23d
00000070: 9c33 403d b97f 5fbd 12c7 1dbc 6dbb 0d3c
00000080: 2c73 0b3d b1af 073d 6a94 fe39 09de 4c3c
00000090: 0f83 d23c b1c8 81bd 643f ee3c 5e4b 32be
000000a0: 912d 1f3d 898e d6bd 86aa ba3c cfa2 d5bd
000000b0: 619a 3fbd 33a1 87be f639 293d b539 72bd
000000c0: fde2 dd3c 24ff c03d b213 01be 39b7 0bbe
000000d0: 72a0 d53d 4807 9fbe 2f5d 023e cde7 76bb
000000e0: 1f6c 3ebd 24a4 e83d 19be 513d 519a 8e3d
000000f0: a35f 803d cba1 aebc baf3 4fbe 213c 703d
00000100: f8cf fc3d 174a 34bd 167d d6b9 df2f 3f3e
00000110: 12a8 483e af15 6cbc e701 eb3c f972 b93d
00000120: b6b4 46bd 5703 e23c 788f eabb 08c3 d53d
00000130: 3a09 783d 7e67 7abd 5d1d c93b d0c0 65bc
00000140: 4460 f5bd ac2d c83d aa64 b33d 357f 96bd
00000150: 9baf 7d3d e630 3f3e caa0 3cbe 67b5 cc3b
00000160: 3515 00be 1025 8cbc 1107 073e 2bf3 a93c
00000170: f6d6 84bd 6c66 713d f5b6 f6bd 0b20 273d
00000180: e76d 80bd 994b 513e 58b8 ea3d 8edd e6bc
00000190: 019b debd a925 a63d f136 55bc 7515 523d
000001a0: 3a23 8fbd 4e80 7d3c 3fe6 b9bd 4c46 9dbd
000001b0: 7008 5b3c 023b ff3b 61e2 0c3e 3530 673d
000001c0: 562a a3be f443 9cbc 3183 2fbe 21c6 4c3d
000001d0: 83e4 26bd e307 413d 6902 003e 745d 0ebe
000001e0: 53d1 92be 89db 79bd 31be 2d3e d3a6 fe3d
000001f0: af6a 44be b6d0 fb3d 8b88 103d d3d2 223e
00000200: 67b1 9b3c d21d 103e 9fbf 94bd 6ed0 a73c
00000210: 6683 1abe 7b1e 76be a548 d0bd 4a73 d93d
00000220: 08af 3b3c 9f0f a2bd cad3 7f3d 836c 1b3d
00000230: a624 623d 3ea0 13be 7642 ebbc 5904 b1bc
00000240: 6c61 1e3e 693e 2abd 657c 7a3c 095e 883c
00000250: 984a aabd f89f 96bd 2862 e33c f7e2 153e
00000260: 5498 18be bfda 003d cfca edbd db3c 18be
00000270: 6172 d83d 15dd cf3d 3018 053d 25c9 3b3e
00000280: 2da8 753d 546d 6c3b 0f72 763d 85c2 ae3d
00000290: 769e 28bd 9851 39be 62c0 c03c 1e95 033c
000002a0: 2a6b cd3c d393 f6bc 3944 e33c 2663 143d
000002b0: e973 c1bb fc14 1dbd 955e cf3b 38f6 c9bd
000002c0: 6d01 b3bc fdbb 843d 679a 49bd 88ea 68bd
000002d0: 143b 413e 3deb 333d d1a2 48bc 4f06 b13c
000002e0: 1c43 18be 11af 8b39 bf7a 603e 0c62 c739
000002f0: 7b6d d13d fc24 25be ea11 c63d 671c d8bc
00000300: efda b4bd 3f6f 70bd c53d ab3d b80c 043d
00000310: 7173 d33d 1970 ce3c 6099 9e3d 92cc 00bc
00000320: 6718 9fbd 92df ed3d d66d 1e3d 6577 4fbd
00000330: e96d 13be abc2 243e c835 90bb 0b3d 113d
00000340: 5994 73be 1efe 883d e9bc 943d 4038 103e
00000350: 78ac a2bd df2e 3dbe bda5 00bd 5d88 803d
00000360: 8e15 333e 3c6c ddbd 460f 2fbe 6c34 60bd
00000370: 389f 183b f2d7 813e 7104 7fbd a705 9a3d
00000380: f9a0 4abe e820 523d fdf2 d53d d8bf 683d
00000390: c534 603d 0f32 17be 5bba dcbc ad01 28bd
000003a0: 33a2 49be 2584 f4bc 653d 54bd 3309 7fbd
000003b0: d1f5 2b3e ba4e 9a3d c221 8a3d d8a8 89bd
000003c0: 5ecd 5a3d ce81 3e3d 8d81 08be 9ae3 cabd
000003d0: 5662 783d d415 5cbd 8378 963d 94b6 a3bd
000003e0: b7b5 58bd da69 ed3d a94a 2e3d c36d 153e
000003f0: ed69 cfbd 7c02 7dbd 97cb 1cbd a287 a33c

reward_backbone.0.bias f4 [128]
0.010325186 0.25063762 0.22612847 0.017247885 -0.20455651 0.02136132 0.018709585 0.37685394
0.23420876 0.12300122 -0.021209614 0.012469625 -0.068374954 0.095862925 -0.058866207 -0.018974634
0.040739767 -0.22023039 0.05961922 0.04108955 -0.058039654 0.052884445 0.013378143 -0.17809346
-0.11900245 0.29465866 -0.07310142 -0.047170587 0.008843588 -0.022212295 0.0722727 0.24526908
0.05455642 0.2332901 -0.025078485 0.243344 -0.14297436 -0.2034058 -0.0019003811 0.14893556
0.029675009 0.031620797 -0.02082606 0.26806656 0.019791393 0.03147686 0.032906223 0.2373622
0.029205479 -0.2390995 -0.22664836 -0.22595178 -0.03914615 -0.11059677 -0.045569282 0.01233999
0.0493982 -0.12805459 0.04395421 -0.06667414 0.15658425 0.21643056 -0.10818985 -0.01247408
0.0143573815 -0.13682221 -0.1753646 -0.07772149 -0.10585817 -0.13312867 -0.022186575 -0.036197994
-0.24237825 -0.016372578 0.11783238 -0.15600619 -0.10308187 -0.29728118 -0.10334845 -0.18919258
-0.023895765 0.0018327 -0.03432889 0.18255381 0.003672914 -0.25059545 0.31172344 -0.006964418
-0.28652176 -0.10084798 0.0065008104 0.03273139 0.18647115 -0.22232033 0.006065926 0.2513374
0.02493175 -0.10196297 0.051636722 0.05823867 0.027288945 -0.29130474 0.023414612 0.07467372
-0.057632428 -0.1404107 -0.011382365 0.07471821 0.037001885 -0.043466847 0.14201672 -0.011425551
0.05385798 -0.04497497 0.053008847 0.052775223 -0.0031796147 -0.16433346 0.005363285 -0.2742563
0.28239092 0.007830495 0.012875309 0.10392077 0.10760996 -0.0048237224 0.07683688 -0.017188083
00000000: f82a 293c 9353 803e 398e 673e 704b 8d3c
00000010: 4377 51be effd ae3c d844 993c 00f3 c03e
00000020: 6cd4 6f3e 10e8 fb3d c9bf adbc 664d 4c3c
00000030: 2b08 8cbd c853 c43d b11d 71bd b170 9bbc
00000040: bede 263d 1384 61be 4933 743d 844d 283d
00000050: fdba 6dbd 5c9d 583d 0030 5b3c 225e 36be
00000060: 8eb7 f3bd 80dd 963e 33b6 95bd f235 41bd
00000070: b2e4 103c 8ff6 b5bc b603 943d d127 7b3e
00000080: 8d76 5f3d 9ae3 6e3e 6571 cdbc 2b2f 793e
00000090: df67 12be 9c49 50be 3516 f9ba 9082 183e
000000a0: 0119 f33c cf84 013d 6a9b aabc 0540 893e
000000b0: 8f21 a23c e1ed 003d adc8 063d 140f 733e
000000c0: 5440 ef3c 80d6 74be 8216 68be e75f 67be
000000d0: b757 20bd 8f80 e2bd dba6 3abd ab2d 4a3c
000000e0: c455 4a3d be20 03be 5409 343d 748c 88bd
000000f0: 9f57 203e f99f 5d3e a492 ddbd 1560 4cbc
00000100: 393b 6b3c 1f1b 0cbe c792 33be 722c 9fbd
00000110: 2bcc d8bd e252 08be 9fc0 b5bc 5944 14bd
00000120: 0132 78be c91f 86bc 1a52 f13d 16c0 1fbe
00000130: 961c d3bd 3d35 98be 5aa8 d3bd b3bb 41be
00000140: 0dc1 c3bc 3537 f03a 739c 0cbd 63ef 3a3e
00000150: 46b5 703b 0c4e 80be 379a 9f3e c635 e4bb
00000160: fbb2 92be 6389 cebd c004 d53b 5a11 063d
00000170: 4bf2 3e3e f1a7 63be adc4 c63b 4caf 803e
00000180: ab3d cc3c f6d1 d0bd 0781 533d ac8b 6e3d
00000190: 118d df3c e525 95be 00d0 bf3c 89ee 983d
000001a0: fb0f 6cbd d3c7 0fbe 197d 3abc dc05 993d
000001b0: 4a8f 173d 4b0a 32bd d56c 113e 3c32 3bbc
000001c0: 2f9a 5c3d ad37 38bd ce1f 593d d52a 583d
000001d0: 1561 50bb 0847 28be 7fbe af3b 526b 8cbe
000001e0: 8b95 903e 7a4b 003c f6f2 523c 6ad4 d43d
000001f0: 9c62 dc3d 5110 9ebb a75c 9d3d 06ce 8cbc

reward_backbone.2.weight f4 [128, 128]
-0.1955098 0.047676183 0.080045626 0.0123225255 0.11201502 -0.13124749 -0.09151059 0.043836795
0.0681138 0.029470982 0.017860634 -0.16593753 0.04222726 -0.0893129 0.08895163 0.0805929
0.10566123 0.08149893 0.16851674 0.15113132 0.45383936 0.0047214576 -0.04003115 -0.05169186
-0.03111367 0.04313309 -0.02464071 0.16935667 0.062865056 -0.2190483 -0.010382412 0.009562555
0.05146004 -0.0048265113 0.021561708 0.17575218 0.18486278 0.013693418 -0.020934545 -0.09040973
-0.09254715 -0.070432484 0.02202659 -0.10988429 -0.16342388 -0.011757561 0.18963689 -0.097983636
-0.08079617 -0.0816185 -0.09717217 0.0525315 0.03508637 -0.08660741 -0.00878165 0.22173153
0.13633393 -0.088944755 0.19162433 -0.122620784 -0.20284893 0.029036291 -0.22648679 0.030984454
-0.042661566 0.00656248 -0.03625819 0.18256219 0.16644694 0.06565439 0.26982275 0.03518567
0.33551344 0.02742491 0.08334712 -0.164837 0.045037523 0.117063 0.040347014 -0.14149791
0.17798509 0.16104151 0.07082629 -0.029628135 -0.071356535 0.05242085 -0.07247562 0.09796182
0.16557562 0.18461677 -0.089593366 -0.088048734 -0.0149746 -0.16400455 0.1253323 0.14739138
-0.09561179 -0.28442436 0.13073556 0.10333796 -0.07625213 -0.08511463 0.18648948 -0.21891636
0.025154362 0.12307054 0.04501863 -0.012519449 -0.042745735 -0.15597041 0.094761744 0.040993996
0.05927627 0.1448144 -0.003878882 0.24183993 0.022079177 0.014211036 -0.23747072 -0.16229305
-0.054843165 -0.2478744 0.16396387 0.03894277 -0.06949191 -0.0736557 0.0074023143 -0.06830638
0.035200287 -0.049761742 -0.027734613 0.10161736 0.005096431 0.0004513873 -0.10096884 -0.044092994
-0.05861081 -0.111500606 -0.02291786 -0.09687685 0.12625556 -0.09666585 -0.03203048 -0.2411488
-0.24597917 0.0788501 -0.2230952 -0.05775182 -0.073117405 -0.16345187 0.15191618 0.23593915
-0.020155527 -0.17528643 0.09623064 0.16666836 -0.010124005 -0.1238559 -0.060292017 0.03205588
-0.023429494 -0.19336203 -0.085283965 -0.0933143 -0.19666094 0.08148325 -0.107794486 -0.19075406
-0.049769066 0.072317414 0.025544493 -0.15050021 0.014241447 0.15988182 -0.18229976 0.2709906
-0.008079833 -0.048447773 0.123641714 -0.048430428 -0.09545633 0.18291456 0.030010743 0.14337392
0.07554796 0.018698905 0.25132445 0.034253053 0.059453562 0.0817656 -0.21098107 -0.02807952
-0.12600029 0.048233986 0.059951317 0.004037021 -0.31022343 -0.04839164 0.2844651 -0.0843634
0.11235742 -0.07813874 -0.116636515 0.14106733 -0.10283205 0.12518537 -0.13416223 0.04553719
-0.04101079 0.02641392 -0.022312824 -0.19033396 0.13508436 -0.008055648 -0.16928457 -0.18337823
0.11365768 0.13519958 0.07273679 -0.09963878 -0.20169714 -0.014099104 -0.1584444 -0.27098632
0.12788585 -0.14462614 0.016742159 0.053561352 0.086651295 0.18019934 -0.019433193 -0.060232386
-0.11965924 0.04218646 -0.013513198 -0.23682667 -0.20498343 -0.17557381 0.029678978 -0.2047048
-0.12851699 -0.03493211 -0.17053898 -0.030800762 -0.20284137 0.035542145 -0.15396944 0.05471623
-0.28528696 -0.00897782 0.14807995 -0.0041690865 -0.062407583 0.08971749 0.13887088 0.20454721
00000000: b933 48be 1a48 433d f6ee a33d 6be4 493c
00000010: 2168 e53d be65 06be e769 bbbd 368e 333d
00000020: 3f7f 8b3d 216d f13c 7750 923c 87eb 29be
00000030: 7ef6 2c3d afe9 b6bd 462c b63d e40d a53d
00000040: ea64 d83d e9e8 a63d a78f 2c3e 2bc2 1a3e
00000050: a25d e83e 75b6 9a3b b4f7 23bd d8ba 53bd
00000060: 18e2 febc 53ac 303d 50db c9bc d66b 2d3e
00000070: 65bf 803d 334e 60be fe1a 2abc 43ac 1c3c
00000080: c3c7 523d b627 9ebb 2ea2 b03c 61f8 333e
00000090: ab4c 3d3e 5c5a 603c ec7e abbc bd28 b9bd
000000a0: 5c89 bdbd e83e 90bd 1b71 b43c 040b e1bd
000000b0: 9758 27be c9a2 40bc 2c30 423e a5ab c8bd
000000c0: 7678 a5bd 9a27 a7bd 3402 c7bd 452b 573d
000000d0: bab6 0f3d 3a5f b1bd e9e0 0fbc 970d 633e
000000e0: 1f9b 0b3e ab28 b6bd 2b39 443e 9b20 fbbd
000000f0: a1b7 4fbe 84dd ed3c 27ec 67be 1cd3 fd3c
00000100: e5bd 2ebd 120a d73b 7883 14bd 95f1 3a3e
00000110: 1171 2a3e cf75 863d 3526 8a3e d91e 103d
00000120: 6bc8 ab3e 34aa e03c e5b1 aa3d 08cb 28be
00000130: 4479 383d babe ef3d e942 253d d4e4 10be
00000140: b941 363e 11e8 243e 600d 913d b4b6 f2bc
00000150: 6023 92bd 3fb7 563d 196e 94bd 35a0 c83d
00000160: a88c 293e 2e0c 3d3e ba7c b7bd e552 b4bd
00000170: 0658 75bc cff0 27be 1c57 003e c4ed 163e
00000180: 1dd0 c3bd 12a0 91be 8bdf 053e daa2 d33d
00000190: 142a 9cbd 9450 aebd 19f7 3e3e 9c2b 60be
000001a0: 8510 ce3c 680c fc3d 7465 383d 601e 4dbc
000001b0: 2716 2fbd b5b6 1fbe 7212 c23d 52e9 273d
000001c0: adcb 723d 3a4a 143e d734 7ebb e3a4 773e
000001d0: 64df b43c 68d5 683c 862b 73be 2630 26be
000001e0: 3aa3 60bd c9d2 7dbe 25e6 273e 7482 1f3d
000001f0: c651 8ebd cdd8 96bd 1d8f f23b 37e4 8bbd
00000200: 2d2e 103d f8d2 4bbd b333 e3bc c31c d03d
00000210: f6ff a63b 2ea8 ec39 c0c8 cebd db9a 34bd
00000220: e411 70bd 6e5a e4bd 3cbe bbbc 5f67 c6bd
00000230: 2349 013e bff8 c5bd 6532 03bd b6ef 76be
00000240: f7e1 7bbe 297c a13d 1173 64be 2c8d 6cbd
00000250: 94be 95bd ed5f 27be ea8f 1b3e 089a 713e
00000260: 341d a5bc 497e 33be 9214 c53d 1cab 2a3e
00000270: 28df 25bc 29a8 fdbd c3f4 76bd 074d 033d
00000280: 36ef bfbc b200 46be 5ca9 aebd 911b bfbd
00000290: 7c61 49be b1e0 a63d 5bc3 dcbd 0855 43be
000002a0: a6da 4bbd 271b 943d af42 d13c ba1c 1abe
000002b0: f554 693c 0fb8 233e caac 3abe 48bf 8a3e
000002c0: 4761 04bc 2c71 46bd de37 fd3d fc5e 46bd
000002d0: 9c7e c3bd f44d 3b3e 17d9 f53c 9dd0 123e
000002e0: e4b8 9a3d 722e 993c 99ad 803e ee4c 0c3d
000002f0: 9485 733d b974 a73d 6c0b 58be 0607 e6bc
00000300: 3806 01be 0091 453d 838f 753d fd48 843b
00000310: 9bd5 9ebe 5036 46bd 69a5 913e b8c6 acbd
00000320: a61b e63d 3407 a0bd 20df eebd f473 103e
00000330: 9c99 d2bd 9830 003e d361 09be 3485 3a3d
00000340: eefa 27bd 0162 d83c 62c9 b6bc e8e6 42be
00000350: 8e53 0a3e d6fb 03bc ef58 2dbe 81c7 3bbe
00000360: 5cc5 e83d c271 0a3e 07f7 943d 6b0f ccbd
00000370: b289 4ebe eeff 66bc 403f 22be b8be 8abe
00000380: 82f4 023e e018 14be da26 893c 2663 5b3d
00000390: 3c76 b13d 2d86 383e 5c32 9fbc 3cb6 76bd
000003a0: e70f f5bd b6cb 2c3d 7666 5dbc b182 72be
000003b0: 2de7 51be 9fc9 33be 5421 f33c 239e 51be
000003c0: f599 03be f914 0fbd c5a1 2ebe e151 fcbc
000003d0: a6b5 4fbe a494 113d 2aaa 1dbe 201e 603d
000003e0: 2211 92be b517 13bc 45a2 173e d59c 88bb
000003f0: 189f 7fbd cebd b73d 2b34 0e3e d374 513e

reward_backbone.2.bias f4 [128]
0.05423918 -0.018879985 -0.14067937 0.09127201 0.06673246 0.049686953 0.07945171 0.00050080585
-0.08338086 -0.09912647 -0.10913156 0.10126655 -0.08097893 -0.047244057 -0.10278658 0.08468278
0.20746982 0.10419209 0.21145806 -0.003501821 0.03701097 0.04349167 0.102966614 -0.072669625
0.058580585 -0.049862735 0.059444193 -0.07435448 -0.00628541 0.10660907 -0.08584412 -0.057518054
-0.06836368 -0.056897704 -0.06366894 -0.039969027 0.04031029 0.08966479 0.036886223 -0.060448628
-0.05204961 -0.11433556 -0.041953262 -0.078746766 -0.08336614 -0.104158044 -0.049807247 -0.09361735
0.09025064 -0.08240744 -0.09338395 -0.09905668 -0.066049635 0.11463899 -0.058647994 -0.02623334
-0.07579001 -0.10910543 0.0848948 0.057722967 -0.0663896 -0.11335896 -0.07156509 0.06466578
-0.085450456 -0.06885428 -0.116265275 -0.118768215 0.005897957 0.0666866 -0.03714173 0.23493075
-0.1668611 -0.108739756 -0.118618555 0.08592451 0.043439705 -0.13537803 0.06722731 -0.0031590925
0.11043682 -0.13839574 -0.038903907 -0.10965521 -0.07427497 -0.08793586 0.091340914 -0.03478712
0.20586994 0.054701004 -0.10399458 0.0830453 -0.060284406 0.08089264 -0.0103426445 -0.026448589
-0.086711206 0.0045530624 0.05433648 -0.05458023 -0.09631159 0.089333706 -0.13279608 -0.09296496
-0.1064713 -0.09108404 0.067812115 -0.076654494 -0.05614247 0.07495966 0.15709017 -0.0162983
0.05788676 0.010641547 0.006370658 0.060114197 -0.05505543 -0.097720385 0.009698224 0.09158799
-0.09353662 -0.08905062 -0.076168425 -0.04268385 -0.05634947 0.049639255 -0.096035115 0.07856589
00000000: e729 5e3d 33aa 9abc 410e 10be d2ec ba3d
00000010: 07ab 883d 8c84 4b3d 94b7 a23d 8348 033a
00000020: 96c3 aabd d202 cbbd 5e80 dfbd d664 cf3d
00000030: 48d8 a5bd fc82 41bd c581 d2bd 2a6e ad3d
00000040: f872 543e aa62 d53d 7688 583e cf7e 65bb
00000050: d198 173d 5224 323d 29e0 d23d d0d3 94bd
00000060: 32f2 6f3d de3c 4cbd c17b 733d 2947 98bd
00000070: d7f5 cdbb db55 da3d 0bcf afbd 0d98 6bbd
00000080: 4202 8cbd 910d 69bd dc64 82bd 90b6 23bd
00000090: 671c 253d 2ca2 b73d 0216 173d fb98 77bd
000000a0: f931 55bd c328 eabd 2fd7 2bbd fc45 a1bd
000000b0: debb aabd d050 d5bd af02 4cbd 74ba bfbd
000000c0: 54d5 b83d 3bc5 a8bd 1640 bfbd 3bde cabd
000000d0: 0845 87bd d9c7 ea3d e138 70bd 4de7 d6bc
000000e0: cb37 9bbd ab72 dfbd 53dd ad3d eb6e 6c3d
000000f0: 45f7 87bd be28 e8bd b890 92bd 7e6f 843d
00000100: a600 afbd 7903 8dbd 7d1c eebd c03c f3bd
00000110: a643 c13b fc92 883d ed21 18bd b091 703e
00000120: a3dd 2abe f3b2 debd 49ee f2bd 31f9 af3d
00000130: d5ed 313d 8aa0 0abe 79ae 893d c708 4fbb
00000140: b32c e23d 9db7 0dbe b459 1fbd e992 e0bd
00000150: 7a1d 98bd b717 b4bd f210 bb3d f07c 0ebd
00000160: 92cf 523e 290e 603d 1cfb d4bd a713 aa3d
00000170: c8ec 76bd 0aab a53d 3274 29bc b6aa d8bc
00000180: a595 b1bd db31 953b ee8f 5e3d 858f 5fbd
00000190: 033f c5bd 97f4 b63d b2fb 07be 6a64 bebd
000001a0: a00d dabd 458a babd 14e1 8a3d 08fd 9cbd
000001b0: a6f5 65bd 7384 993d 3fdc 203e 0384 85bc
000001c0: ab1a 6d3d e259 2e3c f4c0 d03b 4e3a 763d
000001d0: cd81 61bd a021 c8bd 4de5 1e3c 7c92 bb3d
000001e0: 2190 bfbd 2c60 b6bd 31fe 9bbd 43d5 2ebd
000001f0: b4ce 66bd 8852 4b3d 0fae c4bd 27e7 a03d

cost_backbone.0.weight f4 [128, 22]
-0.051198613 0.115714565 -0.07453395 -0.016037174 -0.008852085 -0.061434392 0.035507534 0.07738117
-0.037060186 0.25780708 -0.05777636 -0.039228186 -0.14597571 -0.07889584 0.043748826 -0.028011909
-0.055764824 -0.07601991 -0.12412883 -0.073158704 0.11995569 -0.03483167 0.14019503 0.0048345854
-0.036060683 -0.0680323 0.03327014 0.09332418 -0.31386983 0.008450652 0.24879575 0.1479886
-0.12605198 0.024518676 0.01217755 0.11334211 -0.06540946 0.048364837 0.12314546 0.03360838
-0.03685399 -0.03142802 0.04578159 0.04777971 -0.16960335 -0.07604961 -0.06898443 -0.028518895
-0.1411984 0.00417387 0.0427128 0.07215473 0.032663867 0.00029253645 -0.06272953 0.15388936
0.17473055 0.07734555 0.035982627 -0.014849798 0.03816684 -0.13638368 -0.25224236 0.0720846
0.090331264 0.08867328 0.15380947 -0.29704884 -0.012225493 0.23307371 -0.059741724 -0.01574829
-0.010676675 -0.097975284 -0.09634463 0.020347102 0.042514678 0.077350885 -0.08711431 -0.07450844
0.07589404 -0.10753252 0.03434094 -0.009420466 -0.086655214 0.13478732 0.25968835 0.13785219
-0.05791987 0.056160603 0.11357383 -0.12050521 -0.19393712 -0.041466806 -0.1169281 0.20469598
-0.11565005 -0.2707959 0.03495927 0.07565599 2.7050943e-05 0.0031484119 0.15755554 -0.11725361
0.00023157435 0.04885438 0.00255926 -0.16474171 0.017272752 -0.12870967 -0.112121716 -0.07065783
0.06990806 -0.048647128 -0.034703184 -0.13697645 0.020924237 -0.1628037 -0.0208078 -0.09534994
0.0073196446 -0.118161045 0.06298902 -0.020335777 -0.110551566 0.07253243 0.050372366 0.039111443
-0.19713625 0.28185728 0.23367009 -0.044651188 0.0061898506 0.07786806 0.027877335 -0.033572767
0.07953506 0.13113402 0.093617834 -0.117931925 -0.036041737 -0.040445164 -0.053073175 -0.12364586
0.10333269 0.02527205 -0.039226856 0.13064156 0.14078121 0.15787679 -0.049348008 -0.03957176
0.10677063 0.07277065 -0.018142221 0.07836148 -0.08758678 -0.011106534 0.01589605 -0.0784458
0.110893585 -0.24420196 -0.02578185 -0.06285099 0.13329974 -0.056913354 0.225596 0.007630367
-0.037896276 0.00395255 0.07359166 0.033404164 -0.13308172 0.0023883155 -0.060518872 0.027965592
0.15052304 0.052894257 -0.22533815 0.028464375 -0.02411543 0.005592968 -0.011565568 -0.085165314
0.18717669 0.0801406 -0.23993385 -0.17152119 -0.025662497 -0.10368371 -0.11170473 0.00091187237
0.20235232 0.09355154 -0.16578144 0.03216354 0.054646187 0.18926987 0.068706214 0.27122864
-0.016792318 -0.044083133 0.07323421 -0.034458682 0.1932187 0.1591521 -0.14454727 0.019495351
0.24905936 -0.025628367 0.2848986 -0.0957809 0.0747687 -0.041628506 0.12998968 0.006619948
0.02842297 0.069196835 -0.001253495 -0.10187466 0.017916162 0.034357943 0.053087406 -0.106283836
-0.042270716 0.11764225 -0.20993482 0.109275654 -0.047456995 -0.116465114 0.073305614 -0.16518801
0.19413665 0.16056174 0.08651819 -0.027689354 -0.0067759017 0.05793066 -0.09282432 -0.12894583
-0.18356335 -0.06000622 -0.18108569 0.10773088 -0.031451937 -0.011211422 -0.051015664 -0.010385595
-0.21151921 0.074554674 0.047265593 0.05343597 -0.08484109 -0.04528529 -0.13885333 0.19692753
00000000: a3b5 51bd c2fb ec3d 41a5 98bd 6460 83bc
00000010: 5608 11bc a1a2 7bbd 5970 113d 057a 9e3d
00000020: 6ccc 17bd 4aff 833e e8a6 6cbd bcad 20bd
00000030: a87a 15be 2494 a1bd f831 333d 3b79 e5bc
00000040: a869 64bd 54b0 9bbd 4237 febd 3bd4 95bd
00000050: 54ab f53d a7ab 0ebd 498f 0f3e 716b 9e3b
00000060: 5eb4 13bd 8554 8bbd 4546 083d bf20 bf3d
00000070: 8cb3 a0be 9a74 0a3c 50c4 7e3e 538a 173e
00000080: c513 01be 64db c83c 5984 473c e81f e83d
00000090: 65f5 85bd 351a 463d b033 fc3d f1a8 093d
000000a0: 36f4 16bd abba 00bd 7a85 3b3d a8b4 433d
000000b0: 80ac 2dbe e6bf 9bbd b547 8dbd 75a0 e9bc
000000c0: 5096 10be f6c4 883b 9ef3 2e3d dcc5 933d
000000d0: 8cca 053d 945f 9939 5778 80bd 2c95 1d3e
000000e0: 91ec 323e 5867 9e3d 8562 133d 914c 73bc
000000f0: d554 1c3d 2aa8 0bbe e925 81be 17a1 933d
00000100: 99ff b83d 569a b53d 3b80 1d3e c916 98be
00000110: 6f4d 48bc e0aa 6e3e bdb3 74bd 8f02 81bc
00000120: 38ed 2ebc 44a7 c8bd 5550 c5bd f7ae a63c
00000130: df23 2e3d 246a 9e3d fd68 b2bd e297 98bd
00000140: 566e 9b3d 033a dcbd 16a9 0c3d 4c58 1abc
00000150: 4a78 b1bd b005 0a3e dff5 843e 2029 0d3e
00000160: 633d 6dbd a908 663d 6599 e83d 6fcb f6bd
00000170: 7497 46be 19d9 29bd 0078 efbd d39b 513e
00000180: efd9 ecbd c3a5 8abe 7431 0f3d 87f1 9a3d
00000190: 75eb e237 9655 4e3b 3d56 213e a922 f0bd
000001a0: c4d2 7239 881b 483d 42b9 273b 0db2 28be
000001b0: 967f 8d3c 78cc 03be 12a0 e5bd 0db5 90bd
000001c0: f52b 8f3d 3642 47bd ed24 0ebd 8e43 0cbe
000001d0: 4e69 ab3c 03b6 26be 1f75 aabc d446 c3bd
000001e0: a1d9 ef3b 6bfe f1bd 6300 813d 3797 a6bc
000001f0: dc68 e2bd e28b 943d 4153 4e3d 5233 203d
00000200: 16de 49be 994f 903e 3647 6f3e 2ae4 36bd
00000210: 3bd4 ca3b 4a79 9f3d 025f e43c 9983 09bd
00000220: 47e3 a23d ff47 063e b5ba bf3d 4b86 f1bd
00000230: 80a0 13bd d4a9 25bd 4263 59bd 0a3a fdbd
00000240: 17a0 d33d 5507 cf3c 57ac 20bd e7c6 053e
00000250: f328 103e 74aa 213e 2321 4abd ff15 22bd
00000260: 8faa da3d c708 953d ff9e 94bc fc7b a03d
00000270: b360 b3bd 2ef8 35bc 6f38 823c 31a8 a0bd
00000280: 2d1c e33d 1410 7abe 7534 d3bc 05b8 80bd
00000290: ba7f 083e fa1d 69bd a302 673e 2808 fa3b
000002a0: 2039 1bbd 6484 813b 39b7 963d ced2 083d
000002b0: 9346 08be 4985 1c3b a3e2 77bd 1918 e53c
000002c0: b622 1a3e a6a7 583d 0bbf 66be 1f2e e93c
000002d0: b98d c5bc 3745 b73b 827d 3dbc 276b aebd
000002e0: 3fab 3f3e c120 a43d 38b1 75be 40a3 2fbe
000002f0: 283a d2bc 2058 d4bd 73c5 e4bd b80a 6f3a
00000300: 7235 4f3e f397 bf3d 9cc2 29be ebbd 033d
00000310: aed4 5f3d f6cf 413e d8b5 8c3d 7bde 8a3e
00000320: 0b90 89bc 8490 34bd d1fb 953d 8c24 0dbd
00000330: 1fdb 453e c5f8 223e 3304 14be b7b4 9f3c
00000340: 6b09 7f3e 95f2 d1bc 3bde 913e c728 c4bd
00000350: 5520 993d a782 2abd 041c 053e 26ec d83b
00000360: 4ad7 e83c 12b7 8d3d 504c a4ba a9a3 d0bd
00000370: eac4 923c eaba 0c3d 2e72 593d 57ab d9bd
00000380: 0f24 2dbd 6cee f03d 27f9 56be eacb df3d
00000390: 4462 42bd 4385 eebd 4121 963d 0c27 29be
000003a0: c2cb 463e 4c6a 243e 7330 b13d c9d4 e2bc
000003b0: 6208 debb b348 6d3d ad1a bebd 600a 04be
000003c0: 08f8 3bbe 15c9 75bd 876e 39be 02a2 dc3d
000003d0: bfd3 00bd 1db0 37bc cdf5 50bd 5828 2abc
000003e0: 7e98 58be 1fb0 983d 9199 413d addf 5a3d
000003f0: 2ac1 adbd 117d 39bd 912f 0ebe 5fa7 493e

cost_backbone.0.bias f4 [128]
0.034931123 -0.0884123 0.07651836 0.12609631 0.10033796 0.061607167 -0.111661114 -0.1901786
-0.039685097 -0.20333758 -0.052543137 -0.14486016 -0.09230218 -0.10234898 0.042842276 0.3111127
0.010379018 0.055977076 -0.09002504 0.005677822 -0.032538068 0.24380237 -0.15007661 -0.11582386
0.040786304 -0.13114667 0.14636919 -0.09078912 -0.16286305 -0.08181929 -0.098921515 0.07052917
-0.11317115 0.17820407 -0.088194534 -0.011898522 -0.17508925 -0.04467033 0.23244669 -0.06496426
0.21975242 -0.13855971 -0.07516652 -0.030702693 -0.037474643 0.13144515 -0.1378253 -0.09538985
0.21703193 -0.24205221 0.04400938 -0.21198317 0.15334822 -0.045062847 0.11910634 -0.039345525
0.23806107 -0.03398911 0.061909102 0.08473679 -0.023565056 0.049497474 0.12794532 -0.07538091
-0.11393934 0.11198124 -0.30148247 0.02373555 0.13380073 0.04716041 -0.16538492 -0.11660798
0.2507012 -0.08196294 0.07945903 0.07118617 0.13858496 0.20847172 -0.036472626 -0.08834331
0.054542 -0.072445266 -0.021198276 0.05326949 -0.07140769 0.09727648 -0.21228805 -0.04158425
-0.025275948 0.08124509 0.03163517 0.023914015 -0.10044283 -0.14137287 -0.24367028 -0.00030397327
0.09720449 0.06794794 -0.07305508 0.22038513 -0.16372882 -0.07540557 -0.036745433 0.09984322
0.020870501 0.06553864 0.041870173 -0.03173975 -0.09518542 0.12074412 -0.035032686 -0.085351296
0.19318058 0.094676234 0.052267753 0.08315354 0.034160037 0.05467795 -0.12920074 0.073246665
0.08713543 -0.031258427 0.03819168 -0.050214767 -0.098828174 -0.16062853 -0.078651406 0.050588764
00000000: f013 0f3d 8211 b5bd a8b5 9c3d 641f 013e
00000010: fd7d cd3d cc57 7c3d 95ae e4bd 2ebe 42be
00000020: d78c 22bd ba37 50be 7937 57bd 3956 14be
00000030: ed08 bdbd 589c d1bd 627b 2f3d 2a4a 9f3e
00000040: c20c 2a3c 3848 653d 0c5f b8bd 060d ba3b
00000050: a346 05bd 54a7 793e afad 19be 0f35 edbd
00000060: 8a0f 273d 504b 06be cee1 153e a5ef b9bd
00000070: 92c5 26be df90 a7bd 5d97 cabd 9971 903d
00000080: 47c6 e7bd 217b 363e 569f b4bd 05f2 42bc
00000090: 994a 33be 3cf8 36bd 8106 6e3e fb0b 85bd
000000a0: c706 613e 99e2 0dbe e8f0 99bd 3784 fbbc
000000b0: 037f 19bd 8f99 063e 1322 0dbe c15b c3bd
000000c0: 9e3d 5e3e 89dc 77be 2e43 343d 1e12 59be
000000d0: 5107 1d3e d293 38bd 06ee f33d c628 21bd
000000e0: 48c6 733e 2a38 0bbd 6694 7d3d 7b8a ad3d
000000f0: 810b c1bc ddbd 4a3d 1904 033e 4e61 9abd
00000100: 0759 e9bd 6c56 e53d e95b 9abe 0e71 c23c
00000110: 0f03 093e 462b 413d aa5a 29be 2ad0 eebd
00000120: e85b 803e 30dc a7bd 6abb a23d 0eca 913d
00000130: 37e9 0d3e 9c79 553e 5264 15bd 56ed b4bd
00000140: 6f67 5f3d 2f5e 94bd 02a8 adbc 1c31 5a3d
00000150: 323e 92bd e438 c73d 0a62 59be 3f54 2abd
00000160: 810f cfbc d363 a63d e193 013d 53e7 c33c
00000170: f8b4 cdbd 0dc4 10be b484 79be 9a5e 9fb9
00000180: 2613 c73d 4a28 8b3d e79d 95bd a4ac 613e
00000190: 87a8 27be 3c6e 9abd 6182 16bd 9a7a cc3d
000001a0: 9df8 aa3c 1f39 863d 0f80 2b3d 8a01 02bd
000001b0: 93f0 c2bd b148 f73d 6f7e 0fbd a9cc aebd
000001c0: 21d1 453e 9de5 c13d b616 563d 674c aa3d
000001d0: 65eb 0b3d fcf5 5f3d 334d 04be 5902 963d
000001e0: 0f74 b23d d608 00bd e16e 1c3d 00ae 4dbd
000001f0: 6d66 cabd ce7b 24be fd13 a1bd 2a36 4f3d
