outputs/E3_budget_sweep/lagrange_seed0_EB0.15_LB0.07/best_tail.pt (torch, 981178 bytes, 68 tensors)

actor_backbone.0.weight f4 [128, 22]
0	0xbe183382	-0.14863399
1	0x3d0c5c46	0.034267686
2	0x3ea155a7	0.3151066
3	0x3c164199	0.009170913
4	0xbde1319f	-0.109957926
5	0xbd4ea2ff	-0.050448414
6	0xbd348bc2	-0.044078596
7	0x3d1f6415	0.038913805
8	0xbdd9caa1	-0.106343515
9	0x3e0686bf	0.13137339
10	0xbd32ec08	-0.04368213
11	0xbe41cf78	-0.189268
12	0x3c70c699	0.014695787
13	0x3dbfb8f2	0.093614474
14	0xbdd9bad0	-0.10631335
15	0x3de4dfab	0.11175474
16	0x3d2aa840	0.041664362
17	0xbc056309	-0.008141288
18	0x3e11f456	0.14253363
19	0x3da1cc6f	0.07900321
20	0x3e7acef1	0.24493004
21	0xbe4af189	-0.19818701
22	0xbcaad2ce	-0.020852473
23	0x3e1dbf60	0.15405035
24	0xbe62d581	-0.22151758
25	0xbd7c4e80	-0.0615983
26	0xbe049090	-0.12945771
27	0x3c8efbba	0.017454017
28	0x3d5543b1	0.05206651
29	0xbe0a6559	-0.13515224
30	0x3e27e56c	0.16396111
31	0x3d0e53e1	0.034747962
32	0x3e53b95c	0.20676178
33	0x3c24e55f	0.010064452
34	0xbe0290af	-0.12750505
35	0x3ccf397d	0.025295967
36	0x3c8d64ce	0.017259981
37	0x3e0de3f8	0.13856494
38	0xbd8718c0	-0.065965176
39	0x375671ae	1.2781862e-05
40	0x3bf5ccb3	0.0075012087
41	0xbe0b2758	-0.13589227
42	0x3d5d6c24	0.05405821
43	0x3e34c938	0.17654884
44	0xbeaf7a5c	-0.3427304
45	0x3e01b692	0.12667301
46	0xbe34b5b3	-0.17647438
47	0xbd223434	-0.039600566
48	0xbd842033	-0.06451454
49	0xbd597ac6	-0.0530956
50	0xbd2675e3	-0.04063977
51	0x3d96c070	0.07360923
52	0x3d697215	0.056993563
53	0x3ba6778f	0.0050801705
54	0xbe02762a	-0.12740389
55	0x3d1b433b	0.037905913
56	0x3e0bccad	0.13652296
57	0x3d2202ba	0.03955338
58	0x3dd62571	0.1045636
59	0xbcd34e33	-0.025794124
60	0xbe4ada5b	-0.19809859
61	0x3d272346	0.040805124
62	0xbcb909bd	-0.022587651
63	0x3ce28c3e	0.027654763
64	0x3ebb5c7d	0.36594
65	0xbd977e40	-0.07397127
66	0xbd2886ef	-0.041144308
67	0x3e942f03	0.28942117
68	0x3990c58d	0.00027613007
69	0xbdbee23b	-0.09320494
70	0xbd2f5e95	-0.04281481
71	0xbdb85d7e	-0.09002207
72	0x3ced19a6	0.028942894
73	0x3ddeb3da	0.10874148
74	0xbe323ab4	-0.17405206
75	0x3dcc3fdf	0.0997312
76	0xbd8a642a	-0.06757386
77	0xbe3401ea	-0.17578855
78	0x3cce679c	0.02519589
79	0x3e48c9de	0.19608256
80	0xbccd2cdd	-0.025045807
81	0xbd8747b4	-0.06605473
82	0x3d9e9d11	0.07744802
83	0x3c46abbe	0.0121259075
84	0x3d95fd57	0.07323711
85	0x3e130f55	0.14361317
86	0xbd20fe87	-0.039305236
87	0x3d80ab55	0.06282679
88	0xbeade369	-0.33962563
89	0x3e609bfd	0.21934505
90	0x3e97aaeb	0.29622588
91	0xbe2f7ab5	-0.17136653
92	0x3e04b2e7	0.12958871
93	0xbca7d66b	-0.020487985
94	0xbe58cf63	-0.21172862
95	0x3e0e266f	0.13881849
96	0x3bed8a0e	0.0072491234
97	0x3d1f472a	0.038886227
98	0xbdf0d642	-0.117596164
99	0xbb9d8e7a	-0.0048082443
100	0xbda2c8c5	-0.0794845
101	0x3d7bbe2d	0.061460663
102	0x3e2aa370	0.16663909
103	0xbd6c4a2b	-0.05768792
104	0x3cf273c7	0.029596223
105	0x3b2f3334	0.00267334
106	0xbd46c803	-0.04853059
107	0xbda1f0b5	-0.07907239
108	0x3a9dd6ba	0.0012042143
109	0xbda60a55	-0.081074394
110	0x3d8c5b8b	0.06853398
111	0xbdd968ec	-0.106157154
112	0x3e19c2c7	0.15015708
113	0x3db38538	0.08765644
114	0xbc8a87f7	-0.016910536
115	0xbd9e3056	-0.07724063
116	0xbe1f71ae	-0.15570709
117	0xbd41fe70	-0.04736179
118	0x3cbc1eb1	0.022963854
119	0xbb3afb51	-0.0028531144
120	0x3da63e74	0.08117381
121	0xbde4b6fe	-0.111677155
122	0xbb88e81c	-0.00417806
123	0x3d8d3cbb	0.06896349
124	0xbe33a441	-0.17543127
125	0xbcc8db0a	-0.024518508
126	0xbe81e7af	-0.25372073
127	0xbe1d15cb	-0.15340345
128	0xbeaef7d6	-0.3417346
129	0xbc2c38e7	-0.010511613
130	0xbd31a4fc	-0.043370232
131	0x3d6750dd	0.0564736
132	0xbe7b15dd	-0.24520059
133	0x3e869122	0.26282603
134	0xbdaecbbb	-0.08534952
135	0xbe01b16a	-0.12665334
136	0xbe199eec	-0.1500203
137	0xbe655ae9	-0.2239796
138	0xbbd630eb	-0.006536593
139	0xbd729f91	-0.059234206
140	0x3daef3d3	0.085425995
141	0xbd9fcb6e	-0.07802473
142	0xbe131a7d	-0.14365573
143	0x3dcc4400	0.099739075
144	0x3be58b83	0.0070051565
145	0xbe4f4218	-0.20240057
146	0xbd842574	-0.06452456
147	0x3dc08c9e	0.094018206
148	0x3e79bfee	0.24389622
149	0xbd99209a	-0.074769214
150	0xbcb3771f	-0.021907387
151	0xbbb8da1c	-0.005641235
152	0x3dcd191d	0.100145556
153	0xbe145463	-0.14485316
154	0x3ec71b2a	0.38887912
155	0xbe2c177e	-0.16805837
156	0xbc5d63df	-0.013512581
157	0x3e25970d	0.16170903
158	0xbd2e08e7	-0.04248896
159	0xbd595475	-0.05305906
160	0xbdec700a	-0.11544807
161	0xbdeed062	-0.116608396
162	0xbb2d268e	-0.0026420685
163	0x3d9731c9	0.07382543
164	0xbe116152	-0.14197281
165	0xbe566733	-0.20937805
166	0x3dc84a14	0.09779754
167	0xbdfe2c41	-0.124107845
168	0x3e5f0f5e	0.21783206
169	0xbd14fd66	-0.036374472
170	0xbd8bcb2c	-0.06825861
171	0x3e0bd2b5	0.13654597
172	0x3acd538b	0.0015665157
173	0x3e1e53c5	0.15461643
174	0x3de786b7	0.11304992
175	0x3d416f4e	0.04722529
176	0x3efcb206	0.4935457
177	0xbe1fcbf4	-0.15605146
178	0x3d78ed30	0.060773075
179	0xbcd138de	-0.025539812
180	0xbe4b5a5a	-0.19858685
181	0x3d856211	0.06512845
182	0xbe271b84	-0.1631909
183	0x3e07e8f5	0.1327246
184	0x3cc8aca9	0.024496393
185	0xbd0d0fbd	-0.034438837
186	0x3da2df7b	0.07952782
187	0xbdaba93d	-0.08381889
188	0xbd566bfb	-0.052349072
189	0xbd8a0ee6	-0.06741123
190	0xbdf83e56	-0.12121265
191	0xbd114d33	-0.035474014
192	0xbd9392d6	-0.07205741
193	0x3d47cd3a	0.048779704
194	0x3c92817f	0.017884014
195	0x3d5ed4d0	0.054402173
196	0x3e158846	0.14602765
197	0x3e9f3ed6	0.31102628
198	0xbe7e7147	-0.248479
199	0x3e13eaa6	0.1444498
200	0x3dc92b6b	0.098227344
201	0xbbd5b8c5	-0.0065222704
202	0x3dc3262f	0.09528767
203	0xbd71c612	-0.059026785
204	0xbd090ca7	-0.03345933
205	0x3d703cea	0.058651842
206	0x3dca6dd6	0.09884231
207	0xbe776c65	-0.24162443
208	0xbd14ab5b	-0.03629623
209	0xbba07212	-0.0048964107
210	0xbd944199	-0.07239074
211	0xbc7e50e9	-0.01552222
212	0xbe583144	-0.21112543
213	0xbdcecde7	-0.100978665
214	0xbdd6ed99	-0.10494537
215	0xbd945dc2	-0.072444454
216	0xbde4c7f5	-0.11170951
217	0x3c93c26a	0.01803704
218	0x3d9a89ba	0.075458005
219	0xbd3f5b95	-0.0467182
220	0x3e18c038	0.14917076
221	0xbec2169b	-0.37907872
222	0xbd4c47b2	-0.04987306
223	0x3d8b84ed	0.06812463
224	0xbcfcecc4	-0.030874617
225	0xbe4147f5	-0.18875106
226	0xb9d7728d	-0.00041093343
227	0x3e1532f6	0.14570221
228	0xbdb9842a	-0.090584114
229	0x3d6b8d66	0.057507895
230	0x3e16aa51	0.14713408
231	0xbd6f1c6c	-0.058376715
232	0xbd0c98ec	-0.034325525
233	0xbe07b2f4	-0.13251859
234	0xbd42c151	-0.047547642
235	0xbbeef3b4	-0.0072922353
236	0xbb6cdcb9	-0.0036142303
237	0xbd9b1396	-0.07572095
238	0x3e46e025	0.19421442
239	0xbd4e27b9	-0.05033085
240	0x3de6e70e	0.11274539
241	0x3dab77a3	0.08372428
242	0x3e5e2b2e	0.21696159
243	0x3e8b1355	0.27163187
244	0xbdad2687	-0.08454614
245	0xbd352473	-0.044224214
246	0xbdea4317	-0.114385776
247	0x3d357987	0.04430535
248	0xbdfba3de	-0.122871146
249	0xbdf934a0	-0.121682405
250	0xbd69ee71	-0.05711216
251	0xbd31df3b	-0.04342578
252	0x3d973a0f	0.07384121
253	0xbc84ed08	-0.016226307
254	0x3d116480	0.035496235
255	0xbd37a104	-0.04483129

actor_backbone.0.bias f4 [128]
0	0x3e963117	0.29334328
1	0xbecda22b	-0.40162787
2	0xbe58fa0c	-0.21189135
3	0xbe907475	-0.2821385
4	0xbda4bb2c	-0.08043513
5	0xbe9384f6	-0.2881238
6	0xbe7484ec	-0.2387883
7	0xbe65da33	-0.22446518
8	0x3d812535	0.06305925
9	0xbe72786a	-0.23678747
10	0x3e898585	0.2685968
11	0xbef694b5	-0.4816033
12	0x3e79a368	0.24378741
13	0xbe92e0fd	-0.28687277
14	0xbe267d3f	-0.16258715
15	0xbe49ae36	-0.19695362
16	0xbe8a1263	-0.26967153
17	0x3eafd751	0.3434396
18	0x3e9f1bb5	0.31075826
19	0x3ebe34cf	0.37149665
20	0xbe09c052	-0.1345227
21	0xbe47acff	-0.19499587
22	0x3eb5b38c	0.35488546
23	0xbecb0361	-0.39651015
24	0x3ebaa3a7	0.36452982
25	0xbeb1aa86	-0.34700412
26	0xbe85ae9f	-0.26109788
27	0xbed153c5	-0.40884224
28	0xbea01275	-0.31264082
29	0x3eb29454	0.3487879
30	0xbeaf13a0	-0.3419466
31	0x3e63a244	0.22229868
32	0x3e94bdd8	0.2905109
33	0xbe8fd266	-0.2809021
34	0xbea5c7b4	-0.32378924
35	0x3eb8c173	0.3608509
36	0x3d861beb	0.06548294
37	0xbdd99a05	-0.1062508
38	0x3e9d3b95	0.3070952
39	0x3e7d5783	0.24740414
40	0x3ebff2ed	0.37490025
41	0xbe355112	-0.17706707
42	0xbe4820eb	-0.19543807
43	0xbeafb71a	-0.34319383
44	0xbe6f4249	-0.2336513
45	0x3e15f2f9	0.14643468
46	0x3e952e45	0.29136863
47	0x3e88022b	0.26564154
48	0x3e3e0731	0.18557431
49	0xbebfebfc	-0.3748473
50	0x3cf969df	0.030445991
51	0xbe4ae0ef	-0.19812368
52	0x3ea41d03	0.32053384
53	0x3ebdc83a	0.37066823
54	0x3d2578dc	0.040398464
55	0xbdafac10	-0.0857774
56	0x3e91fea7	0.28514597
57	0xbeceea3b	-0.4041308
58	0x3e9a394a	0.30121833
59	0x3ebcd443	0.36880693
60	0x3e233446	0.1593791
61	0xbdb0bcc5	-0.08629755
62	0xbe031efb	-0.12804787
63	0xbe2b7b9f	-0.16746376
64	0x3d85f47c	0.06540772
65	0x3e2058b7	0.15658842
66	0x3eab911a	0.3350914
67	0x3ebbdf20	0.36693668
68	0xbe94226b	-0.2893251
69	0xbe800764	-0.2500564
70	0xbef0e43e	-0.47049135
71	0x3e81a964	0.25324547
72	0x3ef1bcc0	0.47214317
73	0x3d6fead5	0.058573563
74	0x3da868ac	0.082230896
75	0xbeb35e98	-0.35033107
76	0x3e3f5294	0.18683845
77	0x3ee94e71	0.4556766
78	0xbea42940	-0.3206272
79	0x3ea14098	0.31494594
80	0x3e63dae7	0.22251473
81	0xbe9e23a1	-0.30886558
82	0x3e8efe9e	0.27928632
83	0x3e9fd815	0.31219545
84	0x3ef539ac	0.47895563
85	0xbeb09755	-0.34490457
86	0xbe5fab0e	-0.21842596
87	0x3dbfe9d7	0.09370773
88	0xbea7256a	-0.32645732
89	0x3ea52bcf	0.32259986
90	0xbed19442	-0.40933424
91	0xbed8636d	-0.42263356
92	0x3ea55773	0.3229328
93	0x3e907379	0.282131
94	0x3eafdad4	0.3434664
95	0x3e8e4b49	0.27791813
96	0xbe2d9f61	-0.1695533
97	0x3eb8da36	0.36103982
98	0x3e692fe6	0.22772178
99	0xbe041afa	-0.12900916
100	0xbe4244d6	-0.18971571
101	0x3e500f6c	0.20318383
102	0xbe8e5131	-0.2779632
103	0x3d4fa3fd	0.0506935
104	0xbecf1b06	-0.40450305
105	0x3e4ccac8	0.1999923
106	0xbe7983d4	-0.24366695
107	0xbdd3df80	-0.103453636
108	0xbe83724e	-0.25673145
109	0xbeb65d71	-0.35618165
110	0x3e8f993b	0.28046593
111	0xbea9ba6d	-0.33150044
112	0x3e9e2459	0.30887106
113	0x3e9f0f0f	0.31066176
114	0x3e89129b	0.26772007
115	0x3ed8fd2a	0.4238065
116	0xbe9fe5f3	-0.31230125
117	0x3e1a6aa5	0.15079744
118	0x3edb68a9	0.42853287
119	0xbe1c110b	-0.15240876
120	0xbe1b3570	-0.15157104
121	0xbed07f0f	-0.40721938
122	0xbea65e63	-0.32493886
123	0x3e9a8409	0.3017886
124	0x3ecc65b0	0.3992133
125	0x3ea9d3be	0.3316936
126	0xbeb9a7ee	-0.36260933
127	0x3e5cb52e	0.2155349

actor_backbone.2.weight f4 [128, 128]
0	0xbdc61380	-0.09671688
1	0x3c9a59a1	0.018841567
2	0xbdbadc32	-0.0912403
3	0x3e43f86b	0.19137733
4	0xbd9b2cd6	-0.07576911
5	0x3d88e4ca	0.06684263
6	0x3e4f6876	0.20254692
7	0xbe245b8c	-0.16050547
8	0x3d9b705d	0.07589791
9	0x3d0fcdca	0.035108365
10	0xbe6719de	-0.22568461
11	0x3de8da3a	0.113697484
12	0xbcc3124d	-0.023812437
13	0x3b88696a	0.004162957
14	0xbc97c96e	-0.018528666
15	0xbe398510	-0.18117166
16	0x3de0811e	0.10962127
17	0xbcb4c4d7	-0.022066517
18	0x3d175586	0.036946796
19	0x3d0a22a5	0.033724446
20	0x3e609e6d	0.21935435
21	0x3e9c8260	0.30568218
22	0x3c919f84	0.017776258
23	0x3d6a33bc	0.057178244
24	0xbe21bca1	-0.15794612
25	0x3d2a3e05	0.041563053
26	0x3e6a72b1	0.22895314
27	0x3e30777b	0.17233078
28	0xbde53b72	-0.11192979
29	0x3de51ccb	0.111871324
30	0xbcf19e4d	-0.029494429
31	0xbd55fec8	-0.05224493
32	0x3dd0f730	0.10203397
33	0x3e750507	0.23927699
34	0x3d8fc799	0.07020492
35	0xbe07b5a3	-0.13252883
36	0x3e1392c7	0.1441146
37	0x3dbbef58	0.091765106
38	0x3d4124d5	0.047154266
39	0xbdcf9c76	-0.101372644
40	0x3d7ae0e0	0.061249614
41	0x3e4de482	0.201067
42	0x3e543f7c	0.20727342
43	0xbd954022	-0.07287623
44	0x3cc33f75	0.02383397
45	0xbe3a3f1d	-0.18188138
46	0xbd9401ad	-0.07226882
47	0xbe104e45	-0.14092357
48	0xbe37f585	-0.17964752
49	0x3e7bc34a	0.24586216
50	0x3cf60f5c	0.03003662
51	0x3d91988d	0.07109175
52	0x3daa562f	0.083172195
53	0xbe90a999	-0.28254393
54	0xbda08502	-0.07837869
55	0xbe58e241	-0.21180059
56	0xbe6b8176	-0.22998604
57	0x3d9a218f	0.07525932
58	0xbd9992ce	-0.07498704
59	0x3df3786b	0.11888202
60	0x3d77389d	0.060356725
61	0x3da872d3	0.08225026
62	0xbd81c8d5	-0.06337134
63	0x3de3eeec	0.11129555
64	0xbe191f65	-0.14953382
65	0x3db71797	0.08940046
66	0xbc61044a	-0.013733933
67	0x3cdf2005	0.027236948
68	0x3ce1fdac	0.02758678
69	0xbdb24bd8	-0.08705872
70	0x3dbffe32	0.09374656
71	0xbc010354	-0.007874329
72	0xbca2a468	-0.019853786
73	0x3db93037	0.090423994
74	0x3dddc0d4	0.10827795
75	0x3e7477cf	0.23873828
76	0xbe20e27f	-0.15711401
77	0xbddbaa31	-0.10725821
78	0xbc6ff010	-0.014644638
79	0xbcf9ea7e	-0.030507322
80	0xbd1e4a82	-0.038645275
81	0x3cfd0eb0	0.030890793
82	0xbe1da014	-0.15393096
83	0xbd85a31c	-0.06525251
84	0xbd9600a7	-0.07324343
85	0x3d8b912f	0.06814801
86	0x3e819986	0.25312442
87	0xbdced4c0	-0.100991726
88	0x3e3d7e1f	0.18505143
89	0x3e4b67ac	0.19863766
90	0x3e83fbb9	0.25777987
91	0x3e2e9c7a	0.17051879
92	0x3e452d18	0.19255483
93	0xbe870b5f	-0.26375863
94	0xbcad077d	-0.021121735
95	0x3d783955	0.06060155
96	0xbec4df77	-0.3845174
97	0xbe2c6a62	-0.16837457
98	0xbdea27e4	-0.1143339
99	0xbe575c9d	-0.21031423
100	0xbdf75833	-0.120773695
101	0x3e1aba82	0.1511021
102	0xbd724422	-0.059147008
103	0xbe579f87	-0.21056949
104	0xbd48e800	-0.049049377
105	0x3d2cc755	0.042182285
106	0x3e115c9a	0.14195481
107	0xbe95c783	-0.29253778
108	0x3d8ee319	0.06976909
109	0x3cc243df	0.023714004
110	0x3d932e9c	0.071866244
111	0x3c88441b	0.016634038
112	0x3d92c067	0.07165604
113	0x3d76dc22	0.06026853
114	0x3db7b7c9	0.08970601
115	0xbdfdafb8	-0.12387031
116	0x3e1c02e0	0.15235472
117	0xbe316e94	-0.17327338
118	0x3d105a6e	0.03524249
119	0x3d3f344a	0.046680726
120	0x3c790931	0.015199945
121	0x3ddc2724	0.10749653
122	0x3e531c77	0.20616327
123	0xbdf1a734	-0.117994696
124	0xbe5d8cc1	-0.21635725
125	0xbdbf596f	-0.0934323
126	0x3ea74733	0.32671508
127	0x3dd56dae	0.1042131
128	0x3ce47750	0.027888924
129	0x3e0351eb	0.12824218
130	0x3e7b3d92	0.24535206
131	0xbdec1c31	-0.115288146
132	0x3e4ba064	0.19885403
133	0x3e0a367b	0.13497345
134	0x3c9a0bb8	0.018804416
135	0xbdb168f3	-0.086625956
136	0x3d917a17	0.07103365
137	0x3e01f57b	0.126913
138	0xbd0575ed	-0.032583166
139	0x3e216eba	0.15764895
140	0x3ea5b2e9	0.3236306
141	0xbcd37b3a	-0.025815595
142	0x3cad895b	0.02118366
143	0xbe306ebb	-0.1722974
144	0xbd8bb603	-0.06821825
145	0x3d863fb5	0.0655512
146	0xbe63fc13	-0.22264127
147	0xbc256cbf	-0.010096728
148	0x3da054b8	0.07828659
149	0xbc8e3fcf	-0.01736441
150	0x3d25a43f	0.04043984
151	0xbe48218c	-0.19544047
152	0xbe153e9a	-0.14574662
153	0xbe425294	-0.18976814
154	0xbe0c7000	-0.137146
155	0x3da3c088	0.07995707
156	0xbe916d96	-0.2840392
157	0x3e01dd63	0.12682109
158	0xbdf53248	-0.11972481
159	0xbb8f07e2	-0.0043649534
160	0x3d2ee603	0.042699825
161	0xbdc2a720	-0.09504533
162	0x3d6c7015	0.057724077
163	0x3be3a4e3	0.0069471463
164	0xbd12cd88	-0.03584054
165	0x3d02a69e	0.03189718
166	0xbdfb995b	-0.122851096
167	0xbe462024	-0.19348198
168	0xbd922178	-0.0713529
169	0x3e138d78	0.14409435
170	0x3c199900	0.009374857
171	0xbccd8e2f	-0.025092212
172	0xbe10eac9	-0.14152063
173	0xbd1d4705	-0.038397808
174	0x3e093f2c	0.13403004
175	0xbc267385	-0.010159378
176	0xbd395d20	-0.045254827
177	0x3e4d2602	0.2003403
178	0x3e6320ad	0.22180434
179	0xbd937547	-0.07200103
180	0x3d45337b	0.0481448
181	0xbd325da3	-0.04354633
182	0x3bc4fbab	0.0060114465
183	0x3dfa238a	0.1221381
184	0x3d7713b5	0.06032153
185	0xbd2e012b	-0.042481583
186	0xbdf4a41a	-0.119453624
187	0xbe56df59	-0.20983638
188	0xbcf92261	-0.030411901
189	0x3e4e5186	0.20148286
190	0xbcc97251	-0.024590643
191	0xbdce79f9	-0.10081858
192	0xbd04851e	-0.032353513
193	0xbe479020	-0.19488573
194	0xbde64394	-0.11243358
195	0xbd80ce9a	-0.06289406
196	0xbd0b6856	-0.03403505
197	0xbd411ca4	-0.047146454
198	0xbe4e894c	-0.20169562
199	0xbe03cf7f	-0.12872122
200	0xbe241d80	-0.16026878
201	0x3e502484	0.2032643
202	0xbdb94339	-0.09046025
203	0x3e169b55	0.14707692
204	0xbe2697e3	-0.16268878
205	0xbe6f167e	-0.23348424
206	0x3e27ed8c	0.1639921
207	0x3d49f622	0.049306996
208	0x3e5b5618	0.21419561
209	0x3807e08a	3.2395626e-05
210	0xbe1e64a6	-0.15468082
211	0xbe176f92	-0.14788654
212	0x3d2f5ca0	0.042812943
213	0xbe0bd36e	-0.13654873
214	0x3d38dd05	0.045132656
215	0x3b62ff70	0.0034637116
216	0x3d56e22a	0.05246178
217	0xbdb0577b	-0.086104356
218	0x3d236138	0.039887637
219	0xbd0c0a84	-0.034189716
220	0xbc6cef9e	-0.014461426
221	0xbdfa2d68	-0.12215692
222	0x3caa8813	0.020816838
223	0xbea57b4d	-0.32320634
224	0xbe0bce42	-0.136529
225	0xbea80151	-0.32813504
226	0x3e32a575	0.1744593
227	0x3dee501b	0.11636373
228	0x3e09641c	0.13417095
229	0xbe55ef75	-0.20892127
230	0x3e94a003	0.2902833
231	0xbc9ebce5	-0.019377181
232	0x3d1c3295	0.038134176
233	0xbe3b1550	-0.18269849
234	0xbd8268f5	-0.06367675
235	0xbd0f4278	-0.0349755
236	0xbda6be9a	-0.08141823
237	0xbd344c7c	-0.044018254
238	0x3d7d7bd0	0.061885655
239	0x3cad4744	0.021152146
240	0xbceda29e	-0.029008206
241	0x3cca60cb	0.024704358
242	0xbcc5a723	-0.024127549
243	0x3d46639a	0.04843483
244	0x3e2c2b98	0.16813505
245	0x3d74a129	0.059724007
246	0xbe8f722f	-0.28016803
247	0xbe031f55	-0.12804921
248	0x3dd2ca27	0.10292464
249	0x3e2e56f1	0.17025353
250	0x3ea82205	0.32838455
251	0xbe1dd759	-0.1541418
252	0x3dac9c05	0.08428196
253	0x3e18861f	0.14894913
254	0xbd2d87a1	-0.042365674
255	0x3d866111	0.06561483

actor_backbone.2.bias f4 [128]
0	0xbe3bc77a	-0.18337813
1	0xbe4338ef	-0.19064687
2	0xbe309db2	-0.17247656
3	0xbe90cb33	-0.2828003
4	0xbe757342	-0.23969749
5	0x3df353f8	0.1188125
6	0xbe789d83	-0.24278836
7	0x3e6a98a1	0.22909786
8	0xbe52b7d8	-0.20577943
9	0xbe7c6318	-0.24647176
10	0x3e830290	0.25587893
11	0x3e7a119c	0.2442078
12	0x3e8af5c0	0.27140617
13	0x3e628ba2	0.22123578
14	0x3e4a8bac	0.19779843
15	0xbe421289	-0.18952383
16	0x3e8edd3d	0.27903166
17	0x3e8bb465	0.27286068
18	0x3d44cab7	0.048044886
19	0x3e839ebe	0.25707048
20	0xbe5d3980	-0.21603966
21	0x3e8b68b0	0.27228308
22	0xbe75a25c	-0.23987716
23	0xbe8a8d23	-0.27060804
24	0xbe82e80f	-0.25567672
25	0x3e773244	0.24140269
26	0xbe7da709	-0.2477075
27	0xbe174629	-0.14772858
28	0xbe123ff4	-0.14282209
29	0x3e81caa8	0.25349927
30	0x3e878286	0.2646677
31	0xbd87d381	-0.06632138
32	0xbe7e0a89	-0.24808706
33	0xbe623d90	-0.22093797
34	0xbe6b2822	-0.22964528
35	0x3e7452c3	0.23859696
36	0x3d8f0e7b	0.06985184
37	0x3e83ee2e	0.25767654
38	0x3e9a9c61	0.30197433
39	0xbe86bdab	-0.2631658
40	0xbe3e66d2	-0.1859391
41	0x3e781db0	0.24230075
42	0x3e7dda67	0.24790345
43	0xbcba6c7a	-0.022756804
44	0x3d0de3d0	0.034641087
45	0xbe2bbacd	-0.16770478
46	0xbe0c822e	-0.13721535
47	0x3e659e32	0.22423628
48	0x3e87cf55	0.2652537
49	0x3e8bda43	0.27314958
50	0x3e1cd6cc	0.15316314
51	0x3e65ae26	0.22429714
52	0xbe891dba	-0.26780492
53	0x3d644146	0.055726312
54	0x3e6c1ccb	0.23057859
55	0x3e8d99fb	0.2765654
56	0x3df020bf	0.11724996
57	0x3e335984	0.17514616
58	0xbe749040	-0.23883152
59	0x3d886048	0.06658989
60	0x3e822bdd	0.2542409
61	0xbe786367	-0.24256669
62	0x3e89347f	0.26797864
63	0xbe6cfee8	-0.23144114
64	0xbe16fc56	-0.14744696
65	0x3e5d033c	0.21583265
66	0xbe844253	-0.2583185
67	0x3e696755	0.22793324
68	0x3e7a0d17	0.24419056
69	0x3e47f931	0.19528653
70	0xbe60ba35	-0.21946032
71	0xbe8a19ae	-0.26972717
72	0x3e74e367	0.23914872
73	0xbe3ce28f	-0.184458
74	0xbd5c0e29	-0.05372444
75	0xbe0f4359	-0.13990535
76	0xbe859df1	-0.26097062
77	0xbe4e9382	-0.20173457
78	0x3e91a7ac	0.28448236
79	0xbe640ecc	-0.2227127
80	0x3e4f1909	0.20224394
81	0xbe3078dd	-0.17233606
82	0xbe9076b8	-0.28215575
83	0xbe78fcb6	-0.24315152
84	0x3e739035	0.2378548
85	0xbe7dd434	-0.2478798
86	0xbe491db6	-0.1964024
87	0xbe7628dc	-0.24039024
88	0x3e8a9b62	0.27071673
89	0x3e6c4d78	0.23076427
90	0x3e841921	0.25800422
91	0x3e5237fd	0.2052917
92	0x3d827591	0.0637008
93	0x3e3e3794	0.18575889
94	0x3e207ba7	0.1567217
95	0x3e633c5b	0.22190993
96	0xbd3c5f2f	-0.04598921
97	0xbe98e22c	-0.29860055
98	0xbe62ea47	-0.22159682
99	0x3e3181d7	0.17334686
100	0xbe7e9bba	-0.24864092
101	0xbe8763d6	-0.26443356
102	0x3e925db6	0.2858712
103	0xbe85a28f	-0.26100585
104	0xbe778469	-0.24171604
105	0xbda2e078	-0.0795297
106	0xbe88685c	-0.2664212
107	0x3e8b19f3	0.27168235
108	0xbe75c9c0	-0.24002743
109	0x3e87f376	0.26552933
110	0x3e81992b	0.2531217
111	0x3e661718	0.22469747
112	0x3e81364d	0.2523674
113	0xbe857f46	-0.26073664
114	0x3e44004a	0.19140735
115	0xbd461e0c	-0.0483685
116	0xbe553883	-0.20822339
117	0xbdf9a255	-0.121891655
118	0x3e7778c1	0.24167158
119	0xbe8387c7	-0.25689527
120	0x3e748d2b	0.23881976
121	0xbe85b6fa	-0.26116163
122	0xbe8066dd	-0.25078478
123	0xbe6f4075	-0.23364432
124	0x3e8c202a	0.2736829
125	0xbdb6475d	-0.0890033
126	0xbe760b6b	-0.24027793
127	0x3e720a47	0.23636733

reward_backbone.0.weight f4 [128, 22]
0	0x3e718d0a	0.23588958
1	0x3c46bb5b	0.01212963
2	0x3d758e6c	0.059950277
3	0x3eae2b3e	0.34017366
4	0x3c6126ad	0.013742131
5	0xbe79ac36	-0.243821
6	0xbd83af33	-0.06429901
7	0x3cf2c7bb	0.029636255
8	0x3e15f940	0.14645863
9	0xbe3ef17f	-0.18646811
10	0xbd7182d7	-0.05896267
11	0x3d1e7537	0.038686004
12	0x3da9ef73	0.082976244
13	0x3c89dceb	0.016828975
14	0xbd8648b5	-0.065568365
15	0x3d6ff684	0.058584705
16	0x3cb4a2e5	0.02205033
17	0xbbc826b2	-0.0061081285
18	0xbd4544a8	-0.04816118
19	0xbc9df584	-0.01928211
20	0x3dcfd5aa	0.10148175
21	0x3e066c3d	0.13127227
22	0x3e3012d9	0.1719469
23	0x3ce01de4	0.027358003
24	0x3db9519b	0.09048768
25	0x3dd89e0f	0.10577022
26	0x3d8111c6	0.06302218
27	0x3d88af7e	0.066740975
28	0xbd66f286	-0.056383632
29	0xbd124650	-0.035711586
30	0x3dc1f4ff	0.094705574
31	0xbdbb7fdc	-0.091552466
32	0xbcebfa1b	-0.028805783
33	0xbe6f6935	-0.23379977
34	0x3e50d0a4	0.2039209
35	0xbd87f0b3	-0.066377066
36	0xbd48e034	-0.04904194
37	0xbd9bacfc	-0.076013535
38	0x3b59eb11	0.0033251683
39	0x3e0632c9	0.1310531
40	0xbc41d735	-0.0118310945
41	0xbe35f2a8	-0.17768347
42	0xbdc02d6a	-0.09383662
43	0x3e05187f	0.12997626
44	0xbce724c8	-0.02821578
45	0xbe57829f	-0.21045922
46	0xbdbfb50d	-0.093607046
47	0xbe7d38ac	-0.2472865
48	0xbc642058	-0.013923727
49	0xbdebf948	-0.11522156
50	0xbd2e0377	-0.042483773
51	0x3cd54520	0.026033938
52	0xbe125b2c	-0.14292592
53	0xbb741278	-0.0037242454
54	0xbb355c64	-0.0027673477
55	0xbc7a3d99	-0.015273475
56	0x3e84ec45	0.2596151
57	0xbe11edcb	-0.14250867
58	0xbd104b1e	-0.035227887
59	0x3e40ccd8	0.18828142
60	0x3c11e9b9	0.0089058215
61	0xbdc36554	-0.09540811
62	0xbe2c66ce	-0.16836092
63	0xbe31fc45	-0.1738139
64	0xbb9a297a	-0.0047046514
65	0xbe85ad7a	-0.26108915
66	0x3e01c9c7	0.12674628
67	0x3e1bb075	0.15204032
68	0x3e39a9c9	0.18131174
69	0xbde50dbe	-0.11184262
70	0xba1da50d	-0.0006013669
71	0x3d9a6324	0.07538441
72	0xbd081ba1	-0.033229474
73	0x3ce538be	0.027981158
74	0xbd3189b6	-0.043344222
75	0x3dc18ed4	0.094510704
76	0x3a85e68d	0.0010215804
77	0xbe14475c	-0.14480346
78	0x3cd0e56e	0.025500026
79	0xbd2e57bb	-0.042564135
80	0xbc079a4b	-0.008276532
81	0xbbe4243b	-0.006962327
82	0x3d004c93	0.031323027
83	0xbcd970b8	-0.026543006
84	0xbd039031	-0.032119934
85	0xbe7dd790	-0.24789262
86	0x3cd320a7	0.025772406
87	0xbc59558c	-0.013265025
88	0x3e1e608e	0.1546652
89	0x3cfaf749	0.030635493
90	0xbe5556ab	-0.20833842
91	0x3d8e7f34	0.06957856
92	0xbd241509	-0.040059123
93	0xbc008401	-0.007843972
94	0x3ddbe82f	0.10737645
95	0x3dc77466	0.09738998
96	0xbe8b4f40	-0.272089
97	0xbdb6b73c	-0.08921668
98	0xbe0ed6e4	-0.13949162
99	0xbdb15590	-0.08658898
100	0x3cb75ca6	0.022383045
101	0x3dac6ef4	0.084196
102	0x3dec273e	0.11530922
103	0xbbea2cda	-0.00714646
104	0x3e4e9a4d	0.20176049
105	0xbe2d0bd9	-0.16899051
106	0x3df05624	0.1173518
107	0xbdfc0e76	-0.12307446
108	0x3e3703dc	0.17872566
109	0xbcd76fbb	-0.026298394
110	0x3d38a664	0.045080557
111	0xbe7b33be	-0.24531457
112	0x3c58f06b	0.013240914
113	0x3e98d4b1	0.2984977
114	0xbd465d46	-0.048428796
115	0xbd48ef86	-0.049056552
116	0x3db0b9fa	0.08629222
117	0x3d300faa	0.04298369
118	0x3cf561e2	0.0299539
119	0xbd533697	-0.051565733
120	0x3d9946b8	0.07484192
121	0xbc26fe68	-0.010192491
122	0xbd8bb012	-0.06820692
123	0x3e3bd53c	0.18343061
124	0x3daed3f7	0.08536523
125	0x3ccde769	0.025134759
126	0x3cc81cff	0.024427889
127	0xbc85c012	-0.016326938
128	0x3cbe91a9	0.023262816
129	0x3e2ba23a	0.16761103
130	0x3e1b6c88	0.1517812
131	0xbc5b7d4a	-0.01339657
132	0x3c8e21c4	0.017350085
133	0x3dec3077	0.115326814
134	0x3e2bec88	0.16789448
135	0xbd96ae84	-0.07357505
136	0xbd0512ae	-0.032488517
137	0xbe3323a4	-0.17494065
138	0xbdaacf9c	-0.083403796
139	0xbe08667a	-0.13320342
140	0x3de8b7a7	0.11363154
141	0x3e3e81df	0.1860423
142	0xbbe197bb	-0.0068845428
143	0xbdd3d818	-0.10343951
144	0xbd36f5d8	-0.04466805
145	0xbe188492	-0.14894322
146	0x3d574859	0.05255923
147	0x3d255781	0.040366653
148	0xbd11a069	-0.03555337
149	0xbc281f89	-0.010261425
150	0xbd4c567a	-0.049887158
151	0x3de31336	0.110876486
152	0x3d60bb2c	0.054866
153	0xbda1978d	-0.07890234
154	0xbcd902cf	-0.026490597
155	0x3e4dc42e	0.20094368
156	0xbd6232f5	-0.055224378
157	0xbc3e40cd	-0.011612129
158	0x3d1e5b9b	0.03866158
159	0x3d389492	0.045063563
160	0xbd839245	-0.06424383
161	0x3e28769e	0.16451499
162	0x3deacdc0	0.11465025
163	0xbe0ac6fc	-0.13552469
164	0x3c7e5e75	0.01552545
165	0xbd4ad951	-0.049523655
166	0x3e034534	0.12819368
167	0x3d518d42	0.051160105
168	0xbdb9d7f2	-0.090743914
169	0xbd433d8b	-0.047666114
170	0x3c70f5fe	0.014707087
171	0xbd9c777f	-0.076399796
172	0xbc66cbd5	-0.014086683
173	0xbd62d1c1	-0.05537582
174	0xbde4817a	-0.11157508
175	0xbe5ce7f7	-0.21572863
176	0xbe0be164	-0.13660198
177	0xbdfdd8e0	-0.12394881
178	0xbe32161b	-0.17391245
179	0xbe77b082	-0.24188426
180	0x3dc1a752	0.09455742
181	0xbd04af29	-0.03239361
182	0x3ce8d1a8	0.028420284
183	0xbc952b1e	-0.018209036
184	0x3ccdcd55	0.025122324
185	0xbde241dc	-0.11047718
186	0xbc9ce474	-0.019151904
187	0x3bacb9be	0.0052711656
188	0x3e0b84cb	0.13624875
189	0xbdeec96f	-0.11659514
190	0xbe30cd7c	-0.17265886
191	0xbde24b35	-0.11049501
192	0x3c6a6018	0.014305137
193	0x3c9369cb	0.017994782
194	0x3e1b002c	0.15136784
195	0x3d06f133	0.03294487
196	0xbd3799b3	-0.044824313
197	0x3e2a1101	0.16608049
198	0xbd5a153e	-0.053242914
199	0xbe72822f	-0.23682474
200	0xbe8a0349	-0.2695563
201	0x3e576039	0.210328
202	0x3e24c29e	0.16089866
203	0xbe12253c	-0.14272016
204	0xbd3d55ea	-0.046224512
205	0xbd984f40	-0.07436991
206	0x39c97549	0.00038425092
207	0xbd44991b	-0.047997575
208	0x3d6728e1	0.05643547
209	0xbd1787c0	-0.036994696
210	0xbcb83763	-0.022487348
211	0x3cefa629	0.029254036
212	0x3b87980c	0.0041379984
213	0x3c19d699	0.009389543
214	0x3d31cb04	0.0434065
215	0x3d88a9ec	0.06673035
216	0xbe67f3d7	-0.22651611
217	0xbe224495	-0.15846474
218	0xbd527015	-0.05137642
219	0x3cf97a77	0.030453904
220	0xbe3515f6	-0.17684159
221	0xbcb2414c	-0.021759652
222	0x3d320bc0	0.043468237
223	0x3e24b9c1	0.16086484
224	0x3e4a2c9d	0.19743581
225	0xbcc2be54	-0.023772396
226	0xbd6b0172	-0.057374425
227	0x3b612fb4	0.0034360709
228	0xbc1c284b	-0.009531091
229	0xbd017781	-0.03160811
230	0xbcbc5d44	-0.022993691
231	0x3d53ce6b	0.051710527
232	0xbda26a16	-0.079303905
233	0x3dab6a8b	0.08369931
234	0x3db1f181	0.08688641
235	0xbd24261c	-0.040075406
236	0x3d10ed46	0.03538253
237	0xbcb6c60c	-0.022311233
238	0x3d6e94cb	0.05824737
239	0x3e089795	0.13339074
240	0xbe420bfc	-0.18949884
241	0xbd55fd65	-0.05224361
242	0x3e460aa2	0.19339994
243	0x3d9870bb	0.07443377
244	0xbe20f407	-0.15718089
245	0xbd02133f	-0.031756636
246	0x3ce39274	0.027779795
247	0x3d60251b	0.054722887
248	0x3d2dbcf8	0.042416543
249	0xba942a0e	-0.0011304037
250	0xbd1b3b1a	-0.03789816
251	0xbc981fea	-0.018569905
252	0x3d93b46e	0.072121486
253	0x39a63060	0.0003169803
254	0x3cd7eacb	0.026357075
255	0x3dda50bf	0.10659932

reward_backbone.0.bias f4 [128]
0	0xbbc97a18	-0.006148588
1	0x3d9e8ba4	0.07741478
2	0x3d3b4d02	0.045727737
3	0x3d8b43eb	0.06800064
4	0xbdb525d1	-0.088451035
5	0xbdee0b9a	-0.116233066
6	0x3d8110c9	0.0630203
7	0xba00aace	-0.00049082644
8	0xbe3463e8	-0.17616236
9	0xbd3d3573	-0.04619355
10	0xbe86ac66	-0.26303405
11	0x3cab1be4	0.020887323
12	0x3c8f11ac	0.017464481
13	0xbc935cc6	-0.017988574
14	0x3c96efad	0.018424833
15	0xbcd10bc1	-0.0255183
16	0xbe95d93a	-0.29267293
17	0x3e309489	0.17244162
18	0x3cc35b3e	0.023847219
19	0xbde1e93a	-0.110308126
20	0xbe392328	-0.18079817
21	0x3e5b56c2	0.21419814
22	0x3e5d1132	0.2158859
23	0x3c9e6de5	0.019339511
24	0xbc689cca	-0.014197538
25	0xbe3e6312	-0.1859248
26	0x3d6a8faa	0.057265915
27	0xbe4b262c	-0.1983878
28	0x3e7236d6	0.23653731
29	0xbddf0dc8	-0.108913004
30	0xbd7ee082	-0.062225826
31	0xbeb6e199	-0.35718992
32	0x3d629087	0.055313613
33	0x3d6bf588	0.057607204
34	0xbc810014	-0.015747108
35	0x3dee8674	0.11646739
36	0xb9e647fa	-0.00043922645
37	0x3c9504c1	0.018190743
38	0xbe562910	-0.20914102
39	0xbd852d32	-0.06502761
40	0xbe665732	-0.224942
41	0xbbfea822	-0.007771508
42	0x3e823548	0.25431275
43	0x3d925749	0.071455546
44	0xbb1ab201	-0.0023604634
45	0x3e46862d	0.19387121
46	0xbdbaff94	-0.09130779
47	0xbe036e01	-0.12834932
48	0x3f00f0a1	0.5036717
49	0xbd13fdac	-0.036130592
50	0x3c1d8221	0.009613545
51	0xbe97557d	-0.2955741
52	0xbc4a73f9	-0.012356752
53	0xbe730a45	-0.23734386
54	0xbdeed3f7	-0.11661523
55	0xbeae6e4d	-0.34068528
56	0xbd6dcc7f	-0.05805635
57	0x3e1b9751	0.15194441
58	0x3c29140d	0.010319722
59	0xbddb971e	-0.10722183
60	0xbdb698c2	-0.08915855
61	0x3e6f8d33	0.23393707
62	0xbe8c1f29	-0.27367523
63	0x3a3aa192	0.0007119413
64	0xbd1f0f9c	-0.038833246
65	0x3e188b9f	0.14897011
66	0x3d4ba850	0.049721062
67	0x3cec7ca6	0.02886803
68	0xbd6a3b6e	-0.057185583
69	0x3dc33b96	0.095328495
70	0xba386b02	-0.00070349884
71	0xbda506b3	-0.080579184
72	0xbcf10514	-0.029421367
73	0x3e19b044	0.15008646
74	0x3e1029db	0.14078467
75	0x3c3d92ca	0.011570642
76	0x3d4a3868	0.0493702
77	0xbe73ad69	-0.2379662
78	0x3d0ebb7e	0.034846775
79	0x3dcc20cb	0.09967192
80	0xbe20ae91	-0.15691592
81	0xbcbd8a7c	-0.023137324
82	0x3e40ddf2	0.18834665
83	0x3e59fd52	0.2128804
84	0xbd86bf15	-0.06579415
85	0x3e697dce	0.22801897
86	0xbe88c6e1	-0.26714233
87	0x3e5262b7	0.20545469
88	0xbd05483f	-0.032539602
89	0xbc88ad34	-0.016684152
90	0x3cc0daf8	0.023541912
91	0xbdf07f27	-0.117430024
92	0xbe0526af	-0.13003038
93	0xbe68c3ea	-0.22730985
94	0xbe43a9ed	-0.1910779
95	0x3cc29ddb	0.023756912
96	0x3c8df9a6	0.017330956
97	0xbc32bd4c	-0.01090939
98	0xbd33ab52	-0.043864556
99	0xbbdd9579	-0.0067622033
100	0x3c54144e	0.012944294
101	0xbe6b930a	-0.2300531
102	0x3d837c63	0.06420209
103	0xba82bb1a	-0.0009973974
104	0x3d6a3bc7	0.057185914
105	0x3d2f9bca	0.04287318
106	0x3e25b6e0	0.16183043
107	0xbe4add86	-0.19811067
108	0xbd18327c	-0.03715752
109	0xbe6ea937	-0.23306738
110	0xbcf61e6d	-0.030043805
111	0x3c469594	0.012120623
112	0x3e435873	0.1907671
113	0x3c83400f	0.016021756
114	0xbcb1e80d	-0.021717096
115	0x3e7a52e0	0.24445677
116	0xbd11798d	-0.03551631
117	0x3eab72b4	0.3348595
118	0x3d79af5d	0.060958255
119	0x3bc58c07	0.0060286555
120	0x3d9fba0e	0.07799159
121	0xbd85ae69	-0.06527407
122	0xbbcbd117	-0.006219994
123	0xbcf92da7	-0.030417277
124	0xbd508fc2	-0.050918348
125	0x3da9d49e	0.08292507
126	0xbc25ad73	-0.010112154
127	0x3cb612ea	0.022225816

reward_backbone.2.weight f4 [128, 128]
0	0xbca398cf	-0.019970326
1	0xbcb51f09	-0.022109525
2	0x3d91eec0	0.07125616
3	0xbdfad3fd	-0.12247465
4	0xbdb1e203	-0.086856864
5	0x3d59d14b	0.053178113
6	0xbd4e111c	-0.050309286
7	0x3da3007a	0.07959075
8	0x3daf8ecb	0.085721575
9	0x3b40f9f1	0.0029445852
10	0xbc81740c	-0.015802406
11	0xbe1f2a35	-0.15543444
12	0x3dace076	0.0844125
13	0xbe190f6c	-0.14947289
14	0x3d78f0e7	0.060776617
15	0x3d99650b	0.074899755
16	0xbe530a13	-0.20609312
17	0x3eab471a	0.33452684
18	0x3d73448a	0.059391536
19	0x3d124853	0.035713505
20	0xbd957dc1	-0.07299376
21	0xbe09cc93	-0.13456945
22	0x3eababd2	0.33529526
23	0xbe0e4f74	-0.13897496
24	0x3e1f6842	0.15567115
25	0xbe2aa680	-0.16665077
26	0xbe166a3b	-0.14688961
27	0x3d859678	0.0652284
28	0x3d3223d5	0.043491203
29	0xbe0c994d	-0.13730355
30	0x3d0dea4d	0.034647275
31	0xbe27cf3f	-0.16387652
32	0x3ca3bbfa	0.019987095
33	0x3da2ec4f	0.079552285
34	0x3c967e45	0.018370757
35	0xbd074ec4	-0.0330341
36	0x3dc1f365	0.09470252
37	0x3e2f2ad4	0.17106181
38	0xbdf01683	-0.11723044
39	0x3b8f30a8	0.004369814
40	0xbeb10b14	-0.34578764
41	0x3dcf5705	0.101240195
42	0x3e9945c6	0.29936045
43	0xbdf5eab6	-0.12007658
44	0xbd2e9d79	-0.042630646
45	0xbc9b721a	-0.018975306
46	0xbe61a6c6	-0.22036275
47	0xbe12fc69	-0.143541
48	0x3e25673d	0.16152664
49	0xbdf2d9b1	-0.118579276
50	0x3d9a5704	0.07536128
51	0xbdc632af	-0.09677636
52	0xbc893521	-0.016748967
53	0xbe0c4734	-0.13699037
54	0x3c431441	0.011906684
55	0x3d30d792	0.043174334
56	0xbde57d4f	-0.11205541
57	0xbe431bb7	-0.19053541
58	0xbd10f0ff	-0.03538608
59	0x3c2ef66c	0.010678869
60	0xbc83f510	-0.016108066
61	0x3d4aeefc	0.04954432
62	0xbe9185f4	-0.2842251
63	0x3e04efec	0.12982148
64	0x3b6315ec	0.0034650518
65	0xbdbe8ae7	-0.09303837
66	0xbda5fc8b	-0.081048094
67	0xbe8032ba	-0.250387
68	0xbc9ac781	-0.018893959
69	0xbda1b17c	-0.078951806
70	0xbda48ccd	-0.08034668
71	0x3d2d77d0	0.04235059
72	0x3e51d81f	0.204926
73	0x3e00a9c2	0.12564757
74	0x3ea77b5f	0.32711312
75	0xbe02e123	-0.12781195
76	0x3d1151ce	0.035478406
77	0xbea49829	-0.3214734
78	0xbdd2cdf4	-0.10293189
79	0xbcd45b67	-0.02592249
80	0x3dbd39ed	0.09239564
81	0xbd2ac682	-0.041693218
82	0x3e8bcd04	0.27304852
83	0x3dbd2493	0.092354916
84	0xbda424eb	-0.08014854
85	0xbd8939ec	-0.06700501
86	0xbe967e48	-0.2939322
87	0x3d0e73de	0.03477847
88	0x3e8ca877	0.27472278
89	0x3e38f975	0.1806391
90	0xbd1e7922	-0.03868974
91	0x3cf776df	0.03020805
92	0xbcd2b732	-0.02572212
93	0xbe169916	-0.14706835
94	0x3d1a3bac	0.037654564
95	0x3cba6c51	0.022756727
96	0x3d926d69	0.071497746
97	0xbdb3d809	-0.0878144
98	0x3db6112f	0.08889996
99	0x3ca01146	0.019539487
100	0x3ccd8410	0.025087386
101	0xbe86ade2	-0.26304537
102	0x3c8df6fe	0.01732969
103	0x3de8ef08	0.113737166
104	0x3d890626	0.06690626
105	0xbd53c463	-0.05170096
106	0x3d0be349	0.034152303
107	0xbe4d506c	-0.2005021
108	0xbd95174b	-0.072798334
109	0xbdb22009	-0.086975165
110	0x3d5ed0d5	0.054398376
111	0xbdd1c277	-0.10242169
112	0x3dc0493d	0.09388969
113	0xbe0389df	-0.12845562
114	0xbd2485bb	-0.040166598
115	0x3e755c06	0.23960885
116	0xbd73997d	-0.05947255
117	0x3db707b9	0.0893702
118	0xbcf8f8bd	-0.030392045
119	0x3e47ac8e	0.19499418
120	0xbe298208	-0.16553509
121	0x3dd7ea43	0.10542729
122	0xbca39285	-0.019967327
123	0x3d459173	0.048234414
124	0xbc504081	-0.012710691
125	0x3e87e886	0.2654459
126	0xbd9c8f32	-0.076445
127	0xbe8b7af5	-0.27242246
128	0xbd88f257	-0.06686848
129	0xbde79871	-0.11308373
130	0x3e110404	0.14161688
131	0xbdd61239	-0.104526944
132	0x3a8d9ac1	0.0010803567
133	0x3d87109c	0.06594965
134	0xbdb48ba6	-0.08815698
135	0x3e2cb1b8	0.1686467
136	0x3db06b19	0.08614177
137	0x3b4b3de7	0.0031012238
138	0x3c514421	0.012772591
139	0x3dce6cee	0.100793704
140	0x3e17b70d	0.14815922
141	0xbb85df94	-0.0040854905
142	0xbe40dd3f	-0.18834399
143	0x3e141d25	0.14464243
144	0x3d64e6a1	0.055884007
145	0x3e424dc5	0.18974979
146	0x3dbf73eb	0.093482815
147	0x3ded1b2a	0.11577447
148	0xbd433150	-0.04765445
149	0x3e2c2d7e	0.16814229
150	0xbe02275c	-0.12710327
151	0x3dd0222b	0.10162767
152	0xbe66dcd7	-0.22545181
153	0x3cd63cde	0.02615207
154	0xbe8b63d9	-0.27224615
155	0x3cda6a76	0.026662093
156	0xbe6458fe	-0.22299573
157	0x3da6dd4b	0.08147677
158	0x3dae2565	0.08503226
159	0x3e0a6d9d	0.13518377
160	0xbe410244	-0.1884852
161	0x3dc43292	0.09579958
162	0xbe2d2103	-0.16907124
163	0x3d99bb3e	0.07506417
164	0x3db8b572	0.09018983
165	0xbdf39fc4	-0.11895707
166	0x3e5aa38f	0.21351455
167	0x3eb3a6df	0.3508825
168	0x3dfc5524	0.12320927
169	0xbdea7d02	-0.114496246
170	0xbe47c30d	-0.19508
171	0xbd0a3f53	-0.033751797
172	0x3de745bb	0.11292597
173	0x3d919f8b	0.071105085
174	0xbc3c24d3	-0.011483389
175	0x3dee4896	0.116349384
176	0x3e8aaa4b	0.27083048
177	0xbe428c90	-0.18998933
178	0xbbc0a830	-0.0058794245
179	0xbdbfb2f6	-0.09360306
180	0x3cf28487	0.02960421
181	0xbe175a96	-0.1478065
182	0xbc99e828	-0.018787459
183	0x3d351267	0.044207003
184	0x3db49b04	0.088186294
185	0xbd95ec53	-0.07320466
186	0xbdc83ca6	-0.09777193
187	0x3ddacb9e	0.10683368
188	0x3ddbbbc0	0.1072917
189	0xbcb23a8e	-0.021756437
190	0x3d7a95e1	0.061178092
191	0x3e3baf35	0.18328555
192	0xbe2833f7	-0.16426073
193	0x3c9d073b	0.019168487
194	0x3e0cd827	0.1375433
195	0x3e4e401e	0.20141646
196	0x3e40a072	0.18811205
197	0x3c1a45b8	0.009416036
198	0xbdcd12ac	-0.10013327
199	0x399bb228	0.0002969664
200	0xbe31ae16	-0.17351565
201	0xbd0e88f5	-0.03479858
202	0x3d34487f	0.04401445
203	0xbc5f7d10	-0.013640657
204	0xbbf0ddc4	-0.0073506553
205	0x3d4dca44	0.050241724
206	0x3d830232	0.06396903
207	0x3d5fcfb8	0.054641455
208	0x3c81ebcf	0.015859513
209	0x3daa4255	0.08313433
210	0xbe104e58	-0.14092386
211	0x3e1cda59	0.15317668
212	0x3e2d8e30	0.16948771
213	0x3dda20fb	0.10650822
214	0x3a1d63a0	0.000600392
215	0xbe1113a0	-0.14167643
216	0x3d1f3d47	0.038876798
217	0xbd2e8d63	-0.042615306
218	0xbe53a5b9	-0.20668687
219	0x3d8e7314	0.06955543
220	0x3d9d3a7d	0.076771714
221	0x3dc803ef	0.09766375
222	0xbcfdbd36	-0.030974012
223	0x3db399c4	0.08769563
224	0x3d1d7ded	0.03845017
225	0x3ca7f589	0.020502822
226	0x3e0207cd	0.12698288
227	0xbd84e1fc	-0.064884156
228	0xbe4befc3	-0.1991568
229	0x3c9bb759	0.019008325
230	0x3b52663f	0.00321044
231	0xbceace88	-0.028662935
232	0x3d26da4b	0.040735524
233	0xbd8a6006	-0.06756596
234	0xbe2e17a6	-0.17001209
235	0x3dec5225	0.11539105
236	0x3c099687	0.008397705
237	0x3e9cc27b	0.30617127
238	0xbdb5590e	-0.088548765
239	0x3e0c8100	0.13721085
240	0xbc27935b	-0.010228003
241	0x3da7b15d	0.08188126
242	0x3d540c21	0.05176938
243	0xbe46ac7e	-0.19401738
244	0xbe0bd5f1	-0.13655831
245	0x3d588074	0.052856877
246	0x3eb6cdb4	0.35703814
247	0x3e7c6e92	0.24651554
248	0xba5c12ba	-0.00083951245
249	0x3db339cb	0.087512575
250	0x3cdf3d7a	0.027250994
251	0x3c0e2ab7	0.008677176
252	0xbc457e19	-0.01205399
253	0x3d9380b3	0.07202282
254	0xbd6ccc95	-0.057812292
255	0x3d900c5a	0.07033606

reward_backbone.2.bias f4 [128]
0	0x3e23da21	0.16001178
1	0xbdda4836	-0.106583044
2	0xbd4805d4	-0.048833683
3	0x3e465183	0.19367032
4	0x3d92dc96	0.0717098
5	0x3d8d0a26	0.06886701
6	0xbd7f2b1e	-0.06229698
7	0xbd70d483	-0.058796417
8	0x3d934d9c	0.07192537
9	0xbc9914b6	-0.018686634
10	0x3db4c119	0.08825893
11	0x3dd4256c	0.103587
12	0xbdc5a561	-0.09650684
13	0x3d9864d9	0.0744111
14	0xbd98823b	-0.074467145
15	0xbd609627	-0.054830696
16	0x3dbb6edf	0.09152006
17	0xbdc9b96e	-0.09849821
18	0xbd71de5a	-0.05904994
19	0x3dc96e20	0.09835458
20	0xbdb752f4	-0.08951369
21	0x3dd43b8e	0.10362922
22	0xbd707b27	-0.058711197
23	0xbd431a35	-0.047632415
24	0xbd9e1664	-0.077191144
25	0x3d979f33	0.07403412
26	0x3dc6bbc9	0.09703786
27	0x3e0149a9	0.12625755
28	0xbd7cdc86	-0.061733745
29	0xbd685066	-0.0567173
30	0xbd60321b	-0.054735284
31	0x3d9cfc28	0.076652825
32	0xbc487e7a	-0.012237186
33	0xbeabfe6e	-0.33592552
34	0xbc883ec6	-0.016631495
35	0x3dbd7d12	0.09252371
36	0xbcc8b1c6	-0.024498831
37	0x3db58347	0.0886293
38	0xbe84d56d	-0.2594408
39	0x3d7b8079	0.061401818
40	0xbdb3175d	-0.087446906
41	0xbd698353	-0.057010006
42	0xbd04c271	-0.032411996
43	0x3d856dbf	0.06515073
44	0xbe466bbe	-0.19377038
45	0xbde01e19	-0.10943241
46	0xbd8e256e	-0.06940733
47	0x3b38e73f	0.0028214005
48	0xbda9fe63	-0.083004735
49	0x3cf23abc	0.029569022
50	0xbdc526aa	-0.09626515
51	0xbccdd554	-0.025126137
52	0x3d0f2583	0.034947883
53	0x3dbb92fd	0.09158895
54	0x3cb6b0f5	0.022301177
55	0xbdd2cf53	-0.1029345
56	0x3d95de21	0.07317758
57	0x3d69223d	0.056917418
58	0xbd45c014	-0.048278883
59	0x3d6b64ef	0.057469305
60	0xbd89f848	-0.06736809
61	0x3e830108	0.25586724
62	0x3d8859cb	0.06657752
63	0xbdbd4f0a	-0.09243591
64	0xbdb73ca8	-0.08947116
65	0x3dd4606c	0.103699535
66	0x3d9f37d2	0.07774319
67	0x3cf96721	0.030444684
68	0xbdf9af52	-0.12191643
69	0x3de760ff	0.112977974
70	0xbc6bfe11	-0.014403836
71	0x3d7ba1b2	0.0614335
72	0x3d8f0492	0.069832936
73	0x3d5dbfd8	0.054138035
74	0xbd1d4ea1	-0.038405064
75	0x3d7389b0	0.05945748
76	0x3e79824b	0.24366109
77	0x3cab0afb	0.02087926
78	0xbd18c351	-0.037295643
79	0x3d82453a	0.0636086
80	0x3dce4925	0.10072545
81	0xbd71bc48	-0.05901745
82	0x3dad5e77	0.08465283
83	0xbd1a327b	-0.0376458
84	0xbdef6a98	-0.11690253
85	0xbe115655	-0.1419309
86	0x3dbeb464	0.093117505
87	0xbcaa9d0d	-0.02082684
88	0x3d21d473	0.039509248
89	0xbd4f0cc9	-0.050549302
90	0x3d41e001	0.047332767
91	0xbd7b2d66	-0.061322592
92	0xbd8961a9	-0.0670808
93	0x3da33aca	0.079701975
94	0xbd1388ba	-0.036019064
95	0xbd75ddf9	-0.060026143
96	0x3d68ad50	0.05680591
97	0xbd9ca914	-0.076494366
98	0xbd035ba1	-0.032069806
99	0x3c620cca	0.013796994
100	0x3d8bd2ea	0.06827338
101	0xbd615c63	-0.055019747
102	0x3de87f03	0.113523506
103	0xbda1fc9f	-0.07909512
104	0xbdab430a	-0.08362396
105	0xbda1ae73	-0.07894602
106	0xbc5423d4	-0.012947995
107	0x3db830aa	0.08993657
108	0xbdc7e161	-0.097597845
109	0x3e3651de	0.17804667
110	0xbdd21313	-0.10257544
111	0x3caa4d24	0.020788737
112	0xbd9c16ba	-0.07621522
113	0x3d7d6509	0.061863933
114	0x3db0736a	0.086157635
115	0x3d9c122b	0.07620653
116	0xbdf38fdc	-0.118926734
117	0x3d45c83b	0.048286658
118	0xbdba2ebb	-0.090909444
119	0xbd8ccd16	-0.068750545
120	0x3d816066	0.06317215
121	0xbd8d3122	-0.06894137
122	0x3e038ef8	0.12847507
123	0xbd672d74	-0.05643983
124	0xbd9114d5	-0.070840515
125	0xbd976133	-0.07391586
126	0x3e9ce773	0.30645332
127	0x3e0edf50	0.13952374

cost_backbone.0.weight f4 [128, 22]
0	0x3e4041f7	0.18775164
1	0x3e3c764e	0.18404505
2	0xbd36987d	-0.044579018
3	0x3e505efb	0.20348732
4	0x3e2e3611	0.17012812
5	0x3d99e0eb	0.07513603
6	0x3de9908f	0.114045255
7	0xbd82e4d2	-0.063913
8	0xbd947b28	-0.07250053
9	0x3d24fdbf	0.040281054
10	0xbe457ecc	-0.1928665
11	0x3dfb1361	0.122595556
12	0xbd92055f	-0.07129931
13	0x3d83e89e	0.064408526
14	0xbcac5873	-0.02103827
15	0xbd0b2b00	-0.033976555
16	0x3d7ac8df	0.06122672
17	0x3c16f6a1	0.009214074
18	0x3e1e9ec6	0.15490255
19	0x3da426cf	0.08015215
20	0x3e3bf62b	0.18355624
21	0x3d402e99	0.04691944
22	0x3df6ec33	0.1205677
23	0x3e1b378a	0.15157905
24	0xbcc48bb9	-0.023992406
25	0x3d1f7b11	0.038935725
26	0x3ce2a647	0.027667178
27	0xbdcaf953	-0.09910836
28	0x3d02a9b1	0.03190011
29	0x3e09bcc8	0.1345092
30	0xbd20f7f2	-0.03929896
31	0x3e22dd11	0.15904643
32	0xbe9a20fe	-0.30103296
33	0xbce52d80	-0.027975798
34	0x3e081e0b	0.1329271
35	0xbdf550fb	-0.119783364
36	0xbba4ec34	-0.0050330404
37	0x3de95973	0.11394014
38	0xbd27d33a	-0.040972926
39	0x3cc52d76	0.024069529
40	0x3dc31fb7	0.095275335
41	0xbd331aa7	-0.04372659
42	0x3e166de5	0.14690359
43	0x3dd83670	0.10557258
44	0x3ddfdfa4	0.10931328
45	0x3d50aeb9	0.05094788
46	0xbd60c60b	-0.05487637
47	0xbe90d3df	-0.28286645
48	0x3caeff89	0.021362083
49	0xbd877b64	-0.06615332
50	0x3d55c460	0.05218923
51	0xbd990508	-0.07471663
52	0xbd6860fe	-0.056733124
53	0xbd73b893	-0.059502196
54	0xbdbe9e9d	-0.09307597
55	0xbdbed6c3	-0.09318306
56	0xbda31d3b	-0.0796456
57	0x3e09710d	0.13422032
58	0xbcf3667a	-0.02971195
59	0x3d8bf9ac	0.068347305
60	0x3d78480d	0.060615588
61	0x3c84b495	0.01619939
62	0x3dcc4ea2	0.099759355
63	0xbd4c9ab9	-0.049952243
64	0x3e0a39a2	0.13498548
65	0x3e5e193d	0.21689315
66	0x3d1bb987	0.03801873
67	0x3e13a800	0.14419556
68	0x3c5e0c59	0.013552749
69	0x3c2a2cdb	0.010386671
70	0x3e3e2ea0	0.18572474
71	0xbd8aa5a9	-0.067698784
72	0xbccb8311	-0.02484277
73	0x3d7a5b99	0.06112251
74	0x3d4ace40	0.0495131
75	0xbe5a0d16	-0.21294054
76	0x3db0a8d2	0.0862595
77	0xbe14c7ef	-0.14529394
78	0xbc895302	-0.016763214
79	0x3d723504	0.05913259
80	0xbdac009f	-0.08398556
81	0xbe9bf7c6	-0.30462474
82	0xbd4cbfd4	-0.04998763
83	0x3e031eea	0.12804762
84	0xbc0d00a1	-0.008606107
85	0xbbcd1dc2	-0.006259651
86	0xbde82308	-0.11334807
87	0x3e10f7a1	0.14156963
88	0x3e9f6099	0.31128386
89	0xbcef618b	-0.029221317
90	0xbde12123	-0.109926485
91	0xbe765d9d	-0.24059148
92	0x3d22d494	0.03975351
93	0x3b47920b	0.0030452039
94	0xbc251335	-0.01007538
95	0xbdf17596	-0.11790006
96	0xbdc5a873	-0.0965127
97	0x3d7565b6	0.059911452
98	0xbd4f1291	-0.050554816
99	0xbebb3f4c	-0.3657173
100	0x3b9c5abd	0.004771559
101	0x3db26aca	0.08711775
102	0xbb09448e	-0.0020945403
103	0xbc8050cf	-0.015663533
104	0x3ba677e0	0.005080208
105	0x3dc49f16	0.09600656
106	0x3e83ffb9	0.25781038
107	0x3d83441d	0.06409476
108	0xbe384fa3	-0.17999129
109	0xbda44ba8	-0.08022243
110	0xbd30aa64	-0.043131247
111	0x3c4322ed	0.011910182
112	0xbcc4a93e	-0.024006482
113	0x3dab12ef	0.08353221
114	0xbdb08390	-0.086188436
115	0x3c9455ac	0.018107258
116	0xbd2d5718	-0.042319387
117	0x3df3a151	0.11896003
118	0xbad52ca1	-0.0016263911
119	0x3d9057c6	0.070479915
120	0xbd326028	-0.043548733
121	0x3bec6635	0.0072143325
122	0xbddbc132	-0.107302085
123	0x3da94804	0.08265689
124	0xbc226b17	-0.0099132275
125	0xbc0f799b	-0.00875702
126	0xbdd62305	-0.10455898
127	0x3dc2a46e	0.09504019
128	0x3e16999f	0.1470704
129	0x3d7bbec4	0.061461225
130	0xbd66dfdd	-0.056365836
131	0x3e57d264	0.21076351
132	0xbe0248bd	-0.1272306
133	0xbe0aba84	-0.13547713
134	0xbc8b4d03	-0.017004495
135	0x3cbfbce0	0.023405492
136	0xbd15b895	-0.036552984
137	0xbc90a183	-0.01765514
138	0xbd8117a9	-0.06303341
139	0x3d265131	0.040604774
140	0xbc027602	-0.007962706
141	0xbd2ad2df	-0.04170501
142	0x3bf75cd9	0.00754891
143	0x3e04f517	0.1298412
144	0x3bf63ffd	0.007514952
145	0x3dbf74fa	0.093484834
146	0x3e17a8a0	0.14810419
147	0xbb75e04e	-0.003751773
148	0xbd7ee20a	-0.062227286
149	0xbaf2f543	-0.0018536228
150	0xbde22dea	-0.11043914
151	0xbe0273d4	-0.12739497
152	0x3df40aaf	0.119161
153	0xbe425971	-0.18979432
154	0x3e37b9a0	0.17941904
155	0xbdc79dad	-0.09746871
156	0xbd958e11	-0.07302488
157	0xbccffbb0	-0.025388569
158	0xbd2fe9a4	-0.042947426
159	0xbc9c9202	-0.01911259
160	0xbc22f03f	-0.009944974
161	0xbda2c258	-0.079472244
162	0x3dc0d43d	0.09415481
163	0xbdf3ff33	-0.1191391
164	0xbdb87496	-0.09006612
165	0xbeb5b714	-0.3549124
166	0x3d1403b6	0.03613635
167	0x3e0eb715	0.13937028
168	0x3d8f5f7e	0.070006356
169	0xbd35e1fa	-0.04440496
170	0x3dde4555	0.10853068
171	0x3cfff8d5	0.031246582
172	0x3d1afd78	0.037839383
173	0x3ceccfc7	0.02890767
174	0xbd8ef169	-0.06979639
175	0xbea4a2a3	-0.32155332
176	0xbd5b30ba	-0.053513266
177	0xbd9067a6	-0.07051019
178	0x3ddaff99	0.10693283
179	0xbdb3917a	-0.08767982
180	0x3dfbbb82	0.12291624
181	0xbd7f79a3	-0.06237186
182	0xbdcd592d	-0.100267746
183	0xbdd44e85	-0.10366539
184	0xbc87b589	-0.016566055
185	0x3de5d4cf	0.11222231
186	0x3cdc4953	0.026890432
187	0x3e8909e9	0.26765373
188	0xbcade589	-0.021227615
189	0x3d48099b	0.048837285
190	0xbe121ac6	-0.14268026
191	0x3d981b7f	0.074271195
192	0x3d0f21c4	0.03494431
193	0x3c0947b1	0.008378909
194	0x3e6bd63c	0.23030943
195	0x3e06b160	0.131536
196	0xbe3b29cc	-0.18277663
197	0xbd3c120a	-0.04591564
198	0xbd6e3b7f	-0.05816221
199	0x3d39423f	0.045229193
200	0x3cc01bbf	0.02345073
201	0x3e6bb8c6	0.23019704
202	0xbe00b1e2	-0.12567857
203	0xbd00f9cd	-0.03148823
204	0xbe91f12c	-0.28504312
205	0x3d1f699c	0.038919076
206	0xbd6c13af	-0.05763596
207	0xbd878ce7	-0.06618672
208	0x3deee15e	0.11664079
209	0x3cc95321	0.024575772
210	0xbe5052cf	-0.20344089
211	0x3c4a3ef8	0.0123441145
212	0x3d16120f	0.036638316
213	0xbdc2a202	-0.09503557
214	0xbd1a7315	-0.037707407
215	0xbdbcd25c	-0.0921981
216	0x3deb24f1	0.114816554
217	0x3dfc40da	0.12317057
218	0xbc596188	-0.013267882
219	0xbe4249e6	-0.18973503
220	0x3ba95078	0.0051670633
221	0xbd35ab7c	-0.044352993
222	0xbe052a9e	-0.13004538
223	0xbe3c464c	-0.18386191
224	0xbe253dcc	-0.16136855
225	0xbcc5f908	-0.024166599
226	0x3e05c559	0.13063563
227	0x3d70795c	0.058709487
228	0xbc072e49	-0.008250781
229	0xbc70122a	-0.014652768
230	0xbe00d8ee	-0.12582752
231	0x3d43d2a8	0.04780832
232	0x3cc08f97	0.023505969
233	0xbe26d047	-0.16290389
234	0xbe180be0	-0.1484828
235	0x3dabc83a	0.083877996
236	0x3d9ebda1	0.077510126
237	0x3e9b3a7c	0.30318058
238	0x3e87b310	0.265038
239	0xbdd2fb14	-0.103017956
240	0xbd21abaf	-0.03947037
241	0x3df5a3bc	0.119941205
242	0xbde37150	-0.11105597
243	0xbd9d4d94	-0.076808125
244	0x3e694d2f	0.2278335
245	0xbe5c9133	-0.21539764
246	0x3d6a1a46	0.057153963
247	0x3c76dbc7	0.015067047
248	0x3c467770	0.012113437
249	0x3bd7f27b	0.006590185
250	0x3bb7a647	0.0056045386
251	0x3dce22f1	0.10065258
252	0xbd07ad3b	-0.03312419
253	0xbe44c26e	-0.19214794
254	0xbda1741e	-0.07883476
255	0x3e14d788	0.14535344
